THESIS/transfer_learning/checkpoints/D-MPNN.pt (torch, 558709 bytes, 15 tensors)

encoder_sol.cached_zero_vector f4 [128]
00000000: 0000 0000 0000 0000 0000 0000 0000 0000
00000010: 0000 0000 0000 0000 0000 0000 0000 0000
00000020: 0000 0000 0000 0000 0000 0000 0000 0000
00000030: 0000 0000 0000 0000 0000 0000 0000 0000
00000040: 0000 0000 0000 0000 0000 0000 0000 0000
00000050: 0000 0000 0000 0000 0000 0000 0000 0000
00000060: 0000 0000 0000 0000 0000 0000 0000 0000
00000070: 0000 0000 0000 0000 0000 0000 0000 0000
00000080: 0000 0000 0000 0000 0000 0000 0000 0000
00000090: 0000 0000 0000 0000 0000 0000 0000 0000
000000a0: 0000 0000 0000 0000 0000 0000 0000 0000
000000b0: 0000 0000 0000 0000 0000 0000 0000 0000
000000c0: 0000 0000 0000 0000 0000 0000 0000 0000
000000d0: 0000 0000 0000 0000 0000 0000 0000 0000
000000e0: 0000 0000 0000 0000 0000 0000 0000 0000
000000f0: 0000 0000 0000 0000 0000 0000 0000 0000
00000100: 0000 0000 0000 0000 0000 0000 0000 0000
00000110: 0000 0000 0000 0000 0000 0000 0000 0000
00000120: 0000 0000 0000 0000 0000 0000 0000 0000
00000130: 0000 0000 0000 0000 0000 0000 0000 0000
00000140: 0000 0000 0000 0000 0000 0000 0000 0000
00000150: 0000 0000 0000 0000 0000 0000 0000 0000
00000160: 0000 0000 0000 0000 0000 0000 0000 0000
00000170: 0000 0000 0000 0000 0000 0000 0000 0000
00000180: 0000 0000 0000 0000 0000 0000 0000 0000
00000190: 0000 0000 0000 0000 0000 0000 0000 0000
000001a0: 0000 0000 0000 0000 0000 0000 0000 0000
000001b0: 0000 0000 0000 0000 0000 0000 0000 0000
000001c0: 0000 0000 0000 0000 0000 0000 0000 0000
000001d0: 0000 0000 0000 0000 0000 0000 0000 0000
000001e0: 0000 0000 0000 0000 0000 0000 0000 0000
000001f0: 0000 0000 0000 0000 0000 0000 0000 0000
0.0 0.0 0.0 0.0 0.0 0.0 0.0 0.0
0.0 0.0 0.0 0.0 0.0 0.0 0.0 0.0
0.0 0.0 0.0 0.0 0.0 0.0 0.0 0.0
0.0 0.0 0.0 0.0 0.0 0.0 0.0 0.0
0.0 0.0 0.0 0.0 0.0 0.0 0.0 0.0
0.0 0.0 0.0 0.0 0.0 0.0 0.0 0.0
0.0 0.0 0.0 0.0 0.0 0.0 0.0 0.0
0.0 0.0 0.0 0.0 0.0 0.0 0.0 0.0
0.0 0.0 0.0 0.0 0.0 0.0 0.0 0.0
0.0 0.0 0.0 0.0 0.0 0.0 0.0 0.0
0.0 0.0 0.0 0.0 0.0 0.0 0.0 0.0
0.0 0.0 0.0 0.0 0.0 0.0 0.0 0.0
0.0 0.0 0.0 0.0 0.0 0.0 0.0 0.0
0.0 0.0 0.0 0.0 0.0 0.0 0.0 0.0
0.0 0.0 0.0 0.0 0.0 0.0 0.0 0.0
0.0 0.0 0.0 0.0 0.0 0.0 0.0 0.0

encoder_sol.W_i.weight f4 [128, 147]
00000000: 2637 a6bc f0e0 4c3d 53e7 90bd ee46 8ebd
00000010: 7612 1d3d 6a35 8dbd 9f7e f43b 336a d13d
00000020: 2e01 0abd a064 7fbc 409b f83a 1ca5 72bd
00000030: c4ea 10bd b441 db3c d25e e33d 8624 bbbd
00000040: 42f2 26bd 1870 80bd 9678 2cbd 660f 803d
00000050: 968e a5bc e8f7 5e3c c496 fbbc 5815 9bbd
00000060: 809f 44bb 1451 19bd dcd7 8fbc c5e8 27bd
00000070: 6e4a 8f3d 1842 433d 0d48 96bd 60f7 65bc
00000080: ae24 193d f862 c73c 1d92 c93d 597a 51bd
00000090: 0a67 97bd 24b8 1c3d 5b8e 90bd b764 a0bd
000000a0: 6039 dfbb 4074 443c 4466 a33c b4d1 7ebd
000000b0: c09c 553d 3a03 2e3d 7687 833d 4c0a be3c
000000c0: 6438 853c 60f9 a23c 5c07 1f3d 383d 933d
000000d0: 310d 45bc 102f 9e3c 5ac2 5bbd dfc6 a2bd
000000e0: 0c06 313d b97c 1abd 8088 853a a404 91bc
000000f0: 9cb3 983c 2698 b7bc e095 4bbd 5ffd 8abd
00000100: 4045 8abc 3596 30bd f46b 053d 586b 363c
00000110: 941b 3b3d 7e73 803d 6125 6cbd 509d 903d
00000120: 5c1c dc3c b18f 9cbd 00eb 423d 8049 b5bb
00000130: 28c7 6b3c 30b5 b9bc f4de 013d 5417 913d
00000140: 68a5 373d d8fa 963d dd31 89bd 283c 893c
00000150: b906 a7bd 0092 723a 3c97 473d b6df 67bd
00000160: d879 c33c 347a 603d 8861 773d 8946 83bd
00000170: 8d6d 4ebd 0c7f 373d 1c96 e3bc cdab 5dbd
00000180: cdc1 0ebd acb7 363d 5e05 4dbd 5073 5d3c
00000190: ca73 2fbd 5d4e 9dbd 3ff9 6abc eee7 0abd
000001a0: 49a2 983d f8c8 60bd b9ee 0fbd e81f 953d
000001b0: 921c a8bd 6891 7d3d 3c44 f63c 525f 943d
000001c0: 9f47 2f3d 7e7c 163d 1f92 403d 954d 9bbd
000001d0: ac43 7a3d c8c8 6f3c be1c 06bd 2e61 b23d
000001e0: cd40 2abd 4c61 26bb b975 803c 8a26 a83d
000001f0: c025 1cbb 8c8a 9fbd 439a 713d 9caf 01bb
00000200: 80a7 5f3a 28ff 623d 2045 c43c ef1a 4a3d
00000210: 219a 82bd 6e6f 293d 2562 57bd a87c 9dbd
00000220: 66b0 6dbc 38ef d2bd 7573 c63b 420c be3c
00000230: 7aa9 863d 688b e6bc da14 993d 6057 57bc
00000240: 80a5 80bc 2a3f 80bd c06f bf3b 2e31 6abd
00000250: 71a9 84bd f462 1fbd e3a2 19bd 1051 99bd
00000260: 29f2 8cbb 6824 9d3c bc53 863d 1f04 0ebd
00000270: a259 153d b0b5 1ebd e283 133d 92d5 8e3d
00000280: ca8d 34bd 5767 95bd 7941 72bd 771b 4a3d
00000290: e8cb d93c d827 a73d 7c07 4bbd 6053 d23c
000002a0: 5347 10bd d2cb 0bbd 4089 a63b b42f 8c3d
000002b0: bae7 923d 0a03 b8bc c4ad 87bc f559 62bd
000002c0: 12db 0fbd 3524 89bd 4ffc 37bd d4e9 3fbd
000002d0: c018 40bc 4161 c2bc 947b 9f3c 044f 6dbd
000002e0: c089 b2bc 322e 933d b82f b53c d8b9 3a3c
000002f0: 582d 3dbc 70e1 c8bc e85d 7c3d 1c38 003d
00000300: 107c e6bb 78ba 49bd 283e 523d 1e44 debc
00000310: c8a7 c23c fc7a 593d 3003 5bbd bc03 89bd
00000320: ec28 8cbd e02e 473b 3575 8fbd 7820 883d
00000330: 4a8f 7bbd 1e1c a43d 0302 20bd c78b 95bd
00000340: fac4 cebc 46e3 1abd 8879 2c3d 2000 723c
00000350: f270 4ebd 8060 09bd 106d 17bc ecb1 203d
00000360: e053 4fbd ac50 8bbd 9eca 8d3d 30fd f2bc
00000370: 10b1 4cbc 0226 873d 60f5 5a3d ea56 863d
00000380: 3efc 6abd 5cbe a3bd 96bb 993d ac41 6b3d
00000390: eefe cabc f07d 9bbd 58b6 dcbc 4643 193d
000003a0: d277 933d d17e 5fbd 0cd1 243d 663c 86bd
000003b0: 54cb a83d 08b3 0fbc 8041 1c3c 2ab7 823d
000003c0: 5ef3 43bd e4a3 d53c 50a8 ba3b 0023 de3c
000003d0: 30fc 86bd c8c6 2d3c 9051 a23d 7e95 043d
000003e0: 7a6f 193d 35ea 003b 0fbe 16bd 0826 62bd
000003f0: 31d1 083d 01cd 6bbd 8ea4 77bd bff3 773d
-0.020289969 0.050019205 -0.070753716 -0.069471225 0.038347684 -0.068949535 0.0074613835 0.10225334
-0.03369253 -0.015587956 0.0018967167 -0.05923949 -0.03538014 0.026764728 0.1110207 -0.09137826
-0.04075838 -0.0627138 -0.042107187 0.06252937 -0.020209592 0.01360891 -0.03071154 -0.0757243
-0.0030002296 -0.037430838 -0.017558984 -0.04099347 0.06996618 0.047670454 -0.07337961 -0.01403603
0.037388496 0.024339184 0.09842322 -0.05114207 -0.073927 0.038261548 -0.07058402 -0.0783171
-0.0068122596 0.011990607 0.019946225 -0.062211707 0.05215144 0.042483546 0.064223215 0.02319827
0.01626224 0.019894302 0.038825378 0.07189411 -0.012027071 0.01930955 -0.053652145 -0.07948088
0.043218657 -0.0377166 0.0010187775 -0.017702408 0.018640332 -0.022411417 -0.04970348 -0.06786608
-0.016878724 -0.043112 0.032573655 0.011133991 0.045680597 0.062720284 -0.057652835 0.07061255
0.026868992 -0.076445945 0.047587395 -0.0055324435 0.014390744 -0.022669405 0.031706765 0.070845276
0.044835478 0.073720634 -0.06698964 0.016752318 -0.08155579 0.0009253323 0.048728213 -0.05660983
0.02386181 0.054804042 0.060395747 -0.06409938 -0.050397445 0.044798896 -0.027781539 -0.05411892
-0.03485279 0.044608757 -0.050053947 0.013516262 -0.042835034 -0.07680962 -0.014341651 -0.03391259
0.074528284 -0.05487916 -0.035139773 0.07281476 -0.08208574 0.06190625 0.030061834 0.072447434
0.042792913 0.03673982 0.047014352 -0.07583157 0.061099693 0.014635272 -0.032742254 0.08709942
-0.041565705 -0.0025387583 0.015681135 0.08210476 -0.0023826212 -0.077900976 0.058985006 -0.001978851
0.00085317343 0.055419117 0.023958743 0.049342092 -0.06377054 0.041366033 -0.052583832 -0.07689792
-0.014507389 -0.102995336 0.006056244 0.023199204 0.06575294 -0.028142646 0.0747468 -0.01314339
-0.015703917 -0.062620476 0.005842179 -0.057175808 -0.06477631 -0.03891273 -0.037508857 -0.074861646
-0.0043013287 0.019182399 0.0655894 -0.0346719 0.036462434 -0.03874749 0.036014445 0.06974329
-0.044080533 -0.07295101 -0.05914447 0.0493426 0.026586488 0.081618965 -0.049567685 0.025674522
-0.03522427 -0.034129925 0.0050822794 0.06845036 0.071731046 -0.022462387 -0.01656235 -0.05526157
-0.03512103 -0.06696359 -0.044918355 -0.046853855 -0.011724651 -0.023728015 0.019468106 -0.057936683
-0.0217942 0.071865454 0.02211748 0.011396848 -0.011546455 -0.02452156 0.061612993 0.03130351
-0.0070338324 -0.049250096 0.051328808 -0.02713209 0.023761645 0.053095803 -0.053469837 -0.066901654
-0.06843743 0.003039293 -0.07004777 0.06646818 -0.061415948 0.080131754 -0.03906442 -0.07302051
-0.02524041 -0.0378144 0.04210809 0.014770538 -0.05040068 -0.033539295 -0.009242311 0.03923218
-0.0506171 -0.06802496 0.06923412 -0.029661745 -0.012493387 0.06599046 0.053456664 0.06559546
-0.057369463 -0.079952925 0.07506482 0.057435676 -0.024779763 -0.0759238 -0.026942417 0.037417673
0.07200588 -0.0545643 0.040238425 -0.06554489 0.08241907 -0.008770712 0.009537101 0.06382592
-0.047839515 0.026079126 0.005696334 0.027116299 -0.0659107 0.010606475 0.07925713 0.03236913
0.037459828 0.0019670848 -0.036802348 -0.05521205 0.033402625 -0.057568554 -0.060459666 0.06053519

encoder_sol.W_i.bias f4 [128]
00000000: be27 2bbc 0e80 a0bd 9520 97bd a47a 08bd
00000010: 127c b5bd 6d9f 713d 1fef 92bd c2b3 5cbd
00000020: 6f79 46bd fb2c 3e3d 7954 363d 0737 5f3d
00000030: ad4e 453d 1c89 d7bc 054f 203b fd95 7c3c
00000040: 06ea 96bd c2b5 b9bd c9ac 5dbd 3107 90bb
00000050: dd97 a5bd 2af3 a53d 02c9 153d 4ddc 2d3c
00000060: 8219 39bd 7ccf 323d fa69 523d f976 fc3c
00000070: 447e 5b3b 7d82 2fbc c11f 153d 4474 7ebd
00000080: 622f 06bd 0982 923d ef1e 7bbd ab92 5bbd
00000090: 6181 25bd 4352 ef3c 55c6 7ebd df6c c0bd
000000a0: 6240 573d 1ecf 0cbd f723 47bd b0f6 7fbd
000000b0: 35b7 44bd 9d41 a7bd 20b8 313d 18b6 86bc
000000c0: da61 433d e13d 93bd be69 9ebc 9484 553d
000000d0: 684e 0c3d c691 a8bc 028b 0cbc 6d67 c6bc
000000e0: 3c88 573c 8397 79bc 2d10 743d ce91 b1bd
000000f0: f1af 5b3d cb84 8f3d 9d52 893c b0f1 643d
00000100: 9744 4d3d eb5f 493d b237 f33c d828 79bd
00000110: 16b9 3dbd 2523 f0bc 1fb1 fdbc ae74 3dbd
00000120: 6f0a 633d b004 94bd c256 623d 44f4 9abd
00000130: 81f9 aebc be74 09bc 12d8 7abd 695c 2dbc
00000140: ef8f 023c 8cbf a4bc 6dd5 1e3b 6c13 7b3d
00000150: 0ec2 803d 01fd 8abb eebc 31bd 0f44 69bd
00000160: e754 473d d95c 8b3d 0e04 073d 26c4 2c3d
00000170: 4a6e 88bd 4bec acbd 7a66 0a3d 9edd 7ebd
00000180: 372e 6f3c 417e a4bd c879 f93c 44a7 8cbd
00000190: ce18 513a 59b7 293d 0119 583c a03d 1a3d
000001a0: f41e 1c3c 6d28 123d 7461 523d b7ab 66bd
000001b0: 8eb1 84bd 0e26 6f3d 255d 24bd fad9 943d
000001c0: ac7b 62bd c416 aebc 3740 203c 3e22 97bd
000001d0: bce5 b0bc 948a 4e3d a4ee d1bb 9838 753d
000001e0: 0c40 3ebd 63f6 55bd 46c8 74bd 14bc 5e3c
000001f0: 87ca 373c 9c4d 603d 5b93 883d 3f30 c63c
-0.010446487 -0.078369245 -0.073792614 -0.033320084 -0.08861555 0.05898993 -0.07174515 -0.053882368
-0.04845565 0.046429615 0.044514153 0.054495838 0.048170734 -0.026310496 0.0024461162 0.015416619
-0.07368855 -0.09067871 -0.05411986 -0.0043953885 -0.08085606 0.081030205 0.03656865 0.010611606
-0.04519034 0.043654904 0.0513706 0.03081845 0.0033492008 -0.010712263 0.036407236 -0.0621226
-0.03276003 0.071537085 -0.061308797 -0.05360667 -0.04040659 0.02921403 -0.062200863 -0.093957655
0.052551635 -0.03437721 -0.048618283 -0.06249112 -0.048026282 -0.081668116 0.043388486 -0.016444251
0.04770074 -0.07189537 -0.019337531 0.05212839 0.03425446 -0.020577323 -0.008578064 -0.02421924
0.013155039 -0.015233877 0.05958574 -0.08670388 0.053634588 0.0700775 0.016763026 0.055894554
0.05011424 0.04916374 0.029689644 -0.060829967 -0.04631909 -0.029313633 -0.030968247 -0.046253853
0.055429872 -0.072274566 0.05525852 -0.07566121 -0.021359207 -0.00838965 -0.061241217 -0.010581114
0.007968887 -0.020110868 0.0024236098 0.06129782 0.06287013 -0.004241586 -0.043393068 -0.05694967
0.048664954 0.06804819 0.03296285 0.04217925 -0.06661661 -0.08443507 0.033789136 -0.06222307
0.014598421 -0.080318935 0.030453578 -0.06867841 0.00079764135 0.04143462 0.013189555 0.037656426
0.009528864 0.035683084 0.05136247 -0.056316104 -0.06479178 0.0583859 -0.040127892 0.07268138
-0.055293724 -0.02125109 0.009780935 -0.07379578 -0.02159392 0.050425127 -0.006406622 0.059868425
-0.0464478 -0.052236926 -0.059761308 0.013594646 0.01121772 0.054761514 0.06668731 0.024192927

encoder_sol.W_h.weight f4 [128, 128]
00000000: 8e35 a93d ed96 7ebd f027 64bc fd83 583c
00000010: a392 353d 2ae7 94bd de06 b13d e161 77bd
00000020: f883 833d cd14 3b3d 5ae9 1f3c dffb aabd
00000030: 5480 a83c db72 19bb 5a77 9b3d 73d5 c13c
00000040: 568c a6bd a6fb 783d 8dd3 653d d2f2 7ebd
00000050: b453 963d e44f 8abd ac99 313d 49ff a0bd
00000060: c8e9 7bbd a27b a0bd bb7d 8bbd f5f0 dd3b
00000070: c992 c33d e960 bebd d6aa 6dbc 869b 17bd
00000080: 4894 843d 02d4 073d ab72 ec3c 9111 a13d
00000090: ea41 6dbb 2cd8 683d de15 9d3d bdbe 1739
000000a0: b724 b1bb d0b0 81bd 06d9 023d 8ecb ffbc
000000b0: 36c0 173d ed05 f83b cded 74bd 4861 8bbc
000000c0: fb46 083d 638e b6bb 0b58 33bc e72e 713c
000000d0: 3fd8 8bbc 9512 203a b63c 02bc 6a7d ba3d
000000e0: 5705 bb3d 6df3 b13c 99b9 a0bc bfbc 67bd
000000f0: 33e9 ab3d ef23 433c 1902 0abd 5945 b1bd
00000100: a25f 493d 4b6b bbbc 8d17 58bd dafc 60bd
00000110: 1de9 52bc f631 7c3d 377f 823b 7c67 ba3b
00000120: 64cb b4bd 513b 3abc 6fdf 94bd 9dde af3c
00000130: f88d 4d3c 346e ca3c 513c 203d a9c8 bd3b
00000140: 567e 803d 77c0 e6bc 1392 5cbd b23c 22bd
00000150: 6eb8 64bd 1b49 7b3d e535 3b3c f170 3bbd
00000160: 8a53 2e3d 4dcf b0bd 49f4 5dbd 0e00 bbbd
00000170: 1059 65bd 39dc 683c 7da2 d43d 7c79 c0bd
00000180: 13e2 6c3d b6a1 133d 9e26 00bc 553b 343d
00000190: deb1 c23c 71f1 983c e1d2 2f3c 3558 9cbd
000001a0: a41c 2fbd 627a 9bbd 7894 b9bd 76bb abbd
000001b0: 0c5b c83c 9dbf 923d b9dc 493c 9cd0 2ebd
000001c0: 6b6f 903c b022 95bc 0163 95bd bb0e 9d3d
000001d0: 09b0 373d 622f 3fbd 3a19 f43c 6bed 663d
000001e0: d905 723d 1d09 adbd f05f be3d cb23 27bd
000001f0: 388a c63c 5c07 033d 32fd 92bd ed64 273c
00000200: 3142 0b3c c307 66ba c6ab 333c 3183 053d
00000210: 18a1 b4bd 4a22 9639 0979 ac3d 1adc b4bd
00000220: 9a1c a93a af79 853d c38c 41bc a5c6 653d
00000230: 189b adbd c5d5 17bd 8f45 843d 10eb 28bd
00000240: 3225 9a3d 1cf2 5f3d e343 a4bd 7ec4 783c
00000250: b8e7 4fbd e6f0 89bd 379a a1bd 209d 933d
00000260: e5f1 2fbd f908 043c 00d3 a8bd 7bca 9ab8
00000270: 41cd a2ba 06f0 6e3d 418d 023d 842d 8ebd
00000280: 8265 403d 262e 3ebd edf2 3cbc 560b 9cbd
00000290: 67ef adbd dc57 6a3d 55d3 5abd 7b01 f63c
000002a0: 983c 90bd ac8f 773d f540 283d 7290 0e3d
000002b0: 4041 b53d b830 ca3c e1ac 47bd 5100 8fbc
000002c0: a984 f7bc 6f86 a63d d9a1 acbc 6487 20bd
000002d0: 6960 bdbc ec7a 0a3c 8bf6 9ebd c75f 52bd
000002e0: f254 91bc 5e6f 7dbd 3ed3 0a3d e1ed d23c
000002f0: 3d80 65bc 8251 9d3d d6d9 a43d 94ee 00bd
00000300: f28d 16bd 51f1 8cbd d026 0cbd ea1f 913d
00000310: e16b 08bc 9c31 0a3d d27c 3e3d 1bdb 4a3d
00000320: 87c8 493d f3bd 9cbd 40bc 18bd 172e dd3c
00000330: aa34 243c 1fd2 96bd 6ffe aabd 647a 6abd
00000340: 25ec c33d fb40 db3c e4f9 b8bc ecdb 523d
00000350: 63a2 c43c 5e52 563c bd76 82bd 15eb 6ebd
00000360: 6297 39bc b7e3 c43c 108a d13c f2e1 b83c
00000370: f2e5 053d 0ede 753d 9b9d 9cbd 6de4 9dba
00000380: 1632 21bc 257c 563d d85b 9ebb 7caa 163d
00000390: c531 7d3d 5db4 953c 9168 42bc c0bd b9bd
000003a0: c5dd 8dbd afd4 d03b 5d1a 7b3c 1140 1e3d
000003b0: 2630 653d 8c74 383c 5fdf a63d cdd3 3dbb
000003c0: c41e 91bd af19 90bd 6fa3 83bd 6744 b43d
000003d0: 9004 83bd 6dee 57bc 73b2 4d3d d426 3ebc
000003e0: 21e2 39bd 4653 10bd 316e a93d 2e8b 38bd
000003f0: a0a5 81bd 4154 023d eddb 223d acbd 953c
0.08262168 -0.062155653 -0.0139255375 0.013215062 0.044329297 -0.072706535 0.08643888 -0.06039608
0.064216554 0.045674134 0.009760225 -0.08348822 0.020569004 -0.0023414406 0.07591124 0.02366135
-0.08132236 0.060786866 0.056109954 -0.06224329 0.07340184 -0.06753519 0.043359444 -0.07861192
-0.061502248 -0.07836081 -0.068110906 0.006773109 0.095494814 -0.09295828 -0.0145060625 -0.037013553
0.06473595 0.03316117 0.028863272 0.07864679 -0.0036202618 0.056846783 0.076701865 0.00014471538
-0.005405988 -0.063325524 0.03194525 -0.031224992 0.03704854 0.007569066 -0.059797097 -0.01701416
0.033270817 -0.005571173 -0.010946284 0.014720655 -0.017070888 0.00061062846 -0.007949045 0.09105952
0.09131878 0.02172252 -0.01961975 -0.056576487 0.083940886 0.011910423 -0.033693407 -0.08655805
0.04916347 -0.02287831 -0.052756835 -0.054928638 -0.012872961 0.061571084 0.0039824503 0.005688606
-0.08827856 -0.011366681 -0.07269179 0.021468455 0.012546055 0.024710752 0.039120022 0.005791743
0.06274097 -0.028167946 -0.053850245 -0.039608665 -0.05583995 0.061349016 0.011426424 -0.045762006
0.042560138 -0.086332895 -0.054188047 -0.0913087 -0.05599314 0.014212661 0.10382555 -0.09398171
0.05783279 0.03604289 -0.007821707 0.044001896 0.023766454 0.018669816 0.01073143 -0.07634012
-0.042751923 -0.07591702 -0.09061521 -0.08385365 0.024457477 0.071654536 0.012320691 -0.042679414
0.017631253 -0.018205017 -0.07294274 0.07668825 0.044845615 -0.046676047 0.029797185 0.056378763
0.059087608 -0.08449004 0.092956424 -0.04080562 0.02423583 0.03198944 -0.071771994 0.010216934
0.008499668 -0.00087749603 0.010966247 0.032595817 -0.08819789 0.00028635777 0.08421523 -0.088310435
0.0012902201 0.0651735 -0.011813345 0.056097645 -0.084768474 -0.0370691 0.0645858 -0.041239798
0.07526626 0.054674253 -0.08020761 0.015183566 -0.050758094 -0.06735401 -0.07890742 0.072077036
-0.042955298 0.00805878 -0.0824337 -7.381007e-05 -0.001242079 0.058334373 0.03187299 -0.06942275
0.046971805 -0.04643073 -0.011532527 -0.0761935 -0.08492928 0.057212695 -0.0534242 0.030030003
-0.07042807 0.06043975 0.041077573 0.034805723 0.08850336 0.024681434 -0.048748855 -0.017456206
-0.030214624 0.0813111 -0.021073269 -0.03919162 -0.023117261 0.008452158 -0.07761868 -0.05136087
-0.0177407 -0.061873786 0.033892862 0.025748195 -0.014007625 0.07681562 0.080493614 -0.031477526
-0.036756463 -0.06881965 -0.034216702 0.07086165 -0.008326502 0.033738717 0.046505757 0.04952536
0.049263503 -0.076534174 -0.037288904 0.026999516 0.010022322 -0.07364296 -0.083493106 -0.057245627
0.09566525 0.026764384 -0.022580095 0.051479265 0.024003213 0.013081161 -0.06370304 -0.05832966
-0.011327596 0.024034364 0.025578529 0.022568677 0.032689996 0.06002622 -0.07647248 -0.0012046226
-0.009838602 0.052364487 -0.004832726 0.03678368 0.061815042 0.01827448 -0.011865751 -0.09069395
-0.06927065 0.00637301 0.01532611 0.038635317 0.05595412 0.011258256 0.081480734 -0.0028965354
-0.07085946 -0.07036149 -0.06427657 0.08802109 -0.063973546 -0.013179404 0.05021901 -0.011605937
-0.04538167 -0.035235666 0.082729705 -0.045054607 -0.063304186 0.031818632 0.03976052 0.01827892

encoder_sol.W_h.bias f4 [128]
00000000: bc0e bcbb e344 293d ac19 dd3c 43b7 8dbd
00000010: 0673 b1bd 47c8 123d f257 5abd 932f 98bd
00000020: 9f05 a4bd a688 8bbd da75 5ebc b133 0b3d
00000030: 0935 bbbd 17f9 e0bc b9d3 3f3d 6acd 55bd
00000040: 81f1 753d dc5d 3ebc af0a 8e3d 93b6 353d
00000050: 7244 6e3d 2552 42bd f125 063d d2fc 7f3d
00000060: 5a83 243b ce14 9d3d a54e 953c 413d 133d
00000070: 0be5 34bd df25 433c 76a8 443d 015f 5a3c
00000080: 036b 75bd 0299 fdbc 3ef6 3e3d aadb d1bc
00000090: b78f 973d 339e 083c 678a 04bd 1181 a8bd
000000a0: db16 923d 079b 58bd 4a1b 9cbd 8b73 673d
000000b0: 519d 583d b9b8 27bd e74f 153d 23d2 eabc
000000c0: 0bc9 653d 3dfd a5bb de40 55bc 6e14 603c
000000d0: 8e11 163c 0b41 59bd 498e 933d ecde babc
000000e0: 6b38 b3bd 366b 9ebd 104a a63d 3e61 94bc
000000f0: 427d 9dbd 7443 733d 7c04 ccb9 f02c 43bd
00000100: 566d 9dbb df8a 383d 7fdb 9abc e262 38bd
00000110: 564d 043d fee7 f3bb 0be6 9dbb a539 543c
00000120: 7b29 953d c8c3 fdbc c152 41bd 849d 953d
00000130: 5aa0 b2bc b2cd 493c c179 073d 6f2d 8f3c
00000140: cd02 b5bd d9b0 37bd f3d8 fe3c 8e89 8dbd
00000150: 8131 93bc 6ef3 a93c 0733 82bd 760f ae3c
00000160: d935 0abd 4973 a0bd 5e1f 24bd a252 e93b
00000170: b588 b0bb 8100 acbd fab2 99bd 9cf4 99bc
00000180: 0ae3 213d 48bf 573d 21ca 82bb 23ba e83c
00000190: b1e8 eebc 4fde 213c 43e6 78bd 44e2 70bd
000001a0: ba06 c2bc c992 59bc e114 2abd 200e 7b3c
000001b0: 6c2a 043d 5c72 31bd ef8c 253c d333 c03c
000001c0: 20c7 3bbd e0fb 69bd f590 97bd 812a 72bd
000001d0: 6dce 7fbc b14a f4bc ac26 63bd 55d3 59bd
000001e0: 24e4 a53b 7b51 a83d 0c1f 84bd 949d 2bbd
000001f0: 8b5c 743d 9483 23bb fd23 a9bc b48c c2bc
-0.005739061 0.04132546 0.02698978 -0.0691972 -0.08664517 0.03583553 -0.053306527 -0.07430949
-0.08008885 -0.06813173 -0.013577903 0.033984844 -0.09140975 -0.027462525 0.046832774 -0.05219785
0.06004477 -0.0116190575 0.069356315 0.04436357 0.058170743 -0.04744162 0.032751027 0.062496968
0.0025102706 0.07669984 0.018225977 0.03594709 -0.044163745 0.011910885 0.04801222 0.013328315
-0.059916507 -0.030956749 0.046621554 -0.02561744 0.07400458 0.008338499 -0.032358553 -0.082277425
0.071332656 -0.05288222 -0.076223925 0.056506675 0.052884404 -0.04094765 0.036453154 -0.028664654
0.056099933 -0.0050655887 -0.013015954 0.013676746 0.009159459 -0.053040545 0.07204873 -0.022811376
-0.08750995 -0.077352926 0.08119595 -0.018112775 -0.07689907 0.0593905 -0.00038913253 -0.047650278
-0.0048042936 0.045054313 -0.018903492 -0.045016177 0.032300316 -0.007443427 -0.004818683 0.012953197
0.072833024 -0.030977145 -0.04719806 0.07305434 -0.021804977 0.012317108 0.033075098 0.01747772
-0.08838425 -0.04484639 0.031109309 -0.06911002 -0.017967941 0.02074596 -0.06357389 0.021247607
-0.03374276 -0.07834489 -0.040068977 0.0071204463 -0.0053873905 -0.083985336 -0.0750484 -0.018793397
0.039523162 0.052672654 -0.003991381 0.02840907 -0.02916369 0.009879663 -0.06076647 -0.058809534
-0.023684848 -0.013279625 -0.041523818 0.015323192 0.03226702 -0.043321952 0.010104402 0.023462212
-0.045844197 -0.057124972 -0.07400695 -0.059122566 -0.015613181 -0.029820772 -0.055456802 -0.053180058
0.005062597 0.08218666 -0.06451234 -0.041898325 0.05965857 -0.0024950253 -0.020647043 -0.023748733

encoder_sol.W_o.weight f4 [128, 261]
00000000: 3895 483c 2e03 c6bc 3034 ed3c 1e1e 28bd
00000010: 9665 333d d753 4a3d 0cfa 1cbd 75be 7fbc
00000020: 515f 8a3d 42ae 573d 9061 0fbb 340d 0dbc
00000030: 087a 673c dc86 65bd e8ab 88bb 3016 d03c
00000040: 36f9 373d ed11 4ebd a84e 3cbd 38e0 4ebc
00000050: 7cd4 ddbc f822 d53c a020 eabb 48a3 1abc
00000060: 804a 55bb c8cd ab3c 1e15 623d d87d 1e3c
00000070: d6f3 3c3d 04be f73c 9a93 3f3d d648 013d
00000080: 5897 ac3c cc1e a73c c422 be3c 484f 383c
00000090: 8c45 8d3c 5e58 4d3d 60ea 88bb 045e 823c
000000a0: 60d3 1e3b ae60 1e3d e0ea be3c 4024 7c3c
000000b0: 7cc3 f23c c4fb e0bc 1837 743c 244f 4d3d
000000c0: bead 00bd 4842 d13c 3010 5dbd 5abd 92bc
000000d0: 2abb 5e3d 9277 27bd 3aac 58bd 9264 31bd
000000e0: ac9d 6b3d 6850 543c de3f 623d e0cb 82ba
000000f0: aa05 503d 107c 31bb 1aab 89bc 485e e83c
00000100: fe80 223d 50ff 903c e00a 403b 4cb3 2abd
00000110: 0cac fd3c 6c46 c63c c4ce 9cbc b407 853c
00000120: 50aa ff3c 6023 7d3c 0c87 833c 3c17 103d
00000130: 1c81 b53c 19cb 7cbd 1898 bc3c 66d9 0e3d
00000140: aa8b f2bc 88e9 e0bc 8c38 27bd a823 173d
00000150: 0420 8dbc 9cec 83bc 9a05 74bd 52a9 0dbd
00000160: eca8 ce3c aab8 4f3d 2043 903c d834 f03c
00000170: 5c9c cb3c 8259 0e3d d0a2 e63c 0006 4a3c
00000180: d4ee 50bd a478 7a3d 2420 adbc fc78 63bd
00000190: dae4 a0bc d00a 87bc b9f4 993c 508d 5cbd
000001a0: 7cee 333d 1a67 e5bc 3819 013c d58d ffbc
000001b0: 4e9b 1f3b a010 153c 2379 09bc 7043 54bc
000001c0: f475 43bc 3806 f5bc c378 82bd 40f4 043a
000001d0: ba36 28bd bcb0 163d e6db 4dbd 4bc1 213d
000001e0: 7ac8 29bd aa0b 35bd e1cd 283c d6f5 213d
000001f0: ba16 13bd 31e6 283d e2f2 ccb9 1d60 71bc
00000200: 781e 3dbd 438a 58bd 209d 953b a964 1bbd
00000210: 02b6 31bd 874f f2bc 6f11 99bc 0896 4f3d
00000220: 9eff b4bc 7c3d 433d 249f febc 3dab 32bd
00000230: e2fc a13d a048 e3bc 1629 263d 4d72 10bd
00000240: f390 60bd a87d 45bd 34a4 79bc 0e27 633d
00000250: 4c9c 5ebc f556 e8bb 25d7 1d3b 2276 c93c
00000260: 2972 3dbd 6b3a 4e3c 11ed 0f3c 8ea8 463d
00000270: 4238 64bd e215 303d 35b4 353d c969 a1bc
00000280: 26d6 24bc d46a 923c c84e 02bb 5e0e 1abd
00000290: 3e92 723d b651 e13c 497a 6dbd 354e 1dbd
000002a0: e334 4abd 27ed 20b9 5a5b f13c 30d4 433c
000002b0: 6cb4 28bd 1579 8abb 4e22 22bc 0b55 96bc
000002c0: 7b4d 07bd aa67 c8bc e80e fcbc 9971 01bd
000002d0: 8c5e a63c d17d a33c 6942 b83a 44c7 63bc
000002e0: 0e44 48bd b510 04bd 3d86 0a3c 8f8f 24bc
000002f0: 6d2f 663d dc6d 14bc a9b1 673c 7258 a13b
00000300: 06e7 51bd f8a8 243c 1fc8 7cbd ab73 d5bc
00000310: e199 4dbd 5422 66bd 131a e43c 6bf0 e83b
00000320: 677a 303d fd80 e33c 8bff a7bb 5b4e e2bc
00000330: 7873 4dbd 5f8d fcbc 1a88 403d 42ca 84bd
00000340: 6cc1 edbc 3c03 61bd 58aa 0a3d 7777 75bd
00000350: 2db1 02bd eda0 6ebd 242f efbc df77 a43c
00000360: 21e6 21bd 2601 503d c744 133d f2ab d83c
00000370: edcb 3839 5ee2 963c 2ae7 89bc 2e05 febb
00000380: 1232 2d3d 65a5 beba 8699 e53b 03c7 54bd
00000390: 1ff5 373c 658c 65bc 86cd 86bd c0a2 3f3d
000003a0: cd7a dd3c 574e 413d 3dbb 57bd 7f51 95bc
000003b0: fec7 293d 261e 69bd 6ede eb3c 6a9d 18bd
000003c0: a4d6 34bd 2d49 7cbd 4de7 31bc c268 463d
000003d0: 667c 093d 48a4 35bc 2f36 aebc 064e f03c
000003e0: 005d ab3a 5543 46bd 829b 88bd 9393 8cbb
000003f0: 2ced 683d 1ef7 51bd b1ad f13c 1b32 0bbd
0.012242608 -0.024171438 0.028955549 -0.041044347 0.04379805 0.049396362 -0.0383244 -0.015609373
0.067564614 0.05265642 -0.002187822 -0.008609105 0.014128216 -0.056036815 -0.0041708834 0.025401205
0.0449154 -0.050310064 -0.04597345 -0.0126267 -0.02707886 0.026017651 -0.0071450025 -0.009438343
-0.0032545626 0.020972148 0.05519592 0.009673558 0.046130978 0.030241974 0.046771623 0.031563602
0.02106826 0.020400427 0.023209937 0.011249371 0.017245077 0.0501331 -0.0041783303 0.01591397
0.0024234876 0.03866642 0.023305357 0.015389502 0.02963423 -0.027463801 0.0149057135 0.050124303
-0.031415693 0.0255443 -0.053970516 -0.017912555 0.054377712 -0.040885516 -0.052898623 -0.043308802
0.057523414 0.0129586235 0.05523669 -0.0009978972 0.05078665 -0.0027082004 -0.01680522 0.02836527
0.039673798 0.017699867 0.0029303357 -0.041674897 0.030965827 0.024203502 -0.019141562 0.016239025
0.031209141 0.015450329 0.016055606 0.035178408 0.02215629 -0.061717127 0.023021743 0.034875296
-0.029607613 -0.027455106 -0.04082541 0.03689924 -0.01722718 -0.016104035 -0.059575655 -0.034585305
0.025227033 0.05071322 0.017610133 0.029322073 0.024854831 0.03475333 0.028153807 0.012330532
-0.051009014 0.061150208 -0.02113349 -0.0555353 -0.019640375 -0.016484648 0.01879345 -0.053845704
0.04392861 -0.028003264 0.007879548 -0.03119556 0.0024354043 0.009098202 -0.008390698 -0.0129555315
-0.011929978 -0.029910192 -0.0637069 0.00050717965 -0.041067816 0.03678964 -0.05025854 0.03949098
-0.041450955 -0.044200577 0.010302992 0.039541088 -0.035910346 0.041235153 -0.00039090874 -0.014732388
-0.046171635 -0.05286623 0.00456585 -0.037937794 -0.043386467 -0.029578937 -0.01868507 0.05068019
-0.022094544 0.047666058 -0.031081744 -0.043620337 0.07909562 -0.027744591 0.040566526 -0.035265256
-0.054825734 -0.04821554 -0.015236903 0.055457167 -0.013587069 -0.007090444 0.0024084535 0.024592463
-0.04625145 0.01258717 0.008784548 0.04850059 -0.055717714 0.04298962 0.044361312 -0.019703763
-0.010060823 0.017873205 -0.0019883383 -0.037611358 0.0592215 0.027504783 -0.05797795 -0.038404662
-0.049366843 -0.00015347135 0.029462505 0.011952445 -0.04118769 -0.00422586 -0.009895874 -0.018351099
-0.033032876 -0.024463493 -0.030768827 -0.031602476 0.020308755 0.019957455 0.0014057878 -0.013902489
-0.048893027 -0.032242496 0.008454856 -0.010043993 0.056197572 -0.009059396 0.014141479 0.0049238736
-0.05124571 0.010050051 -0.061714288 -0.026056131 -0.05019558 -0.05618508 0.027844464 0.007108738
0.043085482 0.027771467 -0.0051268986 -0.027625253 -0.050158948 -0.03082913 0.047004797 -0.0648389
-0.029022895 -0.054934725 0.03385386 -0.059928384 -0.03190725 -0.05825894 -0.029197283 0.02007669
-0.03952611 0.050782345 0.035954263 0.026449177 0.00017623576 0.018418487 -0.01683386 -0.0077520823
0.04228408 -0.0014545141 0.007006827 -0.051947605 0.011227875 -0.014010523 -0.06582169 0.04678607
0.027036095 0.04719385 -0.0526688 -0.018227337 0.041450493 -0.056913517 0.028792586 -0.037259497
-0.04415001 -0.061593223 -0.010858369 0.04843975 0.0335659 -0.011086531 -0.021266071 0.02933408
0.0013073981 -0.048404057 -0.06670286 -0.004290053 0.05686681 -0.05126106 0.029501768 -0.03398333

encoder_sol.W_o.bias f4 [128]
00000000: a190 5f3c e060 2e3d 59c6 fb3c 36bd 483d
00000010: 3219 4bbd a0a7 dfbb 90b0 dfbc 410d 05bb
00000020: 3bd6 753d 700d 283d 0d3c 913d 49ac 11bc
00000030: 5386 35bc 9056 3ebb ee74 d7bc 1a08 693d
00000040: 57bb cc3c 50ca 673b 1a05 433d dd48 223d
00000050: a910 403c e0db 22bc ffe9 70bd c836 2cbd
00000060: 0828 dc3c 7ccd 3a3d a996 c1bc a7ae 58bd
00000070: 06be ddbc 79fa 763c 160f ea3b 8344 cabc
00000080: ebcc 803d 67e5 503c 154b 52bd 250d 14bd
00000090: 763f 173c 7fbc 26bb 5414 8b3b dd5b dabc
000000a0: 34ad c4bc 42dd 3abd 267f 743d 5d7e 87bd
000000b0: ee20 373c a131 643d 6594 56bd 0cdb a7bc
000000c0: feff 3f3d 24b6 8cbd 6678 98bc 6026 0abd
000000d0: de7d a0bc 7d51 893d f2e5 a23c 96ae 193d
000000e0: f42a 81bd a144 61ba 88ad 6b3d 1d3e 6a3d
000000f0: f1e5 653c 0433 abbc 709e 17bd bd8c 893c
00000100: bc13 adbc ab69 903b 7090 06bd 82f2 273d
00000110: c1ed 83bc 7259 01bd b1da 803d c1a8 46bc
00000120: f91a 343d 86fc 953c 6760 cb3c 3970 693d
00000130: df9a 003d 79ae 873c 54ae 2d3d cbef e33c
00000140: 1c7d 8b3c c958 20bd 090c 61bd 58ae 883c
00000150: 4d8b 71bd 3064 07bd 7fff 80bc d57c 60bd
00000160: 8b59 8abc b078 25bd b3ad 62bd 869d d4bc
00000170: a015 873c e587 0e3d 04f2 923c 8b1b 733d
00000180: b9e7 5c3c 9e7d 353d 5e60 423b 3a9b d73b
00000190: 0d46 693d 5d3c f4bc 2ea0 3b3d fdb3 77bd
000001a0: bad2 3b3d 8345 95bc bb66 733b bc6a f9bc
000001b0: 556e 21bd b2de 01bd 20fe 193d 0987 0e3d
000001c0: 1e8f 853d 1fab afbc c673 383c ced9 0c3c
000001d0: 3411 043b cb04 04bd d8ab 0fbc 3df3 d4bc
000001e0: b9a6 3dbd f6aa 3bbb 945a 323a bd8d eebc
000001f0: f6a3 66bd 0631 193c c6cd 74bd 73a8 19bc
0.013645322 0.042572856 0.030734228 0.04900857 -0.049584575 -0.0068254024 -0.027305871 -0.002030209
0.06001876 0.04102844 0.07091532 -0.008891174 -0.011079389 -0.0029043294 -0.026300874 0.056892492
0.024991674 0.003536839 0.047612287 0.03962027 0.011722722 -0.009940118 -0.058816906 -0.04204443
0.026874557 0.04560612 -0.02363141 -0.052900936 -0.02706815 0.015074366 0.0071429117 -0.024690872
0.06289085 0.012750006 -0.051341135 -0.036145348 0.009231439 -0.0025441942 0.0042443667 -0.026655132
-0.024008371 -0.045621164 0.05969157 -0.06615899 0.011177285 0.055711392 -0.052387614 -0.020490192
0.046874993 -0.06870678 -0.018612098 -0.033728004 -0.019591268 0.06704996 0.019885037 0.037520014
-0.06307021 -0.00085932954 0.05753854 0.057188142 0.014031873 -0.02089835 -0.037016332 0.016790742
-0.021127574 0.004407128 -0.03285259 0.041002758 -0.01610458 -0.031579442 0.06291712 -0.012125195
0.043971036 0.01830889 0.024826242 0.05699179 0.031397697 0.016562687 0.04240258 0.027824303
0.01702743 -0.039147172 -0.05494312 0.016684696 -0.05897074 -0.03305453 -0.01574683 -0.05480655
-0.0168884 -0.0403983 -0.055341434 -0.02595402 0.016489804 0.034797568 0.017937668 0.05935244
0.013482981 0.04430925 0.002965949 0.0065797837 0.05695157 -0.02981394 0.045807056 -0.060474385
0.04585526 -0.018221622 0.003714009 -0.030446403 -0.03941186 -0.03170652 0.037595868 0.03479675
0.06521438 -0.021443902 0.011258071 0.008596851 0.0020151855 -0.032231133 -0.008768998 -0.025994891
-0.046301577 -0.0028635836 0.00068036583 -0.02912032 -0.05630871 0.009350067 -0.059766553 -0.00937854

encoder_solv.cached_zero_vector f4 [128]
00000000: 0000 0000 0000 0000 0000 0000 0000 0000
00000010: 0000 0000 0000 0000 0000 0000 0000 0000
00000020: 0000 0000 0000 0000 0000 0000 0000 0000
00000030: 0000 0000 0000 0000 0000 0000 0000 0000
00000040: 0000 0000 0000 0000 0000 0000 0000 0000
00000050: 0000 0000 0000 0000 0000 0000 0000 0000
00000060: 0000 0000 0000 0000 0000 0000 0000 0000
00000070: 0000 0000 0000 0000 0000 0000 0000 0000
00000080: 0000 0000 0000 0000 0000 0000 0000 0000
00000090: 0000 0000 0000 0000 0000 0000 0000 0000
000000a0: 0000 0000 0000 0000 0000 0000 0000 0000
000000b0: 0000 0000 0000 0000 0000 0000 0000 0000
000000c0: 0000 0000 0000 0000 0000 0000 0000 0000
000000d0: 0000 0000 0000 0000 0000 0000 0000 0000
000000e0: 0000 0000 0000 0000 0000 0000 0000 0000
000000f0: 0000 0000 0000 0000 0000 0000 0000 0000
00000100: 0000 0000 0000 0000 0000 0000 0000 0000
00000110: 0000 0000 0000 0000 0000 0000 0000 0000
00000120: 0000 0000 0000 0000 0000 0000 0000 0000
00000130: 0000 0000 0000 0000 0000 0000 0000 0000
00000140: 0000 0000 0000 0000 0000 0000 0000 0000
00000150: 0000 0000 0000 0000 0000 0000 0000 0000
00000160: 0000 0000 0000 0000 0000 0000 0000 0000
00000170: 0000 0000 0000 0000 0000 0000 0000 0000
00000180: 0000 0000 0000 0000 0000 0000 0000 0000
00000190: 0000 0000 0000 0000 0000 0000 0000 0000
000001a0: 0000 0000 0000 0000 0000 0000 0000 0000
000001b0: 0000 0000 0000 0000 0000 0000 0000 0000
000001c0: 0000 0000 0000 0000 0000 0000 0000 0000
000001d0: 0000 0000 0000 0000 0000 0000 0000 0000
000001e0: 0000 0000 0000 0000 0000 0000 0000 0000
000001f0: 0000 0000 0000 0000 0000 0000 0000 0000
0.0 0.0 0.0 0.0 0.0 0.0 0.0 0.0
0.0 0.0 0.0 0.0 0.0 0.0 0.0 0.0
0.0 0.0 0.0 0.0 0.0 0.0 0.0 0.0
0.0 0.0 0.0 0.0 0.0 0.0 0.0 0.0
0.0 0.0 0.0 0.0 0.0 0.0 0.0 0.0
0.0 0.0 0.0 0.0 0.0 0.0 0.0 0.0
0.0 0.0 0.0 0.0 0.0 0.0 0.0 0.0
0.0 0.0 0.0 0.0 0.0 0.0 0.0 0.0
0.0 0.0 0.0 0.0 0.0 0.0 0.0 0.0
0.0 0.0 0.0 0.0 0.0 0.0 0.0 0.0
0.0 0.0 0.0 0.0 0.0 0.0 0.0 0.0
0.0 0.0 0.0 0.0 0.0 0.0 0.0 0.0
0.0 0.0 0.0 0.0 0.0 0.0 0.0 0.0
0.0 0.0 0.0 0.0 0.0 0.0 0.0 0.0
0.0 0.0 0.0 0.0 0.0 0.0 0.0 0.0
0.0 0.0 0.0 0.0 0.0 0.0 0.0 0.0

encoder_solv.W_i.weight f4 [128, 147]
00000000: 7ee7 283d b007 7ebd 86d6 37bd 7883 53bc
00000010: 54a5 793d 77df 84bb 974f 573d 86da 42bc
00000020: 8571 b0bd 746f 353d 7c01 5e3d 624f b7bc
00000030: 3c29 c23c 28a5 7d3d eace 113e 4785 be3c
00000040: 4520 72bd b475 be3c 004f d33a 6e4a 033d
00000050: 4e15 823d e465 823d 35cc 3ebd 9026 b83c
00000060: e333 12bd 46ca 933d 64e6 6cbd 207f cbbb
00000070: 64fb fb3c 748f 86bc 0ca2 1c3d 2af0 9d3d
00000080: 407e 223b 2c29 603d 5201 203d 38e1 163c
00000090: 602a 623b a88c a8bd 988a 6b3d c084 c63b
000000a0: 3327 95bd 0064 1dbb e06e d5bb 603b 803c
000000b0: 58db c9bc b624 1c3d 655c 44bd f4da 10bd
000000c0: 8c9f 853c f65e 25bd 2099 8dbc 7546 13bd
000000d0: cdad 86bd dc5c 76bd f270 903d b0b7 103c
000000e0: b043 a63c 0050 37b9 c0df af3b 9c57 673d
000000f0: e7b3 a3bd 90e6 4fbd c8b8 0a3c c8c6 79bd
00000100: 2141 92bd 1086 f1bb 3c77 ec3c d406 173d
00000110: c0aa d2ba c7eb 33bd 107e 923c 78ef 8fbd
00000120: b462 7c3d 2484 debc e0fd 0fbb a1d9 8abd
00000130: 80b6 993a 0098 643b 1267 163d d558 17bd
00000140: f16c 8dbd 9009 a13b 16ab 023d e5c0 15bd
00000150: 002a 2239 2631 273d f0cb debb 9e5f 3cbd
00000160: 203a 8b3b 90ad b0bc 182d 92bd 5dce 3cbd
00000170: d0cd 6b3c f0e8 4e3d 3e8a 1fbd 54ae a63c
00000180: 33d9 01bd 5eb6 31bd 70da 9c3d 2c4c eb3c
00000190: 0e3f 70bd f00e 493c f513 6f3d c848 7a3c
000001a0: 8266 b83c 133f e7bb 5052 823d 0037 a73c
000001b0: 4339 3bbd 9c17 cb3c 7c04 febd f045 8fbc
000001c0: 9847 cdbc 7b6d 25bd 550b dd3c 280b 1cbc
000001d0: 0c07 cb3c 60e9 5bbb 784e 503c 7e69 2bbd
000001e0: 4db7 883c a254 37bd aaaf 83bc 705e 673d
000001f0: e205 813d a804 7e3d 9e07 273d ef5f f93c
00000200: e0c5 aa3b 90a0 a23d e4c3 5a3d ab36 ab3d
00000210: e27a ba3c 2e0e 23bd f8fd f5bc cd38 e33d
00000220: 26f7 b23b 289a 4bbd b23f 903d dc56 463d
00000230: 35d3 1abd 0937 99bd e62f e3bc a013 053d
00000240: 3256 21bd 0613 913d b8ef e63c 58b0 b83c
00000250: 34e3 7d3d d062 413d bcb5 1abd 4912 32bc
00000260: af21 443d 886d 833d c05f d9bb 4d17 a1bd
00000270: acee 223d 22e6 063d dc0a 693d ccad 2f3d
00000280: cc1d b0bc 4c91 883c a9b6 91bd 0f6c 9cbd
00000290: 4874 b33c 8b15 2abd 5062 7c3d ece5 3b3d
000002a0: 9c19 7e3d c0d2 8aba e3ac a7bd b8d3 53bd
000002b0: 2c00 e13c 7446 573d f0d1 c2bb f441 cf3c
000002c0: 209f 593c 0264 073d 0078 19b9 a878 4f3d
000002d0: 9075 cabb c346 1bbd 9fbc 93bd f6ce a63d
000002e0: ab98 89bd fe77 b0bc 7880 803c aeeb 833d
000002f0: db0f a8bd e916 8fbd 6e7b f1bc 383f 82bd
00000300: 3a42 4dbd 1977 94bd 23ec 42bd 703b a53c
00000310: 806e 613d b08c a6bb 242d 393d d814 febc
00000320: 0ca4 363d 8692 823d e882 593c 1473 cc3c
00000330: c846 553c be08 a83d e635 c8bc f8e0 c7bc
00000340: 55b9 a1bd d40a 7bbd b235 203d bc24 81bc
00000350: 9873 60bd 8794 40bd f828 243d 1457 c63c
00000360: 3876 903d a8fc 04bc 1224 203d de24 843d
00000370: cc4c 9f3d 8004 dc3b 7c22 323d 7b78 9ebd
00000380: e29c 03bd ae7f 6ebd 38dc dd3c 6686 863d
00000390: 8064 023d 141a 8fbd fc70 c03c 5e43 82bd
000003a0: 2406 6b3d 5002 6bbd 88dd 583d 60a9 cd3c
000003b0: 942a 7c3d 7d9a 8ebd a667 eabc 348f a03c
000003c0: 7423 9e3d 4a10 19bd 8ad2 973d 6834 63bc
000003d0: 08cf b03c 909c ef3b 3829 74bd 5444 473d
000003e0: 80ee 0e3d 8e6c 62bd c02c 8ebd e750 823d
000003f0: 365f 463d 40ae 183c 4061 4e3d 8c3f f2bc
0.041236393 -0.06201905 -0.04488232 -0.012909763 0.060948685 -0.0040549594 0.052566137 -0.01189292
-0.08615402 0.044295743 0.054200634 -0.02237672 0.023701303 0.061925083 0.14239088 0.023256911
-0.059112806 0.023249485 0.0016121566 0.032053404 0.0635172 0.0636709 -0.046581466 0.022479326
-0.035694014 0.07216315 -0.057836905 -0.006210223 0.03075952 -0.016425826 0.038240477 0.07711823
0.002479449 0.054726765 0.03906376 0.00920897 0.003451012 -0.08229953 0.05750522 0.0060583055
-0.07282867 -0.0024015903 -0.0065134615 0.015653312 -0.024640724 0.038120948 -0.047939677 -0.03536506
0.01631143 -0.040373765 -0.01728493 -0.035955865 -0.065761186 -0.06014715 0.070527926 0.008832857
0.020295948 -0.00017482042 0.0053672493 0.056480035 -0.07993298 -0.05075699 0.008466907 -0.06098059
-0.071413286 -0.007370718 0.02886545 0.036871746 -0.0016072616 -0.043926027 0.017882377 -0.07028097
0.061617568 -0.027162619 -0.002197139 -0.06779791 0.0011727363 0.0034880638 0.03671939 -0.03694995
-0.069055445 0.00491447 0.03190144 -0.03656091 0.0001546517 0.040818356 -0.0067992136 -0.045989625
0.0042488724 -0.021567136 -0.07137507 -0.04609524 0.014392331 0.050515115 -0.038950197 0.020346798
-0.031701278 -0.04338681 0.07658851 0.028722845 -0.058653884 0.012271628 0.058368642 0.015276141
0.022509817 -0.0070570796 0.06363356 0.020411968 -0.045708906 0.024791531 -0.12403199 -0.017489403
-0.025058553 -0.04038761 0.026982943 -0.009524144 0.024783634 -0.003355585 0.012714021 -0.041848652
0.016688967 -0.044758447 -0.016074974 0.056486547 0.0629995 0.06201616 0.04077875 0.030441253
0.005211577 0.07940781 0.053409472 0.083600365 0.022763673 -0.039808445 -0.030028328 0.11094818
0.0054615913 -0.04970756 0.07043399 0.04842268 -0.03779908 -0.074812 -0.0277328 0.03248942
-0.039388843 0.070837066 0.028190479 0.022545025 0.061984256 0.047213376 -0.03777097 -0.010868617
0.047883686 0.06417376 -0.0066337287 -0.078657724 0.039778396 0.032934316 0.056895122 0.042890355
-0.021498583 0.016670845 -0.07114918 -0.07637798 0.021906033 -0.04152445 0.061617196 0.045873567
0.06203614 -0.0010591373 -0.081872724 -0.051715583 0.027465902 0.052557424 -0.0059454367 0.025300004
0.013282567 0.03305436 -0.0001463592 0.050652176 -0.0061785653 -0.03790928 -0.07213711 0.081449434
-0.06718572 -0.021541592 0.015686259 0.06441437 -0.08206149 -0.06986792 -0.029477801 -0.06359714
-0.050111987 -0.072492786 -0.04758848 0.020169944 0.05503702 -0.005082689 0.045209065 -0.031015798
0.04459004 0.063756034 0.013275839 0.024957217 0.013017364 0.082047924 -0.024439763 -0.024399266
-0.078966774 -0.061289623 0.039113708 -0.015764587 -0.05479774 -0.047016647 0.040078133 0.024211444
0.070537984 -0.008116879 0.0390969 0.06452344 0.0777832 0.0067144036 0.043489918 -0.077378236
-0.032132037 -0.058227234 0.027082548 0.06568603 0.031834126 -0.06987396 0.023491375 -0.063605055
0.057378903 -0.057375252 0.052945644 0.025105178 0.061564043 -0.0696306 -0.028613877 0.019599535
0.07721606 -0.03736905 0.07413204 -0.013867475 0.021583095 0.007312365 -0.05960962 0.048649147
0.03489542 -0.055279307 -0.06942129 0.06363087 0.048430644 0.009318888 0.050385714 -0.029571317

encoder_solv.W_i.bias f4 [128]
00000000: 6778 33bd 9e6f fa3c 98bd 52bd 9904 483b
00000010: cc20 9e3d 2043 54bd 195c 433d 6847 11bd
00000020: 5c70 d3bc 7782 763d 76b2 843d c89f 903d
00000030: f79d 5a3d b560 263d f447 493d 2bac 8b3d
00000040: 528c 4f3d 60ed a53d cc7c e73a 19d0 7bba
00000050: cea9 debc c91f a3bc 32bb 8cbd 0064 89bd
00000060: 0c03 0f3d b764 7abd fd61 88bd 79e1 743d
00000070: 1356 60bd d112 9cbd a7ee 5dbd f72a 823d
00000080: 331f 91bd 7265 1bbb 78a3 6cbd 0af2 a73c
00000090: 416f 863d 4b46 8fbc daa5 483d 787a 8fbc
000000a0: bd27 e8bc e273 8e38 6ca5 ac3c 6374 4abd
000000b0: 0347 02bc 2ad1 7ebd 3a1a a3bd b906 d2bb
000000c0: cd58 203d a58a bf3c e799 1abc ecfc 12bd
000000d0: cfe9 f5bb a2d6 3c3c 67c2 f3bc 6d36 1f3c
000000e0: 5118 073a 1478 1fbd 33e3 563d faec de3c
000000f0: b162 e83c 868c 8d3c 9e35 a43c 7899 97bb
00000100: 8c64 873b 0f0d 35bd 1d70 933d c0a3 213d
00000110: 78ef 683c c6f4 41bd 4eff 183d 7b3c 01bd
00000120: 66b5 a1bc 0de9 0abd ad2c 093c 21a2 063c
00000130: 08da afbd 42ee ecbc f2cb 99bd c736 fdbc
00000140: 1d39 c3bd f49a 723d 5b7b 9e3c c276 fb3c
00000150: 0bf2 843d cab4 b23c bb6d ca3c 8350 d2bb
00000160: b5d0 89bd 1686 603d 17e2 e3bb 4fbb 213d
00000170: 8e87 34bd 54cf ce3a 5138 173d 9a89 abbb
00000180: 66ba 163d f86a f0bc c341 3dbd 91e5 f7bb
00000190: 0393 e7bc 8ff1 223c fad0 713d 532b 293d
000001a0: 47b5 ec3b 689a 3f3d e7f7 46bc f029 c63c
000001b0: 78ca 5ebd a7d3 0abd e16f 6cbd 5726 113d
000001c0: 4b31 c6bb 5063 21bd 44f3 563d 64fd 7bbd
000001d0: ddab 253c 703c 0abd de7f 03bc 79fc 4fbd
000001e0: a83e a03d 05ac a7bc 4da2 10bc efa5 9fbc
000001f0: 6438 903d 7281 533c 4256 663d f1d0 0f3d
-0.043815996 0.030570801 -0.051450342 0.0030520319 0.07721099 -0.051821828 0.047695253 -0.03546849
-0.025810413 0.060183015 0.06479351 0.07061726 0.053373303 0.04061957 0.049140885 0.06819948
0.05067093 0.08101916 0.0017661094 -0.0009605899 -0.027180579 -0.019912617 -0.06871642 -0.067085266
0.034915015 -0.061131205 -0.06659315 0.05978534 -0.054769587 -0.076207764 -0.054182675 0.06355851
-0.07086029 -0.002371159 -0.057773083 0.020501155 0.06564189 -0.017489573 0.048986293 -0.017514452
-0.028339261 6.7926725e-05 0.021074973 -0.0494274 -0.007951501 -0.062211193 -0.07963987 -0.006409493
0.039147187 0.02338154 -0.009436107 -0.035885736 -0.007504679 0.011525782 -0.029755784 0.009717566
0.0005153465 -0.038932875 0.052462768 0.027212609 0.028367372 0.01727892 0.020045098 -0.004626449
0.004131859 -0.044201907 0.07199118 0.039462805 0.01421725 -0.047352575 0.037352853 -0.03155182
-0.019739818 -0.03391366 0.008372468 0.0082173655 -0.08586508 -0.028922204 -0.075096026 -0.030909909
-0.09532378 0.059229806 0.01934593 0.030696277 0.064914785 0.021814723 0.024710527 -0.006418289
-0.06729261 0.054815374 -0.0069544422 0.039485272 -0.044074588 0.0015778341 0.036918942 -0.0052349092
0.036798857 -0.029347882 -0.046205293 -0.0075652082 -0.028268343 0.009945287 0.059037186 0.041301083
0.0072237584 0.046778113 -0.012144065 0.02418992 -0.054392308 -0.033893254 -0.057723884 0.035436954
-0.0060483566 -0.039401352 0.05247809 -0.06152095 0.010111776 -0.033749044 -0.008026091 -0.050777886
0.07824451 -0.020467767 -0.008827758 -0.019488303 0.07042006 0.01290928 0.056234606 0.03511137

encoder_solv.W_h.weight f4 [128, 128]
00000000: 8e1a 903d 5965 fdbc 16b1 62bd d346 91bd
00000010: 2fcd 043d 243f 2c3d 0e7d aabd c4b0 be3c
00000020: 316b aa3b bcb7 b33c e5ca 27bb c28f 4c3d
00000030: 973b 503c 6148 9a3d 75d6 013d 9337 4ebc
00000040: ab17 043d f81f 6f3d a179 f6bc 9740 b53c
00000050: 8969 5cbc 3921 483d 7154 a33d ec93 3d3d
00000060: ec41 9b3b e445 98bc 41b3 21bd 49f2 91bd
00000070: 1b0b b2bc 2147 aabc 3f68 583d 4d96 393d
00000080: 92b8 51bd de40 933d 3767 e03c ceda 303d
00000090: 689c 3e3d fac6 5f3c c5d2 7dbd 9f1d 8b3d
000000a0: 4724 79bd 9974 ea3c e5e6 4abd f161 3a3d
000000b0: c27e a7bd 91cd be3d ae07 ea3a df0a 4fbc
000000c0: 6aed efbc 65d7 8cbd 3d27 973b c0b5 d93d
000000d0: 287a c3ba 5ca9 7e3d 0175 4c3d db2b 4d3a
000000e0: 8086 793d 458c 753d 3411 5cbd 2a57 fe3c
000000f0: 6398 f3bc 9580 56bd 4c01 b6bd 2416 653b
00000100: 1019 97bd 783e c13c ef98 1b3d b6a7 683d
00000110: 4f4e 3cbd 7b85 83bc 7307 c33c 6888 8f3d
00000120: 7fcf d13c 9ba3 af3d 80f4 7abd 4df1 60bd
00000130: c585 773d 3496 533c db6a 5e3d 902b 983d
00000140: 3baa b2bd 8cd9 eb3c 58e7 f1bc f3cf 8a3d
00000150: 7a26 bebd 5de0 75bd 487b 673d a703 f83c
00000160: 1425 b33d 40ee 4a3d 9b98 4b3c f874 b53d
00000170: 9599 17bd 496f bc3d dc80 703c 3ba5 24bd
00000180: d57e 7dbd 0e65 1bbc 4e97 24bd 27cf 95bd
00000190: ff37 e73a bcb6 86bd 7100 d0bc bb0c a73d
000001a0: b44c 1d3d 8728 863c a003 9cbb 0249 d9bb
000001b0: 20ee 3e3d 2f78 f83d 39de dbbc 24b9 873d
000001c0: a122 3f3d 1009 d63d fe08 e7bc b42f f83c
000001d0: d3e4 e0bb 4c2d f03d 6688 7ebc b8fd c1bd
000001e0: 70b0 753d 302a a2bc 0039 9f3d fad4 4bb9
000001f0: 0b66 86bd 1af0 4dbd 80f2 96bc b661 863d
00000200: 527e 02bd 70a3 113c e8ca 6b3d 663c adbd
00000210: 0f45 c5bd 7ba4 9f3c aed5 84bd 1707 47bc
00000220: ae37 443b 3fa0 c6bd 0d76 b1bc a486 713c
00000230: f807 90bd 77ad 05ba ae5e aabc a78a 843d
00000240: 3cdf 9abd 97fa c6bc 63a6 a5bd f7f2 c3bd
00000250: 39ab 0abd aa0d c4bd 563f a93d c5a5 9dbd
00000260: c40d 8ebd 9b06 743c 7af7 3cbc 5515 4ebd
00000270: 62b2 c43b ca1e 46bd a5fb 53bc 5c9a d2bd
00000280: 422f ae3c 1132 97bc ee2d 3d3d 6bc2 373a
00000290: ecc6 88bd bd61 923d ba8c 5d3d ebb8 90bd
000002a0: ec80 493b 8ab0 34bc cbb8 5ebd 788f 9cbd
000002b0: 5a94 b9bd 9492 173d a7d2 b43c 2f74 a6bc
000002c0: 209f 803c 224f 333d 912c b2bc 27b3 b73d
000002d0: f20d 393d 8de0 c9bc 5f8d acbd 130d dd3c
000002e0: 9ead 1dbd 0136 96bd 8104 5ebd 8763 98bb
000002f0: fa00 4fbd edbc 803d 50f3 8abd 5fe1 9abd
00000300: 31ca 093d 16c8 d83c 4f1a d6bc 4fdc 483d
00000310: e73b 8abc 6389 11bc e06d 283c 8965 72bd
00000320: c923 9e3d e942 2cba 162a f039 bc64 5abd
00000330: f625 b2bd 0fad 22bd f1d7 0bbd 2b06 923d
00000340: 835a 943d 8ab4 343d ad4c a63d 900b 4dbd
00000350: 416e 6e3d 666d 853d 11eb acbd 4881 473d
00000360: 093f 033d 0b31 5d3c 7c3e a23c 0e43 33bd
00000370: d730 4ebd dfc0 1ebd 23d0 573d f794 58bc
00000380: 12c3 853d d496 b2bd 5e8d b7bd 7ca7 133d
00000390: b217 3cbc a646 01bc b41e 893d 3b7d 48bd
000003a0: 6352 fabc 9906 b6bd 54f7 f8bc 646c 073d
000003b0: 8d8e afbc 5e55 503d 19e3 1bbd 6ea2 503d
000003c0: 4a65 ee3b b858 503d 5006 903d fc2c 38bd
000003d0: 832c 403d 104e 9fbd 6ebe 3e3b f2d5 bebc
000003e0: 943d aa3c 3b17 f9bc b5db 903c 5c7c 743d
000003f0: 6afa e63c e281 75bd 3d72 34bc 3fc9 d0bb
0.07036315 -0.030932115 -0.055344664 -0.07093587 0.03242224 0.042052403 -0.083246335 0.023277648
0.0052007665 0.021938197 -0.0025603112 0.049941786 0.01270952 0.075333364 0.031698663 -0.012586492
0.032249134 0.058380097 -0.030087294 0.022125525 -0.013452896 0.04885981 0.0797509 0.046283647
0.004738083 -0.018588014 -0.03947759 -0.0712629 -0.021733811 -0.02078587 0.05283379 0.045309354
-0.05120141 0.07190107 0.027392967 0.04317742 0.04653588 0.01365828 -0.061968584 0.06792759
-0.060825612 0.028620051 -0.049536604 0.04550356 -0.08178474 0.093165524 0.0017855072 -0.012636869
-0.029288013 -0.06877021 0.004612832 0.10630369 -0.0014913725 0.062173232 0.04991627 0.00078266644
0.060919285 0.059948225 -0.053727344 0.031047422 -0.02973575 -0.05236872 -0.08886966 0.0034955824
-0.07377827 0.023589358 0.037987646 0.056800567 -0.04597312 -0.01605486 0.023807263 0.07008439
0.025611637 0.08576127 -0.06126833 -0.054917622 0.060430307 0.012914229 0.054301124 0.07430184
-0.08723875 0.028790258 -0.029529259 0.067779444 -0.092846826 -0.060028423 0.056514055 0.03027518
0.087473065 0.04954362 0.012426521 0.08860201 -0.0370117 0.092009135 0.01467916 -0.04019664
-0.061888535 -0.0094845425 -0.040183358 -0.07314902 0.001764059 -0.065778226 -0.025390835 0.08156725
0.038403228 0.016376747 -0.0047611743 -0.0066310177 0.046613812 0.12132298 -0.026839362 0.0662711
0.046663884 0.10450947 -0.02820253 0.030296184 -0.0068632155 0.1172739 -0.01553545 -0.09472221
0.059982717 -0.019795507 0.07774544 -0.00019438929 -0.06562432 -0.050277807 -0.01842618 0.06561606
-0.03185875 0.008889064 0.057566553 -0.08458786 -0.096323125 0.01948761 -0.06486069 -0.012147686
0.0029940414 -0.09698533 -0.021662736 0.0147415735 -0.0703277 -0.00050993956 -0.0207971 0.06471758
-0.0756211 -0.024289412 -0.080883764 -0.09567826 -0.033854697 -0.09572919 0.082640335 -0.07697634
-0.06936219 0.014894153 -0.011533612 -0.050313313 0.00600271 -0.048369206 -0.012938415 -0.10283348
0.021262769 -0.01845649 0.04618638 0.00070098665 -0.06678566 0.07147548 0.054089285 -0.0706652
0.003074701 -0.011028418 -0.05437545 -0.07644552 -0.09061499 0.037005022 0.022073103 -0.020319073
0.015700877 0.04377664 -0.021749767 0.089697175 0.045179315 -0.024643207 -0.08425402 0.026983773
-0.038495652 -0.07334519 -0.054203514 -0.0046505365 -0.05053804 0.06286035 -0.067846894 -0.075625174
0.03364009 0.026462596 -0.026135592 0.049038228 -0.016874267 -0.008882853 0.0102801025 -0.059178863
0.07721669 -0.00065712497 0.00045807724 -0.053318724 -0.08698647 -0.039715823 -0.034141485 0.07130083
0.07243826 0.044117488 0.081200935 -0.050059855 0.058210615 0.06515007 -0.08443273 0.048707277
0.032042537 0.013500462 0.019805185 -0.04376512 -0.050339546 -0.038758155 0.05268873 -0.01321911
0.06531347 -0.087201744 -0.089625105 0.036048397 -0.011480259 -0.007890379 0.06695309 -0.048947554
-0.030556863 -0.08887977 -0.030391373 0.033062354 -0.021430278 0.050862662 -0.038058374 0.050936155
0.007275258 0.05086586 0.07032454 -0.044964775 0.04691745 -0.07778561 0.0029105204 -0.023295376
0.020781316 -0.030406585 0.01768289 0.05968891 0.028195579 -0.05993832 -0.011013565 -0.0063716467
