THESIS/transfer_learning/checkpoints/D-MPNN with attention.pt (torch, 558709 bytes, 15 tensors)

encoder_sol.cached_zero_vector f4 [128]
0.0 0.0 0.0 0.0 0.0 0.0 0.0 0.0
0.0 0.0 0.0 0.0 0.0 0.0 0.0 0.0
0.0 0.0 0.0 0.0 0.0 0.0 0.0 0.0
0.0 0.0 0.0 0.0 0.0 0.0 0.0 0.0
0.0 0.0 0.0 0.0 0.0 0.0 0.0 0.0
0.0 0.0 0.0 0.0 0.0 0.0 0.0 0.0
0.0 0.0 0.0 0.0 0.0 0.0 0.0 0.0
0.0 0.0 0.0 0.0 0.0 0.0 0.0 0.0
0.0 0.0 0.0 0.0 0.0 0.0 0.0 0.0
0.0 0.0 0.0 0.0 0.0 0.0 0.0 0.0
0.0 0.0 0.0 0.0 0.0 0.0 0.0 0.0
0.0 0.0 0.0 0.0 0.0 0.0 0.0 0.0
0.0 0.0 0.0 0.0 0.0 0.0 0.0 0.0
0.0 0.0 0.0 0.0 0.0 0.0 0.0 0.0
0.0 0.0 0.0 0.0 0.0 0.0 0.0 0.0
0.0 0.0 0.0 0.0 0.0 0.0 0.0 0.0
00000000: 0000 0000 0000 0000 0000 0000 0000 0000
00000010: 0000 0000 0000 0000 0000 0000 0000 0000
00000020: 0000 0000 0000 0000 0000 0000 0000 0000
00000030: 0000 0000 0000 0000 0000 0000 0000 0000
00000040: 0000 0000 0000 0000 0000 0000 0000 0000
00000050: 0000 0000 0000 0000 0000 0000 0000 0000
00000060: 0000 0000 0000 0000 0000 0000 0000 0000
00000070: 0000 0000 0000 0000 0000 0000 0000 0000
00000080: 0000 0000 0000 0000 0000 0000 0000 0000
00000090: 0000 0000 0000 0000 0000 0000 0000 0000
000000a0: 0000 0000 0000 0000 0000 0000 0000 0000
000000b0: 0000 0000 0000 0000 0000 0000 0000 0000
000000c0: 0000 0000 0000 0000 0000 0000 0000 0000
000000d0: 0000 0000 0000 0000 0000 0000 0000 0000
000000e0: 0000 0000 0000 0000 0000 0000 0000 0000
000000f0: 0000 0000 0000 0000 0000 0000 0000 0000
00000100: 0000 0000 0000 0000 0000 0000 0000 0000
00000110: 0000 0000 0000 0000 0000 0000 0000 0000
00000120: 0000 0000 0000 0000 0000 0000 0000 0000
00000130: 0000 0000 0000 0000 0000 0000 0000 0000
00000140: 0000 0000 0000 0000 0000 0000 0000 0000
00000150: 0000 0000 0000 0000 0000 0000 0000 0000
00000160: 0000 0000 0000 0000 0000 0000 0000 0000
00000170: 0000 0000 0000 0000 0000 0000 0000 0000
00000180: 0000 0000 0000 0000 0000 0000 0000 0000
00000190: 0000 0000 0000 0000 0000 0000 0000 0000
000001a0: 0000 0000 0000 0000 0000 0000 0000 0000
000001b0: 0000 0000 0000 0000 0000 0000 0000 0000
000001c0: 0000 0000 0000 0000 0000 0000 0000 0000
000001d0: 0000 0000 0000 0000 0000 0000 0000 0000
000001e0: 0000 0000 0000 0000 0000 0000 0000 0000
000001f0: 0000 0000 0000 0000 0000 0000 0000 0000

encoder_sol.W_i.weight f4 [128, 147]
-0.009735607 0.056292817 -0.019500993 -0.03970619 -0.031002633 -0.057137087 -0.06744182 -0.014843825
-0.038597487 0.0523424 0.052975908 0.014605276 -0.010253511 -0.047241904 -0.017356884 0.10701337
0.038216766 -0.06081236 -0.082098365 0.0591961 0.068293944 -0.02929343 0.029640056 0.037629075
-0.022056121 0.061265677 0.04765287 -0.05431357 0.064283535 0.014497802 0.03788382 -0.0110621005
0.049516097 0.018355079 -0.061648265 0.07943575 -0.030627828 0.07665776 -0.044928383 -0.06373486
0.02507642 -0.049923178 -0.057817742 0.020084739 0.032823846 0.05087149 0.06918466 -0.009682514
0.07866825 -0.02131126 -0.017608076 0.036646396 0.104356185 0.013678253 0.08049497 0.060425684
0.07219912 0.047937527 -0.02967478 -0.009719379 -0.010897204 -0.069979735 0.072380066 0.026809528
-0.0035706982 0.06857045 0.06078981 0.069890484 -0.06648234 -0.019866124 0.02391567 0.011616476
-0.040003948 -0.016223557 -0.06869732 -0.02437973 0.039408587 -0.044513218 -0.044514723 -0.039130855
0.05630152 -0.051310956 -0.017297797 0.05967602 0.011057086 -0.05468977 0.005047962 -0.08124076
0.08114959 0.019696549 0.0634913 -0.016290076 -0.071848474 0.01819902 -0.049585935 -0.029544335
-0.0006775856 0.040195696 -0.03665825 -0.0677782 -0.029986326 -0.032072533 -0.059257645 0.02689311
-0.0072900136 -0.027335474 0.057378992 -0.06769525 0.04534575 -0.06740166 0.016565908 -0.008258559
-0.06664656 0.06307873 0.07190165 -0.057405762 -0.076197304 0.0050408915 -0.045465283 0.025027877
0.030122275 -0.068048924 0.08602423 -0.08000661 -0.05943623 -0.011599443 -0.020120382 0.012554558
0.029404856 -0.076934524 0.072047144 -0.052260324 -0.07321044 -0.015834883 0.011317549 0.034987472
-0.008666087 -0.014591111 -0.022995234 0.06553143 0.09011301 -0.06597014 0.020007223 -0.015523814
-0.037112508 0.03913164 0.035436727 0.072150305 0.042781428 -0.029629111 0.07819347 -0.0006635934
-0.030767495 0.10541371 0.08797772 -0.10388222 -0.07497134 -0.064975515 0.079973 -0.0069137514
0.04751095 -0.023143472 -0.06449036 0.027495883 0.082409516 -0.046227653 -0.035922144 -0.06502317
0.038545497 -0.07650182 -0.04498712 0.06633319 0.03887458 0.074355915 -0.070674 -0.08164697
-0.015230723 0.036211826 0.066391766 0.051062003 0.0022538602 0.082892835 0.015063986 -0.064792335
-0.0014516562 0.053221166 -0.0573292 -0.0672677 -0.04079249 -0.031374082 -0.07566611 0.011731975
-0.043474905 -0.077986404 -0.04675563 -0.06065283 -0.0016327202 -0.06793728 0.033284456 -0.009692933
-0.005735837 -0.067675985 -0.07061131 -0.027935904 -0.021052644 0.066424996 0.016897343 -0.029489208
-0.08045368 0.0031598806 -0.004041657 -0.064502224 -0.06492114 -0.06928882 0.0052203834 0.075059354
-0.01493907 -0.05523244 0.051889196 -0.015296355 -0.016866736 0.062191263 0.003012441 -0.05716205
0.0798479 -0.0425986 -0.051883087 0.07712796 0.014039256 0.018485442 0.04404363 -0.011903249
0.040848665 0.007308595 -0.042989597 -0.050280493 0.022131734 0.03999977 -0.062107496 0.05263737
0.05297838 -0.0040481463 0.02598717 0.050602242 0.0047827065 -0.035467442 -0.029858887 0.037763737
0.06733006 0.06979378 0.021502383 0.06047376 -0.097602636 -0.032982014 -0.002051361 -0.067011595
00000000: 1882 1fbc 4c93 663d 8cc0 9fbc f5a2 22bd
00000010: 3cf9 fdbc 9408 6abd f01e 8abd 8433 73bc
00000020: 6618 1ebd fc64 563d 44fd 583d f84a 6f3c
00000030: 58fe 27bc ba80 41bd 0630 8ebc d329 db3d
00000040: 2f89 1c3d 6216 79bd 3023 a8bd 9c77 723d
00000050: b2dd 8b3d c6f8 efbc b4cf f23c f220 1a3d
00000060: 0aaf b4bc b8f1 7a3d a82f 433d e877 5ebd
00000070: 16a7 833d 3088 6d3c 102c 1b3d d03d 35bc
00000080: 64d1 4a3d 645d 963c e482 7cbd 36af a23d
00000090: 36e7 fabc befe 9c3d d306 38bd 6c87 82bd
000000a0: 106d cd3c 3f7c 4cbd 4cd2 6cbd c088 a43c
000000b0: 4c72 063d a05e 503d b0b0 8d3d 68a3 1ebc
000000c0: d21c a13d f494 aebc d03e 90bc 881a 163d
000000d0: b2b8 d53d c01a 603c 8cda a43d ec80 773d
000000e0: 22dd 933d 245a 443d 8618 f3bc 083e 1fbc
000000f0: 308a 32bc 8951 8fbd 003c 943d a89f db3c
00000100: 6002 6abb aa6e 8c3d bcfe 783d be22 8f3d
00000110: e527 88bd 48be a2bc ccea c33c 0853 3e3c
00000120: 2edb 23bd 44e7 84bc 2eb1 8cbd 00b8 c7bc
00000130: e66a 213d 7e53 36bd 1255 36bd ad47 20bd
00000140: 6c9c 663d 702b 52bd 1cb4 8dbc d86e 743d
00000150: c828 353c 6102 60bd 6069 a53b 8e61 a6bd
00000160: c231 a63d a85a a13c ba07 823d c472 85bc
00000170: 4b25 93bd 1c16 953c 9f1a 4bbd f606 f2bc
00000180: 00a0 31ba 3ea4 243d f626 16bd 4ccf 8abd
00000190: e2a5 f5bc 7d5e 03bd 25b8 72bd f04e dc3c
000001a0: 11e1 eebb a5ee dfbc 3c06 6b3d cfa3 8abd
000001b0: 77bc 393d e209 8abd 3ab5 873c e84e 07bc
000001c0: fe7d 88bd 6c2f 813d 2c41 933d 4e22 6bbd
000001d0: 550d 9cbd 102e a53b ce39 3abd 4307 cd3c
000001e0: fdc2 f63c 3c5d 8bbd 792d b03d 81da a3bd
000001f0: 6873 73bd 970b 3ebc 80d3 a4bc a2b1 4d3c
00000200: 74e2 f03c d98f 9dbd 748d 933d ec0e 56bd
00000210: 5bef 95bd 28b8 81bc 3e6d 393c 064f 0f3d
00000220: 34fc 0dbc 8e0f 6fbc 8060 bcbc 5835 863d
00000230: 2b8d b83d 5a1b 87bd 30e6 a33c 9857 7ebc
00000240: 4903 18bd 8048 203d 1a26 113d 8ac3 933d
00000250: 943b 2f3d c0b8 f2bc e623 a03d 00f5 2dba
00000260: 1d0c fcbc 25e3 d73d aa2d b43d 34c0 d4bd
00000270: 938a 99bd e211 85bd e2c8 a33d c08c e2bb
00000280: d89a 423d 6197 bdbc 8613 84bd 0c3f e13c
00000290: 52c6 a83d 3559 3dbd 1923 13bd de2a 85bd
000002a0: e2e1 1d3d fcac 9cbd 6a44 38bd b2d9 873d
000002b0: f43a 1f3d ea47 983d 88bd 90bd 8736 a7bd
000002c0: 488a 79bc da52 143d 68f8 873d 6426 513d
000002d0: 80b5 133b b8c3 a93d f0ce 763c d8b1 84bd
000002e0: 8045 beba 70fe 593d 06d2 6abd a6c3 89bd
000002f0: 0716 27bd 1c82 00bd d5f6 9abd 7837 403c
00000300: be12 32bd 56b7 9fbd d582 3fbd 1a6f 78bd
00000310: 0001 d6ba b322 8bbd 4855 083d 1ccf 1ebc
00000320: b0f3 bbbb b599 8abd aa9c 90bd d6d9 e4bc
00000330: 9876 acbc d409 883d 4c6c 8a3c 5a93 f1bc
00000340: e6c4 a4bd 0016 4f3b e06f 84bb be19 84bd
00000350: 60f5 84bd 4ce7 8dbd c00f ab3b b8b8 993d
00000360: 00c3 74bc 693b 62bd c489 543d 909d 7abc
00000370: 1c2c 8abc 44bc 7e3d 606c 453b c122 6abd
00000380: 4c87 a33d df7b 2ebd 5c83 54bd 44f5 9d3d
00000390: e804 663c c86e 973c 1867 343d d805 43bc
000003a0: ee50 273d f07c ef3b dc15 30bd ebf2 4dbd
000003b0: 9c4d b53c ccd6 233d 6e64 7ebd 489a 573d
000003c0: dcff 583d 50a6 84bb 0ce3 d43c 4c44 4f3d
000003d0: 40b8 9c3b 4f46 11bd a09a f4bc 26ae 1a3d
000003e0: 58e4 893d 0bf0 8e3d c425 b03c 55b3 773d
000003f0: e4e3 c7bd 2618 07bd 2070 06bb 603d 89bd

encoder_sol.W_i.bias f4 [128]
0.053567514 0.048361268 -0.062987596 -0.02379982 -0.07964653 -0.004767463 -0.0015123514 0.06858151
-0.0032138545 0.07911151 0.04714078 -0.013181767 0.0011103685 -0.048901875 -0.07099298 -0.0069536977
0.05890184 0.005938559 -0.075826146 0.048718784 0.056603793 0.057601802 -0.060318064 0.055744674
0.04932247 0.023422806 0.05202521 -0.04843564 0.009388036 -0.0064921267 0.06942189 0.0034078346
-0.002428961 -0.061638247 -0.0546983 -0.0773329 -0.04876347 0.015715493 -0.05479819 0.073686264
-0.022818595 -0.036112666 0.025026174 0.02528342 -0.023751974 0.038561422 0.035502348 -0.08210089
0.0047753574 -0.082551196 0.06698557 0.05917699 -0.0126904175 0.052905727 0.05497002 -0.07771587
-0.02425661 -0.031125829 -0.03187039 0.0417621 -0.0864676 0.064115085 0.0053452523 -0.052930575
0.034111034 -0.0021689024 -0.07343469 0.06451052 -0.014850792 -0.04064574 -0.019820785 0.057005323
-0.052280605 -0.06827037 -0.017443037 -0.026133956 0.017054904 -0.036781847 -0.062454756 -0.040223733
0.028882775 0.022961268 0.020995917 -0.05605165 0.02179522 0.019961277 0.060221024 -0.0033967746
0.037306502 0.023587931 0.05759856 -0.0045471266 0.032947365 0.007771818 0.07511434 -0.01973785
0.0723608 -0.04843513 0.06135114 -0.024860265 -0.029468307 0.02754962 0.057160154 -0.027908765
0.022294756 0.061986484 -0.0148301795 0.04279461 -0.053808536 0.052757367 0.031395238 -0.0086184
0.046226013 0.0061432454 -0.027239025 0.021937272 -0.05513574 -0.072168745 -0.04572037 0.016269237
0.05271579 0.023460725 0.04083638 0.063489646 0.02184615 -0.057272375 -0.011082951 0.047437858
00000000: 9c69 5b3d 7716 463d a4ff 80bd d7f7 c2bc
00000010: b81d a3bd 6138 9cbb 183a c6ba 7674 8c3d
00000020: 889f 52bb 3705 a23d b116 413d 57f8 57bc
00000030: c989 913a 554d 48bd c464 91bd d8db e3bb
00000040: 0e43 713d 3e98 c23b bd4a 9bbd 598d 473d
00000050: 61d9 673d deef 6b3d 1310 77bd 8754 643d
00000060: 5c06 4a3d 2fe1 bf3c 6318 553d 7364 46bd
00000070: 47d0 193c e8bb d4bb 102d 8e3d fa55 5f3b
00000080: 342f 1fbb 6378 7cbd 530b 60bd b660 9ebd
00000090: 34bc 47bd c7bd 803c 1174 60bd d3e8 963d
000000a0: 10ee babc e0ea 13bd b103 cd3c 2d1f cf3c
000000b0: 8093 c2bc 95f2 1d3d e96a 113d 8324 a8bd
000000c0: 9a7a 9c3b 9a10 a9bd bb2f 893d 9263 723d
000000d0: 78eb 4fbc adb3 583d 3e28 613d 8029 9fbd
000000e0: ccb5 c6bc 98fb febc 878a 02bd bc0e 2b3d
000000f0: ed15 b1bd c54e 833d 3a27 af3b bbcd 58bd
00000100: 03b8 0b3d 2524 0ebb ed64 96bd 171e 843d
00000110: bc50 73bc 267c 26bd 335f a2bc 6a7e 693d
00000120: 3024 56bd 56d1 8bbd b3e4 8ebc e116 d6bc
00000130: bab6 8b3c 90a8 16bd 8fd0 7fbd a4c1 24bd
00000140: 929b ec3c 4519 bc3c a1ff ab3c 6a96 65bd
00000150: e48b b23c d585 a33c 52aa 763d 6c9c 5ebb
00000160: b4ce 183d 7a3b c13c 78ec 6b3d 1000 95bb
00000170: d1f3 063d bcaa fe3b 8cd5 993d 46b1 a1bc
00000180: e631 943d ea63 46bd 554b 7b3d c1a7 cbbc
00000190: 8567 f1bc beaf e13c c420 6a3d eca0 e4bc
000001a0: 7ea3 b63c 8ae5 7d3d 48fa 72bc 6749 2f3d
000001b0: 5766 5cbd 1c18 583d 4b98 003d 3134 0dbc
000001c0: 7d57 3d3d 474d c93b 6024 dfbc cbb5 b33c
000001d0: 04d6 61bd 35cd 93bd 4845 3bbd 1047 853c
000001e0: 83ec 573d b530 c03c 0c44 273d dc06 823d
000001f0: b2f6 b23c 7096 6abd 4495 35bc 334e 423d

encoder_sol.W_h.weight f4 [128, 128]
0.019763805 0.058164462 0.076439396 0.027848696 0.08191653 0.032556653 -0.032989595 -0.01603515
0.019977931 0.05758335 -0.0032223517 -0.02562279 0.07690752 0.07129167 -0.04327584 0.0033893331
-0.09677316 0.03522319 0.01123517 0.00043933623 0.050604545 -0.07159893 -0.00044887152 -0.044835046
0.058862798 -0.06807851 -0.09864865 -0.033096842 -0.012940732 0.025747685 -0.101435676 -0.07338225
0.045227267 -0.049728923 -0.021272935 0.03583871 0.045946285 -0.06470097 0.054895163 -0.048660927
-0.04943104 -0.027074207 -0.038115736 -0.006309795 0.08226423 -0.04166644 0.00411536 -0.06925129
0.0042174137 0.03192751 -0.015416366 -0.07972593 -0.0071797273 -0.06481667 -0.03091656 -0.06119105
-0.030373693 -0.062571384 0.027817978 -0.022556648 0.052970286 0.025852023 0.03581132 0.09122567
-0.010945925 0.024664164 -0.08222119 -0.07497441 0.020403925 0.0338547 -0.057996072 -0.05255237
0.022499824 0.0026993516 0.005451917 -0.0073324884 0.044826325 0.06641403 0.022813194 -0.046570078
-0.08205213 0.028751187 -0.055369545 0.02300348 -0.08401428 0.0101559 -0.0940363 0.033480484
0.017469743 -0.033039324 -0.028174981 0.10319823 -0.030610029 -0.0121391835 -0.030227285 -0.09175368
-0.015000589 0.0031398456 -0.015776943 0.0031948832 0.010472855 0.08577824 0.030853871 0.071503825
0.042400844 0.020931767 0.08650522 0.06925948 0.04684027 -0.07677524 0.05078764 -0.028121073
0.0504329 0.011338343 0.04505803 0.018366052 0.0471431 0.036677375 0.0064576766 0.00244073
0.006336955 0.024624195 0.026603326 0.04956284 -0.011502421 -0.06118391 0.036712885 -0.054474544
-0.015634129 -0.091210775 0.0631348 -0.0212948 0.06835758 -0.077330425 -0.056341328 -0.06726244
-0.017003026 0.015496559 0.030165374 0.070627496 0.07027978 0.017899094 0.09130006 -0.04900256
-0.016735118 0.039491314 -0.080071 -0.069612674 -0.009522748 0.0043272143 -0.035833072 0.058809914
0.026425175 0.05987951 -0.09070609 -0.025163647 -0.07828192 0.011947724 0.060418587 -0.07693669
0.028033234 -0.04707505 -0.06744025 -0.09035081 -0.04227967 -0.057173852 -0.011832202 0.05353559
0.019245267 -0.074331686 0.02130629 -0.03890671 0.004037564 0.015582186 0.060977757 0.06549255
0.020252135 0.014259756 0.070867665 0.07265021 -0.013163187 0.067739435 0.028906189 -0.038821112
-0.056533873 0.028460434 0.035097126 0.005477118 0.096866824 -0.09423762 -0.07229126 0.010418523
0.0016064489 -0.03173231 0.07862823 -0.09001334 0.059478924 -0.06635646 -0.018220795 0.049942326
0.043341953 -0.0036553983 -0.031142477 0.04636596 -0.079862066 0.01940144 0.06533003 -0.060281426
-0.051837593 0.029916001 -0.06744792 -0.019224549 0.083906956 0.046336055 0.042791788 0.020496706
-0.08651384 0.051852215 -0.04023871 0.035159893 0.05001116 -0.08385492 0.06771377 -0.048755884
-0.059772052 0.035902936 -0.0387447 -0.007232512 -0.098972626 -0.08209456 -0.013842527 -0.011344131
-0.068369254 0.057620604 0.070048004 0.06152141 0.007304073 0.077019155 0.06752826 -0.07643344
0.048105333 -0.053285938 -0.048213754 0.042053692 -0.03948741 -0.0533115 -0.018630879 0.076832265
-0.081369065 0.0069751074 -0.0001905676 0.07629457 0.04730057 -0.014978669 -0.098211125 0.008172595
00000000: b4e7 a13c dc3d 6e3d 428c 9c3d f322 e43c
00000010: dbc3 a73d 205a 053d 1920 07bd 265c 83bc
00000020: c2a8 a33c 85dc 6b3d 172e 53bb e3e6 d1bc
00000030: b181 9d3d 5e01 923d 0242 31bd 931f 5e3b
00000040: 0231 c6bd 3146 103d b813 383c b656 e639
00000050: b646 4f3d 76a2 92bd 8456 ebb9 f4a4 37bd
00000060: 1e1a 713d bf6c 8bbd 4e08 cabd 8e90 07bd
00000070: 5d05 54bc cfec d23c 82bd cfbd 6f49 96bd
00000080: 3a40 393d 8eb0 4bbd 9444 aebc 9ccb 123d
00000090: 2c32 3c3d f181 84bd c0d9 603d ae50 47bd
000000a0: 3478 4abd baca ddbc 3f1f 1cbd 66c2 cebb
000000b0: 267a a83d 6eaa 2abd 24da 863b 9fd3 8dbd
000000c0: 3b32 8a3b 6cc6 023d ed94 7cbc 5947 a3bd
000000d0: eb43 ebbb 9abe 84bd ba44 fdbc 77a3 7abd
000000e0: 40d2 f8bc 6d25 80bd 87e2 e33c b8c8 b8bc
000000f0: 5ff7 583d 9fc7 d33c e4ae 123d 86d4 ba3d
00000100: 8956 33bc 800c ca3c 9563 a8bd 2f8c 99bd
00000110: 2226 a73c 3aab 0a3d 4a8d 6dbd 2741 57bd
00000120: 8d51 b83c 9be7 303b ffa5 b23b 5f45 f0bb
00000130: cf9b 373d 1404 883d bce2 ba3c 44c0 3ebd
00000140: f20a a8bd 9c87 eb3c 2dcb 62bd cb71 bc3c
00000150: ae0f acbd ef64 263c 1b96 c0bd d522 093d
00000160: b51c 8f3c 3e54 07bd 38cf e6bc 9859 d33d
00000170: e2c1 fabc 6de3 46bc 369f f7bc 5ae9 bbbd
00000180: 08c5 75bc dec5 4d3b a63e 81bc 3f61 513b
00000190: 5696 2b3c 80ac af3d 42c1 fc3c 9970 923d
000001a0: 82ac 2d3d 1979 ab3c a629 b13d ead7 8d3d
000001b0: 95db 3f3d 563c 9dbd b306 503d 2a5e e6bc
000001c0: bb92 4e3d 75c4 393c c58e 383d 6774 963c
000001d0: 2019 413d 043b 163d eb9a d33b a8f4 1f3b
000001e0: 3ba6 cf3b aeb8 c93c 38ef d93c 6802 4b3d
000001f0: a774 3cbc fb9b 7abd 4060 163d b320 5fbd
00000200: 2513 80bc b7cc babd d14c 813d 6f72 aebc
00000210: 0fff 8b3d 6a5f 9ebd 2ac6 66bd e4c0 89bd
00000220: ee49 8bbc 48e5 7d3c 601d f73c 26a5 903d
00000230: d8ee 8f3d 1fa1 923c 87fb ba3d e9b6 48bd
00000240: 1618 89bc a5c1 213d 44fc a3bd 1791 8ebd
00000250: 4d05 1cbc 4ecb 8d3b b3c5 12bd aae2 703d
00000260: 9c79 d83c 3844 753d 1dc4 b9bd fe23 cebc
00000270: 4552 a0bd 63c0 433c 7b79 773d fc90 9dbd
00000280: f4a5 e53c c5d1 40bd 1d1e 8abd d809 b9bd
00000290: 722d 2dbd 212f 6abd dadb 41bc 2348 5b3d
000002a0: 40a8 9d3c 363b 98bd 878a ae3c a45c 1fbd
000002b0: 8b4d 843b 6d4c 7f3c d0c3 793d f520 863d
000002c0: cee7 a53c c0a1 693c 1123 913d a2c9 943d
000002d0: 68aa 57bc f9ba 8a3d accc ec3c e302 1fbd
000002e0: 1090 67bd db25 e93c 01c2 0f3d 6579 b33b
000002f0: 1d62 c63d a7ff c0bd 710d 94bd 74b2 2a3c
00000300: 7b8f d23a bdf9 01bd d607 a13d ea58 b8bd
00000310: 2ca0 733d e5e5 87bd c743 95bc 5390 4c3d
00000320: 5587 313d 688f 6fbb 821e ffbc 3cea 3d3d
00000330: b98e a3bd c5ef 9e3c c0cb 853d a8e9 76bd
00000340: a853 54bd 6712 f53c 2322 8abd cd7c 9dbc
00000350: 69d7 ab3d e0ca 3d3d 7146 2f3d b5e8 a73c
00000360: 2b2e b1bd fd62 543d 58d1 24bd d203 103d
00000370: 81d8 4c3d 21bc abbd 84ad 8a3d 40b4 47bd
00000380: 8ad3 74bd f50e 133d c3b2 1ebd b5fe ecbb
00000390: 29b2 cabd 3121 a8bd c4cb 62bc bcdc 39bc
000003a0: 2e05 8cbd 9503 6c3d 5475 8f3d e0fd 7b3d
000003b0: 0157 ef3b 38bc 9d3d 424c 8a3d 2389 9cbd
000003c0: 190a 453d 5b42 5abd c97b 45bd 7e40 2c3d
000003d0: 8dbd 21bd 295d 5abd c99f 98bc 3c5a 9d3d
000003e0: d3a4 a6bd 718f e43b 1ad3 47b9 5440 9c3d
000003f0: 3ebe 413d 1769 75bc ea22 c9bd 59e6 053c

encoder_sol.W_h.bias f4 [128]
0.042897202 -0.036763553 0.078478016 -0.012217483 0.01519115 0.015910784 -0.06796489 -0.061387982
0.06563025 0.02588128 0.07548894 0.03311806 0.03635689 0.03820964 0.033878177 0.07797109
-0.08007752 0.013870109 -0.08561321 -0.0845796 -0.07381758 0.061366215 -0.061580747 -0.057324357
0.00018406665 -0.067548625 -0.013101238 -0.019206237 0.05473247 0.038268212 -0.007308851 0.034590263
-0.019174231 0.064368926 0.048670884 -0.009932873 -0.023579193 0.003508966 0.075781316 -0.03687941
0.034187257 -0.088837944 0.103602566 0.009790614 -0.08107825 -0.05658828 0.07245447 0.04863702
0.007933013 -0.009958771 0.07687876 -0.026647119 -0.082235776 0.049844027 -0.054535035 -0.005770262
0.013434635 -0.033636786 0.026377318 -0.007552778 -0.019885605 0.005832145 -0.0053966907 -0.007883251
-0.07457183 -0.067522675 -0.022523763 -0.07036953 -0.012260566 0.008425247 -0.041315958 -0.017521104
0.038094997 -0.007173855 0.030341616 -0.017297966 -0.056068096 -0.08403986 0.06488867 0.016472705
0.05271537 0.026400324 -0.02197184 -0.025049606 -0.02565667 -0.02149826 -0.07988031 -0.071815915
0.04706719 0.07825815 -0.014907591 0.059342884 -0.07554937 0.02365716 0.043316264 -0.002289357
-0.026288258 0.030849924 -0.089803435 0.012280221 -0.041516736 -0.040049147 -0.090015404 -0.035310403
-0.010809808 0.009399313 0.03321261 -0.030127479 -0.08238959 0.029919803 0.029940734 0.031779367
-0.016697751 0.05447661 0.062664874 0.016419964 -0.007135042 -0.082087815 -0.015657082 0.009031938
0.051184196 0.050309815 -0.0041376916 -0.008910787 -0.052194674 0.07204003 0.051535603 -0.005366667
00000000: fab4 2f3d 6195 16bd 15b9 a03d d62b 48bc
00000010: 4de4 783c 5557 823c 2d31 8bbd f771 7bbd
00000020: 2769 863d fa04 d43c f299 9a3d cea6 073d
00000030: f6ea 143d b681 1c3d d8c3 0a3d 4faf 9f3d
00000040: afff a3bd 743f 633c fb55 afbd 1238 adbd
00000050: ac2d 97bd 245b 7b3d 183c 7cbd f2cc 6abd
00000060: 0402 4139 ef56 8abd 93a6 56bc 6656 9dbc
00000070: 282f 603d 21bf 1c3d 167f efbb 85ae 0d3d
00000080: 4713 9dbc dbd3 833d 1f5b 473d 7dbd 22bc
00000090: 2729 c1bc aef6 653b 3c33 9b3d dd0e 17bd
000000a0: f007 0c3d abf0 b5bd 952d d43d d068 203c
000000b0: 5b0c a6bd 1dc9 67bd 0263 943d 9d37 473d
000000c0: 78f9 013c 1d2a 23bc 9c72 9d3d 0f4b dabc
000000d0: 3b6b a8bd 4029 4c3d 2160 5fbd 7714 bdbb
000000e0: f11c 5c3c bac6 09bd 3f15 d83c 4b7d f7bb
000000f0: 23e7 a2bc 941b bf3b b9d6 b0bb c028 01bc
00000100: 1eb9 98bd 5449 8abd c183 b8bc e61d 90bd
00000110: 8be0 48bc 0c0a 0a3c ec3a 29bd 6b88 8fbc
00000120: 8009 1c3d a812 ebbb fb8e f83c 77b4 8dbc
00000130: a9a7 65bd 171d acbd 5ae4 843d c4f1 863c
00000140: 12ec 573d 7e45 d83c 4afe b3bc d534 cdbc
00000150: f02d d2bc 1e1d b0bc 4a98 a3bd 3914 93bd
00000160: 87c9 403d cf45 a03d f83e 74bc 8611 733d
00000170: a1b9 9abd a9cc c13c 656c 313d 0909 16bb
00000180: 795a d7bc fbb8 fc3c ddea b7bd fb32 493c
00000190: 740d 2abd 930a 24bd ff59 b8bd a4a1 10bd
000001a0: 9f1b 31bc 93ff 193c f209 083d e7cd f6bc
000001b0: e0bb a8bd 601a f53c 4546 f53c 152b 023d
000001c0: b9c9 88bc de22 5f3d 7156 803d 2983 863c
000001d0: 12cd e9bb a81d a8bd 4843 80bc b2fa 133c
000001e0: 85a6 513d aa11 4e3d 7995 87bb 8dfe 11bc
000001f0: 15ca 55bd b989 933d ff16 533d deda afbb

encoder_sol.W_o.weight f4 [128, 261]
0.03130252 -0.057547167 0.017908417 0.008596666 -0.01846746 -0.06387836 -0.005433131 -0.07177579
0.003248386 0.056910478 -0.027851116 0.056062035 0.04403639 -0.06017905 -0.031942103 -0.009744626
0.028254328 -0.047108896 0.019152634 -0.010541506 0.045948252 0.025625497 0.023704797 -0.029030312
0.017404586 0.005681917 -0.058703374 0.05876363 0.05414839 0.02067858 -0.021950189 -0.0033691563
-0.030104961 -0.023494087 0.051366463 0.030785844 0.020280644 0.013103008 -0.032511756 -0.033800125
0.020802334 0.019370876 -0.053275965 -0.026910532 -0.030764678 0.046697244 -0.013472222 0.0055945367
-0.01651802 -0.039466962 0.0018758401 -0.0022930428 -0.021086745 -0.0023676343 0.04839796 -0.045241557
-0.048109215 -0.009167295 -0.0057495944 -0.003182087 0.05844552 -0.006510511 0.01963006 -0.0023791157
0.050236523 -0.03293858 0.05787661 0.058149077 -0.032794066 0.058653988 0.0037731081 0.013325229
0.019589536 0.040269926 -0.056321897 -0.043819375 -0.03589483 -0.015254457 0.04401642 0.0418329
0.033377863 -0.05631201 0.006378129 -0.042726226 -0.020375863 0.015554525 0.053522192 -0.04657554
-0.029014196 -0.03276993 -0.025086932 -0.03650397 -0.011740755 0.031180799 -0.054999366 0.0271803
-0.054768406 0.0068734884 0.0069520473 -0.004285369 -0.030026827 -0.022920363 0.036964707 0.0502746
-0.043449275 0.019382117 0.03917575 -0.053413175 -0.04864349 0.060571164 0.032360025 -0.023510166
-0.025083901 0.041664153 0.0012671852 -0.060630146 -0.052374996 0.0018594116 -0.004526213 0.03760062
0.015500246 -0.06000192 0.014555835 0.029384397 0.002952151 0.042892262 0.050953254 0.055682424
-0.05052166 0.051067673 0.030560926 0.0655704 0.006560833 -0.00043747056 0.022066826 0.0018802276
-0.029022787 0.010274695 -0.03349234 0.06064415 0.015391565 -0.044239435 -0.019527193 0.006413482
-0.030641207 -0.0035318856 -0.0017300152 -0.009469047 0.037263904 -0.03231181 -0.03839161 -0.00048674643
0.058185935 0.036696173 0.031880543 -0.041323293 0.04640373 -0.0067421664 0.011741241 0.022918634
-0.034168333 -0.047459684 -0.027353462 0.03365125 -0.0028522895 0.027490225 -0.024869394 -0.016210742
0.053943563 -0.03967651 -0.021615468 -0.05504721 -0.002344586 0.02150446 -0.0037903935 -0.034076896
0.010814639 0.044467323 -0.029666424 0.05221455 -0.008281777 0.0102851335 -0.0017483123 0.04152179
-0.030871283 -0.041002877 -0.02066986 0.053156875 0.034595937 0.03934359 -0.0488381 0.03135948
-0.035585903 -0.048429698 0.011386285 -0.055625618 -0.022341711 0.016690338 -0.017527765 0.037883457
0.036438916 0.016234975 0.0019870934 0.00087900285 0.058085486 -0.016747128 0.0018402687 0.024717316
-0.0163724 -0.015728839 0.004755908 -0.022355583 -0.041919634 0.054885376 0.014040781 0.053038307
-0.036856726 -0.0014710417 -0.019147065 0.0045867376 -0.05492378 0.026755903 0.016537823 -0.04496844
-0.029291624 -0.009361298 -0.006225757 0.029607756 -0.059930198 0.00877264 0.052601997 0.025248813
-0.029889971 0.01905732 -0.053323414 -0.0373583 -0.057620846 0.050149262 0.010997419 0.00010047054
0.036067862 -0.051872376 -0.0058562085 -0.05392664 -0.024983315 -0.04146356 0.004537401 0.03317115
-0.051198754 -0.023825917 0.035755526 -0.016687376 -0.06415364 -0.0550755 -0.023859806 -0.01130447
00000000: 1237 003d 94b6 6bbd acb4 923c 08d9 0c3c
00000010: 1249 97bc a8d2 82bd 6808 b2bb 2fff 92bd
00000020: e0e2 543b f61a 693d 0628 e4bc 4ea1 653d
00000030: 805f 343d 4f7e 76bd b9d5 02bd eca7 1fbc
00000040: 9f75 e73c 42f5 40bd fce5 9c3c 48b6 2cbc
00000050: 3c34 3c3d 90ec d13c 9030 c23c fad0 edbc
00000060: 1094 8e3c 602f ba3b f372 70bd 22b2 703d
00000070: b4ca 5d3d 2066 a93c e2d0 b3bc 10cd 5cbb
00000080: ae9e f6bc ac76 c0bc a465 523d 9832 fc3c
00000090: 9823 a63c 00ae 563c 0c2b 05bd 0072 0abd
000000a0: a869 aa3c acaf 9e3c e637 5abd 7a73 dcbc
000000b0: 3506 fcbc 9c45 3f3d 98ba 5cbc 6052 b73b
000000c0: cc50 87bc 1ca8 21bd c0de f53a e046 16bb
000000d0: 1cbe acbc 502a 1bbb f03c 463d 364f 39bd
000000e0: 2b0e 45bd 6c32 16bc 1867 bcbb 908a 50bb
000000f0: 9264 6f3d 2056 d5bb 38cf a03c f0ea 1bbb
00000100: d0c4 4d3d 9bea 06bd 0610 6d3d ba2d 6e3d
00000110: 1253 06bd 2a3f 703d 4046 773b 1052 5a3c
00000120: 3c7a a03c 14f2 243d cab1 66bd f27b 33bd
00000130: 7506 13bd d4ed 79bc 904a 343d fa58 2b3d
00000140: 3ab7 083d 6ca7 66bd a0ff d03b b201 2fbd
00000150: 48eb a6bc 68d8 7e3c 163a 5b3d fec5 3ebd
00000160: 2eaf edbc c339 06bd 1c83 cdbc 3085 15bd
00000170: 4c5c 40bc e06e ff3c 0447 61bd 38a9 de3c
00000180: d654 60bd 003b e13b 00ce e33b 486c 8cbb
00000190: d2fa f5bc 7cc3 bbbc 4e68 173d bdec 4d3d
000001a0: def7 31bd 3fc7 9e3c c076 203d c6c7 5abd
000001b0: 653e 47bd 7819 783d f28b 043d 6498 c0bc
000001c0: c17c cdbc 08a8 2a3d ae17 a63a 5157 78bd
000001d0: 2a87 56bd 80b7 f33a a050 94bb 1c03 1a3d
000001e0: bef4 7d3c 93c4 75bd 997b 6e3c 8cb7 f03c
000001f0: e078 413b ccaf 2f3d 5cb4 503d 4113 643d
00000200: cdef 4ebd 562c 513d e85a fa3c c649 863d
00000210: 42fc d63b 4e5c e5b9 7dc5 b43c f871 f63a
00000220: 32c1 edbc 3257 283c 442f 09bd 0066 783d
00000230: e72c 7c3c 6934 35bd 7ef7 9fbc 3028 d23b
00000240: 4503 fbbc 3577 67bb adc1 e2ba 1024 1bbc
00000250: 09a2 183d 6359 04bd 8540 1dbd 0032 ffb9
00000260: 6054 6e3d ba4e 163d 2c95 023d 9d42 29bd
00000270: d611 3e3d 64ed dcbb 565e 403c dcbf bb3c
00000280: 18f4 0bbd 1665 42bd 5e14 e0bc e5d5 093d
00000290: 7aed 3abb 2e33 e13c e6ba cbbc 64cc 84bc
000002a0: edf3 5c3d d683 22bd ec12 b1bc 2f79 61bd
000002b0: a0a7 19bb 1f2a b03c 4068 78bb 3794 0bbd
000002c0: e22f 313c 5e23 363d 0007 f3bc edde 553d
000002d0: 4ab0 07bc fa82 283c a027 e5ba c112 2a3d
000002e0: c6e5 fcbc a2f2 27bd d753 a9bc 06bb 593d
000002f0: 78b4 0d3d bf26 213d 760a 48bd cc72 003d
00000300: 86c2 11bd 385e 46bd 8a8d 3a3c b0d7 63bd
00000310: f705 b7bc 2dba 883c 6396 8fbc af2b 1b3d
00000320: f940 153d 36ff 843c e539 023b e26c 663a
00000330: 0ceb 6d3d 4631 89bc 2c35 f13a f87b ca3c
00000340: 691f 86bc c4d9 80bc 73d7 9b3b 0e23 b7bc
00000350: ecb3 2bbd 7dcf 603d 4e0b 663c b23e 593d
00000360: 14f7 16bd f8cf c0ba 4eda 9cbc 584c 963b
00000370: c2f7 60bd 322f db3c 547a 873c d430 38bd
00000380: fdf4 efbc 2160 19bc 6f01 ccbb f78b f23c
00000390: 5e79 75bd 1ebb 0f3c 3175 573d 99d6 ce3c
000003a0: d0db f4bc 191e 9c3c a769 5abd 0405 19bd
000003b0: d603 6cbd 5069 4d3d 852e 343c b6b3 d238
000003c0: e5bb 133d 2178 54bd 70e5 bfbb 2ee2 5cbd
000003d0: cfa9 ccbc b2d5 29bd 7aae 943b 79de 073d
000003e0: c9b5 51bd 922e c3bc 6374 123d f7b3 88bc
000003f0: fc62 83bd d996 61bd a475 c3bc 6236 39bc

encoder_sol.W_o.bias f4 [128]
-0.06755688 0.03260764 0.0059351474 -0.011863186 -0.031824104 -0.0050030653 -0.027096743 -0.023138702
-0.049629413 -0.06865011 -0.029426452 -0.028031984 -0.0071432143 -0.011278792 -0.019569641 -0.05861843
0.028921276 0.050293114 -0.04031628 -0.05110001 -0.010766359 -0.020404106 0.08173675 -0.0068298993
-0.0028353028 -0.029926866 -0.063986264 0.061965145 0.025629917 0.06073394 0.008687314 0.0045725936
0.06890177 -0.030771803 -0.038038623 -0.004410104 0.027435219 -0.0048309052 0.013018233 -0.0051815636
0.03406181 -0.013898512 -0.017728353 -0.032014932 -0.009023519 -0.05389424 0.023016471 -0.048574504
-0.040068287 -0.03847495 0.041013557 0.041257467 0.023661397 -0.04148257 -0.043857556 -0.05584518
-0.03392988 0.00080524036 -0.0013407795 -0.056056768 -0.03598613 -0.04831248 0.036518607 -0.030680846
0.023473278 -0.017261367 0.0009436077 0.021112593 0.024284156 -0.04872161 0.05507389 0.052619375
0.050760698 0.0066086776 -0.014705096 0.015343654 -0.0374152 0.04903908 -0.06440397 0.055927593
0.039466552 0.026387287 -0.0046679885 0.03680776 -0.036271363 -0.004590656 -0.03829151 -0.032723255
-0.0044046124 -0.04294958 -0.015316559 -0.020909378 0.009334886 -0.05300427 0.050110865 0.015379088
0.0052487035 -0.060276743 0.06520384 -0.018348213 -0.030467225 0.041634608 -0.0010839343 0.014092231
-0.031102503 0.043414924 0.047022175 -0.024825467 -0.06681461 0.038115673 -0.0066757277 0.045883976
-0.045924824 -0.05898703 0.016886799 0.041168664 0.026378645 -0.063528456 0.05995213 -0.007878165
0.03403985 -0.0020356064 0.012293706 0.042542662 -0.010952108 -0.04013635 0.0064926753 -0.030972062
00000000: 435b 8abd 978f 053d a07b c23b cf5d 42bc
00000010: fe59 02bd c1f0 a3bb fdf9 ddbc 608d bdbc
00000020: 3648 4bbd 6e98 8cbd be0f f1bc 55a3 e5bc
00000030: a011 eabb afca 38bc 8350 a0bc e119 70bd
00000040: 50ec ec3c 2700 4e3d af22 25bd 3e4e 51bd
00000050: 6265 30bc 8326 a7bc 9965 a73d 59cd dfbb
00000060: 7dd0 39bb 3029 f5bc 3b0b 83bd 2acf 7d3d
00000070: d5f5 d13c 27c4 783d 3c55 0e3c b2d5 953b
00000080: 5f1c 8d3d 2615 fcbc 63ce 1bbd a282 90bb
00000090: d3bf e03c 924c 9ebb 6d4a 553c 1bca a9bb
000000a0: 6584 0b3d 96b6 63bc 0d3b 91bc 1722 03bd
000000b0: 62d7 13bc 35c0 5cbd 0a8d bc3c 0ff6 46bd
000000c0: a51e 24bd e997 1dbd d5fd 273d 97fd 283d
000000d0: 8cd5 c13c a1e9 29bd fba3 33bd eabd 64bd
000000e0: 0ffa 0abd c416 533a 18bd afba c89b 65bd
000000f0: 3166 13bd 4fe3 45bd 8994 153d 6656 fbbc
00000100: 084b c03c b667 8dbc 715c 773a 51f4 ac3c
00000110: 91ef c63c 5090 47bd 2995 613d 6a87 573d
00000120: 73ea 4f3d 9b8d d83b a5ed 70bc f363 7b3c
00000130: ae40 19bd 34dd 483d 3be6 83bd 5514 653d
00000140: aea7 213d 272a d83c edf5 98bb bcc3 163d
00000150: 4891 14bd 376d 96bb 8fd7 1cbd d208 06bd
00000160: 9154 90bb e6eb 2fbd 4ef2 7abc 254a abbc
00000170: 5af1 183c 011b 59bd 0d41 4d3d 92f8 7b3c
00000180: 51fd ab3b bfe4 76bd 9789 853d fe4e 96bc
00000190: 6796 f9bc 0d89 2a3d cd12 8eba 1ae3 663c
000001a0: adca febc d9d3 313d 539a 403d c75e cbbc
000001b0: 19d6 88bd 2e1f 1c3d 10c0 dabb d6f0 3b3d
000001c0: ab1b 3cbd 629c 71bd 2f56 8a3c 79a0 283d
000001d0: 0718 d83c 351b 82bd 5d90 753d 6b13 01bc
000001e0: 5f6d 0b3d cf67 05bb 8a6b 493c 3741 2e3d
000001f0: 7870 33bc 0366 24bd 82c0 d43b 1fb9 fdbc

encoder_solv.cached_zero_vector f4 [128]
0.0 0.0 0.0 0.0 0.0 0.0 0.0 0.0
0.0 0.0 0.0 0.0 0.0 0.0 0.0 0.0
0.0 0.0 0.0 0.0 0.0 0.0 0.0 0.0
0.0 0.0 0.0 0.0 0.0 0.0 0.0 0.0
0.0 0.0 0.0 0.0 0.0 0.0 0.0 0.0
0.0 0.0 0.0 0.0 0.0 0.0 0.0 0.0
0.0 0.0 0.0 0.0 0.0 0.0 0.0 0.0
0.0 0.0 0.0 0.0 0.0 0.0 0.0 0.0
0.0 0.0 0.0 0.0 0.0 0.0 0.0 0.0
0.0 0.0 0.0 0.0 0.0 0.0 0.0 0.0
0.0 0.0 0.0 0.0 0.0 0.0 0.0 0.0
0.0 0.0 0.0 0.0 0.0 0.0 0.0 0.0
0.0 0.0 0.0 0.0 0.0 0.0 0.0 0.0
0.0 0.0 0.0 0.0 0.0 0.0 0.0 0.0
0.0 0.0 0.0 0.0 0.0 0.0 0.0 0.0
0.0 0.0 0.0 0.0 0.0 0.0 0.0 0.0
00000000: 0000 0000 0000 0000 0000 0000 0000 0000
00000010: 0000 0000 0000 0000 0000 0000 0000 0000
00000020: 0000 0000 0000 0000 0000 0000 0000 0000
00000030: 0000 0000 0000 0000 0000 0000 0000 0000
00000040: 0000 0000 0000 0000 0000 0000 0000 0000
00000050: 0000 0000 0000 0000 0000 0000 0000 0000
00000060: 0000 0000 0000 0000 0000 0000 0000 0000
00000070: 0000 0000 0000 0000 0000 0000 0000 0000
00000080: 0000 0000 0000 0000 0000 0000 0000 0000
00000090: 0000 0000 0000 0000 0000 0000 0000 0000
000000a0: 0000 0000 0000 0000 0000 0000 0000 0000
000000b0: 0000 0000 0000 0000 0000 0000 0000 0000
000000c0: 0000 0000 0000 0000 0000 0000 0000 0000
000000d0: 0000 0000 0000 0000 0000 0000 0000 0000
000000e0: 0000 0000 0000 0000 0000 0000 0000 0000
000000f0: 0000 0000 0000 0000 0000 0000 0000 0000
00000100: 0000 0000 0000 0000 0000 0000 0000 0000
00000110: 0000 0000 0000 0000 0000 0000 0000 0000
00000120: 0000 0000 0000 0000 0000 0000 0000 0000
00000130: 0000 0000 0000 0000 0000 0000 0000 0000
00000140: 0000 0000 0000 0000 0000 0000 0000 0000
00000150: 0000 0000 0000 0000 0000 0000 0000 0000
00000160: 0000 0000 0000 0000 0000 0000 0000 0000
00000170: 0000 0000 0000 0000 0000 0000 0000 0000
00000180: 0000 0000 0000 0000 0000 0000 0000 0000
00000190: 0000 0000 0000 0000 0000 0000 0000 0000
000001a0: 0000 0000 0000 0000 0000 0000 0000 0000
000001b0: 0000 0000 0000 0000 0000 0000 0000 0000
000001c0: 0000 0000 0000 0000 0000 0000 0000 0000
000001d0: 0000 0000 0000 0000 0000 0000 0000 0000
000001e0: 0000 0000 0000 0000 0000 0000 0000 0000
000001f0: 0000 0000 0000 0000 0000 0000 0000 0000

encoder_solv.W_i.weight f4 [128, 147]
0.0036035106 0.073833406 0.05411184 -0.04490448 0.0028953336 -0.05856244 -0.065112755 -0.0468878
-0.031857964 -0.063105755 -0.02081798 0.011204816 -0.08175087 -0.055016562 -0.008806421 -0.014475216
0.0060968623 0.022811703 -0.05608024 -0.063672855 -0.005139224 0.029786132 -0.064909086 -0.03477767
-0.08050318 0.024125338 0.013553172 -0.03422224 -0.073140055 -0.026873916 0.04989688 -0.081190586
-0.07129574 0.06690249 0.037461612 0.055976853 0.026403703 0.042436987 -0.08177345 -0.059353128
-0.0031357706 0.05761817 0.033394486 0.005227849 0.07333657 -0.008784041 0.078265786 0.081112236
0.0751698 -0.05132108 0.0009860843 -0.032931644 0.008087111 0.04432614 -0.014742836 0.061926126
-0.04326473 -0.039329663 -0.00010457635 0.045989096 0.0588675 -0.017743297 -0.06937708 0.045731887
0.02933307 -0.042574197 0.029279359 0.05551143 -0.0330443 0.009591103 -0.014475517 -0.014200382
0.028402857 -0.06309951 0.06354283 0.009389669 0.06660433 -0.024278644 -0.07383444 0.08147612
-0.055202566 -0.025385387 0.021359697 -0.013406463 0.06830442 0.020660743 -0.011249937 0.0632166
-0.03688283 0.04375927 0.014677353 -0.0077480823 0.03831496 0.018912606 -0.052524045 0.015844777
-0.046963673 0.00013720989 0.05902773 0.019271843 -0.07536102 0.057711124 -0.019027976 0.03515329
-0.049434576 0.034780644 0.0583888 -0.068852834 -0.042612582 -0.040442277 0.07308802 -0.010341898
0.014878865 0.009806685 -0.054836415 -0.06930104 -0.024307698 0.054413036 -0.06093136 -0.023982346
0.07231092 0.027338188 -0.08241109 0.014297776 -0.059220426 0.015666077 -0.027435312 0.01032948
-0.05014651 0.06071803 0.0718613 0.029864933 -0.025608087 0.004867092 -0.002913291 0.022469899
0.072170556 0.0123464875 -0.04306334 0.030381674 -0.0645611 -0.021653265 0.074723944 0.03934843
0.009738326 -0.061750174 0.069128156 -0.01876355 -0.06402229 -0.053545572 0.023456909 0.012838796
-0.067352206 0.008653888 0.10838553 -0.040234476 0.0316083 0.014477663 -0.069330215 -0.022541761
0.04820767 -0.025102064 0.0029403903 0.11562099 0.021446727 0.014716901 -0.035570975 0.024842799
0.06263389 0.07501538 0.0017496198 -0.016660437 0.06632261 0.078314856 0.002109699 -0.04574151
-0.05375283 0.018793814 0.029638797 0.042945877 -0.081425644 0.016185017 -0.0637759 -0.060946696
-0.01260332 -0.049778823 -0.029417738 0.0375154 -0.047633443 -0.080497384 -0.05465509 0.0068090037
0.066229954 0.06898676 0.010186523 0.0015545487 -0.021519538 0.051732257 0.074420586 0.07072034
-0.070904955 -0.03929174 0.070366144 0.04624681 0.060017347 0.005759105 -0.011076443 -0.028944727
0.060961127 -0.062255003 0.0398269 -0.059101395 -0.049046155 -0.04898658 -0.04968876 0.054718837
-0.0012875497 0.010878548 -0.06885168 -0.045739513 -0.010297179 0.047815964 -0.07753675 0.059135154
0.07953581 0.0025539175 -0.020931058 -0.07478573 -0.048175257 0.00033368915 -0.00625699 -0.057372253
-0.068987004 -0.058441184 0.0022391826 -0.049926482 -0.05054543 -0.0060791597 0.08121368 -0.037324067
-0.032209072 0.06577918 0.025101587 -0.008597538 -0.009955451 -0.07495568 0.075313374 0.07723591
-0.015504941 -0.014097788 0.10812295 -0.041476052 0.09393184 -0.054961424 0.0640011 0.0016282023
00000000: e028 6c3b f835 973d 60a4 5d3d c3ed 37bd
00000010: a3bf 3d3b 2bdf 6fbd d659 85bd 6c0d 40bd
00000020: 7f7d 02bd 973d 81bd 788a aabc 6894 373c
00000030: 006d a7bd 0c59 61bd cf48 10bc 7529 6dbc
00000040: 30c8 c73b 9cdf ba3c 65b4 65bd ea66 82bd
00000050: f066 a8bb 0c02 f43c 0eef 84bd 0873 0ebd
00000060: dade a4bd 80a2 c53c 200e 5e3c 9f2c 0cbd
00000070: 74ca 95bd b026 dcbc ac60 4c3d 4047 a6bd
00000080: 8003 92bd 2c04 893d 5971 193d fc47 653d
00000090: 944c d83c 68d2 2d3d d778 a7bd 441c 73bd
000000a0: 8081 4dbb 0801 6c3d a8c8 083d 604e ab3b
000000b0: 7c31 963d f0ea 0fbc d049 a03d 2c1e a63d
000000c0: a0f2 993d 0e36 52bd 803f 813a 55e3 06bd
000000d0: cd7f 043c 548f 353d f08b 71bc 40a6 7d3d
000000e0: 5c36 31bd 2418 21bd 0050 dbb8 105f 3c3d
000000f0: 0c1f 713d 645a 91bc 9215 8ebd 5c51 3b3d
00000100: e84b f03c 4862 2ebd 44db ef3c f45f 633d
00000110: 7659 07bd 0024 1d3c b82a 6dbc b8a8 68bc
00000120: 1cad e83c 513a 81bd be22 823d 20d7 193c
00000130: da67 883d 02e4 c6bc 8336 97bd f4dc a63d
00000140: 161c 62bd 04f5 cfbc 88fa ae3c c8a6 5bbc
00000150: 30e3 8b3d b840 a93c a851 38bc b477 813d
00000160: 7312 17bd ec3c 333d 4879 703c a0e3 fdbb
00000170: 26f0 1c3d 9cee 9a3c 7423 57bd e8cc 813c
00000180: fb5c 40bd 00e0 0f39 10c7 713d fcdf 9d3c
00000190: e156 9abd 8062 6c3d 8fe0 9bbc e5fc 0f3d
000001a0: e97b 4abd 2676 0e3d 1829 6f3d b702 8dbd
000001b0: 888a 2ebd cda6 25bd 2caf 953d 1071 29bc
000001c0: 7cc6 733c 38ac 203c 269c 60bd b4ed 8dbd
000001d0: f020 c7bc 34e0 5e3d 2993 79bd a076 c4bc
000001e0: bf17 943d 56f4 df3c 25c7 a8bd 3841 6a3c
000001f0: 1e91 72bd 2556 803c 05c0 e0bc fb3c 293c
00000200: 6d66 4dbd 78b3 783d 042c 933d 4ea7 f43c
00000210: 0dc8 d1bc 207c 9f3b eaec 3ebb cb12 b83c
00000220: 28ce 933d ec48 4a3c 2f63 30bd fde2 f83c
00000230: 9c38 84bd 3062 b1bc de08 993d d22b 213d
00000240: 808d 1f3c c0ed 7cbd 1093 8d3d 04b6 99bc
00000250: 1e1e 83bd 9a52 5bbd b428 c03c d059 523c
00000260: f4ef 89bd 09c9 0d3c 3cf9 dd3d e8cc 24bd
00000270: b477 013d b833 6d3c 00fd 8dbd 80a9 b8bc
00000280: 6875 453d d8a2 cdbc 90b3 403b b3ca ec3d
00000290: 0cb1 af3c 281f 713c dfb2 11bd 2083 cb3c
000002a0: 3246 803d aaa1 993d 8053 e53a 787b 88bc
000002b0: 26d4 873d 8a63 a03d e042 0a3b 735b 3bbd
000002c0: ed2b 5cbd 7cf5 993c 10cd f23c 04e8 2f3d
000002d0: 7dc2 a6bd 7196 843c f09c 82bd 3ea3 79bd
000002e0: 287e 4ebc e1e4 4bbd 78fd f0bc c0a9 193d
000002f0: 491b 43bd d0db a4bd 04de 5fbd 101e df3b
00000300: 92a3 873d ee48 8d3d 60e5 263c 00c2 cb3a
00000310: be49 b0bc 34e5 533d d269 983d d3d5 903d
00000320: 9e36 91bd 60f0 20bd 201c 903d 4c6d 3d3d
00000330: c0d4 753d e0b6 bc3b f879 35bc 7e1d edbc
00000340: 60b2 793d 1aff 7ebd 8821 233d 4e14 72bd
00000350: 9fe4 48bd 27a6 48bd 7186 4bbd dc20 603d
00000360: 00c3 a8ba f03b 323c 1c02 8dbd 5b59 3bbd
00000370: 80b5 28bc acda 433d 96cb 9ebd b437 723d
00000380: ace3 a23d a05f 273b 9c77 abbc 4329 99bd
00000390: 6b53 45bd 00f3 ae39 7007 cdbb 2bff 6abd
000003a0: 0f49 8dbd 0660 6fbd 40bf 123b b67f 4cbd
000003b0: ba08 4fbd b033 c7bb 5c53 a63d 1fe1 18bd
000003c0: a9ed 03bd 3cb7 863d d8a1 cd3c b0dc 0cbc
000003d0: 301c 23bc 5d82 99bd e63d 9a3d dc2d 9e3d
000003e0: 7008 7ebc 69fa 66bc 916f dd3d cbe2 29bd
000003f0: 565f c03d 3b1f 61bd 0213 833d 6769 d53a

encoder_solv.W_i.bias f4 [128]
0.029879702 -0.0011526584 -0.026533186 0.040213462 0.065114155 0.05120456 -0.049359467 -0.029004572
0.04792562 -0.0019141156 0.055214167 -0.04748312 -0.015011096 0.039597638 -0.03000448 -3.9561724e-05
0.057782948 0.060434073 -0.0013565718 -0.0024190242 0.015846722 -0.07308232 0.066775486 0.0034110076
0.03548571 0.06412357 -0.074267454 0.05755244 -0.06194931 -0.06231044 -0.0126384515 -0.071273044
0.06939666 -0.063723944 0.039708152 0.048882168 -0.042101942 -0.016356746 0.05996122 0.017407082
0.06091175 0.0478106 0.027159046 -0.071989216 -0.0057319873 -0.03985434 0.033322327 -0.045897443
0.03419895 -0.0057643764 -0.074095294 0.03478732 0.013338465 -0.034442846 -0.018415725 0.029271472
-0.077223755 0.06827515 0.0685703 -0.059570637 -0.037657015 0.042220708 -0.04424635 0.01063351
0.049223434 -0.07131289 0.0032475353 0.029025488 0.0031635892 0.0434411 0.049165644 0.014019964
0.011311217 -0.0564553 0.02478139 0.037486378 0.035332784 0.05144509 -0.068546385 -0.08553326
0.019183613 -0.04640459 0.015033725 -0.012496879 -0.06687832 0.050865613 0.055377748 -0.017980635
-0.007770932 -0.053741504 0.058261003 -0.004164366 -0.03106615 0.0041355793 -0.00070127205 0.042923637
0.015187412 -0.0053425157 0.03770126 -0.068522945 -0.06701374 -0.013818746 -0.023955451 0.032872666
-0.07320375 0.05911521 -0.04996417 -0.04716147 0.01907668 0.05030695 -0.0618429 -0.07744764
0.047303516 -0.008697942 -0.08607343 -0.055359587 0.03479347 -0.06705944 -0.0661199 -0.0030035337
-0.033117086 0.021767579 -0.08215137 -0.06512299 -0.07433917 0.063039675 -0.0247032 0.002034041
00000000: 47c6 f43c cc14 97ba 205c d9bc dfb6 243d
00000010: 925a 853d dfbb 513d 272d 4abd ff9a edbc
00000020: a84d 443d 10e3 faba 4028 623d a97d 42bd
00000030: 1af1 75bc 2231 223d f5cb f5bc 14ef 25b8
00000040: d0ad 6c3d b889 773d ffce b1ba 7e88 1ebb
00000050: fcd0 813c 2fac 95bd 96c1 883d 368b 5f3b
00000060: 7759 113d 3853 833d 8919 98bd 1bbc 6b3d
00000070: 8fbe 7dbd 3b39 7fbd 8211 4fbc 9af7 91bd
00000080: d61f 8e3d b381 82bd 04a5 223d ab38 483d
00000090: 1673 2cbd 95fe 85bc e599 753d 4c99 8e3c
000000a0: 997e 793d 0cd5 433d a67c de3c 156f 93bd
000000b0: 65d3 bbbb 4e3e 23bd fe7c 083d f5fe 3bbd
000000c0: 3314 0c3d 18e3 bcbb 46bf 97bd 267d 0e3d
000000d0: 9489 5a3c f113 0dbd 93dc 96bc baca ef3c
000000e0: 7d27 9ebd d8d3 8b3d 966e 8c3d 5700 74bd
000000f0: 3e3e 1abd 9fef 2c3d a93b 35bd 2c38 2e3c
00000100: 839e 493d 7e0c 92bd 9ad4 543b dcc6 ed3c
00000110: 3854 4f3b 4bef 313d ea61 493d feb3 653c
00000120: af52 393c ac3d 67bd 5702 cb3c 518b 193d
00000130: 1cb9 103d 16b8 523d 0c62 8cbd 102c afbd
00000140: f426 9d3c bd12 3ebd 0350 763c b6bf 4cbc
00000150: 80f7 88bd 7658 503d c7d3 623d 204c 93bc
00000160: 4da3 febb 0d20 5cbd 17a3 6e3d 3c75 88bb
00000170: 707e febc c183 873b 92d5 37ba b2d0 2f3d
00000180: 9fd4 783c 4510 afbb a36c 1a3d c255 8cbd
00000190: 803e 89bd 0668 62bc 393e c4bc 7da5 063d
000001a0: d9eb 95bd ca22 723d 3ba7 4cbd 632c 41bd
000001b0: b346 9c3c a90e 4e3d fb4e 7dbd de9c 9ebd
000001c0: 55c1 413d d081 0ebc 4447 b0bd bcc0 62bd
000001d0: 9983 0e3d 7656 89bd df69 87bd efd6 44bb
000001e0: c8a5 07bd ec51 b23c fa3e a8bd 345f 85bd
000001f0: 223f 98bd f21a 813d 5e5e cabc 8c4d 053b

encoder_solv.W_h.weight f4 [128, 128]
0.07898996 -0.000545411 -0.008259134 0.0120765995 -0.031404976 0.035836175 0.08250544 -0.09086224
-0.07011992 -0.00915034 -0.029220065 0.045636605 0.052254867 -0.011430526 0.022860201 0.051619463
0.029417597 -0.018375188 0.039418675 -0.040488183 -0.070768796 -0.029074376 0.07769746 -0.00071634183
-0.02869895 -0.05803055 -0.0065544997 -0.07116944 0.03843035 0.021669626 -0.049997017 -0.024281643
0.084808476 0.06338783 0.0005921065 0.009361177 0.045600846 0.029039437 -0.014707063 -0.07461141
-0.03827597 0.08856773 0.019314205 -0.008127464 0.016016401 0.045436986 -0.07772117 0.07792335
0.06769885 -0.06856574 0.06450364 0.05996229 -0.09998923 0.0828004 0.04347961 -0.0069811223
0.032725047 0.032629613 0.036848202 0.02259134 0.013572227 0.09828013 0.02995061 0.008092726
0.0053633694 -0.01803298 0.028307619 -0.030792948 0.070481665 -0.00036016008 -0.05597402 -0.013807312
-0.02937274 -0.047986414 0.016754003 0.00886884 -0.017625796 -0.05029041 0.00452459 -0.05572278
-0.053575926 0.016900547 0.011063502 -0.04246483 -0.042820364 0.07921526 0.072216935 -0.013454068
0.05821061 -0.03818972 -0.025065774 -0.06440525 0.07958432 -0.045849156 0.005588884 0.029109424
-0.03486667 -0.062954 -0.025106203 -0.047428753 0.08528886 0.056031734 0.08242158 0.020812854
0.031831097 0.0949107 0.022730855 0.06981647 0.05653679 0.023110934 0.03967213 0.07592636
0.041154854 -0.027305974 0.09084987 0.07338479 -0.0636271 0.038486514 0.07034082 0.06866105
-0.039936263 -0.043507498 -0.085332766 -0.06936232 0.091019414 0.045777913 0.06863025 -0.04022984
0.022196 -0.023626195 -0.01623542 -0.017632175 0.044127505 -0.08585655 0.04000653 -0.01329939
0.0041205813 0.13427942 0.065028325 0.014835112 -0.035841737 0.066252306 0.086634986 -0.030130526
-0.006616829 0.10175148 -0.064812265 -0.07313519 0.032184113 -0.035728756 0.06724794 0.040903505
-0.09177193 -0.06555706 0.028789418 -0.07006629 0.013783515 0.012874533 0.036788862 -0.01676242
-0.029976014 0.022169333 0.055644676 0.026101848 0.06213497 -0.011626841 -0.035264723 0.091537565
-0.032385655 -0.060869593 0.019508472 -0.010619646 0.07962364 -0.06107567 0.059660144 -0.0704498
0.08297448 0.0041576736 0.012294292 0.10285548 0.065391675 -0.042590737 -0.002447137 -0.0278725
-0.011453594 0.002602963 0.05036624 -0.0029278945 0.0014706505 -0.008284756 0.08495777 -0.0001283715
0.07973935 0.09259139 -0.0148627935 -0.040841635 0.0045460407 -0.061261613 -0.051120598 0.077973835
-0.032324877 0.06977762 -0.05062552 -0.03880512 0.04668119 -0.074412 -0.08359773 -0.0066982917
0.050277002 -0.057604168 -0.0696718 0.08444104 0.033866797 0.09248986 0.04331916 -0.025760813
-0.026531562 0.0806595 -0.08888131 0.08914818 0.03640528 0.0011385392 0.08906019 -0.006043062
0.06944247 -0.020066708 0.094242506 -0.004879268 0.0762773 0.0030383393 -0.02906241 -0.04721032
0.07282484 0.030348822 0.08421333 -0.04484133 0.054953158 0.06255854 -0.068717286 0.013586329
-0.027824681 -0.036472246 0.037844375 0.041967813 0.09651603 0.0090489695 -0.069194 -0.043934528
-0.06478612 0.04133777 0.08376665 0.027860224 -0.03272594 -0.07390124 -0.033366494 -0.040031545
00000000: 7dc5 a13d eaf9 0eba 5251 07bc eedc 453c
00000010: 81a2 00bd f4c8 123d 9df8 a83d fb15 babd
00000020: 089b 8fbd 4feb 15bc eb5e efbc 73ed 3a3d
00000030: 3309 563d 1a47 3bbc 5145 bb3c ee6e 533d
00000040: 2cfd f03c 9087 96bc 7a75 213d f0d6 25bd
00000050: 3bef 90bd 632d eebc d91f 9f3d e3c8 3bba
00000060: 0f1a ebbc 71b1 6dbd 21c7 d6bb 49c1 91bd
00000070: 2569 1d3d 8084 b13c acc9 4cbd 4cea c6bc
00000080: 11b0 ad3d 7bd1 813d 9837 1b3a 9f5f 193c
00000090: f4c7 3a3d 1de4 ed3c e5f5 70bc decd 98bd
000000a0: 43c7 1cbd ff62 b53d d338 9e3c 0e29 05bc
000000b0: d434 833c 221c 3a3d 472c 9fbd 4796 9f3d
000000c0: b2a5 8a3d 326c 8cbd 7c1a 843d 059b 753d
000000d0: 27c7 ccbd 4293 a93d ad17 323d e6c1 e4bb
000000e0: b30a 063d a1a6 053d 24ee 163d 7911 b93c
000000f0: 0c5e 5e3c 1847 c93d fb5a f53c 5a97 043c
00000100: 34bf af3b e6b9 93bc 61e5 e73c 7e41 fcbc
00000110: b158 903d ded3 bcb9 0445 65bd 1038 62bc
00000120: 1a9f f0bc 678d 44bd b13f 893c 9c4e 113c
00000130: f963 90bc 51fd 4dbd 0343 943b 923d 64bd
00000140: 6e72 5bbd 0473 8a3c b143 353c 9aef 2dbd
00000150: 6864 2fbd 9c3b a23d 79e6 933d 746e 5cbc
00000160: 406e 6e3d d36c 1cbd bd56 cdbc e6e6 83bd
00000170: 1bfd a23d 53cc 3bbd f522 b73b e376 ee3c
00000180: 5ad0 0ebd 07ee 80bd 86ab cdbc a744 42bd
00000190: edab ae3d 8881 653d a5cc a83d b87f aa3c
000001a0: 5361 023d 8b60 c23d 0f36 ba3c f0fb 8e3d
000001b0: 1f93 673d 2453 bd3c 3e7f 223d 487f 9b3d
000001c0: fe91 283d c7b0 dfbc 7f0f ba3d c44a 963d
000001d0: ed4e 82bd 09a4 1d3d d90e 903d 2a9e 8c3d
000001e0: 3594 23bd eb34 32bd f2c2 aebd d50d 8ebd
000001f0: 6368 ba3d 9f81 3b3d 048e 8c3d 0bc8 24bd
00000200: 63d4 b53c b98b c1bc 2500 85bc 5a71 90bc
00000210: 0bbf 343d 8fd5 afbd e3dd 233d afe5 59bc
00000220: f105 873b 8b80 093e 922d 853d f80e 733c
00000230: c9ce 12bd 4aaf 873d af6d b13d 4bd4 f6bc
00000240: fcd1 d8bb 1463 d03d 4bbc 84bd e7c7 95bd
00000250: 7dd3 033d 5158 12bd 4ab9 893d 6f8a 273d
00000260: ecf2 bbbd c842 86bd c9d7 eb3c ea7e 8fbd
00000270: 41d4 613c b5ef 523c ebaf 163d 5851 89bc
00000280: 4290 f5bc 769c b53c aceb 633d 8bd3 d53c
00000290: 3d81 7e3d 817e 3ebc be71 10bd 0c78 bb3d
000002a0: d2a6 04bd 6552 79bd 3bd0 9f3c 06fe 2dbc
000002b0: b811 a33d 7b2a 7abd 325e 743d fc47 90bd
000002c0: 86ee a93d 183d 883b 006e 493c e5a5 d23d
000002d0: 12ec 853d a073 2ebd 2560 20bb de54 e4bc
000002e0: dba7 3bbc 7996 2a3b d54c 4e3d ebe1 3fbb
000002f0: d8c2 c03a c9bc 07bc 57fe ad3d 769b 06b9
00000300: 624e a33d 8ea0 bd3d 1383 73bc 8f49 27bd
00000310: f4f6 943b 75ed 7abd d563 51bd bfb0 9f3d
00000320: 1767 04bd 92e7 8e3d b55c 4fbd 1ef2 1ebd
00000330: c734 3f3d 5265 98bd 4935 abbd 587d dbbb
00000340: 42ef 4d3d 59f2 6bbd 17b0 8ebd 6def ac3d
00000350: e9b7 0a3d 536b bd3d 6e6f 313d 5708 d3bc
00000360: b858 d9bc cf30 a53d 6707 b6bd 5293 b63d
00000370: b41d 153d 093b 953a 3065 b63d e104 c6bb
00000380: db37 8e3d f062 a4bc 3702 c13d 44e2 9fbb
00000390: 4637 9c3d e01e 473b 4b14 eebc 9c5f 41bd
000003a0: 3125 953d 189e f83c 0a78 ac3d 8bab 37bd
000003b0: 9016 613d b11e 803d a6bb 8cbd 3299 5e3c
000003c0: 96f0 e3bc ec63 15bd b402 1b3d 71e6 2b3d
000003d0: 32aa c53d 2142 143c 95b5 8dbd b1f4 33bd
000003e0: 96ae 84bd cb51 293d d98d ab3d 203b e43c
000003f0: a30b 06bd 8959 97bd 4eab 08bd 1ef8 23bd
