THESIS/transfer_learning/checkpoints/DMPNN_with_attention.pt (torch, 558709 bytes, 15 tensors)

encoder_sol.cached_zero_vector f4 [128]
0.0 0.0 0.0 0.0 0.0 0.0 0.0 0.0
0.0 0.0 0.0 0.0 0.0 0.0 0.0 0.0
0.0 0.0 0.0 0.0 0.0 0.0 0.0 0.0
0.0 0.0 0.0 0.0 0.0 0.0 0.0 0.0
0.0 0.0 0.0 0.0 0.0 0.0 0.0 0.0
0.0 0.0 0.0 0.0 0.0 0.0 0.0 0.0
0.0 0.0 0.0 0.0 0.0 0.0 0.0 0.0
0.0 0.0 0.0 0.0 0.0 0.0 0.0 0.0
0.0 0.0 0.0 0.0 0.0 0.0 0.0 0.0
0.0 0.0 0.0 0.0 0.0 0.0 0.0 0.0
0.0 0.0 0.0 0.0 0.0 0.0 0.0 0.0
0.0 0.0 0.0 0.0 0.0 0.0 0.0 0.0
0.0 0.0 0.0 0.0 0.0 0.0 0.0 0.0
0.0 0.0 0.0 0.0 0.0 0.0 0.0 0.0
0.0 0.0 0.0 0.0 0.0 0.0 0.0 0.0
0.0 0.0 0.0 0.0 0.0 0.0 0.0 0.0
00000000: 0000 0000 0000 0000 0000 0000 0000 0000
00000010: 0000 0000 0000 0000 0000 0000 0000 0000
00000020: 0000 0000 0000 0000 0000 0000 0000 0000
00000030: 0000 0000 0000 0000 0000 0000 0000 0000
00000040: 0000 0000 0000 0000 0000 0000 0000 0000
00000050: 0000 0000 0000 0000 0000 0000 0000 0000
00000060: 0000 0000 0000 0000 0000 0000 0000 0000
00000070: 0000 0000 0000 0000 0000 0000 0000 0000
00000080: 0000 0000 0000 0000 0000 0000 0000 0000
00000090: 0000 0000 0000 0000 0000 0000 0000 0000
000000a0: 0000 0000 0000 0000 0000 0000 0000 0000
000000b0: 0000 0000 0000 0000 0000 0000 0000 0000
000000c0: 0000 0000 0000 0000 0000 0000 0000 0000
000000d0: 0000 0000 0000 0000 0000 0000 0000 0000
000000e0: 0000 0000 0000 0000 0000 0000 0000 0000
000000f0: 0000 0000 0000 0000 0000 0000 0000 0000
00000100: 0000 0000 0000 0000 0000 0000 0000 0000
00000110: 0000 0000 0000 0000 0000 0000 0000 0000
00000120: 0000 0000 0000 0000 0000 0000 0000 0000
00000130: 0000 0000 0000 0000 0000 0000 0000 0000
00000140: 0000 0000 0000 0000 0000 0000 0000 0000
00000150: 0000 0000 0000 0000 0000 0000 0000 0000
00000160: 0000 0000 0000 0000 0000 0000 0000 0000
00000170: 0000 0000 0000 0000 0000 0000 0000 0000
00000180: 0000 0000 0000 0000 0000 0000 0000 0000
00000190: 0000 0000 0000 0000 0000 0000 0000 0000
000001a0: 0000 0000 0000 0000 0000 0000 0000 0000
000001b0: 0000 0000 0000 0000 0000 0000 0000 0000
000001c0: 0000 0000 0000 0000 0000 0000 0000 0000
000001d0: 0000 0000 0000 0000 0000 0000 0000 0000
000001e0: 0000 0000 0000 0000 0000 0000 0000 0000
000001f0: 0000 0000 0000 0000 0000 0000 0000 0000

encoder_sol.W_i.weight f4 [128, 147]
0.054429665 -0.0017758757 -0.009978205 0.0664317 0.04073692 0.07130535 -0.09865627 -0.054072436
-0.003547587 -0.005699165 0.050882816 -0.031050887 0.053112194 -0.06462299 -0.030433098 -0.060756113
0.08004027 0.06698571 0.0014220029 -0.04944382 0.0028854609 -0.073382415 -0.078833565 0.069811255
0.03543777 -0.024842788 0.0039993823 0.059735 0.00845091 -0.064554974 0.017223805 -0.04355798
0.040164195 -0.04460333 -0.030441089 0.036340445 0.050719082 -0.050993387 -0.05082891 -0.04754271
-0.021928567 -0.06255868 0.04813835 0.07505897 -0.06956619 -0.039016742 -0.020860799 0.0817969
0.0777345 -0.045343116 -0.0022378787 -0.02528207 -0.026252504 0.0717971 0.031880952 0.017362103
0.082118094 -0.02255607 -0.062027965 -0.041673526 -0.015924975 0.067419305 0.02086258 0.0797282
-0.024093207 0.07084103 0.06921038 -0.01300779 0.01784841 -0.063717276 -0.050713483 0.052604496
0.0134153515 0.030974276 -0.0019648299 -0.039034136 0.02992116 -0.06743993 -0.028732933 -0.036057904
-0.013135351 -0.031081673 0.03873177 -0.052880988 0.009894781 -0.059711576 -0.033291463 -0.0362773
0.042236164 0.073159456 0.06912534 0.010862812 0.07075232 -0.050054863 0.02937945 -0.067804866
-0.025003612 0.004026085 -0.020895675 0.056496173 -0.053794682 0.072418526 0.09300116 -0.0065437965
-0.0006901017 -0.08121626 -0.010548063 -0.030359026 0.029258566 0.047830835 0.067826666 0.038636774
0.027977817 -0.005529225 -0.057221502 -0.04821155 0.043134227 -0.07543534 0.023871645 0.06844215
-0.06343552 -0.03382566 -0.08447792 0.051595137 0.044884548 -0.07008995 0.050599273 0.075512834
-0.065548144 0.01778949 -0.018048875 -0.029183324 0.0041027544 0.040960103 -0.0011588549 -0.02751799
0.038523268 -0.00071324216 0.076539524 -0.06671987 -0.050765604 -0.0074522495 -0.039886817 0.008029185
-0.03143342 0.06096299 0.05022663 -0.050323952 -0.05221567 0.076431826 0.06560734 -0.033097357
-0.009197928 0.0933385 0.015755063 -0.055804808 0.06340076 -0.0765574 0.0069599375 0.063652545
0.06373452 0.09221259 -0.0049069207 0.07742569 0.024866976 0.024559796 0.010651872 -0.042332433
-0.041109845 -0.019542307 0.017596632 -0.036547914 0.0074730143 0.047732487 0.064943716 -0.015514553
-0.06684772 0.04845357 -0.029749524 0.0015247911 0.07150231 0.029023241 -0.051737353 -0.025273714
0.022022001 -0.06690362 0.046152487 -0.081299596 0.02872239 0.005274847 0.048961967 0.008008666
0.023088895 0.07986249 0.009611309 0.025831752 -0.03278062 0.06999475 0.021851957 -0.07344254
-0.012085535 -0.0711844 0.040195763 0.021368906 -0.018960498 -0.04922649 -0.07470829 0.063397706
0.06962383 0.073932424 0.045589805 0.03273815 -0.030774072 -0.0710505 0.036457017 0.07911502
0.0055683553 -0.004387006 0.034545906 -0.07537242 0.053961292 -0.07721496 0.055940926 0.06602052
-0.02286375 0.019235313 -0.05177141 -0.063513 -0.052281752 0.051422223 0.014259338 -0.045843527
0.060687378 0.06746733 0.010195971 0.07683125 0.025605597 -0.07938115 -0.001143083 -0.022014264
0.058575377 -0.023062162 0.0054739416 0.00013754517 -0.07827996 -0.031607646 -0.004998453 0.00043802708
-0.046736304 -0.045500364 0.0005100262 0.0797685 0.0069156885 -0.029730204 -0.040248662 0.0842969
00000000: a4f1 5e3d 80c4 e8ba a07b 23bc 580d 883d
00000010: c2db 263d 8a08 923d 4c0c cabd 0f7b 5dbd
00000020: a27e 68bb 10c0 babb 806a 503d 6e5e febc
00000030: 2c8c 593d 0f59 84bd d54e f9bc 67db 78bd
00000040: 27ec a33d ce2f 893d 8062 ba3a 9a85 4abd
00000050: 001a 3d3b 8549 96bd 7e73 a1bd 34f9 8e3d
00000060: 3227 113d 1a83 cbbc 400d 833b b0ac 743d
00000070: b075 0a3c 6635 84bd f018 8d3c da69 32bd
00000080: 3683 243d fbb1 36bd 975f f9bc b8d9 143d
00000090: d0be 4f3d 71de 50bd fa31 50bd 25bc 42bd
000000a0: 8aa3 b3bc c41e 80bd b82c 453d 84b8 993d
000000b0: b878 8ebd 05d0 1fbd 44e4 aabc 2285 a73d
000000c0: 4433 9f3d b4b9 39bd 60a9 12bb 581c cfbc
000000d0: 7e0f d7bc 5c0a 933d 9a95 023d f83a 8e3c
000000e0: 882d a83d 82c7 b8bc 0911 7ebd dcb1 2abd
000000f0: 1875 82bc 2213 8a3d 00e8 aa3c 8a48 a33d
00000100: 1e5f c5bc 1a15 913d 2cbe 8d3d a01e 55bc
00000110: d436 923c 347e 82bd f1b8 4fbd d077 573d
00000120: 10cc 5b3c c4bd fd3c 60c4 00bb 42e2 1fbd
00000130: 381d f53c f21d 8abd 5461 ebbc 74b1 13bd
00000140: a835 57bc fe9e febc 34a5 1e3d bc99 58bd
00000150: b81d 223c 2094 74bd a15c 08bd 8297 14bd
00000160: d4ff 2c3d a0d4 953d 9691 8d3d f0f9 313c
00000170: 98e6 903d 5406 4dbd 2cad f03c 47dd 8abd
00000180: 60d4 ccbc 40ed 833b 682d abbc 8868 673d
00000190: d057 5cbd 2a50 943d 6477 be3d 586d d6bb
000001a0: f1e7 34ba b654 a6bd c8d1 2cbc 7eb3 f8bc
000001b0: a9af ef3c 44ea 433d b5e8 8a3d 9841 1e3d
000001c0: bc31 e53c 802e b5bb 1861 6abd 7979 45bd
000001d0: 84ad 303d d87d 9abd 788e c33c 662b 8c3d
000001e0: 7bea 81bd c68c 0abd c202 adbd 6c55 533d
000001f0: dcd8 373d 528b 8fbd 2f41 4f3d 79a6 9a3d
00000200: 1b3e 86bd 44bb 913c 3cdb 93bc de11 efbc
00000210: 6670 863b c8c5 273d b8e4 97ba 686d e1bc
00000220: 93ca 1d3d dff8 3aba c1c0 9c3d 6da4 88bd
00000230: 98ef 4fbd 0032 f4bb 5c60 23bd d88c 033c
00000240: 54c0 00bd 54b4 793d 70ba 4d3d 7d20 4ebd
00000250: 19e0 55bd 4a88 9c3d 245d 863d 1891 07bd
00000260: e8b2 16bc 4128 bf3d c310 813c 9593 64bd
00000270: 42d8 813d 20ca 9cbd 3010 e43b 445c 823d
00000280: 3e87 823d f4d9 bc3d 3cca a0bb 5c91 9e3d
00000290: d4b5 cb3c a031 c93c 3085 2e3c c664 2dbd
000002a0: cc62 28bd 3017 a0bc d026 903c 44b3 15bd
000002b0: 30e0 f43b 2483 433d 3601 853d c030 7ebc
000002c0: 75e7 88bd 4077 463d 46b5 f3bc 80db c73a
000002d0: ce6f 923d 26c2 ed3c 8cea 53bd d20a cfbc
000002e0: 7c67 b43c c404 89bd 640a 3d3d 6780 a6bd
000002f0: 384b eb3c a0d8 ac3b 588c 483d c836 033c
00000300: ec24 bd3c f28e a33d c078 1d3c 1c9d d33c
00000310: f944 06bd 6859 8f3d e002 b33c 0b69 96bd
00000320: 6802 46bc 20c9 91bd 50a4 243d d80d af3c
00000330: 0c53 9bbc b7a1 49bd a900 99bd a8d6 813d
00000340: f096 8e3d e269 973d 60bc 3a3d 7018 063d
00000350: e819 fcbc ed82 91bd f453 153d 0e07 a23d
00000360: c076 b63b e0c0 8fbb 0280 0d3d db5c 9abd
00000370: 8406 5d3d e022 9ebd 5022 653d c435 873d
00000380: c24c bbbc 6093 9d3c 420e 54bd 1b13 82bd
00000390: 6425 56bd 1ca0 523d 00a0 693c 6cc6 3bbd
000003a0: 5493 783d 502c 8a3d 000d 273c b459 9d3d
000003b0: d4c2 d13c 9692 a2bd 80d3 95ba 4257 b4bc
000003c0: bcec 6f3d dcec bcbc c05e b33b 003a 1039
000003d0: 3e51 a0bd 0577 01bd 10ca a3bb 00a7 e539
000003e0: 916e 3fbd 975e 3abd 47b3 053a ab5d a33d
000003f0: 009d e23b c28c f3bc c8db 24bd daa3 ac3d

encoder_sol.W_i.bias f4 [128]
0.020055592 0.012061265 0.01576026 0.049508814 -0.058676142 0.019237202 -0.04368833 -0.019204509
-0.0016534602 -0.038401693 0.022301536 -0.0018270472 0.060463604 0.06582041 0.06843388 -0.07211144
-0.036050957 0.021111105 0.05932269 -0.09311822 -0.03342537 0.017233243 -0.046966307 -0.085599415
0.047247462 -0.079063214 0.02318217 -0.016439717 0.044484276 0.022504445 -0.008125404 0.041052993
0.058096778 -0.06817558 -0.08572763 0.07420803 0.04273312 -0.05767367 -0.016566977 0.01940873
0.06421829 0.024623765 -0.06867881 -0.08580041 -0.034901656 -0.07726389 -0.0021481386 -0.051341303
0.06728074 0.0033520646 -0.0037542647 -0.05193585 -0.061715946 -0.03645134 0.014652583 -0.080181435
0.06718891 0.0003009472 -0.06861308 -0.0373511 -0.041834474 -0.043080293 0.0006881441 -0.0032103523
-0.0071358816 0.003348142 0.0068825544 0.0061565395 -0.049605135 -0.0066436282 -0.07341211 0.01789011
-0.0071091526 0.024643637 -0.0761357 -0.027013334 0.065767206 -0.00013161461 0.042053815 0.054939713
0.02960289 -0.0682054 0.009914136 0.027380744 -0.0076258695 0.06314671 -0.08705809 0.022103526
0.036964964 -0.051892772 0.0030433661 -0.059540585 0.0321477 -0.07638993 0.011179551 -0.032988552
-0.04091069 -0.071245484 0.061569158 0.0008604895 -0.0043995692 -0.06513194 -0.06658686 -0.054396436
-0.014314939 0.059217073 0.036831334 -0.002492448 0.026927505 0.02398719 -0.029655164 -0.035891995
-0.07488698 0.04622312 -0.077891596 0.03856726 -0.0025370936 -0.053537887 0.031379703 0.047395837
0.04711047 0.001233902 -0.025020998 0.058963828 -0.048898336 -0.003029567 -0.021297833 -0.051027972
00000000: a04b a43c 9d9c 453c a91b 813c c1c9 4a3d
00000010: 6556 70bd 5697 9d3c 89f2 32bd c652 9dbc
00000020: ebb8 d8ba 184b 1dbd b6b1 b63c 8879 efba
00000030: afa8 773d dacc 863d 1027 8c3d 2aaf 93bd
00000040: 2baa 13bd 32f1 ac3c 59fc 723d c4b4 bebd
00000050: 0ae9 08bd bb2c 8d3c be5f 40bd bf4e afbd
00000060: 8e86 413d e5eb a1bd 89e8 bd3c 96ac 86bc
00000070: 2535 363d 3e5b b83c 6a20 05bc 2f27 283d
00000080: e3f6 6d3d a39f 8bbd f891 afbd 61fa 973d
00000090: ed08 2f3d 3a3b 6cbd 78b7 87bc 0fff 9e3c
000000a0: e184 833d c7b7 c93c 7aa7 8cbd 20b8 afbd
000000b0: 0af5 0ebd 883c 9ebd c9c7 0cbb 424b 52bd
000000c0: 7cca 893d 50ae 5b3b 1c0a 76bb b0ba 54bd
000000d0: dcc9 7cbd 004e 15bd 6311 703c 2a36 a4bd
000000e0: 579a 893d 73c8 9d39 0485 8cbd 78fd 18bd
000000f0: a05a 2bbd f674 30bd 9264 343a c664 52bb
00000100: 1dd4 e9bb 806c 5b3b 0d87 e13b ccbc c93b
00000110: c12e 4bbd cbb2 d9bb 1759 96bd 488e 923c
00000120: e5f3 e8bb 74e1 c93c 09ed 9bbd 114b ddbc
00000130: f5b0 863d 0702 0ab9 9f40 2c3d 7708 613d
00000140: c381 f23c 46af 8bbd e66e 223c 954d e03c
00000150: 6ee2 f9bb 1053 813d 834b b2bd 7412 b53c
00000160: 9368 173d 848d 54bd 3673 473b d4e0 73bd
00000170: 4fad 033d 5372 9cbd 6f2a 373c 011f 07bd
00000180: f891 27bd 27e9 91bd f12f 7c3d 7992 613a
00000190: 432a 90bb e563 85bd b15e 88bd ccce 5ebd
000001a0: 3589 6abc 9a8d 723d 74dc 163d 5758 23bb
000001b0: 1297 dc3c c980 c43c 63ef f2bc 7c03 13bd
000001c0: 585e 99bd 7454 3d3d a185 9fbd b4f8 1d3d
000001d0: 5e45 26bb 8b4a 5bbd 0188 003d 2322 423d
000001e0: e8f6 403d e1ba a13a d6f8 ccbc 0e84 713d
000001f0: 9f49 48bd b38b 46bb cb78 aebc b502 51bd

encoder_sol.W_h.weight f4 [128, 128]
-0.07590689 -0.028285535 0.009243038 0.0065887254 -0.037776556 0.0683355 -0.07732916 -0.0253163
-0.04184522 0.0529401 -0.07669829 0.046808913 -0.026942067 -0.021532236 -0.06275263 0.035475843
-0.05489153 0.046524584 -0.009341993 0.01964955 0.033024907 0.06933135 0.031775344 -0.03587567
-0.07280697 -0.06329401 0.019014739 0.089619406 -0.0732232 0.04264772 -0.004777847 0.07153366
0.034219462 -0.03500456 -0.032929245 -0.09550677 0.060950015 0.06644481 -0.07946282 0.04280739
-0.09669508 -0.043868873 0.057288818 0.028241407 0.044276867 -0.04998997 -0.021299116 -0.05928923
0.049368136 -0.010562185 0.024727654 -0.055305302 0.0582774 0.0034608603 0.011016332 0.00081268814
0.023388416 0.048826743 0.06784431 0.0009695023 -0.039498817 -0.0145855835 0.060234006 -0.074586235
-0.018874846 -0.039700065 -0.0653353 -0.09560347 0.032668278 0.021850118 -0.0068785474 -0.003530522
0.025887614 0.06353419 0.02363483 -0.019266766 -0.05276027 -0.069738716 -0.046449263 0.027810141
0.035067458 0.0552459 0.05987243 -0.034774773 0.01782972 0.019252708 0.07871178 -0.06287851
0.03159031 -0.07658082 0.07356345 0.0573706 -0.08186246 -0.014918776 0.011171935 0.081957266
-0.06030921 -0.0031787194 -0.06076961 -0.015570911 0.06055028 0.05128239 0.06756176 0.0014178246
-0.008136476 -0.00344483 0.05196228 -0.024190817 -0.03337231 -0.015241315 -0.0018141874 0.004051284
-0.03924765 -0.09374934 -0.091146536 -0.034637824 0.012130195 -0.021155108 -0.07154837 -0.05060305
0.019000392 0.049564354 0.07331811 0.007572067 -0.046623595 0.041925758 -0.0096453745 -0.0020888126
-0.08144309 -0.07130081 0.024573294 -0.05189044 0.06923816 -0.07821402 0.0684427 -0.028559878
0.06744697 0.06288805 -0.07884107 0.038122077 0.04158696 0.07857631 -0.025350545 -0.05564719
0.008689569 -0.064940326 0.08823517 -0.081459455 -0.021145256 -0.056395106 -0.08725834 -0.07025437
-0.047823317 0.023040287 -0.06597507 0.032134634 -0.043160178 0.039592616 0.086238 0.017862266
0.054776754 0.08377584 0.07054128 -0.06195641 0.001494873 -0.0071894606 0.035452858 0.06755409
0.009641725 -0.0072799725 -0.023810046 -0.05769643 0.030116502 -0.09163593 -0.066016555 -0.07502239
0.02626665 0.026846698 0.099418126 0.06809852 -0.051914416 -0.050100844 0.05554791 0.029759951
0.07186649 -0.049991254 -0.03347398 0.026381403 -0.038260505 -0.05311239 -0.023687344 0.00478845
0.017925017 0.055683892 0.009991883 0.04520365 0.0512591 0.061192703 0.1483439 -0.09033733
0.001739563 0.07124732 -0.0455281 0.03823225 0.04795006 0.02917202 -0.061565526 0.045040596
-0.061368823 0.071651615 -0.052227214 0.039934214 -0.025932712 0.028396502 0.03311382 0.058375303
0.030547803 0.10783006 -0.056601442 -0.0056871194 0.021623332 -0.035336524 -0.049276162 -0.00017702456
-0.049407754 0.058036175 0.0037285879 0.056014232 0.012664297 -0.114137895 0.047629025 0.011328317
-0.062248584 0.010898769 0.043681953 0.06478208 0.07090021 -0.07267827 0.07380269 0.017305117
-0.0119449925 0.038097132 0.04290012 0.08571042 -0.020219674 0.066001505 -0.058364067 0.059669863
-0.023499975 0.028751938 0.0555714 -0.05657682 0.088394225 -0.017332014 -0.044371918 0.09341256
00000000: 1275 9bbd 11b7 e7bc 1c70 173c 3ce6 d73b
00000010: 97bb 1abd 7cf3 8b3d c05e 9ebd 2164 cfbc
00000020: e565 2bbd b8d7 583d fe13 9dbd b4ba 3f3d
00000030: 9cb5 dcbc 5f64 b0bc 7384 80bd 1e4f 113d
00000040: f1d5 60bd 9090 3e3d 290f 19bc 18f8 a03c
00000050: 2045 073d 98fd 8d3d dd26 023d 5ef2 12bd
00000060: d21b 95bd 4aa0 81bd ccc4 9b3c 618a b73d
00000070: 0cf6 95bd 60af 2e3d 7c8f 9cbb 3d80 923d
00000080: b529 0c3d f160 0fbd d1e0 06bd 0e99 c3bd
00000090: b9a6 793d 3714 883d 67bd a2bd cd56 2f3d
000000a0: 1208 c6bd d9af 33bd aea7 6a3d 865a e73c
000000b0: a95b 353d 48c2 4cbd 7c7b aebc 43d9 72bd
000000c0: 3e36 4a3d 040d 2dbc a691 ca3c d087 62bd
000000d0: 48b4 6e3d 9acf 623b d87d 343c 940a 553a
000000e0: 1099 bf3c 8dfe 473d f5f1 8a3d 3326 7e3a
000000f0: 83c9 21bd 5ff8 6ebc efb7 763d abc0 98bd
00000100: 6c9f 9abc 899c 22bd 84ce 85bd c1cb c3bd
00000110: 2ccf 053d 05ff b23c 7065 e1bb 5560 67bb
00000120: 4312 d43c 371e 823d d59d c13c 56d5 9dbc
00000130: 271b 58bd 2cd3 8ebd 9541 3ebd 18d2 e33c
00000140: e5a2 0f3d 8649 623d cb3c 753d fe6f 0ebd
00000150: a20f 923c dbb7 9d3c a433 a13d 73c6 80bd
00000160: d764 013d 68d6 9cbd 6fa8 963d 6ffd 6a3d
00000170: 81a7 a7bd e26d 74bc 7e0a 373c 36d9 a73d
00000180: ca06 77bd 1052 50bb 8ee9 78bd 221d 7fbc
00000190: 9203 783d 7c0d 523d d25d 8a3d 4dd6 b93a
000001a0: db4e 05bc a8c2 61bb 66d6 543d d22b c6bc
000001b0: 67b1 08bd b5b6 79bc 07ca edba a2c0 843b
000001c0: 25c2 20bd a7ff bfbd 09ab babd 64e0 0dbd
000001d0: babd 463c 7a4d adbc f487 92bd 2545 4fbd
000001e0: b6a6 9b3c fe03 4b3d ce27 963d 1a1f f83b
000001f0: 62f8 3ebd 58ba 2b3d a207 1ebc 76e4 08bb
00000200: a3cb a6bd 2906 92bd ef4d c93c 128b 54bd
00000210: bdcc 8d3d ac2e a0bd b02b 8c3d 68f6 e9bc
00000220: a321 8a3d 73cb 803d 6d77 a1bd e525 1c3d
00000230: 1757 2a3d 9eec a03d f2ab cfbc 4fee 63bd
00000240: b25e 0e3c 6fff 84bd a4b4 b43d 37d4 a6bd
00000250: d138 adbc 8efe 66bd 80b4 b2bd 86e1 8fbd
00000260: 62e2 43bd fcbe bc3c f01d 87bd 9b9f 033d
00000270: bac8 30bd de2b 223d 8c9d b03d e353 923c
00000280: 975d 603d ab92 ab3d f277 903d 01c6 7dbd
00000290: 9def c33a 9195 ebbb 0437 113d cc59 8a3d
000002a0: 53f8 1d3c d68c eebb 490d c3bc 1753 6cbd
000002b0: e2b6 f63c 9eab bbbd b033 87bd 57a5 99bd
000002c0: 282d d73c 9bed db3c bb9b cb3d 3d77 8b3d
000002d0: 36a4 54bd 8b36 4dbd 3586 633d 24cb f33c
000002e0: bd2e 933d a1c3 4cbd 031c 09bd d01d d83c
000002f0: 0cb7 1cbd 618c 59bd f60b c2bc 6ee8 9c3b
00000300: 7cd7 923c cb14 643d ffb4 233c 7627 393d
00000310: 10f5 513d 33a5 7a3d 77e7 173e c702 b9bd
00000320: 0c02 e43a 1dea 913d ac7b 3abd 6b99 1c3d
00000330: 4867 443d 29fa ee3c 222c 7cbd 7d7c 383d
00000340: e05d 7bbd 15be 923d 34ec 55bd 0f92 233d
00000350: d770 d4bc c89f e83c 5ba2 073d f11a 6f3d
00000360: 633f fa3c 02d6 dc3d ead6 67bd 045b babb
00000370: 6a23 b13c 08bd 10bd cdd5 49bd ab9f 39b9
00000380: c95f 4abd 57b7 6d3d 535b 743b 2e6f 653d
00000390: e97d 4f3c 21c1 e9bd a716 433d 689a 393c
000003a0: 5ff8 7ebd c090 323c d9eb 323d 78ac 843d
000003b0: 2134 913d 58d8 94bd dd25 973d 76c3 8d3c
000003c0: eeb4 43bc bd0b 1c3d 09b8 2f3d f288 af3d
000003d0: bba3 a5bc cc2b 873d 290f 6fbd 6368 743d
000003e0: 0583 c0bc 2f89 eb3c d69e 633d 18bd 67bd
000003f0: 0808 b53d defb 8dbc 54bf 35bd 164f bf3d

encoder_sol.W_h.bias f4 [128]
0.06420602 0.00246919 0.01403616 -0.051605593 -0.06551343 0.061529174 -0.04823808 0.057362344
-0.06486907 0.04751947 -0.013997004 0.06631072 -0.084785305 -0.029067751 0.080099575 -0.014376554
0.006861088 0.050624613 0.076960236 0.058190096 0.039428044 0.012185178 -0.047774926 -0.07413632
-0.05261005 0.066261575 0.012155085 -0.02116995 0.06320368 0.033871546 -0.014308902 0.06299242
0.028546516 -0.068226986 0.065512255 -0.038244404 -0.09328502 -0.018501185 -0.090959646 -0.048203953
0.0036312044 -0.08806059 0.05945961 0.0097247055 0.052496515 -0.085802846 0.031306937 -0.061572507
-0.08902002 0.055462707 -0.039299026 0.040119436 0.030278787 0.053829096 0.033191588 0.027398132
-0.021893332 -0.058449987 -0.08860148 -0.079549 0.030422872 0.06768897 0.044046752 -0.096140094
-0.039126705 -0.028262652 0.05020483 -0.061031263 0.030768402 -0.04101705 -0.0779151 -0.07858049
0.06848149 -0.084170245 0.035011526 0.061025593 -0.066609845 0.0831211 0.021632416 0.021062465
-0.04851224 -0.052580513 0.061967887 0.03601776 0.05383991 -0.05364027 -0.08296383 0.013125508
0.016771263 -0.07257961 0.089327514 -0.04376494 -0.020272292 0.020743173 0.025327954 -0.046009913
0.069017306 0.01938336 -0.06993832 0.0625022 -0.038023647 -0.09929222 -0.035003837 -0.074943975
0.027299773 0.05735004 -0.08676343 0.0025389493 -0.10060281 0.015075189 -0.023377297 0.03158506
-0.008373835 0.05078258 0.009170405 0.018769639 0.0058752005 0.052461043 -0.06441675 -0.033970963
0.065728605 0.027776172 0.048719514 0.035827063 0.01113849 0.04652615 0.053637717 0.09427419
00000000: 727e 833d 22d2 213b ecf7 653c 6360 53bd
00000010: e82b 86bd 0406 7c3d 4b95 45bd c7f4 6a3d
00000020: 13da 84bd c7a3 423d b153 65bc eacd 873d
00000030: eba3 adbd 7e1f eebc 3f0b a43d a38b 6bbc
00000040: fad2 e03b c15b 4f3d 549d 9d3d bd58 6e3d
00000050: 4d7f 213d 57a4 473c a4af 43bd c8d4 97bd
00000060: a37d 57bd 26b4 873d 1f26 473c 9a6c adbc
00000070: ee70 813d e4bc 0a3d e36f 6abc 2b02 813d
00000080: 62da e93c 97ba 8bbd 4a2b 863d 2aa6 1cbd
00000090: 370c bfbd cc8f 97bc 0d49 babd 8271 45bd
000000a0: 80f9 6d3b 1c59 b4bd ec8b 733d 5f54 1f3c
000000b0: 9606 573d 67b9 afbd b43b 003d 7433 7cbd
000000c0: 2150 b6bd dd2c 633d 04f8 20bd 4754 243d
000000d0: 380b f83c e67b 5c3d e7f3 073d 0c72 e03c
000000e0: a559 b3bc 4169 6fbd b174 b5bd 96ea a2bd
000000f0: 6339 f93c 84a0 8a3d 5e6a 343d 19e5 c4bd
00000100: 5343 20bd 1487 e7bc 94a3 4d3d ebfb 79bd
00000110: 040e fc3c 7f01 28bd f491 9fbd cfee a0bd
00000120: 0640 8c3d 7361 acbd 3f68 0f3d f9f5 793d
00000130: be6a 88bd 653b aa3d 7736 b13c 318b ac3c
00000140: c5b4 46bd aa5e 57bd 0ad2 7d3d 5c87 133d
00000150: 3d87 5c3d e6b5 5bbd f1e8 a9bd 5f0c 573c
00000160: e363 893c 9ea4 94bd 58f1 b63d de42 33bd
00000170: 1412 a6bc 96ed a93c 927c cf3c e474 3cbd
00000180: f258 8d3d dac9 9e3c d23b 8fbd 2701 803d
00000190: afbe 1bbd b859 cbbd 2f60 0fbd 3a7c 99bd
000001a0: c6a3 df3c e0e7 6a3d 06b1 b1bd 8064 263b
000001b0: d908 cebd edfd 763c bf81 bfbc 565f 013d
000001c0: 6932 09bc 6501 503d 773f 163c c9c2 993c
000001d0: c184 c03b 64e1 563d eeec 83bd 2325 0bbd
000001e0: b89c 863d db8a e33c 1d8e 473d 66bf 123d
000001f0: 377e 363c 3492 3e3d 39b3 5b3d d412 c13d

encoder_sol.W_o.weight f4 [128, 261]
0.0003460087 -0.003954638 0.021276169 0.025352784 0.0004441552 -0.010002898 0.012578024 -0.04678314
0.08202248 -0.013299979 0.018129423 0.024155669 0.037138812 0.0104554 0.0069088154 0.027824702
0.03287442 0.049542636 0.04227063 0.040012673 0.009529732 0.0105143115 0.016828485 -0.0026611164
-0.04844941 0.051742062 -0.028621089 -0.040394686 0.042644016 0.023910366 0.045639664 0.04860249
-0.017704226 -0.057578236 -0.030930888 0.010240644 0.035535336 0.011640236 -0.028436385 -0.06028095
-0.04382559 -0.055882484 -0.03506918 0.05264505 -0.033549525 -0.03490269 0.027060494 -0.036848366
-0.05869788 -0.0025012381 -0.011141207 0.041608565 -0.026771449 -4.0937215e-05 -0.027203687 -0.028599657
-0.03572686 0.061215356 0.05228155 0.033659928 -0.005873058 -0.02697298 -0.05605142 -0.057800494
0.033163242 -0.020911194 -0.0576108 0.056652956 0.011181474 -0.0011723712 -0.058164686 -0.023885358
-0.030182816 0.007997237 -0.05034006 -0.01788799 0.023439825 0.002610989 -0.026149444 0.05705788
-0.036750026 0.03282707 0.00869862 0.040821865 0.045512713 -0.017933361 0.03606545 -0.003010638
-0.029100575 0.016791254 0.050251447 -0.06152519 0.039972916 0.034741744 0.059153184 -0.04523255
0.031302735 0.006642595 0.026225373 -0.050191008 -0.036340944 -0.017573554 0.00227356 0.04923678
0.02326606 0.02278952 -0.038890474 0.03539732 0.034996606 -0.022151109 -0.020874731 0.0027534664
0.0150333885 -0.010030799 -0.04798593 0.032811224 0.051293723 0.027844787 0.022725657 -0.03515255
0.02100752 0.03404292 -0.024575366 -0.028048974 0.02611658 0.0008594949 -0.00072916085 -0.0012520676
0.021782443 -0.046241425 -0.02148782 -0.006838884 0.029954342 0.0063378788 -0.024264622 -0.03715309
-0.057848148 0.055982776 -0.010676786 -0.020631686 0.031575527 0.05603771 0.06436518 -0.036017593
0.029289419 0.07643088 -0.02890966 0.018543297 -0.044226345 0.061348516 -0.032139674 -0.04139774
-0.06083899 0.067605056 0.023072623 -0.01267061 0.01259289 -0.015125124 0.021161688 -0.049093105
-0.00468905 -0.0040006945 0.041034937 0.0064759613 -0.021556024 0.027973771 -0.04537 -0.058002777
0.009046954 -0.009935421 -0.0455844 0.02606673 0.032102536 0.0057996176 -0.040986788 0.027113894
-0.02994656 -0.038280074 -0.009986063 -0.04280655 0.061549842 -0.025955662 0.06029941 -0.039066974
-0.019968303 0.02727751 -0.011021762 -0.0526431 0.0061029154 0.017256415 0.06662882 -0.002904546
-0.057788722 -0.028538149 -0.026065076 0.019639613 -0.03554722 -0.0376585 0.00070609705 -0.003350446
-0.048460636 0.0014480441 0.024553994 0.020785362 -0.0069204005 -0.01281352 -0.0048938575 -0.036717266
0.051858217 -0.06501839 0.07162549 0.030161003 -0.023113593 0.018682012 0.0029680275 0.04371321
-0.052569304 -0.050265368 -0.039739165 -0.03933408 -0.0036505426 0.08961794 -0.032383114 0.041769035
-0.016157877 0.00054737885 0.035062466 0.03184893 -0.015979256 0.015372171 0.006673056 -0.014794501
-0.008067313 0.05402837 -0.058122132 0.03963392 -0.048572782 0.01834206 0.07223548 -0.003864342
0.06278822 0.04581079 -0.016081577 -0.050301764 -0.037823368 0.024235578 0.028089957 -0.050322372
0.010376117 0.009306936 0.025998313 -0.03534698 0.059562128 0.04357044 0.055586502 -0.018122187
00000000: 8068 b539 e895 81bb 5c4b ae3c a4b0 cf3c
00000010: 80dd e839 32e3 23bc 0e14 4e3c ae9f 3fbd
00000020: 67fb a73d 28e8 59bc 2884 943c 1ce2 c53c
00000030: de1e 183d 204d 2b3c 5863 e23b a1f0 e33c
00000040: 54a7 063d 38ed 4a3d f823 2d3d 54e4 233d
00000050: 9822 1c3c 3844 2c3c e4db 893c 2066 2ebb
00000060: e372 46bd 7cef 533d c676 eabc e674 25bd
00000070: 7eab 2e3d acdf c33c a8f0 3a3d 6813 473d
00000080: 7408 91bc 28d7 6bbd c662 fdbc 60c8 273c
00000090: 808d 113d b0b6 3e3c 6cf3 e8bc 28e9 76bd
000000a0: 7682 33bd 08e5 64bd b3a4 0fbd 56a2 573d
000000b0: 3a6b 09bd 20f6 0ebd f8ad dd3c 50ee 16bd
000000c0: 306d 70bd d0eb 23bb 9c89 36bc be6d 2a3d
000000d0: cc4f dbbc 00b4 2bb8 44da debc d449 eabc
000000e0: 5456 12bd f4bc 7a3d 2e25 563d fede 093d
000000f0: c872 c0bb 70f6 dcbc 2c96 65bd 36c0 6cbd
00000100: 2ed6 073d f44d abbc 4df9 6bbd ee0c 683d
00000110: 8032 373c 40aa 99ba 183e 6ebd 3aab c3bc
00000120: f441 f7bc d806 033c 6131 4ebd d689 92bc
00000130: e004 c03c 201d 2b3b 5c37 d6bc 86b5 693d
00000140: 3287 16bd ae75 063d a884 0e3c d434 273d
00000150: 8a6b 3a3d fce8 92bc 5eb9 133d 204e 45bb
00000160: 5464 eebc d08d 893c 76d4 4d3d d601 7cbd
00000170: a4ba 233d 5c4d 0e3d 9c4a 723d c445 39bd
00000180: 4c37 003d 20aa d93b 98d6 d63c 1695 4dbd
00000190: 3eda 14bd 6af6 8fbc 0200 153b 81ac 493d
000001a0: 7798 be3c 16b1 ba3c 9e4b 1fbd c8fc 103d
000001b0: 9a58 0f3d 3e76 b5bc 7c01 abbc 8073 343b
000001c0: 9a4e 763c 3858 24bc e58c 44bd 1065 063d
000001d0: 5e19 523d c01a e43c 282b ba3c 1ffc 0fbd
000001e0: f617 ac3c 9770 0b3d 4752 c9bc f6c6 e5bc
000001f0: 70f2 d53c ba4f 613a 2825 3fba 6b1c a4ba
00000200: 1871 b23c a667 3dbd 3a07 b0bc b818 e0bb
00000210: cf62 f53c fbad cf3b 9ac6 c6bc d72d 18bd
00000220: 2ef2 6cbd 324e 653d b0ed 2ebc c803 a9bc
00000230: 5755 013d cc87 653d e4d1 833d 2f87 13bd
00000240: 5df0 ef3c cb87 9c3d f4d3 ecbc 1de8 973c
00000250: af26 35bd 9548 7b3d e4a4 03bd ad90 29bd
00000260: 4e32 79bd 8574 8a3d cc02 bd3c 6498 4fbc
00000270: 6952 4e3c 5ecf 77bc 475b ad3c da15 49bd
00000280: 9aa6 99bb 4218 83bb 4014 283d 4d34 d43b
00000290: 4296 b0bc 4029 e53c e5d5 39bd 5294 6dbd
000002a0: ad39 143c 2dc8 22bc b5b6 3abd e589 d53c
000002b0: f37d 033d b80a be3b c3e1 27bd f51d de3c
000002c0: 7d52 f5bc 91cb 1cbd 969c 23bc ec55 2fbd
000002d0: b01b 7c3d f8a0 d4bc 84fc 763d b104 20bd
000002e0: 9194 a3bc 1675 df3c 9f94 34bc 4ba0 57bd
000002f0: f7fa c73b 535d 8d3c b174 883d 325a 3ebb
00000300: deb3 6cbd d6c8 e9bc 6d86 d5bc 41e3 a03c
00000310: f699 11bd cd3f 1abd 5f19 393a 2893 5bbb
00000320: a97e 46bd 4ccc bd3a 7525 c93c 1046 aa3c
00000330: 87c4 e2bb ccef 51bc a75c a0bb d864 16bd
00000340: 4869 543d 5d28 85bd 63b0 923d 3514 f73c
00000350: b858 bdbc 050b 993c 3d83 423b 9f0c 333d
00000360: e952 57bd 0fe3 4dbd 89c5 22bd c61c 21bd
00000370: f13d 6fbb 9c89 b73d 28a4 04bd 0216 2b3d
00000380: 865d 84bc f97d 0f3a a99d 0f3d 0674 023d
00000390: eee6 82bc 8fdb 7b3c a7a9 da3b a264 72bc
000003a0: c32c 04bc da4c 5d3d 7911 6ebd 2d57 223d
000003b0: 41f4 46bd 1642 963c 32f0 933d e740 7dbb
000003c0: 1c97 803d 18a4 3b3d 83bd 83bc 3909 4ebd
000003d0: adec 1abd b189 c63c e91c e63c d51e 4ebd
000003e0: 9700 2a3c 1e7c 183c 6afa d43c ffc7 10bd
000003f0: 6bf7 733d eb76 323d acae 633d fb74 94bc

encoder_sol.W_o.bias f4 [128]
-0.0289 -0.022865355 -0.04609043 0.03514061 0.006491056 -0.0466503 0.07024477 0.050350554
-0.06455051 -0.0035272846 -0.059007045 -0.03595891 -0.008592194 0.00076483673 -0.005728809 -0.033388484
-0.0025464196 -0.037713125 0.026215937 0.028555373 -0.01701356 0.030610913 0.060905814 0.029032214
0.005475739 0.04896177 0.0051813475 0.007148602 0.033601426 -0.052973263 0.008058262 -0.052249487
0.034758843 -0.024413267 -0.062644295 -0.021219024 0.03204326 0.05336972 0.029041464 -0.008979964
-0.018237311 -0.052829117 0.03810481 0.060195778 -0.020569924 -0.03989106 -0.043702494 -0.028752215
-0.043691725 0.05409206 0.004995139 0.019947099 0.02729667 -0.036683414 -0.033349063 -0.014405264
-0.054497883 -0.04182254 -0.030141316 -0.033108216 0.037448894 -0.06506192 0.05478664 -0.009195508
-0.026151882 0.059303027 -0.0438276 0.046408508 -0.013827918 -0.002355584 -0.02257692 0.040987074
0.036627326 -0.060688537 0.0058888365 0.034685828 -0.025553415 -0.053249236 -0.0011230077 -0.058586605
0.023814227 0.016035521 -0.01679663 0.018441485 -0.043118674 0.031210596 -0.0774598 0.03261796
-0.026756126 -0.04536647 0.019672358 0.04610033 0.002006592 -0.008562537 0.046762004 0.043961965
-0.009004104 0.019592179 0.0398676 0.058443837 -0.0016713506 -0.055523552 -0.0643091 -0.04633779
0.043907356 0.052914027 -0.06373665 0.023368616 0.009222629 0.0022201636 -0.030368492 -0.015784027
0.016280761 -0.005623549 -0.024565976 -0.016213708 0.019497598 0.02386682 -0.051582944 -0.048897337
-0.042924274 -0.018449126 -0.031027231 0.04619473 -0.010004141 -0.00946436 -0.043003436 0.042188123
00000000: b1bf ecbc 2050 bbbc 52c9 3cbd 9aef 0f3d
00000010: edb2 d43b 6314 3fbd 7ddc 8f3d 623c 4e3d
00000020: 0f33 84bd 042a 67bb 5fb1 71bd a649 13bd
00000030: 46c6 0cbc 537f 483a bcb8 bbbb 5dc2 08bd
00000040: d5e1 26bb 1479 1abd cec2 d63c f5ec e93c
00000050: 0560 8bbc bdc3 fa3c 6078 793d f7d4 ed3c
00000060: d46d b33b 238c 483d 4bc8 a93b d23e ea3b
00000070: a6a1 093d 7efa 58bd cd06 043c 8f03 56bd
00000080: 4a5f 0e3d 55fe c7bc a74b 80bd 85d3 adbc
00000090: cb3f 033d 359a 5a3d 5de8 ed3c b320 13bc
000000a0: 6a66 95bc 5863 58bd ca13 1c3d d98f 763d
000000b0: 4282 a8bc cf64 23bd 6301 33bd c489 ebbc
000000c0: 18f6 32bd a38f 5d3d 43ae a33b 1968 a33c
000000d0: 449d df3c 5941 16bd 0799 08bd 0e04 6cbc
000000e0: 2c39 5fbd 1d4e 2bbd ecea f6bc 7b9c 07bd
000000f0: 0364 193d 2f3f 85bd f567 603d c2a8 16bc
00000100: 793c d6bc bbe7 723d 9284 33bd d916 3e3d
00000110: 7e8e 62bc 2460 1abb 3cf3 b8bc 10e2 273d
00000120: 8906 163d 8b94 78bd 24f7 c03b ba12 0e3d
00000130: 6555 d1bc df1b 5abd e331 93ba 82f8 6fbd
00000140: 0e16 c33c ed5c 833c 1699 89bc 9912 973c
00000150: 359d 30bd 5dad ff3c 3ea3 9ebd 699a 053d
00000160: aa2f dbbc 31d2 39bd ed27 a13c b3d3 3c3d
00000170: 0781 033b e249 0cbc 8489 3f3d 7611 343d
00000180: f385 13bc c77f a03c 354c 233d ce62 6f3d
00000190: 3811 dbba aa6c 63bd 7db4 83bd b2cc 3dbd
000001a0: 33d8 333d 61bc 583d 5c88 82bd 8a6f bf3c
000001b0: 821a 173c 2a80 113b 58c7 f8bc 814d 81bc
000001c0: 3b5f 853c c045 b8bb 963e c9bc 9cd2 84bc
000001d0: 6db9 9f3c 5984 c33c a348 53bd 9348 48bd
000001e0: 5dd1 2fbd 9f22 97bc d22c febc af36 3d3d
000001f0: 69e8 23bc 6710 1bbc 5f24 30bd 74cd 2c3d

encoder_solv.cached_zero_vector f4 [128]
0.0 0.0 0.0 0.0 0.0 0.0 0.0 0.0
0.0 0.0 0.0 0.0 0.0 0.0 0.0 0.0
0.0 0.0 0.0 0.0 0.0 0.0 0.0 0.0
0.0 0.0 0.0 0.0 0.0 0.0 0.0 0.0
0.0 0.0 0.0 0.0 0.0 0.0 0.0 0.0
0.0 0.0 0.0 0.0 0.0 0.0 0.0 0.0
0.0 0.0 0.0 0.0 0.0 0.0 0.0 0.0
0.0 0.0 0.0 0.0 0.0 0.0 0.0 0.0
0.0 0.0 0.0 0.0 0.0 0.0 0.0 0.0
0.0 0.0 0.0 0.0 0.0 0.0 0.0 0.0
0.0 0.0 0.0 0.0 0.0 0.0 0.0 0.0
0.0 0.0 0.0 0.0 0.0 0.0 0.0 0.0
0.0 0.0 0.0 0.0 0.0 0.0 0.0 0.0
0.0 0.0 0.0 0.0 0.0 0.0 0.0 0.0
0.0 0.0 0.0 0.0 0.0 0.0 0.0 0.0
0.0 0.0 0.0 0.0 0.0 0.0 0.0 0.0
00000000: 0000 0000 0000 0000 0000 0000 0000 0000
00000010: 0000 0000 0000 0000 0000 0000 0000 0000
00000020: 0000 0000 0000 0000 0000 0000 0000 0000
00000030: 0000 0000 0000 0000 0000 0000 0000 0000
00000040: 0000 0000 0000 0000 0000 0000 0000 0000
00000050: 0000 0000 0000 0000 0000 0000 0000 0000
00000060: 0000 0000 0000 0000 0000 0000 0000 0000
00000070: 0000 0000 0000 0000 0000 0000 0000 0000
00000080: 0000 0000 0000 0000 0000 0000 0000 0000
00000090: 0000 0000 0000 0000 0000 0000 0000 0000
000000a0: 0000 0000 0000 0000 0000 0000 0000 0000
000000b0: 0000 0000 0000 0000 0000 0000 0000 0000
000000c0: 0000 0000 0000 0000 0000 0000 0000 0000
000000d0: 0000 0000 0000 0000 0000 0000 0000 0000
000000e0: 0000 0000 0000 0000 0000 0000 0000 0000
000000f0: 0000 0000 0000 0000 0000 0000 0000 0000
00000100: 0000 0000 0000 0000 0000 0000 0000 0000
00000110: 0000 0000 0000 0000 0000 0000 0000 0000
00000120: 0000 0000 0000 0000 0000 0000 0000 0000
00000130: 0000 0000 0000 0000 0000 0000 0000 0000
00000140: 0000 0000 0000 0000 0000 0000 0000 0000
00000150: 0000 0000 0000 0000 0000 0000 0000 0000
00000160: 0000 0000 0000 0000 0000 0000 0000 0000
00000170: 0000 0000 0000 0000 0000 0000 0000 0000
00000180: 0000 0000 0000 0000 0000 0000 0000 0000
00000190: 0000 0000 0000 0000 0000 0000 0000 0000
000001a0: 0000 0000 0000 0000 0000 0000 0000 0000
000001b0: 0000 0000 0000 0000 0000 0000 0000 0000
000001c0: 0000 0000 0000 0000 0000 0000 0000 0000
000001d0: 0000 0000 0000 0000 0000 0000 0000 0000
000001e0: 0000 0000 0000 0000 0000 0000 0000 0000
000001f0: 0000 0000 0000 0000 0000 0000 0000 0000

encoder_solv.W_i.weight f4 [128, 147]
-0.026496861 0.064315245 -0.021471485 -0.020402577 -0.01997296 0.011068738 -0.008077967 0.037543807
-0.11279043 -0.0071168765 -0.07307218 0.0066850334 0.019492239 -0.06479606 0.0012042208 0.074963905
0.13495468 -0.07086811 0.05953531 0.07967788 0.057403132 -0.014496326 0.048646912 0.06418668
0.03539282 0.037150845 0.021573208 -0.076629296 -0.006057322 0.035943642 0.037567154 0.032470524
0.074290514 0.07298769 0.018122517 -0.06266714 0.020816147 -0.017933547 0.047147036 0.015934423
0.013706565 0.04895693 0.07547371 -0.08134126 0.05825594 0.048533484 0.02685088 -0.048280492
0.0021728799 -0.022819947 0.06347567 0.022463255 -0.031128727 -0.056119442 0.044953853 -0.043352652
-0.027812194 0.012898833 -0.018147096 0.04619889 -0.0057799146 0.05632627 -0.0658053 -0.043627325
0.008503415 0.04623039 0.035042137 -0.016899407 -0.022269353 -0.0810118 -0.049120653 0.057631418
0.051033095 0.04013387 0.028449714 0.0666434 -0.03194108 -0.010507181 -0.06456737 0.034327693
-0.025650721 0.05740024 -0.006430723 -0.07144894 -0.030030135 0.042180233 0.063500896 0.03979583
0.07384685 -0.035585005 0.076828316 0.06751168 0.08241336 0.06489645 0.075552836 -0.018603362
0.07579519 0.035364613 0.036181033 -0.07536759 -0.02699973 0.019470014 0.068376705 0.050076876
-0.06470973 -0.082279876 0.0045878813 0.02166368 -0.10893203 0.07769482 -0.09264429 -0.016267836
0.02987962 0.013623185 0.022747654 -0.042006142 -0.048426136 0.012719877 0.046048418 0.11186337
-0.030935781 -0.035601772 0.013336298 -0.013671048 0.018198729 -0.022108525 0.0032408854 -0.069636345
0.010751717 0.036455363 -0.06093069 -0.046636764 0.024623165 0.029040955 0.037654866 0.10509879
0.056910347 0.0035936679 0.07883127 0.03144515 -0.012752001 0.04084935 0.04078067 -0.06084224
-0.055336513 0.024698168 -0.010750212 -0.026723534 -0.050559834 0.06886944 0.005401112 -0.013231332
0.021403838 -0.05410396 0.029137949 -0.056156166 0.04910679 -0.0025620311 0.03843917 -0.034609884
-0.081678644 0.04178791 -0.025214756 -0.049287997 -0.029931836 -0.02291461 -0.038294844 -0.008106396
0.050355464 -0.010054581 0.03219579 0.014700219 -0.007455528 0.023168854 -0.081422865 0.07388835
-0.055744078 0.0102465 -0.08048176 0.072184384 -0.06898433 0.02656778 -0.030768733 -0.023940384
0.036976993 0.006793931 -0.068822995 0.067768246 -0.029321458 -0.039159115 0.04802674 -0.07062164
0.014322564 -0.0399868 -0.017917886 -0.06182311 -0.06322272 -0.078886956 -0.060616195 0.06549691
0.07141225 0.05497825 0.03040073 -0.064723045 -0.037885714 0.07137656 0.07758449 -0.028452676
-0.044232085 -0.043040372 -0.02497968 -0.01829613 0.03706275 0.0064983666 0.060433656 -0.00755699
-0.004683234 0.02369643 0.03232622 -0.02344738 -0.022173762 -0.07555544 0.042427592 0.055391118
-0.010741934 0.07805565 -0.03641395 0.014916912 0.021388821 -0.069558024 0.053328633 0.06875044
-0.04540211 0.019588575 0.019168764 0.05792883 0.016557515 -0.019622833 -0.065919384 -0.039682
-0.07253311 0.024382599 -0.060848404 0.068559214 -0.06537736 -0.022906322 0.039009005 -0.014367811
-0.02520353 -0.015410007 -0.04594652 -0.08715537 0.004613103 -0.028255273 0.07929294 0.09864602
00000000: f20f d9bc b6b7 833d f8e4 afbc 4e23 a7bc
00000010: 559e a3bc a759 353c 7359 04bc 89c7 193d
00000020: abfe e6bd b034 e9bb dea6 95bd 200e db3b
00000030: 30ae 9f3c ccb3 84bd f2d6 9d3a ad86 993d
00000040: 8f31 0a3e 4d23 91bd 4cdb 733d 282e a33d
00000050: 8c1f 6b3d 0082 6dbc fc41 473d 4e74 833d
00000060: 10f8 103d 7c2b 183d 4cba b03c d2ef 9cbd
00000070: 807c c6bb a439 133d 04e0 193d d0ff 043d
00000080: a025 983d 927a 953d ac75 943c a157 80bd
00000090: a086 aa3c 60e9 92bc 401d 413d e888 823c
000000a0: 8091 603c 1087 483d f691 9a3d 3f96 a6bd
000000b0: c89d 6e3d 0ccb 463d 60f6 db3c c4c1 45bd
000000c0: e066 0e3b e6f0 babc 88ff 813d dc04 b83c
000000d0: ac01 ffbc 80dd 65bd 8821 383d 8d92 31bd
000000e0: 66d6 e3bc a055 533c 38a9 94bc 0c3b 3d3d
000000f0: 7065 bdbb 60b6 663d eec4 86bd 91b2 32bd
00000100: e851 0b3c 145c 3d3d 5888 0f3d a070 8abc
00000110: 386e b6bc 84e9 a5bd bd32 49bd ec0e 6c3d
00000120: 1408 513d 6a63 243d 600f e93c 567c 883d
00000130: a6d4 02bd 5026 2cbc e63b 84bd 329b 0c3d
00000140: 7621 d2bc 841c 6b3d d0b8 d2bb d253 92bd
00000150: c201 f6bc 2ec5 2c3d c20c 823d f400 233d
00000160: 043d 973d 95c1 11bd 2a58 9d3d 9043 8a3d
00000170: 56c8 a83d 6ee8 843d 72bb 9a3d 1466 98bc
00000180: 823a 9b3d 7cda 103d 9032 143d 535a 9abd
00000190: 8a2e ddbc 947f 9f3c 1609 8c3d 691d 4d3d
000001a0: 8986 84bd 5a82 a8bd f055 963b 0878 b13c
000001b0: c217 dfbd 761e 9f3d 4abc bdbd 2044 85bc
000001c0: 1bc6 f43c c833 5f3c 4a59 ba3c a20e 2cbd
000001d0: 7c5a 46bd 0867 503c 449d 3c3d 9f18 e53d
000001e0: 096d fdbc 2ad3 11bd 7d80 5a3c 88fc 5fbc
000001f0: 8015 953c f01c b5bc 0965 543b 809d 8ebd
00000200: f827 303c 3852 153d 7692 79bd 3106 3fbd
00000210: 85b6 c93c 4ce7 ed3c fd3b 1a3d 093e d73d
00000220: d31a 693d be83 6b3b 4a72 a13d a1cc 003d
00000230: c5ed 50bc a651 273d a209 273d b635 79bd
00000240: 8aa8 62bd d053 ca3c a821 30bc 50eb dabc
00000250: d417 4fbd 6c0b 8d3d d0fb b03b 3bc8 58bc
00000260: 1a57 af3c 1d9c 5dbd b5b2 ee3c 0204 66bd
00000270: 3424 493d c0e7 27bb 6472 1d3d 18c3 0dbd
00000280: 2247 a7bd cd29 2b3d 2d8f cebc 36e2 49bd
00000290: 9c33 f5bc 6cb7 bbbc 0edb 1cbd b0d0 04bc
000002a0: 8841 4e3d f8bb 24bc bcdf 033d 30d9 703c
000002b0: 804d f4bb 9ccc bd3c 08c1 a6bd c652 973d
000002c0: e753 64bd f0e0 273c 9fd3 a4bd 68d5 933d
000002d0: a847 8dbd aca4 d93c b60e fcbc a01e c4bc
000002e0: 3075 173d a09f de3b 12f3 8cbd 14ca 8a3d
000002f0: 8e33 f0bc 4f65 20bd b0b7 443d 14a2 90bd
00000300: 30a9 6a3c 33c9 23bd 88c8 92bc 3b3a 7dbd
00000310: ea7a 81bd 7c8f a1bd b048 78bd 3e23 863d
00000320: 9640 923d e030 613d f40a f93c 848d 84bd
00000330: 0d2e 1bbd e02d 923d 9ee4 9e3d 9615 e9bc
00000340: b42c 35bd 1a4b 30bd 30a2 ccbc c4e1 95bc
00000350: 1ccf 173d 40f0 d43b 4889 773d a0a0 f7bb
00000360: d075 99bb 041f c23c 8068 043d b814 c0bc
00000370: c0a5 b5bc cfbc 9abd 8ec8 2d3d cce1 623d
00000380: f0fe 2fbc a4db 9f3d cb26 15bd 1066 743c
00000390: 9c37 af3c 7074 8ebd 206f 5a3d 08cd 8c3d
000003a0: 90f7 39bd 3878 a03c d007 9d3c c846 6d3d
000003b0: a0a3 873c 10c0 a0bc be00 87bd 9889 22bd
000003c0: 3d8c 94bd 04be c73c 2d3c 79bd c668 8c3d
000003d0: 91e4 85bd 0aa6 bbbc e8c7 1f3d f866 6bbc
000003e0: a277 cebc 417a 7cbc 6b32 3cbd 847e b2bd
000003f0: 8329 973b 9a77 e7bc 5664 a23d ed06 ca3d

encoder_solv.W_i.bias f4 [128]
-0.017616985 0.0069788992 -0.030775132 -0.036685046 -0.007556082 -0.05244241 -0.018957444 0.0039426335
-0.0051241545 -0.07059909 -0.04680969 -0.057070173 -0.08487488 -0.05189716 -0.060978558 -0.030903917
0.056499798 -0.039007224 -0.056873444 -0.07480854 0.057336077 -0.041640323 -0.07169723 0.040631924
0.0555205 0.042544875 -0.00010344548 0.034823496 0.025969202 0.076606646 -0.024168307 0.050082393
-0.038099132 -0.02219846 -0.02371132 -0.08291374 -0.0014525605 0.035524923 0.07627953 0.04792915
0.019350475 -0.057913866 0.060672056 0.027202917 0.061001033 -0.035446037 -0.024913412 0.038968604
-0.051068332 -0.0887861 0.006662756 -0.06589187 -0.04793774 -0.043963823 -0.0059777256 0.006061598
-0.022240981 -0.07437056 0.014343047 0.010643335 -0.05622414 -0.03622905 0.07141675 -0.055581503
-0.053368688 -0.0746898 -0.067072354 -0.06383149 -0.049999874 0.06506957 -0.016128682 -0.022697732
0.051731586 -0.021229971 -0.014874921 0.04658712 -0.058785103 -0.045510374 -0.03340591 0.040105052
0.075063854 -0.04176404 -0.0594595 -0.055961605 -0.02082971 -0.06067889 -0.010869642 -0.064493485
0.04967702 0.047058206 -0.026284313 0.009638384 0.035615087 0.055526078 0.04332825 -0.075288154
-0.0745212 -0.061382685 -0.0048417845 -0.07376046 -0.0038681268 -0.024918465 -0.006390864 0.054278925
0.021033352 -0.04781051 0.015656717 -0.07947415 0.030192496 0.007311442 0.052368853 0.04206439
-0.02683663 0.05148152 -0.03550061 0.07630336 -0.04009596 0.017694758 0.030738244 -0.034024138
-0.0474453 0.023333428 -0.026144953 0.010462085 -0.038159814 -0.03844683 -0.026879562 -0.021456022
00000000: 7f51 90bc 40af e43b 211c fcbc 0f43 16bd
00000010: 0399 f7bb dacd 56bd a44c 9bbc 3531 813b
00000020: 86e8 a7bb 4196 90bd 84bb 3fbd 6ac2 69bd
00000030: e2d2 adbd 1e92 54bd a7c4 79bd 362a fdbc
00000040: 556c 673d 0ac6 1fbd 21f4 68bd 3835 99bd
00000050: 3cd9 6a3d 0b8f 2abd ffd5 92bd a96d 263d
00000060: 7769 633d 8943 2e3d dff0 d8b8 15a3 0e3d
00000070: 5dbd d43c f2e3 9c3d 9dfc c5bc 3223 4d3d
00000080: d60d 1cbd 8bd9 b5bc 3e3e c2bc aece a9bd
00000090: d863 beba 9582 113d 7138 9c3d 5b51 443d
000000a0: e384 9e3c 1737 6dbd 4383 783d a7d8 de3c
000000b0: 38dc 793d dd2f 11bd 3617 ccbc 8b9d 1f3d
000000c0: 072d 51bd 7dd5 b5bd 4053 da3b 51f2 86bd
000000d0: 5d5a 44bd 6913 34bd cce0 c3bb 5fa0 c63b
000000e0: b832 b6bc 984f 98bd 19ff 6a3c 6261 2e3c
000000f0: 494b 66bd ea64 14bd f242 923d 6ea9 63bd
00000100: 2099 5abd f7f6 98bd 3b5d 89bd 16ba 82bd
00000110: abcc 4cbd 3243 853d 4c20 84bc 98f0 b9bc
00000120: 80e4 533d 7aea adbc f1b5 73bc 23d2 3e3d
00000130: a6c8 70bd 1669 3abd a3d4 08bd 3245 243d
00000140: 14bb 993d c510 2bbd ce8b 73bd ff37 65bd
00000150: 11a3 aabc 6e8a 78bd 9516 32bc 2915 84bd
00000160: 227a 4b3d 1bc0 403d 3352 d7bc 50ea 1d3c
00000170: 20e1 113d 506f 633d f778 313d ad30 9abd
00000180: 929e 98bd 696c 7bbd d5a7 9ebb b90f 97bd
00000190: 6680 7dbb cf21 ccbc 746a d1bb 9453 5e3d
000001a0: 234e ac3c f4d4 43bd 8442 803c 58c3 a2bd
000001b0: 4156 f73c d294 ef3b b980 563d b64b 2c3d
000001c0: 7ed8 dbbc 49de 523d 1669 11bd f044 9c3d
000001d0: a93b 24bd 99f4 903c c5ce fb3c e55c 0bbd
000001e0: 0156 42bd bf25 bf3c f12d d6bc 2a69 2b3c
000001f0: 774d 1cbd 6c7a 1dbd 8732 dcbc 8ac4 afbc

encoder_solv.W_h.weight f4 [128, 128]
0.011111897 -0.06803449 0.12626113 -0.05125847 -0.029143242 0.07299766 0.03756271 -0.047626834
-0.045574114 0.04498201 -0.032247175 0.030123487 -0.06618151 -0.023980811 0.051151536 0.08104826
0.001398917 0.017140372 -0.018512936 -0.021035237 -0.04810314 -0.036259167 -0.0482479 -0.012539088
-0.051384725 -0.03693447 -0.03070072 -0.010329427 0.03134059 -0.05639097 0.022775337 -0.052736383
-0.008386124 0.035281435 0.019141523 -0.025923166 -0.005946595 -0.03143212 -0.050215684 0.04914584
-0.08823903 -0.05570543 0.016319519 0.054889593 -0.053796932 0.030033167 -0.032795094 -0.058728434
0.06610186 -0.037795708 -0.07060464 -0.027255615 -0.06613851 0.07169291 0.06428984 -0.05758586
-0.044970296 0.14946789 -0.049973864 -0.051301524 0.08095665 -0.022600727 -0.11633153 -0.08080307
0.025254862 0.01959716 -0.061578512 0.022178339 0.048882954 -0.004068061 0.054590933 0.042120636
0.074664444 -0.0027461066 0.099919826 -0.094415694 -0.06729589 0.042901214 0.006723443 0.026009947
0.02978835 -0.019073261 0.083517365 0.037398044 -0.100402206 0.06011161 0.015127578 0.01127308
0.004794557 -0.0834821 0.070596665 -0.03588458 0.016707422 -0.07323002 -0.046436787 -0.057608966
-0.07503975 0.08981488 -0.017638622 0.01089405 0.029535947 -0.04173519 -0.056053735 0.011954039
0.022317048 -0.039131597 0.031866096 -0.0033216826 -0.02387041 0.048718084 -0.0072510014 0.0659279
0.054965522 0.061924275 0.065971486 -0.09398486 0.047875475 0.03972367 0.05413644 0.049628943
0.03320208 -0.025800757 -0.051780023 0.06934063 0.060987264 0.0632725 -0.072698675 0.04103575
0.05654925 0.06249132 -0.04486192 0.0847086 0.010322461 -0.055213228 0.06351104 0.028540783
0.022747293 -0.029635966 0.04935729 0.012090727 -0.060686145 -0.0007396712 -0.004757477 0.01440471
0.02139056 -0.020566013 0.0497449 -0.041786134 -0.08949255 -0.017317513 0.06004951 -0.014254126
0.034725137 -0.05913645 -0.054678127 -0.04360159 -0.042377144 -0.07283963 0.067809165 0.07750353
-0.0034108371 0.050965518 -0.04505977 -0.059139993 -0.0970367 0.052528467 0.015495033 -0.0049042255
-0.04402971 0.029754605 -0.002878493 -0.008025759 -0.010088227 0.08246904 -0.03829316 0.02795564
-0.04823187 0.0651299 0.07368716 -0.05006806 0.04941335 0.019161697 -0.07721454 0.037076417
0.054747574 0.06367702 -0.004104256 -0.0127082225 -0.05923532 -0.08682624 -0.058408726 -0.022111757
-0.060551163 0.059420604 0.03636259 0.026013453 -0.012940847 0.018287964 -0.069585815 -0.07900427
-0.03576287 -0.07334867 -0.013040984 -0.035695218 -0.013538672 -0.032539487 -0.018580714 0.04544814
-0.05094998 0.02488307 -0.062046874 0.04263424 0.059506983 -0.004894987 0.04034378 0.029519616
0.028181918 -0.08415172 -0.019607276 -0.06644036 -0.030462474 0.0031373173 0.01361081 -0.026709322
-0.064586096 -0.053942684 -0.00977183 -0.057768524 0.057190087 0.060611103 -0.017181056 0.06874402
-0.03808981 0.03256076 -0.056329783 0.067520306 0.04882503 0.011906026 0.038541526 0.059898715
-0.08708669 -0.07961897 -0.08952385 -0.0489273 0.06870131 -0.049709447 -0.07616886 0.020338917
-0.07996112 -0.076017365 -0.06512967 0.020496652 -0.059385814 0.0032047897 0.07284253 -2.0699448e-05
00000000: ad0e 363c ab55 8bbd 994a 013e 67f4 51bd
00000010: cfbd eebc cc7f 953d 5bdb 193d 5b14 43bd
00000020: ecab 3abd 0e3f 383d 9d15 04bd 88c5 f63c
00000030: 2c8a 87bd 6873 c4bc 4684 513d a1fc a53d
00000040: de5b b73a f769 8c3c 71a8 97bc 1752 acbc
00000050: cc07 45bd 7e84 14bd 979f 45bd bf70 4dbc
00000060: ca78 52bd 9948 17bd 1480 fbbc c23c 29bc
00000070: fe5e 003d 38fa 66bd 5893 ba3c 1b02 58bd
00000080: f465 09bc 4483 103d afce 9c3c d25c d4bc
00000090: a8db c2bb f7be 00bd f6ae 4dbd 264d 493d
000000a0: aab6 b4bd 612b 64bd 83b0 853c e9d3 603d
000000b0: 2c5a 5cbd 1e08 f63c 2654 06bd 3a8d 70bd
000000c0: 6960 873d accf 1abd 2a99 90bd 2b47 dfbc
000000d0: a173 87bd bbd3 923d 64aa 833d 27df 6bbd
000000e0: c632 38bd 1c0e 193e 65b1 4cbd 8c21 52bd
000000f0: 9acc a53d 2925 b9bc 3a3f eebd 147c a5bd
00000100: 49e3 ce3c 398a a03c c039 7cbd 59af b53c
00000110: 7e39 483d 5e4d 85bb be9a 5f3d b086 2c3d
00000120: ace9 983d 06f8 33bb c4a2 cc3d 045d c1bd
00000130: 6dd2 89bd 2fb9 2f3d 5450 dc3b d012 d53c
00000140: b306 f43c 873f 9cbc 270b ab3d b12e 193d
00000150: ac9f cdbd 9737 763d a9d9 773c b9b2 383c
00000160: a91b 9d3b aaf8 aabd fc94 903d b6fb 12bd
00000170: 01de 883c 9ff9 95bd 8034 3ebd 61f7 6bbd
00000180: 71ae 99bd ddf0 b73d df7e 90bc f57c 323c
00000190: 5ff5 f13c 85f2 2abd 9a98 65bd e0da 433c
000001a0: 3ed2 b63c 7448 20bd 0686 023d 96b0 59bb
000001b0: e18b c3bc 9d8c 473d cf99 edbb 3505 873d
000001c0: 8723 613d 4fa4 7d3d 0f1c 873d 227b c0bd
000001d0: 1319 443d 49b5 223d 2cbe 5d3d b847 4b3d
000001e0: e7fe 073d 1c5c d3bc 4a17 54bd 7602 8e3d
000001f0: c8cd 793d 0395 813d 0be3 94bd 1a15 283d
00000200: 30a0 673d e6f6 7f3d 22c1 37bd b47b ad3d
00000210: 8a1f 293c 4427 62bd 1312 823d 5cce e93c
00000220: 8858 ba3c 20c7 f2bc df2a 4a3d 2f18 463c
00000230: 0992 78bd 7ee6 41ba 9ce4 9bbb bc01 6c3c
00000240: 413b af3c 0e7a a8bc 4fc1 4b3d f027 2bbd
00000250: df47 b7bd 75dd 8dbc 7af6 753d 238a 69bc
00000260: f23b 0e3d 1039 72bd 2cf6 5fbd 9597 32bd
00000270: a893 2dbd f22c 95bd 88df 8a3d 2cba 9e3d
00000280: 5a88 5fbb 38c1 503d 9890 38bd c73c 72bd
00000290: 2dbb c6bd 1728 573d e1de 7d3c a0b3 a0bb
000002a0: 7f58 34bd eebf f33c 19a5 3cbb 797e 03bc
000002b0: 1749 25bc 87e5 a83d 4ad9 1cbd 3a03 e53c
000002c0: c88e 45bd d362 853d 4be9 963d 2b14 4dbd
000002d0: a765 4a3d fef8 9c3c a822 9ebd 71dd 173d
000002e0: fe3e 603d 1969 823d ff7c 86bb 2636 50bc
000002f0: bca0 72bd f5d1 b1bd fd3d 6fbd b723 b5bc
00000300: 7f04 78bd 0563 733d f0f0 143d 2a1a d53c
00000310: d905 54bc a4d0 953c 0283 8ebd fecc a1bd
00000320: 167c 12bd d437 96bd daa9 55bc 2635 12bd
00000330: 4ed1 5dbc 2048 05bd 9536 98bc d427 3a3d
00000340: edb0 50bd 94d7 cb3c dd24 7ebd 3ea1 2e3d
00000350: 98bd 733d 2166 a0bb 853f 253d 1fd3 f13c
00000360: c4dd e63c bd57 acbd 709f a0bc e211 88bd
00000370: 708c f9bc 739b 4d3b e0ff 5e3c 82cd dabc
00000380: b745 84bd 01f3 5cbd 071a 20bc b09e 6cbd
00000390: 2740 6a3d 5943 783d 49bf 8cbc aac9 8c3d
000003a0: 1004 1cbd 6e5e 053d 0fba 66bd 1648 8a3d
000003b0: c1fc 473d 7e11 433c b8dd 1d3d 5b58 753d
000003c0: 825a b2bd 450f a3bd 4858 b7bd fe67 48bd
000003d0: 46b3 8c3d 229c 4bbd 6bfe 9bbd cd9d a63c
000003e0: a8c2 a3bd feae 9bbd b462 85bd 98e8 a73c
000003f0: 8a3e 73bd 7307 523b 772e 953d baa3 adb7
