THESIS/transfer_learning/checkpoints/DMPNN_with_attention.pt (torch, 347576 bytes, 14 tensors)

encoder.cached_zero_vector f4 [128]
0	0x00000000	0.0
1	0x00000000	0.0
2	0x00000000	0.0
3	0x00000000	0.0
4	0x00000000	0.0
5	0x00000000	0.0
6	0x00000000	0.0
7	0x00000000	0.0
8	0x00000000	0.0
9	0x00000000	0.0
10	0x00000000	0.0
11	0x00000000	0.0
12	0x00000000	0.0
13	0x00000000	0.0
14	0x00000000	0.0
15	0x00000000	0.0
16	0x00000000	0.0
17	0x00000000	0.0
18	0x00000000	0.0
19	0x00000000	0.0
20	0x00000000	0.0
21	0x00000000	0.0
22	0x00000000	0.0
23	0x00000000	0.0
24	0x00000000	0.0
25	0x00000000	0.0
26	0x00000000	0.0
27	0x00000000	0.0
28	0x00000000	0.0
29	0x00000000	0.0
30	0x00000000	0.0
31	0x00000000	0.0
32	0x00000000	0.0
33	0x00000000	0.0
34	0x00000000	0.0
35	0x00000000	0.0
36	0x00000000	0.0
37	0x00000000	0.0
38	0x00000000	0.0
39	0x00000000	0.0
40	0x00000000	0.0
41	0x00000000	0.0
42	0x00000000	0.0
43	0x00000000	0.0
44	0x00000000	0.0
45	0x00000000	0.0
46	0x00000000	0.0
47	0x00000000	0.0
48	0x00000000	0.0
49	0x00000000	0.0
50	0x00000000	0.0
51	0x00000000	0.0
52	0x00000000	0.0
53	0x00000000	0.0
54	0x00000000	0.0
55	0x00000000	0.0
56	0x00000000	0.0
57	0x00000000	0.0
58	0x00000000	0.0
59	0x00000000	0.0
60	0x00000000	0.0
61	0x00000000	0.0
62	0x00000000	0.0
63	0x00000000	0.0
64	0x00000000	0.0
65	0x00000000	0.0
66	0x00000000	0.0
67	0x00000000	0.0
68	0x00000000	0.0
69	0x00000000	0.0
70	0x00000000	0.0
71	0x00000000	0.0
72	0x00000000	0.0
73	0x00000000	0.0
74	0x00000000	0.0
75	0x00000000	0.0
76	0x00000000	0.0
77	0x00000000	0.0
78	0x00000000	0.0
79	0x00000000	0.0
80	0x00000000	0.0
81	0x00000000	0.0
82	0x00000000	0.0
83	0x00000000	0.0
84	0x00000000	0.0
85	0x00000000	0.0
86	0x00000000	0.0
87	0x00000000	0.0
88	0x00000000	0.0
89	0x00000000	0.0
90	0x00000000	0.0
91	0x00000000	0.0
92	0x00000000	0.0
93	0x00000000	0.0
94	0x00000000	0.0
95	0x00000000	0.0
96	0x00000000	0.0
97	0x00000000	0.0
98	0x00000000	0.0
99	0x00000000	0.0
100	0x00000000	0.0
101	0x00000000	0.0
102	0x00000000	0.0
103	0x00000000	0.0
104	0x00000000	0.0
105	0x00000000	0.0
106	0x00000000	0.0
107	0x00000000	0.0
108	0x00000000	0.0
109	0x00000000	0.0
110	0x00000000	0.0
111	0x00000000	0.0
112	0x00000000	0.0
113	0x00000000	0.0
114	0x00000000	0.0
115	0x00000000	0.0
116	0x00000000	0.0
117	0x00000000	0.0
118	0x00000000	0.0
119	0x00000000	0.0
120	0x00000000	0.0
121	0x00000000	0.0
122	0x00000000	0.0
123	0x00000000	0.0
124	0x00000000	0.0
125	0x00000000	0.0
126	0x00000000	0.0
127	0x00000000	0.0

encoder.W_i.weight f4 [128, 147]
0	0xbd89d396	-0.0672981
1	0x3d27fae2	0.041010745
2	0xbd5085e4	-0.050908938
3	0x3cf18291	0.029481204
4	0xbcff5e82	-0.031172995
5	0xbe8ed897	-0.2789962
6	0x3e17dbe1	0.14829971
7	0x3e5999a4	0.21250015
8	0x3da6639c	0.08124468
9	0x3d95c951	0.07313789
10	0x3d8bd091	0.0682689
11	0xbc4c0f5b	-0.012454833
12	0x3d242554	0.04007466
13	0xbcd03144	-0.025414117
14	0x3cf0a3e0	0.029375017
15	0x3da0b518	0.07847041
16	0x3d45a30a	0.04825119
17	0x3d462d37	0.048382964
18	0x3c8ec495	0.017427722
19	0x3d88457d	0.06653879
20	0x3affcb12	0.0019515476
21	0x3d9b6f18	0.07589549
22	0x3bd1f7a4	0.006407695
23	0xbd1ae0ec	-0.03781216
24	0x3a2318a7	0.000622163
25	0xbc703b5a	-0.014662588
26	0x3cf8724f	0.030327944
27	0x3ce110e1	0.027473869
28	0x3b9a57a0	0.0047101527
29	0x3d0b4b74	0.034007505
30	0x3d119a5a	0.03554759
31	0xbcf73fc2	-0.03018177
32	0xbca50c69	-0.02014752
33	0x3d1cee55	0.03831323
34	0x3d96a7f5	0.07356254
35	0x3cf0920f	0.029366521
36	0x3d809640	0.06278658
37	0xbba37c74	-0.004989201
38	0xbd67aed3	-0.05656321
39	0xbd852f00	-0.06503105
40	0xbd9f56e0	-0.07780242
41	0xbda591c9	-0.08084447
42	0xbd0b6825	-0.034034867
43	0xbd1582c2	-0.036501653
44	0xbd4e9279	-0.050432656
45	0xbd426d69	-0.047467623
46	0xbd1452b8	-0.0362117
47	0xbd5f3dfd	-0.054502476
48	0x3cf21f9b	0.029556086
49	0x3ca1c8b2	0.01974902
50	0xbce8d2cc	-0.028420828
51	0x3d250d62	0.040295966
52	0x3d10f656	0.035391174
53	0xbd0c4c23	-0.034252297
54	0x3c70406d	0.014663798
55	0xbcf48b15	-0.029851476
56	0xbd94518d	-0.07242117
57	0xbd9ed671	-0.07755745
58	0xbd0d298d	-0.034463454
59	0xba5ec065	-0.0008497297
60	0xbc982c02	-0.018575672
61	0xbd4053d3	-0.04695494
62	0x3c1a90e9	0.009433963
63	0xbd8564ea	-0.065133885
64	0xbd76d3dd	-0.060260642
65	0x3d4c4396	0.049869142
66	0xbb0e6b03	-0.0021731264
67	0x3cd7c920	0.026341021
68	0x3b889553	0.0041681915
69	0xbd035ab5	-0.032068927
70	0xbd1b87af	-0.037971195
71	0x3d3e140d	0.04640584
72	0x3c9d2790	0.019183904
73	0x3bb606ee	0.0055550253
74	0xbd2111d5	-0.039323647
75	0xbd06c5c8	-0.032903463
76	0x3d3112bb	0.043230753
77	0xbccd1647	-0.025035037
78	0xbb9f9cbb	-0.0048709786
79	0xbc66c8cb	-0.014085959
80	0xbccee8c1	-0.02525747
81	0xbbe999f1	-0.007128947
82	0x3d3e467d	0.04645394
83	0x3d26a2f3	0.040682744
84	0xbd818d0b	-0.0632573
85	0x3d995708	0.07487303
86	0xbd832569	-0.0640362
87	0xbd00e743	-0.03147055
88	0xbd26b4ce	-0.040699773
89	0x3d06562b	0.03279702
90	0xbcc8aef0	-0.02449748
91	0xbd850508	-0.064951
92	0x3d9c6aeb	0.076375805
93	0x3d5893b6	0.052875243
94	0xbda129e5	-0.07869319
95	0xbd3a85dc	-0.045537814
96	0x3c228427	0.009919203
97	0x3c7abe57	0.01530417
98	0xbda7e8d4	-0.08198705
99	0xbd20bd13	-0.039242815
100	0x3da5459f	0.0806992
101	0xbd281b87	-0.041041877
102	0xbeca6dae	-0.39536804
103	0x3d9e4e57	0.07729786
104	0x3e20ea1a	0.15714303
105	0xbe53613b	-0.20642559
106	0x3da0f4bf	0.078591816
107	0xbd0dddc9	-0.03463534
108	0x3dbe6d15	0.092981495
109	0x3ccb482b	0.024814686
110	0xbd888e32	-0.066677466
111	0xbd97587a	-0.073899224
112	0xbdca4865	-0.098770894
113	0x3c4e4ad9	0.012591087
114	0xbdf18100	-0.11792183
115	0x3d17fdd0	0.03710729
116	0x3d3bf4eb	0.04588787
117	0xbd82e3f2	-0.06391133
118	0x3d40315e	0.04692208
119	0xbe1fb6ba	-0.15597048
120	0x3e9ea033	0.30981597
121	0xbf0f84e8	-0.56062174
122	0xbdb99969	-0.09062464
123	0x3d8789a0	0.06618047
124	0x3d7cf1c6	0.06175401
125	0xbe213f86	-0.15746889
126	0x3e93c568	0.28861547
127	0xbe87e819	-0.26544264
128	0xbd9d5d0f	-0.07683765
129	0x3c4a5545	0.012349431
130	0xbd9f17a8	-0.07768184
131	0xbed3b42c	-0.41348398
132	0xbd794ebb	-0.0608661
133	0x3d88cfe3	0.06680276
134	0xbc47e56e	-0.012200696
135	0xbb3a738f	-0.0028450226
136	0xbd1a6296	-0.037691675
137	0xbf06ea17	-0.5270094
138	0xbd8d0fda	-0.06887789
139	0x3e4a67fd	0.19766231
140	0xbcf8a6a0	-0.03035289
141	0xbcce00a4	-0.02514679
142	0x3d9366b9	0.07197327
143	0xbcaf6f27	-0.021415306
144	0xbda3b98f	-0.07994377
145	0x3cceb696	0.025233548
146	0x3c7206ad	0.014772099
147	0xbd1b0622	-0.037847646
148	0x3d61ffca	0.05517558
149	0x3cab5133	0.020912742
150	0x3d908459	0.07056493
151	0xbd70d89c	-0.058800325
152	0xbdcce172	-0.10003938
153	0xbc404794	-0.011735816
154	0xbf1edda2	-0.62056935
155	0xbe40abab	-0.18815486
156	0x3c4adb42	0.012381377
157	0xbcfaac5c	-0.030599765
158	0x3d800b11	0.06252111
159	0xbd8fbe7d	-0.07018755
160	0xbd8ae9a7	-0.06782847
161	0xbca84e60	-0.020545185
162	0x3d9e2ea9	0.077237435
163	0x3c88e86c	0.01671239
164	0xbcde3dba	-0.027129043
165	0xbd5f96a7	-0.054587033
166	0x3d9c07b0	0.07618654
167	0xbd8da40d	-0.06916056
168	0x3d8e0f52	0.06936516
169	0xbcb588b8	-0.02215992
170	0x3da78bac	0.08180937
171	0xbc860ebb	-0.016364446
172	0xbc1a1473	-0.00940429
173	0xbd77f7c7	-0.060539033
174	0xbd86e662	-0.06586911
175	0x3ca6bfb1	0.020355077
176	0xbc34fbe8	-0.011046387
177	0x3c8129c2	0.015766982
178	0x3b0c0e71	0.0021370912
179	0xbda78c0d	-0.081810094
180	0xbd375925	-0.04476275
181	0x3d913ec3	0.07092049
182	0xbd9d9eaf	-0.07696282
183	0x3da5e252	0.08099808
184	0xbda03ad9	-0.07823724
185	0xbd69a480	-0.057041645
186	0x3d02fc27	0.031978752
187	0xbcb10b12	-0.021611724
188	0xbd80cc68	-0.062889874
189	0xbd24e2a3	-0.0402552
190	0x3d91a4be	0.071115
191	0xbd47d994	-0.048791483
192	0xbcb0caa2	-0.021580998
193	0x3d5773da	0.05260072
194	0x3d87f4b9	0.06638474
195	0xbcf5def5	-0.03001354
196	0xbd060f3d	-0.032729376
197	0x3d8f75c2	0.070048824
198	0xbb79b06e	-0.0038099545
199	0xbbec0c34	-0.007203603
200	0x3d63c99e	0.0556122
201	0x3da6c51c	0.081430644
202	0x3c759778	0.014989726
203	0x3c5574ae	0.013028307
204	0xbb46a1e1	-0.003030889
205	0xbd9783dd	-0.07398198
206	0x3c006ab2	0.007837938
207	0x3d650af4	0.05591865
208	0xbcdf802d	-0.027282799
209	0xbd9f5682	-0.07780172
210	0xbd2d6bb6	-0.04233905
211	0xbd0cc48e	-0.034367137
212	0xbd8354ec	-0.06412682
213	0x3d97e41d	0.07416556
214	0x3d0c0f91	0.034194533
215	0xbd36a787	-0.04459336
216	0x3d5157e9	0.05110923
217	0x3cfb8006	0.030700695
218	0xbd6207e7	-0.055183318
219	0x3d2d688c	0.04233603
220	0xbd92dc2e	-0.07170902
221	0xbd4938b0	-0.049126327
222	0xbd910795	-0.07081524
223	0xbd56a248	-0.052400857
224	0xbd1a8318	-0.037722677
225	0x3d7eea83	0.062235367
226	0xbbfaa4fb	-0.0076490617
227	0x3c68510f	0.014179482
228	0xbd0bed17	-0.034161653
229	0x3d8ce2d6	0.06879203
230	0x3da636da	0.08115931
231	0x3d8efd87	0.0698195
232	0x3c844471	0.016145917
233	0xbd89cdbd	-0.067286946
234	0xbb3ef318	-0.0029136594
235	0x3d6a429d	0.057192434
236	0x3d14e01f	0.03634655
237	0x3c5a0e44	0.013309065
238	0xbc6dbec8	-0.014510818
239	0x3b8cfa55	0.004302303
240	0xbd9d14dc	-0.07669994
241	0xbadfd190	-0.0017076004
242	0xbbb991f3	-0.0056631505
243	0x3cb01d63	0.021498388
244	0x3ce9f14f	0.028557448
245	0xbc3fd4cc	-0.01170845
246	0xbda0268e	-0.07819854
247	0xbcdbd903	-0.026836878
248	0x3d2fc182	0.042909153
249	0xbeaa39db	-0.33247265
250	0xbf761a93	-0.961343
251	0xbe27e62c	-0.16396397
252	0x3e0367dd	0.1283259
253	0x3c8fa224	0.01753337
254	0xbd10cdd6	-0.03535255
255	0xbe96c49d	-0.2944688

encoder.W_i.bias f4 [128]
0	0xbe7eac9d	-0.24870534
1	0xbe31db6d	-0.1736886
2	0xbdfe11a3	-0.12405708
3	0xbddb3175	-0.107027926
4	0xbe448b6a	-0.19193807
5	0xbd90e4ba	-0.07074876
6	0xbe82d84e	-0.25555652
7	0xbd859121	-0.06521822
8	0xbe47d1bb	-0.195136
9	0xbce6c01d	-0.028167779
10	0x3e9943db	0.29934582
11	0xbe4babfe	-0.19889829
12	0xbcdc77d8	-0.026912615
13	0xbdb83da1	-0.0899613
14	0xbe203f34	-0.1564911
15	0xbdbef61b	-0.09324285
16	0xbd376acd	-0.044779588
17	0xbd936dc8	-0.071986735
18	0xbe2f8d4d	-0.17143746
19	0xbdd6ce1a	-0.104885295
20	0xbdc22121	-0.09478975
21	0xbe5283b1	-0.20558049
22	0xbe77c80f	-0.2419741
23	0xbe8f6b04	-0.28011334
24	0xbe18380a	-0.14865127
25	0xbdb0105d	-0.08596871
26	0xbba6160e	-0.005068547
27	0x3df13486	0.11777596
28	0xbcf78d6a	-0.030218799
29	0xbd8471d2	-0.06467022
30	0xbdee59dc	-0.11638233
31	0xbdaea8f7	-0.08528321
32	0xbe9a3276	-0.30116624
33	0xbe26c8ac	-0.16287488
34	0xbe7c7925	-0.24655588
35	0xbe6472a1	-0.22309352
36	0xbe000f25	-0.12505777
37	0xbe631a69	-0.22178043
38	0xbdae8bb1	-0.08522738
39	0xbdf4b39e	-0.11948322
40	0xbcc5d4b2	-0.024149273
41	0xbe377d15	-0.17918809
42	0xbe3e5c92	-0.1859
43	0xbe94ad1c	-0.29038322
44	0xbe3b5c91	-0.1829703
45	0xbcd27bd9	-0.02569382
46	0xbe2192e8	-0.15778697
47	0xbe6174fd	-0.22017284
48	0xbc0f7c64	-0.008757684
49	0xbde2c3ce	-0.11072503
50	0xbe32aa20	-0.1744771
51	0x3da3d5c5	0.07999758
52	0xbd1e94a6	-0.03871598
53	0xbdb70760	-0.089369535
54	0xbcf52ebb	-0.02992951
55	0xbe063872	-0.1310747
56	0xbe070fd5	-0.13189633
57	0xbdf0811f	-0.11743378
58	0xbe1841b4	-0.14868814
59	0xbeaa6ba2	-0.33285242
60	0xbdfb8427	-0.122810654
61	0xbe2d164b	-0.16903035
62	0xbc1e1533	-0.009648609
63	0xbd944174	-0.07239047
64	0xbd26544c	-0.040607736
65	0xbe1464b1	-0.14491536
66	0xbd5abcc8	-0.053402692
67	0xbd5534be	-0.052052252
68	0xbde25288	-0.11050898
69	0xbe134df0	-0.143852
70	0xbdd310dd	-0.10305951
71	0x3dc7c43a	0.09754224
72	0xbda08f0d	-0.07839785
73	0xbe03988a	-0.12851158
74	0xbd9cf175	-0.07663242
75	0xbd6c1633	-0.05763836
76	0x3db9a0a6	0.090638444
77	0xbe0e0ae7	-0.13871346
78	0xbe622745	-0.22085293
79	0xbe10bd06	-0.14134607
80	0xbcb31171	-0.021858903
81	0xbe024ab7	-0.12723814
82	0xbdeafd27	-0.11474066
83	0xbe0a6e2b	-0.13518588
84	0xbe848cb5	-0.258886
85	0xbdb977d5	-0.09056059
86	0xbc9f34aa	-0.019434292
87	0xbdcc0c70	-0.0996331
88	0xbe042d4a	-0.12907901
89	0x3e05118e	0.12994978
90	0xbe5992f3	-0.21247463
91	0xbd17735f	-0.03697526
92	0xbe19192a	-0.14951006
93	0xbc3f54cb	-0.011677931
94	0xbd5c3a96	-0.05376681
95	0xbe4104ac	-0.18849438
96	0x3dc38fbf	0.09548902
97	0xbeb276f2	-0.34856373
98	0xbdc2f709	-0.095197745
99	0xbddf3cc7	-0.10900264
100	0xbe80f8dc	-0.25189865
101	0xbda574f5	-0.080789484
102	0xbe81055e	-0.25199407
103	0xbe53aa4a	-0.20670429
104	0xbe079dd3	-0.13243799
105	0xbe7c12bb	-0.2461652
106	0xbdaa83c1	-0.08325911
107	0xbe0008a3	-0.12503295
108	0xbdc85119	-0.09781093
109	0xbd165fd1	-0.03671247
110	0xbdca7506	-0.09885602
111	0xbe5f0768	-0.21780169
112	0xbe604c97	-0.21904217
113	0xbd1b922f	-0.03798121
114	0xbdc9a3d6	-0.09845702
115	0xbe98193b	-0.2970675
116	0xbe8994f6	-0.2687146
117	0xbdb4270e	-0.087965116
118	0xbe28eaca	-0.16495815
119	0xbe6fee8f	-0.23430847
120	0xbe45d262	-0.19318536
121	0xbd8f5410	-0.069984555
122	0xbdb7ce49	-0.08974893
123	0xbe6d4473	-0.23170643
124	0xbdf6cc43	-0.120506786
125	0xbdd4467f	-0.103650086
126	0xbe6d9877	-0.23202692
127	0xbe48c5f9	-0.1960677

encoder.W_h.weight f4 [128, 128]
0	0xbe23259b	-0.15932314
1	0xbeb37035	-0.35046545
2	0xbe378dae	-0.1792514
3	0xbeed7000	-0.46374512
4	0xbf048797	-0.51769394
5	0xbdb82e7e	-0.08993243
6	0xbcf81098	-0.03028135
7	0xbe8cd840	-0.27508736
8	0x3d018326	0.031619214
9	0x3c5c1df7	0.013434879
10	0x3d87a59a	0.06623383
11	0x3e5dacd2	0.21647957
12	0xbdb055e5	-0.08610133
13	0xbe8ad572	-0.2711597
14	0xbe68c6b4	-0.22732049
15	0x3dba7761	0.09104801
16	0xbe0d4b25	-0.13798197
17	0xbec26f63	-0.37975606
18	0xbf056872	-0.52112496
19	0x3e8f546f	0.27994105
20	0xbe18abd2	-0.14909294
21	0x3bcbe86f	0.0062227766
22	0xbe4c6224	-0.19959313
23	0x3e0719d7	0.13193451
24	0xbefa5e7b	-0.48900208
25	0xbdb873e6	-0.09006481
26	0xbf17cf7b	-0.59300965
27	0xbeaf004c	-0.34179914
28	0xbe46acc5	-0.19401844
29	0xbe73f1f7	-0.23822771
30	0xbe1d02ea	-0.15333143
31	0x3e2fdc13	0.17173795
32	0xbec48464	-0.38382256
33	0xbed37462	-0.4129973
34	0xbbc9bc8b	-0.0061565093
35	0x3e010259	0.12598552
36	0xbe8a3351	-0.26992276
37	0x3b642cf0	0.0034816824
38	0x3ccfa035	0.025344947
39	0xbeba1879	-0.36346796
40	0xbdecdd80	-0.11565685
41	0x3d85ae02	0.0652733
42	0xbf0320a7	-0.512217
43	0x3dc20814	0.09474197
44	0xbe4c0980	-0.19925499
45	0xbd1ccaa3	-0.038279187
46	0x3ea5999e	0.32343763
47	0xbe9c829a	-0.3056839
48	0xbd91503b	-0.07095381
49	0xbf17f485	-0.5935748
50	0xbe0bc0d5	-0.13647778
51	0xbcaf346d	-0.021387303
52	0xbe289b44	-0.16465479
53	0xbf4dd86b	-0.8040835
54	0xbe8910ba	-0.26770574
55	0x3d386970	0.045022428
56	0xbef000c0	-0.46875572
57	0xbb9ac0c0	-0.0047226846
58	0xbde781eb	-0.11304077
59	0xbe80c966	-0.25153655
60	0xbdb907cb	-0.090346895
61	0xbe31d105	-0.17364891
62	0xbc777371	-0.015103207
63	0xbf7dcc33	-0.9913971
64	0xbdeac03d	-0.11462448
65	0x3ea39bf6	0.31954926
66	0xbc009e49	-0.007850238
67	0xbc6d6dd9	-0.014491522
68	0x3ddc1f6d	0.107481815
69	0x3ea1e1b5	0.31617513
70	0x3e593290	0.21210694
71	0xbef5ec0e	-0.48031658
72	0x3c6e7cab	0.01455609
73	0xbed0b4fc	-0.4076308
74	0xbe8d70b9	-0.27625063
75	0xbe33ba27	-0.1755148
76	0xbe9592b3	-0.29213485
77	0x3d932ddf	0.071864836
78	0xbec6e9d5	-0.38850275
79	0xbebb8c7c	-0.3663062
80	0xbed0426c	-0.40675676
81	0xbd9bb5b7	-0.07603019
82	0xbcd4df03	-0.025985247
83	0xbd9f3461	-0.07773662
84	0x3e6a672b	0.22890918
85	0xbe0345c6	-0.12819585
86	0x3e73594e	0.23764536
87	0xbe372714	-0.17886001
88	0x3aefaa77	0.0018285055
89	0xbe7150a8	-0.23565924
90	0xbf0c718b	-0.5486075
91	0xbd98d110	-0.074617505
92	0xbe974781	-0.2954674
93	0xbd9246ab	-0.07142385
94	0xbdc168ab	-0.09443792
95	0xbdadb9c9	-0.08482701
96	0x3dfa78f9	0.12230105
97	0xbf3b196f	-0.73085684
98	0xbd81694d	-0.06318913
99	0xbf446bd1	-0.76727015
100	0xbf5bdf54	-0.85887647
101	0xbe04dc3c	-0.12974638
102	0x3cdd5e03	0.027022367
103	0xbe296b51	-0.16544844
104	0xbf128d0c	-0.5724647
105	0xbd3f7cca	-0.046749867
106	0xbdaaa657	-0.08332508
107	0xbe959032	-0.29211575
108	0xbe9325f7	-0.28739902
109	0x3c604bd4	0.013689954
110	0xbd911006	-0.07083134
111	0x3e9f7914	0.31147063
112	0xbc880693	-0.016604697
113	0xbed9a4c9	-0.42508534
114	0x3e43b594	0.19112235
115	0x3d9d3260	0.07675624
116	0xbe9438ae	-0.28949493
117	0x3db715c2	0.08939697
118	0x3de55242	0.1119733
119	0xbe98ffbb	-0.29882607
120	0xbf0d0aff	-0.55094904
121	0xbeb34df4	-0.3502041
122	0x3b3726d7	0.0027946734
123	0xbc3e591e	-0.011617927
124	0xbf079863	-0.529669
125	0xbdc4aa67	-0.09602814
126	0x3e630840	0.22171116
127	0xbca2ddeb	-0.01988121
128	0x3d84713e	0.06466912
129	0xbe88c88e	-0.2671551
130	0xbd032c19	-0.032024477
131	0x3afeb936	0.0019433859
132	0xbdbdcb9b	-0.0926735
133	0xbe6d819b	-0.23193972
134	0xbe3a2c65	-0.18180998
135	0x3dc42620	0.09577584
136	0x3bd53276	0.0065062596
137	0xbb796df8	-0.0038059931
138	0xbd8bfbba	-0.068351224
139	0xbd24cf46	-0.040236734
140	0x3d654ff5	0.055984456
141	0xbe27a82a	-0.16372743
142	0xbd677cc2	-0.056515463
143	0xbe644d0e	-0.22295019
144	0xbea08ecb	-0.31358942
145	0xbdc88740	-0.09791422
146	0xbe9e75b8	-0.30949187
147	0xbee5bd98	-0.4487121
148	0x3db9944f	0.09061491
149	0xbe9ceb08	-0.30648065
150	0xbec2bc09	-0.38034084
151	0x3d840a1f	0.06447243
152	0xbda7ecf3	-0.08199491
153	0x3d9249a5	0.07142953
154	0xbf287808	-0.65808153
155	0x3c7d956c	0.0154775195
156	0xbe5854d1	-0.21126105
157	0xbeb38bc6	-0.35067576
158	0xbf6f4ae9	-0.9347368
159	0xbf338f0d	-0.70140153
160	0xbf004d4f	-0.50117964
161	0xbe0d3c6d	-0.13792582
162	0x3d1c2719	0.038123224
163	0xbf93b22e	-1.1538751
164	0xbeb47281	-0.3524361
165	0xbee785c0	-0.4521923
166	0xbfa028b4	-1.2512422
167	0x3d9ac99a	0.07557984
168	0xbe786a82	-0.2425938
169	0xbf1f4ae3	-0.62223643
170	0xbf29c6c8	-0.6631894
171	0xbe02edf9	-0.12786092
172	0xbe7c2b0e	-0.24625799
173	0xbdf4210e	-0.11920367
174	0xbdcf04d4	-0.10108343
175	0x3dfd57aa	0.12370236
176	0x3c64537e	0.013935922
177	0x3e8eb305	0.27870956
178	0xbec43da0	-0.38328266
179	0xbd8f078a	-0.0698386
180	0xbe7ea461	-0.24867393
181	0xbed07f4e	-0.40722126
182	0xbc9e5767	-0.019328786
183	0xbe61ef0b	-0.22063844
184	0xbdbcf93c	-0.09227225
185	0x3d73b393	0.059497427
186	0xbce2cfa6	-0.027686905
187	0xbe2bcef1	-0.1677816
188	0xbdb60768	-0.088881314
189	0xbe645a5c	-0.22300094
190	0xbe19c848	-0.15017807
191	0xbeb39754	-0.35076392
192	0x3def8fc8	0.11697346
193	0xbf366a9e	-0.71256435
194	0x3e2a9aea	0.16660658
195	0xbd91a5e9	-0.07111723
196	0x3dfc2fd7	0.12313812
197	0xbe2e13b5	-0.16999705
198	0xbf46bab5	-0.7762864
199	0x3e757cbb	0.23973362
200	0xbe3fc491	-0.18727328
201	0xbe310623	-0.17287497
202	0xbd90d60c	-0.07072076
203	0xbf25614e	-0.646016
204	0xbec3dcd1	-0.38254407
205	0x3e29a9eb	0.16568725
206	0xbf3369d6	-0.7008337
207	0xbd2ca9c4	-0.04215409
208	0xbe341acd	-0.17588349
209	0xbfc159e9	-1.5105563
210	0x3d191f3c	0.037383303
211	0xbc95a659	-0.018267797
212	0xbefd32be	-0.49452776
213	0x3c1e8212	0.009674566
214	0xbdbeb1e7	-0.09311276
215	0xbf3aec9c	-0.7301729
216	0xbe25ea9e	-0.1620278
217	0xbe17cdfd	-0.14824672
218	0xbe0b418b	-0.13599221
219	0x3d46bf87	0.0485225
220	0x3de1644e	0.1100546
221	0xbd98f79f	-0.07469105
222	0xbea290a3	-0.31750974
223	0x3e549c90	0.20762849
224	0xbd9ddd29	-0.077081986
225	0xbe15ee56	-0.14641699
226	0xbd1af653	-0.03783257
227	0x3e9d8cea	0.3077157
228	0xbdfbdb5e	-0.122977
229	0xbf566291	-0.8374415
230	0xbdb91fc9	-0.09039266
231	0x3d8be949	0.06831605
232	0x3e82f125	0.25574604
233	0x3eb3984b	0.35077128
234	0x3d106387	0.035251167
235	0xbe9c62fa	-0.30544263
236	0x3e24b95b	0.16086332
237	0xbd6c4979	-0.057687256
238	0xbf33dbef	-0.7025747
239	0xbef04087	-0.4692423
240	0x3da960d1	0.082704194
241	0xbe311557	-0.17293297
242	0xbe9d8cfe	-0.3077163
243	0x3e6278ec	0.2211644
244	0xbf269284	-0.65067315
245	0x3d926ccf	0.0714966
246	0xbf260a33	-0.6485931
247	0xbd5c7566	-0.053822897
248	0xbf21b7c0	-0.63171005
249	0xbd9052db	-0.070470534
250	0xbd4b40ae	-0.04962223
251	0xbd68828e	-0.05676513
252	0xbf09176a	-0.5355135
253	0x3e99f579	0.30070093
254	0xbf8fc425	-1.1231734
255	0xbe6b301b	-0.2296757

encoder.W_h.bias f4 [128]
0	0xbd01037b	-0.03149746
1	0x3e1bcd29	0.15214981
2	0xbd6f760f	-0.0584622
3	0xbddec4b4	-0.10877362
4	0xbdb3333a	-0.08750005
5	0x3e1a6bbf	0.15080164
6	0x3dc6f76d	0.097151615
7	0xbe48c6ea	-0.1960713
8	0xbde3730a	-0.11105926
9	0xbde70b22	-0.1128142
10	0x3e86cdb4	0.26328814
11	0xbb688fd4	-0.003548612
12	0xbe0cc5bc	-0.13747305
13	0xbe37d658	-0.1795286
14	0xbe497ab8	-0.1967572
15	0xbe562be9	-0.20915188
16	0xbd84328a	-0.06454952
17	0xbd42cce9	-0.0475587
18	0x3cc0c712	0.023532424
19	0xbda2816a	-0.0793484
20	0xbcc9759b	-0.024592211
21	0xbe0da57c	-0.13832659
22	0x3dabeb02	0.083944336
23	0xbd82931e	-0.063757166
24	0xbd259a5f	-0.040430423
25	0x3cd14171	0.0255439
26	0xbe2e7b27	-0.17039166
27	0xbe96da1b	-0.29463276
28	0x3db90d7f	0.09035777
29	0xbe025bd8	-0.12730348
30	0x3cf18aa2	0.02948505
31	0xbd6efdfd	-0.05834769
32	0xbaf07092	-0.0018344095
33	0xbcc94dfe	-0.024573322
34	0xbd186742	-0.03720785
35	0x3bbb2d67	0.0057121995
36	0x3dc88f88	0.097930014
37	0xbd4b5361	-0.049640063
38	0xbc98fc20	-0.01867491
39	0xbcd7d08d	-0.026344562
40	0xbd1a4de5	-0.037671942
41	0xbc85bf49	-0.016326563
42	0xbe12c840	-0.14334202
43	0x3dd28d7c	0.10280892
44	0xbd6fdab0	-0.058558166
45	0x3dd505ed	0.10401521
46	0x3d87bf30	0.06628263
47	0x3c367b89	0.0111378515
48	0x3ba45cf0	0.005015962
49	0x3c8c927c	0.017159693
50	0xbdab6f52	-0.08370842
51	0x3dcd7d0b	0.10033616
52	0x3cf8586e	0.030315604
53	0xbd58548b	-0.052815
54	0xbe5f7665	-0.21822508
55	0xbd6a8c09	-0.057262454
56	0x3c977e53	0.018492853
57	0xbd564ce5	-0.052319426
58	0xbe487888	-0.19577229
59	0x3cab2943	0.020893699
60	0xbb54b0f6	-0.003245411
61	0x3c6bc05d	0.014389125
62	0xbe065d07	-0.13121425
63	0x3da0fabb	0.07860323
64	0xbe891fc3	-0.26782045
65	0x3b760228	0.0037537906
66	0x3d33e88e	0.043922953
67	0xbd2163a6	-0.039401673
68	0xbddb6033	-0.10711708
69	0xbdfbae95	-0.12289158
70	0x3d0fcfc6	0.035110258
71	0xbd93e9a6	-0.07222299
72	0x3d7b06c2	0.06128574
73	0xbdd078f6	-0.101793215
74	0xbb165291	-0.0022937397
75	0xbe226de9	-0.1586224
76	0xbda42630	-0.08015096
77	0xbda67f31	-0.081297286
78	0xbdca3d2c	-0.09874949
79	0xbd51cf79	-0.051223252
80	0xbe251a50	-0.16123319
81	0xbe5284c4	-0.20558459
82	0xbd901c71	-0.07036675
83	0xbc6d16c6	-0.014470762
84	0xbc33d087	-0.01097501
85	0xbd24d926	-0.04024615
86	0xbea1ca25	-0.31599537
87	0x3d570361	0.052493457
88	0xbdb364b4	-0.08759442
89	0xbcf0c782	-0.029392008
90	0x3d1c3a9f	0.038141843
91	0xbc68a9bc	-0.014200624
92	0xbc6d472a	-0.014482299
93	0xbda158c9	-0.078782625
94	0xbbed7c97	-0.0072475183
95	0x3d836ac8	0.06416851
96	0x3e1f2362	0.15540841
97	0xbbc09bdf	-0.0058779563
98	0xbc36f911	-0.0111677805
99	0x3ca9a372	0.02070782
100	0xbdccc194	-0.099978596
101	0xbd241ef5	-0.040068585
102	0x3e2c6c83	0.16838269
103	0xbd7d0e90	-0.061781466
104	0x3cbd3afe	0.023099419
105	0x3cf0836e	0.029359546
106	0xbc006a29	-0.007837811
107	0xbce334c3	-0.02773512
108	0x3c6b5e57	0.014365754
109	0xbdfe85c8	-0.124278605
110	0x3c2fb4ba	0.010724241
111	0x3d9b71c5	0.07590059
112	0xbd1a6f07	-0.03770354
113	0xbdf514b1	-0.11966837
114	0x3bec4ad1	0.0072110672
115	0x3d803eac	0.06261954
116	0x3dd392b6	0.10330717
117	0xbe6e36e2	-0.23263124
118	0x3c32d54a	0.01091511
119	0xbdcc6c3d	-0.09981582
120	0x3e621032	0.2207649
121	0x3e142e62	0.14470819
122	0xbe25f7bb	-0.16207783
123	0xbe6fc24a	-0.23413959
124	0x3d88bfd1	0.06677211
125	0xbd38e165	-0.045136828
126	0xbd03dd58	-0.03219351
127	0x3d9a1008	0.07522589

encoder.W_o.weight f4 [128, 261]
0	0x3ce7f8c8	0.02831687
1	0x3d7a8e24	0.061170712
2	0x3d6f73c4	0.058460012
3	0x3d50e8ab	0.05100314
4	0x3d0535b2	0.03252191
5	0xbdbc9d3d	-0.09209678
6	0x3da80499	0.08204002
7	0x3e2c9d77	0.16856943
8	0xbe42f6db	-0.1903948
9	0x3d21fb49	0.039546285
10	0x3c541f8a	0.012946973
11	0x3c642d79	0.013926857
12	0xbd6379f5	-0.05553623
13	0xbd5156d7	-0.051108208
14	0x3cba27dd	0.022724086
15	0x3cd44888	0.025913492
16	0xbd1aecc8	-0.03782347
17	0xbc680522	-0.01416138
18	0xb9a3afc3	-0.00031220735
19	0xbc9a0631	-0.01880178
20	0x3ce96081	0.0284884
21	0xbc15d658	-0.009145342
22	0xbd12c198	-0.035829157
23	0x39ad8747	0.0003309792
24	0x3ccd2790	0.025043279
25	0xbccdf2f2	-0.02514026
26	0xbd002eea	-0.03129474
27	0xbd6a58ef	-0.05721372
28	0x3b2ef3fc	0.002669572
29	0x3c9eb837	0.01937495
30	0x3d437833	0.047722053
31	0xbd2c9323	-0.042132508
32	0xbcd6aa7b	-0.026204338
33	0xbcdf772a	-0.027278502
34	0x3d16f8b8	0.03685829
35	0x3cb25422	0.021768633
36	0xbc4da345	-0.0125511335
37	0x3b334cac	0.0027358932
38	0x3cc2a3e9	0.0237598
39	0xbcb65979	-0.02225946
40	0xbcdce42e	-0.026964273
41	0x3b9607cd	0.0045785666
42	0xbd7cca41	-0.06171632
43	0xbc62d290	-0.013844147
44	0x3cb2a302	0.021806244
45	0x3cc17687	0.023616089
46	0x3cd38fbc	0.025825374
47	0x3d56902c	0.052383587
48	0x3c59277e	0.013254045
49	0x3d0fda22	0.035120137
50	0x3d6e885e	0.05823552
51	0xbbdf1362	-0.0068077305
52	0xbd67b1df	-0.056566115
53	0x3d4c86f4	0.04993339
54	0xbd6ea1d8	-0.058259815
55	0xbcc0f42f	-0.023553936
56	0xbc9c8a92	-0.019109044
57	0xbba6c655	-0.005089561
58	0xbd4d2168	-0.050080687
59	0xbbf88051	-0.007583656
60	0x3beb4a9e	0.007180526
61	0x3d4ad24e	0.04951697
62	0x3d4ead92	0.0504585
63	0x3cdcb556	0.026941936
64	0xbd3bec7b	-0.045879822
65	0x3ceb694e	0.028736737
66	0x3d69053a	0.05688975
67	0x3d2f2010	0.042755187
68	0xbd3fafd0	-0.046798527
69	0x3c3c913d	0.011509237
70	0x3d3565c1	0.044286493
71	0xbd1d36ed	-0.03838246
72	0x3d6bf116	0.057602964
73	0xbd1a7227	-0.03770652
74	0xbd42cddf	-0.047559615
75	0xbc9ed688	-0.019389406
76	0xbd51f328	-0.051257282
77	0xbca60c87	-0.020269645
78	0xbbb59430	-0.005541347
79	0xbd2ebcff	-0.04266071
80	0x3d53a88a	0.051674403
81	0x3c85d2c3	0.01633585
82	0xbc4bfd76	-0.0124505665
83	0x3c6dddde	0.014518229
84	0xbc777571	-0.015103684
85	0x3bd51d2b	0.0065037212
86	0x3d33f69b	0.043936353
87	0x3cfd8384	0.0309465
88	0x3d14a33e	0.036288492
89	0x3c8c7794	0.017146863
90	0x3d18b22b	0.03727929
91	0x3c921e15	0.01783661
92	0xbc707040	-0.0146752
93	0xbd3de4a4	-0.046360627
94	0xbcaaab05	-0.020833502
95	0xbcd251b3	-0.025673723
96	0xbbee9788	-0.0072812475
97	0x3cfa652a	0.030565817
98	0xbd7a92b7	-0.061175074
99	0xbc43872c	-0.011934083
100	0xbd421dea	-0.04739181
101	0xbc85f30b	-0.016351243
102	0xbd3c6cf1	-0.046002332
103	0x3d51f674	0.051260427
104	0x3e3e11ff	0.18561552
105	0xbe584de9	-0.2112347
106	0xbc370be9	-0.011172273
107	0x3d1cc6d2	0.038275547
108	0xbe7dc9e8	-0.24784052
109	0x3d7a23bb	0.06106923
110	0x3ed1b506	0.40958422
111	0xbcbe08c3	-0.023197537
112	0x3d2df443	0.042469274
113	0xb843e899	-4.6708246e-05
114	0x3d80de32	0.062923804
115	0x395d5753	0.00021108733
116	0xbc9208de	-0.017826494
117	0xbd611c21	-0.054958466
118	0x3cf71aae	0.030164089
119	0xbd5119ad	-0.051049877
120	0xbd3e7645	-0.04649951
121	0xbdd39546	-0.10331206
122	0xbef7d771	-0.48406556
123	0x3b81b908	0.003958825
124	0xbc65b8aa	-0.014021078
125	0x3e49c509	0.19704069
126	0x3d8aee27	0.06783705
127	0xbb749fbf	-0.0037326661
128	0x3d2b0a7f	0.041758057
129	0xbc8c6fcf	-0.017143158
130	0xbc0b0fa7	-0.0084876185
131	0x3d66dee7	0.05636492
132	0x3d40b3c3	0.047046434
133	0xbf0e28dd	-0.555311
134	0x3f0f0890	0.5587244
135	0x3dae8312	0.085210934
136	0x3e888e1f	0.2667093
137	0x3d2c5ee4	0.042082682
138	0xbed4a6ed	-0.41533604
139	0x3ebb68cd	0.36603394
140	0x3c89e02e	0.01683053
141	0xbe904df5	-0.28184476
142	0x3bc8930f	0.0061210464
143	0x3d8b8cb5	0.06813947
144	0x3d9e4631	0.07728232
145	0x3cfc6342	0.030809049
146	0x3e71489e	0.23562858
147	0xbeaf51e8	-0.34242177
148	0xbdd2edd2	-0.10299267
149	0x3e706dcb	0.23479383
150	0xbe87e90a	-0.26544982
151	0x3dd0fb8a	0.10204227
152	0xbd2352f8	-0.039874047
153	0xbe22240b	-0.15834062
154	0x3eba5a9c	0.36397254
155	0xbd83c57f	-0.06434154
156	0xbe9a7fd2	-0.30175644
157	0x3d8536a0	0.065045595
158	0xbd4d3f8e	-0.05010944
159	0x3eb7c212	0.3589025
160	0xbec97a9c	-0.39351356
161	0xbf085262	-0.53250706
162	0xbe96cc7f	-0.29452893
163	0xbf4c7fcf	-0.7988252
164	0xbdde9797	-0.10868757
165	0xbe0e86d1	-0.13918616
166	0x3eb17144	0.34656727
167	0x3e0a5919	0.1351055
168	0xbf31b4ff	-0.69416803
169	0x3ec47521	0.38370612
170	0xbefba421	-0.49148658
171	0xbca70262	-0.020386878
172	0xbd855cbb	-0.065118276
173	0xbeb8912c	-0.36048257
174	0xbc71f5d1	-0.01476808
175	0x3df38962	0.11891438
176	0xbf2b8360	-0.6699734
177	0xbc120afc	-0.008913752
178	0xbf09479a	-0.5362488
179	0xbed06c7b	-0.40707764
180	0xbe2749df	-0.16336773
181	0x3d24fc05	0.040279407
182	0xbf4b5015	-0.7941907
183	0xbf083db0	-0.5321913
184	0x3ddfb636	0.10923426
185	0x3daedca4	0.085381776
186	0xbaaeb87a	-0.0013330125
187	0x3d5d83eb	0.054080885
188	0xbea246c4	-0.31694615
189	0x3d82fc5c	0.0639579
190	0x3b2cd238	0.0026370417
191	0xbdd1a9b0	-0.102374434
192	0xbf0b751c	-0.5447557
193	0x3e82c01b	0.2553719
194	0xbe40a656	-0.18813452
195	0x3d4ad306	0.049517654
196	0x3e237f6d	0.15966578
197	0x3d8e9755	0.06962458
198	0x3d8b2788	0.06794649
199	0x3ccdc428	0.025117949
200	0xbd24ed89	-0.040265594
201	0x3cb27edf	0.021789012
202	0x3d022499	0.031773183
203	0xbe13bb60	-0.14426947
204	0xbf566153	-0.83742255
205	0xbf2550fa	-0.64576685
206	0x3df3ccc9	0.11904294
207	0x3df6c270	0.12048805
208	0x3db99b7a	0.09062858
209	0xbe477ca8	-0.19481146
210	0x3d82938f	0.06375801
211	0xbe0aea41	-0.13565923
212	0xbebfb33d	-0.37441435
213	0x3e802753	0.25030002
214	0xbf04e18a	-0.51906645
215	0xbca6bfc4	-0.020355113
216	0xbd352bc5	-0.044231195
217	0xbe12b00c	-0.14324969
218	0xbe076c92	-0.1322501
219	0xbc24596b	-0.0100310845
220	0x3cf200a6	0.029541325
221	0xbc0248bd	-0.0079519125
222	0x3cda9326	0.026681494
223	0xbc1f28e5	-0.00971434
224	0x3c26664e	0.010156227
225	0x3d9b11eb	0.07571777
226	0x3d937069	0.07199175
227	0xbd65408e	-0.055969767
228	0xbdabb357	-0.08383816
229	0xbb367143	-0.0027838505
230	0xbe4f1e58	-0.20226419
231	0xbd81b52c	-0.06333384
232	0x3e0d6d1d	0.13811155
233	0xbdbf08ad	-0.09327827
234	0xbe772719	-0.24136008
235	0xbec9d5f0	-0.39421034
236	0xbf1954e0	-0.59895134
237	0xbf0db3da	-0.55352557
238	0xbf31c51b	-0.69441384
239	0xbd81ede9	-0.06344206
240	0x3e1e5ec1	0.15465833
241	0x3e4e2e1c	0.20134777
242	0x3d542e73	0.05180211
243	0x3c69875a	0.014253462
244	0xbeb0dd18	-0.3454368
245	0xbdb1f5d2	-0.08689465
246	0xbe800549	-0.25004032
247	0xbee14ee6	-0.44005507
248	0xbe295863	-0.16537623
249	0xbf0c9a0d	-0.5492256
250	0x3d801d58	0.06255597
251	0x3d7d240b	0.06180195
252	0xbdc16b53	-0.094442986
253	0xbe345feb	-0.17614715
254	0x3de80cf0	0.11330593
255	0xbdbbcd65	-0.09170035

encoder.W_o.bias f4 [128]
0	0x3db27a3c	0.087147206
1	0xbe08d1a1	-0.13361217
2	0xbdca36d3	-0.09873738
3	0x3c064c9c	0.008196976
4	0xbdfe2304	-0.124090225
5	0x3e320b15	0.1738704
6	0xbdcec4b1	-0.1009611
7	0xbd5386f5	-0.051642377
8	0xbe328982	-0.17435268
9	0xbd0b8440	-0.03406167
10	0xbcc3d5b9	-0.023905622
11	0xbceb1b18	-0.028699443
12	0x3d4d5dce	0.050138287
13	0xb9927152	-0.0002793172
14	0x3ca7aea9	0.020469027
15	0x3e23eac9	0.16007532
16	0x3d2998ae	0.041405372
17	0xbe0b40f0	-0.1359899
18	0x3ad5340b	0.001626612
19	0xbe1194e9	-0.14216961
20	0xbd659060	-0.05604589
21	0xbb782614	-0.0037864493
22	0x3c232dbe	0.009959636
23	0xbddd93d7	-0.10819214
24	0xbdb13ad3	-0.08653798
25	0xbd94ca96	-0.07265203
26	0xbcf293d6	-0.02961151
27	0x3d3223d0	0.043491185
28	0x3d53cd16	0.051709257
29	0x3da6b792	0.08140482
30	0xbdf49b6e	-0.11943708
31	0x3b10c02e	0.0022087204
32	0x3c809428	0.015695646
33	0x3d9213aa	0.07132657
34	0xbc8a71f4	-0.01690004
35	0x3d03918e	0.032121234
36	0xbe0ea1f0	-0.13928962
37	0xbd51b9cc	-0.05120258
38	0x3d928ea9	0.071561165
39	0x3d143c0f	0.03619009
40	0xbd786cbf	-0.060650583
41	0xbcf27d3b	-0.02960073
42	0x3d035df3	0.03207202
43	0x3c8cdeae	0.017196026
44	0xbcfd81ef	-0.030945746
45	0xbe30c411	-0.17262293
46	0xbd0e6535	-0.034764487
47	0xbdbbb090	-0.09164536
48	0xbd7c644a	-0.06161908
49	0xbdbc616d	-0.0919827
50	0x3c8b2a43	0.016987925
51	0x3dfb06c4	0.1225715
52	0xbd9fafd6	-0.0779721
53	0xbd9ecde6	-0.07754116
54	0xbd6e18b6	-0.058129035
55	0xbdc62eff	-0.096769325
56	0xbd3530ba	-0.044235922
57	0xbda625d3	-0.08112683
58	0xbd5f9dd3	-0.054593872
59	0x3e8877f7	0.26654026
60	0xbd1a927a	-0.037737347
61	0x3e680937	0.22659765
62	0xbd885f9b	-0.0665886
63	0xbdfacd1c	-0.12246153
64	0xbc1981ec	-0.009369355
65	0xbdd235d8	-0.10264176
66	0x3dcde2ae	0.10053001
67	0xbdd0780c	-0.10179147
68	0xbdf5b370	-0.119971156
69	0xbde4c840	-0.11171007
70	0x3d8a2d26	0.06746893
71	0xbd1e27ff	-0.038612362
72	0x3c2d89ab	0.010591905
73	0xbd4e8fe6	-0.0504302
74	0xbdc9762c	-0.098369926
75	0xbd12a63c	-0.035803065
76	0xbde6a13f	-0.11261224
77	0xbd963ece	-0.07336198
78	0xbb1f358c	-0.002429339
79	0xbd0519ac	-0.032495186
80	0xbdde8704	-0.10865596
81	0x3d6844f2	0.056706376
82	0xbd934fd4	-0.071929604
83	0x3ca2931a	0.019845534
84	0x3d4d39e8	0.05010405
85	0xbddbde0f	-0.10735714
86	0xbd12a6bb	-0.035803538
87	0xbe4d8b66	-0.20072708
88	0x3dbd4773	0.092421435
89	0xbd36b5f7	-0.04460713
90	0xbe3b27dc	-0.18276924
91	0x3e04537e	0.12922475
92	0xbd9be487	-0.076119475
93	0xbdea7f42	-0.11450054
94	0x3cd4895c	0.025944404
95	0x3e2f10c4	0.1709624
96	0xbe858457	-0.2607753
97	0xbcd80ead	-0.026374185
98	0x3c203690	0.009778634
99	0xbdde3d07	-0.10851484
100	0xbda337cc	-0.07969627
101	0x3d2381d2	0.03991873
102	0xbdc1338f	-0.09433662
103	0x3df05a5b	0.11735984
104	0x3cffdd1b	0.031233361
105	0x3cfb18dc	0.030651502
106	0xbd9f913b	-0.077913724
107	0xbe4d74b1	-0.20064045
108	0xbe248bba	-0.16068926
109	0xbdbc216f	-0.091860645
110	0xbe0a8a7f	-0.13529395
111	0xbe0731ca	-0.13202587
112	0xbd459078	-0.04823348
113	0xbd41fc24	-0.0473596
114	0xbde21628	-0.11039382
115	0xbdbfc371	-0.09363449
116	0xbd9bc88f	-0.07606613
117	0xbdb36cb3	-0.08760967
118	0xbc368d25	-0.01114205
119	0x3d9440bb	0.07238909
120	0x3d8f8aa8	0.070088685
121	0xbb58164c	-0.0032972274
122	0xbc791bb4	-0.015204359
123	0xbdd22ef3	-0.10262861
124	0xbc9ff696	-0.019526761
125	0xbd7a7407	-0.06114581
126	0x3de72160	0.11285663
127	0xbd0984b0	-0.033573806

ffn.1.weight f4 [64, 128]
0	0xbcb79386	-0.022409212
1	0x3e418531	0.18898465
2	0xbd6686e6	-0.056280993
3	0x3d31e16b	0.043427866
4	0xbd2189c1	-0.039438013
5	0x3df9b128	0.12191993
6	0xbd881a62	-0.06645657
7	0x3cbf15c4	0.023325808
8	0xbd9be715	-0.07612435
9	0x3c8c4d12	0.017126594
10	0x3dd59a2f	0.10429799
11	0x3bc0ca67	0.0058835032
12	0x3d4269c4	0.047464147
13	0xbe1664d5	-0.14686902
14	0x3d85682c	0.0651401
15	0x3e848d1d	0.2588891
16	0x3e19f21b	0.15033762
17	0xbe11b150	-0.14227796
18	0x3cb65f1c	0.022262149
19	0xbd9b2afa	-0.075765565
20	0xbdb001e6	-0.08594112
21	0xbde541bf	-0.11194181
22	0x3d60c50c	0.05487542
23	0x3ba728bb	0.005101291
24	0x3d8661fc	0.06561658
25	0x3cdea112	0.027176414
26	0xbe494f34	-0.1965912
27	0x3dab3e86	0.08361535
28	0x3d119b9f	0.035548802
29	0x3df7df59	0.12103147
30	0xbd5a5fda	-0.053314067
31	0x3e7cecad	0.2469966
32	0x3ee58d9d	0.44834605
33	0xbc2b644b	-0.010460923
34	0x3c00dba3	0.0078648655
35	0x3e5822c2	0.21107009
36	0x3dac8d7f	0.08425426
37	0xbe081b0c	-0.13291568
38	0x3d984e09	0.07436759
39	0x3eb27af7	0.3485944
40	0xbde48d68	-0.111597836
41	0x3d9722db	0.07379695
42	0x3e233a8a	0.159403
43	0x3d85c75c	0.065321654
44	0xbda51191	-0.08059991
45	0xbe5179e6	-0.20456657
46	0xbc3fbb25	-0.011702334
47	0x3eaa911c	0.33313835
48	0x3d660f3c	0.056166872
49	0x3d4fb04f	0.05070525
50	0xbc3567b0	-0.011072084
51	0x3e254733	0.16140442
52	0xbdcb129d	-0.099156596
53	0xbe25ccee	-0.16191456
54	0x3d90242b	0.070381485
55	0x3ce2b166	0.02767248
56	0x3e8fec7c	0.2811011
57	0x3e0d3fc4	0.13793856
58	0x3bb52140	0.0055276453
59	0x3e742caa	0.23845163
60	0xbc96a462	-0.01838893
61	0x3ec48b0e	0.3838734
62	0x3dc69fd6	0.09698455
63	0x3d9d0307	0.07666593
64	0xbdc2876f	-0.09498488
65	0x3acdb9e4	0.0015695659
66	0x3e4a0551	0.1972859
67	0xbae6686d	-0.0017578729
68	0xbdc48ef6	-0.0959758
69	0x3d4adfa1	0.049529675
70	0x3e8ab33f	0.2708988
71	0x3e36f180	0.17865562
72	0x3d997bd6	0.07494323
73	0x3daba211	0.08380521
74	0xbc909833	-0.0176507
75	0x3d875352	0.06607689
76	0xbc4c8046	-0.012481755
77	0x3d8b39ae	0.06798111
78	0x3da8dd82	0.08245374
79	0xbd539a6e	-0.051660948
80	0xbe7e8387	-0.24854861
81	0x3c12f8fd	0.008970496
82	0xbc6cb7af	-0.01444809
83	0xbcc35dd0	-0.023848444
84	0x3ec0f9c2	0.3769055
85	0x3d27244b	0.040806096
86	0xbe0179fb	-0.12644188
87	0xbf328eb8	-0.6974902
88	0xbd84ab73	-0.06478014
89	0xbd8e488e	-0.069474325
90	0xbe10c613	-0.1413806
91	0xbdfcf9ea	-0.12352355
92	0x3e1cf74a	0.15328708
93	0xbceaf662	-0.028681938
94	0x3d68f0e6	0.056870364
95	0x3e9f6237	0.3112962
96	0xbec85c64	-0.39132988
97	0x3c3b7990	0.011442557
98	0x3eb4a519	0.3528221
99	0x3d8ef977	0.069811754
100	0x3dca897c	0.09889504
101	0xbe142323	-0.14466529
102	0xbda37e51	-0.07983077
103	0x3dc1dad7	0.094655685
104	0x3e22cf59	0.1589941
105	0xbc47767a	-0.012174243
106	0xbe334de0	-0.17510176
107	0xbf1778a5	-0.59168464
108	0xbd3e7bb6	-0.0465047
109	0xbcf1d8bb	-0.02952229
110	0xbc351793	-0.011052984
111	0xbef388b7	-0.47565243
112	0x3c73f3a7	0.014889634
113	0xbdaa8e7a	-0.083279565
114	0x3db24841	0.087051876
115	0x3d8e3ccd	0.069451906
116	0xbdac53f0	-0.08414447
117	0x3d019a2c	0.03164117
118	0xbcc14838	-0.023594007
119	0xbd9e2816	-0.077224895
120	0x3ef17257	0.47157547
121	0xbd058330	-0.032595813
122	0xbdbab461	-0.09116436
123	0xbcc3a14d	-0.023880625
124	0xbe9a0206	-0.3007967
125	0x3cf8206e	0.030288901
126	0x3ece8bf8	0.40341163
127	0x3d10df50	0.035369217
128	0x3c0391c3	0.008030358
129	0x3ce43414	0.027856864
130	0x3c4b42db	0.012406076
131	0xbda4caf6	-0.08046524
132	0xbd0377c1	-0.032096628
133	0x3e37f39e	0.17964026
134	0xbbade8bb	-0.0053072846
135	0xbd89a1ef	-0.067203395
136	0x3e14ad1d	0.14519162
137	0x3d0d0c58	0.0344356
138	0xbe62276b	-0.2208535
139	0x3da83bf9	0.08214564
140	0x3e4e42a0	0.20142603
141	0xbda2be78	-0.07946485
142	0x3dd27be4	0.102775365
143	0x3e99901c	0.2999276
144	0xbdd5499a	-0.10414429
145	0x3e1729e6	0.14762077
146	0x3da51e47	0.080624156
147	0x3dcbca3a	0.09950681
148	0xbcbc9391	-0.023019584
149	0x3d8f1647	0.06986671
150	0xbe2ff8ad	-0.17184706
151	0x3df53fd9	0.119750686
152	0x3d6990f9	0.057023022
153	0xbd60b4e8	-0.054860026
154	0x3e946783	0.28985223
155	0xbe42dc80	-0.19029427
156	0xbcf0ee44	-0.029410489
157	0x3f283653	0.6570789
158	0x3d1165dc	0.03549753
159	0xbd5695cb	-0.052388947
160	0xbf20ec70	-0.62860775
161	0x3c864f5c	0.016395263
162	0x3dd809be	0.10548733
163	0xbe5f7e3e	-0.21825501
164	0xbd866546	-0.06562285
165	0xbc1d24b9	-0.009591275
166	0x3e0dc98a	0.13846412
167	0x3d4917bb	0.049094897
168	0x3e8edbb0	0.27901983
169	0xbc01ff79	-0.007934445
170	0xbeb9a89a	-0.36261445
171	0xbe7f9293	-0.24958257
172	0x3e3cb20d	0.18427296
173	0x3d9a3448	0.07529503
174	0xbe5a4822	-0.21316579
175	0xbed62d77	-0.41831562
176	0x3d6823f0	0.056674898
177	0x3cc81101	0.02442217
178	0x3c9fabff	0.019491194
179	0xbe6772c3	-0.22602372
180	0xbd70808d	-0.058716346
181	0xbc1a1afe	-0.0094058495
182	0x3d8ced22	0.06881167
183	0xbaa4487c	-0.0012533809
184	0xbeb2ac42	-0.34897047
185	0xbe7d2634	-0.24721605
186	0xbd30934b	-0.04310922
187	0x3e9f825b	0.3115414
188	0xbd79ce05	-0.06098749
189	0xbf489778	-0.7835612
190	0x3d01a9cd	0.031656075
191	0x3b58207f	0.0032978354
192	0xbd55b53c	-0.05217479
193	0xbdeacd9f	-0.11465
194	0xbd7dada8	-0.06193319
195	0xbccc07f3	-0.024906134
196	0x3bf39efe	0.007434725
197	0x3d9d2762	0.07673527
198	0x3e0111d7	0.12604462
199	0xbea0e244	-0.31422627
200	0x3ca52cf2	0.020163033
201	0xbcaee5b4	-0.021349765
202	0xbd030055	-0.03198274
203	0x3da63703	0.081159614
204	0x3dd5b725	0.10435323
205	0x3c9ff4c1	0.019525887
206	0xbd9864b2	-0.07441081
207	0xbdb8bcfd	-0.09020422
208	0x3e4a2615	0.1974109
209	0x3cd35886	0.025799047
210	0x3d924013	0.071411274
211	0xbdb969dc	-0.09053394
212	0xbba57a8b	-0.0050500087
213	0x3e6922e3	0.22767214
214	0x3e0dec53	0.13859682
215	0x3f555d5c	0.8334558
216	0x3c8f320d	0.01747992
217	0x3d427d86	0.04748299
218	0x3e329549	0.1743976
219	0xbe618426	-0.22023067
220	0x3e47f852	0.1952832
221	0x3c33be1b	0.010970618
222	0xbe093ae9	-0.13401379
223	0xbedcfdc6	-0.43162364
224	0x3f1223a7	0.5708565
225	0xbc998ad1	-0.01874295
226	0xbeb859e8	-0.36006093
227	0x3cd6f95a	0.026241947
228	0x3d2ee0c6	0.04269483
229	0xbe4b2481	-0.19838144
230	0xbd69d39b	-0.05708657
231	0x3dc87676	0.0978822
232	0x3e895b93	0.26827678
233	0xbd25efdf	-0.040511962
234	0xbb25ae63	-0.0025280945
235	0x3f218253	0.63089484
236	0xbc2d6a14	-0.010584373
237	0x3d0c5ef2	0.034270234
238	0xbd40efb3	-0.047103595
239	0x3f300806	0.6876224
240	0x3e0b70ba	0.1361722
241	0x3be2786f	0.0069113295
242	0xbd37a7bb	-0.044837695
243	0xbe348271	-0.17627884
244	0x3cb9d6bd	0.022685403
245	0xbc2e0497	-0.0106212115
246	0x3da39476	0.07987301
247	0x3ddabe24	0.10680798
248	0xbf374a55	-0.71597797
249	0xbc080b9b	-0.008303548
250	0x3e40d831	0.1883247
251	0xbd8816db	-0.06644984
252	0x3e6c52f2	0.23078516
253	0xbdb67a50	-0.08910048
254	0xbe93543b	-0.287752
255	0xba536c23	-0.0008065125

ffn.1.bias f4 [64]
0	0x3d3f4d9f	0.046704885
1	0x3e4ee940	0.20206165
2	0x3d08fbfa	0.03344343
3	0xbe720e93	-0.23638372
4	0xbc843b25	-0.016141484
5	0x3c98ef5f	0.018668829
6	0xbdaa7963	-0.08323934
7	0xbe2ebc29	-0.17063965
8	0x3d8c5410	0.06851971
9	0xbe4bd4ad	-0.19905348
10	0xbda6574f	-0.081221215
11	0xbdd72d76	-0.10506718
12	0xbe1c3497	-0.15254436
13	0xbe7275d0	-0.23677754
14	0x3df8660a	0.121288374
15	0x3db1ebad	0.0868753
16	0xbe190b30	-0.14945674
17	0x3ccdd9bf	0.025128243
18	0xbd2563e4	-0.040378466
19	0xbe76a6a5	-0.24087007
20	0xbda0e615	-0.07856385
21	0x3d35a784	0.04434921
22	0xbde33698	-0.11094397
23	0xbe443a7d	-0.19162937
24	0xbe4a0c8f	-0.19731353
25	0xbd1bfa68	-0.038080603
26	0x3e42b629	0.19014801
27	0xbe215364	-0.15754467
28	0x3c928ece	0.01789036
29	0xbe1593e5	-0.14607199
30	0xbdea0305	-0.11426357
31	0xbdeedd80	-0.116633415
32	0xbe77978d	-0.24178906
33	0xbdf3b84a	-0.11900385
34	0xbe92b0d6	-0.2865054
35	0xbb8b90ce	-0.0042592054
36	0xbd94db41	-0.07268382
37	0x3baa12c9	0.0051902276
38	0xbdbb5ca8	-0.09148532
39	0xbd58a6f5	-0.052893598
40	0xbdabbf4a	-0.08386095
41	0xbd91f825	-0.07127408
42	0x3e139ad8	0.14414537
43	0xbe01a9f3	-0.12662487
44	0xbe1b837b	-0.15186875
45	0xbd348781	-0.04407454
46	0x3d9fad04	0.07796672
47	0xbe9fdb9a	-0.3122223
48	0x3da774b4	0.08176556
49	0xbdcdfc9f	-0.10057949
50	0xbd3b517d	-0.04573201
51	0xbd41670f	-0.047217425
52	0xbddfa945	-0.109209575
53	0x3dce250a	0.100656584
54	0xbe34f327	-0.1767088
55	0xbdbf6437	-0.09345286
56	0xbd00167e	-0.03127145
57	0x3da6cec1	0.08144904
58	0xbe4f7a4f	-0.20261501
59	0xbdd4b7e9	-0.103866406
60	0xbdf05246	-0.117344424
61	0xbea61a61	-0.32442
62	0x3d1a91ac	0.03773658
63	0x3e353aa0	0.17698145

ffn.4.weight f4 [64, 64]
0	0xbdb5307d	-0.08847139
1	0xbdccd3cb	-0.10001334
2	0x3d9d6a76	0.076863214
3	0x3d35470f	0.04425722
4	0x3e4623bc	0.19349569
5	0xbd9a044a	-0.07520349
6	0x3c25ad34	0.010112096
7	0x3d8ea6e4	0.069654256
8	0x3d92381b	0.071396075
9	0xbd6dd49f	-0.0580641
10	0x3df2dac3	0.11858132
11	0xbd02ac35	-0.03190251
12	0xbcc63db3	-0.024199342
13	0x3df528b3	0.119706534
14	0xba5f12d9	-0.00085095834
15	0xbdeac0c6	-0.1146255
16	0x3c039f6c	0.008033615
17	0xbd867b22	-0.065664545
18	0xbe5584eb	-0.20851485
19	0xbdc92595	-0.09821621
20	0xbb8b828b	-0.0042575053
21	0xbdba4d3c	-0.090967625
22	0x3d0b117d	0.033952225
23	0xbe0ec1c7	-0.13941108
24	0x3d946e6e	0.07247625
25	0xbc1696e0	-0.009191245
26	0x3e010b07	0.12601863
27	0x3defe6d1	0.117139466
28	0xbe100110	-0.14062905
29	0xbbe94f9e	-0.007120087
30	0xbbe688e0	-0.0070353597
31	0xbd519ba5	-0.051173825
32	0xbd758e5b	-0.059950214
33	0xbdc6ff56	-0.0971667
34	0x3d461d1a	0.048367597
35	0x3cc469a8	0.023976162
36	0x3e0e7667	0.13912354
37	0x3d922248	0.07135445
38	0xbde6e3bc	-0.11273906
39	0xbd077565	-0.03307094
40	0xbe1e278c	-0.15444773
41	0xbda4ab1b	-0.08040448
42	0x3c1a20b3	0.00940721
43	0xbd87d005	-0.066314735
44	0xbdd6ddad	-0.104915
45	0xbdac68ae	-0.084184036
46	0x3e2d4277	0.16919886
47	0xbd12c2e2	-0.035830386
48	0x3e063838	0.13107383
49	0xbded9182	-0.11600019
50	0x3e192252	0.14954498
51	0x3e0c5569	0.13704456
52	0x3d7f3df6	0.06231495
53	0x3c494178	0.012283675
54	0xbe6b946b	-0.23005836
55	0x3d3b85d2	0.045781918
56	0x3ba40392	0.0050053084
57	0xbe947f98	-0.29003596
58	0x3d55bb5a	0.052180625
59	0x3db9d16f	0.090731494
60	0x3d24ca49	0.040231977
61	0x3d312984	0.043252483
62	0x3dae493a	0.085100606
63	0xbdc85494	-0.09781757
64	0x3dd39c19	0.10332508
65	0xbe0a124f	-0.13483547
66	0xbc9061c3	-0.017624741
67	0x3e3f1b19	0.1866268
68	0x3e8f4bdf	0.27987573
69	0xbdcf70db	-0.10128947
70	0x3d4f6a6e	0.05063861
71	0x3cdee5dc	0.027209215
72	0x3dcce854	0.100052506
73	0x3e3a3840	0.1818552
74	0xbdb1963c	-0.08671233
75	0x3d35b134	0.044358447
76	0x3d74e585	0.0597892
77	0xbdad46a5	-0.0846074
78	0x3d5e5a0e	0.0542851
79	0x3e1d1ed8	0.15343797
80	0xbe573082	-0.21014598
81	0xbe0948ef	-0.13406728
82	0x3d49b7d3	0.049247574
83	0x3bc7f444	0.006102117
84	0x3d89bf71	0.06725968
85	0xbd129d25	-0.035794396
86	0x3ced9feb	0.029006919
87	0xbdb9b6ff	-0.09068107
88	0xbd1fbd17	-0.03899869
89	0x3e8cbed8	0.27489352
90	0xbdd996d4	-0.10624471
91	0xbdd7ec80	-0.10543156
92	0xbd8abd32	-0.067743674
93	0xbdad5bc9	-0.08464772
94	0xbe105834	-0.14096147
95	0xbdebd46e	-0.11515127
96	0x3da47a08	0.08031088
97	0x3db2d789	0.08732516
98	0x3de7b7ed	0.11314378
99	0xbd9c5ee7	-0.07635289
100	0x3765475a	1.36660765e-05
101	0xbd17f11d	-0.037095178
102	0xbcfa1891	-0.030529292
103	0x3df13f7a	0.11779685
104	0x3e195fd2	0.14977959
105	0xbd72da44	-0.059290186
106	0x3d809869	0.0627907
107	0xbbecf1d9	-0.007230979
108	0xbda0656b	-0.07831844
109	0xbe32ea36	-0.17472157
110	0xbd34453a	-0.044011332
111	0x3d1082ce	0.035280995
112	0xbd69f966	-0.05712261
113	0x3d04eab5	0.032450397
114	0x3e8cebcd	0.27523652
115	0x3d534a19	0.051584337
116	0xbde520e1	-0.11187912
117	0x3d94ef2f	0.07272183
118	0x3cc6e748	0.024280205
119	0xbe2c657a	-0.16835585
120	0xbd51a760	-0.051185012
121	0x3d0d036f	0.034427103
122	0xbdb98280	-0.09058094
123	0xbdd41341	-0.10355235
124	0x3ddc2b7b	0.10750481
125	0x3e2176b5	0.1576794
126	0x3d1c85f8	0.0382137
127	0xbacbafcc	-0.0015540062
128	0x3eaea246	0.3410818
129	0x3e26a6f9	0.16274633
130	0xbc74e163	-0.0149463145
131	0xbb3f244a	-0.0029165917
132	0xbd5c6b6c	-0.053813383
133	0xbeab23c0	-0.33425713
134	0x3eb0d33f	0.34536168
135	0x3a944979	0.00113134
136	0xbe68dd72	-0.22740725
137	0xbe3e6580	-0.18593407
138	0xbdd48011	-0.10375989
139	0xbe0f93cc	-0.14021224
140	0x3e8d6c48	0.27621675
141	0xbda82fa9	-0.082122155
142	0xbdd457b9	-0.10368294
143	0x3e49351a	0.19649163
144	0x3c72b860	0.014814466
145	0xbdf6948c	-0.12040052
146	0xbdf60dda	-0.12014361
147	0xbd7d99f3	-0.061914396
148	0xbd9ac094	-0.075562626
149	0x3e790eea	0.24322096
150	0xbd500d42	-0.050793894
151	0xbe5378ad	-0.20651503
152	0xbd364a7e	-0.044504635
153	0xbddbd2ca	-0.10733564
154	0x3d13f14f	0.0361188
155	0xbccae281	-0.024766209
156	0xbdcbc51e	-0.099497065
157	0x3e2003d3	0.15626459
158	0x3dbb3a4f	0.09141981
159	0xbcbd2284	-0.023087747
160	0xbe45250e	-0.19252416
161	0x3ec7b6fd	0.39006796
162	0xbe371f4a	-0.1788303
163	0x3e5fb404	0.21846014
164	0xbd2a59aa	-0.041589417
165	0x3e7837d4	0.24240047
166	0x3cffde3f	0.031233905
167	0xbe4e34c7	-0.2013732
168	0x3cf238a7	0.02956803
169	0x3daf331e	0.08554672
170	0x3de0118e	0.10940848
171	0x3d8373da	0.06418581
172	0xbd940e91	-0.07229341
173	0xbe7706b6	-0.24123654
174	0x3ca98aca	0.020696063
175	0xbdbdb425	-0.092628755
176	0x3e9304b1	0.28714517
177	0xbde8aac9	-0.113607
178	0xbcc86c3f	-0.024465678
179	0xbd86f37f	-0.06589412
180	0x3ddd85b1	0.10816515
181	0xbd38683a	-0.045021273
182	0x3f07f87c	0.5311353
183	0xbd8a5b1e	-0.067556605
184	0x3dfa87ea	0.12232955
185	0xbd2ea3fd	-0.04263686
186	0xbd9961fb	-0.074893914
187	0x3caeaf75	0.021323899
188	0xbdc5d43f	-0.09659623
189	0xbcfb21d1	-0.030655773
190	0xbe3d60ae	-0.18493912
191	0x3bb8e300	0.005642295
192	0x3d81dbf1	0.063407786
193	0x3e8b3f9e	0.27196974
194	0x3dee0945	0.11622862
195	0xbee0103a	-0.4376238
196	0x3db95276	0.09048931
197	0x3e99d298	0.30043483
198	0xbe2ab7d5	-0.16671689
199	0xbf23cfa0	-0.63988686
200	0x3ec46137	0.3835542
201	0xbdf57ca0	-0.11986661
202	0xbe95a349	-0.2922614
203	0xbeb1f024	-0.34753525
204	0xbf01a506	-0.5064243
205	0xbe3c0a67	-0.18363343
206	0x3ed08521	0.4072657
207	0x3defabf0	0.11702716
208	0xbeee1b8c	-0.46505392
209	0xbe82f86a	-0.2558015
210	0x3ab09989	0.0013473491
211	0xbea36d21	-0.31919196
212	0xbf1640da	-0.58692706
213	0xbe8e3317	-0.27773353
214	0xbf875a2c	-1.0574393
215	0xbe4304a6	-0.19044742
216	0xbea15f0c	-0.31517828
217	0xbe1dc92c	-0.15408772
218	0xbd98de81	-0.07464314
219	0xbf55f5e1	-0.83578306
220	0x3e166463	0.14686732
221	0xbe8c92e6	-0.27455825
222	0x3c7edad7	0.015555105
223	0xbe72d44b	-0.23713796
224	0xbed9a82f	-0.42511126
225	0xbe640067	-0.22265778
226	0xbedfbefe	-0.43700403
227	0x3c5744fe	0.013139008
228	0xbf3678d0	-0.71278095
229	0xbd288145	-0.041138906
230	0xbf46d107	-0.776627
231	0xbe0adfc1	-0.13561918
232	0x3ec85757	0.39129135
233	0xbdd3a614	-0.10334411
234	0x3ebf9f81	0.3742638
235	0xbdf79e40	-0.12090731
236	0xbea4049f	-0.32034776
237	0x3e8f5df2	0.28001362
238	0xbeb46778	-0.3523519
239	0xbef460b0	-0.47730017
240	0x3d7babca	0.061443128
241	0xbeac7378	-0.33681846
242	0xbdf07246	-0.11740546
243	0xbd430ed8	-0.047621578
244	0xbe727992	-0.23679188
245	0x3e935c76	0.2878148
246	0xbe3caa71	-0.18424393
247	0xbf003565	-0.50081474
248	0xbdaf56b6	-0.08561461
249	0xbe9a4ffb	-0.30139145
250	0xbfbcb63a	-1.4743111
251	0x3aa72df7	0.0012754787
252	0x3daf1793	0.08549418
253	0xbef48daf	-0.47764346
254	0x3ebb59fe	0.36592096
255	0x3e44a649	0.19204058

ffn.4.bias f4 [64]
0	0xbd98b7c5	-0.07456926
1	0xbd73e748	-0.05954674
2	0xbcf39def	-0.029738395
3	0x3efac63a	0.4897936
4	0xbe54fe15	-0.2080005
5	0xbe304b72	-0.1721628
6	0xbdfb9de8	-0.122859776
7	0xbe194e28	-0.1497122
8	0x3d01609d	0.03158628
9	0xbec307b4	-0.38091815
10	0xbec99bdd	-0.39376727
11	0xbeca795d	-0.39545718
12	0xbd3ccf19	-0.04609594
13	0xbdfe0b30	-0.124044776
14	0x3e357d80	0.17723656
15	0xbd042308	-0.03225997
16	0xbe0b4852	-0.13601807
17	0xbb3c2811	-0.0028710405
18	0xbb5b1917	-0.0033431703
19	0xbd3dcc30	-0.046337306
20	0xbddef6ff	-0.108869545
21	0xbe36de97	-0.17858349
22	0xbcb0b09f	-0.021568595
23	0xbed886b8	-0.42290282
24	0xbe8c2ae2	-0.27376467
25	0x3ddf2e84	0.10897544
26	0xbcbf2b40	-0.023336053
27	0xbd5f704b	-0.05455045
28	0x3e974bf6	0.2955014
29	0xbe36d8b3	-0.17856102
30	0x3d120082	0.035645016
31	0x3d4ede57	0.05050501
32	0x3d98e2ed	0.07465158
33	0xbe9194df	-0.28433892
34	0xbdeb58b8	-0.11491531
35	0x3c8a57b5	0.016887525
36	0xbde4c16d	-0.111697055
37	0x3d88c3b3	0.06677952
38	0xbe34f313	-0.1767085
39	0x3d5b14bd	0.053486574
40	0xbdc6d15c	-0.09707901
41	0xbe555f3b	-0.20837109
42	0xbde18832	-0.11012305
43	0x3e2930a7	0.16522466
44	0x3e11d59b	0.1424164
45	0x3e2f5398	0.17121732
46	0xbeae4d0b	-0.34043154
47	0xbeedd830	-0.46454
48	0x3d2506e3	0.04028977
49	0xbc53871b	-0.01291063
50	0xbb855a92	-0.0040696347
51	0x3dd75f89	0.10516269
52	0xbe4ad4ab	-0.19807689
53	0x3d835719	0.06413097
54	0x3e174b47	0.1477481
55	0xbe910846	-0.28326625
56	0xbde108d7	-0.10988014
57	0xbe592c78	-0.2120837
58	0xbc49d84a	-0.012319634
59	0x3ded5d72	0.11590089
60	0x3d245969	0.04012433
61	0xbe7a08b2	-0.2441738
62	0xbe6b4786	-0.22976503
63	0x3e06c28d	0.13160153
