THESIS/transfer_learning/checkpoints/MPNN with attention.pt (torch, 558709 bytes, 15 tensors)

encoder_sol.cached_zero_vector f4 [128]
000000 00 00 00 00 00 00 00 00 00 00 00 00 00 00 00 00
       0.0 0.0 0.0 0.0
000010 00 00 00 00 00 00 00 00 00 00 00 00 00 00 00 00
       0.0 0.0 0.0 0.0
000020 00 00 00 00 00 00 00 00 00 00 00 00 00 00 00 00
       0.0 0.0 0.0 0.0
000030 00 00 00 00 00 00 00 00 00 00 00 00 00 00 00 00
       0.0 0.0 0.0 0.0
000040 00 00 00 00 00 00 00 00 00 00 00 00 00 00 00 00
       0.0 0.0 0.0 0.0
000050 00 00 00 00 00 00 00 00 00 00 00 00 00 00 00 00
       0.0 0.0 0.0 0.0
000060 00 00 00 00 00 00 00 00 00 00 00 00 00 00 00 00
       0.0 0.0 0.0 0.0
000070 00 00 00 00 00 00 00 00 00 00 00 00 00 00 00 00
       0.0 0.0 0.0 0.0
000080 00 00 00 00 00 00 00 00 00 00 00 00 00 00 00 00
       0.0 0.0 0.0 0.0
000090 00 00 00 00 00 00 00 00 00 00 00 00 00 00 00 00
       0.0 0.0 0.0 0.0
0000a0 00 00 00 00 00 00 00 00 00 00 00 00 00 00 00 00
       0.0 0.0 0.0 0.0
0000b0 00 00 00 00 00 00 00 00 00 00 00 00 00 00 00 00
       0.0 0.0 0.0 0.0
0000c0 00 00 00 00 00 00 00 00 00 00 00 00 00 00 00 00
       0.0 0.0 0.0 0.0
0000d0 00 00 00 00 00 00 00 00 00 00 00 00 00 00 00 00
       0.0 0.0 0.0 0.0
0000e0 00 00 00 00 00 00 00 00 00 00 00 00 00 00 00 00
       0.0 0.0 0.0 0.0
0000f0 00 00 00 00 00 00 00 00 00 00 00 00 00 00 00 00
       0.0 0.0 0.0 0.0
000100 00 00 00 00 00 00 00 00 00 00 00 00 00 00 00 00
       0.0 0.0 0.0 0.0
000110 00 00 00 00 00 00 00 00 00 00 00 00 00 00 00 00
       0.0 0.0 0.0 0.0
000120 00 00 00 00 00 00 00 00 00 00 00 00 00 00 00 00
       0.0 0.0 0.0 0.0
000130 00 00 00 00 00 00 00 00 00 00 00 00 00 00 00 00
       0.0 0.0 0.0 0.0
000140 00 00 00 00 00 00 00 00 00 00 00 00 00 00 00 00
       0.0 0.0 0.0 0.0
000150 00 00 00 00 00 00 00 00 00 00 00 00 00 00 00 00
       0.0 0.0 0.0 0.0
000160 00 00 00 00 00 00 00 00 00 00 00 00 00 00 00 00
       0.0 0.0 0.0 0.0
000170 00 00 00 00 00 00 00 00 00 00 00 00 00 00 00 00
       0.0 0.0 0.0 0.0
000180 00 00 00 00 00 00 00 00 00 00 00 00 00 00 00 00
       0.0 0.0 0.0 0.0
000190 00 00 00 00 00 00 00 00 00 00 00 00 00 00 00 00
       0.0 0.0 0.0 0.0
0001a0 00 00 00 00 00 00 00 00 00 00 00 00 00 00 00 00
       0.0 0.0 0.0 0.0
0001b0 00 00 00 00 00 00 00 00 00 00 00 00 00 00 00 00
       0.0 0.0 0.0 0.0
0001c0 00 00 00 00 00 00 00 00 00 00 00 00 00 00 00 00
       0.0 0.0 0.0 0.0
0001d0 00 00 00 00 00 00 00 00 00 00 00 00 00 00 00 00
       0.0 0.0 0.0 0.0
0001e0 00 00 00 00 00 00 00 00 00 00 00 00 00 00 00 00
       0.0 0.0 0.0 0.0
0001f0 00 00 00 00 00 00 00 00 00 00 00 00 00 00 00 00
       0.0 0.0 0.0 0.0

encoder_sol.W_i.weight f4 [128, 133]
000000 ba c1 72 bd 8b f9 10 bd be 37 4b 3d c1 ba 5d bd
       -0.059266783 -0.035394233 0.049613707 -0.05413318
000010 9c 45 01 bd 96 34 64 bd 67 ef 61 3c b6 19 a2 bd
       -0.031560525 -0.055714212 0.013789988 -0.0791506
000020 ec f7 b0 3c d8 4d 5c 3c f0 e3 56 3c b8 0a 6c 3c
       0.021602593 0.013446294 0.013115868 0.014406852
000030 22 b7 7c 3d 3a 73 77 bd 79 8e a1 bd 38 2a 46 bc
       0.061698087 -0.060412623 -0.07888503 -0.012095027
000040 e2 44 96 3d c0 ec 8b ba 84 7c e5 3c a0 19 33 3b
       0.07337357 -0.0010675415 0.028013475 0.0027328506
000050 a0 92 73 bd ad 4c 92 bd f7 6e 85 3d 88 ac 4e bc
       -0.059466004 -0.07143531 0.065153055 -0.012614377
000060 25 45 6b bd cb 60 0b bd a0 88 56 3c ea 75 7a bd
       -0.05743899 -0.034027856 0.013094097 -0.061147608
000070 e0 ad 41 3c f6 85 79 3d dc fd 54 bd 7a e4 69 3d
       0.01182124 0.06091877 -0.05199991 0.057102658
000080 9d 1c 93 bd 80 9f f7 3c b4 69 a2 3d 30 eb ae 3c
       -0.07183192 0.030227423 0.079303175 0.02135238
000090 3f 4d 90 3d 1d 9a a7 3d 78 b6 7c 3c d6 6c 40 3d
       0.070459835 0.08183692 0.015424363 0.046978794
0000a0 bc bc a4 3c c2 59 2b 3d c4 05 66 bd 0d 08 90 bd
       0.020109527 0.041833647 -0.056157842 -0.070327856
0000b0 a8 e9 1b 3d 30 9e c8 3c 33 b0 92 3d 3f 35 99 3d
       0.03806463 0.024489492 0.071625136 0.07480859
0000c0 78 6b 90 bc d0 25 0f 3d 7f 41 79 bd 8c 73 d1 3c
       -0.01762937 0.03494817 -0.060853478 0.025567792
0000d0 a6 72 71 3d de a8 2c bd 80 b6 a1 3b da 82 2e 3d
       0.058947228 -0.04215323 0.004935086 0.04260526
0000e0 b0 00 91 3b cb 90 2c bd 20 b5 69 3c 40 bd e8 3a
       0.004425131 -0.042130273 0.014264375 0.0017756596
0000f0 97 6c 3f bd c4 29 81 bc 62 5e 60 3d f9 05 8b 3d
       -0.04673442 -0.015766986 0.05477751 0.067882486
000100 ba df a7 bd 46 c2 ad bd 68 21 e0 bc 83 dd 98 bd
       -0.08196969 -0.0848432 -0.02735968 -0.07464125
000110 ef 9f 4c bd 72 fc 9f bd e1 2c 97 3d 44 7b a7 bd
       -0.049957212 -0.07811822 0.07381607 -0.08177808
000120 2f b3 a0 3d 95 04 83 3d d0 3a 23 3c 93 a5 8e 3d
       0.078466766 0.06397358 0.009962752 0.069651745
000130 49 13 97 3d 4d a3 21 bd 90 c9 fa 3c fe 45 39 bd
       0.07376725 -0.039462376 0.03061369 -0.045232765
000140 9c a1 eb bc e0 62 37 bb 5b 2e 8f 3d 54 36 c3 bc
       -0.028763585 -0.0027982518 0.069912635 -0.023829617
000150 6e c3 5d 3d d2 91 1d 3d 17 b2 81 bd c8 ab d1 3c
       0.054141454 0.038469143 -0.06332796 0.025594607
000160 f8 0a 3e bc be 0a 42 3d 42 b6 26 3d 28 43 d4 bc
       -0.011599295 0.047373526 0.04070116 -0.025910929
000170 a6 28 36 3d a5 53 0d bd 10 1b cb 3b 17 13 61 bd
       0.04447236 -0.034503598 0.0061982945 -0.054949846
000180 0c c8 80 bd 21 3e 81 3d 1b 10 95 bd c2 5c 1c 3d
       -0.06288156 0.06310678 -0.072784625 0.0381744
000190 1b f1 87 3d 61 8e 54 bd ab 05 93 3b 62 a2 f6 bc
       0.06637784 -0.051893596 0.0044867597 -0.030106727
0001a0 cf 71 bf bc d1 35 1b 3d f2 d8 3b 3d 4d c6 9f 3d
       -0.023369698 0.03789312 0.045861192 0.07801495
0001b0 c4 e5 bf 3c 25 ea 9e 3d 2a e6 14 bd ae 2d 61 3d
       0.02342499 0.07759503 -0.036352314 0.054975204
0001c0 97 49 f9 bc 28 57 64 bd 8f 7a 1a 3d ae 1b 75 3d
       -0.030430598 -0.05574718 0.037714537 0.05984085
0001d0 e0 14 77 3b 34 2b 9c bd 04 dc 16 3d 93 19 8b 3c
       0.0037701651 -0.07625428 0.036830917 0.016979968
0001e0 f2 35 99 3d 6f 01 3e bd d7 0b 83 3d 62 eb 37 3d
       0.074809924 -0.046388086 0.06398743 0.044902213
0001f0 80 63 0d 3a 4f 65 8e bd b8 18 10 bd 57 aa b6 bd
       0.000539355 -0.06952917 -0.035179824 -0.089192085
000200 98 ae 5c bc 9e 47 2f bd 4c 05 79 bd 1c 79 bb 3c
       -0.013469361 -0.04279291 -0.060796067 0.022884898
000210 89 cf b3 3c 42 35 70 3d 3c fd 83 bc f0 3e c5 3b
       0.021949546 0.05864454 -0.016111962 0.0060194656
000220 d3 2e ab 3d 19 6a ab 3d 2b bd 98 3d 1a 57 3d bd
       0.083585404 0.08369846 0.07457956 -0.046225645
000230 df 0f c2 bc 62 12 bc bc fb dd 91 3d 64 7f 0e 3d
       -0.023689209 -0.022957984 0.071224175 0.034789458
000240 18 9a 87 3c 10 74 75 3c 94 b9 ec bc fd 26 dd bd
       0.01655297 0.014981285 -0.028897084 -0.10798452
000250 e7 6f 30 3d 4d 56 a7 bd 26 ac 73 bd 98 25 1b bc
       0.04307547 -0.081707574 -0.059490345 -0.009469412
000260 2a c0 46 3d ef 41 24 bd aa 5a 13 bd 6c fe 96 bd
       0.048523106 -0.04010194 -0.035975136 -0.07372746
000270 d0 11 28 bc 5c 92 96 bc 08 df ab bd d0 41 86 3c
       -0.010258153 -0.018380336 -0.08392149 0.016388804
000280 b5 a5 a6 bd 88 dc ac 3c ea aa e8 bc 5e 1b 63 3d
       -0.08137075 0.021101251 -0.02840181 0.05544602
000290 dc a0 cd bc 9e d4 21 bd a8 2a 09 bc 4a 74 81 3d
       -0.025101118 -0.03950941 -0.008371986 0.063210085
0002a0 0e ac 90 bd 73 5e 95 bd 6a 6d 34 3d 5c 2c d3 bc
       -0.07064067 -0.072934054 0.044049658 -0.025777988
0002b0 d4 f0 92 bd d4 84 1c bd 97 e7 9c bd 92 09 84 bd
       -0.071748406 -0.038212612 -0.0766136 -0.06447138
0002c0 d7 b6 9a bd 38 7b e5 bc 86 f4 06 3d 7e f3 13 bd
       -0.07554405 -0.028012857 0.03294804 -0.036120884
0002d0 4e 0c 2b bd 35 74 ab bd 00 75 04 3d 3f 53 ae 3d
       -0.04175978 -0.08371774 0.032338142 0.08511972
0002e0 59 d9 9d 3d 10 80 24 3d 00 40 72 bc 90 7b 44 3c
       0.077074714 0.040161192 -0.014785767 0.01199235
0002f0 1d 3c ae 3d 56 bf 7d 3d e8 41 83 bd 62 e9 10 3d
       0.085075594 0.06195005 -0.06409055 0.03537882
000300 c8 d6 89 3c 00 75 b7 bc 75 0a 20 bd 54 7b 07 3d
       0.016826048 -0.022394657 -0.039072473 0.0330766
000310 76 b8 7c bd 28 35 89 bc 46 3c 42 3d ba 7e 80 bd
       -0.061699353 -0.01674898 0.047420762 -0.06274171
000320 b8 0e 87 bd d0 e3 a7 bd 9e f8 05 bd 93 dc 97 3d
       -0.06594604 -0.08197749 -0.032707803 0.07415118
000330 ac f7 f1 3c bc 1a c5 3c 7f aa a0 3d 48 06 51 bc
       0.029537044 0.0240606 0.078450195 -0.012757845
000340 a7 d2 9a bd 3c 02 f4 3c 34 0b f5 3c a0 47 15 3c
       -0.0755971 0.029786222 0.029912569 0.009111315
000350 06 39 7f 3d d6 47 12 3d 1b 4a ac bd b4 1f 1c 3d
       0.06231024 0.03571304 -0.08412572 0.038116172
000360 22 6c 22 3d 28 d6 f1 bc c6 ac 62 3d 40 00 b9 3c
       0.039653905 -0.029521063 0.05534055 0.022583127
000370 c0 de 91 bd 32 8a 27 3d 3b 1c a6 3d 40 59 ff bb
       -0.07122564 0.040903278 0.08110853 -0.007792622
000380 04 63 9e 3c 64 a0 f4 bc 20 37 3f 3b 5c 7b 9e bc
       0.019334324 -0.029861636 0.0029177144 -0.019345932
000390 fa be 72 3d 59 c8 a3 3d 44 12 fe bc 7e cf 55 3d
       0.05926416 0.07997198 -0.03101457 0.052199833
0003a0 df 3a 9c 3d b0 17 2b 3c 8b bb a7 3d 92 c2 35 bc
       0.07628416 0.010442659 0.08190068 -0.011093752
0003b0 81 d7 7d bc 1c b3 dc 3b 36 d1 95 3d 28 8c b2 bc
       -0.015493275 0.0067352187 0.073152944 -0.021795347
0003c0 68 ad 5e 3c fe 04 4f 3d 70 55 00 3c a1 10 90 3d
       0.013591148 0.05054187 0.00783287 0.07034422
0003d0 00 a6 d9 b9 24 e3 87 bd 62 20 97 bd 6e c3 ae bd
       -0.00041513145 -0.066351205 -0.073792234 -0.08533369
0003e0 3a 8f 9d bd 0e 87 72 bd d8 ef 9f bc 50 14 5d bd
       -0.07693334 -0.05921083 -0.019523546 -0.05397445
0003f0 c9 ca 56 bd e8 13 17 3d 3a ba fb 3b 2c 84 e2 3c
       -0.052439485 0.03688422 0.007682112 0.027650915

encoder_sol.W_i.bias f4 [128]
000000 cf ad 8e bd 67 45 8b bc 62 67 23 bd 36 78 70 3d
       -0.06966745 -0.017000867 -0.039893515 0.058708392
000010 0f e1 95 3c 40 58 28 bd 96 d0 d2 bc f7 2d ae 3c
       0.018295793 -0.041099787 -0.025734227 0.021262152
000020 a0 ab 78 3d 60 63 86 bd 74 a4 2b 3d 9e 1f 90 bc
       0.06071055 -0.06561923 0.04190488 -0.017593201
000030 10 4e d2 3b 01 d0 ef 3c 99 db a5 bc 42 72 48 bc
       0.006417997 0.029273989 -0.020246314 -0.012234272
000040 a9 74 ac 3d 8e cb c0 bc 70 f2 e3 bc f3 47 08 3d
       0.08420689 -0.023534562 -0.027825564 0.03327174
000050 f0 94 89 3d c4 d4 38 bd b4 17 4c bb f4 4a 36 bd
       0.06717861 -0.045124784 -0.0031142058 -0.044505075
000060 eb 1e 61 bd 99 3c 3f bd 94 6f 43 bd e4 c4 88 3b
       -0.054961126 -0.04668865 -0.04771383 0.004173862
000070 76 a5 b2 bd 57 57 0a 3d 0d 6e b5 bd 9b 20 13 bc
       -0.087229654 0.0337747 -0.08858881 -0.008979942
000080 2a f0 81 bc 7e 69 83 bd 3c 11 53 bd fd 88 9b bd
       -0.01586159 -0.064166054 -0.051530108 -0.07594488
000090 29 c7 95 bc 1e 55 32 bc 63 11 e5 bc 9a 6d 90 3d
       -0.018283444 -0.010884551 -0.027962392 0.07052155
0000a0 0a a8 dd 3b ca 72 7a bd c8 8a 85 bd 53 22 91 3c
       0.0067644166 -0.061144628 -0.06520611 0.017716562
0000b0 25 e7 a1 3d e0 58 36 3d 90 f5 41 bd fc 2d ad bc
       0.079054154 0.04451835 -0.047353327 -0.021140091
0000c0 54 68 75 3d 22 7d fe 3c ea fb 25 3d 60 20 5e 3c
       0.05991395 0.031065527 0.040523447 0.0135575235
0000d0 5e 64 24 bb c1 e5 00 3d a8 e6 50 3d b6 bd 87 3d
       -0.0025084238 0.03146911 0.05100122 0.06627981
0000e0 0e 9c 46 3d 94 65 03 3d 08 05 46 3d dc 90 94 ba
       0.04848867 0.032079294 0.048344642 -0.0011334675
0000f0 c4 94 a3 3c 04 29 ad bc b3 ce 53 bd 8c 08 a9 bd
       0.019968398 -0.021137722 -0.051710796 -0.08253583
000100 c5 43 ab bd e4 98 99 bd f4 1b d0 3c d7 37 7e 3d
       -0.083625354 -0.07499865 0.025403954 0.06206497
000110 f9 2f 36 bb 32 3d 27 bd 8a a6 e2 bc 66 9b 7a 3c
       -0.002779959 -0.040829845 -0.027667303 0.015295839
000120 8c 0d 12 3d 06 cb 4c 3c 7b f9 dc bc de da 84 bd
       0.03565745 0.012499576 -0.02697443 -0.06487058
000130 95 c4 37 3d 95 bc 18 bd a4 82 d3 3c 69 08 17 3d
       0.04486521 -0.03728922 0.02581913 0.036873255
000140 4a 50 85 bb b1 40 5e bc 12 a0 e0 bc 88 82 b6 bd
       -0.004068409 -0.013565228 -0.027420077 -0.089116156
000150 03 7c 87 bd c3 3b 97 bd 65 87 aa bd da 8f 8f 3d
       -0.0661545 -0.073844455 -0.08326606 0.070098594
000160 bc 67 ae bd c6 ba 91 bd 63 cb 2a 3d 46 ba 4c bd
       -0.085158795 -0.07115702 0.04169787 -0.04998233
000170 1b cc 9c 3d d0 0a 41 bd ed 25 66 bd ea 99 7a ba
       0.076561175 -0.047129452 -0.056188513 -0.0009559678
000180 7d 3f 36 bd 28 e0 89 bd c0 fd 96 3d 07 f9 3b bc
       -0.04449414 -0.067322075 0.07372618 -0.011472947
000190 1e 07 52 3d a7 46 3e bd 06 75 39 3c a4 f9 d1 bc
       0.05127632 -0.046454098 0.0113194045 -0.025631733
0001a0 c9 00 c1 bd 83 7f 8c bb 47 08 80 3d ef 63 c0 bc
       -0.09423978 -0.0042876615 0.06251579 -0.023485152
0001b0 bc 1d ba 3c bd c9 ae 3c e5 77 83 bd 36 9d 7e 3c
       0.022719257 0.02133643 -0.064193524 0.015540412
0001c0 55 e1 54 3d 4b d7 23 3c 59 bb 8b bc ea 03 f2 3b
       0.051972706 0.01000006 -0.017057108 0.0073857205
0001d0 c6 53 8c bd 19 0d 1c 3c 13 a7 79 3c ce 80 22 bd
       -0.06851916 0.009524607 0.0152375875 -0.03967362
0001e0 ad 10 1e bc ca 69 84 3d d6 54 39 3d ea 95 5c bd
       -0.0096475305 0.0646549 0.04524692 -0.053853907
0001f0 a0 92 af 3b 9e 68 c2 bb a6 21 1f bd 0e 7e 3d bd
       0.0053580552 -0.0059328815 -0.03885045 -0.046262793

encoder_sol.W_h.weight f4 [128, 142]
000000 48 fe cb bc 30 9c 9f bb 00 9d 94 bd 98 a6 62 bd
       -0.024901524 -0.004870914 -0.07256508 -0.055334657
000010 24 82 c1 3c 70 64 ab 3c f4 63 e8 bc 7c 84 c1 bc
       0.023621626 0.020921916 -0.028367974 -0.023622744
000020 d0 6a f8 bc d7 3b be 3c 60 cb 08 3d f7 9c 8e bd
       -0.03032437 0.023221893 0.03339708 -0.069635324
000030 c3 39 53 bb a6 2d 35 3d 18 53 50 3d f5 12 4a bb
       -0.0032230474 0.044232987 0.050860494 -0.0030834053
000040 2f 98 5a 3d a4 78 e9 3c d8 a5 9f bd 46 09 98 3d
       0.05336779 0.028499909 -0.07795304 0.07423644
000050 a4 c1 f0 3c 64 85 af bd e0 8f a8 3d 2a 23 3b bd
       0.02938921 -0.08570364 0.08230567 -0.045687832
000060 e6 68 12 3d 3a c1 e1 bc f9 84 92 3d 4d 40 1b bd
       0.03574457 -0.027557958 0.07154269 -0.03790312
000070 c4 a0 9b bd 24 68 0f bd bb 34 40 bd df 45 39 bd
       -0.07599023 -0.035011426 -0.046925288 -0.04523265
000080 29 f3 a3 3a e7 ef 17 bb b3 b4 8a 3d 05 e3 4b b9
       0.001250838 -0.0023183764 0.06772747 -0.0001944416
000090 18 d2 a3 bd fc 65 04 bd 0a 19 47 3d 21 8a 97 bd
       -0.079990566 -0.032323822 0.048607863 -0.07399393
0000a0 f5 b0 35 bd 40 34 48 bd 02 c7 34 bd d7 77 a1 3d
       -0.044358213 -0.048877954 -0.0441351 0.07884186
0000b0 3c 83 b8 3c 9c ee 49 bc d7 d9 83 bd 55 aa b1 bc
       0.022523515 -0.012324955 -0.06438034 -0.021687666
0000c0 a6 5a c7 bc ae 40 2a 3d 0b 0c 0e bd db ff ef 3b
       -0.024335217 0.04156559 -0.034679454 0.0073242015
0000d0 35 52 0a 3d 8c 2a b4 bd f5 b8 b6 bd a9 34 bc bc
       0.033769805 -0.08797178 -0.089219965 -0.02297433
0000e0 78 14 0c bc 4d a0 c2 3c 70 fb f5 bc 42 0a 9d 3d
       -0.008549802 0.023758078 -0.030027121 0.07667972
0000f0 51 fd 67 bd db 38 0c bc 70 81 97 bc 0b b7 7d 3d
       -0.056638066 -0.008558477 -0.018494338 0.06194214
000100 c0 c0 f8 bb 1f f4 7f bd c5 85 ab bb 89 ea bb bc
       -0.007591337 -0.06248867 -0.0052344524 -0.022938984
000110 01 f9 f4 bc b6 b6 9e bd dd 9e b8 bd 4e bd a1 bc
       -0.02990389 -0.07749693 -0.09014676 -0.019743588
000120 2d d5 6a 3d de ff 81 3d c5 a3 4f 3d a5 52 9d 3d
       0.057332207 0.06347631 0.050693292 0.07681779
000130 dc 9c 0a 3d 1f bf 5f ba c5 62 7f 3c 96 94 4d 3b
       0.033841 -0.0008535254 0.015587513 0.0031369082
000140 84 4b 02 3d f2 d8 8f 3d 15 50 15 bc 20 3a 01 bd
       0.0318103 0.07023801 -0.009113331 -0.031549573
000150 15 de 15 3d 6e 4c ae bd 42 e1 8b 3d e4 d6 4a bd
       0.036588747 -0.085106716 0.06830074 -0.049521342
000160 ce 95 db bc 8b c9 9d bb 08 ba 90 3d 5a 89 79 bd
       -0.02680483 -0.0048152856 0.07066733 -0.060922004
000170 64 51 ab bd 80 aa 68 ba 40 fa c3 3c 2c 43 96 3c
       -0.083651334 -0.0008875504 0.02392304 0.018342577
000180 02 8c ee bc d0 6e 3c bc 0f 9a 90 bc b1 7e 88 bd
       -0.029119495 -0.011501029 -0.017651586 -0.066647895
000190 c2 72 40 3d 0a e8 56 3d 00 99 9b 3c a2 7d 08 3d
       0.04698444 0.052467383 0.018993855 0.033322938
0001a0 ec 6b 97 bd 47 90 10 3d ba 47 9b bb cd ec 9b 3d
       -0.07393631 0.035293844 -0.004738775 0.076135255
0001b0 cf dc b9 bb 02 6a 19 bd c0 4d 7b bc bd e5 19 3d
       -0.0056720744 -0.037454613 -0.015338361 0.03757261
0001c0 39 30 23 bd 57 dd 9f 3d 8b a3 30 3d 69 83 8e 3c
       -0.03984091 0.07805889 0.043124717 0.017396646
0001d0 8d 71 a1 3c 73 35 1f 3d 74 27 2a bd 68 d1 a4 bd
       0.019707466 0.038869333 -0.04154153 -0.080477536
0001e0 b2 df 7a 3d 96 1b 88 bb 7f 2e 2d 3d af dc c1 bb
       0.06124849 -0.004153679 0.04228067 -0.0059162
0001f0 4b be 95 bd 0d 01 9d 3c 48 f9 71 3c 00 bc ff bb
       -0.07311686 0.01916554 0.014768906 -0.007804394
000200 57 33 2b bd 6c ca d4 bc 39 2e 80 3d 52 8b 9a bd
       -0.04179701 -0.025975429 0.06258816 -0.075461045
000210 da dd 61 bd c1 f1 0b bd 67 1d 7d bd f3 dc 1a bd
       -0.055143215 -0.0341661 -0.06179562 -0.03780837
000220 50 9f fb 3c 49 de 78 bd 6c 3d 8b bd 00 cf a8 bb
       0.030715615 -0.060758863 -0.06798825 -0.0051516294
000230 54 c8 9e 3d e7 1d 2d bd b6 8e 74 bc 76 c6 72 bd
       0.07753053 -0.042264845 -0.014926603 -0.0592713
000240 2b cb d2 bd 0d b5 a3 3a ed d4 3a 3d 6b 6d 12 3d
       -0.102926575 0.001248987 0.045613218 0.03574888
000250 2c 7d 00 3d 6c bc 04 bd ae 57 81 bd b3 32 9f 3d
       0.031369373 -0.032406256 -0.06315552 0.07773342
000260 68 43 06 3d 98 66 98 3c 05 76 ad 3c ef f5 39 3d
       0.032779127 0.018603608 0.02117444 0.045400556
000270 0b 40 29 3d 5e ff 1c bc 5f 76 4a 3d a9 74 dd bc
       0.04132084 -0.009582369 0.049429294 -0.027033167
000280 b4 7f 3f 3d 13 a2 13 3d b3 c8 af 3d de a4 76 3d
       0.046752647 0.036043238 0.08583202 0.060215823
000290 5c 1d 29 bd 5e a9 ae 3d 18 80 a1 3d d8 cc cf 3c
       -0.041287765 0.08528398 0.0788576 0.025366232
0002a0 de 83 e8 3c 2c 0d 8f bd 98 94 32 bc 2d e6 54 bd
       0.028383192 -0.06984934 -0.010899685 -0.051977325
0002b0 d8 eb b1 3d f1 0b 9d 3d 96 65 d9 3c 03 6b 71 3d
       0.08687562 0.07668293 0.026537698 0.058939945
0002c0 74 f0 bc 3d 80 32 02 3d 6e f4 2a 3c 65 6d 90 3d
       0.0922555 0.03178644 0.010434253 0.07052115
0002d0 cb 64 84 bd 53 6d d3 bc 8f b8 fa 3d 11 05 25 bd
       -0.06464537 -0.025808966 0.12242233 -0.040288035
0002e0 37 ef 3c 3d 16 85 c7 bc ab c1 e4 3b 8d 23 b4 3d
       0.04612657 -0.024355453 0.006981095 0.08795843
0002f0 7d 10 9a bc ed 26 09 bd 9c 7a 93 bd a0 7a 9b bd
       -0.01880669 -0.03348439 -0.0720112 -0.07591748
000300 6e 34 2f bd f3 44 21 bd 5f 6d 41 3d 2a fd 0d 3d
       -0.04277461 -0.039372396 0.047223445 0.034665264
000310 aa 47 ab bc 6f 19 95 bd d4 fb 64 bd 2c 6b 86 bd
       -0.020908196 -0.07280242 -0.055904225 -0.0656341
000320 13 11 96 bb 35 07 89 bd 9d 07 85 3d fb 23 10 3c
       -0.004579672 -0.06690828 0.06495593 0.008797641
000330 31 26 a0 3d eb 3e 19 bd 4e 34 4b bd 23 10 73 bd
       0.078197844 -0.03741352 -0.04961043 -0.05934156
000340 6d 89 2d bd c7 38 d2 3c e6 0f 99 3d be ab 87 bd
       -0.042367388 0.02566184 0.074737355 -0.06624554
000350 88 73 9d 3d f0 d9 a4 3c 97 27 00 bd ca ce 26 3d
       0.076880515 0.020123452 -0.031287756 0.040724553
000360 28 e6 8f bc 0b 32 15 3d 9f 24 c4 3c 09 f9 fd 3c
       -0.017565802 0.036424678 0.023943244 0.031002538
000370 6a 53 a3 bd de 21 52 bd ca a1 39 bc c5 69 48 3d
       -0.07974894 -0.05130183 -0.011330077 0.048928995
000380 fc d7 8a 3d d0 f7 82 3d ad fb 7d 3d b1 df f1 3c
       0.06779477 0.06394923 0.062007595 0.02952561
000390 ea 7a 94 bd d6 d6 29 bd ae 66 a2 bb 8a d2 a2 bd
       -0.072500065 -0.04146465 -0.004956088 -0.079503134
0003a0 9f 41 6e 3b c2 ba 5a bc 85 82 3f 3c e9 d9 f8 bb
       0.0036355031 -0.013350191 0.011688833 -0.0075943363
0003b0 21 08 6c bd 85 cd f3 3d b2 c2 19 3d 66 8f 21 3d
       -0.05762494 0.11904434 0.03753919 0.039443396
0003c0 6a 99 f2 bb e7 87 36 3d 06 4b 81 3d be 50 b3 3b
       -0.0074035423 0.0445632 0.06313138 0.0054722717
0003d0 fb 59 7f 3d 8f 04 9d 3c 53 d8 f9 3c e4 ce 50 bb
       0.06234167 0.019167213 0.03049866 -0.0031861598
0003e0 3d 8e a4 bd 1c c1 91 bb f7 77 b7 bc 5a b7 ab 3c
       -0.08034942 -0.0044480693 -0.02239607 0.020961452
0003f0 8e 26 82 bd 2a c2 94 3c e6 66 86 bd 6e fc 43 3c
       -0.0635501 0.01815899 -0.06562595 0.011962039

encoder_sol.W_h.bias f4 [128]
000000 ed 76 92 bd 70 f0 bb 3c fa 35 9d bd bf fa 34 bd
       -0.071515895 0.022941798 -0.07676311 -0.044184443
000010 e7 15 f4 3c 56 a2 5c bc 9d fe 2f bd 9d 64 d4 3c
       0.0297956 -0.013466438 -0.042967428 0.025926882
000020 c8 1f 96 3d 91 a5 ad 3c dd 5d 01 bd 80 89 7b bd
       0.073302805 0.021197112 -0.031583656 -0.061410427
000030 e2 4f 43 3c 82 78 b7 bc 26 46 49 3c 44 4e af 3c
       0.011920901 -0.02239633 0.012284791 0.021399625
000040 f4 e3 17 bd d3 ce c3 3b 4c a7 e8 bc 6b 58 c7 bc
       -0.037082627 0.005975583 -0.028400086 -0.024334153
000050 3d 7a 83 3d 88 53 3f 3d f8 d1 8a 3b a1 0d bc 3c
       0.064197995 0.04671052 0.004236456 0.022955718
000060 ef fa 1b 3d 7a 34 98 bd cc 58 61 bc ac 99 b1 bd
       0.038081106 -0.07431884 -0.013754081 -0.08671889
000070 35 92 a1 bd 23 e2 9a 3b 3a fa b0 3b 09 ff 54 bb
       -0.07889215 0.0047266646 0.005400923 -0.0032500646
000080 cb 33 bd 3c 72 3e 8c 3d 9a a0 87 3d 90 bb 82 3c
       0.023095986 0.06847848 0.06622429 0.015958577
000090 14 5a b5 3b 97 c5 00 3d 56 91 5d bc 12 62 aa bd
       0.00553442 0.031438436 -0.01352342 -0.08319487
0000a0 b6 ad c5 bc 98 92 d6 3c ca 1b 7d 3d 47 7a 83 3c
       -0.024130683 0.026192948 0.06179408 0.016049517
0000b0 25 68 bf 3c f0 1f ab bd e5 63 0d 3b 1c 48 1e 3b
       0.02336509 -0.08355701 0.0021574434 0.0024151867
0000c0 85 64 40 3c 41 e8 6b 3d 16 06 51 3d ee 69 81 bd
       0.011742716 0.05759454 0.051031195 -0.063190326
0000d0 83 cd 95 3d 06 a2 56 3d 87 eb 14 3c 5a 5e 8a bd
       0.07314589 0.05240061 0.009089357 -0.067562774
0000e0 52 a1 07 3d 3f ae 16 3d f6 3c 3d bd 55 81 58 3d
       0.03311283 0.036787268 -0.046200715 0.052857716
0000f0 50 cd 47 3d 05 60 08 bd 02 f1 a9 bd 05 ea 77 bd
       0.048779786 -0.033294696 -0.08297922 -0.060525913
000100 c6 11 bb bd 39 9c 47 bc 34 cc 90 3d 86 fa 82 bd
       -0.091342494 -0.0121832425 0.07070199 -0.0639544
000110 0f 9b 63 bd 6a 7e 72 39 7b e0 99 bd 9d 07 08 bd
       -0.055567797 0.00023126011 -0.075135194 -0.033210386
000120 24 c4 fb bc 2e 86 1a 3d 6f ba 9e bb 49 95 b9 3a
       -0.030733176 0.03772562 -0.004844002 0.001415887
000130 4c e0 8a bd 8a 3e f4 3c f4 ef f6 bc 78 6f 8d bd
       -0.067810625 0.029814977 -0.030143715 -0.069060266
000140 9f 2a 50 3d eb 5b e6 3c 86 50 c7 bc b6 1e 83 3d
       0.050821897 0.028120002 -0.024330389 0.06402342
000150 02 98 95 3c 51 0a 1b 3d 42 c4 0a bd 3c 5e a8 bd
       0.01826096 0.037851635 -0.033878572 -0.08221099
000160 7e 83 76 bd 7e be a3 b8 72 39 8e bd 3b 47 3c 3d
       -0.060183994 -7.8079276e-05 -0.069445506 0.04596637
000170 e7 40 3c bd 9d cb 7d bd 70 7e 02 bd 4b 2b fb bb
       -0.045960333 -0.06196176 -0.03185886 -0.007665073
000180 8f 16 88 3d e2 d9 72 3d 9f 3c 24 3d b3 50 6f 3c
       0.06644928 0.05928982 0.040096875 0.014606643
000190 46 3f 47 bd b4 a0 17 bd 18 d6 e1 bc 7a cd 0b 3d
       -0.048644327 -0.037018493 -0.027567908 0.034131505
0001a0 fe ed f3 bc 7a 9e 81 3d 69 b0 0c bc b7 04 6b 3d
       -0.02977657 0.06329055 -0.008586981 0.057377543
0001b0 6d a2 28 bd fe b6 1a 3d d9 3e 6e 3c a9 d6 b1 bb
       -0.041170526 0.03777217 0.014541351 -0.005427201
0001c0 fa c9 96 bd b2 17 11 3d dc 0b a5 3c d0 09 90 3d
       -0.07362743 0.03542299 0.020147257 0.070331216
0001d0 1d ab f3 3c 4f 03 15 3d 1a e6 c6 3c fb 90 8d 3d
       0.02974468 0.03638011 0.024279643 0.069124185
0001e0 ff 40 a9 bd a8 98 67 bd 59 57 90 bc bd 15 5e 3c
       -0.0826435 -0.05654207 -0.017619776 0.0135549875
0001f0 89 ec 3e bd ab 08 9e 3d 9d 85 49 bc a7 81 88 bd
       -0.046612296 0.07716497 -0.012299922 -0.06665354

encoder_sol.W_o.weight f4 [128, 261]
000000 dc c1 3b bd aa cf 6e 3d 6e c0 67 bd a8 e0 a4 bc
       -0.045839176 0.058303513 -0.05658 -0.020126656
000010 e4 96 2f 3d b9 6b 4e 3d a4 f4 95 bd 67 b0 1a bd
       0.04286851 0.0503957 -0.07322052 -0.037765887
000020 92 16 81 bc f8 93 c2 3c a6 dd b5 bc 06 dd 74 3d
       -0.015757833 0.023752198 -0.022200417 0.059781097
000030 de 9b 26 bd 3e 7d 3d 3d 59 e7 5d 3d d8 1c 67 3d
       -0.04067599 0.04626202 0.05417571 0.056423992
000040 79 a9 fb 3c 8c 24 8b bc ac 10 3b 3d 98 5e c7 3c
       0.03072046 -0.0169852 0.045670196 0.024337098
000050 18 4f db 3c b2 d9 55 3d 06 60 16 bd 6f 93 57 bd
       0.026771113 0.052209564 -0.03671267 -0.052630838
000060 98 f8 84 3c 6c 0c dd 3c 52 93 02 3d a0 b8 0e 3c
       0.01623182 0.026983462 0.031878777 0.00871101
000070 f4 14 12 3d 30 bc 53 bc e0 6e 71 3b e4 50 c5 bc
       0.035664514 -0.012923285 0.0036839768 -0.024086423
000080 e0 99 50 3d 22 5d 74 3d 9d 0f 9b bb e0 b1 4e 3b
       0.050927997 0.05965913 -0.004732086 0.0031539127
000090 ac 57 16 3d 2c 96 84 3c 10 2f 0f 3d b0 ca 40 3d
       0.036704704 0.016184889 0.03495699 0.047068298
0000a0 6c c3 70 3d 2d 9f 27 bd 74 11 3f bc 7e d0 6e 3d
       0.05878012 -0.040923286 -0.011661876 0.058304302
0000b0 40 a7 aa 3a 98 9f e5 bc fc df b5 3c 84 9d 33 3d
       0.0013019815 -0.028030202 0.02220153 0.04385139
0000c0 aa c6 26 3d b8 4c ae 3c a8 82 f0 3c 18 e2 0c 3d
       0.040716805 0.021276817 0.029359177 0.034395307
0000d0 2f af 74 3d c8 87 13 3d 1e 44 3b 3d c0 63 2c 3c
       0.05973738 0.036018163 0.04571926 0.010521829
0000e0 3c 5e 6e bd 90 f4 06 bc 58 b5 7a 3c 20 99 e3 3b
       -0.058195338 -0.008237019 0.015302025 0.006945744
0000f0 e0 65 62 3d 8c c4 fc 3c 60 70 0c 3c b9 5b 6e bd
       0.055272937 0.03085544 0.008571714 -0.058192942
000100 24 4d 83 3c cc ec 74 3d 9a 1d 6f bd b2 ae 39 bd
       0.016027994 0.05979614 -0.05837784 -0.045332618
000110 e0 8c 4f 3c b4 ca 1a bc 4e e6 77 bd 80 0f 3b 3c
       0.012667865 -0.009447742 -0.06052237 0.01141727
000120 48 8d de bc 9b 6e 31 bd 9e cd ee bc 6a cb 52 3d
       -0.027166978 -0.043318372 -0.02915078 0.051463522
000130 f8 36 f3 3c 58 d1 9a bb 00 58 84 bb a8 b3 11 3d
       0.029689297 -0.0047246628 -0.0040388107 0.035571724
000140 0e cc 50 3d 3c 60 03 bd 6a 59 e2 bc 88 3e 67 bc
       0.05097585 -0.032074198 -0.027630527 -0.01411403
000150 22 8d 96 bc 70 2b ec 3b 88 16 40 3d 6c 68 b9 3c
       -0.018377844 0.0072073266 0.046896487 0.0226328
000160 f3 a9 55 bd b6 50 b3 bc 40 b3 50 3b 3c d6 0c bd
       -0.05216403 -0.021889072 0.0031845123 -0.034383997
000170 bc 99 a8 3c 30 5e 24 bc 32 99 2a bd f0 06 13 bd
       0.020581119 -0.010032222 -0.041650005 -0.035895288
000180 a0 22 b7 3c d4 1b b4 bc 88 97 1d 3d c0 bb 76 bb
       0.022355378 -0.021985926 0.03847459 -0.0037648529
000190 06 9f 11 bd a4 07 6b 3d 27 14 1f bd ab fa 09 3d
       -0.035552047 0.057380334 -0.03883758 0.03368632
0001a0 63 53 3b 3d 86 0e 07 bd 80 7c 1e 3b 70 82 96 bc
       0.04573382 -0.032972835 0.0024183095 -0.018372744
0001b0 a4 5c 83 3d 70 49 9d 3b 2a 1c 16 3b b0 9a a0 bb
       0.06414154 0.004800014 0.002290497 -0.0049012527
0001c0 df 99 7d 3d 98 fc ca 3c 1f 54 d2 bc 24 4b 5b bc
       0.06191432 0.02477865 -0.025674878 -0.013384614
0001d0 42 76 b9 bc 90 90 55 bd 6e ef 78 bd 78 38 03 bd
       -0.022639398 -0.05213982 -0.060775213 -0.032036275
0001e0 9e 95 10 bd 0a 23 46 3d bf ff 41 3d 3d ad 28 bd
       -0.035298936 0.04837326 0.04736304 -0.041180838
0001f0 40 f4 8e 3a 0a 82 b3 3c e5 6a 92 3c c7 e7 51 bd
       0.0010906532 0.021912593 0.017873237 -0.05124643
000200 84 95 35 bc e4 62 a5 3c c5 3a 7b bd 39 fb 5c 3d
       -0.011083011 0.020188756 -0.061335344 0.053950522
000210 e8 56 51 3b 7f c7 5a 3d a4 45 06 bd dd 0b 2d 3b
       0.003194267 0.05341291 -0.03278126 0.0026404776
000220 a3 1a 60 3d 71 60 ec bc 2b c6 45 bd d4 92 63 bd
       0.054712903 -0.02885458 -0.04828469 -0.055559948
000230 31 16 90 3a 08 b0 8d 3c f4 29 c3 3c 51 25 49 bd
       0.0010992942 0.017295852 0.023823716 -0.049107853
000240 70 20 25 bd 1e 4a 05 bd 53 fe 73 bd aa f4 65 bd
       -0.040314138 -0.032541387 -0.059568714 -0.056141533
000250 2a a5 68 bc 19 54 39 bd b1 c4 6e bc eb 57 0a bd
       -0.014199534 -0.045246217 -0.014573262 -0.03377525
000260 b8 46 7e 3d 01 77 d7 3c f7 9b 38 bd e6 3f 00 bd
       0.06207916 0.026301863 -0.045070615 -0.03131094
000270 4a 28 d4 3c 1d 6c 19 bc 94 8f 88 bb 70 c5 35 bd
       0.025898118 -0.009364155 -0.0041675065 -0.044377744
000280 1c c0 ba bc 4c 2f 94 bc f5 a7 31 bd 0c 32 e2 bc
       -0.022796683 -0.01808896 -0.043373067 -0.027611755
000290 c9 e1 37 3c ae f8 11 3d ee 16 33 3d 6a bb 14 3d
       0.011223265 0.03563755 0.04372304 0.036311544
0002a0 97 da c4 3b d8 e9 7a bc 9b 54 18 3d 16 15 48 3b
       0.0060075033 -0.015314542 0.03719006 0.0030530146
0002b0 b4 f1 dd bc d8 96 ea bc 34 f9 79 3c 37 50 11 3b
       -0.027092792 -0.028636381 0.015257169 0.0022173056
0002c0 f0 c9 2c 3d 5e 61 af bb 8c 31 e3 3c 41 19 39 bd
       0.04218477 -0.0053521832 0.027733587 -0.0451901
0002d0 ec b6 66 bd e6 fa 07 bd 0b df 55 3d 64 d5 fc 3c
       -0.05632679 -0.03319826 0.052214663 0.030863471
0002e0 bb 35 7b 3b 82 30 5f bd 96 49 7e 3d ea 97 b3 bc
       0.0038331586 -0.05448962 0.062081896 -0.021923024
0002f0 b3 1c 6d 3d e1 75 24 3d 89 5f 17 bc e7 45 d6 3c
       0.057888698 0.04015148 -0.009239086 0.026156379
000300 13 60 2c 3d e6 3a 3d bd 4c e5 02 3d 1c 7d a5 bc
       0.04208381 -0.046198748 0.031956956 -0.020201258
000310 23 28 a7 3c a9 71 4d 3d de 4e 14 3d 08 5d 1b 3d
       0.02040488 0.050157223 0.036208026 0.03793052
000320 a6 2d 1d 3d 3a 7b 35 3d 02 76 49 3c fb 07 84 bd
       0.038373612 0.04430697 0.012296202 -0.06446835
000330 8f 13 82 bd d4 c2 48 3c 6c 93 33 3d eb 95 68 bd
       -0.06351387 0.012253482 0.043841764 -0.056783598
000340 ad 0e 50 bd e7 50 c6 3c d0 b8 69 3c 46 9d 21 bd
       -0.050795246 0.0242085 0.014265254 -0.03945663
000350 8c f2 b8 bc 75 2b 1c 3d 6a 54 14 bd 88 85 d0 bc
       -0.022576593 0.03812738 -0.036213316 -0.025454298
000360 6d 74 75 bd d2 69 e1 3c 70 ad a5 3d d3 af 5f bd
       -0.059925485 0.02751628 0.08089721 -0.05461104
000370 9d f8 37 bc 81 51 88 3c 12 d0 2e bd fc 35 5a 3d
       -0.011228708 0.016640427 -0.0426789 0.05327414
000380 59 9a 9d 3c 51 63 ee bc ce f3 ed ba 27 3a 86 bc
       0.019238638 -0.029100092 -0.0018154324 -0.016385151
000390 25 d5 ce 3b d2 5a eb bb b2 b7 c7 3a 81 86 11 bd
       0.00631203 -0.0071824575 0.0015237241 -0.035528664
0003a0 fd 52 30 bd 7e 63 5e bd 2b 3c d0 bc a5 ce 9b 3b
       -0.043047894 -0.054294102 -0.025419315 0.0047548586
0003b0 cc 8d 1b bd 6b 24 33 3d ca e0 b4 b9 6f ae ed bc
       -0.037977025 0.043735903 -0.00034499756 -0.02901384
0003c0 23 ad 3a 3d 53 31 25 3d 03 04 ee 3c 8a 3b 8a 3c
       0.045575272 0.040330242 0.029054647 0.016874094
0003d0 dc 2f 84 bc 54 ac c1 3c d5 2d ab 3c 13 00 14 3d
       -0.016136102 0.023641743 0.020895878 0.036132883
0003e0 58 67 87 3c 94 86 d1 3c 45 6d 19 bd 53 90 5e bc
       0.01652877 0.025576867 -0.037457723 -0.013584214
0003f0 0d e3 83 bd 25 8f 9a 3c f2 7e fd 3c 16 06 e2 bc
       -0.06439791 0.018867085 0.030944321 -0.027590793

encoder_sol.W_o.bias f4 [128]
000000 64 78 b3 3c 29 6d 1f bd 65 cd 24 3d 5b 6e 5c 3d
       0.021907993 -0.038922463 0.040234942 0.05381618
000010 32 9a 38 bd 49 74 6b bc 21 1d 5e bd c8 1f 5e bd
       -0.045068927 -0.014370986 -0.054227 -0.054229528
000020 db 10 17 ba 1b 4e 1b 3d 9b 1c 30 3d 92 19 2a 3d
       -0.00057627045 0.037916284 0.04299603 0.041528292
000030 ad 3c cc bc 61 e1 7b bd d2 ec 91 bc be aa 08 3d
       -0.024931276 -0.061494235 -0.01781312 0.033365957
000040 63 ca 8e 3d ef 49 54 bd 97 bf bf bc 7a 60 22 3c
       0.06972196 -0.05182832 -0.023406787 0.009910697
000050 2a 5a 9a 3c 47 cb f2 3c 05 d2 40 3c 02 ef 77 bd
       0.018841822 0.029637946 0.011768823 -0.06053067
000060 32 9d 5f 3d bf 50 14 3d d2 4a bf bc c9 e9 64 bc
       0.054593273 0.036209818 -0.023351107 -0.013971754
000070 a1 c0 d0 bc 84 33 70 bd 73 82 0b 3d 5f 06 2b 3d
       -0.025482478 -0.05864288 0.034059953 0.041754123
000080 91 2e c8 bc f7 7f 9e bb a7 e4 2d 3a 17 41 66 3d
       -0.024436267 -0.004837032 0.0006633498 0.05621442
000090 a5 57 01 3d ed 9f 0c 3d e8 24 ca bc 80 ee 41 3d
       0.031577725 0.034332205 -0.024675801 0.047346592
0000a0 5e 72 87 bc 88 8b 55 bd 1e 3d b8 3c ad 88 25 bc
       -0.016534027 -0.05213502 0.02249008 -0.010103387
0000b0 2f 40 33 bd 0c 24 82 3c e9 1d 6b bd 75 9b 6c bd
       -0.043762382 0.01588633 -0.05740157 -0.057765443
0000c0 72 ff 7e bd 1f 48 47 3d fe 74 9d bb d3 b5 23 bd
       -0.06225533 0.048652764 -0.0048052063 -0.039968323
0000d0 7e dd fa 3b 76 de ec bc 46 81 65 bd 96 9f 82 bc
       0.0076557985 -0.028914671 -0.056031488 -0.015945237
0000e0 79 30 95 bc 63 bf 38 3d bc 84 42 3d 4d bf da bc
       -0.01821159 0.045104396 0.047489867 -0.026702547
0000f0 55 c9 33 bd 46 c6 aa bc 63 e4 8d bb a2 7b 14 3d
       -0.043893177 -0.020846497 -0.0043302043 0.036250718
000100 bf 62 28 3c e6 86 87 bd 3c 9b 61 bd 69 10 d0 bb
       0.010277449 -0.06617527 -0.055079684 -0.0063496125
000110 2b b6 c5 bc d2 50 72 bd 32 6f 42 bd 2f f6 5e bd
       -0.024134716 -0.059159108 -0.047469325 -0.054433998
000120 fb a1 29 3d 35 8e 88 bd af 1d 2b bd 8d db 61 3c
       0.041414242 -0.06667749 -0.041776355 0.013785255
000130 e2 41 88 3d 51 c7 af 3c dc d0 55 3d 11 9b 1c 3d
       0.06653191 0.021457346 0.052201137 0.03823382
000140 77 a0 bc bc 33 c0 34 3d 65 0c 2c 3d ed 83 0a 3c
       -0.023025734 0.044128608 0.042004008 0.008454305
000150 84 19 aa 3c 45 ea b5 3c 9c c2 dd bc d7 3b d1 bb
       0.02076412 0.022206435 -0.027070336 -0.0063853073
000160 dd 96 1a bd 8a fe 4d 3d ec af cc 3b 60 88 5e 3b
       -0.03774153 0.050291575 0.0062465575 0.0033955798
000170 d4 f6 5d bd b7 b3 01 3c d7 02 1a bd d9 cf 7e bd
       -0.05419047 0.0079163825 -0.037600365 -0.062209938
000180 0c 0a 07 3d f6 dd cf bc 11 63 30 bc f7 ec cc 3c
       0.032968566 -0.025374394 -0.010765807 0.025015337
000190 98 70 3d 3d 2f b3 e8 bc 2c c1 1b bd 29 8b e0 bc
       0.046249956 -0.028405754 -0.03802602 -0.027410107
0001a0 35 2f b8 bc 63 5d 98 3c f0 c9 3c 3d ae 73 5e bc
       -0.022483448 0.018599218 0.04609102 -0.013577385
0001b0 b1 10 65 bc 11 46 8e 3b bd c0 20 bd 8e 28 4a 3c
       -0.01398103 0.0043418487 -0.03924631 0.012338771
0001c0 3c 8b 2e bd 22 e5 26 bd 68 60 75 3d f3 51 1b 3c
       -0.042613253 -0.04074586 0.059906393 0.009479987
0001d0 4b de dc bc 1d 65 55 bd 20 e6 49 3b 91 8c 1b bb
       -0.026961466 -0.052098382 0.0030807331 -0.0023734907
0001e0 03 34 eb 3c c6 f0 48 bd eb 37 10 3c 3f 13 09 3d
       0.028711325 -0.049057744 0.008802394 0.03346562
0001f0 35 f6 b7 bc bd 5e 3e 3d 01 c9 18 bd 73 d9 77 bd
       -0.022456268 0.04647707 -0.037301067 -0.06051011

encoder_solv.cached_zero_vector f4 [128]
000000 00 00 00 00 00 00 00 00 00 00 00 00 00 00 00 00
       0.0 0.0 0.0 0.0
000010 00 00 00 00 00 00 00 00 00 00 00 00 00 00 00 00
       0.0 0.0 0.0 0.0
000020 00 00 00 00 00 00 00 00 00 00 00 00 00 00 00 00
       0.0 0.0 0.0 0.0
000030 00 00 00 00 00 00 00 00 00 00 00 00 00 00 00 00
       0.0 0.0 0.0 0.0
000040 00 00 00 00 00 00 00 00 00 00 00 00 00 00 00 00
       0.0 0.0 0.0 0.0
000050 00 00 00 00 00 00 00 00 00 00 00 00 00 00 00 00
       0.0 0.0 0.0 0.0
000060 00 00 00 00 00 00 00 00 00 00 00 00 00 00 00 00
       0.0 0.0 0.0 0.0
000070 00 00 00 00 00 00 00 00 00 00 00 00 00 00 00 00
       0.0 0.0 0.0 0.0
000080 00 00 00 00 00 00 00 00 00 00 00 00 00 00 00 00
       0.0 0.0 0.0 0.0
000090 00 00 00 00 00 00 00 00 00 00 00 00 00 00 00 00
       0.0 0.0 0.0 0.0
0000a0 00 00 00 00 00 00 00 00 00 00 00 00 00 00 00 00
       0.0 0.0 0.0 0.0
0000b0 00 00 00 00 00 00 00 00 00 00 00 00 00 00 00 00
       0.0 0.0 0.0 0.0
0000c0 00 00 00 00 00 00 00 00 00 00 00 00 00 00 00 00
       0.0 0.0 0.0 0.0
0000d0 00 00 00 00 00 00 00 00 00 00 00 00 00 00 00 00
       0.0 0.0 0.0 0.0
0000e0 00 00 00 00 00 00 00 00 00 00 00 00 00 00 00 00
       0.0 0.0 0.0 0.0
0000f0 00 00 00 00 00 00 00 00 00 00 00 00 00 00 00 00
       0.0 0.0 0.0 0.0
000100 00 00 00 00 00 00 00 00 00 00 00 00 00 00 00 00
       0.0 0.0 0.0 0.0
000110 00 00 00 00 00 00 00 00 00 00 00 00 00 00 00 00
       0.0 0.0 0.0 0.0
000120 00 00 00 00 00 00 00 00 00 00 00 00 00 00 00 00
       0.0 0.0 0.0 0.0
000130 00 00 00 00 00 00 00 00 00 00 00 00 00 00 00 00
       0.0 0.0 0.0 0.0
000140 00 00 00 00 00 00 00 00 00 00 00 00 00 00 00 00
       0.0 0.0 0.0 0.0
000150 00 00 00 00 00 00 00 00 00 00 00 00 00 00 00 00
       0.0 0.0 0.0 0.0
000160 00 00 00 00 00 00 00 00 00 00 00 00 00 00 00 00
       0.0 0.0 0.0 0.0
000170 00 00 00 00 00 00 00 00 00 00 00 00 00 00 00 00
       0.0 0.0 0.0 0.0
000180 00 00 00 00 00 00 00 00 00 00 00 00 00 00 00 00
       0.0 0.0 0.0 0.0
000190 00 00 00 00 00 00 00 00 00 00 00 00 00 00 00 00
       0.0 0.0 0.0 0.0
0001a0 00 00 00 00 00 00 00 00 00 00 00 00 00 00 00 00
       0.0 0.0 0.0 0.0
0001b0 00 00 00 00 00 00 00 00 00 00 00 00 00 00 00 00
       0.0 0.0 0.0 0.0
0001c0 00 00 00 00 00 00 00 00 00 00 00 00 00 00 00 00
       0.0 0.0 0.0 0.0
0001d0 00 00 00 00 00 00 00 00 00 00 00 00 00 00 00 00
       0.0 0.0 0.0 0.0
0001e0 00 00 00 00 00 00 00 00 00 00 00 00 00 00 00 00
       0.0 0.0 0.0 0.0
0001f0 00 00 00 00 00 00 00 00 00 00 00 00 00 00 00 00
       0.0 0.0 0.0 0.0

encoder_solv.W_i.weight f4 [128, 133]
000000 17 53 36 bd 52 8f b1 bd 80 db d8 3a cc 67 d4 3c
       -0.044512834 -0.08669914 0.0016544908 0.0259284
000010 08 ac c4 bd 4a 62 c7 3c 84 38 c4 bc c2 98 af 3b
       -0.09603125 0.02433886 -0.02395273 0.0053587863
000020 8b c0 95 bd 22 92 53 3d 04 c3 ee bc 99 46 99 3d
       -0.07312115 0.051653035 -0.029145725 0.074841686
000030 5c f5 50 bd a3 01 99 3d 2d 57 22 bd 2c 38 89 3c
       -0.051015243 0.07471015 -0.03963392 0.016750418
000040 ad 77 98 3d 2b ca 9f 3d 5e 6e b0 bd ae d0 29 3d
       0.07444701 0.07802232 -0.08614801 0.041458778
000050 ec 3d ca 3c 3f f2 97 3d c2 0b 43 bd 00 44 0c 3d
       0.02468773 0.07419252 -0.047618635 0.034244537
000060 1a 0a 38 3d 43 a2 8a 3d 90 3d 84 bc f0 8b 33 bc
       0.04493151 0.0676923 -0.016142637 -0.010958657
000070 62 55 69 bd 40 0d a5 bc d0 b4 63 3c a6 50 7a 3d
       -0.056966193 -0.02014792 0.0138980895 0.06111207
000080 f7 90 42 bd dc 98 ec 3c 9b 10 29 bd 0e 62 7b 3d
       -0.04750153 0.028881483 -0.0412756 0.06137281
000090 40 f2 b7 bb 28 08 25 bd 20 a8 ce 3b 6a d2 80 bd
       -0.0056135952 -0.04029098 0.006306663 -0.06290133
0000a0 b8 8e 33 3c 18 24 b2 bc a5 4b a3 3d ac b4 e2 3c
       0.01095932 -0.021745726 0.079734124 0.027674042
0000b0 16 bb 1c bd 2c 00 16 bd 27 82 91 3d 8e 5f 39 3d
       -0.038264357 -0.036621258 0.07104903 0.045257144
0000c0 74 3f e2 bc b2 c5 2b 3d 87 57 1e bd e0 02 db bc
       -0.027618147 0.041936584 -0.03865769 -0.02673477
0000d0 55 53 a1 bc b4 af 85 bd 70 37 6c bd 94 e3 bd bc
       -0.019693056 -0.06527653 -0.057670057 -0.023179807
0000e0 46 c6 78 3d a0 3a 46 3b a0 ee b9 bb bc 3e f1 bc
       0.060735963 0.0030247346 -0.0056741983 -0.02944886
0000f0 f3 22 a8 3d 12 1d af bd 7e 6a 61 bd ab 09 a5 3d
       0.08209791 -0.085504666 -0.0550332 0.08058485
000100 2a 26 3a bd 28 3f 11 bc 80 7c b6 3a d7 51 ae bd
       -0.045446552 -0.008865155 0.0013922602 -0.085117035
000110 5a c6 7e bd 4f e7 88 3d 00 67 67 3c 7e f3 26 bd
       -0.06220088 0.066847436 0.014123678 -0.040759556
000120 b4 b3 a1 3c 8e 2c 64 3d fc 0f ff 3c dc e9 d7 bc
       0.01973901 0.055706553 0.031135552 -0.02635663
000130 38 0b 03 3d b8 63 89 bc 02 f2 3c bd 2e 58 6e 3d
       0.03199312 -0.016771182 -0.046129234 0.058189563
000140 1a 71 2b 3d a4 53 03 3d 5a fd 96 bd be 61 7e 3d
       0.04185591 0.032062188 -0.07372542 0.062104933
000150 f4 d6 a8 3c 78 ff 1c bc 69 fc 99 3d d5 da 49 bd
       0.02061031 -0.009582393 0.075188465 -0.04928096
000160 4c da da bc 51 c8 9f 3d ae cc 28 3d c0 97 f1 3a
       -0.02671542 0.07801879 0.041210823 0.0018432066
000170 36 51 97 bd b8 3c 10 3d 43 0a 88 3d 8a 28 75 3d
       -0.07388537 0.035214156 0.06642582 0.059853114
000180 92 56 a8 bd ba 34 85 bd a6 0e 22 bd 00 19 01 bc
       -0.08219637 -0.065041974 -0.03956475 -0.007879496
000190 d2 b2 20 3d 61 41 50 bd f7 4e 21 3d 2a 67 68 3d
       0.039233036 -0.0508436 0.039381947 0.05673901
0001a0 1f a7 4a bd 16 31 7f 3b 08 49 91 3c 01 11 8e bd
       -0.049475785 0.003893917 0.01773502 -0.06936837
0001b0 4f d8 a5 bd 7e f0 47 bd 61 e5 36 bd 30 87 85 3b
       -0.08097898 -0.048813336 -0.044652347 0.0040749535
0001c0 0a b7 a0 3d 9e b0 23 3d 4d 1d 65 bc 93 92 97 3d
       0.07847412 0.039963357 -0.013984037 0.07401004
0001d0 1b d5 88 3d dc 14 99 bc e9 b6 a2 3d b1 d4 8a 3d
       0.06681272 -0.018686704 0.079450436 0.06778849
0001e0 21 94 38 3d e4 82 c1 3d 42 d5 b9 bc 30 d5 9e bc
       0.04506314 0.094487935 -0.022684697 -0.019388765
0001f0 cb 49 b0 3d 01 14 89 bd 85 7b 89 3d 60 2f df bc
       0.08607825 -0.066932686 0.067130126 -0.02724427
000200 b6 14 00 3d 70 b1 aa 3c 20 fa 23 3c 46 f1 a4 3d
       0.03126975 0.020836562 0.010008365 0.08053832
000210 2a e2 da bc 61 8b 9e 3d 0a 6d 9d bd 44 06 95 bc
       -0.026719172 0.07741428 -0.07686813 -0.018191464
000220 66 8c f5 bc 31 75 85 3c a5 de b4 3c 3b 1d 0a 3d
       -0.029974174 0.016291233 0.022078821 0.033719283
000230 17 44 0f 3d 76 79 0e be ee 83 48 3d 41 96 83 3d
       0.034977045 -0.13913521 0.048953943 0.06425143
000240 52 b5 e5 bc dc cc 48 bd e0 80 06 bb 12 5e ba bb
       -0.028040562 -0.049023494 -0.0020523593 -0.0056874836
000250 61 77 eb 3d 49 e3 bf 3d c7 6b 02 bd e2 99 4b 3d
       0.11497379 0.09369523 -0.031841066 0.0497073
000260 3c 1d f0 bc b6 db 20 3d a3 37 17 bd 7c ca 9b bd
       -0.029310815 0.039272033 -0.036918294 -0.0760698
000270 08 93 51 3c 72 96 46 3d 80 3a bd bb ae f4 04 3d
       0.012791403 0.04848332 -0.005774796 0.032459907
000280 78 16 ab bc 4d 38 4e bd be d9 0c 3d 0b 0b ac 3d
       -0.020884737 -0.05034666 0.034387343 0.08400544
000290 e8 37 af bc 48 c9 c0 bc 4c 20 aa 3c c7 bb 54 bd
       -0.021388963 -0.023533478 0.020767353 -0.05193689
0002a0 42 a4 60 3d cb 2a a6 bd 02 b4 38 3d 9e b6 5c 3d
       0.05484415 -0.08113631 0.045093544 0.053885095
0002b0 58 43 bb 3c 57 8d 98 3d 68 99 2f bc f5 79 88 bd
       0.02285926 0.074488334 -0.010717727 -0.066638865
0002c0 fe e2 47 3d 49 56 aa 3d 28 51 3f bc 90 10 f0 bb
       0.04880046 0.08317239 -0.011677064 -0.007326193
0002d0 fd b8 a0 3d 9a 24 d0 bc 1c 58 16 3d 30 43 dc 3c
       0.07847784 -0.025408078 0.03670512 0.026887506
0002e0 65 31 a2 3d d5 ee ac bc eb 3e 9c 3d 2e 93 96 bd
       0.079195775 -0.021109978 0.07629188 -0.07352291
0002f0 46 ff 51 3d 8e 1c 1d 3d 5a aa 7c bd 6c 27 a1 bc
       0.05126884 0.03835731 -0.061685897 -0.019672118
000300 60 20 1d bc 4c fa 84 bc 78 22 6f 3c 9d 6e 78 bd
       -0.009590238 -0.016232632 0.01459562 -0.060652364
000310 00 bf 66 bb 78 43 23 3c 27 52 90 3d a0 3b 46 3c
       -0.003520906 0.009964816 0.07046919 0.012099177
000320 de ea 10 bd 80 0a 15 3c 11 a3 7c bd 48 ed dd 3c
       -0.035380237 0.009096742 -0.06167895 0.027090684
000330 88 30 13 3d 08 4f ca 3c d0 b0 9c bd b6 79 72 3d
       0.035934955 0.024695888 -0.07650912 0.059198104
000340 05 24 8b 3d 76 6a 63 3d e0 07 9f bc 67 67 06 bd
       0.067939796 0.05552145 -0.019412935 -0.032813456
000350 e7 2a 04 bd 92 b8 46 3d 90 74 1e bd 1b fe 3a bd
       -0.032267477 0.048515864 -0.03868538 -0.04565249
000360 45 2d 39 bd 80 2b 41 3c 70 cb aa 3b 02 a5 32 3d
       -0.045209188 0.011790156 0.00521224 0.043614395
000370 5a 5e 1e 3d c0 90 8b 3a f1 a0 87 bd 55 84 88 3d
       0.0386642 0.0010647997 -0.06622494 0.06665865
000380 14 1f d6 3c 90 2a 76 bc 1f e0 a1 3d 80 87 34 3c
       0.026137866 -0.015024796 0.07904076 0.011018634
000390 72 eb 40 3d da 66 37 bd 84 d8 85 bd b0 d6 f2 bc
       0.04709954 -0.04477582 -0.06535438 -0.029643387
0003a0 00 02 29 3c 96 2d 57 3d a8 d5 ba 3c db c2 4a bc
       0.010315418 0.05253371 0.022806957 -0.012375559
0003b0 c3 74 9b 3d af e9 ba bc c2 9e c4 bd c0 5e 8d bd
       0.0759063 -0.022816507 -0.09600593 -0.06902838
0003c0 3e 22 ca bc 65 14 56 3c 4e 95 98 bd f4 bd 7c bd
       -0.024674531 0.013066386 -0.074503526 -0.06170459
0003d0 8c 12 81 bd 17 a6 23 bd 44 ea 96 bd 1e 47 0e 3d
       -0.06302366 -0.039953317 -0.07368901 0.03473579
0003e0 00 1c d5 b8 a7 b9 5e bd fa 34 4b 3d aa 95 6b bd
       -0.00010161847 -0.05437627 0.04961107 -0.057515778
0003f0 e6 8a 87 3d 1f 37 ab bd 56 eb ab bd 6d 6c a0 bd
       0.0661829 -0.08360123 -0.08394496 -0.078331806

encoder_solv.W_i.bias f4 [128]
000000 ce d1 4f 3d 0e fb b4 bd f0 a6 13 3d ed 3e b0 bd
       0.050737195 -0.088369474 0.036047876 -0.08605752
000010 10 18 4a 3d 89 37 2a bd ec 12 46 bd f4 16 25 3d
       0.049339354 -0.04155687 -0.04835789 0.040305093
000020 b5 3a 6f 3d cb 18 96 bd 80 bf 78 bd 0a 2b 00 3c
       0.058405597 -0.07328948 -0.060729504 0.007822761
000030 3a 4b 12 bd 6e e2 fd bc f5 be 88 3d 6f e6 18 3d
       -0.035716273 -0.03099176 0.06677047 0.037329134
000040 5f df 8c 3d 53 23 0c 3d d3 43 c2 bc 9f b2 98 bd
       0.06878542 0.034213375 -0.023713982 -0.07455944
000050 dd f6 07 bd 30 4b 12 3d f8 75 c6 3b 3a c0 da 3b
       -0.03319441 0.035716236 0.0060565434 0.006675747
000060 bf 75 38 3d 20 41 b6 3d 9f 80 e2 3c c1 0f 8c 3c
       0.045034166 0.0889914 0.027649222 0.017097356
000070 26 bf 80 bc b1 60 89 bc 74 f5 1b 3d 5a ec 3c 3d
       -0.015716147 -0.016769739 0.03807588 0.04612384
000080 32 8a 8c 3d 89 6f 1d bd d5 8d 94 3d 03 ba 7e 3d
       0.06862296 -0.038436446 0.07253615 0.062189113
000090 18 6e 98 3c ea 53 3a bd da ba 39 bd e6 40 c0 bc
       0.018607184 -0.045490183 -0.04534421 -0.023468446
0000a0 de f9 15 bd 1f 21 03 3c bd 3a 91 bd 81 0c 6d bd
       -0.036615245 0.008003502 -0.070912816 -0.057873253
0000b0 09 8c 47 3d ae f5 94 bc 95 c8 0b 3d 73 7c 70 bd
       0.048717532 -0.018183555 0.034126837 -0.058712434
0000c0 08 bc a5 bd aa 09 0c bd ee 42 2f 3d cf 6a 83 3d
       -0.08092505 -0.034188904 0.04278844 0.064168565
0000d0 38 ee 55 3d 34 1c 3f bd 6c 79 91 bd 46 a9 ca 3c
       0.052229136 -0.046657756 -0.071032375 0.024738919
0000e0 71 9a 7a bd 04 7b 64 3d 38 32 f8 bc 17 40 78 bd
       -0.061182443 0.05578138 -0.030297384 -0.060607996
0000f0 e9 a3 01 bb 4a a2 be bd 09 70 11 3d 85 fe 0c 3c
       -0.0019781536 -0.09308298 0.035507236 0.008605604
000100 b1 65 91 3d 10 d3 cd ba ab aa 85 3d 96 be 4d 3b
       0.07099474 -0.001570316 0.06526693 0.0031394116
000110 87 b1 b5 3b 01 b6 98 bd 2e a2 63 3c 17 ae 80 bd
       0.0055448445 -0.074565895 0.013893647 -0.06283205
000120 83 33 60 bd b5 c1 85 3d 51 a3 19 3d f4 8a ec 3c
       -0.054736625 0.06531087 0.037509266 0.028874852
000130 a3 7a bc bc a9 78 0f 3c 9e c0 dc bb 91 bc 9b 3d
       -0.023007696 0.008756795 -0.006736829 0.076043256
000140 89 90 1b bd c5 ae 25 3d c3 c3 b7 bc 73 3a 96 bb
       -0.037979636 0.040449876 -0.022432214 -0.0045846044
000150 2f c4 4d bd 86 14 15 bb e0 89 28 3d 08 37 84 bd
       -0.050235923 -0.0022747829 0.041147113 -0.06455809
000160 d4 94 79 bd b1 3e 70 3d 35 0c 72 3d 62 ad 11 3d
       -0.06093295 0.058653537 0.059093673 0.03556574
000170 f8 c0 39 bd ce 38 75 bc cc 12 4e bd 5b 16 b1 3d
       -0.045350045 -0.014967157 -0.050310895 0.08646842
000180 ff 00 0d bd 70 ba 55 bd cd 55 30 bd f6 c1 0e bb
       -0.034424778 -0.052179754 -0.043050576 -0.002178309
000190 1d fd 8e bd e1 1d 90 bb 0a f9 80 3d fc bf 85 3c
       -0.06981871 -0.004398093 0.062975004 0.016326897
0001a0 fb c9 58 3d 89 e5 6b 3b 17 00 25 bc 9c 45 96 bd
       0.052927 0.0035994968 -0.010070822 -0.07337496
0001b0 5e ec 2e 3d 8c 8d 26 3d da 30 8d bd 6e e8 34 bd
       0.042705886 0.040662333 -0.06894083 -0.044166975
0001c0 04 97 fc 3c a8 2b 91 bd aa 0e c5 bd 5b 40 34 3d
       0.030833729 -0.07088405 -0.096219376 0.044006687
0001d0 98 71 b4 3b 22 e5 f5 bc 39 13 e2 3c 19 55 15 3d
       0.0055067055 -0.030016486 0.027597057 0.03645811
0001e0 21 ae f2 3c b2 67 a2 bc a1 b1 4b bd 72 26 90 bd
       0.029624047 -0.019824836 -0.049729947 -0.07038583
0001f0 f1 2f 02 3d f9 3c a3 bd d6 59 80 bd f7 79 24 bc
       0.031784 -0.07970614 -0.06267135 -0.010038844
