THESIS/checkpoints/D-MPNN.pt (torch, 558709 bytes, 15 tensors)

encoder_sol.cached_zero_vector f4 [128]
000000 00 00 00 00 00 00 00 00 00 00 00 00 00 00 00 00
       0.0 0.0 0.0 0.0
000010 00 00 00 00 00 00 00 00 00 00 00 00 00 00 00 00
       0.0 0.0 0.0 0.0
000020 00 00 00 00 00 00 00 00 00 00 00 00 00 00 00 00
       0.0 0.0 0.0 0.0
000030 00 00 00 00 00 00 00 00 00 00 00 00 00 00 00 00
       0.0 0.0 0.0 0.0
000040 00 00 00 00 00 00 00 00 00 00 00 00 00 00 00 00
       0.0 0.0 0.0 0.0
000050 00 00 00 00 00 00 00 00 00 00 00 00 00 00 00 00
       0.0 0.0 0.0 0.0
000060 00 00 00 00 00 00 00 00 00 00 00 00 00 00 00 00
       0.0 0.0 0.0 0.0
000070 00 00 00 00 00 00 00 00 00 00 00 00 00 00 00 00
       0.0 0.0 0.0 0.0
000080 00 00 00 00 00 00 00 00 00 00 00 00 00 00 00 00
       0.0 0.0 0.0 0.0
000090 00 00 00 00 00 00 00 00 00 00 00 00 00 00 00 00
       0.0 0.0 0.0 0.0
0000a0 00 00 00 00 00 00 00 00 00 00 00 00 00 00 00 00
       0.0 0.0 0.0 0.0
0000b0 00 00 00 00 00 00 00 00 00 00 00 00 00 00 00 00
       0.0 0.0 0.0 0.0
0000c0 00 00 00 00 00 00 00 00 00 00 00 00 00 00 00 00
       0.0 0.0 0.0 0.0
0000d0 00 00 00 00 00 00 00 00 00 00 00 00 00 00 00 00
       0.0 0.0 0.0 0.0
0000e0 00 00 00 00 00 00 00 00 00 00 00 00 00 00 00 00
       0.0 0.0 0.0 0.0
0000f0 00 00 00 00 00 00 00 00 00 00 00 00 00 00 00 00
       0.0 0.0 0.0 0.0
000100 00 00 00 00 00 00 00 00 00 00 00 00 00 00 00 00
       0.0 0.0 0.0 0.0
000110 00 00 00 00 00 00 00 00 00 00 00 00 00 00 00 00
       0.0 0.0 0.0 0.0
000120 00 00 00 00 00 00 00 00 00 00 00 00 00 00 00 00
       0.0 0.0 0.0 0.0
000130 00 00 00 00 00 00 00 00 00 00 00 00 00 00 00 00
       0.0 0.0 0.0 0.0
000140 00 00 00 00 00 00 00 00 00 00 00 00 00 00 00 00
       0.0 0.0 0.0 0.0
000150 00 00 00 00 00 00 00 00 00 00 00 00 00 00 00 00
       0.0 0.0 0.0 0.0
000160 00 00 00 00 00 00 00 00 00 00 00 00 00 00 00 00
       0.0 0.0 0.0 0.0
000170 00 00 00 00 00 00 00 00 00 00 00 00 00 00 00 00
       0.0 0.0 0.0 0.0
000180 00 00 00 00 00 00 00 00 00 00 00 00 00 00 00 00
       0.0 0.0 0.0 0.0
000190 00 00 00 00 00 00 00 00 00 00 00 00 00 00 00 00
       0.0 0.0 0.0 0.0
0001a0 00 00 00 00 00 00 00 00 00 00 00 00 00 00 00 00
       0.0 0.0 0.0 0.0
0001b0 00 00 00 00 00 00 00 00 00 00 00 00 00 00 00 00
       0.0 0.0 0.0 0.0
0001c0 00 00 00 00 00 00 00 00 00 00 00 00 00 00 00 00
       0.0 0.0 0.0 0.0
0001d0 00 00 00 00 00 00 00 00 00 00 00 00 00 00 00 00
       0.0 0.0 0.0 0.0
0001e0 00 00 00 00 00 00 00 00 00 00 00 00 00 00 00 00
       0.0 0.0 0.0 0.0
0001f0 00 00 00 00 00 00 00 00 00 00 00 00 00 00 00 00
       0.0 0.0 0.0 0.0

encoder_sol.W_i.weight f4 [128, 147]
000000 c1 07 14 bd 68 30 30 3c 28 5f 2a 3c d5 f8 3a bd
       -0.036140207 0.010753728 0.010398664 -0.04564746
000010 e8 c7 52 3c c1 06 ed bd 50 95 bb 3d 79 bb 55 bd
       0.012865044 -0.11573554 0.091593385 -0.05218074
000020 21 aa e9 bd 10 51 b5 3b 88 aa 7d 3c f8 58 24 3c
       -0.11409403 0.005533345 0.015482552 0.010030977
000030 d8 a0 ea 3c 8b a3 fd bd 73 4c bc 3d 0c db 28 3e
       0.02864115 -0.12384709 0.09194269 0.1648981
000040 1a 9f 0e 3e 20 93 38 3b 00 5a e5 ba 05 73 8c bd
       0.1392788 0.0028163865 -0.0017498136 -0.06857876
000050 9a 14 ad bc e0 e0 82 3c 7c f7 a5 bd 60 b7 7a 3d
       -0.021127988 0.01597637 -0.081038445 0.061210036
000060 9b 1e a3 bd c0 7b 0b 3c ae 03 9d 3d 78 e1 14 bd
       -0.07964822 0.008513391 0.076667175 -0.036347836
000070 50 6c b9 3c 58 f2 a5 3d ca 56 a1 bd dc 81 55 3d
       0.022634655 0.08102864 -0.07877882 0.052125797
000080 a8 e9 72 bd 6e 9b 9c bd 79 bc 9f bc a8 34 cc 3c
       -0.059304863 -0.07646833 -0.01949905 0.024927452
000090 8f ad a8 bd 22 3d 06 3d 2e 5e 63 bd 28 1f 7e 3d
       -0.08236229 0.032773145 -0.05550974 0.06204143
0000a0 50 24 ba 3c 0e 8e 82 bd 2d 2b a2 bd d0 cb 8f 3d
       0.022722393 -0.06374751 -0.079183914 0.07021296
0000b0 40 b4 3b 3c 28 d6 49 3d fc d5 a7 bd e0 7a 0a bd
       0.011456549 0.0492765 -0.08195111 -0.03380859
0000c0 b0 16 14 3c 80 33 44 ba d9 84 a4 bd 4e 58 67 bd
       0.009038612 -0.0007484481 -0.08033151 -0.0564807
0000d0 bc a7 92 3d 34 2d 37 3d 90 74 5d 3d 6f 1d 22 bd
       0.07160899 0.044720843 0.05406624 -0.03957885
0000e0 58 e9 9d 3d be 6a 80 bd 7c fc 37 bd 38 9f 9c 3d
       0.077105224 -0.062703595 -0.044918522 0.07647556
0000f0 40 78 ba ba 70 d6 72 3d 8c df e1 bc 84 e4 49 3d
       -0.0014226511 0.059286535 -0.027572416 0.049290195
000100 00 89 f0 3c 1f cf 0b bd 74 69 90 3d 40 bc 33 3d
       0.029362202 -0.034133073 0.070513636 0.0438807
000110 40 c9 d9 bc 3e cf cf bc a8 c1 78 3d e0 4d 42 3b
       -0.026585221 -0.025367375 0.06073156 0.0029648468
000120 c0 f3 3a 3d 18 33 00 3c f8 05 cc 3c 0b fc 92 bd
       0.045642614 0.007824682 0.02490519 -0.0717698
000130 d8 f4 33 bc 5c 4a f7 3c e4 b5 51 3d 9f 31 3e bd
       -0.010983668 0.030186825 0.051198855 -0.04643404
000140 60 5a 90 3d 52 cb 19 bd c2 7f 25 3d 6a cc 94 3d
       0.07048488 -0.037547417 0.040405042 0.072655514
000150 08 b6 44 3c e0 1f 9a 3d 74 ec 68 3d c8 55 2b 3c
       0.01200629 0.07525611 0.056866124 0.010457464
000160 80 12 20 3d b2 f5 0b 3d c8 33 0e 3d 38 4c c1 bc
       0.039080143 0.03416986 0.03471735 -0.023595914
000170 e0 48 3f 3b 54 75 29 3d e0 10 03 3c 54 ad a7 3d
       0.0029187724 0.04137166 0.007999629 0.081873566
000180 b9 07 19 bd 02 2e 8e bd 00 bc 34 39 a4 9e 0e bd
       -0.03736088 -0.06942369 0.00017236173 -0.03481926
000190 b8 60 1c 3c d1 6d 11 bd 5f c2 2c bc d7 37 e7 3d
       0.009544544 -0.03550512 -0.010544389 0.112899475
0001a0 90 f1 29 be ef 0f 6d 3d 9c d6 8b bc 70 01 a8 3b
       -0.16596055 0.057876524 -0.017070107 0.0051271245
0001b0 70 68 59 be 02 4e 83 3d 2e d7 c2 bc 0a db 93 3d
       -0.21231246 0.06411363 -0.023784246 0.07219513
0001c0 b4 4e 20 3d 0c 2d ed 3d 2f e9 05 3d 0d 5e 3a be
       0.039137557 0.11580858 0.032693084 -0.1819994
0001d0 61 69 64 3d 5a 9a 1a bd d0 af de 3b 13 2d 92 3d
       0.05576456 -0.037744857 0.006795861 0.071375035
0001e0 b0 d6 02 be 69 0b f8 bd c2 05 d5 bb fa ff 4f bd
       -0.1277721 -0.12111551 -0.0065009305 -0.050781228
0001f0 f6 a5 9a bd 3c 47 cf 3d 6d 82 8b bd ed 8f 1a bc
       -0.07551186 0.10121009 -0.06811986 -0.009433729
000200 e0 70 37 3b 88 56 5d bd 13 8c b1 3c f7 a7 0a bd
       0.0027990863 -0.0540376 0.021673238 -0.03385159
000210 04 dd 09 bd dd b6 87 bd 91 fb db bd 54 32 d8 3d
       -0.033658043 -0.06626675 -0.10741342 0.10556474
000220 a5 29 cc 3d 10 32 f9 bd 3b b4 06 bd 06 e9 7c 3d
       0.099688806 -0.12167752 -0.032886725 0.061745666
000230 0d 4f 55 3c 23 43 92 bd ce 8d c3 bc 62 ea 29 3d
       0.013019335 -0.071417116 -0.023871329 0.04148329
000240 e6 f6 94 bd 5e 64 95 3d e0 ff 5a 3c 3d 7d 2a 3d
       -0.07273655 0.07294534 0.013366669 0.041623343
000250 fc 96 e4 bc b4 a5 cd 3c 74 9f 3e 3d 64 59 16 3d
       -0.027904026 0.025103427 0.046538785 0.036706343
000260 25 a3 32 be 09 4d 01 3d 84 38 02 be 86 93 1e 3e
       -0.17445047 0.031567607 -0.12716872 0.15485963
000270 20 4a 09 3d ec 8c 06 3d 40 6d 81 3d 48 8d 15 3d
       0.033517957 0.032849237 0.06319666 0.03651169
000280 09 a7 d7 bd 73 44 71 3d cd 98 d4 3c 94 f8 24 bd
       -0.10529906 0.05890317 0.025951767 -0.040276125
000290 46 e3 dc bc 89 c6 a2 bd 80 1f 0d 3b 38 71 67 bc
       -0.026963841 -0.07948024 0.0021533668 -0.014126115
0002a0 18 a4 d0 3c f8 91 69 bc bc 42 b5 bc 00 dc 22 3c
       0.025468871 -0.014255993 -0.022126548 0.009940147
0002b0 48 05 da 3c 7a e5 64 bd 00 33 bf 3c 36 34 81 3d
       0.026613846 -0.05588291 0.023339748 0.063087866
0002c0 58 a9 4a 3d d0 48 4d 3d 50 f9 67 3c 96 17 93 3d
       0.049477905 0.050118268 0.014158562 0.07182233
0002d0 16 02 5f bd 9b 7e 3c bc 14 ae 7d 3d 6f 96 74 bd
       -0.05444535 -0.0115047945 0.061933592 -0.059713777
0002e0 c0 9d dc 3c b4 8b 8f bd 7c b9 2c 3d c8 ac 3c 3d
       0.02693069 -0.07009068 0.04216908 0.046063215
0002f0 72 85 cf bc 9e df 9e 3d bd 62 96 bd c4 82 9a 3d
       -0.025332186 0.07757495 -0.073430516 0.07544473
000300 64 e4 91 3c 4b 11 9b bd 0c 06 b5 3c c0 a4 04 3b
       0.0178091 -0.07571658 0.02209761 0.00202398
000310 ac 93 01 bd 50 b4 a4 3d a8 20 9a 3d 7b 42 1a be
       -0.03163497 0.080422044 0.0752576 -0.15064423
000320 18 90 67 bc f8 82 04 bd 76 c0 e0 bc 60 32 81 bc
       -0.014133476 -0.032351464 -0.027435523 -0.015771091
000330 38 d3 a1 bd 90 87 e5 bb b0 d2 b7 3b 78 45 43 bc
       -0.07901615 -0.0070046857 0.0056098327 -0.011918418
000340 36 2b 96 3d 5a 2c cb bc f6 45 41 bd 70 d5 ec 3b
       0.073324606 -0.024801422 -0.04718586 0.007227592
000350 b2 6a 24 3d 64 25 46 3d c4 ec 4e bd 9c 02 28 3d
       0.040140815 0.048375502 -0.050518766 0.041018113
000360 c8 1c 60 bc a0 31 68 bb 95 4d 0a bd 0f 01 4d bd
       -0.013678737 -0.003542997 -0.033765394 -0.050049838
000370 c8 ad 2c 3c 44 28 5d bd 34 2e db bc ac f6 5e 3d
       0.01053948 -0.05399348 -0.02675543 0.054434463
000380 56 a9 09 3d 38 e6 77 3d 59 9b 47 bd eb ab 4f bd
       0.033608757 0.060522288 -0.048732135 -0.050701063
000390 92 50 a4 bd e4 7a 47 3d 18 40 b5 bc fc c7 ac bc
       -0.0802318 0.048701182 -0.022125289 -0.021091454
0003a0 f0 35 a4 3d 2f 88 99 bd 32 f9 9d 3d b8 69 3d 3c
       0.080181 -0.07496678 0.07713546 0.01156085
0003b0 6e 8f 73 bd 48 00 1a 3d f2 36 9c bd 80 c4 69 bb
       -0.059462957 0.037597924 -0.076276675 -0.0035670102
0003c0 48 1c 89 3c 30 7a 7d 3c c4 9c 2e 3d 54 f3 9b 3d
       0.016737118 0.015471026 0.042629972 0.076147705
0003d0 d8 37 68 3d de a5 96 bd 38 b2 8d bc 84 00 1b 3d
       0.05669388 -0.073558554 -0.017296895 0.03784229
0003e0 00 9b 01 3a 73 34 83 3d 39 51 aa bd 07 0f 73 be
       0.0004944056 0.06406488 -0.08316273 -0.23736201
0003f0 83 4f 9e bd 73 d2 2d bd 10 62 df 3b 06 93 ae bc
       -0.077300094 -0.04243703 0.00681711 -0.02131034

encoder_sol.W_i.bias f4 [128]
000000 56 c1 16 3d 45 e8 9a bd 68 f2 db bc 4f b5 90 bd
       0.036805473 -0.07563833 -0.026848987 -0.07065832
000010 54 1f d9 bc 23 02 36 bd 80 eb 79 3c cc 7e 9b bb
       -0.026504196 -0.04443563 0.0152539015 -0.00474534
000020 48 99 67 bc 54 99 03 3d 6c c0 7e bd 95 d7 b6 3c
       -0.014135666 0.032128647 -0.062195227 0.022319594
000030 86 95 4a bd 72 da a8 bd fc 1c 56 bc ea bd f4 3c
       -0.049459003 -0.0824479 -0.013068434 0.029875714
000040 fa 2a 39 bd c4 28 d0 bb ce 32 86 bd d1 f5 ba bd
       -0.045207 -0.006352516 -0.06552659 -0.09128917
000050 35 d7 3f bc de 80 8e bd f7 5d 6c bd dd b6 52 bd
       -0.011709024 -0.06958173 -0.0577068 -0.051443923
000060 e8 3c 3a bc 0e 9c 53 3c 44 3a f4 bc a4 f5 aa 3c
       -0.01136706 0.012915624 -0.02981294 0.020869084
000070 01 8b 22 bd 8d 66 86 bd 11 25 0f bd 59 4a 1e bd
       -0.039683346 -0.06562529 -0.03494746 -0.038645122
000080 b2 15 70 bc b9 f4 f3 3c 90 55 2c bd e7 5b 85 bb
       -0.01465361 0.029779779 -0.042073786 -0.0040697935
000090 fc 89 81 bc f1 b7 e1 3b 86 2b 62 bd 42 3b 96 bd
       -0.015812866 0.0068883826 -0.05521729 -0.07335521
0000a0 7c 37 41 bc 32 39 4f 3c 0e 71 08 3d ea b1 3b bd
       -0.011793014 0.012647914 0.033310942 -0.04582397
0000b0 c6 74 5a bd 72 be 55 bb 83 c2 4b bb a2 f4 ad bc
       -0.05333402 -0.0032614735 -0.003109128 -0.021234814
0000c0 be 62 72 bd 4d 37 3a bd 44 a4 73 bd 47 bd a8 bb
       -0.0591762 -0.045462895 -0.059482828 -0.0051495167
0000d0 60 74 a1 bb aa 87 dc 3c 0b f1 fd bc 4e e1 ba bd
       -0.004927203 0.026920158 -0.030998727 -0.09125005
0000e0 db 53 d9 ba 24 d4 70 bc 2b 35 f9 bc 01 ef 08 3d
       -0.0016580777 -0.014699016 -0.03042086 0.033431057
0000f0 79 42 65 3c f8 8a 83 bd b2 c6 40 bd 68 7e c6 bd
       0.013992899 -0.064229906 -0.04706449 -0.09692079
000100 ea 22 4d 3d 13 bb 8c bd 03 5b b2 bb 10 c5 44 3c
       0.050082125 -0.06871619 -0.0054429783 0.012009874
000110 0c 1f de bb 75 cf 9e 3c 2b 76 09 3c 02 0b 37 bc
       -0.0067786034 0.019386033 0.00838999 -0.011172058
000120 92 33 b9 3c 21 69 4a bd 8c 58 ce bd b0 e1 9b bd
       0.022607598 -0.049416665 -0.10075483 -0.07611406
000130 0e 1d e9 3c 1e 60 8f bd 67 2d b4 bd 89 7e 49 bd
       0.028456237 -0.07000755 -0.08797722 -0.04919294
000140 2d 87 32 bd 22 5e f9 bc 11 3e d7 3c 1d 8d 0d bd
       -0.043585945 -0.030440394 0.026274713 -0.034558404
000150 82 07 dd 3c 0d d3 5f bc 38 40 b9 bc c1 7c 7c bd
       0.026981119 -0.013661158 -0.02261363 -0.061642412
000160 8b af a1 bd 6c a1 35 bd 60 37 39 3c 44 9f 1c 3d
       -0.0789481 -0.044343397 0.011304706 0.038237825
000170 3b 2d 9d bb a2 21 32 bb d8 18 76 bd 0c c9 51 bb
       -0.0047966517 -0.0027180691 -0.060082287 -0.0032010702
000180 cd 6b 8a bd b4 a0 6c bd 6f 5b 8b bd 15 e2 45 bd
       -0.067588426 -0.057770446 -0.06804549 -0.04831131
000190 a0 4d 7b bd 45 d0 24 bd e5 e5 d6 bd b6 2f 2b bd
       -0.061353326 -0.040237684 -0.10493068 -0.041793548
0001a0 ed 43 94 bd 44 02 1c bd 5f ba 29 3b e0 2b 14 bd
       -0.07239518 -0.0380881 0.002589844 -0.036174655
0001b0 34 2d 34 3a ef d0 15 bd 17 87 23 bc 11 d6 26 3d
       0.0006873191 -0.036576208 -0.009980938 0.040731493
0001c0 71 cf bd bd 13 2a 54 bd ba af e4 bb 13 1f 6b bd
       -0.09268082 -0.051797938 -0.006978956 -0.05740268
0001d0 4f 09 8d bb d3 01 5d bd 27 fb 58 bd 2f 17 bd bc
       -0.004304088 -0.053956818 -0.052973893 -0.023082344
0001e0 76 95 b2 bd 89 5f 55 bc ea f0 32 bd be a1 40 bd
       -0.08719914 -0.013023266 -0.043686785 -0.04702925
0001f0 ed f7 16 bd 00 a6 0c 3c dc 6a a5 bb f5 f1 92 bd
       -0.036857534 0.008584499 -0.005048139 -0.07175056

encoder_sol.W_h.weight f4 [128, 128]
000000 2f 7c a6 bd 6a 2b 07 be 43 04 fb 3d 92 89 b8 bd
       -0.08129155 -0.13200155 0.12256672 -0.090106145
000010 76 7a 8e bd fe ec af 3d 28 03 c8 3d 15 b3 af bc
       -0.06956951 0.085901245 0.09766227 -0.021447698
000020 14 41 0d 3c 24 aa 76 3c df 3d af 3d db 23 16 be
       0.008621473 0.015055213 0.08556723 -0.14662115
000030 bd e2 29 bd 21 3e ca 3c 98 d6 9a 3d 44 4a 47 3d
       -0.041476 0.024687828 0.07560462 0.04865481
000040 c7 96 d4 bd f0 b7 d0 bc 7c 93 91 bc 78 ad af 3d
       -0.10380321 -0.025478333 -0.017770521 0.085780084
000050 f6 5b 1e 3d de 68 88 3c 09 6f d2 3d 07 4d 56 be
       0.03866192 0.016651567 0.102750845 -0.20927821
000060 0e 5e 15 3d 32 29 11 be 0b 47 85 3d 42 0b 97 bd
       0.03646665 -0.14175871 0.06507691 -0.07375194
000070 31 00 1b 3d 3b 4d e5 3d 59 70 0f 3d 88 d0 8f be
       0.03784198 0.11196371 0.035019252 -0.28088784
000080 7a 90 97 3d 24 ff 1d 3c dc 7a 32 bd 0a 54 d1 bd
       0.074006036 0.00964335 -0.0435742 -0.10221107
000090 33 08 0c bc c2 55 53 bd 59 0c 17 3e 55 64 06 3d
       -0.008546877 -0.051595457 0.14750804 0.032810528
0000a0 1a 27 41 3d a1 a2 fe bc eb 0c 03 3e 03 8e 2c bd
       0.04715643 -0.031083407 0.12797897 -0.04212762
0000b0 bb 7a 4a 3e 91 e4 1f be 1f d1 6e be 04 91 46 bd
       0.1977338 -0.15614535 -0.23321961 -0.04847814
0000c0 06 a5 ca 3d a6 16 09 bd 68 b4 84 3c ef 56 50 3d
       0.09894757 -0.033468865 0.016199306 0.050864156
0000d0 86 82 f1 bd d7 14 40 bd 96 d2 32 bd 38 54 92 bd
       -0.117924735 -0.046894874 -0.04365786 -0.0714497
0000e0 39 27 9b bd 3a 05 60 3d f7 19 5c bd 52 c4 b0 bd
       -0.075758405 0.054692484 -0.0537357 -0.08631195
0000f0 e2 54 47 3d 79 44 cd bb 73 e7 5b 3d 91 44 b9 bd
       0.048664935 -0.006264266 0.053687524 -0.09046281
000100 5d 43 e4 bd 38 ef 84 3d f3 f2 84 3d d7 b9 02 be
       -0.11145661 0.0649094 0.064916514 -0.12766205
000110 dc 78 a2 bd ee 43 ae bd 44 c4 e1 bd e1 d3 e0 3d
       -0.07933208 -0.0850905 -0.11023763 0.10977913
000120 8e 26 5b ba 67 cb 5d bd 0f a1 86 3e 00 70 2b bd
       -0.0008359932 -0.054149058 0.26294753 -0.04185486
000130 e2 fd 88 3d 12 96 e2 bd 2d c6 c6 bd b0 2a c4 bc
       0.06689049 -0.1106378 -0.09705768 -0.023946136
000140 d1 28 45 be da 2e 57 3d ed 25 19 bc d3 b9 a1 bd
       -0.19253851 0.052534916 -0.009347421 -0.07896771
000150 c1 51 f3 bc e8 78 eb 3d 2d 17 f0 bd 8a 35 99 3b
       -0.02970207 0.114976704 -0.117231704 0.004675572
000160 91 da 9b 3d 67 f7 2a be 14 dd e6 3d 48 9c 12 bd
       0.076100476 -0.16695939 0.11272636 -0.035793573
000170 50 a9 b6 3d bc 1b b8 3d 85 92 82 bd 43 cf ad bc
       0.089190125 0.08989665 -0.06375603 -0.021216994
000180 8e 74 93 3a f2 87 58 bd f6 15 e7 3c 49 64 09 3e
       0.0011249946 -0.052864023 0.028208714 0.13417162
000190 39 af 03 3e 3a 07 84 3e a1 f9 08 bd 17 45 27 3d
       0.12859811 0.25786763 -0.03344119 0.040837374
0001a0 e2 2e 06 3e 7b 67 2e bc b2 9f 8b bc 89 b4 37 be
       0.13103822 -0.010644789 -0.017043922 -0.17939962
0001b0 b2 56 bd 3c 5b 5e 9f bc 09 78 1d bd 0b 06 60 3c
       0.023112629 -0.019454172 -0.038444553 0.013673316
0001c0 74 aa 9f bb a2 c2 02 be c2 81 0d be dc 9b da 3d
       -0.0048726145 -0.12769559 -0.1381903 0.10674259
0001d0 82 c5 a8 bc 84 55 95 3d 8e 97 a8 bd 12 5b 21 3c
       -0.020601992 0.072917014 -0.08232032 0.009848373
0001e0 e6 28 66 bc 3f 55 c5 3c d1 23 e0 3d c0 5b 05 3e
       -0.014047837 0.0240885 0.109443314 0.13023281
0001f0 64 66 9c 3d 4a 55 5d bd 07 ea d7 3d 1a 61 89 3d
       0.07636717 -0.054036416 0.10542684 0.06707974
000200 d1 f4 c1 bd 37 01 d4 bc cb de 8c bb ec 48 01 3e
       -0.09470523 -0.025879486 -0.00429902 0.12625474
000210 61 21 88 3d 84 0a 87 bd c7 3b b7 bc c9 48 03 bd
       0.066469915 -0.065938026 -0.022367371 -0.032051835
000220 57 12 89 3d 06 a5 29 3d 81 8d 15 3e 97 c0 05 be
       0.06692951 0.041417144 0.1460476 -0.13061748
000230 8b dd 1e bd 8b 56 36 3d 85 39 61 3b 2b 70 bd 3d
       -0.0387855 0.044516128 0.003436656 0.0924991
000240 6e 4d e5 bd c9 e4 07 be 64 b9 b8 bd b0 97 5c 3c
       -0.11196409 -0.13270868 -0.090197355 0.0134638995
000250 d8 d4 93 3d 38 75 3f bc a1 b0 28 3d f5 e9 96 3b
       0.07218331 -0.011685662 0.04118407 0.0046055266
000260 0a e3 fc bd e6 43 06 be da 17 e5 3b 22 bb 5c bd
       -0.12347992 -0.13111839 0.0069913687 -0.0538894
000270 88 bd 86 3e 92 2b af 3d f8 98 b2 3c 15 95 dd 3d
       0.26316476 0.08553232 0.021801457 0.10819451
000280 44 8e d1 3d df 3f b7 bd 01 f1 55 bd 44 8f 9e bd
       0.10232213 -0.08947729 -0.052231792 -0.077421695
000290 ed 86 22 3d ee 26 2a bd 5a e8 23 3e 5a d2 88 3d
       0.039679457 -0.041541032 0.16006604 0.066807464
0002a0 08 9d 8f be a9 61 3d bd 80 23 e9 bd 9c 23 f1 bc
       -0.28049493 -0.046235714 -0.11383724 -0.029435925
0002b0 23 62 14 3e ef 02 6f bd c6 92 c7 bd 1d 28 2a 3e
       0.14490561 -0.058352407 -0.09744792 0.16616865
0002c0 46 79 06 3d 66 bb 23 be aa 20 a2 3d 9e ae e4 bd
       0.0328305 -0.15989456 0.079163864 -0.11166118
0002d0 67 15 3d 3c 2c 1d 82 bc 26 a5 29 be 1f 52 12 3e
       0.011540747 -0.01588305 -0.16566905 0.14289139
0002e0 9e 2c 89 bd 1f 3a 8b 3d 1c ed b0 bc bb 74 ad bd
       -0.06697963 0.06798195 -0.021597438 -0.0846953
0002f0 03 7d a6 bc 59 57 81 3d 31 dc 32 3e 90 9b 61 bc
       -0.020323282 0.06315488 0.17466809 -0.013769999
000300 97 fc f9 bc da 1c 13 3d 4c 24 19 bd d6 4a 10 be
       -0.030515952 0.035916187 -0.03738813 -0.14091048
000310 50 a1 3f bd 93 62 5d 3d 65 99 0c bd f1 11 2d bd
       -0.0467847 0.054049086 -0.034325976 -0.04225344
000320 df d1 fa bc a0 77 07 3c 1a 56 9e 3e 96 a3 ef bc
       -0.030617652 0.008268267 0.30925065 -0.029252809
000330 a4 66 be bd ef f0 ee 3d e9 2e 31 bd ac e0 fb 3c
       -0.09296921 0.11667048 -0.043257628 0.03074678
000340 51 9e ef 3d 58 fc 9c bd dd 6e f5 bc 34 96 07 3d
       0.11700118 -0.07665318 -0.02996009 0.03310223
000350 19 5a 04 be a3 a4 9d 3d 5a 39 41 3c 46 d1 d2 3d
       -0.12924995 0.076974176 0.011793459 0.10293822
000360 54 a7 f9 3d 4c 01 12 3d 0a 94 88 3a 4f 91 1a 3c
       0.121901184 0.035645768 0.0010420096 0.009434058
000370 51 3e ad bb 60 90 46 3d dd 2f 8b 3d c6 b1 21 bc
       -0.0052869697 0.04847753 0.067962386 -0.009869045
000380 b1 2a dd 3c 0f c5 f7 3d 73 f2 9a bd f4 8f dd 3d
       0.026997896 0.12098133 -0.07565775 0.108184725
000390 f1 5c 72 bd c1 c3 8a 3c 66 45 1f 3d e1 7f a9 3d
       -0.059170667 0.016939046 0.038884543 0.08276344
0003a0 47 d8 af 3c 89 3b f8 3d e8 49 e9 bd b6 aa b1 bd
       0.021465434 0.121207304 -0.113910496 -0.08675139
0003b0 fe d6 cf bd 19 6e d8 3d e9 02 f4 bc 8c 39 c0 bc
       -0.101484284 0.105678745 -0.029786544 -0.02346494
0003c0 89 38 af bd 1f 80 63 bd d8 94 05 3d 19 67 80 bd
       -0.08555705 -0.055542108 0.03261265 -0.06269664
0003d0 73 94 3b 3e 93 7a 12 3e 40 33 1d bd 2b 2f 2b be
       0.18318348 0.14304571 -0.038378954 -0.16717212
0003e0 0e 37 d7 3d ec a5 84 bd 09 10 95 3d 17 75 2e 3e
       0.10508548 -0.064769596 0.07278449 0.17036854
0003f0 0d 61 4e bd 46 53 03 3c 5e fc 86 bc 2c 40 3e 3d
       -0.050385524 0.008015459 -0.01647776 0.046447918

encoder_sol.W_h.bias f4 [128]
000000 76 b0 25 bd a8 ea 23 3d 36 ce 8e bd 23 fa 8d bc
       -0.04045149 0.040018708 -0.06972925 -0.017331189
000010 d2 f3 43 bd 4b 03 4e bd a3 78 9b bd b4 ed bc bc
       -0.047839947 -0.05029611 -0.07591369 -0.023062564
000020 1e ec 2a 3d e2 5e cd 3c d3 c9 67 3d 6a 42 d2 bd
       0.041729085 0.025069658 0.05658896 -0.10266574
000030 c1 2d ed 3c 4d 1c 13 bb 65 52 c4 bd 1f 3f 46 3c
       0.028952481 -0.0022447289 -0.09586028 0.01210001
000040 70 ad 97 bd d8 7a bb 3b 69 8e 93 bd 10 e4 59 3d
       -0.074061275 0.005721431 -0.07204897 0.053196013
000050 2a 2c 3a bc ec 8e 28 bd 5c 9f 12 3d 31 35 fc 3b
       -0.011363069 -0.041151926 0.03579651 0.0076967706
000060 14 6e df bd c3 f5 e3 bc 90 76 81 3a 1e 55 9b 3a
       -0.109096676 -0.02782715 0.0009877253 0.0011850928
000070 b5 0b 2c ba 24 af 69 bd 13 14 04 bd 54 f4 f9 bc
       -0.0006563024 -0.057051793 -0.032245707 -0.030512013
000080 0c 3b 14 bd f8 1f 72 bd af c5 6b bd 6d e0 24 bd
       -0.036189124 -0.05911252 -0.057561573 -0.04025309
000090 93 d9 5c 3c 81 e1 05 bd 0b b8 73 bd 18 75 e8 3c
       0.013479608 -0.03268576 -0.05950169 0.028376147
0000a0 23 b3 3b bd d7 5b 37 bd 55 48 b2 bd a6 f2 9a bd
       -0.045825135 -0.04476532 -0.087052025 -0.07565813
0000b0 e7 03 7a bd 1d 8a b9 bd 8f 37 79 bd 1c f6 05 bd
       -0.061038878 -0.09059546 -0.060844 -0.03270541
0000c0 8c d8 6d 3d 5d a2 31 3d 75 c7 47 3c 48 b7 dc bd
       0.058067843 0.043367732 0.01219355 -0.107771456
0000d0 c1 e2 6e bd a2 79 ba bd 27 8c eb 3c c9 5d 07 3d
       -0.058321718 -0.09105231 0.028753353 0.033048425
0000e0 f8 5c 42 bd a6 5c 55 3c 41 c1 87 bd 1a ba d2 bd
       -0.047451943 0.013022577 -0.06628657 -0.10289402
0000f0 ba 22 2d 3d 7a e8 2d be 81 48 a8 bd e4 f8 35 3c
       0.042269446 -0.16983214 -0.08216954 0.011106703
000100 52 0c 8d bd 80 64 80 bd 8f 45 a9 bd 86 10 90 bd
       -0.068871155 -0.06269169 -0.082652204 -0.070344016
000110 83 9d 7c 3a 2b 2a 1d 3d bd c1 8f bc 1d 6e 4a 3b
       0.0009636508 0.038370293 -0.017548436 0.0030888387
000120 8f 43 43 bd 9a a9 84 bd aa 3c 51 3d 85 d6 64 bd
       -0.04767185 -0.064776614 0.051083244 -0.055868644
000130 de cc a3 bc ff 0f 01 3d de f4 dc bb 30 49 cd bc
       -0.01999515 0.031509396 -0.0067430576 -0.025059313
000140 0e 5b 12 bd bf d9 b6 bd 76 dd 3b bd 74 6c be ba
       -0.035731368 -0.089282505 -0.0458655 -0.0014528171
000150 8a 97 5d bd a3 83 99 bd e0 f3 bf b9 57 a6 2b 3d
       -0.054099597 -0.07495811 -0.0003661206 0.04190668
000160 2e 74 77 3d 04 d4 73 bb ad 00 3e bd 13 23 39 bc
       0.060413532 -0.0037205229 -0.046387363 -0.011299866
000170 f5 7b 30 bc 31 63 01 3d 12 dd 48 3d 51 5d d3 bc
       -0.010771741 0.031588737 0.049038954 -0.025801333
000180 c6 fb 84 bd bb 32 28 bb 86 be 2f bd 55 67 fe bc
       -0.064933345 -0.0025665003 -0.042906307 -0.031055132
000190 38 57 9b bc bb 3f 9f bc 68 8c 1a 3c b6 dd 1b bc
       -0.018962488 -0.019439569 0.0094328895 -0.009513309
0001a0 13 9a b3 3b 83 a8 fe 3c 04 f9 d6 bd d8 2f 6d 3d
       0.0054810136 0.031086212 -0.10496715 0.057906955
0001b0 dd 9d c9 3c c2 cf 77 bd cb a8 88 bc cf df 2a bd
       0.024611408 -0.060500868 -0.01668205 -0.041717347
0001c0 59 e7 a0 bd 52 5e 18 3d 7d 0f d2 bc ce 32 57 3d
       -0.07856626 0.037199326 -0.025642151 0.052538686
0001d0 d8 c9 53 bd 60 d0 38 bd d8 c1 93 bd 38 a7 b0 bd
       -0.051706165 -0.045120597 -0.07214707 -0.086256444
0001e0 8b ec 81 3d fc da d3 3a 01 ae 34 bd 24 63 02 bc
       0.06343945 0.0016163285 -0.044111256 -0.007958207
0001f0 60 85 a6 bc 8c 53 12 3d 4f e1 cb bc 72 d7 01 3c
       -0.02032727 0.035724208 -0.024887709 0.007924901

encoder_sol.W_o.weight f4 [128, 261]
000000 a8 1b 2f bd e2 70 2c bd a4 0c eb 3c 14 b1 33 bd
       -0.042750984 -0.04209984 0.028692551 -0.043870047
000010 e0 bb a7 3b 96 81 01 bc f2 59 3d 3c df d8 7c 3c
       0.005118832 -0.007904431 0.011557089 0.0154325655
000020 14 64 b0 3d 63 ef 42 bd 66 c4 54 bd 0a 9d 8e bc
       0.086128384 -0.04759158 -0.051945113 -0.017408866
000030 70 8a 25 bc c6 98 61 bd 32 e8 57 bc b9 73 f6 3d
       -0.010103807 -0.055077337 -0.013177918 0.12033791
000040 b4 27 82 3d ae 03 69 3d 40 36 c2 3a 44 c6 ef 3c
       0.06355229 0.056888275 0.0014817193 0.029269345
000050 1c 47 b9 3c 7c 6f a4 3c 00 3b 58 3d 06 51 cb bc
       0.022616915 0.020072691 0.05279064 -0.024818908
000060 50 39 4a 3d 00 d7 ed 3c 30 15 4e bb 5c 0d a9 3c
       0.049371064 0.029033184 -0.0031445734 0.020636253
000070 b2 ce 50 bd d4 9f 24 3d c8 b5 33 3c a6 69 56 3d
       -0.05097837 0.040191486 0.010968633 0.052346848
000080 12 09 35 3d 1c df 35 3d fb 7e 18 be 74 1f 19 bd
       0.044198103 0.044402227 -0.14892189 -0.03738351
000090 f0 c7 53 3c d6 a7 42 3d 72 5c 71 3d 18 6d 1b 3c
       0.012926087 0.047523342 0.058926053 0.009486459
0000a0 58 e9 11 3d 54 26 15 bc e4 2b bc bc fa ec 6c 3d
       0.035622925 -0.009103376 -0.022970147 0.057843186
0000b0 74 63 ba 3c 6c 40 9f 3c da 21 36 bd 2e 04 6e 3d
       0.022752501 0.019439898 -0.044465877 0.058109455
0000c0 fa e7 66 3d 14 55 dc 3c 9a 9f 8e bc 60 8f 88 bc
       0.056373574 0.026896037 -0.017410088 -0.016669929
0000d0 b0 f7 25 bd 56 64 62 3d a4 86 9d bc 13 63 1e bd
       -0.040519416 0.05527147 -0.01922924 -0.038668703
0000e0 98 2d c4 3c f0 92 8a 3b 00 69 f1 3c 72 b2 47 3d
       0.023947522 0.004228942 0.029469013 0.048754163
0000f0 28 98 51 3c 50 74 ea bb 20 89 72 3b ca 0b c0 bc
       0.0127926245 -0.007154979 0.0037008002 -0.023443121
000100 16 a5 2e 3d 21 18 4d bd e4 2e 5e 3d 35 68 26 bd
       0.042637907 -0.05007184 0.054243937 -0.040626723
000110 60 36 19 3d a6 10 0a 3d e2 ab 32 3d 08 ba 75 bc
       0.03740537 0.033707283 0.04362095 -0.014997967
000120 86 6a cd bc 20 ef 15 3b 80 e1 ba 3b b2 66 09 3d
       -0.025075208 0.0022878125 0.005703151 0.033545204
000130 50 d7 24 3d 90 5d 2e 3c b0 64 06 bd 7d 3d 12 bd
       0.0402444 0.010642424 -0.032810867 -0.03570317
000140 de b8 b8 bc fc b7 e4 3c 86 85 1c 3d 80 96 5c 3c
       -0.022549089 0.027919762 0.038213275 0.013463616
000150 20 e7 24 3b e4 c5 35 3d e8 bf 29 bd 8c 98 0e 3d
       0.0025162175 0.044378176 -0.04144278 0.03481345
000160 52 97 da bc 78 6e 8f 3c ed c6 0e bd 72 9e 5c 3d
       -0.026683483 0.01750873 -0.03485768 0.053862043
000170 42 d6 22 bd c0 3f 16 3a 96 fe de bc 70 b4 76 3d
       -0.039755113 0.00057315454 -0.027221005 0.060230672
000180 58 3e 74 3c c0 c5 a9 3a 70 86 3a 3c b0 5f 00 bd
       0.014907442 0.0012952611 0.011384591 -0.031341255
000190 26 44 fd bc 24 50 e4 3c e8 2c 1c 3c 0f 0e b5 3d
       -0.030916285 0.027870245 0.009532191 0.08840572
0001a0 b2 9d 85 3b 05 ab 20 bd 64 b5 28 3d ff 7c 38 bd
       0.0040776366 -0.039225597 0.041188613 -0.04504108
0001b0 a4 6a ae bd ac e4 17 bc 26 42 e3 3d 10 65 bd bb
       -0.08516434 -0.009270828 0.11096601 -0.00577987
0001c0 02 d3 ab bc 13 bf b1 bc f4 e8 95 bc 09 b4 8c bc
       -0.02097464 -0.021697557 -0.018299557 -0.017175691
0001d0 af 5b c0 3d b1 71 31 bd 76 ab 64 3d 20 85 8f 3c
       0.09392487 -0.043321315 0.05582758 0.017519534
0001e0 bf 25 29 bc af c4 57 be 4d 4e f4 bd 9e 4c a2 bc
       -0.010323941 -0.21071123 -0.11928997 -0.019811925
0001f0 97 8f 6a bd f1 7c d1 3d 5b fa a9 3b 8a d2 aa bd
       -0.057265844 0.10228909 0.0051873154 -0.083409384
000200 d6 02 74 bd 9c ae 25 bc 1a 8e 8b bd 88 56 4d bc
       -0.059573017 -0.010112431 -0.06814213 -0.012532838
000210 b3 b2 0c bd 6b e5 89 3d c3 46 c9 3d 1c a7 20 bd
       -0.03435011 0.06733211 0.0982795 -0.039221868
000220 43 a2 f4 3c 72 3b 87 3d 08 2a 8d 3d 17 21 97 bc
       0.029862529 0.06603135 0.068927824 -0.018448396
000230 aa 97 71 3c 2e 64 04 be d8 23 1c bd 03 68 72 bd
       0.014745632 -0.1292884 -0.03812012 -0.059181225
000240 c1 2c 40 3d 6d 2b 8e 3d 06 65 c3 bb 03 08 81 3d
       0.04691768 0.069418766 -0.0059629707 0.06300356
000250 01 1a aa 3c 34 ca fe 3b ee 3d 8e bc ef 60 24 3d
       0.020764353 0.0077755693 -0.017363515 0.040131506
000260 3f 2f a7 bd 86 23 95 3c 47 d4 4e 3d 11 9b cf bd
       -0.08163308 0.018205415 0.050495412 -0.101369984
000270 0c 06 de bc 80 6e 9b 3d 64 f5 3c bc 68 7e b6 3d
       -0.027102493 0.075894356 -0.011533115 0.08910829
000280 83 77 08 bd b5 f1 3f 3d 2f 2a 5c 3e 96 3d c2 3d
       -0.0333171 0.04686137 0.21500467 0.09484403
000290 98 ca 09 bd bb 2b e6 3b be de d6 3c 7b ae 0d bd
       -0.033640474 0.007024256 0.026229259 -0.034590226
0002a0 33 e1 09 bb b5 95 0b bd b9 bd 2e 3c d6 27 09 3e
       -0.002103877 -0.03407832 0.010665351 0.13394102
0002b0 e6 03 e0 3c b6 3a 23 bd a2 e1 07 3d d2 66 45 bd
       0.027345609 -0.039850913 0.033174165 -0.04819376
0002c0 dc c8 de bd 79 39 7a be e2 55 15 3e 30 8b 2b bc
       -0.10878155 -0.24435987 0.14583543 -0.010470197
0002d0 e5 e0 9e bd 12 4f 6a bd 2c 94 f3 3d 30 be c1 bb
       -0.07757739 -0.057204314 0.11893496 -0.0059125647
0002e0 3d 7a 09 3c 82 9b d3 bb 7c d0 60 bd cf 9b b7 bb
       0.00839096 -0.006457747 -0.054886326 -0.0056032906
0002f0 48 1a df 3c 30 07 b3 bb 79 b9 5e bc 89 88 a6 3d
       0.027234212 -0.0054635033 -0.013594025 0.08131511
000300 e2 be 16 3e f0 94 87 3d ae ab c5 bd c4 01 7e 3c
       0.14721254 0.066202044 -0.09651886 0.015503351
000310 16 45 b3 bc f2 eb 99 3d 5f b3 42 3e eb da b2 bc
       -0.021883529 0.07515706 0.19013737 -0.021832904
000320 6f d9 25 bc ee a5 79 3d f8 7d 0b 3d 68 71 2e bd
       -0.010122641 0.06094926 0.03405568 -0.04258862
000330 2e cb ee 3d 75 01 18 3d 49 2d b4 bd b0 3c bd 3d
       0.11659847 0.037110765 -0.087977 0.09240091
000340 c8 e8 a2 3d ba 07 81 3d ac 8a 63 bd f0 a2 44 ba
       0.07954556 0.06300302 -0.05555217 -0.0007501086
000350 39 0f 45 3d 46 d2 c7 bd 7b 5b a6 3d 75 bc 40 3d
       0.04811022 -0.09756903 0.08122917 0.047054727
000360 0f fd 81 bd 9b 49 15 bd 1c 40 e2 38 e8 8d d6 3a
       -0.06347095 -0.03644715 0.00010788461 0.0016369196
000370 ae d6 9c 3d 2f 6d 59 3d ea ce 2d bd 3d 5c 25 3d
       0.076581344 0.05308264 -0.042433657 0.04037117
000380 98 ad 0f bd cd ef 36 3d ee d5 8d bd 6e 69 a3 bc
       -0.03507766 0.044662286 -0.069255695 -0.019947734
000390 c4 e6 c7 3d 25 7c ad 3c 93 43 ec 3c f5 27 87 3d
       0.09760812 0.02117736 0.028840816 0.06599418
0003a0 11 ba 04 3b 63 1c 2c 3e be ac d7 bb 65 47 60 3c
       0.0020252506 0.16807704 -0.006581872 0.013688897
0003b0 0f 45 9c 3c de 91 9b 3c 76 37 8f ba 7b 5a 98 3d
       0.019075898 0.018990453 -0.0010926563 0.07439133
0003c0 f5 10 ef bc 47 14 84 3d 1a 6d d1 3c 5b 41 02 3c
       -0.02918289 0.0644918 0.025564719 0.007950152
0003d0 5f b6 25 3d 20 47 3a 3d 4e 69 25 bd 13 ce 33 bb
       0.040457126 0.045477986 -0.04038363 -0.0027436062
0003e0 fa cd 12 be e6 9d 62 3d 75 79 da 3c 2a aa 6f 3d
       -0.14336386 0.055326365 0.026669243 0.05851189
0003f0 5c 77 8c 3d f8 5c 46 3e f2 c0 b1 3d 1d 83 c9 3d
       0.068587035 0.19371402 0.086793795 0.09839461

encoder_sol.W_o.bias f4 [128]
000000 25 90 30 bc 07 91 ac bd ef a2 85 ba b8 25 5c 38
       -0.010776554 -0.08426099 -0.0010195653 5.2487216e-05
000010 28 ad 40 3d 32 a5 3d bc 1f 22 54 3c de 42 5d bc
       0.047040135 -0.01157503 0.012947588 -0.013504712
000020 aa 01 3d 3d f2 3b 94 3d c9 bb 78 bd 8b db 31 3c
       0.046144165 0.07237996 -0.06072596 0.010855566
000030 4f a6 2f bd 2e cf 0d bc fc 89 4c bd 6f 9b 6a 3d
       -0.042883214 -0.0086553525 -0.04993628 0.05727714
000040 2f 98 3c bd 3d 6c 49 bd 5c da d2 3c b9 fe 12 bc
       -0.04604357 -0.04917549 0.025738887 -0.008971863
000050 89 30 66 3c 27 86 1f bc 74 d2 8a 3c 68 61 29 bd
       0.014049658 -0.009736574 0.016946055 -0.04135266
000060 51 ce 4d 3d e9 57 1f 3d ca ee 50 3d ef 2f 5b 3b
       0.050245587 0.038902197 0.051008977 0.0033445319
000070 99 d3 c7 bc 2c 4f 55 bd 16 2d 62 3d 86 e4 11 3d
       -0.02439289 -0.052077457 0.05521878 0.035618328
000080 c5 65 9a bc aa 68 9a bc 19 23 0a bd a2 ae 05 bb
       -0.018847356 -0.018848736 -0.033724878 -0.0020398279
000090 5a 8e 76 3c d2 bb dc bc a0 ae 12 3d a2 d8 3f bd
       0.015048588 -0.026945028 0.035811067 -0.046837457
0000a0 97 a3 87 bd e8 70 31 3b 60 8b 11 3d 57 0d e2 bc
       -0.06622999 0.0027075354 0.03553331 -0.027594252
0000b0 83 b4 8d 3d fa 68 be 3c 9a 4e 5a 3c 74 05 5e bd
       0.069191955 0.023243416 0.013324404 -0.05420442
0000c0 0d a2 51 bd b7 de 5a 3b dc a2 33 3d 18 8c 58 3d
       -0.051179934 0.0033396909 0.043856487 0.05286798
0000d0 8e 01 90 bc 0f 0e 46 3d af 83 13 3d 1e 76 b4 bd
       -0.017578866 0.04835325 0.036014255 -0.088115916
0000e0 22 74 57 3c 82 6a 2b 3d 3c c1 eb 3c b2 17 17 3d
       0.013150247 0.04184962 0.028778665 0.036887832
0000f0 57 6e bd bd 1f 57 88 bb 3e 98 d6 bb 4f a4 11 3d
       -0.09249561 -0.0041607763 -0.0065489104 0.035557088
000100 ee d6 01 3b bc 1e 23 3d 5a f9 89 bc dd 3c 0d 3c
       0.0019811946 0.039824232 -0.016842533 0.008620468
000110 2b 54 52 3d 3b bd 24 3d 8b b1 a9 bc af ee c5 bc
       0.0513498 0.040219527 -0.020714542 -0.024161665
000120 69 ea 53 bd f3 a7 b6 bc ef 38 11 3d e2 fe 89 bd
       -0.051737223 -0.022296881 0.035454687 -0.06738068
000130 2d 84 91 3d 84 f2 26 3c 67 2e 41 bd 40 39 1c bd
       0.07105289 0.010189656 -0.047163393 -0.038140535
000140 3c 18 1c bd 85 bd 87 3d 65 86 17 bd 94 2a f3 3c
       -0.03810905 0.06627945 -0.036993403 0.029683389
000150 fe d0 d3 bc 6e 8a 86 bd 9b 1e 80 bc cd b7 5b 3d
       -0.025856491 -0.06569372 -0.015639594 0.053642083
000160 78 8d 0b bb 0a c0 5b 3c f7 f8 34 3c 8c dc 10 3c
       -0.0021294039 0.013412485 0.011045686 0.008841645
000170 7f 26 11 bd b1 ba 38 3c 60 ef 46 bc 16 e1 07 bd
       -0.035437103 0.011274979 -0.012142032 -0.033173643
000180 02 0d 2b bd 2e 35 30 bd 17 9d 9f bd dc 55 6f 3c
       -0.041760452 -0.043019466 -0.077936344 0.014607873
000190 e7 34 82 bc c8 02 9f 3d cd 9e 85 3d fb 02 1f 3d
       -0.015894366 0.07764202 0.065244295 0.0388212
0001a0 82 96 17 3d c1 7f 92 bb 73 39 98 bc aa 1f e6 bb
       0.03700877 -0.004470796 -0.018582081 -0.0070228176
0001b0 53 af 81 3d 87 ed e2 3c 00 07 ec bc 41 58 20 bd
       0.063322686 0.027701152 -0.028811932 -0.039146665
0001c0 a1 ab 64 bd a0 f1 e0 bc 94 dc 1b 3d 4b 6d 59 bc
       -0.05582774 -0.027458966 0.038052157 -0.013270686
0001d0 26 74 95 bd 40 b0 4e bd fa a3 2f 3d 9a bf 34 3d
       -0.07297544 -0.050461054 0.04288099 0.044128038
0001e0 c8 77 82 bd 5a 91 79 3c 77 5e 16 bd d4 63 97 3c
       -0.06370503 0.015232408 -0.036711182 0.018480219
0001f0 5d 9a af 3c e8 6a e3 bc 1d e8 93 3d 27 0f 9b bc
       0.02143591 -0.027760938 0.072220065 -0.018928124

encoder_solv.cached_zero_vector f4 [128]
000000 00 00 00 00 00 00 00 00 00 00 00 00 00 00 00 00
       0.0 0.0 0.0 0.0
000010 00 00 00 00 00 00 00 00 00 00 00 00 00 00 00 00
       0.0 0.0 0.0 0.0
000020 00 00 00 00 00 00 00 00 00 00 00 00 00 00 00 00
       0.0 0.0 0.0 0.0
000030 00 00 00 00 00 00 00 00 00 00 00 00 00 00 00 00
       0.0 0.0 0.0 0.0
000040 00 00 00 00 00 00 00 00 00 00 00 00 00 00 00 00
       0.0 0.0 0.0 0.0
000050 00 00 00 00 00 00 00 00 00 00 00 00 00 00 00 00
       0.0 0.0 0.0 0.0
000060 00 00 00 00 00 00 00 00 00 00 00 00 00 00 00 00
       0.0 0.0 0.0 0.0
000070 00 00 00 00 00 00 00 00 00 00 00 00 00 00 00 00
       0.0 0.0 0.0 0.0
000080 00 00 00 00 00 00 00 00 00 00 00 00 00 00 00 00
       0.0 0.0 0.0 0.0
000090 00 00 00 00 00 00 00 00 00 00 00 00 00 00 00 00
       0.0 0.0 0.0 0.0
0000a0 00 00 00 00 00 00 00 00 00 00 00 00 00 00 00 00
       0.0 0.0 0.0 0.0
0000b0 00 00 00 00 00 00 00 00 00 00 00 00 00 00 00 00
       0.0 0.0 0.0 0.0
0000c0 00 00 00 00 00 00 00 00 00 00 00 00 00 00 00 00
       0.0 0.0 0.0 0.0
0000d0 00 00 00 00 00 00 00 00 00 00 00 00 00 00 00 00
       0.0 0.0 0.0 0.0
0000e0 00 00 00 00 00 00 00 00 00 00 00 00 00 00 00 00
       0.0 0.0 0.0 0.0
0000f0 00 00 00 00 00 00 00 00 00 00 00 00 00 00 00 00
       0.0 0.0 0.0 0.0
000100 00 00 00 00 00 00 00 00 00 00 00 00 00 00 00 00
       0.0 0.0 0.0 0.0
000110 00 00 00 00 00 00 00 00 00 00 00 00 00 00 00 00
       0.0 0.0 0.0 0.0
000120 00 00 00 00 00 00 00 00 00 00 00 00 00 00 00 00
       0.0 0.0 0.0 0.0
000130 00 00 00 00 00 00 00 00 00 00 00 00 00 00 00 00
       0.0 0.0 0.0 0.0
000140 00 00 00 00 00 00 00 00 00 00 00 00 00 00 00 00
       0.0 0.0 0.0 0.0
000150 00 00 00 00 00 00 00 00 00 00 00 00 00 00 00 00
       0.0 0.0 0.0 0.0
000160 00 00 00 00 00 00 00 00 00 00 00 00 00 00 00 00
       0.0 0.0 0.0 0.0
000170 00 00 00 00 00 00 00 00 00 00 00 00 00 00 00 00
       0.0 0.0 0.0 0.0
000180 00 00 00 00 00 00 00 00 00 00 00 00 00 00 00 00
       0.0 0.0 0.0 0.0
000190 00 00 00 00 00 00 00 00 00 00 00 00 00 00 00 00
       0.0 0.0 0.0 0.0
0001a0 00 00 00 00 00 00 00 00 00 00 00 00 00 00 00 00
       0.0 0.0 0.0 0.0
0001b0 00 00 00 00 00 00 00 00 00 00 00 00 00 00 00 00
       0.0 0.0 0.0 0.0
0001c0 00 00 00 00 00 00 00 00 00 00 00 00 00 00 00 00
       0.0 0.0 0.0 0.0
0001d0 00 00 00 00 00 00 00 00 00 00 00 00 00 00 00 00
       0.0 0.0 0.0 0.0
0001e0 00 00 00 00 00 00 00 00 00 00 00 00 00 00 00 00
       0.0 0.0 0.0 0.0
0001f0 00 00 00 00 00 00 00 00 00 00 00 00 00 00 00 00
       0.0 0.0 0.0 0.0

encoder_solv.W_i.weight f4 [128, 147]
000000 8a 2d 2b 3d 88 53 8a 3d 45 65 a4 bd 23 59 03 bd
       0.041791476 0.067542136 -0.08027128 -0.03206743
000010 b6 63 95 bd ea 1d 68 3b 1f 1e 5e bd 1e 4a 9d bd
       -0.07294409 0.003541822 -0.054227944 -0.07680152
000020 e8 57 df bc e4 bb 3c 3d 4e 83 8d 3d 02 a1 d0 bc
       -0.027263597 0.046077624 0.0690981 -0.0254674
000030 97 1f 26 bd 30 94 c9 bc 80 66 b7 bc 38 99 19 bd
       -0.04055747 -0.024606794 -0.022387743 -0.037499636
000040 f4 8b 8f 3d 13 41 00 bd 7c 8a f9 3c ac 48 e2 3c
       0.07009116 -0.03131206 0.030461542 0.027622543
000050 98 7a d3 3c 00 14 38 3d 1c 23 14 3d 8d 88 a0 bd
       0.025815293 0.04494095 0.036166295 -0.07838545
000060 5c 86 aa 3c 30 46 01 bc d0 7f 3e 3d cc 22 b7 3c
       0.02081602 -0.007890269 0.04650861 0.02235546
000070 f0 91 f2 3c e4 56 99 3c 2e c2 33 bd cc 25 9c bc
       0.029610604 0.01871819 -0.043886356 -0.019060992
000080 fc be 7d 3d ad 4e a1 bd 30 df 30 bc 91 38 3a bd
       0.061949715 -0.07876334 -0.0107954 -0.045464102
000090 78 03 39 3c 0c 56 46 3d e4 27 55 bd 58 2f 43 3d
       0.011292331 0.048421904 -0.052039996 0.047652572
0000a0 ec 8c 47 bd d6 f5 8d bd a8 00 86 bc f7 0e 3a bd
       -0.048718378 -0.06931655 -0.016357735 -0.045424428
0000b0 c0 86 1d 3b 40 55 11 3d a2 4c a0 3d c0 3b 83 ba
       0.0024036616 0.03548169 0.078271165 -0.0010012314
0000c0 70 e7 c0 3c 00 64 dc 38 78 69 1e 3d 06 42 3b bd
       0.023547858 0.00010509044 0.0386748 -0.04571726
0000d0 de d6 e7 bc fc 57 c5 3c 69 10 47 bd c4 e8 60 3d
       -0.028300699 0.024089806 -0.048599634 0.054909483
0000e0 78 d0 c8 bc 2c 82 a2 3d 80 a1 99 3d 7a ae 55 bd
       -0.024513468 0.079349846 0.07501507 -0.052168347
0000f0 fc 6c 3e 3d e6 df fc bc d9 14 8d bd 50 7f 39 bc
       0.046490654 -0.030868482 -0.06888742 -0.011321858
000100 39 7e 45 bd f0 b7 f5 bb aa d7 80 3d 3e a6 1d 3d
       -0.04821608 -0.0074987337 0.06291135 0.03848862
000110 a0 8c e9 bc 74 9f 84 3c 46 d2 85 3d 48 07 ce 3c
       -0.028509438 0.016189314 0.06534247 0.025149956
000120 84 4e 86 3d f5 e7 53 bd e3 fe 8f bd d8 22 07 3c
       0.065579444 -0.051734883 -0.07031038 0.0082480535
000130 98 e9 34 bc da 02 28 3d 62 35 61 bd 8f 12 42 bd
       -0.011042021 0.041018344 -0.05498255 -0.04738098
000140 94 bf 52 bd e8 96 1e 3c 26 eb 07 bd 52 6d 81 3d
       -0.051452234 0.009679534 -0.03318324 0.06319679
000150 20 3a 2f 3d 74 20 cc 3c 61 ff 99 bd f1 97 05 bd
       0.04278004 0.024917819 -0.07519413 -0.032615606
000160 50 6e 26 bc 14 0c 01 bd e0 23 4e bc 78 89 47 3c
       -0.0101581365 -0.03150566 -0.012581795 0.012178771
000170 22 df 16 3d c0 30 58 bd 18 ea 5b 3c a9 fb 7f bd
       0.03683389 -0.052780867 0.0134225115 -0.06249586
000180 e0 dc 67 bc ca 15 0a 3d c0 2a b8 bb 7e a2 2b bd
       -0.014151782 0.033712186 -0.0056203306 -0.04190301
000190 82 cb 8a 3d f7 c2 24 bd 7f b6 07 3e 72 07 83 bd
       0.06777097 -0.040224995 0.1325321 -0.063979045
0001a0 6c 7e 4f bc 10 54 14 bd 9c 74 8b 3d 9e 53 9d 3d
       -0.012664419 -0.03621298 0.06809351 0.07681964
0001b0 92 13 89 3d 70 1c 72 3c bd 00 2e bd 3c a8 d1 3c
       0.06693186 0.014777288 -0.042481173 0.025592916
0001c0 13 2f a6 3d e5 cd 66 bd ac 2d 4a bd e6 0a 9d 3d
       0.081144474 -0.0563487 -0.049359962 0.07668094
0001d0 0b 57 88 bd 44 2f 0a 3d 98 fc 10 bd cf 8a 28 3d
       -0.06657227 0.033736482 -0.035397142 0.041148003
0001e0 a9 b7 71 bd eb ff 5a bc 3c 94 91 bd 9c b4 94 3d
       -0.059013043 -0.01336668 -0.071083516 0.07261011
0001f0 78 c6 8b 3d be aa da 3c 7a 4f 1a be 4e bd 67 39
       0.06824964 0.026692744 -0.1506938 0.00022100398
000200 b6 83 10 3d 00 a3 81 ba 92 41 15 3d 98 fa 6a bc
       0.03528186 -0.0009890497 0.036439486 -0.014341973
000210 a5 ee 86 3d f3 74 9e bd 2a 99 6a 3d b9 78 9b bd
       0.065884866 -0.0773715 0.057274975 -0.075913854
000220 2e 45 ab bd 2a 84 09 3d c3 9e 8d bd e3 28 f1 bd
       -0.08362804 0.033573307 -0.06915047 -0.11775377
000230 15 8e ae 3d a0 68 7a bd 5c c1 10 3d b2 ce aa bc
       0.08523194 -0.061134934 0.035340652 -0.020850513
000240 50 17 a5 3d 80 9f 2f 3c ba 5c d4 bc e8 20 6f 3d
       0.08061087 0.01071918 -0.025923122 0.05838099
000250 d4 4a 72 3d bc 9a 57 3d e4 28 6a bd 00 7c 23 3c
       0.059153393 0.0526378 -0.057167903 0.009978294
000260 4c 72 4f 3d 40 96 24 bd 04 d6 d4 3c 9c 00 03 bd
       0.05064611 -0.040182352 0.025980957 -0.031983003
000270 a4 be 37 3d ce 57 25 3d c0 78 d8 3b 34 6d 91 3d
       0.044859543 0.04036694 0.0066061914 0.07100907
000280 58 f9 10 3c dc e0 9e bc a0 fc e5 3b b8 8d 99 3d
       0.008848511 -0.01939433 0.0070186406 0.07497734
000290 80 7c cc 3b c8 74 7d 3c 3c 2e 2e 3d e8 d0 d5 3c
       0.0062404275 0.015469737 0.04252456 0.02610059
0002a0 ac 22 98 3c bc c9 ff 3c 12 85 81 bd 43 b3 81 bd
       0.01857122 0.031224124 -0.06324209 -0.063330196
0002b0 80 d0 f8 bb f6 28 e1 bc 76 ca 27 3d e2 b4 24 3d
       -0.0075932145 -0.027485352 0.040964566 0.040211566
0002c0 24 00 27 bd 4a 9e fb bc e0 c2 90 3d b9 39 8d bd
       -0.04077162 -0.030715127 0.070684195 -0.06895775
0002d0 40 5a 0c bc 9a 3f be bc 9c 5f 7c bd 90 da 82 bd
       -0.008566439 -0.023223687 -0.061614618 -0.06389344
0002e0 ad 30 2a bd 44 68 80 bd 06 d8 a6 3d c2 84 87 3d
       -0.041550327 -0.06269887 0.08146672 0.066171184
0002f0 50 c7 27 bc 9d 95 21 bd dc 26 90 bd f0 be 2c 3d
       -0.010240391 -0.039449323 -0.07038662 0.04217428
000300 44 be 49 3d fc 75 5f 3d 20 aa e0 bb 90 3c 86 bd
       0.049253717 0.054555878 -0.006856218 -0.0655452
000310 e8 66 97 bd 08 19 a1 3d ae e6 4d bd f1 16 a8 bd
       -0.07392675 0.078661025 -0.05026882 -0.08207501
000320 7f 3f 0f bd 8c 76 81 bc 59 21 34 bd 40 3e 7d bd
       -0.034972664 -0.015803598 -0.043977115 -0.061826944
000330 a8 4a 6b bd 48 f2 02 3c 60 16 e7 3b d7 74 8c bd
       -0.057444245 0.007992335 0.007052228 -0.06858223
000340 24 46 83 bd e0 1a 71 3b 60 c7 f5 bb 42 f8 8d 3d
       -0.06409863 0.00367897 -0.007500574 0.06932117
000350 80 4e 10 bb e0 0c 8e 3d 14 9b fb 3c 60 3f 4e bd
       -0.0022019446 0.069360495 0.030713595 -0.050353408
000360 0f 38 a0 bd a8 6e 21 bc da be 83 bd 68 91 68 3c
       -0.07823192 -0.009853043 -0.064328864 0.014194824
000370 00 f0 30 3a 24 ba fc 3c 18 d1 6b 3d c2 cb 05 bd
       0.000674963 0.030850478 0.057572454 -0.03266502
000380 5e 00 85 bd 5c 4b c0 3c fc 75 81 bd 58 b8 7f 3d
       -0.06494211 0.023473434 -0.06321332 0.062431663
000390 8c 55 93 3d 40 c7 7b 3c c0 f7 7c bd 7e fe 0e 3d
       0.07194051 0.015367329 -0.06175971 0.03491067
0003a0 ac 9c e8 3c 38 80 8f 3c 44 0c db 3c 00 00 29 38
       0.02839502 0.017517194 0.026739247 4.029274e-05
0003b0 18 54 95 3d f2 33 21 3d d0 81 7c 3d 58 b6 53 bc
       0.0729143 0.03935618 0.061647236 -0.012921892
0003c0 8a 09 99 3d 9a e3 ad bc 32 b7 a5 bd f2 fa 96 3d
       0.074725226 -0.021226693 -0.08091582 0.07372083
0003d0 64 50 27 3d e0 33 14 3c 20 c4 20 3c b0 44 38 3d
       0.04084815 0.009045571 0.009812385 0.04498738
0003e0 00 07 b2 3a 94 03 be bc e3 b1 a6 bc 08 8d 3d bd
       0.0013582408 -0.023195066 -0.020348495 -0.046277076
0003f0 88 be 9e bd 30 72 9a 3b a0 4a 5f bd 91 b0 29 bd
       -0.07751185 0.0047133192 -0.054514527 -0.041428152

encoder_solv.W_i.bias f4 [128]
000000 4a fe 42 bd ec 19 eb bc bd a6 88 bd 97 ef 03 bd
       -0.04760579 -0.028698884 -0.06672428 -0.032210913
000010 d4 7d 93 bd 9d 10 09 bd 19 cd d5 3c 5d 55 55 bd
       -0.07201734 -0.03346311 0.026098775 -0.052083362
000020 df 83 87 bd d8 e2 a2 bd 6d 80 ef bb 78 5a f7 bb
       -0.06616949 -0.07953423 -0.0073090107 -0.0075486265
000030 e5 ee 90 bd d2 2a 9e 3a a2 79 2e bb 13 1d c4 3c
       -0.070768155 0.0012067205 -0.0026622792 0.023939645
000040 ca 9f d1 bc b1 88 4c 3d 9c 8d 18 bd 17 70 b1 bb
       -0.025588889 0.049935047 -0.037244424 -0.0054149735
000050 66 7c 5d bd 2c 8c 42 ba 43 83 10 3d ea 5c 69 bc
       -0.054073714 -0.00074214 0.03528143 -0.014243344
000060 17 70 83 bd 31 49 a8 3c c5 cc 99 bd a5 5a 2d bd
       -0.06417864 0.020542713 -0.0750976 -0.042322773
000070 3c 28 14 bc fc 8a b5 bc a6 2c 69 bd a7 7a b4 3c
       -0.009042796 -0.022161 -0.056927346 0.022031141
000080 de 37 76 bc a2 16 f4 b7 ab 64 8c 3c d0 47 81 3b
       -0.015027968 -2.9097606e-05 0.017137846 0.0039453283
000090 56 0b a2 bd 1f 8a 92 bd ee 84 82 bd 88 1d da bc
       -0.079123184 -0.07155251 -0.063730106 -0.02662541
0000a0 de 2a ab bd 63 04 ba bd 11 c1 d4 bc 45 bc aa 3c
       -0.08357786 -0.09082868 -0.025970967 0.020841727
0000b0 0c 80 3e bd 18 0c 4e bd 4c a7 d6 3a 10 55 2b 3b
       -0.046508834 -0.050304502 0.0016376763 0.002614323
0000c0 36 26 c2 bd 4e e9 01 bd a4 0f 5a 3b 2e db 5c bd
       -0.094799444 -0.031716637 0.0033273483 -0.053919964
0000d0 32 ab 81 bd ad 80 9b 3c de 07 99 3c ca cf f8 3c
       -0.06331481 0.018982256 0.01868051 0.030372519
0000e0 f2 49 98 3b da 1f 30 bd 55 b5 02 3c 68 9f 1f bd
       0.004647487 -0.042999126 0.007977803 -0.03897038
0000f0 47 ae 7e bd 66 80 42 3d 63 01 85 3d a8 0b 94 bd
       -0.062177923 0.04748573 0.06494405 -0.07228786
000100 f2 0b 03 3d e3 d5 5d 3d 8e dc 92 bd 49 b5 89 bd
       0.031993814 0.054159056 -0.07170974 -0.067240305
000110 8b d2 de bc 19 0f f3 3c 20 68 79 bd ed d3 0b bd
       -0.027200004 0.029670285 -0.060890317 -0.034137655
000120 2d 87 a0 bd 45 ee a9 3c de 77 a6 bb 2c 20 0e 3d
       -0.07838283 0.020743499 -0.0050802073 0.03469865
000130 02 f8 30 bd c0 63 00 3d 93 69 bc 3c 6c a5 64 3c
       -0.04320527 0.03134513 0.02299956 0.013955455
000140 5c 7b 6b 3d 36 bb 1f 3d d7 21 c8 bc a4 a2 a4 bd
       0.05749069 0.038996898 -0.024430199 -0.08038834
000150 9c e5 21 3d b5 f1 22 bd b7 60 06 bd 8d 68 d3 bb
       0.039525613 -0.03978129 -0.03280708 -0.0064516724
000160 9d 93 60 bd 21 4c a0 bc 82 5f b9 bd 7f ef 73 3c
       -0.054828275 -0.019567551 -0.0905142 0.014888643
000170 9a a2 35 3d fa 29 74 bc ac 2f f1 bc c5 ae 6f bd
       0.044344522 -0.014902586 -0.029441677 -0.058516283
000180 59 33 99 bc 96 ae 4c bd 8e 29 c4 bb 49 72 9b 3c
       -0.018701242 -0.049971186 -0.005986399 0.018975394
000190 f0 66 ea bb de b0 a9 3c 0a 1d 31 3c 89 23 b7 3b
       -0.0071533844 0.02071422 0.010810146 0.005588953
0001a0 56 16 e4 3c cd 49 b3 3c e1 09 1c 3d ae 74 3b bd
       0.027842682 0.021885777 0.03809536 -0.04576557
0001b0 b2 17 72 bd 78 31 d2 3c 83 6b 86 bd ad 19 89 bd
       -0.05910463 0.025658354 -0.06563475 -0.066943504
0001c0 d3 be 95 bd 27 5c ac bd cb 02 8b bd c0 f5 91 3c
       -0.073117875 -0.08416014 -0.06787642 0.017817378
0001d0 fd a4 cd bc 50 d2 03 3d 5a 00 71 bd 6a 84 73 bd
       -0.025103087 0.03218299 -0.058838226 -0.05945245
0001e0 c6 36 66 bc 82 1d 04 3b b6 1b f6 bb 62 75 f5 3c
       -0.014051145 0.002015919 -0.0075106276 0.029963199
0001f0 1a 69 1e 3d 4c 6f 68 bc d6 eb e8 bc cd 1e 4e bd
       0.03867445 -0.0141866915 -0.028432768 -0.050322343
