THESIS/checkpoints/D-MPNN with attention.pt (torch, 558709 bytes, 15 tensors)

encoder_sol.cached_zero_vector f4 [128]
00000000: 0000 0000 0000 0000 0000 0000 0000 0000
00000010: 0000 0000 0000 0000 0000 0000 0000 0000
00000020: 0000 0000 0000 0000 0000 0000 0000 0000
00000030: 0000 0000 0000 0000 0000 0000 0000 0000
00000040: 0000 0000 0000 0000 0000 0000 0000 0000
00000050: 0000 0000 0000 0000 0000 0000 0000 0000
00000060: 0000 0000 0000 0000 0000 0000 0000 0000
00000070: 0000 0000 0000 0000 0000 0000 0000 0000
00000080: 0000 0000 0000 0000 0000 0000 0000 0000
00000090: 0000 0000 0000 0000 0000 0000 0000 0000
000000a0: 0000 0000 0000 0000 0000 0000 0000 0000
000000b0: 0000 0000 0000 0000 0000 0000 0000 0000
000000c0: 0000 0000 0000 0000 0000 0000 0000 0000
000000d0: 0000 0000 0000 0000 0000 0000 0000 0000
000000e0: 0000 0000 0000 0000 0000 0000 0000 0000
000000f0: 0000 0000 0000 0000 0000 0000 0000 0000
00000100: 0000 0000 0000 0000 0000 0000 0000 0000
00000110: 0000 0000 0000 0000 0000 0000 0000 0000
00000120: 0000 0000 0000 0000 0000 0000 0000 0000
00000130: 0000 0000 0000 0000 0000 0000 0000 0000
00000140: 0000 0000 0000 0000 0000 0000 0000 0000
00000150: 0000 0000 0000 0000 0000 0000 0000 0000
00000160: 0000 0000 0000 0000 0000 0000 0000 0000
00000170: 0000 0000 0000 0000 0000 0000 0000 0000
00000180: 0000 0000 0000 0000 0000 0000 0000 0000
00000190: 0000 0000 0000 0000 0000 0000 0000 0000
000001a0: 0000 0000 0000 0000 0000 0000 0000 0000
000001b0: 0000 0000 0000 0000 0000 0000 0000 0000
000001c0: 0000 0000 0000 0000 0000 0000 0000 0000
000001d0: 0000 0000 0000 0000 0000 0000 0000 0000
000001e0: 0000 0000 0000 0000 0000 0000 0000 0000
000001f0: 0000 0000 0000 0000 0000 0000 0000 0000
0.0 0.0 0.0 0.0 0.0 0.0 0.0 0.0
0.0 0.0 0.0 0.0 0.0 0.0 0.0 0.0
0.0 0.0 0.0 0.0 0.0 0.0 0.0 0.0
0.0 0.0 0.0 0.0 0.0 0.0 0.0 0.0
0.0 0.0 0.0 0.0 0.0 0.0 0.0 0.0
0.0 0.0 0.0 0.0 0.0 0.0 0.0 0.0
0.0 0.0 0.0 0.0 0.0 0.0 0.0 0.0
0.0 0.0 0.0 0.0 0.0 0.0 0.0 0.0
0.0 0.0 0.0 0.0 0.0 0.0 0.0 0.0
0.0 0.0 0.0 0.0 0.0 0.0 0.0 0.0
0.0 0.0 0.0 0.0 0.0 0.0 0.0 0.0
0.0 0.0 0.0 0.0 0.0 0.0 0.0 0.0
0.0 0.0 0.0 0.0 0.0 0.0 0.0 0.0
0.0 0.0 0.0 0.0 0.0 0.0 0.0 0.0
0.0 0.0 0.0 0.0 0.0 0.0 0.0 0.0
0.0 0.0 0.0 0.0 0.0 0.0 0.0 0.0

encoder_sol.W_i.weight f4 [128, 147]
00000000: a4a1 7a3d bcd8 1d3d e0e6 0b3d 8004 74ba
00000010: 663d 80bd 3bc6 76bb 1d37 f33d 8bd6 703d
00000020: 62e6 55bd b828 153d 66a6 273d 4429 1e3d
00000030: 56cc 75bd 2256 21bd 0786 5a3b 0f0e 0ebd
00000040: 3d65 0a3d 3445 4b3d 005b 98bd 733a 6bbd
00000050: 28da c8bc da21 9abd 0048 843a 643b 4c3d
00000060: b0dd 2cbc 5810 7d3d f425 953d b754 35bd
00000070: 636a 54bd d049 963d 5386 a3bd aed2 2b3d
00000080: 0520 97bd 7435 ebbc e9ff c6bd cec6 1a3d
00000090: d3e4 1fbd b072 283d 408a f5bb b8a1 6f3d
000000a0: 4c3b 433d f0d0 2bbc b760 87bd 8042 593a
000000b0: 14e4 97bd b4b8 823c b48e 33bd 84a7 ddbc
000000c0: 3e54 5ebd d442 8dbd 4ede 903d 08bd 7b3d
000000d0: 23c7 203d 5872 8b3d 7813 7a3d f842 6d3d
000000e0: 406a 2ebd 9415 94bc 0ca9 d03c 804a 383c
000000f0: e003 ab3b 0e2e 943d a299 a3bd 8042 583b
00000100: f028 62bc 6625 853d 649a fbbc f113 42bd
00000110: 926b a03d a409 ba3c 4281 173d 5421 3c3d
00000120: 3c55 49bd 9828 523d 12db 5cbd 1852 78bd
00000130: 03d2 86bd ec04 9dbd d0af c13b 58ef 0abd
00000140: 6827 bcbc 58e7 8ebd 2866 113d 43fd 61bd
00000150: d451 44bd 6002 eb3b 78b6 953d 1f4e 3fbd
00000160: 44af 9dbc 30ff 6fbd 8096 0abb 0a5a 26bd
00000170: d01b 213d 28ad 9e3c 6827 36bd 180c 103d
00000180: 104f 4b3d 48c8 533d 4b6f 94bd 135d 44bd
00000190: c0f2 48bc 904e 633d fcab f3bd 56ab 323e
000001a0: c8ef ca3d 4451 3ebd 0041 c7ba e3e5 3ebd
000001b0: 78d4 143d 704e 5f3d 7bbe 6cbd 7886 3abc
000001c0: a37e d3bc 00fb 673d fd49 36bd dc3b c539
000001d0: 3d81 6fbd 2457 f03c d64f 7cbd adaf 253d
000001e0: a6d6 76bc 78f4 5fbd f04d 9e3d b859 593c
000001f0: d83c 05bd edf0 833d 51b1 34bd 8c3c c03d
00000200: 14f2 b0bc e0ab b3bb 88c4 0d3c 69a2 79bd
00000210: 8b44 9a3d bc38 353d f5de d6bb e552 873d
00000220: 8158 81bc b64d e6bd a9bb 3fbd 3c2c 09be
00000230: d877 133d 9093 e7bb 8c26 153b 3b12 94bd
00000240: eee5 c8bc 504d 863d a625 0fbd 7439 a0bc
00000250: cb80 23bd 5e70 bebc 121f 0c3d a815 753c
00000260: 16fd b8bc b389 8d3b 2475 7d3d 3db0 f0bd
00000270: 5834 58bc 883e de3c c04a 9e3b a0c4 5a3d
00000280: 009b 503d 70e9 3d3d 1bce 8ebd 6f42 bd3c
00000290: a0e0 1b3c a0ec 1abd 2060 d2bc e8d7 503c
000002a0: 1476 bebc 841e 753d 885f 4f3d 95c1 39bd
000002b0: 5f85 94bd e823 143d aeba 983d 52da 87bd
000002c0: 34c1 243d 1215 d7bc 0f2a 2abd 0ca7 ca3c
000002d0: 1607 5fbd 95d7 793d 4e27 8d3d 3c6b 9abc
000002e0: d026 763d 9830 5a3d 3413 31bd 543a 3dbd
000002f0: d448 563d 56e8 94bd 7825 533d d419 f6bc
00000300: 042f 6b3d f00d d33c 8266 8b3d 24de 6a3d
00000310: 2012 443c a2af 9a3d 983b 78bd 45a9 543e
00000320: fc11 633d d62b 933d afdc 5bbd 702a 46bc
00000330: c8c1 52bc a8af 8fbd 5037 a9bc cc00 273d
00000340: 48a2 fabc 703f 7dbc 4a33 83bd 141d 593d
00000350: 98d3 563d ee01 1abd 6a5b 2bbd 447a 843d
00000360: 6873 3bbc 948c 4cbd 92b4 72bd ca7a a43d
00000370: 7cc8 cbbc 1ae4 3abd e448 9fbc 498d 1cbd
00000380: 692c a7bd 2ef8 77bd b215 883d 1a8f 29bd
00000390: 02fe 1dbd f0ea 8ebc 7cbb 103d 36ea 0dbd
000003a0: 6e09 923d d06b ab3c 60be 273b 508f 3d3d
000003b0: 82a6 a63d 47da 09bd 38f7 383c 027f 103d
000003c0: 16f4 9ebd 3259 0f3d b64f 87bd 00d5 4bbc
000003d0: 4f77 a2bd 1211 2b3d 577e 45bd d36e 9cbd
000003e0: 848b 90bd 3cd9 913b dea6 583d 3efb 94bd
000003f0: 2610 af3d 78eb 9e3c 4023 113c 898b 41bd
0.06118931 0.038536772 0.034155726 -0.0009308532 -0.06261711 -0.0037654776 0.118757464 0.058798354
-0.052221663 0.036415786 0.040930174 0.038613573 -0.060009323 -0.039388783 0.0033344047 -0.034681376
0.033787955 0.049626544 -0.07439232 -0.05742879 -0.024518088 -0.07525988 0.0010092258 0.049861327
-0.010550901 0.061783165 0.072826296 -0.044270243 -0.05185927 0.07338297 -0.07984605 0.041948967
-0.07379154 -0.028712012 -0.0971678 0.03778725 -0.039036583 0.041125 -0.0074932873 0.058503836
0.04766397 -0.010486826 -0.06610244 0.00082878023 -0.07416549 0.015957214 -0.043837264 -0.027057417
-0.05427956 -0.06897512 0.07073651 0.06145957 0.03925241 0.06808919 0.061053723 0.057925195
-0.042581797 -0.018076696 0.025471233 0.011248231 0.005218968 0.07235347 -0.079882875 0.0032998621
-0.013803706 0.06501274 -0.030713268 -0.0473823 0.078330174 0.022709675 0.036988504 0.04593022
-0.04915355 0.051308244 -0.05391986 -0.060625166 -0.06583025 -0.076669544 0.005910851 -0.033919662
-0.02296801 -0.06977719 0.035497814 -0.05517317 -0.0479296 0.007171914 0.07310194 -0.04670536
-0.019248612 -0.058592975 -0.0021146834 -0.04061321 0.039333165 0.019369677 -0.044471174 0.035167783
0.049635947 0.051704675 -0.0724779 -0.047940325 -0.012264907 0.055494845 -0.11898038 0.17448172
0.09909016 -0.04646422 -0.0015201867 -0.046605956 0.03633544 0.054518163 -0.057798844 -0.011384599
-0.025817221 0.056635857 -0.044504154 0.00037619367 -0.05847286 0.029338427 -0.061599575 0.04045074
-0.015065825 -0.054676503 0.07729709 0.0132660195 -0.03252873 0.06442437 -0.044114415 0.093865484
-0.021599807 -0.0054831356 0.008652814 -0.060945902 0.07532605 0.04424356 -0.0065573403 0.06607608
-0.015789272 -0.11245291 -0.046809826 -0.1339578 0.036002964 -0.0070671514 0.0022758571 -0.0723004
-0.024523702 0.06557715 -0.034948014 -0.019558646 -0.03991775 -0.02324694 0.03420932 0.0149587765
-0.022581618 0.0043193935 0.061879292 -0.11752365 -0.0131960735 0.027129427 0.0048306882 0.053410172
0.05092907 0.0463652 -0.06972905 0.023102967 0.009514004 -0.03782332 -0.025680602 0.012746789
-0.023249663 0.059843555 0.050628215 -0.04535063 -0.07252001 0.036167055 0.07457481 -0.06633438
0.040223315 -0.026255164 -0.041544016 0.024737857 -0.054450117 0.06099661 0.068922624 -0.018849961
0.06009561 0.053269 -0.043231204 -0.046198204 0.052315548 -0.07270877 0.051549405 -0.030041613
0.057417884 0.025763482 0.06806661 0.057340756 0.011967212 0.075530306 -0.060603708 0.20767696
0.055437073 0.071860954 -0.053677257 -0.012095079 -0.012863584 -0.07015926 -0.020656258 0.040772244
-0.03059496 -0.015457019 -0.06406267 0.053006247 0.052447885 -0.037599497 -0.041835226 0.06468633
-0.011441089 -0.049938753 -0.059254237 0.08031233 -0.024875872 -0.04562769 -0.019443937 -0.038220678
-0.081627674 -0.060539417 0.06644763 -0.041396238 -0.03857232 -0.017446011 0.03533505 -0.03464719
0.07130705 0.020925432 0.002559565 0.04627925 0.081372276 -0.03365543 0.01128941 0.035277374
-0.077613994 0.034997173 -0.066070005 -0.01244092 -0.079329126 0.041764326 -0.04821619 -0.076383255
-0.070578605 0.004450945 0.052893512 -0.07274483 0.08548002 0.01939939 0.008858502 -0.04725221

encoder_sol.W_i.bias f4 [128]
00000000: 31fd 2dbc 1808 1cbc c797 943d a348 1fbd
00000010: 95c4 92bd eaa9 d7bc 09d0 3f3d be8f 57bd
00000020: da5c 38bd 5c22 05bd 1cfe 80bd 606f 803a
00000030: f981 b1bb 9f68 a1bd 4925 cfba 9c09 d93b
00000040: fe79 82bb ac24 71bc 47ad a6bb 33fb 2cbd
00000050: 44f1 c83c c2ab 0fbd 03bd 003c ccca a03c
00000060: 108e adbd fa76 33bd 5b0b 82bd 262e 5fbd
00000070: 12a9 8ebd 56e6 87bc 081e 733d 7951 be3c
00000080: 7164 503d bfa4 a73c 1496 03bd 759c 73bd
00000090: 8d9c 343c 4fb9 193d a70c ab3c b264 5d3d
000000a0: b6cb 873c b83e e4bc e1f9 233c acf3 62bd
000000b0: e192 91bd 5c26 3dbd 49f5 253d cf54 98bc
000000c0: f169 483d 6144 bfbc cd78 fe3c 7915 ff3c
000000d0: 4e2d bc3c 2868 76bc 9c0f a7bc fdd3 2abb
000000e0: a44a 77bd 41eb 7ebd f85a bcbc 3e8b ae3c
000000f0: 30cf 6ebd 4120 ff3b 632b 4b3d 906b 81bd
00000100: f2eb fabc 7172 19bd c59c bdbd d826 23bd
00000110: 4e8d 7dbd 7628 443c 0b00 7fbc 2b5c 6d3c
00000120: 474a 93bd cef9 dabb 84a3 2dbd 51fe 6fbd
00000130: 3c56 87bd e5d7 3d3d b3b7 d03c 8b6c a0bb
00000140: 604c 56bd 64a7 b73c cd8e 323d bba9 02bd
00000150: fb48 f0bc f11c bbbc 6786 e43c 1271 f539
00000160: 1b21 fcbc b84d b0bc 5bb9 fe3c ede8 303d
00000170: f1d6 fc3b 42f7 873c 501f 22bd 89da 04bd
00000180: d7ce 02bd 8018 e83c fcdd 0dbb 5f5c de3b
00000190: 997e 87bd 22d3 613d a6a0 f93c 9eb0 003d
000001a0: 4654 93bc def8 963c 472d 903c 952a 9dbd
000001b0: 0547 ae3c 225d 87bd 7eaa 493d 5ce7 d7bb
000001c0: d8f0 27bd 6a55 a0bc 3de7 7abd c71e 0d3d
000001d0: 824d 183d d457 22bc 73ea 7dbd 39d4 ab3b
000001e0: 3f78 48bb 24ee 373d a04b 8cbd 258b f6bb
000001f0: 3f5a c2bc e94c ae3c 240c 81bd 9be2 6abd
-0.010619448 -0.009523414 0.07255512 -0.03888763 -0.07166401 -0.026326139 0.046829257 -0.052627318
-0.045010425 -0.03250347 -0.062984675 0.0009798817 -0.0054171053 -0.07881283 -0.0015803959 0.00662346
-0.0039818278 -0.014718216 -0.0050865742 -0.04223175 0.024529107 -0.03507591 0.007857564 0.019627951
-0.08474362 -0.043814637 -0.06349822 -0.05448737 -0.06965841 -0.016589325 0.059354812 0.023232209
0.05087704 0.0204643 -0.032125548 -0.05947538 0.011023653 0.03753024 0.020880057 0.05405111
0.01657663 -0.027861938 0.010008306 -0.055408165 -0.07108093 -0.04617916 0.040517125 -0.018595127
0.04892916 -0.023348035 0.031063462 0.031138169 0.022970822 -0.015039481 -0.020393185 -0.0026066296
-0.060373917 -0.062236074 -0.022992596 0.02130663 -0.05830306 0.0077858274 0.049601924 -0.06319344
-0.030630086 -0.037462655 -0.09258417 -0.039831966 -0.061902337 0.011972537 -0.015563975 0.014487307
-0.07191902 -0.006682611 -0.04239227 -0.058592144 -0.06608245 0.04634847 0.02547822 -0.004895752
-0.05231893 0.022418685 0.043593217 -0.03190015 -0.029331675 -0.022840949 0.02789612 0.00046814285
-0.030777505 -0.021521434 0.031094244 0.043190885 0.0077160527 0.016597394 -0.039580643 -0.032434974
-0.03193554 0.028331995 -0.0021647206 0.006785914 -0.066159435 0.055132993 0.030472111 0.031418435
-0.01798452 0.018429216 0.017599715 -0.076741375 0.0212741 -0.066095605 0.04923486 -0.0065888595
-0.04100117 -0.019571979 -0.061255682 0.03445318 0.037183292 -0.009908635 -0.061991166 0.005243805
-0.003058925 0.044904843 -0.06850362 -0.0075239115 -0.023724673 0.021276908 -0.06301144 -0.057345014

encoder_sol.W_h.weight f4 [128, 128]
00000000: fadc 5a3d 56cb 503b d5d6 3d3d 09b9 433d
00000010: c55f 913c 67bb 5f3c 247f 70bd cb22 92bc
00000020: 92e0 abbd e62a ef3b f6b9 ee3c 016f b0bd
00000030: 367c 6abd 0690 6fbd bbcd 4cbb fd62 b4bd
00000040: ed48 bb3c eba8 bcbd 2d1b 613d a6da e3bc
00000050: eade 0e3d 2e32 4f3d 9e5b b33c 926e 82bd
00000060: f9a4 8f3d 87b6 3fbd b68d ac3d 63f2 aa3d
00000070: 9509 393d 3823 a43d 6c63 1d3c e989 f1bc
00000080: b961 c1bd bc94 7dbd 8737 0f3e 630c 0abc
00000090: 75e0 693d a0cb 763b 0fb5 ac3c 7668 b9bd
000000a0: a1fa e6bc a20e a33d daf6 81bd 4aad c6bd
000000b0: 2cd3 a9bd 1c0b 913d 2e0b c6bb 827f b03d
000000c0: 6c3d 96bd 5944 4f3d 1c87 94bd 69ce 8abc
000000d0: 1284 703d a8cc 183d 0b27 90bc d0e2 a8bd
000000e0: 23f5 88bc 6c77 833d 7a43 073d 8a1d 1b3d
000000f0: 7549 c0bd acae f5bb 66ea eb3c 6e1a 563d
00000100: 6c7d 5abc c9bd c63d e24b 2f3c 86c1 993d
00000110: 5ac7 a6bd 8545 8a3c 52d8 9bbc e3d6 553d
00000120: 787f d83d 56a5 10bb 57e7 a83d 2e08 8cbd
00000130: 0ad8 91bd 9613 693d 57d0 953d a2b6 36bd
00000140: 6ac8 b33c fbeb aa3c c5ab 19bd 5ba4 033d
00000150: 313c a23c ddff 0c3d fb3d a1bd 6185 113d
00000160: 9741 ae3d 0286 90bd ca25 8ebd c3f2 823c
00000170: 0cbf 8abd 4120 323c 35d8 603d 803d 213e
00000180: 0906 933c a443 babd 162a 5d3d 21bd 84bd
00000190: 01bc d7bd c672 ddbc 4e67 d13c 46eb 463d
000001a0: 1b5b e83c 9da7 8bbd 1cbf 863d db14 11bd
000001b0: 9122 513d a497 0b3c a352 aa3b b38f 623d
000001c0: 7613 6dbd c1ed 093d 9cf1 283e faad c5bc
000001d0: 0f02 c8bc 20e4 f2bc aeda 90bd 9ad7 f9bc
000001e0: 96d2 f93c befd 6d3d 936f 35bc d13b 53bd
000001f0: 4edc bc3d 0afe a0bd 2822 b43d e798 b83c
00000200: cdbe 6f3d de02 1bbd af83 65bd 9c4d dcbd
00000210: 6295 5a3c dba2 a93d 7f1d c0bc 5c74 463d
00000220: 5648 39bd b3ab 8bbc f04c 80bd c13e 1abd
00000230: f868 063d 88c1 0bbc 9059 fa3c c829 403b
00000240: db36 113d bed9 a93d 0c57 873d dc60 26bd
00000250: 9cf6 023b 4fdf 6b3b 82f2 37bd 4f56 6f3c
00000260: 6dc9 54bb 8b09 833d d48d 833b d8c4 3f3c
00000270: adcf 39bd f0d3 d7bd 65ca 983c f578 2ebd
00000280: d434 f73b 73c4 b5bd ed95 21be 4132 b0bd
00000290: 351d 8abd d68e fc3c 114f 063d 3932 b1bc
000002a0: 70a8 1dbd e0cb 633d 4076 cdbc 02db 4cbd
000002b0: 5890 6f3b ba25 2ebd d5a1 aabd b429 523c
000002c0: f1cf a63d 7d14 89bd 1fc4 edbc 6fab 81bd
000002d0: 3afc 983d 05bc 293d 5feb d63d c508 ca3c
000002e0: a73e 993d 197a d0bd 3014 8a3c d46d 573d
000002f0: 84a4 9bbd 060f a9bd 4b6d 9f3d 99b4 063d
00000300: 2840 8cbd 3c7f 603d 2436 663c ea57 3c3d
00000310: bdc6 b83c 60ac 8a3c d94f c6bd bf72 02bd
00000320: d64d 69bd 991a c73d 549a 013d 3221 0ebd
00000330: 7a19 8abc 1193 04bb ca9c 17bc 164a 993d
00000340: f4a3 2d3d ead3 62bd aba7 9c3d 2988 a03d
00000350: 07ab 9e3e 4381 29bc 9f28 2bbd c1cf b6bd
00000360: f92d a63c 60e8 853d c0e7 8cbd c858 8d3d
00000370: 59ef 86bc 802d 58bb 1a1b 6b3d c02b 193e
00000380: e33b 45bc e711 973c e230 7fbd 23fe 3bbd
00000390: 2fb8 a4bd dfbb 2dbd 33f5 613c 6074 ac3d
000003a0: 55ff 22bd 38de 6fbc b437 b1bc 8c14 413b
000003b0: 7a23 8bbd 023a 673d 8b3f 7f3c afdd 34bd
000003c0: d198 05be e5a1 583e bcc9 20ba 26a9 d13d
000003d0: 254f cebc 56a7 a63d a9f7 aebd 33a1 1bbb
000003e0: 9d77 cbbd 1b58 afbc 34e4 6f3d f16d 6c3d
000003f0: 036f 8b3c 88ee f43b e5a5 433e d8be ccbd
0.053433396 0.003185948 0.046347458 0.047783885 0.017745862 0.01365552 -0.058715 -0.017838856
-0.08392443 0.007298815 0.029141407 -0.08614922 -0.057247363 -0.05848696 -0.0031250555 -0.08807943
0.022861922 -0.09211906 0.054957557 -0.02781422 0.034880556 0.050584964 0.021894272 -0.06368746
0.07013888 -0.04680493 0.08425467 0.08347013 0.045175154 0.0801453 0.009606224 -0.029484706
-0.09442467 -0.061909422 0.13986026 -0.008425805 0.057098825 0.003765799 0.02108243 -0.090531275
-0.028195681 0.07961775 -0.06345911 -0.09701021 -0.08292231 0.07082197 -0.006043813 0.0861807
-0.07335934 0.05060229 -0.072523326 -0.016944127 0.058719702 0.03730455 -0.017596742 -0.08246386
-0.016718453 0.06419262 0.033023335 0.037869968 -0.09389011 -0.007497629 0.028798293 0.0522713
-0.013335567 0.097041674 0.010699244 0.07507615 -0.08143492 0.016878853 -0.019024048 0.052206885
0.10571188 -0.0022071204 0.082472496 -0.06837498 -0.07121284 0.056903444 0.07315128 -0.044607766
0.02194615 0.020864477 -0.037517328 0.032139163 0.019804092 0.034423698 -0.0787315 0.03552759
0.08508604 -0.0705681 -0.069408014 0.015984898 -0.067747205 0.010871948 0.05489369 0.15746117
0.017947214 -0.09094933 0.053995214 -0.06481386 -0.10533906 -0.027032267 0.025561955 0.048564218
0.028363755 -0.06819079 0.0657942 -0.03542028 0.051058356 0.008520041 0.0051978393 0.055312824
-0.057879888 0.033674005 0.16498417 -0.02413081 -0.024415044 -0.029649794 -0.0707296 -0.030498315
0.030495923 0.058103316 -0.011073965 -0.051570717 0.09221707 -0.07860954 0.08795577 0.022533847
0.05853157 -0.03784453 -0.056033786 -0.1075699 0.01334128 0.08283015 -0.023451565 0.048450813
-0.045235 -0.017049646 -0.06264675 -0.037657503 0.03281495 -0.008530028 0.030560285 0.0029321779
0.035452705 0.08293484 0.066084 -0.040619716 0.0019983416 0.0035991257 -0.044909008 0.01460798
-0.0032468692 0.063983046 0.00401471 0.011704646 -0.04536407 -0.10538471 0.018651197 -0.042595822
0.0075441394 -0.0887536 -0.15779848 -0.08603335 -0.06743852 0.030829828 0.032790247 -0.021630393
-0.038490713 0.055614352 -0.0250808 -0.05001355 0.0036554541 -0.042516448 -0.08331648 0.012827326
0.081451304 -0.06693361 -0.029024182 -0.063315265 0.074699834 0.041439075 0.10494112 0.024662385
0.07482653 -0.10179538 0.01685533 0.052594975 -0.07599738 -0.082548186 0.07784518 0.032887075
-0.06848174 0.05480884 0.014050994 0.04598228 0.022555703 0.016927898 -0.096831985 -0.03184771
-0.056958996 0.0972187 0.03164132 -0.034699626 -0.016857851 -0.002022926 -0.00925369 0.07484834
0.042392686 -0.05537788 0.076491676 0.078384705 0.30989859 -0.01034576 -0.041786786 -0.08926345
0.020285593 0.06538463 -0.0688014 0.06901699 -0.016471552 -0.0032986104 0.057398893 0.14958096
-0.012038204 0.018441154 -0.062302478 -0.04589666 -0.08042943 -0.042415496 0.01379137 0.08420634
-0.039794285 -0.014640383 -0.021633007 0.002946171 -0.06793876 0.056451805 0.015579115 -0.044156726
-0.13046576 0.21155508 -0.00061335764 0.10237341 -0.025184223 0.081373855 -0.08543331 -0.0023747205
-0.09934924 -0.021404317 0.05856724 0.057722036 0.017020708 0.007474724 0.19106252 -0.09997338

encoder_sol.W_h.bias f4 [128]
00000000: e510 9c3d c048 69bd 8574 a1bc 4918 a4bd
00000010: 0ed7 28bd 475b 5abc d8aa a0bd 54f2 92bd
00000020: 051e 2f3d a95f b13c 365e 803c 6678 9f3c
00000030: e602 ecbc 8f61 88bd cf96 83bd e90c 83bd
00000040: 1870 213b 3a0f 97bd d18f 14bc ba2c bebc
00000050: a892 32bd 41f4 b1bd 7608 49bd 3c3f 603d
00000060: 8413 b2bd 7f9c 88bd 1418 843d 6eee 893c
00000070: c893 293d 407f 94bd 45ac b7bc bd05 1a3d
00000080: bd37 b03d a7bc 14bd 1ab8 4b3d 3930 7d3b
00000090: 7af6 36bd c5a5 adbc e298 9f3d 9b44 1cbd
000000a0: 5d8a 0a3d 9e2a 7ebd 75f9 673c eda3 6bbd
000000b0: 075d e136 5b3f 3fbd 2d22 85bc 40d7 22bd
000000c0: 695e 2a3d b87a ca3c a567 bdbd 66db 953d
000000d0: 91fd 623d 089e 9cbd 59cd b73b 21de 543c
000000e0: 07f2 58bc b24c 20bd 30f5 ab3a e9c9 a5ba
000000f0: dcfa 7dbd ed88 9ebd 337c 90bd 418a abbc
00000100: 2f8a 9d3d 3e4f 78bc d555 e0ba a7b0 57bd
00000110: 1dcb 1dbc 3daa 753d 1764 60bd 1272 93bd
00000120: 48e0 7639 12b3 3f3d 802a a7bd 265c 583d
00000130: a18d 7b3d bda1 1abc 77dd 7bbd 6494 50bd
00000140: 33f2 313d 3219 fdbc d769 493d ceb0 833d
00000150: 765a 7fbd c5b5 653c b369 f43b aef2 2f3d
00000160: 38f9 e43c 454a d53c 0d42 96bd d3ca 50bd
00000170: 00f2 b6bd a54b 24bd 9a9e 1ebd fb0f 853c
00000180: 944f a6bd 67db c03c aa5a bb3c 2f30 493c
00000190: 86b1 a1bd 5dcd 64bc 1f49 1d3b 647c 9abd
000001a0: b8d3 90bc ab89 40bd f598 8a3c ad78 963d
000001b0: 3e18 83bd d8b8 213d f1de 5d3d 6a43 043c
000001c0: d8f5 a8bd 03bc 84bd 2b6f 6dbd f587 28bd
000001d0: 403d a2bd 1d48 81bc 49d7 83bd 1e89 1f3c
000001e0: a28f 7dbd 6521 b8bb 51d6 8f3d f6fb a0bd
000001f0: f687 cabd ee2a c33c 3864 b3ba 4b8b 7dbd
0.0762041 -0.056954145 -0.019708881 -0.080124445 -0.041220717 -0.013327426 -0.07845086 -0.07175127
0.04275324 0.02165206 0.015669923 0.01946659 -0.028809976 -0.06659233 -0.06425249 -0.06398947
0.0024633463 -0.07375951 -0.009067492 -0.023214687 -0.043596894 -0.08689166 -0.049080335 0.054747805
-0.086951286 -0.06670474 0.06449905 0.016837325 0.0414007 -0.072508335 -0.022421012 0.03760313
0.08604381 -0.036312725 0.04973612 0.003863348 -0.044668652 -0.02119721 0.07792832 -0.038151365
0.03382336 -0.06205236 0.014158596 -0.05752938 6.7163523e-06 -0.04669128 -0.016251648 -0.03975606
0.041593943 0.02471672 -0.09248284 0.073172376 0.0554176 -0.076473296 0.005609196 0.012992413
-0.013241298 -0.039135642 0.0013119336 -0.0012648675 -0.062006816 -0.0774096 -0.07054939 -0.020939948
0.07692372 -0.015155612 -0.0017115424 -0.052658703 -0.0096309455 0.059976805 -0.054782953 -0.071994916
0.0002354394 0.046801634 -0.08162403 0.052822255 0.061414365 -0.0094379755 -0.061490502 -0.050922766
0.04344387 -0.030895803 0.049173202 0.06430207 -0.06234213 0.014020388 0.0074588894 0.042956047
0.027950868 0.026036391 -0.07336817 -0.05097468 -0.089328766 -0.040111203 -0.038725473 0.016242972
-0.08120647 0.02354212 0.02287038 0.012279554 -0.07895188 -0.013964978 0.0023999882 -0.07543257
-0.01767908 -0.04700629 0.016918639 0.07347236 -0.06401108 0.03948292 0.05416769 0.008072713
-0.08250016 -0.06481173 -0.057967346 -0.041145284 -0.07921839 -0.015781457 -0.06437547 0.009737281
-0.061904557 -0.0056192153 0.070232995 -0.07860558 -0.09889214 0.023824181 -0.0013686484 -0.06190042

encoder_sol.W_o.weight f4 [128, 261]
00000000: 00cc 44bb acd5 d63c ccae 613d bcc7 6fbc
00000010: f038 803b 40d6 153c 188c 47bc e2f6 673d
00000020: 56b5 49bd 20c6 5a3b 30a3 843b 4464 2fbd
00000030: 0044 1abd ba06 733d 955a 91bc 5e11 3f3c
00000040: b7dc 4fbc f87a cf3c 0069 f6ba 7408 80bc
00000050: 00ba d3bb f6ae 1bbd 48e8 3f3d 5ee8 1dbd
00000060: 84a7 1b3d 9015 963c 3ec2 503d 6665 2a3d
00000070: d82b 243d 2652 453d 4833 32bc 5851 83bb
00000080: c29a 0cbd f85f 4a3d a0bc f4bb a899 503d
00000090: 249d 39bd ec4d a6bc 1800 71bd 9136 5fbd
000000a0: 48ef 03bd b642 b6bc bc87 66bd 8cff 7c3d
000000b0: 4a7e 33bd b00c 5ebd a61c 34bd e897 aa3c
000000c0: 6aa2 583d d6af 5c3d 4ac7 513d afa5 6cbd
000000d0: 9bec 833c 3af1 4d3d 5540 4dbd aabf 0c3d
000000e0: a4a4 67bd 5057 433d 64e3 3f3d 4e77 173d
000000f0: 2ef4 84bc 20f6 793b 3820 9ebb 5806 843c
00000100: 9414 073d 30bd 743d 30b7 e53b 006b ea3b
00000110: 06c3 293d ac6a 823c 503d 46bb 1056 af3b
00000120: 5c78 a33c c09e 733d 800f 003c bac3 643d
00000130: aed0 67bd b8e8 313c 7844 cb3c 006f 22bb
00000140: 62a9 92bc 0882 fb3c 500b 3a3c f86b 293c
00000150: 85d8 05bd 3c42 a2bc 7691 023d a88b 2f3d
00000160: 6917 69bd 2867 0b3d c4df 0e3d 14f9 ba3c
00000170: 9ddd 40bd f0af 6abc 221a fdbc fc95 0f3d
00000180: e45a 17bd 40fa d33b 3eb3 023d dcbb fd3c
00000190: 42aa 763d 40ec 9a3c 213a 14bd 6b37 3b3d
000001a0: 7ccd 29bd 1354 75bd 2cdd 7a3d c24f bebc
000001b0: a4cf fcbd 306e 4a3c 15f4 a03b b8e2 243c
000001c0: 0629 673b b372 52bd a978 f8bc c5b0 803d
000001d0: 5896 933c 5c3e 1d3d 90bb 483c a7d6 5fbd
000001e0: a142 973d c37d eb3c 432e b2bd ecca e03c
000001f0: 9acf 64bd 819f 013d 0eac 87bc 93f6 dfbc
00000200: e295 a9bc a0eb 913b a06d 2a3b 857f 8e3d
00000210: 6da6 6d3d 0126 2abd b616 923d 1934 643c
00000220: f2df 893c 6e7f c43d eee5 6abd 95be edbc
00000230: 3a66 a03d 3f29 18bc 884c 42bb 75b8 683d
00000240: b7f9 163b d115 233d 0f6b dc3b 34d8 a33c
00000250: e529 25bd ecec 56bd a809 b43c 5713 5e3c
00000260: 5ce9 883d 99e1 363d 01a3 7b3d edfb 21bd
00000270: fa15 b0bc 0b1e dbbb e81b 473b b4eb 623b
00000280: f416 c5bd bcd1 8d3a e06c 4cbc 0c8e dcbc
00000290: e324 7b3d 0918 743d 2371 3a3d d012 cbbc
000002a0: 5667 6d3d b56b cc3c 1eff 5a3d 525e e73c
000002b0: aa59 32bd fa22 d3bb 8647 b0bd 36ac 883c
000002c0: 674c 72bd 08ef fe3c 4b8b 833d 97fa f73c
000002d0: ce08 4d3d cf63 fb3c ff8b 40bd 3d30 9abc
000002e0: ca96 0cbd 9482 09bc 390d 5b3d 0cec 913d
000002f0: 8384 f23d 4360 653d c30f ddbc ddb2 883d
00000300: 386f de3c bbab 70bd df1b e9bc 0436 173d
00000310: d00d 4abd 0eb5 98bb e1a1 543c 585e a63b
00000320: c7a3 623d f883 c43d 4f96 953d 0b6a f93c
00000330: 2b02 93bd 7617 0abd 7c9d 90bd 24d1 cbbc
00000340: a9e8 a83c 1479 e03c d147 7d3d a91c b3bb
00000350: 6e58 b33c fa5d b9bc 624b 383d 682a ba3c
00000360: d5c7 04bd c851 ba3d 9ca8 2a3d aa48 f0bc
00000370: c530 a4ba 69d0 2bbb 8115 ecbb dd75 0b3d
00000380: 242b b53b 32a1 993d 7dd6 953d ef09 79bd
00000390: 8599 fa3c 525a 5b3a 1a63 1d3d 65dd ca3d
000003a0: eb00 88bd 2fd9 833d 4683 10bd 39a2 8ebd
000003b0: 77aa 14bd ca8e bebc 826c 15bd f3cb 6f3d
000003c0: cb79 8cbd b160 8e3d f8c4 9bbd 41d9 e83c
000003d0: 27f5 033d f3d7 af3c d00c 2f3b 04cc 84bd
000003e0: 7a48 e63d f6b4 ddbc b047 a13b 93bd 5cbc
000003f0: 8b1b ce3b fa7b 14bc 7ca9 38bd a6d6 99bb
-0.003002882 0.026224934 0.05509834 -0.014635023 0.0039130375 0.009145319 -0.012179397 0.05663193
-0.0492452 0.0033382252 0.004047774 -0.04282023 -0.037662506 0.059332587 -0.017743388 0.0116618555
-0.0126869 0.02532719 -0.0018799603 -0.01562903 -0.006461382 -0.038008653 0.04685238 -0.03855168
0.038001552 0.018320829 0.050966494 0.041600607 0.040080875 0.048174046 -0.010876484 -0.0040074997
-0.034327276 0.04940793 -0.007468775 0.050927788 -0.045315877 -0.020300828 -0.05883798 -0.054495398
-0.03221062 -0.022248607 -0.05628179 0.061767146 -0.04382161 -0.05421132 -0.043972634 0.020824388
0.052889265 0.053878628 0.051215447 -0.057775196 0.016104033 0.05027888 -0.05011018 0.034362473
-0.056553498 0.04769069 0.046847716 0.036979012 -0.016229715 0.0038141087 -0.004825618 0.016116306
0.03297861 0.059750736 0.007010363 0.0071538687 0.041445754 0.015920006 -0.0030248947 0.0053508356
0.019954853 0.059477568 0.0078161955 0.055850722 -0.056595497 0.010858707 0.024812922 -0.00247854
-0.017903034 0.030701652 0.011355236 0.010340683 -0.032677192 -0.019806974 0.031877004 0.042857796
-0.05690709 0.034033924 0.03488137 0.022823848 -0.047086347 -0.014324173 -0.03089625 0.035055146
-0.036951914 0.006469041 0.03190922 0.030973367 0.060220964 0.01891148 -0.03618825 0.045707148
-0.04145573 -0.059894633 0.061246082 -0.02323139 -0.12344292 0.012355372 0.0049119093 0.01006382
0.0035272255 -0.051378917 -0.030330973 0.06283716 0.018016025 0.03838955 0.01225175 -0.054648068
0.07385755 0.028746491 -0.0870023 0.02744051 -0.055862047 0.031646255 -0.016561534 -0.027339255
-0.020701353 0.0044531375 0.0026005283 0.06957916 0.058020044 -0.04154015 0.07133238 0.013928437
0.016830418 0.09594618 -0.057348184 -0.02902154 0.07831998 -0.009287178 -0.0029647667 0.056816537
0.0023037025 0.039815728 0.0067266296 0.020000555 -0.040323157 -0.05247204 0.02197726 0.013554416
0.06685135 0.04464874 0.06143475 -0.039546896 -0.021494854 -0.006686931 0.0030381624 0.0034625353
-0.096235186 0.0010819952 -0.01247713 -0.026923202 0.061314475 0.059593234 0.04551805 -0.024789244
0.057959877 0.024953702 0.053465955 0.028243218 -0.04354254 -0.0064433785 -0.08607392 0.01668368
-0.059154894 0.031119838 0.064230524 0.030270858 0.050057225 0.03068724 -0.04700851 -0.01882183
-0.03432349 -0.008392949 0.053479407 0.071251005 0.11841681 0.056000005 -0.026985055 0.066747405
0.027152643 -0.058757525 -0.028455673 0.036916748 -0.04932958 -0.0046602553 0.012978048 0.0050771646
0.05533197 0.095954835 0.0730406 0.030446073 -0.07178148 -0.03371378 -0.07061288 -0.02488
0.020618754 0.027401485 0.061836068 -0.005466063 0.021892752 -0.02262782 0.044993766 0.022725299
-0.032417137 0.0909763 0.041664705 -0.029331524 -0.0012526741 -0.0026216751 -0.007204712 0.03404795
0.0055288244 0.07501449 0.07316301 -0.06080049 0.030590782 0.0008367646 0.03842459 0.09905509
-0.066408 0.06437909 -0.035281442 -0.06964535 -0.03629538 -0.023261447 -0.036480434 0.05854411
-0.06859168 0.06952036 -0.07605928 0.028423907 0.032216217 0.021465277 0.0026710518 -0.064842254
0.112442926 -0.027063828 0.004921876 -0.013472932 0.0062899045 -0.009062761 -0.045083508 -0.0046947775

encoder_sol.W_o.bias f4 [128]
00000000: 2a37 003d bd17 293b 1378 5a3c 6e7f 5f3c
00000010: 9af1 d03c 5e85 26bc 6c76 6e3c 27ba bebc
00000020: 7eae 6abc 984e 4bbd 2dd4 90bc e47c db3c
00000030: 17b5 1cbd 927e 833c 0625 11bc c1f2 6c3d
00000040: a8bc 2fbd f839 96bc b4f9 ccbb 12d1 293d
00000050: baed 2ebd e757 ab3c 8c73 ee3c 0e91 453d
00000060: f429 91bd 84f3 923d 8fb5 663c 981b 2cbd
00000070: 94fc 76bd 435b 003c 1be3 58bd d4d6 cebc
00000080: ac6a 183c 135a e3bc 390f ea3b 6b85 063c
00000090: a147 1e3c f8d6 7b3c 65a2 16bd 3cbc 343d
000000a0: 1942 e23c 7a03 35bd 9fdb 303c 08b7 173d
000000b0: 5410 923c ed31 883d 7bc3 743d 85fb 8d3d
000000c0: 5d0e be3c 3e67 633d 3dd7 123c 23f7 11bc
000000d0: 58eb 43bd f0ba cb3b 54d5 6ebd cde9 1e3d
000000e0: 9100 7abc 618e 93bc 155e 2cbd 2d4a 51bc
000000f0: ae32 14bd 3fc7 263d 8f94 5cbd 243c 0c3d
00000100: e2e5 353c ae1d 7d3c 4c9f e9bc ecdb 45bd
00000110: d2f2 173d 794c 633d b738 e63c 6bd4 4cbc
00000120: 0e11 953c e706 80bc 963d d33c 9e74 c93b
00000130: c1d5 54bd 6347 0f3d cad7 853c aff6 283d
00000140: 60e5 97bc 45b9 59bd 3a54 b8bc 227a 153d
00000150: efce 70bd 3659 09bc 48c6 ed3a 6179 a13c
00000160: f856 1a3d deeb 7c3d 350c c2bc 81a1 4e3d
00000170: eef6 2dbd 331b 8e3d ee05 c1bc 20e0 263d
00000180: 79be 853d dc2a 9cbc 36a8 91bd 5193 57bd
00000190: 763d 623d a281 873d c690 6dbd 0ad2 e73c
000001a0: 427a 7b3c 6b16 4c3d 11ed 52bd c782 1f3d
000001b0: cfc3 ed3c 145d 513d 9dfc 61bd 64d5 553d
000001c0: fdee 9a3c db1c 0dbb abde e83c b314 65bd
000001d0: d487 da3c 425a 89bc 2a28 29bd efed 713d
000001e0: c31f aabc 31c4 1a3b 819e 3b3d 5377 a63b
000001f0: 58bd 5abc ed8a e63c 063b 743c 899e 8b3b
0.03130261 0.0025801503 0.013334292 0.013641221 0.02550583 -0.010163633 0.014554601 -0.023282124
-0.014323829 -0.0496355 -0.017679298 0.02679295 -0.03825864 0.016051564 -0.008858925 0.057848696
-0.042904526 -0.018338189 -0.006255353 0.04145915 -0.042707182 0.020915939 0.029107831 0.048234038
-0.0708808 0.07175353 0.014081373 -0.042018503 -0.06029947 0.0078342585 -0.05295096 -0.025248922
0.009302776 -0.027752912 0.007142928 0.00821052 0.009660632 0.015371077 -0.036775965 0.044124827
0.027619408 -0.04419277 0.010794549 0.037039787 0.017830051 0.066501476 0.059756737 0.06932739
0.023200208 0.05551838 0.00896245 -0.00890902 -0.047831863 0.006217353 -0.058308914 0.03879719
-0.015258924 -0.018012227 -0.04208191 -0.012774033 -0.036181144 0.04071736 -0.053852614 0.034237042
0.011102172 0.015448971 -0.028518341 -0.048305437 0.037096806 0.055492852 0.028103216 -0.012501816
0.018196609 -0.015628291 0.025786202 0.006147935 -0.051961664 0.03498019 0.016338248 0.04125088
-0.018541992 -0.053155202 -0.0225011 0.036493428 -0.058791097 -0.008383086 0.0018140757 0.019711198
0.037680596 0.061748378 -0.023687461 0.05044699 -0.04247182 0.069387816 -0.023562398 0.040741086
0.065304704 -0.019063406 -0.07112162 -0.052630726 0.055234395 0.06616522 -0.057999395 0.028298397
0.015348973 0.049826067 -0.051495615 0.03894308 0.029024033 0.051114157 -0.05517255 0.05220546
0.018912787 -0.0021532092 0.028426489 -0.055927943 0.026676096 -0.016766671 -0.04129807 0.0590648
-0.020767098 0.0023615474 0.045805458 0.0050801425 -0.013350807 0.028142417 0.01490665 0.004260842

encoder_solv.cached_zero_vector f4 [128]
00000000: 0000 0000 0000 0000 0000 0000 0000 0000
00000010: 0000 0000 0000 0000 0000 0000 0000 0000
00000020: 0000 0000 0000 0000 0000 0000 0000 0000
00000030: 0000 0000 0000 0000 0000 0000 0000 0000
00000040: 0000 0000 0000 0000 0000 0000 0000 0000
00000050: 0000 0000 0000 0000 0000 0000 0000 0000
00000060: 0000 0000 0000 0000 0000 0000 0000 0000
00000070: 0000 0000 0000 0000 0000 0000 0000 0000
00000080: 0000 0000 0000 0000 0000 0000 0000 0000
00000090: 0000 0000 0000 0000 0000 0000 0000 0000
000000a0: 0000 0000 0000 0000 0000 0000 0000 0000
000000b0: 0000 0000 0000 0000 0000 0000 0000 0000
000000c0: 0000 0000 0000 0000 0000 0000 0000 0000
000000d0: 0000 0000 0000 0000 0000 0000 0000 0000
000000e0: 0000 0000 0000 0000 0000 0000 0000 0000
000000f0: 0000 0000 0000 0000 0000 0000 0000 0000
00000100: 0000 0000 0000 0000 0000 0000 0000 0000
00000110: 0000 0000 0000 0000 0000 0000 0000 0000
00000120: 0000 0000 0000 0000 0000 0000 0000 0000
00000130: 0000 0000 0000 0000 0000 0000 0000 0000
00000140: 0000 0000 0000 0000 0000 0000 0000 0000
00000150: 0000 0000 0000 0000 0000 0000 0000 0000
00000160: 0000 0000 0000 0000 0000 0000 0000 0000
00000170: 0000 0000 0000 0000 0000 0000 0000 0000
00000180: 0000 0000 0000 0000 0000 0000 0000 0000
00000190: 0000 0000 0000 0000 0000 0000 0000 0000
000001a0: 0000 0000 0000 0000 0000 0000 0000 0000
000001b0: 0000 0000 0000 0000 0000 0000 0000 0000
000001c0: 0000 0000 0000 0000 0000 0000 0000 0000
000001d0: 0000 0000 0000 0000 0000 0000 0000 0000
000001e0: 0000 0000 0000 0000 0000 0000 0000 0000
000001f0: 0000 0000 0000 0000 0000 0000 0000 0000
0.0 0.0 0.0 0.0 0.0 0.0 0.0 0.0
0.0 0.0 0.0 0.0 0.0 0.0 0.0 0.0
0.0 0.0 0.0 0.0 0.0 0.0 0.0 0.0
0.0 0.0 0.0 0.0 0.0 0.0 0.0 0.0
0.0 0.0 0.0 0.0 0.0 0.0 0.0 0.0
0.0 0.0 0.0 0.0 0.0 0.0 0.0 0.0
0.0 0.0 0.0 0.0 0.0 0.0 0.0 0.0
0.0 0.0 0.0 0.0 0.0 0.0 0.0 0.0
0.0 0.0 0.0 0.0 0.0 0.0 0.0 0.0
0.0 0.0 0.0 0.0 0.0 0.0 0.0 0.0
0.0 0.0 0.0 0.0 0.0 0.0 0.0 0.0
0.0 0.0 0.0 0.0 0.0 0.0 0.0 0.0
0.0 0.0 0.0 0.0 0.0 0.0 0.0 0.0
0.0 0.0 0.0 0.0 0.0 0.0 0.0 0.0
0.0 0.0 0.0 0.0 0.0 0.0 0.0 0.0
0.0 0.0 0.0 0.0 0.0 0.0 0.0 0.0

encoder_solv.W_i.weight f4 [128, 147]
00000000: 8ab5 65bd 47ca 19bd 58a6 a03d 66ec 1dbd
00000010: 4533 57bd 5880 07be 62ce 553c ed60 f3bc
00000020: ed62 20bd cc30 683d 0c4f 193d 00c3 5c3d
00000030: 89d3 3bbd fe86 7fbd 08e1 92bd fa41 443d
00000040: a2f8 bd3d 08af 22bc 2e9a 9d3d 2e81 83bd
00000050: 801c 133b ceea 913d 5eb3 0fbd 6a3e 933d
00000060: e0e8 38bc 266a 823d ecdb 833d 7479 7c3d
00000070: 5121 7bbd 40d0 fd3b 6038 0b3c 60d3 f43c
00000080: 9866 723d 902e 533d 6b65 a1bd 14b5 a73d
00000090: 6042 c73c 742b 493d 28a7 a2bd 605c 9cbd
000000a0: 8cc4 9e3d 448a 853d f2ac 22bd 864f c6bc
000000b0: 0a1d 21bd b8c7 433d f640 4dbd 8680 abbc
000000c0: b066 29bc 4234 913d 3e2b dcbc f538 46bd
000000d0: e0a6 00bb ba38 64bd 9fd4 9ebd 38a6 b23c
000000e0: 403e 4a3d 41f3 86bd 2ee6 843d c0b0 47bd
000000f0: 24a4 5e3d 45c1 4ebd 3807 733d 81ba 89bd
00000100: 0477 c23c 1044 a53c 7a2e 99bd a0ab 2dbb
00000110: ec9c e53c 430c 01bd 9077 95bd 555a 41bd
00000120: 2cf9 83bd 706e 53bd 6017 39bd 28fd e83c
00000130: bea7 a5bc 3d16 2cbd 14b7 9a3c bb94 13bd
00000140: 90e1 9a3d 2c03 44bd 10c1 913b 087d 853d
00000150: 62ed e7bc 9200 82bd 3893 0ebd 0056 38bc
00000160: 00c2 7e3d 97f7 89bd 60f4 a4bd e8db 0d3c
00000170: 3013 efbb 24b9 37bd 3cd0 80bc 9014 d73b
00000180: 08b0 8dbd 264e 283d b4a1 aa3c 7084 ecbc
00000190: 1429 55bd 388c dc3c 7b8d 393d 3a2c 193b
000001a0: ccd1 1abd ceb2 b1bd a0f9 8b3d 20e6 4d3d
000001b0: 12e5 78bd 4ab3 19bd 3406 7b3d 0900 62bd
000001c0: e21e ac3c b491 883d 7bc9 313c 64c3 b7bc
000001d0: 305e fd3b 4868 193d 4cca 973d 4ca3 ee3d
000001e0: 80b6 b2ba 60f1 21bd 12a5 003c 9af3 fdbc
000001f0: 8091 8d3c 8315 7e3d a3be babd 004c b93d
00000200: c69b a23d 6c79 5bbd 189a a2bc 6cd8 593d
00000210: ea7c d03d 5073 393d d1d2 48bc 8f14 6ebd
00000220: d114 61bd ee39 8f3d 33dd ddbd 0a02 49bc
00000230: 8e12 9d3d 1cb4 6cbd 6a05 163d 033d 9cbd
00000240: bcbd efbc eb76 0bbd c030 ff3a 6057 9b3c
00000250: 8858 613d 4a50 a33d d8d1 7a3c 3407 c7bc
00000260: 5e02 943d 4a37 f13b b4ff 8abd 6092 113d
00000270: a01d b7bc 34ef 143d 2cae 363d c50d 6fbd
00000280: 9889 1abc 80c6 fbba c752 9d3c f657 353d
00000290: 0cd2 c13c 0000 76b5 e447 753d d85a 7f3d
000002a0: 1064 8b3c 603d 033b 4a89 75bd 548a 4c3d
000002b0: 60fb edbb 09c2 11bd 2a44 273d 7cfa a23d
000002c0: 100a 623d ca5b a5bd c850 4a3d 44a9 933d
000002d0: 8c39 673d 0c2a 663d a0c2 353d 70e4 493d
000002e0: 26d5 823d b0b9 263c 3cf2 c23c a435 bd3c
000002f0: 769a a43d 84ae 393d 008f b0bb d0cc ddbc
00000300: 4651 803d 743f 9a3c 0026 99bc 40ab 22bb
00000310: 2a71 71bd 22b0 953d f84c 013c 0805 dd3c
00000320: 8fee 97bd 42ad fbbc e794 18bd 50a0 8bbd
00000330: 0cef 273d f26a e4bc f0c0 6dbd 1c11 50bd
00000340: 7a16 4bbd 1689 72bd 000c 8c38 3802 a1bc
00000350: e230 98bd 43a7 11bd 06da 933d 3803 a23d
00000360: ec25 a83c 4889 2b3d bcf2 89bd 0720 96bd
00000370: 3005 403d 1c75 983d 706c e6bc 34b5 3f3d
00000380: fcf1 833c c03c 143c b8ff 7bbc 604b 8e3c
00000390: 0820 e4bc 6f77 2dbd 3a0f 73bd 4cce 7a3d
000003a0: 3ee7 883d 603c 4ebb 800c 09ba 1d85 10bd
000003b0: 3cff be3c 8a89 aabc 9ca1 923c 0954 a5bd
000003c0: 0045 0c3a d616 80bd c0b8 51bd 9642 4fbd
000003d0: 00bf 51bd 694c 2abd 3a4b 043d b416 5e3d
000003e0: b1af 03bd aba4 be3d b216 c1bd 4ffc a0bd
000003f0: 9871 923d d0b2 0d3d 54d8 3abd 2c7a a83d
-0.056081332 -0.037546422 0.078442276 -0.038555525 -0.05253913 -0.13232553 0.013049694 -0.029709304
-0.039156843 0.05668716 0.0374289 0.053896904 -0.045856033 -0.062384598 -0.071718276 0.047914483
0.092759386 -0.009929426 0.07695423 -0.064211234 0.0022447407 0.071248636 -0.035083167 0.07189639
-0.0112859905 0.063679025 0.06438431 0.061639264 -0.06131107 0.0077457726 0.008497328 0.029885948
0.059179872 0.051558077 -0.07880672 0.08188835 0.024323642 0.049113706 -0.07942039 -0.07634807
0.07752332 0.06520513 -0.039715715 -0.024207842 -0.039334334 0.04779789 -0.05011078 -0.020935308
-0.010339424 0.070900455 -0.026876088 -0.048394162 -0.0019630715 -0.05571816 -0.07755398 0.021807775
0.049375772 -0.06589366 0.06489216 -0.048752546 0.054355755 -0.050477285 0.059333056 -0.06725026
0.023738392 0.020174056 -0.07479568 -0.0026500002 0.028028928 -0.031505834 -0.07298195 -0.047205288
-0.0644401 -0.051618993 -0.045188308 0.028441027 -0.020221587 -0.042013396 0.018886127 -0.036030512
0.07562554 -0.047854587 0.0044480637 0.065179884 -0.028311435 -0.06347765 -0.034808367 -0.011250973
0.06219673 -0.06736677 -0.08054423 0.008658387 -0.0072959885 -0.0448543 -0.015724294 0.0065637305
-0.06918341 0.041090153 0.02082906 -0.028871745 -0.05204113 0.02692233 0.045300942 0.0023372308
-0.037797734 -0.086766824 0.068347216 0.050268292 -0.060765333 -0.0375245 0.061285213 -0.055175815
0.02101082 0.06668416 0.010851259 -0.022432037 0.0077321753 0.037452966 0.07411632 0.1165224
-0.0013634712 -0.039536834 0.007851856 -0.030999947 0.017281294 0.062032234 -0.09118392 0.09047699
0.07939868 -0.053582594 -0.019848868 0.05318491 0.101800755 0.045275986 -0.012257294 -0.058125075
-0.054951493 0.06993471 -0.10833206 -0.012268553 0.07669555 -0.057788953 0.036626257 -0.076288246
-0.029265277 -0.034048956 0.0019469485 0.018962562 0.05501607 0.07974298 0.01530882 -0.024295427
0.07227014 0.0073613273 -0.06787053 0.035539985 -0.022352993 0.036360934 0.044599697 -0.05836274
-0.009432219 -0.0019208938 0.01920451 0.04427334 0.023659728 -9.164214e-07 0.059883013 0.062342495
0.017015487 0.0020025596 -0.059945382 0.049936607 -0.0072626323 -0.035585437 0.04083649 0.07957932
0.055185378 -0.08074148 0.049393445 0.07210019 0.056451365 0.056192443 0.044375062 0.04929012
0.06388311 0.010176107 0.023797147 0.023096867 0.080372736 0.045332447 -0.0053881407 -0.027075201
0.06265502 0.018829085 -0.018694878 -0.0024821311 -0.058945812 0.07308985 0.007891886 0.026979938
-0.07418548 -0.030722264 -0.03725138 -0.068176866 0.040999457 -0.027883027 -0.058045328 -0.050797567
-0.049581982 -0.059212767 6.6779554e-05 -0.019654378 -0.07431199 -0.035559904 0.07219319 0.0791077
0.020525895 0.04187897 -0.06735751 -0.073303275 0.046879947 0.07444212 -0.028127879 0.04680367
0.016106598 0.009047687 -0.015380792 0.017369926 -0.027847305 -0.04235023 -0.059340693 0.061231896
0.06684731 -0.0031469092 -0.0005227998 -0.035283197 0.023315065 -0.020817537 0.017899327 -0.08072669
0.0005350858 -0.062543556 -0.051201582 -0.05060061 -0.051207542 -0.041576777 0.032298304 0.05422087
-0.032149974 0.09308752 -0.09428157 -0.07860624 0.071505725 0.034594357 -0.045616463 0.082264274

encoder_solv.W_i.bias f4 [128]
00000000: 456e 843d d6af 53bd b8e6 19bc 02b3 cbbb
00000010: 6e48 21bb 98c6 503d 1459 8f3d dda7 743d
00000020: b156 6a3b bbc0 26bd 71be 7b3d e719 98bd
00000030: 8e26 9bbd 4b53 24bc 38d1 0ebd 04dd 9d3b
00000040: a33f 2d3d 0c66 ee3c e7c2 d3ba 5ea5 babd
00000050: 0dc6 42bd 6bc9 8ebd 1675 fa3c c520 8dbd
00000060: 2685 13bd bdad 4e3d c985 37bd 7f4d 8f3d
00000070: 88ba 7ebd ffdb 093d 37fb 55bd d9cc c93c
00000080: 910b 0fbc a4ab 7fbd 7536 a4bc ecad 02bc
00000090: c4f7 28bd c22c 103d 0ae8 9ebd d5ea ce3c
000000a0: f983 4abc 3398 863c e48b 0abd 9886 453d
000000b0: 17fa d43c 846d 83bd 59d2 6f3c 387c b1bc
000000c0: 8bc1 733d 153d f03b cf22 273d 44f1 b73c
000000d0: 4d70 aabc 190f 1dbd b439 27bd 1f22 793d
000000e0: f0be 3dbd 9ff4 82bc 6068 5ebd e00b 2e3d
000000f0: acd7 39bd 392a 8f3c 1b5c 1a3d 2889 1a3d
00000100: 8391 373d 34f5 663d 64df 4bbd c501 acbd
00000110: d22d 073d 89d8 103d 0b64 57bc 6b49 82bd
00000120: 63a9 e5bc a908 9e3c 0a8e 533d 904a a33c
00000130: 71b7 f2bb c69d 97bd 5ce3 b4bd 1f8d 45bd
00000140: 8d7f 1a3d 2d45 113d ab5b b23c 5aa6 31bd
00000150: b7d0 76bd d4f8 333d 375f 96bd 4334 94bd
00000160: a1ec b13c 2176 4f3d 67e1 8fbd 8c1c cf3a
00000170: a012 9bbd 441b 0bbd 29c2 2bbd 0d7d a83c
00000180: 94d4 afbd 50f3 6bbd 124c 64bd 16e5 ee3b
00000190: 4e98 35bd ef8f 8ebd 5ddc 783c 68fe 6b3d
000001a0: b104 a6bd 48c5 50bc 4d58 0fbd 8985 50bd
000001b0: b7b6 95bd 301a 75bc 1fb0 ac3a 9b51 85bd
000001c0: 5811 67bd 52e7 99bd 6136 72bc 2f2d 4cbd
000001d0: fe9d 8a3c 258b 193d f4c6 073c 386d f03c
000001e0: 632e cbbc 5706 863b 187e 8ebd 57f2 bc3a
000001f0: 1e44 833d 8c63 8fbd 770e 6cbd 4272 5fbd
0.06466345 -0.051681362 -0.009393387 -0.0062164078 -0.0024609822 0.050970644 0.06999412 0.0597304
0.0035757239 -0.040711146 0.061460916 -0.074268155 -0.07575713 -0.010029624 -0.034867495 0.004817607
0.042297017 0.029101394 -0.0016156108 -0.091135725 -0.047552157 -0.06972011 0.030573409 -0.06891016
-0.036015652 0.05045866 -0.04480532 0.06997203 -0.06218961 0.03365707 -0.05224153 0.024633812
-0.008730785 -0.06241955 -0.020045498 -0.0079760365 -0.041251913 0.035198934 -0.07759102 0.025258461
-0.012360566 0.016429996 -0.033824816 0.04822406 0.025998158 -0.06417373 0.014637553 -0.021665677
0.05951075 0.0073315003 0.04080468 0.022453912 -0.020805502 -0.038344476 -0.040826514 0.060823556
-0.04632467 -0.015985785 -0.05429876 0.042491794 -0.045371696 0.017476188 0.037685495 0.03772846
0.044816505 0.056386188 -0.04977359 -0.08398775 0.033002682 0.035362754 -0.013146411 -0.063616596
-0.028034871 0.019291239 0.05164913 0.019933015 -0.007407122 -0.0740314 -0.08832428 -0.048230287
0.0377193 0.03546636 0.021772226 -0.043371536 -0.06025764 0.043938473 -0.073423795 -0.07236531
0.021719279 0.050649766 -0.07025414 0.0015801354 -0.07571912 -0.03396155 -0.041933212 0.020567441
-0.08585468 -0.057605088 -0.05573661 0.0072904928 -0.044334702 -0.06961047 0.015189257 0.057615668
-0.081063636 -0.012742348 -0.03499632 -0.0509086 -0.07310241 -0.014959857 0.0013175047 -0.06509706
-0.056413025 -0.07514824 -0.014783473 -0.049847778 0.01692104 0.037486214 0.00828718 0.029348955
-0.024802392 0.0040901112 -0.06957644 0.0014415485 0.06409477 -0.07001409 -0.057630982 -0.054552324

encoder_solv.W_h.weight f4 [128, 128]
00000000: 5e46 ad3d 0722 03bd 99cd 80bc 1919 7ebd
00000010: a216 a539 e35d c0bd bcff 0cbd c8ac 9cb9
00000020: 41d4 343d 9404 393d 62dc 1cbd 4b04 a6bd
00000030: bb31 74bd bda9 fcbb 4f56 b63b 8f46 0ebd
00000040: caa5 083d 43c2 1c3d 963f 8abd fe2a 463c
00000050: 07d6 8cbd b86c 473c 81de 0c3d 5e30 e5bc
00000060: f4be 64bd 6d00 bfbd efc6 043d 4661 bf3c
00000070: 01ea 00bd 7d35 dabc a1ac 74bd 59d7 953d
00000080: b48c 1f3d f710 a6bd c03f 0ebd ffd4 c53c
00000090: de66 88bd a927 7cbd 2bc8 51bd fd73 0e3d
000000a0: 24ba 1b3d ced6 8bbd 3080 553d 9bb8 88bd
000000b0: f2f9 4abd 58ea e9bd 510c b5bc 244e d03c
000000c0: 1fe9 aabd 1ca7 e6bb 86b8 90bd 348b cebc
000000d0: 5f96 6e39 5f81 6bbd 3abe 573b 1dac de3c
000000e0: 47ed b6bc 95f7 18bd d4fd b1bc c0da 4e3a
000000f0: 8656 9bbc cc77 32bd 3a2b c7b8 d2dc 95bd
00000100: efd9 6a3d 54da 363d 5a31 993d b26f f3bd
00000110: 9ad3 d0bb e46e 953c 8111 81bd f68e e73c
00000120: 58b3 d83b 7cba 65bd 572d 453d 4edd 99bd
00000130: 158e 693d 8624 d6bd 92b3 14bd f15c 32bd
00000140: 6c7a 7abd 134c 1b3d f238 17bd 6b52 c33c
00000150: 61bd afbd 3d08 463d 603c 59bb 66f2 1b3d
00000160: 95ef 3e3d f023 7f3d 71f2 02bd 55cd 11bd
00000170: 4b9a 9d3b 44c1 cdbd d8a9 e7bc 9f22 623d
00000180: af1b 903c 2ad3 a1bc 160e 593d 56f8 78bc
00000190: 0b5f 8dbc 3cd4 73bc aa7a ffba e5fa 813d
000001a0: 5568 9d3d fb29 f9bd 2ed4 a3bc 6b8b c2bc
000001b0: ae9c 4d3c ef37 34bd 7a7b 8c3c f479 e5bc
000001c0: 879f 6fbd f31a e2bd 053d 333d 03f9 8cbd
000001d0: 1f70 4cbd b702 6d3d 33d9 b13a 8c03 1e3d
000001e0: a48e 0dbe 9e5a 7ebc b30a 86bd 39b2 643d
000001f0: 755d 9cbd accc 92bc 1b85 dfbd 98c7 e73c
00000200: 971e c33d 4879 773c 992b d13d a1dc 9ebc
00000210: 2fa4 ec3c ed12 3fbc 8c4e e23d 0f77 f7ba
00000220: 342c a13d b75d 5ebc 27db b63d c0a5 f23b
00000230: 75d3 01be 72cb a2bd 315b 373d e986 82bd
00000240: f80a 7b3c a576 f53a cf74 89bc fd0f 6e3d
00000250: 655a 6cbc 5926 c83d 3049 08bd 383e b5bb
00000260: a1c3 183c bfb8 b73d 71de 56bd b90b 2b3d
00000270: cbfa 1c3d a80d 193c 62cf 3fbd 382b 14bd
00000280: cbe9 c33c 7029 363c 8bed 2fbb cc40 7fbd
00000290: 0440 2c3d dbf0 9c3c 8bf9 bf3d 94e5 53bd
000002a0: 1303 8cbc ac3d 36ba 8950 903d 04c5 bb3d
000002b0: ac16 4fbd 3b22 533c 5e83 19bc 025a 2fbd
000002c0: db5f 0e3d 53d9 c3bc bea2 133d 9431 553c
000002d0: 9881 613d f0b1 9a3d 3b8f 3fbb a21a 40bd
000002e0: 5c99 a03d 8548 36bd 941e 62bd 1cd9 363d
000002f0: cb29 42bd dea8 b1bd 3511 62bd 8e10 00be
00000300: f090 46bd efaa debc dce7 ae3c 26ba 22bd
00000310: 5f34 b7bd b279 533c dc3b 6f3b 14ce 663d
00000320: a345 d4bc 8496 a13c b3ea 033d 1b36 013d
00000330: 812a 563d 4268 1d3d c95e 54bd 1694 cdbd
00000340: d4dd 59bd 692e cbbc e528 c83d 9930 913d
00000350: 08a5 7abd d11c cc3d fdf9 8dbd cdfd b63d
00000360: 7286 dd3c 4eba 00bd 4b8e 6bbd 0aa7 0f3d
00000370: 7d91 bfbd 487f 8dbb 96f5 b63d 7399 7cbd
00000380: b821 963b 022f 42bd 373e cf3b 64cd 003c
00000390: b3b6 ba3d 37d2 e13b 9518 48bc 930e b7bc
000003a0: 7842 0c3c f813 963d edad 4fbd 9c7a 973c
000003b0: 7e59 92bc 7622 9a3b a140 403d 6d13 bdbc
000003c0: ec2c 78bd 9855 4ebd b250 193c b1f0 59bd
000003d0: d624 39bd 2348 3fbd 09ba 0fbe 8689 85bd
000003e0: 6544 b6bc 551c 963d 763e 7b3d 4f6e 8f3d
000003f0: 7864 19bc 22b7 0fbd 7a8c 8e3d e240 3d3d
0.08460687 -0.032014873 -0.015723037 -0.062035654 0.00031488115 -0.093929075 -0.034423575 -0.0002988337
0.044147734 0.04517038 -0.03829611 -0.081062876 -0.05961774 -0.007710664 0.005564488 -0.03473526
0.033361234 0.0382712 -0.06750409 0.012095211 -0.0687676 0.012171917 0.034391884 -0.027977165
-0.05584617 -0.09326253 0.03241628 0.023361813 -0.031473164 -0.026636833 -0.059734944 0.07316465
0.038952544 -0.081087045 -0.034728765 0.024149416 -0.06660245 -0.06156126 -0.051216286 0.034778584
0.038019314 -0.0682808 0.052124202 -0.06675836 -0.049554773 -0.11421651 -0.0221006 0.025427885
-0.083452456 -0.007038964 -0.07066445 -0.025212862 0.00022753466 -0.057496425 0.003291978 0.02718168
-0.02232994 -0.037345488 -0.02172748 0.00078908727 -0.018962156 -0.04357128 -9.497111e-05 -0.07317509
0.057336744 0.044641808 0.07480116 -0.118865386 -0.006372881 0.018241353 -0.06302167 0.028266411
0.0066131763 -0.05608605 0.048138943 -0.07512914 0.057020266 -0.10456185 -0.036304064 -0.043545667
-0.061151907 0.037914347 -0.03691954 0.02384301 -0.08581043 0.0483477 -0.0033147559 0.038072966
0.046615202 0.062290132 -0.03196949 -0.03559621 0.004809653 -0.10046628 -0.02827923 0.0552088
0.017591326 -0.019754011 0.05299195 -0.015195927 -0.017257234 -0.014882144 -0.0019491513 0.063466825
0.076859154 -0.1216621 -0.019998636 -0.02374812 0.012549562 -0.043998655 0.017148722 -0.028012253
-0.058501747 -0.110402964 0.043759365 -0.06883433 -0.049911615 0.057863917 0.0013568759 0.0385776
-0.13823944 -0.0155245345 -0.065450095 0.05583403 -0.07635013 -0.01791986 -0.1091406 0.028293416
0.09527319 0.015104599 0.10213394 -0.019392313 0.028886883 -0.011662227 0.11050138 -0.0018880087
0.07869759 -0.013572148 0.08928519 0.007405013 -0.1267832 -0.0794896 0.0447647 -0.06373388
0.015322439 0.0018727375 -0.016779331 0.058120716 -0.014425849 0.09772939 -0.033272922 -0.0055310987
0.009323985 0.089707844 -0.05245823 0.041759226 0.038325112 0.009341635 -0.046828635 -0.03617403
0.023915192 0.011118278 -0.0026844468 -0.062317654 0.042053238 0.019157818 0.093737684 -0.051732615
-0.01709131 -0.0006951939 0.07046611 0.09168437 -0.05055873 0.012886579 -0.009369699 -0.042810448
0.034759384 -0.02390734 0.036043875 0.013012309 0.05505523 0.0755347 -0.002922966 -0.0469004
0.07841751 -0.044502754 -0.055204943 0.044640645 -0.047403138 -0.08674787 -0.05519219 -0.12506315
-0.048478067 -0.027181117 0.021350794 -0.039728306 -0.08945536 0.012907432 0.0036504185 0.056348875
-0.025912112 0.019725092 0.03220625 0.03154574 0.05228663 0.038429506 -0.051848207 -0.10038011
-0.053190067 -0.024802404 0.09773425 0.070893474 -0.061192542 0.09966434 -0.06932447 0.089351274
0.027041648 -0.031427674 -0.057508748 0.03507141 -0.093539216 -0.0043181516 0.089335606 -0.061669778
0.0045816563 -0.04740811 0.0063245553 0.007861469 0.09116878 0.0068915146 -0.012212892 -0.022345817
0.008560769 0.073280275 -0.050702978 0.018491082 -0.017864939 0.004703815 0.046936635 -0.023080552
-0.060589716 -0.050374597 0.009357618 -0.053208057 -0.045201145 -0.046699654 -0.1403581 -0.06520371
-0.02224941 0.07329623 0.061338864 0.070034616 -0.0093623325 -0.03508676 0.069603875 0.046204455
