THESIS/checkpoints/MPNN.pt (torch, 558709 bytes, 15 tensors)

encoder_sol.cached_zero_vector f4 [128]
0.0 0.0 0.0 0.0 0.0 0.0 0.0 0.0
0.0 0.0 0.0 0.0 0.0 0.0 0.0 0.0
0.0 0.0 0.0 0.0 0.0 0.0 0.0 0.0
0.0 0.0 0.0 0.0 0.0 0.0 0.0 0.0
0.0 0.0 0.0 0.0 0.0 0.0 0.0 0.0
0.0 0.0 0.0 0.0 0.0 0.0 0.0 0.0
0.0 0.0 0.0 0.0 0.0 0.0 0.0 0.0
0.0 0.0 0.0 0.0 0.0 0.0 0.0 0.0
0.0 0.0 0.0 0.0 0.0 0.0 0.0 0.0
0.0 0.0 0.0 0.0 0.0 0.0 0.0 0.0
0.0 0.0 0.0 0.0 0.0 0.0 0.0 0.0
0.0 0.0 0.0 0.0 0.0 0.0 0.0 0.0
0.0 0.0 0.0 0.0 0.0 0.0 0.0 0.0
0.0 0.0 0.0 0.0 0.0 0.0 0.0 0.0
0.0 0.0 0.0 0.0 0.0 0.0 0.0 0.0
0.0 0.0 0.0 0.0 0.0 0.0 0.0 0.0
00000000: 0000 0000 0000 0000 0000 0000 0000 0000
00000010: 0000 0000 0000 0000 0000 0000 0000 0000
00000020: 0000 0000 0000 0000 0000 0000 0000 0000
00000030: 0000 0000 0000 0000 0000 0000 0000 0000
00000040: 0000 0000 0000 0000 0000 0000 0000 0000
00000050: 0000 0000 0000 0000 0000 0000 0000 0000
00000060: 0000 0000 0000 0000 0000 0000 0000 0000
00000070: 0000 0000 0000 0000 0000 0000 0000 0000
00000080: 0000 0000 0000 0000 0000 0000 0000 0000
00000090: 0000 0000 0000 0000 0000 0000 0000 0000
000000a0: 0000 0000 0000 0000 0000 0000 0000 0000
000000b0: 0000 0000 0000 0000 0000 0000 0000 0000
000000c0: 0000 0000 0000 0000 0000 0000 0000 0000
000000d0: 0000 0000 0000 0000 0000 0000 0000 0000
000000e0: 0000 0000 0000 0000 0000 0000 0000 0000
000000f0: 0000 0000 0000 0000 0000 0000 0000 0000
00000100: 0000 0000 0000 0000 0000 0000 0000 0000
00000110: 0000 0000 0000 0000 0000 0000 0000 0000
00000120: 0000 0000 0000 0000 0000 0000 0000 0000
00000130: 0000 0000 0000 0000 0000 0000 0000 0000
00000140: 0000 0000 0000 0000 0000 0000 0000 0000
00000150: 0000 0000 0000 0000 0000 0000 0000 0000
00000160: 0000 0000 0000 0000 0000 0000 0000 0000
00000170: 0000 0000 0000 0000 0000 0000 0000 0000
00000180: 0000 0000 0000 0000 0000 0000 0000 0000
00000190: 0000 0000 0000 0000 0000 0000 0000 0000
000001a0: 0000 0000 0000 0000 0000 0000 0000 0000
000001b0: 0000 0000 0000 0000 0000 0000 0000 0000
000001c0: 0000 0000 0000 0000 0000 0000 0000 0000
000001d0: 0000 0000 0000 0000 0000 0000 0000 0000
000001e0: 0000 0000 0000 0000 0000 0000 0000 0000
000001f0: 0000 0000 0000 0000 0000 0000 0000 0000

encoder_sol.W_i.weight f4 [128, 133]
-0.1438821 0.08467715 0.0452869 -0.022021487 0.07121541 0.032542113 -0.09624753 0.06133696
-0.04533944 -0.049148206 0.08017645 -0.043761693 0.033675283 0.16465065 0.15946513 -0.01708445
-0.0019654082 0.021933965 -0.025913596 -0.03915155 0.03106346 -0.05642931 -0.06420912 0.057305403
-0.00035504997 -0.03716033 0.0628285 -0.03888021 0.08446395 0.08556161 0.045599274 -0.045699615
-0.082065046 0.028312631 0.042521354 0.030092232 0.014461577 0.06144663 0.006489888 0.017772049
0.067496754 -0.018429652 -0.028063312 -0.015547678 0.07964175 -0.036907263 0.0065692663 0.05574303
-0.015079312 0.023032889 -0.011325851 -0.022315256 -0.07648906 -0.050399058 -0.02127757 -0.05756305
-0.08282188 0.059825025 -0.005958304 -0.019896775 -0.051739953 0.05774214 -0.036550306 -0.041604843
-0.05469085 -0.082442425 0.07848149 -0.047058485 -0.0408845 -0.0042252094 -0.058108438 -0.07708206
-0.082802005 0.07086352 -0.07818478 -0.07386791 0.005968146 0.008876316 -0.079652354 0.008329324
0.042580135 0.049783893 -0.0070760176 0.015645623 -0.08668576 -0.08382938 -0.038109988 -0.051352136
0.040794887 0.0036515296 0.06589741 0.041891567 -0.0678141 0.019785896 0.06360567 0.07137161
-0.07459969 -0.07903131 -0.06878668 -0.0059513226 -0.019732483 -0.007368125 -0.07214761 -0.0125332475
0.040867444 0.058844727 -0.04901907 -0.05914086 0.04551387 0.06077578 0.18213758 -0.020447724
-0.053078722 0.08424079 -0.10060137 0.12123723 0.2506967 -0.023898728 -0.026713476 -0.03324445
0.009896337 0.12877937 -0.2544029 0.0030472726 0.031282715 -0.06951979 -0.05160619 -0.09410992
0.05055549 0.07479649 -0.027729256 -0.02797297 -0.07891809 -0.006127782 -0.04919653 0.024763532
0.07082593 0.06124755 -0.015156483 -0.009743176 -0.026986683 -0.01696834 0.036606215 -0.0020072088
0.026059955 -0.03190867 -0.07683727 0.36186954 -0.17868787 -0.02680301 0.028527826 -0.0015985519
-0.07213118 0.07583485 -0.055844046 0.025372475 -0.019005463 0.042735226 -0.033707574 -0.003186524
-0.062523134 0.07832632 -0.01090014 -0.06848858 0.029738717 -0.06413952 -0.08126999 -0.0019303972
-0.022217005 -0.033916894 0.03472382 -0.009550586 0.021731079 -0.061477683 -0.055076513 0.008720748
-0.043558575 -0.04580132 0.011381112 0.0024172068 -0.08439331 -0.04280112 0.017645776 -0.009410776
0.0023486838 -0.05672293 -0.015364483 -0.06980022 0.046165936 -0.081120215 -0.03234454 -0.04212099
0.04378503 -0.009350017 -0.06580183 0.08018253 0.03593132 -0.07971746 0.08026137 -0.029933024
0.05091337 -0.009392574 0.04562881 0.08475002 0.0068907067 0.016832694 -0.05461266 0.017062575
-0.030388378 0.009294808 -0.025108859 0.08161386 -0.020116374 0.04132452 0.03239259 0.010710247
0.015033603 0.08583885 -0.044576757 0.04640595 -0.05131934 -0.027021512 0.025558889 0.06270083
-0.07357292 0.005853832 -0.027044408 0.046852656 -0.08344188 -0.023666672 -0.00438454 0.067280866
-0.07477867 -0.075551696 -0.011410631 -0.09727438 -0.2036906 -0.02856341 0.09472151 0.0529486
0.033023715 -0.15906733 0.015250802 0.20113236 0.065148436 -0.06884781 -0.058722563 -0.07504681
0.01859906 0.19620894 0.059563167 -0.024642859 0.1009173 -0.3201651 -0.04856081 -0.20344767
00000000: d455 13be 376b ad3d c27e 393d 6866 b4bc
00000010: 63d9 913d e14a 053d 6d1d c5bd 773c 7b3d
00000020: d9b5 39bd a14f 49bd 8d33 a43d 763f 33bd
00000030: 18ef 093d 2e9a 283e d44a 233e b0f4 8bbc
00000040: 14ce 00bb dcae b33c c048 d4bc 605d 20bd
00000050: cc78 fe3c 6c22 67bd 1280 83bd 12b9 6a3d
00000060: 0026 bab9 6e35 18bd 3bac 803d db40 1fbd
00000070: 6ffb ac3d ed3a af3d 4ec6 3a3d 852f 3bbd
00000080: b811 a8bd e4ef e73c df2a 2e3d fc83 f63c
00000090: 40f0 6c3c 76af 7b3d 20a9 d43b b096 913c
000000a0: bd3b 8a3d c8f9 96bc 08e5 e5bc b0bb 7ebc
000000b0: 371b a33d 122c 17bd 0043 d73b ce52 643d
000000c0: 380f 77bc 78af bc3c 1090 39bc 7cce b6bc
000000d0: 4ca6 9cbd 3e6f 4ebd 4c4e aebc 3cc7 6bbd
000000e0: 859e a9bd 160b 753d e03d c3bb 90fe a2bc
000000f0: 46ed 53bd 0683 6c3d c6b5 15bd d769 2abd
00000100: 8303 60bd 93d7 a8bd e7ba a03d 66c0 40bd
00000110: 8176 27bd a073 8abb 1d03 6ebd 33dd 9dbd
00000120: 1994 a9bd e520 913d 581f a0bd 0f48 97bd
00000130: 7090 c33b f86d 113c c620 a3bd b877 083c
00000140: 8268 2e3d 32ea 4b3d f0dd e7bb 402b 803c
00000150: 4e88 b1bd bdae abbd 3819 1cbd 9e56 52bd
00000160: 8a18 273d 804e 6f3b 39f5 863d 7e96 2b3d
00000170: 1ee2 8abd 0816 a23c b143 823d 472b 923d
00000180: b9c7 98bd 2bdb a1bd 08e0 8cbd 5003 c3bb
00000190: 04a6 a1bc 5070 f1bb 20c2 93bd 4058 4dbc
000001a0: 9f64 273d 2b07 713d 38c8 48bd b03d 72bd
000001b0: c06c 3a3d 06f0 783d 4682 3a3e fc81 a7bc
000001c0: 1369 59bd 6f86 ac3d 1708 cebd 3a4b f83d
000001d0: 515b 803e 44c7 c3bc 38d6 dabc 552b 08bd
000001e0: 3f24 223c bdde 033e 1941 82be c0b4 473b
000001f0: 4e22 003d 6460 8ebd 0361 53bd b4bc c0bd
00000200: 4613 4f3d e72e 993d 7728 e3bc 9227 e5bc
00000210: cf9f a1bd 90cb c8bb 4d82 49bd e4dc ca3c
00000220: 2f0d 913d b6de 7a3d e652 78bc d8a1 1fbc
00000230: 2d13 ddbc 3001 8bbc 66f0 153d 608b 03bb
00000240: b07b d53c aab2 02bd dc5c 9dbd f746 b93e
00000250: f4f9 36be fc91 dbbc 30b3 e93c 8086 d1ba
00000260: 83b9 93bd 4d4f 9b3d babc 64bd f0d9 cf3c
00000270: 58b1 9bbc 220b 2f3d f410 0abd 00d5 50bb
00000280: 210c 80bd 8d69 a03d 8096 32bc be43 8cbd
00000290: 9c9e f33c 955b 83bd e170 a6bd 6205 fdba
000002a0: 7000 b6bc 71ec 0abd 903a 0e3d 107a 1cbc
000002b0: 6005 b23c 06d0 7bbd e997 61bd 78e1 0e3c
000002c0: 7a6a 32bd 2a9a 3bbd d877 3a3c 006a 1e3b
000002d0: 66d6 acbd 3a50 2fbd e08d 903c a82f 1abc
000002e0: 60ec 193b 4e56 68bd 50bb 7bbc 6bf3 8ebd
000002f0: 7e18 3d3d 5b22 a6bd b57b 04bd 0f87 2cbd
00000300: ee57 333d d030 19bc 1cc3 86bd bd36 a43d
00000310: b82c 133d e842 a3bd 1360 a43d 1a36 f5bc
00000320: 8a8a 503d 50e3 19bc 46e5 3a3d 6b91 ad3d
00000330: 70cb e13b b8e4 893c 86b1 5fbd d0c6 8b3c
00000340: 0cf1 f8bc 4049 183c 18b1 cdbc 2b25 a73d
00000350: 18cb a4bc e643 293d 18ae 043d 087a 2f3c
00000360: 804f 763c 47cc af3d 1e96 36bd 2a14 3e3d
00000370: 3a34 52bd 385c ddbc e060 d13c 4b69 803d
00000380: 66ad 96bd 80d1 bf3b 3c8c ddbc 92e8 3f3d
00000390: 94e3 aabd 9ce0 c1bc 30ac 8fbb 8dca 893d
000003a0: 8f25 99bd d9ba 9abd a8f3 3abc ca37 c7bd
000003b0: 4594 50be d0fd e9bc 5afd c13d a2e0 583d
000003c0: e043 073d 8ce2 22be 80de 793c a4f5 4d3e
000003d0: 8b6c 853d 1500 8dbd 1287 70bd 24b2 99bd
000003e0: 0e5d 983c ffea 483e 82f8 733d d2df c9bc
000003f0: bbad ce3d aeec a3be b3e7 46bd 9654 50be

encoder_sol.W_i.bias f4 [128]
0.010617371 -0.015554189 0.038933445 -0.017935503 0.024512637 -0.091931805 -0.018571364 -0.07199962
-0.08899872 -0.025203954 -0.014003205 -0.10597175 -0.06779658 -0.033764366 -0.0043641897 -0.020863602
-0.043923315 0.052031144 -0.07940764 -0.016097523 -0.083813414 -0.06349448 0.0090303635 -0.03632098
-0.086569786 -0.05707273 -0.049548205 -0.01599991 0.04059404 -0.08518262 -0.015377632 -0.029221922
-0.01071336 -0.09441812 -0.050957777 -0.0024387932 0.01233402 -0.066353686 0.04852775 0.04240042
-0.028460272 -0.010463779 -0.0982199 -0.056129094 -0.022370186 -0.0590999 -0.09315193 0.007986003
-0.054134414 -0.007850279 -0.052106306 -0.08964124 -0.009940904 -0.032196876 -0.01275189 -0.005313961
-0.053930465 0.008036677 -0.07417066 -0.0959826 0.0330843 -0.0148173 -0.0071461024 -0.11941222
-0.08960507 0.015014716 -0.06400642 0.042238127 0.051287327 -0.0145938415 -0.06580661 -0.008363534
-0.01880337 0.024814703 -0.046809237 -0.040845286 -0.10603334 0.0021363453 0.047019765 -0.0471965
-0.0074231667 0.01838764 -0.055983514 -0.01283244 -0.034039684 -0.027883507 0.01840645 -0.058342528
-0.049756326 -0.05664089 -0.04370858 0.02294759 0.032360636 -0.009661411 -0.0106697725 -0.012413488
-0.057223476 -0.059555143 -0.03434968 0.023324875 -0.074850716 -0.0020868597 -0.090544604 -0.06551565
-0.06374834 -0.009042105 -0.07310413 -0.018021416 -0.058603965 -0.06918101 -0.08535487 -0.061977383
0.018223248 -0.06839926 -0.048842024 -0.08028243 -0.041505788 0.046856865 -0.012224543 -0.017202105
0.002617136 -0.09346504 -0.0058642346 -0.08111886 -0.004664921 -0.044961113 0.013637006 -0.031498533
00000000: 7bf4 2d3c ffd6 7ebc ad78 1f3d 7aed 92bc
00000010: bace c83c be46 bcbd f922 98bc 8974 93bd
00000020: f644 b6bd 8678 cebc b36d 65bc b807 d9bd
00000030: efd8 8abd 814c 0abd 7a01 8fbb 25ea aabc
00000040: efe8 33bd 9c1e 553d 79a0 a2bd f4de 83bc
00000050: 5ea6 abbd 6509 82bd 17f4 133c 4fc5 14bd
00000060: 804b b1bd 18c5 69bd 0ff3 4abd 3e12 83bc
00000070: f045 263d 3a74 aebd 77f2 7bbc d062 efbc
00000080: 1787 2fbc 4a5e c1bd 1ab9 50bd 29d4 1fbb
00000090: a114 4a3c 71e4 87bd 09c5 463d 10ac 2d3d
000000a0: 8425 e9bc 4570 2bbc 8427 c9bd 9fe7 65bd
000000b0: ae41 b7bc bd12 72bd 70c6 bebd b9d7 023c
000000c0: 0cbc 5dbd 759e 00bc 6c6d 55bd d495 b7bd
000000d0: 2cdf 22bc dfe0 03bd 4eed 50bc bc20 aebb
000000e0: 31e6 5cbd 44ac 033c c9e6 97bd 8692 c4bd
000000f0: 6783 073d 43c4 72bc da29 eabb 658e f4bd
00000100: dd82 b7bd 4900 763c cc15 83bd e301 2d3d
00000110: a912 523d 021b 6fbc 9ec5 86bd 3407 09bc
00000120: 8609 9abc 3448 cb3c 0bbb 3fbd 634d 27bd
00000130: 0228 d9bd ed01 0c3b cc97 403d 1e51 41bd
00000140: 093e f3bb ada1 963c f84e 65bd 283f 52bc
00000150: 326d 0bbd f46b e4bc 20c9 963c 93f8 6ebd
00000160: 4acd 4bbd 4700 68bd c507 33bd 96fc bb3c
00000170: 968c 043d e54a 1ebc 45d0 2ebc f161 4bbc
00000180: 2a63 6abd 18f0 73bd 40b2 0cbd cf13 bf3c
00000190: 554b 99bd b2c3 08bb 736f b9bd 122d 86bd
000001a0: 7d8e 82bd 5625 14bc 9eb7 95bd a6a1 93bc
000001b0: b60a 70bd c6ae 8dbd 89ce aebd ffdb 7dbd
000001c0: ec48 953c e914 8cbd 930e 48bd 1d6b a4bd
000001d0: f901 2abd fcec 3f3d 7349 48bc 6eeb 8cbc
000001e0: 4284 2b3b 996a bfbd c428 c0bb a521 a6bd
000001f0: 32dc 98bb 2529 38bd c06d 5f3c 9b04 01bd

encoder_sol.W_h.weight f4 [128, 142]
-0.018176083 0.1173909 -0.068495795 0.1350258 -0.037166223 0.025777549 0.04919422 0.05789341
0.06731914 0.008226552 -0.032403078 0.018323144 0.03947655 0.043867834 0.10457092 0.051095583
0.13573058 -0.040244028 0.049244903 -0.070463076 -0.03125228 0.016556662 -0.012280287 0.06952353
-0.07288216 -0.031142589 0.014648061 0.17026126 0.037544042 -0.0076906383 0.045300785 0.13377881
0.040426534 -0.01554919 -0.008052743 -0.036078174 0.10839429 -0.019736007 -0.102347255 -0.09002037
0.082083024 0.024265507 0.09728111 -0.070547305 -0.07570025 -0.16190292 0.029848848 0.059893407
-0.001027818 0.0024187453 -0.08185233 -0.041064207 0.15340708 -0.05348947 -0.0625424 0.018741734
0.110751025 -0.098785646 0.07856794 -0.0277911 0.08404306 0.03502303 -0.072192185 -0.073847145
0.16777591 0.047312506 0.016937068 -0.1049356 -0.05150731 -0.09266876 -0.03985938 -0.05197187
0.11280333 -0.028149368 0.072633505 -0.088218674 -0.1675726 -0.046010796 -0.0013764625 0.030696236
0.02124913 0.0216085 0.08865548 0.081828915 0.040461533 0.09687453 -0.24632017 0.104968436
-0.06291991 -0.029661873 0.028722493 -0.18824272 -0.12048726 -0.033809964 -0.034469076 0.030184055
-0.15175426 0.102530465 0.007353076 -0.10006866 0.0324718 -0.05499856 0.005816958 -0.12527427
0.012368887 -0.020966394 0.012432136 -0.013786549 0.14380078 -0.0640769 0.04698014 -0.01775788
-0.08185991 -0.06020472 0.043637026 0.04407793 -0.23287968 -0.07336303 -0.0684428 0.023348752
0.027261117 0.041150708 -0.04706178 0.048168223 -0.015503156 0.041795235 -0.039455637 0.15770447
-0.05015237 0.047630567 0.022703227 0.028555864 -0.04411369 -0.08474526 0.10009952 -0.014948671
-0.03876469 -0.05282271 0.16191238 0.07937369 -0.009347573 0.07666622 0.05447533 -0.23808949
-0.1035316 0.08598259 -0.076785274 0.011144403 -0.23335606 -0.25686866 -0.058743387 0.09794088
0.025872856 -0.21758297 -0.033925854 0.039327487 -0.12832657 -0.2259402 0.15705693 -0.13117418
-0.11086658 0.087523736 0.14600705 -0.0026861194 -0.52587354 -0.104708984 0.015675465 -0.015537342
0.0937878 -0.06139417 -0.20716403 -0.2709417 -0.108931065 -0.04252145 0.18411018 -0.03711175
0.072643906 -0.27074924 -0.12260206 -0.12804572 -0.0009003498 -0.21207508 -0.12868595 0.038096633
-0.3344745 0.037618846 -0.084180035 0.008989383 0.13107748 0.042602606 -0.03929818 -0.2558923
0.056075495 0.34097812 -0.15373473 -0.22574233 0.052543107 0.059078056 -0.20420447 -0.14407241
-0.14917988 0.029319772 0.0038761494 0.054093182 0.15527791 -0.12797503 -0.21447654 -0.17291291
-0.0151435835 -0.05947833 -0.13511309 0.042615138 0.067162104 0.055261705 -0.15136054 -0.08068148
-0.016346736 -0.17007966 -0.044400956 0.1957629 -0.049284913 0.09300982 0.13745014 -0.012806284
0.048899446 -0.040390987 -0.065034635 0.06151869 -0.23880528 -0.05382387 -0.045783717 -0.06785068
-0.0334048 0.14475158 -0.13020918 0.06739375 -0.034759786 -0.096697286 -0.1696515 0.1568767
0.058804862 0.082870714 -0.18203644 0.018524911 0.007883848 -0.14449002 -0.07306143 0.05006194
0.0063572866 -0.16720241 -0.30646065 -0.1544904 0.006266922 -0.083451815 -0.06308262 -0.14079817
00000000: 02e6 94bc a46a f03d 8647 8cbd 3444 0a3e
00000010: 9c3b 18bd 702b d33c e17f 493d a421 6d3d
00000020: 9ede 893d a9c8 063c 17b9 04bd 6b1a 963c
00000030: 2ab2 213d c2ae 333d 4729 d63d 9a49 513d
00000040: f5fc 0a3e ecd6 24bd 06b5 493d f24e 90bd
00000050: 6402 00bd d6a1 873c 4233 49bc 5a62 8e3d
00000060: 3e43 95bd be1e ffbc 6cfe 6f3c f858 2e3e
00000070: c8c7 193d c001 fcbb 518d 393d 50fd 083e
00000080: 4b96 253d 08c2 7ebc a7ef 03bc b5c6 13bd
00000090: d3fd dd3d 68ad a1bc 709b d1bd 9a5c b8bd
000000a0: 251b a83d 75c8 c63c 523b c73d 1b7b 90bd
000000b0: bc08 9bbd e1c9 25be 9285 f43c ca52 753d
000000c0: d9b7 86ba d083 1e3b 32a2 a7bd f132 28bd
000000d0: bf16 1d3e c617 5bbd 3b16 80bd 4488 993c
000000e0: 6fd1 e23d 2150 cabd 3ae8 a03d 29aa e3bc
000000f0: c51e ac3d 4f74 0f3d 7fd9 93bd 2c3d 97bd
00000100: 73cd 2b3e c2ca 413d 9bbf 8a3c 7ae8 d6bd
00000110: 54f9 52bd 1ec9 bdbd 9743 23bd 75e0 54bd
00000120: 6f05 e73d 8199 e6bc e0c0 943d feab b4bd
00000130: 2798 2bbe d175 3cbd 6b6a b4ba ac76 fb3c
00000140: a812 ae3c 4f04 b13c 0191 b53d eb95 a73d
00000150: feba 253d 2766 c63d 5b3b 7cbe b1f9 d63d
00000160: 27dc 80bd 75fd f2bc 6f4b eb3c b3c2 40be
00000170: 06c2 f6bd 517c 0abd 722f 0dbd 8d44 f73c
00000180: 7865 1bbe 7efb d13d 12f2 f03b ccf0 ccbd
00000190: 2601 053d 2c46 61bd 2e9c be3b e647 00be
000001a0: dfa6 4a3c b7c1 abbc 28b0 4b3c fae0 61bc
000001b0: 8340 133e c03a 83bd 3f6e 403d f978 91bc
000001c0: 2ba6 a7bd 3999 76bd bdbc 323d 0f8b 343d
000001d0: 0378 6ebe 5b3f 96bd bd2b 8cbd e245 bf3c
000001e0: b552 df3c a58d 283d dac3 40bd 0b4c 453d
000001f0: f300 7ebc 7b31 2b3d 3c9c 21bd 487d 213e
00000200: 926c 4dbd 4518 433d 1efc b93c fded e93c
00000210: 8eb0 34bd ec8e adbd fa00 cd3d 45eb 74bc
00000220: b9c7 1ebd a05c 58bd 5ccc 253e ac8e a23d
00000230: 9026 19bc 2e03 9d3d 8621 5f3d bbcd 73be
00000240: 6008 d4bd a417 b03d 9941 9dbd 0497 363c
00000250: e4f4 6ebe 4a84 83be e89c 70bd 3a95 c83d
00000260: 50f3 d33c 12ce 5ebe d6f5 0abd dc15 213d
00000270: 0a68 03be de5c 67be 88d3 203e 8652 06be
00000280: 040e e3bd a53f b33d df82 153e 9b09 30bb
00000290: a69f 06bf aa71 d6bd d569 803c 5690 7ebc
000002a0: d113 c03d 7478 7bbd cf22 54be dfb8 8abe
000002b0: 4017 dfbd f92a 2ebd 6187 3c3e 7e02 18bd
000002c0: 54c6 943d a59f 8abe ca16 fbbd 6b1e 03be
000002d0: 7405 6cba 362a 59be 40c6 03be 370b 1c3d
000002e0: 3e40 abbe 3816 1a3d 9566 acbd 3448 133c
000002f0: 2d39 063e 1280 2e3d 21f7 20bd 5104 83be
00000300: 6baf 653d af94 ae3e a36c 1dbe ff28 67be
00000310: 7137 573d d5fb 713d fa1a 51be b887 13be
00000320: 9cc2 18be 0530 f03c ff06 7e3b d090 5d3d
00000330: 2c01 1f3e e30b 03be bd9f 5bbe 1510 31be
00000340: cb1c 78bc 8d9f 73bd 165b 0abe 368d 2e3d
00000350: 498c 893d 195a 623d 42fe 1abe 553c a5bd
00000360: 97e9 85bc 5d29 2ebe c7dd 35bd 1276 483e
00000370: fade 49bd ef7b be3d bbbf 0c3e 73d1 51bc
00000380: c94a 483d 0571 25bd e130 85bd 06fb 7b3d
00000390: 5f89 74be 6b76 5cbd b587 3bbd 4cf5 8abd
000003a0: 79d3 08bd c239 143e 8e55 05be bc05 8a3d
000003b0: 4760 0ebd 3a09 c6bd 1fb9 2dbe 49a4 203e
000003c0: 5edd 703d 1fb8 a93d c367 3abe 8ec1 973c
000003d0: 412b 013c 31f5 13be 3ba1 95bd c00d 4d3d
000003e0: c950 d03b 1c37 2bbe 69e8 9cbe bb32 1ebe
000003f0: c15a cd3b c9e8 aabd 7631 81bd 652d 10be

encoder_sol.W_h.bias f4 [128]
-0.036431756 -0.051862743 -0.094350524 -0.021777092 -0.08556827 -0.06323005 -0.10469883 -0.057068564
0.049859352 -0.09251699 -0.08826469 0.051100973 -0.0030567579 0.010747106 -0.11221764 -0.08717646
0.00913353 -0.08925302 -0.101667196 -0.051029995 -0.029028801 -0.034242235 -0.041818887 -0.009509195
-0.053050987 0.00740927 -0.00044591515 -0.0723207 -0.00021757359 -0.008464881 -0.013406522 -0.006917142
-0.06841669 0.04022987 -0.035816148 -0.01284094 -0.01655582 -0.062418833 -0.076530464 -0.050925855
-0.020688558 -0.061703097 -0.0075628855 -0.028896473 0.006977121 -0.012648464 -0.09265304 -0.09364452
-0.07987082 -0.07639195 -0.048075337 -0.062853314 -0.08764983 0.018028079 -0.11686716 -0.06248956
0.005462168 -0.08180744 -0.007959831 0.030304043 -0.04913127 -0.1106462 -0.080539994 -0.03679367
0.0079371 0.0008576144 -0.031054784 0.0058259615 -0.02060148 -0.020534758 -0.066668175 -0.027626764
-0.014468443 -0.063604474 0.012145527 0.018238973 -0.018769028 -0.06978525 -0.020446884 -0.05210517
-0.06821856 -0.052475236 -0.044976696 0.021299168 -0.07233245 -0.09275582 -0.052265838 0.026939562
-0.0057768305 0.025650773 0.011911974 -0.01016336 -0.0071470225 -0.10601009 -0.03244209 -0.086570464
-0.03711099 0.006659172 -0.07012811 -0.099028006 0.029609466 -0.06864127 -0.040612638 0.0038259237
-0.084600225 -0.01478923 0.013145844 -0.037897874 -0.023361294 -0.064234644 0.04076872 -0.047776945
-0.11166561 0.0078105433 -0.032912757 -0.07000591 0.031742666 -0.120057866 -0.04393536 -0.088492736
-0.033460043 -0.07686938 0.007805981 0.03204528 -0.009071388 -0.045465603 0.03592497 -0.10733244
00000000: 7739 15bd 076e 54bd d93a c1bd df65 b2bc
00000010: 6b3e afbd c27e 81bd 576c d6bd bac0 69bd
00000020: 5239 4c3d 8c79 bdbd 1ec4 b4bd 414f 513d
00000030: e353 48bb a114 303c 5dd2 e5bd 9289 b2bd
00000040: cda4 153c 4aca b6bd e436 d0bd d404 51bd
00000050: cfcd edbc 9641 0cbd 484a 2bbd 74cc 1bbc
00000060: fe4b 59bd 76c9 f23b b8c9 e9b9 e01c 94bd
00000070: 7724 64b9 49b0 0abc 07a7 5bbc 31a9 e2bb
00000080: 0d1e 8cbd 13c8 243d f4b3 12bd ce62 52bc
00000090: 12a0 87bc e4aa 7fbd 01bc 9cbd a197 50bd
000000a0: 0d7b a9bc 63bc 7cbd 15d2 f7bb 4cb8 ecbc
000000b0: 55a0 e43b 813b 4fbc e1c0 bdbd b3c8 bfbd
000000c0: 5093 a3bd 6273 9cbd a5ea 44bd 3db9 80bd
000000d0: c181 b3bd 9faf 933c 0d58 efbd 0ef5 7fbd
000000e0: fcfb b23b a98a a7bd f369 02bc 2f40 f83c
000000f0: df3d 49bd 7a9a e2bd 27f2 a4bd f6b4 16bd
00000100: 9c0a 023c 87d1 603a 9a66 febc b5e7 be3b
00000110: 6fc4 a8bc 8238 a8bc 5389 88bd 8651 e2bc
00000120: 0c0d 6dbc 1043 82bd 08fe 463c e669 953c
00000130: 81c1 99bc 92eb 8ebd 3980 a7bc 3b6c 55bd
00000140: 2cb6 8bbd 46f0 56bd 7c39 38bd 987b ae3c
00000150: 0923 94bd c3f6 bdbd b414 56bd 5bb0 dc3c
00000160: 914b bdbb 9221 d23c 712a 433c 3984 26bc
00000170: 9231 eabb d11b d9bd ffe1 04bd db4b b1bd
00000180: b201 18bd 2f35 da3b 549f 8fbd 32cf cabd
00000190: 8d8f f23c cb93 8cbd 7059 26bd 59bc 7a3b
000001a0: e242 adbd 874e 72bc ab61 573c cd3a 1bbd
000001b0: 2f60 bfbc 748d 83bd 1afd 263d c2b1 43bd
000001c0: f0b0 e4bd 96ef ff3b 87cf 06bd 425f 8fbd
000001d0: 9904 023d e6e0 f5bd 90f5 33bd ae3b b5bd
000001e0: 660d 09bd b26d 9dbd 51c9 ff3b e941 033d
000001f0: 29a0 14bc 243a 3abd 1026 133d 1cd1 dbbd

encoder_sol.W_o.weight f4 [128, 261]
0.22492278 -0.054501884 -0.008447293 -0.03589222 -0.026966471 0.066333055 -0.07476062 -0.061196387
-0.03048093 0.0015651584 0.010183208 -0.054544244 0.05492133 0.0311941 0.030412724 0.10048962
-0.059272625 -0.008401535 -0.047872685 -0.05853795 0.0009907559 0.0382983 -0.016215265 0.04845181
0.03955526 -0.04467038 0.025968097 0.011523701 0.050486155 -0.031294852 0.047486007 -0.0044770464
-0.0104291625 0.018068999 0.069180384 -0.05332022 0.035888582 -0.04703584 0.054658376 -0.015382584
0.012715191 -0.052021496 -0.0014942437 -0.016288582 -0.0051387325 -0.029074565 0.05470171 -0.0056889094
-0.036819577 0.0038952008 0.03705199 -0.0411938 -0.005668813 0.024954982 0.026042387 -0.038786203
-0.040482372 -0.029628176 -0.027677212 0.039898098 0.017914347 -0.039559428 0.018863313 0.009822778
0.01995983 0.059376054 0.051176675 -0.02944978 -0.03289566 0.026291206 0.041110523 0.04536245
0.06024278 -0.024736118 -0.030891618 -0.003234055 0.043349996 -0.024499007 0.03174699 0.051940486
0.013649143 -0.06162309 0.02385518 -0.0105999 0.004236676 0.036161847 -0.032078825 0.024263717
0.03993643 0.031981677 -0.024601914 0.057522774 0.045474276 0.0072948113 -0.022379499 0.055352204
0.037394434 -0.03828042 0.017713785 -0.035365783 -0.030390937 -0.00726483 -0.039054994 0.022484876
-0.060589526 0.06319351 -0.013380881 -0.011057932 0.004989364 -0.015422326 -0.14428593 -0.040493377
0.04434922 -0.12070181 0.011183317 -0.13643737 -0.056907184 0.001782909 -0.0052438527 -0.069561906
-0.13182993 -0.031749457 0.092053555 0.13569698 -0.029749714 -0.010261675 -0.08382822 0.041383352
-0.025105204 0.012398228 0.1724227 -0.055713408 -0.031083502 -0.024240177 -0.09028235 0.06102768
-0.106694356 0.004761112 -0.010100614 0.03690231 0.024677271 -0.00930804 -0.052031793 0.03816173
0.107746236 0.054239236 0.016848773 -0.12989978 0.06783023 -0.14773679 -0.0075156544 0.026462605
0.03363773 -0.09917561 -0.066311054 -0.0276486 -0.04189681 0.024017058 0.009316162 0.037346363
-0.01416945 0.09672444 -0.0030760542 -0.017390182 0.030311523 -0.07050898 0.024110438 -0.05293311
0.06674008 -0.006659315 -0.07355608 0.006726738 0.13171938 0.10686532 0.012560234 0.12190272
0.034708615 -0.11401606 0.05392418 -0.10102574 0.08473795 -0.018896116 0.04006151 0.031853605
-0.020305675 0.019426314 0.006703102 0.091720186 0.015857028 -0.023308948 0.014070958 -0.026447656
-0.05543301 -0.1534159 -0.120310456 -0.05115699 -0.031780146 0.031264164 0.025947878 0.09536596
0.0475159 -0.023091102 -0.05459886 0.1962284 0.06865836 -0.09042552 0.026776988 -0.027366512
0.03712854 0.088028364 0.020493798 0.033263452 0.037208803 0.0136397295 -0.031816423 0.03900606
-0.08759648 0.036303647 -0.034490086 -0.025620354 -0.0015150295 0.021516914 -0.053871226 0.039802305
0.05815477 0.05212704 -0.079394124 -0.050018266 0.009952054 0.016884454 -0.103047706 -0.0037158881
0.10508588 0.024531601 -0.018730562 -0.047191504 -0.019548934 -0.03966141 0.022780472 -0.0391976
-0.0155895185 0.03311427 0.04867719 0.035652302 -0.05142099 0.004291518 -0.11030283 -0.06130138
0.0060343007 -0.028291903 0.03625195 0.029691854 0.09867838 -0.06012433 0.057270784 0.038359325
00000000: 2852 663e 5e3d 5fbd 8466 0abc b803 13bd
00000010: cae8 dcbc a0d9 873d 191c 99bd 10a9 7abd
00000020: 25b3 f9bc 0026 cd3a 78d7 263c c969 5fbd
00000030: 30f5 603d c58a ff3c 1b24 f93c 80cd cd3d
00000040: dac7 72bd 98a6 09bc 2616 44bd 7dc5 6fbd
00000050: 40dc 813a aede 1c3d e0d5 84bc 6875 463d
00000060: b204 223d 4af8 36bd 0cbb d43c e8cd 3c3c
00000070: 92ca 4e3d 082f 00bd b080 423d 30b4 92bb
00000080: 14df 2abc 7005 943c 72ae 8d3d 4e66 5abd
00000090: e8ff 123d a7a8 40bd 76e1 5f3d 3c07 7cbc
000000a0: 6053 503c 7e14 55bd 80da c3ba a26f 85bc
000000b0: d062 a8bb c82d eebc e60e 603d 086a babb
000000c0: 20d0 16bd a046 7f3b d4c3 173d d4ba 28bd
000000d0: 73c1 b9bb 646e cc3c d856 d53c 48de 1ebd
000000e0: d8d0 25bd cab6 f2bc 52bb e2bc 306c 233d
000000f0: 1cc1 923c 1109 22bd 3c87 9a3c b8ef 203c
00000100: cc82 a33c 4e34 733d a29e 513d aa40 f1bc
00000110: 99bd 06bd a860 d73c 8263 283d facd 393d
00000120: 22c1 763d 66a3 cabc 6b10 fdbc 70f2 53bb
00000130: c48f 313d 24b2 c8bc 2209 023d 8cbf 543d
00000140: a8a0 5f3c 7e68 7cbd f06b c33c 34ab 2dbc
00000150: d0d3 8a3b 721e 143d 1665 03bd b4c4 c63c
00000160: 6294 233d 38ff 023d f489 c9bc 009d 6b3d
00000170: 3c43 3a3d 5009 ef3b 3655 b7bc feb8 623d
00000180: e82a 193d eecb 1cbd 801c 913c b6db 10bd
00000190: 6af6 f8bc d00d eebb 21f8 1fbd 3432 b83c
000001a0: b92c 78bd 996b 813d 7c3b 5bbc 542c 35bc
000001b0: d27d a33b ecad 7cbc b1bf 13be 62dc 25bd
000001c0: 87a7 353d 8332 f7bd 3b3a 373c 3db6 0bbe
000001d0: 8217 69bd 80b0 e93a a0d4 abbb 7976 8ebd
000001e0: 6dfe 06be b80b 02bd 9386 bc3d 26f4 0a3e
000001f0: acb5 f3bc 9620 28bc 21ae abbd 9781 293d
00000200: 6ea9 cdbc f021 4b3c 948f 303e be33 64bd
00000210: d4a2 febc 5693 c6bc f4e5 b8bd 29f8 793d
00000220: 9282 dabd 1a03 9c3b 0c7d 25bc e026 173d
00000230: fd27 ca3c c080 18bc 4a1f 55bd 794f 1c3d
00000240: 0faa dc3d f629 5e3d 7006 8a3c 7304 05be
00000250: 93ea 8a3d 5048 17be e145 f6bb 1bc8 d83c
00000260: b7c7 093d 951c cbbd 17ce 87bd 517f e2bc
00000270: fd9b 2bbd 6cbf c43c d1a2 183c 80f8 183d
00000280: fb26 68bc 7717 c63d a097 49bb db75 8ebc
00000290: df4f f83c 0367 90bd 4183 c53c 64d0 58bd
000002a0: 06af 883d 6236 dabb 92a4 96bd f86b dc3b
000002b0: 72e1 063e 34dc da3d 71c9 4d3c 22a8 f93d
000002c0: 9f2a 0e3d 4181 e9bd 9adf 5c3d 95e6 cebd
000002d0: 178b ad3d 07cc 9abc 8a17 243d ed78 023d
000002e0: 1658 a6bc ef23 9f3c b2a5 db3b cbd7 bb3d
000002f0: 99e6 813c 68f2 bebc e089 663c c1a8 d8bc
00000300: b90d 63bd 0f19 1dbe 5465 f6bd fe89 51bd
00000310: e62b 02bd da0e 003d a590 d43c 3a4f c33d
00000320: 08a0 423d 8d29 bdbc 0ea3 5fbd 19f0 483e
00000330: c19c 8c3d 0431 b9bd 6a5b db3c bc2f e0bc
00000340: 1914 183d 3748 b43d 9ce2 a73c 423f 083d
00000350: 4268 183d 2c79 5f3c f051 02bd d2c4 1f3d
00000360: c965 b3bd 22b3 143d 7a45 0dbd c7e1 d1bc
00000370: f493 c6ba 3d44 b03c 13a8 5cbd be07 233d
00000380: b233 6e3d 2a83 553d 6399 a2bd f4df 4cbd
00000390: f10d 233c 4451 8a3c ad0a d3bd 4286 73bb
000003a0: 4437 d73d 7ff6 c83c d670 99bc e14b 41bd
000003b0: 1625 a0bc 0174 22bd 1d9e ba3c aa8d 20bd
000003c0: 2e6b 7fbc d4a2 073d bc61 473d 2608 123d
000003d0: d19e 52bd dd9f 8c3b 73e6 e1bd 2817 7bbd
000003e0: 62bb c53b 6cc4 e7bc ed7c 143d 553c f33c
000003f0: e417 ca3d ee44 76bd c594 6a3d ab1e 1d3d

encoder_sol.W_o.bias f4 [128]
0.02763399 0.014667839 0.012302358 -0.05436219 -0.036940254 -0.04370692 0.013802023 0.043522056
-0.028976792 0.0152649 0.02779691 0.03393492 0.056593362 0.05379508 0.013680488 -0.05623857
-0.010056706 -0.08732413 -0.019095855 -0.04806603 0.061786346 0.019016176 -0.03783473 0.023241268
0.056378983 -0.058197606 0.01614892 -0.005495823 -0.054489575 0.06339541 -0.013072727 -0.013520721
-0.05076921 -0.0012031822 -0.02898836 0.030661032 0.008271517 0.05079321 0.09823996 0.02045037
-0.0003399838 -0.043502107 -0.03911189 0.057103336 -0.05024929 -0.050995857 0.07221941 -0.04630208
-0.062658496 -0.08237261 -0.05739 0.02177778 -0.00087583164 0.013395009 -0.05980507 0.018752314
-0.05670837 -0.041676015 0.06833641 0.047225818 -0.026569225 0.086442545 -0.0049355314 0.006048538
0.06945287 0.03688121 -0.023511028 0.035882596 0.025801694 -0.009935591 -0.061165843 -0.0025032547
0.06738356 -0.011014704 -0.035535697 -0.046431735 -0.06515576 0.060365453 -0.028710134 -0.020813217
0.037379622 0.053550888 0.06325394 0.011336609 0.004074811 0.03840856 -0.033709507 0.0118876835
-0.07177549 -0.05458091 0.05170887 0.004938951 0.07418954 -0.041938856 -0.013993014 -0.022274422
0.07429737 0.034841385 0.007566343 -0.070230484 -0.07072899 0.06322038 0.011157217 -0.087824255
0.053546406 2.6951333e-05 -0.09585754 -0.060276218 -0.016845243 0.033441402 -0.054127138 0.032966524
0.04462528 -0.008391654 0.037127733 0.0717624 0.008422442 0.077214696 0.011439435 0.023824159
-0.025799537 0.07978019 -0.042628452 0.03535217 -0.017637327 0.03186543 0.006800106 0.014841076
00000000: ad60 e23c 6051 703c d48f 493c e3aa 5ebd
00000010: aa4e 17bd 0706 33bd e121 623c 2f44 323d
00000020: bd60 edbc a219 7a3c 58b6 e33c 58ff 0a3d
00000030: 71ce 673d 3b58 5c3d 2024 603c 6a5a 66bd
00000040: e2c4 24bc fed6 b2bd e96e 9cbc e3e0 44bd
00000050: ae13 7d3d d0c7 9b3c 97f8 1abd 7964 be3c
00000060: a6ed 663d 9d60 6ebd bd4a 843c 4e16 b4bb
00000070: 7630 5fbd 74d5 813d fe2e 56bc 0486 5dbc
00000080: 60f3 4fbd 18b4 9dba ff78 edbc d82c fb3c
00000090: 4285 073c 8a0c 503d 0832 c93d 8987 a73c
000000a0: da3f b2b9 442f 32bd ca33 20bd 30e5 693d
000000b0: 33d2 4dbd 08e1 50bd c5e7 933d 40a7 3dbd
000000c0: 1953 80bd f9b2 a8bd c711 6bbd 5167 b23c
000000d0: 1198 65ba bd76 5b3c 29f6 74bd 749e 993c
000000e0: 0947 68bd 78b4 2abd f6f3 8b3d dc6f 413d
000000f0: b4a7 d9bc ca08 b13d 3dba a1bb d032 c63b
00000100: 4e3d 8e3d c010 173d 339a c0bc a1f9 123d
00000110: 135e d33c e4c8 22bc 0989 7abd a50d 24bb
00000120: 6400 8a3d 0477 34bc e18d 11bd 342f 3ebd
00000130: 6270 85bd c441 773d 8431 ebbc 7b80 aabc
00000140: 601b 193d 2d58 5b3d 488b 813d 2fbd 393c
00000150: fe85 853b 4b52 1d3d fb12 0abd 8fc4 423c
00000160: 07ff 92bd 3b90 5fbd aecc 533d edd6 a13b
00000170: b0f0 973d 14c8 2bbd f442 65bc d978 b6bc
00000180: 3829 983d d7b5 0e3d 16ef f73b 00d5 8fbd
00000190: 5cda 90bd b079 813d c3cc 363c 34dd b3bd
000001a0: 7a53 5b3d 8c15 e237 f550 c4bd 32e4 76bd
000001b0: 09ff 89bc daf9 083d 6bb4 5dbd e807 073d
000001c0: ffc8 363d 267d 09bc 4013 183d 2af8 923d
000001d0: 48fe 093c bd22 9e3d 786c 3b3c e22a c33c
000001e0: 8d59 d3bc cc63 a33d 2c9b 2ebd 70cd 103d
000001f0: 287c 90bc 5385 023d 6cd3 de3b fc27 733c

encoder_solv.cached_zero_vector f4 [128]
0.0 0.0 0.0 0.0 0.0 0.0 0.0 0.0
0.0 0.0 0.0 0.0 0.0 0.0 0.0 0.0
0.0 0.0 0.0 0.0 0.0 0.0 0.0 0.0
0.0 0.0 0.0 0.0 0.0 0.0 0.0 0.0
0.0 0.0 0.0 0.0 0.0 0.0 0.0 0.0
0.0 0.0 0.0 0.0 0.0 0.0 0.0 0.0
0.0 0.0 0.0 0.0 0.0 0.0 0.0 0.0
0.0 0.0 0.0 0.0 0.0 0.0 0.0 0.0
0.0 0.0 0.0 0.0 0.0 0.0 0.0 0.0
0.0 0.0 0.0 0.0 0.0 0.0 0.0 0.0
0.0 0.0 0.0 0.0 0.0 0.0 0.0 0.0
0.0 0.0 0.0 0.0 0.0 0.0 0.0 0.0
0.0 0.0 0.0 0.0 0.0 0.0 0.0 0.0
0.0 0.0 0.0 0.0 0.0 0.0 0.0 0.0
0.0 0.0 0.0 0.0 0.0 0.0 0.0 0.0
0.0 0.0 0.0 0.0 0.0 0.0 0.0 0.0
00000000: 0000 0000 0000 0000 0000 0000 0000 0000
00000010: 0000 0000 0000 0000 0000 0000 0000 0000
00000020: 0000 0000 0000 0000 0000 0000 0000 0000
00000030: 0000 0000 0000 0000 0000 0000 0000 0000
00000040: 0000 0000 0000 0000 0000 0000 0000 0000
00000050: 0000 0000 0000 0000 0000 0000 0000 0000
00000060: 0000 0000 0000 0000 0000 0000 0000 0000
00000070: 0000 0000 0000 0000 0000 0000 0000 0000
00000080: 0000 0000 0000 0000 0000 0000 0000 0000
00000090: 0000 0000 0000 0000 0000 0000 0000 0000
000000a0: 0000 0000 0000 0000 0000 0000 0000 0000
000000b0: 0000 0000 0000 0000 0000 0000 0000 0000
000000c0: 0000 0000 0000 0000 0000 0000 0000 0000
000000d0: 0000 0000 0000 0000 0000 0000 0000 0000
000000e0: 0000 0000 0000 0000 0000 0000 0000 0000
000000f0: 0000 0000 0000 0000 0000 0000 0000 0000
00000100: 0000 0000 0000 0000 0000 0000 0000 0000
00000110: 0000 0000 0000 0000 0000 0000 0000 0000
00000120: 0000 0000 0000 0000 0000 0000 0000 0000
00000130: 0000 0000 0000 0000 0000 0000 0000 0000
00000140: 0000 0000 0000 0000 0000 0000 0000 0000
00000150: 0000 0000 0000 0000 0000 0000 0000 0000
00000160: 0000 0000 0000 0000 0000 0000 0000 0000
00000170: 0000 0000 0000 0000 0000 0000 0000 0000
00000180: 0000 0000 0000 0000 0000 0000 0000 0000
00000190: 0000 0000 0000 0000 0000 0000 0000 0000
000001a0: 0000 0000 0000 0000 0000 0000 0000 0000
000001b0: 0000 0000 0000 0000 0000 0000 0000 0000
000001c0: 0000 0000 0000 0000 0000 0000 0000 0000
000001d0: 0000 0000 0000 0000 0000 0000 0000 0000
000001e0: 0000 0000 0000 0000 0000 0000 0000 0000
000001f0: 0000 0000 0000 0000 0000 0000 0000 0000

encoder_solv.W_i.weight f4 [128, 133]
-0.028785944 0.035141475 0.04527367 0.016691856 0.021585763 0.04817561 0.026604015 -0.062530495
0.015289292 -0.050782263 0.067449726 -0.029368803 -0.008970931 0.030873552 0.040141962 0.17748909
-0.055188734 0.07765495 0.018509552 0.039413475 -0.002528973 -0.020094134 0.06007158 -0.04921194
0.08584859 -0.007489249 0.08367372 -0.029196654 -0.044127963 -0.0648608 -0.0507055 -0.0009100288
-0.08564264 -0.035668384 -0.07450561 -0.019869544 -0.020151623 0.0083315 0.0328091 -0.016354352
0.06096611 0.058529608 0.03484556 -0.05040996 0.0028037503 0.01157327 -0.012543336 0.04911036
-0.03073489 0.074123584 -0.01521562 0.0609672 0.03591816 0.018041909 -0.040428117 -0.07054246
0.031611152 -0.003903024 -0.07504557 -0.076089896 0.07540623 0.053925924 -0.009498745 -0.018853255
0.036782622 0.039325856 -0.0477349 0.011930391 0.023352273 -0.06937906 -0.061509684 0.08173732
-0.038600758 0.06412008 -0.043453068 0.008735374 0.011039749 -0.06186548 -0.0724162 0.07385356
-0.038958065 0.0400315 -0.011977658 -0.0589787 0.016464643 -0.015359677 -0.058997378 0.018723466
0.07177504 0.02852188 0.041005127 -0.06660156 -0.029123396 0.0064687505 -0.049339622 0.054600663
-0.04873052 -0.05601418 -0.0026670173 0.08258016 0.052285112 0.04776568 -0.13433985 0.027375659
0.075027004 -0.052682027 -0.06748423 -0.051122785 -0.045512345 0.0013309196 0.038766436 0.0389247
-0.022803335 -0.000866808 -0.08062544 -0.034379143 0.061032422 -0.0452859 0.02860871 -0.019857166
0.13428546 -0.06463888 0.010990375 0.002432324 0.028464437 -0.052508403 0.08279468 -0.0272118
-0.05056457 -0.082322426 0.067978926 0.0701179 -0.013020554 -0.010102041 -0.061821677 0.008971341
0.036046132 -0.03306961 -0.0194429 0.02425923 -0.0376015 -0.016572013 -0.006728202 0.06206373
0.024754174 -0.037914623 0.043651767 -0.073412195 -0.0479974 0.08317035 0.057914518 0.02186627
0.03633195 0.07920555 0.0071914643 0.07132339 0.069420926 0.008221351 -0.055655338 -0.0659281
-0.05395674 0.0053118244 -0.06701636 -0.025973674 -0.05315062 -0.08549463 -0.064308554 -0.068010226
0.076950766 0.06975109 -0.026888054 -0.02097451 0.06774563 0.06892029 0.0013436675 -0.076669425
0.0015656799 0.05055485 -0.03023306 -0.0516641 0.05024167 0.041176163 0.053636797 0.08127787
-0.08209842 0.053162374 0.032797173 0.07054103 -0.02012308 -0.05083991 -0.01809445 -0.028859366
0.081604935 0.03610252 0.04169602 0.024179935 -0.024133228 -0.06951914 -0.045193106 -0.069900095
-0.047276914 -0.045508355 0.067286484 0.083512045 -0.029398274 0.046521164 -0.03977803 -0.07146645
-0.023232274 0.060849108 -0.08271092 0.07762221 0.084897034 -0.048821006 0.051388137 0.042930625
-0.0049523264 -0.059866235 0.028780147 0.0005887747 -0.03201158 0.06426106 -0.06177348 -0.019574061
0.045639835 -0.04663554 0.034198023 0.06450168 0.039230995 -0.066881835 0.070282824 -0.018868826
0.07316858 -0.009304188 -0.00714311 -0.022383863 -0.049314573 -0.0083936155 0.017739093 0.030919313
-0.07516466 -0.011292316 -0.04683728 -0.003976591 0.070758514 0.068416744 -0.039145544 -0.013074127
0.040937893 -0.0652511 -0.039838262 0.008430578 -0.029209558 -0.0435724 0.033646986 -0.11502463
00000000: 80d0 ebbc 82f0 0f3d e270 393d 5cbd 883c
00000010: a0d4 b03c ca53 453d aaf0 d93c fd0f 80bd
00000020: f07f 7a3c 1001 50bd 1523 8a3d d896 f0bc
00000030: d0fa 12bc 88ea fc3c e66b 243d b3bf 353e
00000040: 950d 62bd 8f09 9f3d 58a1 973c 0670 213d
00000050: 20bd 25bb 749c a4bc 9e0d 763d 7692 49bd
00000060: 63d1 af3d 6068 f5bb 215d ab3d d22d efbc
00000070: 86bf 34bd bdd5 84bd 92b0 4fbd 008f 6eba
00000080: 6965 afbd 0319 12bd 6696 98bd 74c5 a2bc
00000090: 0415 a5bc d880 083c d662 063d 90f9 85bc
000000a0: 9ab7 793d bebc 6f3d 38ba 0e3d ad7a 4ebd
000000b0: 20bf 373b d09d 3d3c 9082 4dbc f227 493d
000000c0: bcc7 fbbc 1bce 973d f04a 79bc beb8 793d
000000d0: ec1e 133d a0cc 933c f497 25bd 9178 90bd
000000e0: b27a 013d e0c9 7fbb 7eb1 99bd 05d5 9bbd
000000f0: 956e 9a3d 6ee1 5c3d a0a0 1bbc 2472 9abc
00000100: 60a9 163d 2614 213d ac85 43bd b077 433c
00000110: 444d bf3c 9c16 8ebd 94f1 7bbd e565 a73d
00000120: d41b 1ebd 6351 833d d8fb 31bd d01e 0f3c
00000130: 10e0 343c a866 7dbd f24e 94bd 8940 973d
00000140: 7e92 1fbd 12f8 233d f03d 44bc a693 71bd
00000150: dce0 863c 28a7 7bbc 3ca7 71bd f461 993c
00000160: cbfe 923d b8a6 e93c fef4 273d 6666 88bd
00000170: 3094 eebc d0f7 d33b 5818 4abd f2a4 5f3d
00000180: a799 47bd 206f 65bd 20c9 2ebb c91f a93d
00000190: ea28 563d f2a5 433d 6390 09be eb42 e03c
000001a0: c2a7 993d 1cc9 57bd 2c35 8abd 2066 51bd
000001b0: 276b 3abd 4072 ae3a 8ec9 1e3d 826f 1f3d
000001c0: 0fce babc 803a 63ba f31e a5bd 25d1 0cbd
000001d0: 22fd 793d b57d 39bd d05c ea3c 7fab a2bc
000001e0: 2182 093e 6461 84bd f910 343c a067 1f3b
000001f0: 402e e93c 0d13 57bd 4290 a93d 48eb debc
00000200: cb1c 4fbd a998 a8bd 8938 8b3d f999 8f3d
00000210: 2954 55bc 0883 25bc ba38 7dbd 88fc 123c
00000220: 1ca5 133d 0074 07bd b746 9fbc 4bbb c63c
00000230: 0804 1abd 08c2 87bc 4078 dcbb 8a36 7e3d
00000240: 44c9 ca3c 5d4c 1bbd 32cc 323d 2259 96bd
00000250: ec98 44bd 3755 aa3d c637 6d3d e420 b33c
00000260: d0d0 143d 8536 a23d 60a6 eb3b ff11 923d
00000270: 8f2c 8e3d d8b2 063c daf6 63bd 5005 87bd
00000280: be01 5dbd d00e ae3b e03f 89bd bec6 d4bc
00000290: 77b4 59bd cf17 afbd 34b4 83bd f248 8bbd
000002a0: 5d98 9d3d a9d9 8e3d 5644 dcbc bcd2 abbc
000002b0: 39be 8a3d 1526 8d3d 001e b03a dc04 9dbd
000002c0: 8037 cd3a 9a12 4f3d 52ab f7bc bc9d 53bd
000002d0: 36ca 4d3d 56a8 283d 42b2 5b3d 0375 a63d
000002e0: 3723 a8bd cac0 593d 5456 063d d177 903d
000002f0: 28d9 a4bc 823d 50bd d03a 94bc 7a6a ecbc
00000300: 7d20 a73d 3ce0 133d 72c9 2a3d 0015 c63c
00000310: 0cb3 c5bc 0d60 8ebd 681c 39bd c827 8fbd
00000320: 70a5 41bd f866 3abd 7fcd 893d 5d08 ab3d
00000330: a6d4 f0bc fa8c 3e3d 4aee 22bd 015d 92bd
00000340: 9c51 bebc ea3c 793d 5864 a9bd 65f8 9e3d
00000350: 7fde ad3d 89f8 47bd 5e7c 523d 06d8 2f3d
00000360: 2047 a2bb 4c36 75bd 58c4 eb3c 0058 1a3a
00000370: 931e 03bd 4d9b 833d 3006 7dbd c859 a0bc
00000380: d6f0 3a3d e804 3fbd 3a13 0c3d 7519 843d
00000390: aeb0 203d 58f9 88bd 71f0 8f3d cc92 9abc
000003a0: 69d9 953d 9870 18bc c010 eabb 5d5e b7bc
000003b0: 14fe 49bd 6085 09bc 9351 913c 804a fd3c
000003c0: eeef 99bd 6803 39bc 73d8 3fbd 104e 82bb
000003d0: d7e9 903d 141e 8c3d 1457 20bd dd34 56bc
000003e0: 7eae 273d 5ea2 85bd 722d 23bd 6820 0a3c
000003f0: e248 efbc f978 32bd 6cd1 093d 0992 ebbd

encoder_solv.W_i.bias f4 [128]
0.05206638 -0.049375247 -0.0327614 -0.056648586 -0.07747563 -0.03826783 -0.017279865 -0.10602071
-0.010288599 -0.016571907 -0.024691746 -0.0018257927 -0.06251539 0.010850447 -0.007552468 0.030086987
-0.021098759 -0.036168948 -0.015353518 0.01960693 -0.0035608644 -0.020074792 -0.0012080314 -0.07971035
-0.03752528 -0.014622467 -0.079160094 -0.08795337 -0.08680695 -0.07022152 -0.051852945 0.008012429
-0.08370892 -0.04478115 0.03720084 -0.06878863 -0.004781515 0.025182972 0.0062625096 -0.014494476
-0.012190222 0.021237653 0.007874493 -0.003849927 -0.079925686 0.04179478 -0.055002913 -0.0903543
0.03599531 -0.060464565 -0.06043139 -0.022433165 -0.021778194 -0.028966917 -0.003671927 -0.09449377
-0.1310643 -0.070212096 -0.06271259 0.0033608805 -0.0855884 -0.02481148 0.020061947 -0.056572497
0.0067095757 0.008573559 -0.009494925 -0.010283797 -0.062485892 -0.051567767 -0.005050962 0.026406053
-0.057164114 -0.09227732 -0.10350835 -0.018992323 -0.010000394 0.009209563 -0.012396576 -0.023261268
-0.025958238 -0.052878104 -0.025357712 0.041494243 -0.007115627 -0.05457016 0.05593711 -0.0069381753
-0.002444535 -0.0054858956 -0.06805085 -0.01250783 0.035650898 -0.08062636 0.034858238 -0.081984766
0.019409034 0.004694749 -0.02522374 0.021919824 0.022326022 -0.103425376 -0.01154007 -0.05763595
-0.026870053 -0.0038178791 0.033587 0.04025448 -0.027412008 0.012546822 -0.031992704 -0.012856401
0.0045446143 -0.00045437703 0.02985775 0.0075958516 -0.080257684 -0.009925633 -0.036153864 0.034477238
-0.08667778 -0.005405768 -0.028294807 0.028935917 -0.025973136 0.0137421675 -0.008123674 -0.024337362
00000000: 8e43 553d b33d 4abd d130 06bd 5908 68bd
00000010: 8bab 9ebd babe 1cbd 818e 8dbc 6321 d9bd
00000020: 8391 28bc cfc1 87bc 5846 cabc 704f efba
00000030: 1208 80bd 13c6 313c b27a f7bb fc78 f63c
00000040: 4ed7 acbc e425 14bd 528d 7bbc b69e a03c
00000050: 645d 69bb e473 a4bc cf56 9eba 2e3f a3bd
00000060: 1cb4 19bd 1293 6fbc b01e a2bd e520 b4bd
00000070: d8c7 b1bd 4dd0 8fbd c163 54bd 9046 033c
00000080: 956f abbd 706c 37bd e85f 183d 0ee1 8cbd
00000090: 41ae 9cbb 854c ce3c bd35 cd3b 3d7a 6dbc
000000a0: 7fb9 47bc 96fa ad3c 0404 013c 0f4f 7cbb
000000b0: 14b0 a3bd 0131 2b3d bc4a 61bd ad0b b9bd
000000c0: d16f 133d b1a9 77bd e886 77bd c2c5 b7bc
000000d0: 2f68 b2bc 074c edbc b6a4 70bb f385 c1bd
000000e0: b835 06be 5ccb 8fbd 756f 80bd 3842 5c3b
000000f0: f948 afbd 7241 cbbc f458 a43c 90b8 67bd
00000100: 00dc db3b 1d78 0c3c 9a90 1bbc 5f7d 28bc
00000110: 35f1 7fbd b938 53bd 8a82 a5bb 8251 d83c
00000120: eb24 6abd e4fb bcbd 30fc d3bd ca95 9bbc
00000130: b1d8 23bc b5e3 163c 021b 4bbc 6a8e bebc
00000140: 5fa6 d4bc b696 58bd faba cfbc def5 293d
00000150: 352a e9bb f684 5fbd 501e 653d a259 e3bb
00000160: 7e34 20bb 07c3 b3bb 3e5e 8bbd a4ed 4cbc
00000170: ad06 123d 6f1f a5bd 83c7 0e3d a1e7 a7bd
00000180: b2ff 9e3c 69d6 993b 04a2 cebc 3491 b33c
00000190: 10e5 b63c afd0 d3bd 9012 3dbc ad13 6cbd
000001a0: 961e dcbc 6235 7abb 8692 093d e2e1 243d
000001b0: 268f e0bc 3091 4d3c c80a 03bd a7a3 52bc
000001c0: fdea 943b 7439 eeb9 3d98 f43c 9fe6 f83b
000001d0: 245e a4bd 1f9f 22bc 1316 14bd 0138 0d3d
000001e0: 1f84 b1bd de22 b1bb 83ca e7bc 040b ed3c
000001f0: 9dc5 d4bc d426 613c 2919 05bc 265f c7bc

encoder_solv.W_h.weight f4 [128, 142]
0.07145626 0.06602352 0.0502642 0.062603794 0.052666113 0.002236104 0.049986757 0.075831786
-0.06876317 0.04619786 -0.009318312 0.047182046 0.03334537 0.07336012 -0.052487288 0.051279355
0.019103812 0.0435604 -0.0728935 0.050725512 0.045037623 0.04324826 -0.097693324 0.06696369
0.02790276 0.02713532 -0.09563473 -0.07878401 0.035232496 0.03156499 -0.082353175 0.05263431
-0.054314584 -0.055223215 -0.04365014 -0.0063617057 0.01614462 0.077924065 -0.02708766 -0.053235635
-0.017360818 -0.05241734 0.02253836 4.376281e-05 0.031449974 -0.07095648 -0.0677137 0.014987754
0.03600536 0.02662592 0.0014125251 0.0012088892 0.056974165 -0.060803052 -0.04425617 0.013700044
-0.009249267 -0.006033374 -0.06626835 -0.03968764 -0.046050314 -0.028825479 0.03134741 -0.04008615
-0.004567019 0.059659753 -0.053005587 0.036136743 -0.010008505 0.01830401 0.008585475 -0.00016352015
0.04411624 -0.009331198 -0.0851563 0.061009094 -0.004438365 0.029755663 -0.08256399 0.07162524
0.015307353 -0.06381947 -0.07757062 0.075169906 -0.042965528 0.044584457 -0.022636538 -0.035201617
-0.004393073 0.06943719 0.028117754 0.010528687 -0.07679271 0.030609127 -0.017803576 -0.019241404
-0.06541021 -0.026524797 0.008385096 -0.09223593 0.079646 -0.032037523 0.04817441 0.057044305
0.020848464 -0.044962864 -0.017476866 -0.042054314 0.021411823 0.028056612 -0.0756824 -0.028453482
0.023528289 -0.044836625 -0.04670388 0.07397014 0.009345017 -0.03354281 0.05307687 -0.010575591
-0.019528817 0.044565506 -0.09150091 0.018120628 0.114329055 0.03672447 0.12420924 0.013391614
0.03978748 0.057298083 0.1975626 -0.00875216 0.05457209 0.042014554 0.14128855 0.021675732
-0.07957091 0.018975236 -0.03230007 -0.060090426 -0.001346305 0.036784664 -0.025883043 -0.12974471
-0.001860863 -0.046523944 -0.13377279 -0.096147165 0.07591111 -0.017704196 -0.03899512 0.055592507
0.01904674 -0.07063976 0.05426055 -0.056446817 0.014195064 0.10184958 0.016130973 -0.13672888
-0.024803177 0.029687317 -0.07784552 -0.18185683 -0.12841128 -0.031208374 0.01751986 -0.027323276
0.048486184 0.08810431 0.019374125 -0.017706238 0.05242629 0.07947591 -0.13377292 -0.052940108
0.05336562 -0.004668022 -0.08318587 0.07745025 0.015871307 0.04542749 -0.07189048 0.028810855
0.009305612 0.044856828 0.074897505 0.00074102293 -0.053405706 0.0038774568 -0.030800628 0.006425961
-0.1470782 -0.020207774 0.012445395 0.07029122 0.088558234 0.06770015 0.07629055 0.012066707
-0.03514827 0.0342067 0.016939392 0.060339335 0.017018506 0.0030058615 -0.00086419005 -0.0057648574
-0.008374981 -0.013302916 0.024154171 0.049596194 -0.06234035 0.005547817 -0.28901777 0.044492487
-0.07485778 -0.15089454 -0.06654734 0.073345944 -0.06901496 0.08144448 0.078420185 -0.16667114
0.0768954 -0.037908986 0.07897184 -0.08206569 0.11734583 0.048878647 -0.06481505 -0.052576277
-0.05148084 0.07540092 0.07488079 -0.10522086 -0.013681854 -0.13571708 0.004611286 0.034888867
-0.06083743 0.087831765 0.068199426 -0.031878125 -0.08120148 0.06288651 0.06329852 0.04024876
-0.043984413 0.09707095 0.0072323745 0.00022242847 -0.03849029 -0.0596177 -0.011135391 -0.03106071
00000000: a957 923d 5737 873d d5e1 4d3d 6b36 803d
00000010: 6cb8 573d 9a8b 123b eabe 4c3d b24d 9b3d
00000020: b4d3 8cbd f839 3d3d d5ab 18bc f641 413d
00000030: 2895 083d d53d 963d e9fc 56bd 4d0a 523d
00000040: 997f 9c3c 646c 323d 3049 95bd 8ec5 4f3d
00000050: 5f79 383d 1625 313d 7013 c8bd 4224 893d
00000060: 5494 e43c e44a de3c 24dc c3bd 8359 a1bd
00000070: f34f 103d 4a4a 013d c8a8 a8bd 1397 573d
00000080: f878 5ebd bd31 62bd 7dca 32bd db75 d0bb
00000090: b941 843c a796 9f3d f1e6 ddbc 9c0d 5abd
000000a0: 4638 8ebc 91b3 56bd 5ea2 b83c f68d 3738
000000b0: b0d1 003d a251 91bd 7bad 8abd 328f 753c
000000c0: 5b7a 133d 9a1e da3c 7a24 b93a 9773 9e3a
000000d0: be5d 693d 9f0c 79bd f545 35bd 2676 603c
000000e0: 3d8a 17bc 9cb3 c5bb b3b7 87bd 828f 22bd
000000f0: 419f 3cbd 6923 ecbc 2466 003d 6031 24bd
00000100: efa6 95bb c95d 743d 631c 59bd 1f04 143d
00000110: b6fa 23bc 4bf2 953c 18aa 0c3c 9b76 2bb9
00000120: 3bb3 343d e2e1 18bc 6d66 aebd ace4 793d
00000130: b46f 91bb 26c2 f33c 4f17 a9bd 41b0 923d
00000140: b1cb 7a3c c8b3 82bd 58dd 9ebd aef2 993d
00000150: 9ffc 2fbd 319e 363d 4370 b9bc 922f 10bd
00000160: c4f3 8fbb 1635 8e3d 3457 e63c 8480 2c3c
00000170: 7f45 9dbd febf fa3c ced8 91bc 26a0 9dbc
00000180: caf5 85bd 884a d9bc a461 093c 31e6 bcbd
00000190: 711d a33d c739 03bd 8852 453d 4aa7 693d
000001a0: 66ca aa3c fb2a 38bd a52b 8fbc 2541 2cbd
000001b0: d967 af3c fbd6 e53c 60ff 9abd 4717 e9bc
000001c0: 66be c03c 9ca6 37bd 914c 3fbd a87d 973d
000001d0: d81b 193c 2f64 09bd 2267 593d 3e45 2dbc
000001e0: e6fa 9fbc 528a 363d d464 bbbd b671 943c
000001f0: 5a25 ea3d 666c 163d 6a61 fe3d 8068 5b3c
00000200: 32f8 223d 65b1 6a3d da4d 4a3e 3865 0fbc
00000210: fc86 5f3d 7417 2c3d f2ad 103e 4e91 b13c
00000220: 13f6 a2bd f471 9b3c 144d 04bd 6121 76bd
00000230: 8076 b0ba 84ab 163d ad08 d4bc ccdb 04be
00000240: 33e8 f3ba e48f 3ebd bcfb 08be cee8 c4bd
00000250: 4977 9b3d 6408 91bc 59b9 1fbd f8b4 633d
00000260: e907 9c3c 94ab 90bd 4f40 5e3d c734 67bd
00000270: 6a92 683c 8396 d03d 1a25 843c a802 0cbe
00000280: 0830 cbbc d132 f33c 796d 9fbd ad38 3abe
00000290: 3f7e 03be b4a8 ffbc cf85 8f3c 10d5 dfbc
000002a0: 7399 463d 0870 b43d 7cb6 9e3c ac0c 91bc
000002b0: f3bc 563d 44c4 a23d c5fb 08be bad7 58bd
000002c0: e995 5a3d 35f6 98bb 5a5d aabd 3d9e 9e3d
000002d0: 8b04 823c 2d12 3a3d 513b 93bd be04 ec3c
000002e0: 9176 183c cbbb 373d dd63 993d 3541 423a
000002f0: f1bf 5abd ee1c 7e3b 9951 fcbc de90 d23b
00000300: ab9b 16be c68a a5bc c5e7 4b3c d8f4 8f3d
00000310: 055e b53d 60a6 8a3d 383e 9c3d 70b3 453c
00000320: a2f7 0fbd 531c 0c3d 7bc4 8a3c 6126 773d
00000330: 656a 8b3c fdfd 443b d08a 62ba 21e7 bcbb
00000340: 3737 09bc 79f4 59bc f8de c53c 6125 4b3d
00000350: 9858 7fbd 76ca b53b 23fa 93be c13d 363d
00000360: 094f 99bd 1984 1abe f949 88bd 6636 963d
00000370: b757 8dbd 5dcc a63d c39a a03d d7ab 2abe
00000380: 567b 9d3d 7446 1bbd fdbb a13d 0e12 a8bd
00000390: 0353 f03d fa34 483d c1bd 84bd 395a 57bd
000003a0: 93dd 52bd cc6b 9a3d 1a5b 993d 097e d7bd
000003b0: db29 60bc 6bf9 0abe 451a 973b a1e7 0e3d
000003c0: ab30 79bd 24e1 b33d 24ac 8b3d a392 02bd
000003d0: f64c a6bd a4ca 803d a8a2 813d e2db 243d
000003e0: 0029 34bd 22cd c63d 8efd ec3b b03b 6939
000003f0: ffa7 1dbd b031 74bd 3771 36bc 0873 febc
