THESIS/checkpoints/MPNN with attention.pt (torch, 558709 bytes, 15 tensors)

encoder_sol.cached_zero_vector f4 [128]
0.0 0.0 0.0 0.0 0.0 0.0 0.0 0.0
0.0 0.0 0.0 0.0 0.0 0.0 0.0 0.0
0.0 0.0 0.0 0.0 0.0 0.0 0.0 0.0
0.0 0.0 0.0 0.0 0.0 0.0 0.0 0.0
0.0 0.0 0.0 0.0 0.0 0.0 0.0 0.0
0.0 0.0 0.0 0.0 0.0 0.0 0.0 0.0
0.0 0.0 0.0 0.0 0.0 0.0 0.0 0.0
0.0 0.0 0.0 0.0 0.0 0.0 0.0 0.0
0.0 0.0 0.0 0.0 0.0 0.0 0.0 0.0
0.0 0.0 0.0 0.0 0.0 0.0 0.0 0.0
0.0 0.0 0.0 0.0 0.0 0.0 0.0 0.0
0.0 0.0 0.0 0.0 0.0 0.0 0.0 0.0
0.0 0.0 0.0 0.0 0.0 0.0 0.0 0.0
0.0 0.0 0.0 0.0 0.0 0.0 0.0 0.0
0.0 0.0 0.0 0.0 0.0 0.0 0.0 0.0
0.0 0.0 0.0 0.0 0.0 0.0 0.0 0.0
00000000: 0000 0000 0000 0000 0000 0000 0000 0000
00000010: 0000 0000 0000 0000 0000 0000 0000 0000
00000020: 0000 0000 0000 0000 0000 0000 0000 0000
00000030: 0000 0000 0000 0000 0000 0000 0000 0000
00000040: 0000 0000 0000 0000 0000 0000 0000 0000
00000050: 0000 0000 0000 0000 0000 0000 0000 0000
00000060: 0000 0000 0000 0000 0000 0000 0000 0000
00000070: 0000 0000 0000 0000 0000 0000 0000 0000
00000080: 0000 0000 0000 0000 0000 0000 0000 0000
00000090: 0000 0000 0000 0000 0000 0000 0000 0000
000000a0: 0000 0000 0000 0000 0000 0000 0000 0000
000000b0: 0000 0000 0000 0000 0000 0000 0000 0000
000000c0: 0000 0000 0000 0000 0000 0000 0000 0000
000000d0: 0000 0000 0000 0000 0000 0000 0000 0000
000000e0: 0000 0000 0000 0000 0000 0000 0000 0000
000000f0: 0000 0000 0000 0000 0000 0000 0000 0000
00000100: 0000 0000 0000 0000 0000 0000 0000 0000
00000110: 0000 0000 0000 0000 0000 0000 0000 0000
00000120: 0000 0000 0000 0000 0000 0000 0000 0000
00000130: 0000 0000 0000 0000 0000 0000 0000 0000
00000140: 0000 0000 0000 0000 0000 0000 0000 0000
00000150: 0000 0000 0000 0000 0000 0000 0000 0000
00000160: 0000 0000 0000 0000 0000 0000 0000 0000
00000170: 0000 0000 0000 0000 0000 0000 0000 0000
00000180: 0000 0000 0000 0000 0000 0000 0000 0000
00000190: 0000 0000 0000 0000 0000 0000 0000 0000
000001a0: 0000 0000 0000 0000 0000 0000 0000 0000
000001b0: 0000 0000 0000 0000 0000 0000 0000 0000
000001c0: 0000 0000 0000 0000 0000 0000 0000 0000
000001d0: 0000 0000 0000 0000 0000 0000 0000 0000
000001e0: 0000 0000 0000 0000 0000 0000 0000 0000
000001f0: 0000 0000 0000 0000 0000 0000 0000 0000

encoder_sol.W_i.weight f4 [128, 133]
-0.03839556 -0.05077951 0.040982805 0.047088794 0.016965851 0.013408238 0.014289754 -0.097302526
-0.068572626 0.08570371 -0.016130552 0.05671414 -0.047572274 -0.007584937 0.049077492 0.082885616
-0.10575927 0.0020007119 0.030619591 -0.01894968 0.058522098 0.040347792 -0.026618358 -0.04556463
0.028032891 -0.03768554 0.07562072 0.020644665 -0.07940444 -0.037328176 -0.08505068 0.08664299
0.040649764 0.083648585 -0.09242878 0.027274221 0.015826844 -0.051675905 0.08545884 0.043685727
0.04197129 -0.022492707 0.076264344 0.071269624 -0.036751688 0.06499352 0.000411205 -0.069752835
0.037444964 0.033036143 0.07908458 0.01875782 -0.14782211 0.04460541 -0.0692524 -0.022567146
0.070864506 0.009289168 0.076235525 0.08669927 0.05142825 -0.014003918 -0.014754973 -0.0015090033
0.057928465 -0.038171586 0.0048728064 0.08039794 0.08429604 -0.06853999 -0.03621343 0.019581929
0.054667287 -0.03151591 0.016438603 0.08367848 -0.026736133 -0.06597099 0.08273221 0.029766418
-0.07844657 0.014002793 -0.06729829 -0.06523127 -0.025402498 -0.06309025 0.008625142 -0.04261834
-0.08241666 0.013725489 0.00573352 -0.03493929 -0.0016362667 0.013213426 0.0032099038 0.0385829
-0.07993714 -0.07171038 0.040019937 0.021009468 -0.0083985925 0.06908076 -0.051608432 -0.019916888
-0.0005340235 0.060440592 -0.027689606 -0.05301716 0.06229563 -0.04180309 -0.117276184 -0.0626004
0.054300457 -0.022489868 -0.07256867 -0.05082058 -0.058279544 0.031475328 -0.026093021 0.085762076
0.020538185 -0.09544764 0.055236194 0.072929405 -0.05557742 0.021278467 -0.031478725 0.009842399
0.06049501 0.04906126 -0.043755457 0.023643771 0.012091755 -0.05284214 0.07199203 -0.00033605844
-0.08648976 -0.039069466 0.08195771 0.036228478 0.028786803 0.042133745 -0.008567773 0.068943806
0.05439187 -0.0066026673 -0.08337931 0.030594453 -0.035772916 0.115140915 0.03026075 0.03715624
0.07396332 -0.030752573 0.0041270107 0.0150999725 -0.024335794 0.040850155 -0.029020019 -0.034379523
0.042842336 -0.077279806 -0.038223393 -0.050569467 0.05759781 0.06259244 -0.06379576 -0.0063476865
0.006839633 0.07340092 0.010305963 0.04242865 0.011554547 -0.060644403 0.023917198 -0.061322384
0.008198589 -0.046225004 -0.06118235 -0.00693918 -0.049983427 -0.054216526 0.08297401 -0.03139803
-0.0787658 0.024658421 -0.049283132 0.076785006 -0.06447831 0.07836758 -0.029269096 -0.03632943
-0.052285805 0.030682229 0.085235305 -0.0020705387 -0.052771807 -0.066952445 0.07537847 0.048572443
0.085328855 0.058402367 -0.04130756 -0.049676858 0.01919423 0.07693947 -0.041834578 -0.06779672
-0.028148033 -0.051860675 0.07794001 0.022259861 0.026433378 -0.0687543 -0.0795524 0.0023346841
0.08570524 -0.03191117 -0.04444302 0.007869892 -0.061621465 0.064479284 -0.08467709 0.018488683
-0.07946483 0.04804351 0.08419486 -0.074970715 -0.06573468 0.022000298 -0.07523416 -0.028909735
0.025310963 0.041724913 -0.04750764 -0.06628645 0.03315331 0.09591817 -0.08237935 -0.07006973
0.0012009963 0.091078505 0.0052762404 0.0032882472 0.07874114 -0.011187451 0.02838888 0.06760726
-0.021804081 0.033095878 -0.05079602 0.08390131 -0.06468873 0.10021198 0.08929723 -0.03837306
00000000: aa44 1dbd 2dfe 4fbd 96dd 273d 2ee0 403d
00000010: f8fb 8a3c 3aae 5b3c 931f 6a3c 8c46 c7bd
00000020: ce6f 8cbd 6d85 af3d 3824 84bc 164d 683d
00000030: 25db 42bd 108b f8bb 7b05 493d efbf a93d
00000040: 5198 d8bd 601e 033b f0d5 fa3c 5c3c 9bbc
00000050: deb4 6f3d ba43 253d be0e dabc faa1 3abd
00000060: 3ca5 e53c 275c 1abd 09df 9a3d 001f a93c
00000070: cc9e a2bd 6ee5 18bd 0d2f aebd e171 b13d
00000080: 5e80 263d f34f ab3d 4d4b bdbd 306e df3c
00000090: 4ca7 813c 1daa 53bd 0b05 af3d ceef 323d
000000a0: 16ea 2b3d a042 b8bc 7b30 9c3d cff5 913d
000000b0: f088 16bd 531b 853d 0097 d739 93da 8ebd
000000c0: e45f 193d e850 073d 19f7 a13d 00aa 993c
000000d0: ae5e 17be 2ab4 363d 34d4 8dbd bcde b8bc
000000e0: 6921 913d 9831 183c 5f21 9c3d 638f b13d
000000f0: 6ea6 523d b070 65bc d8be 71bc c0c9 c5ba
00000100: 6646 6d3d cf59 1cbd 10ac 9f3b ada7 a43d
00000110: 67a3 ac3d b25e 8cbd 8954 14bd 486a a03c
00000120: ceea 5f3d d416 01bd 40aa 863c 9f5f ab3d
00000130: bc05 dbbc cc1b 87bd 816f a93d b4d8 f33c
00000140: 98a8 a0bd f86b 653c b0d3 89bd f997 85bd
00000150: e618 d0bc 7635 81bd 7850 0d3c 9290 2ebd
00000160: 11ca a8bd e0e0 603c 40e0 bb3b 801c 0fbd
00000170: 0078 d6ba 207d 583c 405d 523b 1a09 1e3d
00000180: 15b6 a3bd e4dc 92bd f2eb 233d 0c1c ac3c
00000190: 409a 09bc 377a 8d3d 5d63 53bd be28 a3bc
000001a0: b6fd 0bba 8e90 773d 50d5 e2bc 8628 59bd
000001b0: b429 7f3d b839 2bbd 7f2e f0bd a334 80bd
000001c0: 286a 5e3d ac3c b8bc e29e 94bd 3e29 50bd
000001d0: 88b6 6ebd 46ec 003d 08c1 d5bc 07a4 af3d
000001e0: b23f a83c 0d7a c3bd 593f 623d 035c 953d
000001f0: 26a5 63bd 2e50 ae3c d6ef 00bd 0342 213c
00000200: 9ec9 773d 76f4 483d ec38 33bd 95b0 c13c
00000210: 7f1c 463c 0071 58bd 8f70 933d 0031 b0b9
00000220: 8b21 b1bd 4e07 20bd 72d9 a73d 5064 143d
00000230: 4dd2 eb3c 6f94 2c3d d85f 0cbc 6932 8d3d
00000240: 02ca 5e3d 305b d8bb c6c2 aabd 38a1 fa3c
00000250: 9f86 12bd 00cf eb3d 64e5 f73c 2431 183d
00000260: 157a 973d d2ec fbbc e03b 873b e065 773c
00000270: dc5b c7bc 7e52 273d 64bb edbc 8bd1 0cbd
00000280: 727b 2f3d e044 9ebd 2290 1cbd ee21 4fbd
00000290: aeeb 6b3d 7730 803d 5aa7 82bd 4100 d0bb
000002a0: 001f e03b 3953 963d 58da 283c aac9 2d3d
000002b0: 484f 3d3c 4466 78bd 00ee c33c 2e2d 7bbd
000002c0: 6053 063c 6e56 3dbd 589a 7abd 1062 e3bb
000002d0: 6cbb 4cbd 2612 5ebd 47ee a93d 399b 00bd
000002e0: f74f a1bd 7500 ca3c 1cdd 49bd 7541 9d3d
000002f0: 340d 84bd 2f7f a03d bec5 efbc 2bce 14bd
00000300: a429 56bd 4c59 fb3c d98f ae3d e0b1 07bb
00000310: 4027 58bd 5d1e 89bd 0760 9a3d e6f3 463d
00000320: e5c0 ae3d 5237 6f3d 1e32 29bd f679 4bbd
00000330: 383d 9d3c 7192 9d3d bc5a 2bbd 02d9 8abd
00000340: b496 e6bc dc6b 54bd 039f 9f3d 505a b63c
00000350: d08a d83c 0ecf 8cbd 5eec a2bd 8001 193b
00000360: 3b86 af3d 49b5 02bd e209 36bd b8f0 003c
00000370: ca66 7cbd b70d 843d 2f6b adbd 9475 973c
00000380: 75be a2bd 46c9 443d 5b6e ac3d 3f8a 99bd
00000390: e79f 86bd f839 b43c 5e14 9abd 1cd4 ecbc
000003a0: f058 cf3c bee7 2a3d 5f97 42bd 31c1 87bd
000003b0: c4cb 073d bf70 c43d 81b6 a8bd b880 8fbd
000003c0: c06a 9d3a 5e87 ba3d 50e4 ac3b a27f 573b
000003d0: 0943 a13d 924b 37bc cc8f e83c ad75 8a3d
000003e0: 799e b2bc 8b8f 073d 7d0f 50bd 73d4 ab3d
000003f0: 867b 84bd f03b cd3d 77e1 b63d 122d 1dbd

encoder_sol.W_i.bias f4 [128]
-0.06555257 0.07206145 -0.027973456 0.036799278 0.010666623 0.0029112555 -0.051772602 0.012022286
-0.0009980677 0.010082456 0.04470172 -0.05845031 -0.087758385 -0.0011613724 -0.055777002 0.06083297
-0.08731266 -0.07167739 0.06401535 -0.04699415 0.040870458 -0.08486601 0.03695976 -0.041010603
0.020234203 -0.048341844 0.02222402 -0.06730336 0.03826025 -0.002425908 0.036044583 0.026958013
0.009061236 -0.08069527 0.010672797 0.036754772 -0.07073168 -0.010503185 0.020931982 -0.055604428
-0.056128208 0.035731412 -0.019905021 -0.09016924 -0.046196513 0.05545488 0.062178027 -0.011907324
-0.0783477 -0.019314568 -0.028816704 -0.066985294 -0.07751832 -0.044531275 0.027754972 -0.06832115
-0.0010298362 0.01732852 -0.0016983468 -0.087357834 0.010393326 -0.103977226 -0.083050594 -0.07968009
0.054624468 0.041461635 0.0147545375 0.028344532 0.01806918 0.061417848 0.04655833 0.06814986
-0.011229134 0.053515 -0.019338885 0.021149803 -0.08182971 0.00021518272 -0.0063822935 -0.06434097
0.042434044 0.02948224 -0.052420378 -0.03911755 -0.021094706 -0.03194904 -0.047955103 0.082557335
0.039445307 -0.031447068 -0.031266 -0.05619128 0.05381048 0.010139044 0.05558336 -0.020422174
-0.022419963 -0.059988428 -0.035770692 -0.020648014 0.029260857 -0.026823185 0.0459692 -0.02744018
0.011005956 -0.040129136 -0.07469016 -0.02984136 -0.04742562 -0.053293586 -0.018369189 0.06319333
-0.03627304 -0.030917885 -0.009928937 0.042771596 0.048610885 0.001721391 0.019375697 0.049995556
-0.08300439 -0.026861958 0.0070826556 -0.021894462 -0.038236935 -0.0420183 0.03881643 0.024289515
00000000: 6d40 86bd f494 933d 9728 e5bc d7ba 163d
00000010: 0fc3 2e3c c3ca 3e3b 820f 54bd 1ff9 443c
00000020: 98d1 82ba e330 253c 2719 373d 9869 6fbd
00000030: abba b3bd 3139 98ba 6d76 64bd fe2b 793d
00000040: fbd0 b2bd 98cb 92bd 7b1a 833d f07c 40bd
00000050: c867 273d 3bce adbd 1e63 173d bcfa 27bd
00000060: 33c2 a53c 1902 46bd 260f b63c 58d6 89bd
00000070: c8b6 1c3d fcfb 1ebb 7ca3 133d 0dd7 dc3c
00000080: 9475 143c 9043 a5bd f5dc 2e3c 2c8c 163d
00000090: c5db 90bd 8d15 2cbc 8c79 ab3c 78c1 63bd
000000a0: b1e6 65bd 1a5b 123d db0f a3bc a7aa b8bd
000000b0: 8e38 3dbd a824 633d 63ae 7e3d f016 43bc
000000c0: c274 a0bd 9639 9ebc 0211 ecbc 962f 89bd
000000d0: edc1 9ebd 6d66 36bd 655e e33c f6eb 8bbd
000000e0: 92fb 86ba 8af4 8d3c 109b deba aae8 b2bd
000000f0: c548 2a3c 03f2 d4bd 6e16 aabd 512f a3bd
00000100: e8bd 5f3d add3 293d 04bd 713c cb32 e83c
00000110: d105 943c 4891 7b3d f3b3 3e3d 2792 8b3d
00000120: 67fa 37bc 8b32 5b3d 956c 9ebc 5a42 ad3c
00000130: 5696 a7bd aca2 6139 8f22 d1bb 33c5 83bd
00000140: 52cf 2d3d bd84 f13c c0b6 56bd b939 20bd
00000150: cece acbc ffdc 02bd 926c 44bd d213 a93d
00000160: 6791 213d a4ce 00bd c710 00bd d428 66bd
00000170: 6168 5c3d 3c1e 263c 61ab 633d 674c a7bc
00000180: 12aa b7bc 6db6 75bd 4a84 12bd 0626 a9bc
00000190: 77b4 ef3c 4cbc dbbc 334a 3c3d 3aca e0bc
000001a0: 5352 343c 735e 24bd 28f7 98bd de75 f4bc
000001b0: 5e41 42bd 604a 5abd fb7a 96bc 816b 813d
000001c0: 0a93 14bd 8147 fdbc fbac 22bc 4531 2f3d
000001d0: 351c 473d 4ca0 e13a c8b9 9e3c 24c8 4c3d
000001e0: 35fe a9bd 9c0d dcbc 9f15 e83b 045c b3bc
000001f0: 559e 1cbd 621b 2cbd fafd 1e3d cefa c63c

encoder_sol.W_h.weight f4 [128, 142]
-0.06952035 -0.07197764 0.0009672361 -0.06253816 -0.0053220326 -0.045034587 0.029885536 -0.0700428
0.051810373 -0.0548153 -0.06949335 -0.011232095 0.019250086 -0.08190142 -0.022090174 0.07003288
0.05698048 0.027847422 -0.0462269 -0.002370876 -0.06951978 0.060138263 -0.064854205 0.009154857
-0.040418383 -0.013248442 -0.013130211 -0.027730657 0.05470814 -0.063286886 0.0013576724 -0.07551052
0.0801862 0.045141976 0.015049795 0.081007205 -0.049020898 -0.023740033 -0.06732263 -0.073160425
-0.026374387 0.074651286 0.021485515 -0.036759254 -0.08758011 -0.0136245275 0.08061089 -0.08089934
0.038721867 0.0070095 0.045657065 0.045591015 -0.062215198 -0.07917947 -0.07062918 -0.0308391
-0.067402735 -0.040225647 -0.051515695 0.01494513 0.06518941 -0.062160615 0.08016061 -0.0557749
-0.031466704 -0.07534368 0.054769818 0.068082005 -0.028172735 0.03304579 -0.01934104 -0.055252865
-0.06824937 0.04263348 0.0027899353 0.00050196314 -0.085082635 -0.02325021 -0.015944798 0.031749424
0.027235633 0.032506347 -0.06560292 0.08130528 0.06048661 0.004836701 0.0072247786 -0.05021452
-0.030852662 0.009504288 -0.06647733 0.036101695 0.054288987 -0.011719667 -0.076521836 -0.011468989
-0.060683943 -0.055342805 -0.048410926 0.07935634 -0.007655393 0.011421327 -0.074921004 0.07430958
0.03352137 0.09080688 -0.061913162 0.03209817 0.026550593 0.010717097 -0.04970798 0.0015772504
0.031786717 0.07674601 -0.018548124 -0.06478112 0.058934458 0.051621612 0.02075857 0.05574376
0.03918615 -0.07539896 0.0117942095 -0.040285 -0.055765543 -0.18187782 0.07427005 0.056873854
0.06565273 0.07054533 0.04518082 -0.045903116 -0.014962362 -0.016258366 0.028109126 0.011273971
-0.07604141 -0.09236939 -0.030605264 -0.06041699 0.07529764 -0.079790115 0.03543339 0.051863093
0.06527423 0.04735699 -0.0580155 -0.053486746 0.13342777 0.0144853825 0.046106245 0.009148912
-0.03650177 0.064491354 -0.018780082 -0.0650237 -0.005659981 -0.0154252 -0.07671859 -0.07829147
0.03810095 0.06227071 -0.014194948 0.020052178 0.08089028 -0.070821956 0.01745075 0.0037770025
-0.020535404 0.0260989 0.041692115 0.117653556 -0.037422583 0.01999862 -0.007638705 0.058512185
-0.065012075 0.05811691 0.041134834 0.022394149 0.014960992 0.039337315 -0.06391422 0.07483334
-0.027494483 -0.04775238 0.009227657 0.04340936 -0.036138393 0.018874552 -0.06503996 0.06558904
-0.038303442 0.07093238 1.9175772e-05 0.07766032 0.032470245 0.037330683 -0.020196669 0.03699162
-0.00061203644 -0.02322006 0.032445103 0.009486844 -0.0286779 -0.061790425 0.030518498 0.0065118647
-0.019990738 -0.07065577 -0.01787315 -0.018034115 -0.076864734 0.0016256166 0.07668514 0.027399
0.024966218 -0.02325636 0.031408712 -0.0078430455 0.031943895 -0.0057971366 0.042301282 0.008338408
0.0804648 -0.043879904 0.012729516 -0.002550276 0.013015708 0.00058202364 -0.013315971 -0.10633808
-0.08262479 0.07303271 0.07251943 0.018876579 0.072477534 -0.06899368 0.17015353 0.035633635
-0.051624756 -0.071391866 0.061709136 -0.07277415 0.0053303316 -0.05709394 -0.1023675 -0.06546752
-0.061857115 0.08300966 0.016322896 -0.03984578 -0.021685753 0.03692918 -0.073530175 -0.027704922
00000000: af60 8ebd 0369 93bd 1e8e 7d3a 0214 80bd
00000010: 7264 aebb 3076 38bd 83d2 f43c 9972 8fbd
00000020: 1d37 543d 0286 60bd 8852 8ebd d206 38bc
00000030: 5bb2 9d3c efbb a7bd 74f6 b4bc 666d 8f3d
00000040: 5d64 693d 4720 e43c 6b58 3dbd b360 1bbb
00000050: 6360 8ebd 8a53 763d 48d2 84bd 41fe 153c
00000060: bf8d 25bd fe0f 59bc 1920 57bc 672b e3bc
00000070: a515 603d 8e9c 81bd edf3 b13a 42a5 9abd
00000080: aa38 a43d cbe6 383d 6a93 763c 1be7 a53d
00000090: 23ca 48bd 757a c2bc 72e0 89bd 22d5 95bd
000000a0: 190f d8bc c6e2 983d 6402 b03c df90 16bd
000000b0: 335d b3bd 6939 5fbc 5317 a53d 8eae a5bd
000000c0: d29a 1e3d f3af e53b e702 3b3d a5bd 3a3d
000000d0: 5dd5 7ebd d928 a2bd 08a6 90bd 48a2 fcbc
000000e0: 720a 8abd a6c3 24bd 1f02 53bd 6bdc 743c
000000f0: 0682 853d 219c 7ebd 3f2b a43d 3974 64bd
00000100: 3be3 00bd ca4d 9abd 5156 603d 946e 8b3d
00000110: 82ca e6bc 065b 073d 1a71 9ebc d450 62bd
00000120: 53c6 8bbd 72a0 2e3d 59d7 363b 2d96 033a
00000130: ce3f aebd 3977 bebc aa9e 82bc af0b 023d
00000140: 431d df3c 6025 053d d35a 86bd 6283 a63d
00000150: cfc0 773d 307d 9e3b d6bd ec3b bead 4dbd
00000160: b9be fcbc e0b7 1b3c 4425 88bd 5fdf 133d
00000170: 215e 5e3d d903 40bc 7bb7 9cbd 6de8 3bbc
00000180: ba8f 78bd 23af 62bd 894a 46bd 9485 a23d
00000190: 17da fabb 8420 3b3c 2f70 99bd 9f2f 983d
000001a0: b44d 093d f5f8 b93d a898 7dbd 5f79 033d
000001b0: a180 d93c c396 2f3c 989a 4bbd bebb ce3a
000001c0: ca32 023d 032d 9d3d 3cf2 97bc f7ab 84bd
000001d0: 4265 713d 2f71 533d e00d aa3c 9253 643d
000001e0: a881 203d c56a 9abd 803c 413c e201 25bd
000001f0: 696a 64bd 2e3e 3abe e51a 983d 8ff4 683d
00000200: f074 863d 127a 903d 860f 393d e804 3cbd
00000210: b224 75bc 4430 85bc 1c45 e63c 76b6 383c
00000220: 99bb 9bbd 2a2c bdbd e4b7 fabc ce77 77bd
00000230: a635 9a3d 0069 a3bd 9a22 113d 656e 543d
00000240: 7fae 853d 67f9 413d a9a1 6dbd eb14 5bbd
00000250: 4aa1 083e 1954 6d3c e7d9 3c3d 51e5 153c
00000260: e182 15bd 0b14 843d b0d8 99bc 252b 85bd
00000270: 5d77 b9bb fab9 7cbc a31e 9dbd 4757 a0bd
00000280: be0f 1c3d 920f 7f3d ed91 68bc 7744 a43c
00000290: cea9 a53d 1a0b 91bd e0f4 8e3c 9687 773b
000002a0: dd39 a8bc 5ccd d53c 5ac5 2a3d 59f4 f03d
000002b0: 6c48 19bd 25d4 a33c 1a4e fabb 79aa 6f3d
000002c0: 0d25 85bd ff0b 6e3d 007d 283d ef73 b73c
000002d0: f31e 753c 2a20 213d 75e5 82bd 3942 993d
000002e0: 1c3c e1bc 0098 43bd 992f 173c 03ce 313d
000002f0: da05 14bd ce9e 9a3c ac33 85bd 8c53 863d
00000300: 12e4 1cbd ff44 913d a8db a037 600c 9f3d
00000310: 85ff 043d 0fe8 183d 7c73 a5bc 8684 173d
00000320: 1271 20ba ff37 bebc 28e5 043d b56e 1b3c
00000330: eaed eabc f517 7dbd ee01 fa3c 7b61 d53b
00000340: 9ec3 a3bc f9b3 90bd b66a 92bc 48bc 93bc
00000350: 426b 9dbd a412 d53a 190d 9d3d de73 e03c
00000360: f485 cc3c 1f84 bebc 6ca6 003d 1e80 00bc
00000370: 9ad7 023d e8f5 bdbb 1c44 2d3d d19d 083c
00000380: bbca a43d 6abb 33bd 768f 503c 8822 27bb
00000390: d63f 553c f292 183a 3b2b 5abc c7c7 d9bd
000003a0: 3037 a9bd 2c92 953d 1185 943d 0ea3 9a3c
000003b0: 1a6f 943d 8f4c 8dbd ba3c 2e3e 93f4 113d
000003c0: 7b74 53bd e635 92bd b8c2 7c3d 9d0a 95bd
000003d0: 10aa ae3b 56db 69bd 0da6 d1bd d613 86bd
000003e0: e35d 7dbd f800 aa3d 98b7 853c 5435 23bd
000003f0: 52a6 b1bc 0d43 173d fd96 96bd 6ff5 e2bc

encoder_sol.W_h.bias f4 [128]
0.04229921 0.030845385 0.031054564 -0.03242146 -0.02884219 0.017317388 -0.023271684 0.05205981
-0.050268054 -0.05432852 0.057511825 -0.07978765 0.004863551 0.011976586 -0.02093941 -0.081734456
-0.03404741 0.014311805 -0.051455695 0.050928947 0.014705416 -0.010065339 -0.054111477 -0.064313106
0.010159231 -0.06123691 0.0039365045 -0.019743662 -0.083730735 -0.06606974 0.025786411 -0.023480145
0.046169534 -0.059343617 -0.039657876 -0.08213837 0.018811926 -0.07809414 0.035434138 0.045802545
-0.07958585 0.049687702 -0.026875762 -0.0412516 -0.022647154 0.047373626 -0.07790118 0.05744848
-0.0604408 -0.08106936 -0.03367034 -0.08337872 0.012791627 -0.067585185 -0.012566189 -0.015178362
-0.027612096 -0.06120507 -0.061028723 -0.06535513 0.0397322 -0.013774676 0.030360714 -0.08324915
-0.074840985 0.042163037 0.071586944 -0.0665627 0.051513985 -0.031680398 0.029988155 0.052211203
0.04794673 -0.07494691 0.060536586 -0.07904522 -0.012147846 0.0058295378 -0.06883004 -0.011106381
-0.035513237 -0.0065653087 -0.049389962 0.0657956 0.013586686 -0.071156025 0.08173977 0.0235712
0.018316891 0.053183835 0.060694367 -0.05177633 -0.052309267 0.030551283 -0.002883311 0.016938502
0.07669774 0.036425643 -0.037441514 -0.035840333 -0.0579439 0.007947647 0.06873218 -0.072676435
-0.07212647 -0.019237204 -0.05451702 -0.072142705 0.01978947 -0.011839713 -0.01638821 0.032064375
0.058762457 -0.07456355 -0.055112686 -0.058990117 -0.022957232 0.04610683 0.02576803 -0.0008504847
0.011548094 -0.062596515 0.05417582 -0.023409232 0.053844523 0.04905963 0.0071412427 -0.06715127
00000000: f041 2d3d 76af fc3c 2466 fe3c 5dcc 04bd
00000010: 7546 ecbc 32dd 8d3c 42a4 bebc ab3c 553d
00000020: e0e5 4dbd 9587 5ebd 8591 6b3d b567 a3bd
00000030: 6c5e 9f3b 7139 443c 2089 abbc 6564 a7bd
00000040: 4c75 0bbd 107c 6a3c 35c3 52bd df9a 503d
00000050: fcee 703c 17e9 24bc ffa3 5dbd 97b6 83bd
00000060: e772 263c 8ed3 7abd cbfd 803b 76bd a1bc
00000070: 057b abbd 924f 87bd 063e d33c 6f59 c0bc
00000080: 441c 3d3d 4b12 73bd 4c70 22bd 2938 a8bd
00000090: 781b 9a3c d2ef 9fbd 6323 113d 739b 3b3d
000000a0: e8fd a2bd 5585 4b3d 8f2a dcbc 70f7 28bd
000000b0: 8686 b9bc d90a 423d a78a 9fbd 194f 6b3d
000000c0: c690 77bd b107 a6bd e9e9 09bd 76c2 aabd
000000d0: f993 513c 1a6a 8abd 6be2 4dbc aaae 78bc
000000e0: c332 e2bc 2bb2 7abd 41f9 79bd e9d8 85bd
000000f0: 3bbe 223d 2eaf 61bc 08b7 f83c 887e aabd
00000100: 3b46 99bd 26b3 2c3d 2d9c 923d 0652 88bd
00000110: 5400 533d 4ec3 01bd b8a9 f53c 6adb 553d
00000120: ca63 443d c47d 99bd 36f5 773d 76e2 a1bd
00000130: c207 47bc b505 bf3b c4f6 8cbd 8af7 35bc
00000140: 5476 11bd cd21 d7bb 214d 4abd d8bf 863d
00000150: b19a 5e3c 40ba 91bd 2e67 a73d 6418 c13c
00000160: 4e0d 963c 4bd7 593d a89a 783d 6b13 54bd
00000170: 3e42 56bd af46 fa3c eef5 3cbb 9dc2 8a3c
00000180: b413 9d3d 0e33 153d 465c 19bd 50cd 12bd
00000190: 9556 6dbd d936 023c 75c3 8c3d 62d7 94bd
000001a0: 0bb7 93bd 5797 9dbc 3d4d 5fbd 8ebf 93bd
000001b0: 871d a23c 5bfb 41bc 9140 86bc ef55 033d
000001c0: e7b0 703d c6b4 98bd d7bd 61bd 9f9f 71bd
000001d0: ce10 bcbc 84da 3c3d 7a17 d33c 10f3 5eba
000001e0: 3834 3d3c 9a32 80bd 77e7 5d3d b8c4 bfbc
000001f0: 138c 5c3d c0f2 483d 1601 ea3b 9b86 89bd

encoder_sol.W_o.weight f4 [128, 261]
0.0043585673 0.0286996 -0.018315036 -0.013462875 -0.04901637 0.021477835 -0.053790037 0.0147597445
0.046607237 0.03070271 -0.0019212961 -0.015270572 0.037595324 0.004030116 -0.04949442 -0.04629976
0.04572553 -0.04766868 -0.012975749 -0.0458445 0.015259944 0.03519722 0.055240393 0.05829218
-0.058334026 -0.041754276 -0.018903468 0.026214726 0.048390083 -0.057294734 -0.03905428 0.018214323
0.0038336143 0.02913472 -0.0008478089 -0.014422741 -0.02074001 0.007877931 -0.004574809 -0.03265865
-0.0016403012 0.037747487 -0.012692057 -0.032082338 0.046220012 -0.013531461 -0.022217393 0.030331925
-0.004498586 -0.0275436 0.025970697 -0.025305726 -0.029385889 -0.020587742 0.010958359 0.017280675
0.05439476 -0.028688952 -0.006062869 -0.023225531 0.05681798 -0.0026196763 0.014791347 -0.038351927
-0.06082317 -0.022632308 0.026573122 0.048950195 -0.031089842 0.03223993 0.028715588 0.000522919
-0.028291848 -0.030506965 0.039672226 -0.010284707 0.041106053 -0.035890512 -0.015779875 -0.045534275
0.05323516 -0.047416795 0.04231377 -0.058469877 -0.03683898 0.040334523 0.04547663 0.055390127
0.025126927 0.020151801 0.023226433 0.009537362 0.03977561 -0.0583044 -0.0471398 0.046640925
-0.045878913 -0.04428027 -0.04778295 -0.040067837 0.016384512 -0.005141735 -0.024088873 -0.06535707
-0.06636234 -0.043658815 0.045745894 -0.043755814 0.03378941 0.035166584 -0.042882875 0.05796405
-0.062056046 -0.048337735 0.026086843 -0.051248286 0.019847453 -0.03599719 0.018639684 -0.051651966
0.026657188 -0.022807598 -0.02604662 0.047394782 -0.024712425 -0.025279205 0.019141175 -0.0028500464
0.021051422 0.03906957 -0.034392834 -0.031342775 0.025031453 0.0259201 -0.013476919 0.057414204
0.009102698 0.055545248 -0.063093476 0.022790032 -0.049083766 0.009137262 0.063581266 0.0048291134
-0.03446534 0.033093408 -0.031215364 0.033013903 -0.0318431 -0.07981663 -0.0048368415 -0.057734624
-0.0019155005 -0.02119312 -0.050637335 0.0110775465 0.028800353 -0.015611611 -0.013294415 -0.0519888
0.04801632 -0.06458398 0.014778836 -0.0054160804 0.016732045 -0.016538974 0.029558843 0.05455903
0.0028551067 -0.043105103 0.058529977 0.005571302 -0.027025174 0.014250511 -0.051526885 -0.009681785
0.032526158 0.054862082 0.04159557 0.014137414 -0.05808598 -0.043598868 -0.05257842 -0.034949586
0.0075857793 -0.006785271 -0.054978937 -0.023100758 -0.04556538 -0.0074410797 0.03155852 0.045723125
-0.0060319467 -0.048104074 0.020453276 -0.06633113 -0.006213264 -0.054201324 -0.005192953 0.05312839
-0.022689208 -0.055486146 -0.0438992 -0.06330283 -0.033811003 0.047248125 -0.032212764 0.0077474816
-0.055089597 0.038724538 -0.016784025 -0.0337085 0.038936492 0.0052952277 0.00010887929 0.009664878
0.0030744947 0.016249651 -0.07107073 0.052069098 -0.03276982 0.0014491552 -0.061317936 0.021844689
-0.011253457 -0.06242109 -0.04874843 -0.04198254 -0.008255977 -0.07668848 0.005191136 -0.02995582
-0.04403463 -0.022462633 4.132464e-06 -0.04172865 0.030173175 0.019933876 -0.03217172 0.0011588555
0.052754655 0.019709999 -0.06423951 -0.047705438 -0.0056901267 -0.060686875 -0.059778914 0.052166764
0.04425532 -0.02165275 -0.038165495 0.039486125 0.04181532 -0.037343726 0.02640372 0.046309207
00000000: 50d2 8e3b 6c1b eb3c 6a09 96bc 6493 5cbc
00000010: 64c5 48bd 49f2 af3c f152 5cbd dbd2 713c
00000020: 3be7 3e3d 4084 fb3c 00d4 fbba 6c31 7abc
00000030: 8efd 193d 100f 843b a9ba 4abd d1a4 3dbd
00000040: b14a 3b3d 3c40 43bd 3c98 54bc 71c7 3bbd
00000050: d804 7a3c f62a 103d c043 623d c8c3 6e3d
00000060: a9ef 6ebd 8806 2bbd 72db 9abc 44c0 d63c
00000070: ae34 463d e2ad 6abd 61f7 1fbd 3436 953c
00000080: 603d 7b3b f0ab ee3c 7e3f 5eba 5c4d 6cbc
00000090: f4e6 a9bc 7012 013c 48e8 95bb 14c5 05bd
000000a0: 60ff d6ba 1c9d 1a3d 58f2 4fbc c568 03bd
000000b0: 3251 3d3d 10b3 5dbc 4001 b6bc a87a f83c
000000c0: e068 93bb 1ea3 e1bc 80c0 d43c f44d cfbc
000000d0: adba f0bc a0a7 a8bc b08a 333c 3490 8d3c
000000e0: 0acd 5e3d 1805 ebbc 08ab c6bb 7843 bebc
000000f0: f8b9 683d e0ae 2bbb 6857 723c e916 1dbd
00000100: b721 79bd 6467 b9bc e0af d93c 0080 483d
00000110: 20b0 febc 040e 043d f43c eb3c 8014 093a
00000120: 4ec4 e7bc bee9 f9bc 587f 223d 3081 28bc
00000130: d25e 283d ee01 13bd cc44 81bc 2682 3abd
00000140: 1c0d 5a3d 1d38 42bd 3451 2d3d 1c7e 6fbd
00000150: 78e4 16bd d035 253d b445 3a3d c2e0 623d
00000160: fcd6 cd3c 6415 a53c 5c45 be3c 9842 1c3c
00000170: c0eb 223d 98d0 6ebd aa15 41bd 8e0a 3f3d
00000180: 87eb 3bbd 3a5f 35bd 0eb8 43bd 2c1e 24bd
00000190: d038 863c 007c a8bb 0756 c5bc edd9 85bd
000001a0: fae8 87bd 96d3 32bd 0c60 3b3d 4c39 33bd
000001b0: c466 0a3d d60a 103d f4a5 2fbd b66b 6d3d
000001c0: 7b2e 7ebd cafd 45bd 13b4 d53c b9e9 51bd
000001d0: 2097 a23c ca71 13bd 40b2 983c 0391 53bd
000001e0: 2d60 da3c 00d7 babc b95f d5bc 0821 423d
000001f0: b671 cabc 5616 cfbc f4cd 9c3c d8c7 3abb
00000200: 0874 ac3c 6a07 203d 80df 0cbd 4861 00bd
00000210: c30e cd3c 6456 d43c 4cce 5cbc 282b 6b3d
00000220: 7c23 153c 6a83 633d 2737 81bd 29b2 ba3c
00000230: 0f0c 49bd 74b4 153c e536 823d 8a3d 9e3b
00000240: 872b 0dbd f48c 073d 5db7 ffbc 9639 073d
00000250: e96d 02bd e776 a3bd 5e7e 9ebb 247b 6cbd
00000260: 8811 fbba 329d adbc 1869 4fbd 997e 353c
00000270: b8ee eb3c d8c7 7fbc d1d0 59bc 35f2 54bd
00000280: c3ac 443d 9b44 84bd ee22 723c 6079 b1bb
00000290: a411 893c be7c 87bc 6325 f23c 4a79 5f3d
000002a0: be1c 3b3b fa8e 30bd 21bd 6f3d 788f b63b
000002b0: e663 ddbc fa7a 693c db0d 53bd 59a0 1ebc
000002c0: 263a 053d 10b7 603d 1e60 2a3d 9da0 673c
000002d0: 91eb 6dbd ba94 32bd 785c 57bd 4c27 0fbd
000002e0: 2192 f83b fb56 debb 9831 61bd cd3d bdbc
000002f0: c4a2 3abd 4dd4 f3bb 8243 013d 2c48 3b3d
00000300: a3a7 c5bb c708 45bd a18d a73c 9ed8 87bd
00000310: a398 cbbb 3502 5ebd a629 aabb 289d 593d
00000320: b8de b9bc 7145 63bd a6cf 33bd eaa4 81bd
00000330: 687d 0abd 4087 413d 88f1 03bd 96de fd3b
00000340: a1a5 61bd 9f9d 1e3d a77e 89bc ed11 0abd
00000350: df7b 1f3d 9783 ad3b 2056 e438 7059 1e3c
00000360: 767d 493b fd1d 853c 888d 91bd 6846 553d
00000370: a639 06bd 94f1 bd3a 8428 7bbd a2f3 b23c
00000380: 6b60 38bc 42ad 7fbd 6fac 47bd e2f5 2bbd
00000390: 1444 07bc da0e 9dbd 681a aa3b e865 f5bc
000003a0: a85d 34bd 8e03 b8bc 98a9 8a36 a9eb 2abd
000003b0: bc2d f73c 5e4c a33c 7ec6 03bd bde4 973a
000003c0: 4415 583d dd76 a13c 0190 83bd c766 43bd
000003d0: 3e74 babb cd92 78bd bcda 74bd d1ac 553d
000003e0: 1145 353d 1c61 b1bc 6c53 1cbd 34bc 213d
000003f0: 8a46 2b3d bcf5 18bd 9d4c d83c b9ae 3d3d

encoder_sol.W_o.bias f4 [128]
-0.0051672044 0.03854678 -0.049213674 0.002517665 0.0014659455 -0.03664662 0.05900091 -0.0066099777
-0.028856678 0.013828272 -0.04859575 -0.04533221 0.02681296 -0.008764562 -0.017506395 0.020201722
-0.035772923 -0.032337505 0.02680994 -0.010306749 0.01072797 -0.059269506 -0.054735128 -0.036791246
0.0197372 -0.02730117 0.04412266 -0.0180874 -0.0346304 0.0013206707 0.043935187 -0.01687238
-0.017678479 -0.006497981 -0.05109648 -0.054478113 -0.053065933 0.02176037 -0.03748888 -0.043326065
-0.03970093 0.04230361 0.009808982 -0.03159457 -0.007728328 0.045074236 -0.014135886 -0.044749517
0.04758579 -0.05707701 0.043773554 0.037281632 0.006961876 0.05759719 0.0023677289 -0.043128237
-0.0018775029 0.03559189 -0.021544432 -0.057384055 -0.03396727 -0.04388803 -0.07124497 -0.03081415
0.02414183 0.04832002 -0.035005465 0.07546549 -0.012447696 0.040459104 -0.025637593 -0.03620169
-0.023065027 0.03817055 -0.016401468 -0.04483765 0.011197323 -0.056204673 0.046598792 0.047848437
-0.016965473 0.03221963 -0.033052593 -0.032874085 -0.03325723 0.034519706 -0.033243593 -0.04701405
0.02541953 -0.02917817 0.044918735 -0.033678677 0.016761063 -0.056359164 0.025857091 0.0020408297
0.010402145 -0.058993567 -0.04629533 -0.022281468 0.011725777 0.046373043 0.012935823 -0.039581455
0.019233054 0.014411014 0.069375075 0.049412105 0.007328595 0.017394135 -0.048106194 -0.062114496
-0.040239543 -0.03622172 -0.03883396 -0.06763098 0.002456694 0.037052028 0.03632086 0.05050384
0.011506313 0.012588018 -0.05104185 0.04936963 0.026431702 -0.024691373 -0.002626098 -0.03870318
00000000: a751 a9bb 3ae3 1d3d 4794 49bd 69ff 243b
00000010: f824 c03a c41a 16bd f0aa 713d 8398 d8bb
00000020: d764 ecbc fa8f 623c 560c 47bd 44ae 39bd
00000030: daa6 db3c 3d99 0fbc 9269 8fbc 157e a53c
00000040: a186 12bd 5574 04bd 85a0 db3c a3dd 28bc
00000050: 5ec4 2f3c 95c4 72bd f131 60bd 6bb2 16bd
00000060: e9af a13c b4a6 dfbc f6b9 343d 072c 94bc
00000070: 9bd8 0dbd 5b1a ad3a 62f5 333d f237 8abc
00000080: 75d2 90bc 04ed d4bb 8b4a 51bd 7124 5fbd
00000090: aa5b 59bd ce42 b23c f18d 19bd ac76 31bd
000000a0: 719d 22bd 8d46 2d3d dab5 203c 4f69 01bd
000000b0: ea3d fdbb c39f 383d 349a 67bc 454b 37bd
000000c0: 51e9 423d 95c9 69bd e64b 333d a0b4 183d
000000d0: 7320 e43b 08eb 6b3d e62b 1b3b 3ca7 30bd
000000e0: 8b16 f6ba cdc8 113d f37d b0bc 8b0b 6bbd
000000f0: 4421 0bbd efc3 33bd e2e8 91bd f56d fcbc
00000100: 16c5 c53c 37eb 453d e461 0fbd a78d 9a3d
00000110: 6cf1 4bbc 72b8 253d ee05 d2bc 3948 14bd
00000120: def2 bcbc b958 1c3d 5f5c 86bc afa7 37bd
00000130: fa74 373c df36 66bd 60de 3e3d b9fc 433d
00000140: 2dfb 8abc bbf8 033d 2862 07bd faa6 06bd
00000150: bc38 08bd 8964 0d3d 6f2a 08bd ce91 40bd
00000160: 9e3c d03c 0f07 efbc b5fc 373d a7f2 09bd
00000170: 7f4e 893c ded8 66bd 40d2 d33c 71bf 053b
00000180: c26d 2a3c 3da3 71bd 2ca0 3dbd a087 b6bc
00000190: 791d 403c a9f1 3d3d c6f0 533c 2a20 22bd
000001a0: a38e 9d3c 2c1c 6c3c 8514 8e3d 5964 4a3d
000001b0: b624 f03b 257e 8e3c 000b 45bd c56b 7ebd
000001c0: 38d2 24bd 3a5d 14bd 5c10 1fbd 1c82 8abd
000001d0: 7c00 213b dec3 173d 2fc5 143d 1ddd 4e3d
000001e0: fa84 3c3c f93d 4e3c 4211 51bd cf37 4a3d
000001f0: 4c87 d83c 9045 cabc 9d1a 2cbb 3a87 1ebd

encoder_solv.cached_zero_vector f4 [128]
0.0 0.0 0.0 0.0 0.0 0.0 0.0 0.0
0.0 0.0 0.0 0.0 0.0 0.0 0.0 0.0
0.0 0.0 0.0 0.0 0.0 0.0 0.0 0.0
0.0 0.0 0.0 0.0 0.0 0.0 0.0 0.0
0.0 0.0 0.0 0.0 0.0 0.0 0.0 0.0
0.0 0.0 0.0 0.0 0.0 0.0 0.0 0.0
0.0 0.0 0.0 0.0 0.0 0.0 0.0 0.0
0.0 0.0 0.0 0.0 0.0 0.0 0.0 0.0
0.0 0.0 0.0 0.0 0.0 0.0 0.0 0.0
0.0 0.0 0.0 0.0 0.0 0.0 0.0 0.0
0.0 0.0 0.0 0.0 0.0 0.0 0.0 0.0
0.0 0.0 0.0 0.0 0.0 0.0 0.0 0.0
0.0 0.0 0.0 0.0 0.0 0.0 0.0 0.0
0.0 0.0 0.0 0.0 0.0 0.0 0.0 0.0
0.0 0.0 0.0 0.0 0.0 0.0 0.0 0.0
0.0 0.0 0.0 0.0 0.0 0.0 0.0 0.0
00000000: 0000 0000 0000 0000 0000 0000 0000 0000
00000010: 0000 0000 0000 0000 0000 0000 0000 0000
00000020: 0000 0000 0000 0000 0000 0000 0000 0000
00000030: 0000 0000 0000 0000 0000 0000 0000 0000
00000040: 0000 0000 0000 0000 0000 0000 0000 0000
00000050: 0000 0000 0000 0000 0000 0000 0000 0000
00000060: 0000 0000 0000 0000 0000 0000 0000 0000
00000070: 0000 0000 0000 0000 0000 0000 0000 0000
00000080: 0000 0000 0000 0000 0000 0000 0000 0000
00000090: 0000 0000 0000 0000 0000 0000 0000 0000
000000a0: 0000 0000 0000 0000 0000 0000 0000 0000
000000b0: 0000 0000 0000 0000 0000 0000 0000 0000
000000c0: 0000 0000 0000 0000 0000 0000 0000 0000
000000d0: 0000 0000 0000 0000 0000 0000 0000 0000
000000e0: 0000 0000 0000 0000 0000 0000 0000 0000
000000f0: 0000 0000 0000 0000 0000 0000 0000 0000
00000100: 0000 0000 0000 0000 0000 0000 0000 0000
00000110: 0000 0000 0000 0000 0000 0000 0000 0000
00000120: 0000 0000 0000 0000 0000 0000 0000 0000
00000130: 0000 0000 0000 0000 0000 0000 0000 0000
00000140: 0000 0000 0000 0000 0000 0000 0000 0000
00000150: 0000 0000 0000 0000 0000 0000 0000 0000
00000160: 0000 0000 0000 0000 0000 0000 0000 0000
00000170: 0000 0000 0000 0000 0000 0000 0000 0000
00000180: 0000 0000 0000 0000 0000 0000 0000 0000
00000190: 0000 0000 0000 0000 0000 0000 0000 0000
000001a0: 0000 0000 0000 0000 0000 0000 0000 0000
000001b0: 0000 0000 0000 0000 0000 0000 0000 0000
000001c0: 0000 0000 0000 0000 0000 0000 0000 0000
000001d0: 0000 0000 0000 0000 0000 0000 0000 0000
000001e0: 0000 0000 0000 0000 0000 0000 0000 0000
000001f0: 0000 0000 0000 0000 0000 0000 0000 0000

encoder_solv.W_i.weight f4 [128, 133]
-0.0073755756 -0.016489558 -0.07192918 0.0004773289 0.0559844 0.07930501 -0.06587615 -0.09615094
-0.019695893 -0.029877607 -0.023143545 -0.059343517 0.014097922 0.05748173 -0.035022482 -0.05695087
0.15075181 -0.077045344 0.08051022 0.014990516 -0.07199792 -0.07005242 -0.003921889 -0.05823772
-0.075462975 -0.044577025 -0.034841556 -0.08561183 -0.05841238 -0.04408364 -0.011030428 -0.053298693
0.053973876 0.0709044 0.03997249 -0.015443064 -0.00049272925 0.028762922 -0.085040584 -0.016542576
0.03207574 -0.005566478 0.016634248 0.056426473 0.007680118 0.035639986 -0.05288612 -0.027775742
-0.02316682 0.028242797 -0.07472412 0.054852568 -0.065170646 -0.07021233 0.06281007 0.0037850216
0.03650689 0.06682951 -0.07792931 -0.04380869 -0.034866728 -0.038760986 0.034722663 -0.0350047
0.018170841 0.064754136 -0.07761537 0.012161352 -0.075049244 0.052448146 -0.041838054 -0.015667774
-0.06577724 -0.03131877 -0.054300718 0.066935204 -0.009836435 -0.025799561 -0.048732493 0.07033802
-0.07172391 0.013519794 -0.0018752813 -0.08639165 0.06471161 -0.029729743 -0.019937865 0.077885635
-0.003187351 -0.08114614 -0.005178258 0.017784066 0.05914148 -0.060222097 0.07407362 0.0830644
0.07564797 0.0013345033 0.07534281 -0.03355038 -0.083754696 -0.055894915 0.025758311 0.05870903
-0.102221645 0.023482654 -0.03801055 0.054799475 -0.03039515 0.05755181 -0.059865832 -0.041883234
0.012457017 -0.038509533 -0.0628413 0.028860599 0.008814879 -0.04462541 -0.069378465 0.06294584
-0.10373441 0.1066502 0.034381337 -0.079182304 -0.030342609 0.065845795 0.008699299 0.0145602785
-0.025614813 0.021717153 -0.0069361925 -0.06567113 0.0032406077 0.06542214 0.014251366 -0.080639265
-0.0009370297 0.07793734 0.024891704 -0.07916239 -0.09665388 0.048660807 -0.078530125 -0.03730253
-0.04694382 -0.021253139 -0.058471702 0.019140355 -0.06299497 0.0049658017 0.019081421 0.02529855
-0.0294707 -0.054541916 0.025562868 0.08376523 -0.051723465 0.06410762 0.045766033 0.07728084
0.010418527 0.04864905 0.06432716 0.044219337 0.053831913 -0.05159138 -0.048356358 0.050387956
0.0061499253 -0.027003713 0.046939112 0.011776768 0.037623562 -0.050989926 -0.048080843 0.07486344
0.050074033 -0.062298432 0.058535315 0.012935579 -0.058585137 -0.08595757 -0.0807793 -0.06560867
-0.02270332 0.042972066 -0.037404988 0.053242885 0.012360685 0.06488117 0.07918974 -0.0636339
0.07643629 -0.08227082 -0.045430716 -0.0641502 0.044695176 -0.07172167 -0.079109624 -0.053798538
0.034420475 -0.03279764 0.049531646 0.012881719 0.058854632 0.022123791 -0.019322366 -0.003069304
-0.078969255 0.05937975 -0.07815148 -0.010489017 -0.037752572 0.0613114 -0.07793872 -0.066310115
-0.009396568 -0.035344668 -0.0020693913 0.023230463 0.04242558 -0.0046916604 0.0013627037 -0.041377064
-0.065651506 0.06031535 -0.010773383 -0.077862255 0.06330227 0.0861781 0.012350261 -0.006322257
0.083943896 -0.02104979 -0.086326234 0.10457521 -0.040896412 -0.06532207 0.088733315 -0.063573055
0.06869189 0.0029517412 0.0010494292 0.033177875 0.06902584 0.0019186987 -0.037646044 0.06748523
-0.006788522 0.008528188 -0.04712578 -0.029996987 0.06394605 -0.047370713 0.09401666 0.0019068538
00000000: d0ae f1bb 1c15 87bc 9b4f 93bd 0042 fa39
00000010: e64f 653d aa6a a23d 13ea 86bd c9ea c4bd
00000020: 4859 a1bc e2c1 f4bc 8897 bdbc 3012 73bd
00000030: f8fa 663c f671 6b3d bc73 0fbd 5145 69bd
00000040: af5e 1a3e f3c9 9dbd 8be2 a43d c89a 753c
00000050: a573 93bd a577 8fbd 3083 80bb ad8a 6ebd
00000060: 558c 9abd 6696 36bd 05b6 0ebd 4155 afbd
00000070: d241 6fbd 0c91 34bd f8b8 34bc bb4f 5abd
00000080: b613 5d3d 5336 913d 32ba 233d e804 7dbc
00000090: 802a 01ba 38a0 eb3c c229 aebd 4c84 87bc
000000a0: da61 033d 0067 b6bb 8c44 883c 721f 673d
000000b0: 80a9 fb3b 3cfb 113d 1e9f 58bd f489 e3bc
000000c0: 58c8 bdbc 705d e73c f608 99bd 16ad 603d
000000d0: 3078 85bd 7bcb 8fbd 91a2 803d 200e 783b
000000e0: 4088 153d e9dd 883d 6799 9fbd be70 33bd
000000f0: 6ad0 0ebd d7c3 1ebd 5a39 0e3d 1761 0fbd
00000100: 04db 943c d19d 843d cff4 9ebd 6840 473c
00000110: 6bb3 99bd ded3 563d 615e 2bbd b459 80bc
00000120: 38b6 86bd 1c48 00bd 6e6a 5ebd 5315 893d
00000130: 0029 21bc 9a59 d3bc b99b 47bd 610d 903d
00000140: fce3 92bd 2082 5d3c 00cc f5ba 1bee b0bd
00000150: 8587 843d ca8b f3bc bc54 a3bc 8182 9f3d
00000160: e0e2 50bb f32f a6bd 60ae a9bb e4af 913c
00000170: 563e 723d 72ab 76bd e9b3 973d ab1d aa3d
00000180: 53ed 9a3d 80ea ae3a 554d 9a3d 206c 09bd
00000190: 9587 abbd 11f2 64bd 1803 d33c e178 703d
000001a0: 9559 d1bd b25e c03c f3b0 1bbd 6a75 603d
000001b0: 40ff f8bc 72bb 6b3d e035 75bd c18d 2bbd
000001c0: 8418 4c3c 2cbc 1dbd f1b2 80bd 106d ec3c
000001d0: 486c 103c 22c9 36bd 4c16 8ebd c0e9 803d
000001e0: b572 d4bd 6c6b da3d 72d3 0c3d 552a a2bd
000001f0: 1091 f8bc 29da 863d 8187 0e3c 3c8e 6e3c
00000200: 28d6 d1bc 2ce8 b13c 0049 e3bb 967e 86bd
00000210: 6060 543b 0bfc 853d 907e 693c 3326 a5bd
00000220: 00a3 75ba 9d9d 9f3d b0e9 cb3c e41f a2bd
00000230: 78f2 c5bd 8e50 473d 67d4 a0bd 8aca 18bd
00000240: 2a48 40bd 101b aebc 0680 6fbd 3ccc 9c3c
00000250: 8203 81bd 2ab8 a23b a450 9c3c e83e cf3c
00000260: 8a6c f1bc 5867 5fbd 3869 d13c 1b8d ab3d
00000270: fcdb 53bd db4a 833d 2a75 3b3d 6b45 9e3d
00000280: 78b2 2a3c 3a44 473d f5bd 833d 561f 353d
00000290: da7e 5c3d 7c51 53bd 5111 46bd 9a63 4e3d
000002a0: 5085 c93b e436 ddbc 3a43 403d 58f3 403c
000002b0: 2a1b 1a3d d0da 50bd 6bf0 44bd 0152 993d
000002c0: 6e1a 4d3d a42c 7fbd bac2 6f3d c0ef 533c
000002d0: f8f6 6fbd 860a b0bd 9e6f a5bd d75d 86bd
000002e0: 50fc b9bc 7a03 303d f935 19bd 3615 5a3d
000002f0: 7884 4a3c 6be0 843d 3b2e a23d 7d52 82bd
00000300: a18a 9c3d 9b7d a8bd 8f15 3abd 2e61 83bd
00000310: 4a12 373d d0e2 92bd 3a04 a2bd db5b 5cbd
00000320: 7cfc 0c3d d156 06bd b2e1 4a3d d80d 533c
00000330: 8e11 713d f43c b53c f049 9ebc 6026 49bb
00000340: a2ba a1bd 2e38 733d e20d a0bd 20da 2bbc
00000350: 71a2 1abd aa21 7b3d 569e 9fbd 99cd 87bd
00000360: 10f4 19bc 92c5 10bd a09e 07bb d04d be3c
00000370: 72c6 2d3d 80bc 99bb c09c b23a ff7a 29bd
00000380: 4c74 86bd 3a0d 773d d882 30bc 3f76 9fbd
00000390: 9fa4 813d 257e b03d c058 4a3c f02a cfbb
000003a0: c7ea ab3d 9c70 acbc cfcb b0bd 872b d63d
000003b0: ff82 27bd 94c7 85bd d0b9 b53d 9732 82bd
000003c0: 55ae 8c3d 0072 413b 008d 893a 86e5 073d
000003d0: 6b5d 8d3d d87c fb3a bd32 1abd b235 8a3d
000003e0: 4072 debb d0b9 0b3c f606 41bd 3ebc f5bc
000003f0: 26f6 823d cb07 42bd ce8b c03d 65ef f93a

encoder_solv.W_i.bias f4 [128]
-0.06705438 0.054341517 0.06471093 -0.06246757 -0.084364966 -0.06873151 -0.01023211 -0.059983935
0.017975936 -0.0067276154 -0.050298646 -0.0806981 0.046383224 0.020173179 0.046658833 0.026339868
-0.03059034 0.054142218 -0.090653874 0.035264995 0.023633169 -0.023144031 -0.05123467 -0.084633
-0.029911608 0.0013286411 0.0154823065 -0.030138649 0.035697915 -0.018860279 0.04554749 0.070273966
0.010794589 -0.04214186 -0.023876898 0.0003618184 0.029824084 -0.0458713 -0.023026899 -0.0575673
-0.02871711 -0.0017740586 0.054628722 0.075322025 0.0018887301 -0.049278703 -0.050324712 0.049785655
-0.044319052 -0.06228805 0.06269827 0.009066999 -0.042699948 0.080587514 0.058770977 -0.0129671935
-0.048139255 0.010642543 0.0041182456 -0.052218873 -0.08776617 0.027846038 -0.045209154 -0.021789987
-0.05545889 -0.01811489 0.06149077 -0.024136458 -0.0114011625 0.055266242 -0.06940863 -0.057027716
0.0024668376 0.010980173 0.014096366 0.013389885 -0.0025718266 0.028208585 0.06098492 -0.022502331
0.043723572 0.0747913 -0.06558829 -0.08248374 -0.07873569 0.008114778 0.05401127 -0.06663571
0.009967316 0.0821774 -0.06856498 0.047311656 0.070344016 0.061059736 0.040476337 0.044515584
-0.060578395 0.034573354 -0.054413117 -0.029898994 -0.060052205 0.024893533 -0.0013513538 0.008351763
0.066521235 0.0071381126 0.04100417 0.04458343 -0.053148422 -0.008888867 0.07882201 0.04107724
0.0343778 -0.07076461 -0.011551074 -0.07090487 -0.009707925 -0.071840785 0.03405224 0.059296023
-0.02378264 -0.05449195 -0.02280616 -0.09638587 -0.07193297 0.07765176 -0.047551606 -0.08786247
00000000: cf53 89bd 3695 5e3d 2a87 843d ffdd 7fbd
00000010: 8ac7 acbd 1bc3 8cbd 94a4 27bc b7b1 75bd
00000020: 4542 933c 5473 dcbb f405 4ebd 0c45 a5bd
00000030: 56fc 3d3d 3942 a53c 551d 3f3d b5c6 d73c
00000040: 9898 fabc 3bc4 5d3d bda8 b9bd 0772 103d
00000050: 599a c13c 8d98 bdbc 72db 51bd 1154 adbd
00000060: 3009 f5bc cc25 ae3a 80a9 7d3c 54e5 f6bc
00000070: fa37 123d df80 9abc 0190 3a3d cceb 8f3d
00000080: cadb 303c f19c 2cbd 7c99 c3bc 72b2 bd39
00000090: a351 f43c 8be3 3bbd e8a2 bcbc b0cb 6bbd
000000a0: 2540 ebbc 8787 e8ba 5ec2 5f3d 6f42 9a3d
000000b0: 448f f73a 77d8 49bd 4921 4ebd 0bec 4b3d
000000c0: e587 35bd c121 7fbd f367 803d c08d 143c
000000d0: 24e6 2ebd 110b a53d d6b9 703d 5a74 54bc
000000e0: ab2d 45bd 105e 2e3c 59f2 863b 75e3 55bd
000000f0: c0be b3bd 601d e43c 3c2d 39bd ea80 b2bc
00000100: dc28 63bd ae65 94bc bfdd 7b3d d2b9 c5bc
00000110: f1cb 3abc db5e 623d 1d26 8ebd e595 69bd
00000120: abaa 213b 2fe6 333c 72f4 663c 4061 5b3c
00000130: 178c 28bb b115 e73c 53cb 793d cf56 b8bc
00000140: 7d17 333d 2e2c 993d 2753 86bd 3ced a8bd
00000150: 2d40 a1bd d9f3 043c ec3a 5d3d 4e78 88bd
00000160: f44d 233c a04c a83d cc6b 8cbd dec9 413d
00000170: 8610 903d c619 7a3d 84ca 253d f955 363d
00000180: 0d21 78bd ca9c 0d3d 4ae0 5ebd bcee f4bc
00000190: 4df9 75bd 86ed cb3c e91f b1ba d5d5 083c
000001a0: 493c 883d d4e6 e93b fdf3 273d 1d9d 363d
000001b0: 29b2 59bd 9ca2 11bc 6f6d a13d 9c40 283d
000001c0: bccf 0c3d 09ed 90bd b740 3dbc 9336 91bd
000001d0: fd0d 1fbc 4321 93bd 5d7a 0b3d 63e0 723d
000001e0: d0d3 c2bc f332 5fbd fcd3 babc f465 c5bd
000001f0: 9851 93bd e307 9f3d 79c5 42bd 3df1 b3bd

encoder_solv.W_h.weight f4 [128, 142]
0.060731627 -0.015665172 0.0719193 -0.03877595 0.09093775 -0.069947034 0.01916471 0.05052644
0.059246607 -0.034120712 -0.08474452 -0.019131374 -0.024521261 -0.075007856 -0.011613854 0.032396212
0.06561624 0.079031944 0.07343426 0.071889974 -0.0032221368 -0.009273084 0.06906718 0.08134825
0.05040858 0.06450731 -0.06549708 0.0097821085 -0.062593564 -0.09939187 -0.009362531 0.08535343
0.071993135 -0.042140283 0.032739602 -0.051395543 -0.0065584867 0.010923992 0.0189587 -0.03615239
-0.04490806 0.012520833 0.017732583 0.06807524 0.07502397 0.046749204 0.0063228537 -0.032974705
0.013411163 0.03503387 0.07322334 -0.019945089 -0.023324238 0.0014022553 -0.049598232 -0.03161925
0.04530808 0.0021749523 -0.117222525 0.074825354 0.0014636214 -0.03428911 -0.0569358 0.019758616
-0.004570595 -0.07854917 -0.005813631 -0.01399821 0.014321949 0.0014202658 -0.09102781 -0.0300808
0.07787703 0.012294228 0.016323112 -0.024456598 -0.032556612 -0.049714014 0.086244315 0.029033434
0.046066806 -0.05964373 0.03362807 0.08580252 -0.029619683 -0.06239766 0.05639708 0.0022086054
0.0040701 0.00089469703 -0.008125484 -0.02658079 -0.06985719 0.023298522 -0.015806867 -0.037011333
0.023934752 0.08866634 -0.0013104794 -0.035087347 -0.08417075 0.005053917 -0.05514419 0.020185255
-0.0012799597 -0.06458313 0.040950395 -0.030701704 -0.054534428 0.021792017 -0.077730834 0.0072803064
-0.02807815 -0.061014354 0.038071185 0.007931204 -0.103531964 0.07251791 -0.09687798 -0.028284496
-0.025888763 -0.0010794839 0.023359248 -0.09674162 -0.0001773357 0.06403083 0.05940127 0.06950765
-0.031190705 0.08731734 0.013089014 -0.08311603 -0.011528723 0.043809988 0.026768748 0.082851455
0.017975971 -0.030196074 -0.03863509 -0.0683771 -0.009369433 -0.07096478 0.016913593 -0.0419955
-0.011298764 0.07164245 0.019446502 0.07328611 -0.09363562 0.093900636 0.019218842 0.059862
0.04582086 -0.0294015 0.046251267 0.013215266 0.06354915 -0.013658202 -0.020673703 -0.055318177
0.037704073 -0.05176862 0.0042402386 -0.060066447 -8.210486e-06 0.104581974 -0.023428017 0.09244672
-0.008982847 -0.037625533 0.001045172 -0.037991803 -0.0738961 0.0054861666 0.105529346 0.03168947
0.061498154 0.04891399 -0.06387123 -0.03483391 -0.0009888058 0.06158659 0.073060505 0.06557108
-0.0073730913 0.0035735273 -0.00080191053 0.044739965 -0.06874229 -0.010445108 0.07318632 0.02829099
0.022090554 0.008617864 -0.023171004 -0.0739712 -0.027410252 -0.004439603 0.04769765 0.042798743
-0.110264935 0.018823948 0.09569347 -0.049931955 0.069892846 0.026856681 0.01053692 -0.08597291
-0.032242853 -0.12594278 0.0369165 0.060198184 -0.034765013 -0.017566051 0.056730136 -0.025602596
0.023262521 0.02644643 -0.048956312 0.003700224 0.005038568 -0.014811924 -0.06456536 -0.06921969
0.06715362 0.061760854 -0.013583962 -0.039170016 0.0012667968 -0.06484455 -0.051085364 0.007916603
-0.07733114 -0.06207689 -0.07618877 0.0071803667 -0.054397345 -0.009781447 -0.048615143 0.010020951
0.008885316 0.03935246 -0.03984046 0.08010176 0.025832234 0.007906405 -0.030888958 -0.06301507
-0.023126239 0.056925844 -0.006848034 -0.054443132 -0.014747932 -0.035709783 0.06921135 0.064139515
00000000: bac1 783d 3f54 80bc 6d4a 933d 88d3 1ebd
00000010: 923d ba3d 6440 8fbd 4fff 9c3c d0f4 4e3d
00000020: 92ac 723d 29c2 0bbd 898e adbd 66b9 9cbc
00000030: d0e0 c8bc b89d 99bd 0948 3ebc e4b1 043d
00000040: cf61 863d 80db a13d b464 963d 0d3b 933d
00000050: 7c2a 53bb 22ee 17bc 1873 8d3d e999 a63d
00000060: 3a79 4e3d 691c 843d 5523 86bd 2345 203c
00000070: 0e31 80bd f78d cbbd 4d65 19bc c7cd ae3d
00000080: 2371 933d 4a9b 2cbd f619 063d 2284 52bd
00000090: 93e8 d6bb 8bfa 323c 474f 9b3c 8714 14bd
000000a0: 84f1 37bd 2e24 4d3c ec43 913c 086b 8b3d
000000b0: 2ba6 993d 187c 3f3d f12f cf3b 7c10 07bd
000000c0: 7fba 5b3c ad7f 0f3d 1ef6 953d e263 a3bc
000000d0: 7912 bfbc e1cb b73a 8427 4bbd 3083 01bd
000000e0: f794 393d a589 0e3b 5d12 f0bd 093e 993d
000000f0: fcd6 bf3a bd72 0cbd 8335 69bd d2dc a13c
00000100: eec4 95bb 63de a0bd 4680 bebb c058 65bc
00000110: 9ca6 6a3c 3628 ba3a ca6c babd 036c f6bc
00000120: fe7d 9f3d bb6d 493c 0cb8 853c 3459 c8bc
00000130: 155a 05bd eca0 4bbd dca0 b03d 86d7 ed3c
00000140: 8cb0 3c3d fc4c 74bd 96bd 093d 3bb9 af3d
00000150: faa4 f2bc b094 7fbd a000 673d 40be 103b
00000160: 795e 853b 1a8a 6a3a c020 05bc f5bf d9bc
00000170: 4911 8fbd 8bdc be3c 677d 81bc 3299 17bd
00000180: d012 c43c b396 b53d 64c4 abba c0b7 0fbd
00000190: b761 acbd 549b a53b e0de 61bd 8c5b a53c
000001a0: 52c4 a7ba 2944 84bd 9abb 273d 2482 fbbc
000001b0: 7e5f 5fbd 2c85 b23c 5831 9fbd a38f ee3b
000001c0: 2604 e6bc 30ea 79bd 88f0 1b3d e1f1 013c
000001d0: 9108 d4bd 4584 943d f667 c6bd e3b4 e7bc
000001e0: ac14 d4bc 787d 8dba e55b bf3c 7820 c6bd
000001f0: 31f3 39b9 9922 833d bf4e 733d 075a 8e3d
00000200: a683 ffbc 6fd3 b23d 4e73 563c bd38 aabd
00000210: f8e2 3cbc 1a72 333d 224a db3c 06ae a93d
00000220: 5842 933c c25d f7bc d43f 1ebd 4b09 8cbd
00000230: 4082 19bc fc55 91bd 608e 8a3c 7903 2cbd
00000240: 731e 39bc 47b9 923d 454e 9f3c 0717 963d
00000250: 08c4 bfbd fa4e c03d d570 9d3c db31 753d
00000260: a7ae 3b3d 6adb f0bc f871 3d3d d884 583c
00000270: 0f26 823d a7c6 5fbc e65b a9bc 5095 62bd
00000280: 966f 1a3d 550b 54bd b3f1 8a3b 3c08 76bd
00000290: c5bf 09b7 132f d63d 1dec bfbc b554 bd3d
000002a0: cb2c 13bc 3b1d 1abd 27fe 883a 4b9d 1bbd
000002b0: d756 97bd 4dc5 b33b c51f d83d d1cc 013d
000002c0: 7de5 7b3d 095a 483d ebce 82bd 01ae 0ebd
000002d0: d19a 81ba 3842 7c3d bfa0 953d 214a 863d
000002e0: f999 f1bb d731 6a3b 4e37 52ba 4141 373d
000002f0: c2c8 8cbd f521 2bbc b6e2 953d 82c2 e73c
00000300: 40f7 b43c f131 0d3c 1ed1 bdbc 367e 97bd
00000310: 778b e0bc 177a 91bb 9c5e 433d bc4d 2f3d
00000320: 95d2 e1bd ae34 9a3c f0fa c33d 7385 4cbd
00000330: fb23 8f3d 8b02 dc3c 0ca3 2c3c 9112 b0bd
00000340: 1511 04bd 25f7 00be c235 173d 5f92 763d
00000350: c265 0ebd aee6 8fbc dc5d 683d 89bc d1bc
00000360: 0b91 be3c 2fa6 d83c 6a86 48bd 757f 723b
00000370: 921a a53b b6ad 72bc d83a 84bd 0ec3 8dbd
00000380: d687 893d f3f8 7c3d 448f 5ebc bd70 20bd
00000390: a60a a63a 38cd 84bd e33e 51bd a4b4 013c
000003a0: ca5f 9ebd 5644 7ebd dc08 9cbd 4849 eb3b
000003b0: c0cf 5ebd 5d42 20bc ac20 47bd ea2e 243c
000003c0: b793 113c 0c30 213d c02f 23bd 640c a43d
000003d0: 1f9e d33c de89 013c d70a fdbc 0c0e 81bd
000003e0: 3d73 bdbc 132b 693d 7965 e0bb c3ff 5ebd
000003f0: 4fa1 71bc 6c44 12bd aebe 8d3d 945b 833d
