THESIS/transfer_learning/trained/DMPNN_with_attention_QM9_r2.pt (torch, 347576 bytes, 14 tensors)

encoder.cached_zero_vector f4 [128]
0	0x00000000	0.0
1	0x00000000	0.0
2	0x00000000	0.0
3	0x00000000	0.0
4	0x00000000	0.0
5	0x00000000	0.0
6	0x00000000	0.0
7	0x00000000	0.0
8	0x00000000	0.0
9	0x00000000	0.0
10	0x00000000	0.0
11	0x00000000	0.0
12	0x00000000	0.0
13	0x00000000	0.0
14	0x00000000	0.0
15	0x00000000	0.0
16	0x00000000	0.0
17	0x00000000	0.0
18	0x00000000	0.0
19	0x00000000	0.0
20	0x00000000	0.0
21	0x00000000	0.0
22	0x00000000	0.0
23	0x00000000	0.0
24	0x00000000	0.0
25	0x00000000	0.0
26	0x00000000	0.0
27	0x00000000	0.0
28	0x00000000	0.0
29	0x00000000	0.0
30	0x00000000	0.0
31	0x00000000	0.0
32	0x00000000	0.0
33	0x00000000	0.0
34	0x00000000	0.0
35	0x00000000	0.0
36	0x00000000	0.0
37	0x00000000	0.0
38	0x00000000	0.0
39	0x00000000	0.0
40	0x00000000	0.0
41	0x00000000	0.0
42	0x00000000	0.0
43	0x00000000	0.0
44	0x00000000	0.0
45	0x00000000	0.0
46	0x00000000	0.0
47	0x00000000	0.0
48	0x00000000	0.0
49	0x00000000	0.0
50	0x00000000	0.0
51	0x00000000	0.0
52	0x00000000	0.0
53	0x00000000	0.0
54	0x00000000	0.0
55	0x00000000	0.0
56	0x00000000	0.0
57	0x00000000	0.0
58	0x00000000	0.0
59	0x00000000	0.0
60	0x00000000	0.0
61	0x00000000	0.0
62	0x00000000	0.0
63	0x00000000	0.0
64	0x00000000	0.0
65	0x00000000	0.0
66	0x00000000	0.0
67	0x00000000	0.0
68	0x00000000	0.0
69	0x00000000	0.0
70	0x00000000	0.0
71	0x00000000	0.0
72	0x00000000	0.0
73	0x00000000	0.0
74	0x00000000	0.0
75	0x00000000	0.0
76	0x00000000	0.0
77	0x00000000	0.0
78	0x00000000	0.0
79	0x00000000	0.0
80	0x00000000	0.0
81	0x00000000	0.0
82	0x00000000	0.0
83	0x00000000	0.0
84	0x00000000	0.0
85	0x00000000	0.0
86	0x00000000	0.0
87	0x00000000	0.0
88	0x00000000	0.0
89	0x00000000	0.0
90	0x00000000	0.0
91	0x00000000	0.0
92	0x00000000	0.0
93	0x00000000	0.0
94	0x00000000	0.0
95	0x00000000	0.0
96	0x00000000	0.0
97	0x00000000	0.0
98	0x00000000	0.0
99	0x00000000	0.0
100	0x00000000	0.0
101	0x00000000	0.0
102	0x00000000	0.0
103	0x00000000	0.0
104	0x00000000	0.0
105	0x00000000	0.0
106	0x00000000	0.0
107	0x00000000	0.0
108	0x00000000	0.0
109	0x00000000	0.0
110	0x00000000	0.0
111	0x00000000	0.0
112	0x00000000	0.0
113	0x00000000	0.0
114	0x00000000	0.0
115	0x00000000	0.0
116	0x00000000	0.0
117	0x00000000	0.0
118	0x00000000	0.0
119	0x00000000	0.0
120	0x00000000	0.0
121	0x00000000	0.0
122	0x00000000	0.0
123	0x00000000	0.0
124	0x00000000	0.0
125	0x00000000	0.0
126	0x00000000	0.0
127	0x00000000	0.0

encoder.W_i.weight f4 [128, 147]
0	0xbd89d396	-0.0672981
1	0x3d27fae2	0.041010745
2	0xbd5085e4	-0.050908938
3	0x3cf18291	0.029481204
4	0xbcff5e82	-0.031172995
5	0xbd9988b5	-0.07496778
6	0xbd6e013b	-0.058106642
7	0x3d329b0b	0.04360489
8	0xbc8ce2d9	-0.017198013
9	0x3d95c951	0.07313789
10	0x3d8bd091	0.0682689
11	0xbc4c0f5b	-0.012454833
12	0x3d242554	0.04007466
13	0xbcd03144	-0.025414117
14	0x3cf0a3e0	0.029375017
15	0x3da0b518	0.07847041
16	0x3d45a30a	0.04825119
17	0x3d462d37	0.048382964
18	0x3c8ec495	0.017427722
19	0x3d88457d	0.06653879
20	0x3affcb12	0.0019515476
21	0x3d9b6f18	0.07589549
22	0x3bd1f7a4	0.006407695
23	0xbd1ae0ec	-0.03781216
24	0x3a2318a7	0.000622163
25	0xbc703b5a	-0.014662588
26	0x3cf8724f	0.030327944
27	0x3ce110e1	0.027473869
28	0x3b9a57a0	0.0047101527
29	0x3d0b4b74	0.034007505
30	0x3d119a5a	0.03554759
31	0xbcf73fc2	-0.03018177
32	0xbca50c69	-0.02014752
33	0x3d1cee55	0.03831323
34	0x3d96a7f5	0.07356254
35	0x3cf0920f	0.029366521
36	0x3d809640	0.06278658
37	0xbba37c74	-0.004989201
38	0xbd67aed3	-0.05656321
39	0xbd852f00	-0.06503105
40	0xbd9f56e0	-0.07780242
41	0xbda591c9	-0.08084447
42	0xbd0b6825	-0.034034867
43	0xbd1582c2	-0.036501653
44	0xbd4e9279	-0.050432656
45	0xbd426d69	-0.047467623
46	0xbd1452b8	-0.0362117
47	0xbd5f3dfd	-0.054502476
48	0x3cf21f9b	0.029556086
49	0x3ca1c8b2	0.01974902
50	0xbce8d2cc	-0.028420828
51	0x3d250d62	0.040295966
52	0x3d10f656	0.035391174
53	0xbd0c4c23	-0.034252297
54	0x3c70406d	0.014663798
55	0xbcf48b15	-0.029851476
56	0xbd94518d	-0.07242117
57	0xbd9ed671	-0.07755745
58	0xbd0d298d	-0.034463454
59	0xba5ec065	-0.0008497297
60	0xbc982c02	-0.018575672
61	0xbd4053d3	-0.04695494
62	0x3c1a90e9	0.009433963
63	0xbd8564ea	-0.065133885
64	0xbd76d3dd	-0.060260642
65	0x3d4c4396	0.049869142
66	0xbb0e6b03	-0.0021731264
67	0x3cd7c920	0.026341021
68	0x3b889553	0.0041681915
69	0xbd035ab5	-0.032068927
70	0xbd1b87af	-0.037971195
71	0x3d3e140d	0.04640584
72	0x3c9d2790	0.019183904
73	0x3bb606ee	0.0055550253
74	0xbd2111d5	-0.039323647
75	0xbd06c5c8	-0.032903463
76	0x3d3112bb	0.043230753
77	0xbccd1647	-0.025035037
78	0xbb9f9cbb	-0.0048709786
79	0xbc66c8cb	-0.014085959
80	0xbccee8c1	-0.02525747
81	0xbbe999f1	-0.007128947
82	0x3d3e467d	0.04645394
83	0x3d26a2f3	0.040682744
84	0xbd818d0b	-0.0632573
85	0x3d995708	0.07487303
86	0xbd832569	-0.0640362
87	0xbd00e743	-0.03147055
88	0xbd26b4ce	-0.040699773
89	0x3d06562b	0.03279702
90	0xbcc8aef0	-0.02449748
91	0xbd850508	-0.064951
92	0x3d9c6aeb	0.076375805
93	0x3d5893b6	0.052875243
94	0xbda129e5	-0.07869319
95	0xbd3a85dc	-0.045537814
96	0x3c228427	0.009919203
97	0x3c7abe57	0.01530417
98	0xbda7e8d4	-0.08198705
99	0xbd20bd13	-0.039242815
100	0x3da5459f	0.0806992
101	0xbd281b87	-0.041041877
102	0xbc75dde1	-0.015006513
103	0x3c047d2f	0.008086487
104	0xbbc43d26	-0.005988735
105	0x3d3498af	0.044090923
106	0x3da0f4bf	0.078591816
107	0xbd0dddc9	-0.03463534
108	0xbba4e2b1	-0.0050319065
109	0x3ccb482b	0.024814686
110	0xbd7dda66	-0.06197586
111	0xbd97587a	-0.073899224
112	0xbda76971	-0.08174408
113	0x3c4e4ad9	0.012591087
114	0xbe035500	-0.12825394
115	0x3d17fdd0	0.03710729
116	0x3d3bf4eb	0.04588787
117	0xbd82e3f2	-0.06391133
118	0x3d40315e	0.04692208
119	0xbc8877c0	-0.016658664
120	0xbb0c05b9	-0.0021365716
121	0x3ce5591a	0.027996588
122	0xbd8f99a1	-0.07011724
123	0x3d8789a0	0.06618047
124	0x3d7cf1c6	0.06175401
125	0xbc9117ff	-0.017711638
126	0xbcd99e9f	-0.026564894
127	0xbd3e4868	-0.04645577
128	0xbd9d5d0f	-0.07683765
129	0x3c4a5545	0.012349431
130	0xbd9f17a8	-0.07768184
131	0xbda84d01	-0.08217812
132	0xbddb96c2	-0.10722114
133	0x3d88cfe3	0.06680276
134	0xbd0e7f00	-0.034789085
135	0xbc862190	-0.016373426
136	0xbd6d271b	-0.057898622
137	0xbda61ca5	-0.08110932
138	0xbce38577	-0.027773602
139	0xbc887b80	-0.016660452
140	0xbd26a517	-0.040684786
141	0xbcce00a4	-0.02514679
142	0x3d9366b9	0.07197327
143	0xbcaf6f27	-0.021415306
144	0xbda3b98f	-0.07994377
145	0x3cceb696	0.025233548
146	0x3c7206ad	0.014772099
147	0xbd1b0622	-0.037847646
148	0x3d61ffca	0.05517558
149	0x3cab5133	0.020912742
150	0x3d908459	0.07056493
151	0xbd70d89c	-0.058800325
152	0xbe39c86f	-0.18142866
153	0x3ea02b29	0.3128293
154	0xbdefd010	-0.11709607
155	0xbc98b364	-0.018640228
156	0x3c4adb42	0.012381377
157	0xbcfaac5c	-0.030599765
158	0x3d800b11	0.06252111
159	0xbd8fbe7d	-0.07018755
160	0xbd8ae9a7	-0.06782847
161	0xbca84e60	-0.020545185
162	0x3d9e2ea9	0.077237435
163	0x3c88e86c	0.01671239
164	0xbcde3dba	-0.027129043
165	0xbd5f96a7	-0.054587033
166	0x3d9c07b0	0.07618654
167	0xbd8da40d	-0.06916056
168	0x3d8e0f52	0.06936516
169	0xbcb588b8	-0.02215992
170	0x3da78bac	0.08180937
171	0xbc860ebb	-0.016364446
172	0xbc1a1473	-0.00940429
173	0xbd77f7c7	-0.060539033
174	0xbd86e662	-0.06586911
175	0x3ca6bfb1	0.020355077
176	0xbc34fbe8	-0.011046387
177	0x3c8129c2	0.015766982
178	0x3b0c0e71	0.0021370912
179	0xbda78c0d	-0.081810094
180	0xbd375925	-0.04476275
181	0x3d913ec3	0.07092049
182	0xbd9d9eaf	-0.07696282
183	0x3da5e252	0.08099808
184	0xbda03ad9	-0.07823724
185	0xbd69a480	-0.057041645
186	0x3d02fc27	0.031978752
187	0xbcb10b12	-0.021611724
188	0xbd80cc68	-0.062889874
189	0xbd24e2a3	-0.0402552
190	0x3d91a4be	0.071115
191	0xbd47d994	-0.048791483
192	0xbcb0caa2	-0.021580998
193	0x3d5773da	0.05260072
194	0x3d87f4b9	0.06638474
195	0xbcf5def5	-0.03001354
196	0xbd060f3d	-0.032729376
197	0x3d8f75c2	0.070048824
198	0xbb79b06e	-0.0038099545
199	0xbbec0c34	-0.007203603
200	0x3d63c99e	0.0556122
201	0x3da6c51c	0.081430644
202	0x3c759778	0.014989726
203	0x3c5574ae	0.013028307
204	0xbb46a1e1	-0.003030889
205	0xbd9783dd	-0.07398198
206	0x3c006ab2	0.007837938
207	0x3d650af4	0.05591865
208	0xbcdf802d	-0.027282799
209	0xbd9f5682	-0.07780172
210	0xbd2d6bb6	-0.04233905
211	0xbd0cc48e	-0.034367137
212	0xbd8354ec	-0.06412682
213	0x3d97e41d	0.07416556
214	0x3d0c0f91	0.034194533
215	0xbd36a787	-0.04459336
216	0x3d5157e9	0.05110923
217	0x3cfb8006	0.030700695
218	0xbd6207e7	-0.055183318
219	0x3d2d688c	0.04233603
220	0xbd92dc2e	-0.07170902
221	0xbd4938b0	-0.049126327
222	0xbd910795	-0.07081524
223	0xbd56a248	-0.052400857
224	0xbd1a8318	-0.037722677
225	0x3d7eea83	0.062235367
226	0xbbfaa4fb	-0.0076490617
227	0x3c68510f	0.014179482
228	0xbd0bed17	-0.034161653
229	0x3d8ce2d6	0.06879203
230	0x3da636da	0.08115931
231	0x3d8efd87	0.0698195
232	0x3c844471	0.016145917
233	0xbd89cdbd	-0.067286946
234	0xbb3ef318	-0.0029136594
235	0x3d6a429d	0.057192434
236	0x3d14e01f	0.03634655
237	0x3c5a0e44	0.013309065
238	0xbc6dbec8	-0.014510818
239	0x3b8cfa55	0.004302303
240	0xbd9d14dc	-0.07669994
241	0xbadfd190	-0.0017076004
242	0xbbb991f3	-0.0056631505
243	0x3cb01d63	0.021498388
244	0x3ce9f14f	0.028557448
245	0xbc3fd4cc	-0.01170845
246	0xbda0268e	-0.07819854
247	0xbcdbd903	-0.026836878
248	0x3d2fc182	0.042909153
249	0xbe98fc61	-0.2988005
250	0xbdbf0df3	-0.093288325
251	0x3e04eafb	0.12980263
252	0x3e18c7da	0.14919987
253	0x3c8fa224	0.01753337
254	0xbd10cdd6	-0.03535255
255	0x3ebc8697	0.36821434

encoder.W_i.bias f4 [128]
0	0x3e1cb88d	0.15304776
1	0xbe395885	-0.18100174
2	0x3d3c3291	0.04594666
3	0xbd0eb129	-0.03483692
4	0xbe03129a	-0.12800065
5	0xbd3f7ceb	-0.04674999
6	0xbe3b9537	-0.1831864
7	0xbd42a3c7	-0.04751947
8	0xbe576d74	-0.21037847
9	0x3dd06819	0.10176105
10	0x3d8999c5	0.06718782
11	0xbd9adc9a	-0.07561608
12	0xbd985812	-0.07438673
13	0xbc99d380	-0.018777609
14	0xbe462345	-0.19349392
15	0xbd73bfc6	-0.05950906
16	0xbdf1b1da	-0.118015006
17	0xbe2eca0d	-0.17069264
18	0xbd80c5c6	-0.06287722
19	0x3d1902e2	0.037356265
20	0x3da005c5	0.078136005
21	0xbb9155bc	-0.004435269
22	0xbdf5e865	-0.12007216
23	0xbe37ad83	-0.17937283
24	0xbce4f2c9	-0.0279478
25	0xbcaee76f	-0.02135059
26	0xbde7c598	-0.11316985
27	0xbca5a32b	-0.020219406
28	0xbd8c0650	-0.068371415
29	0xbc84d33a	-0.016214002
30	0xbe0a48eb	-0.13504378
31	0xbbe31fd4	-0.0069312844
32	0xbe51114b	-0.20416753
33	0xbd1f6b2f	-0.038920578
34	0xbdcfe56f	-0.10151183
35	0xbdac4a45	-0.08412603
36	0xbe05b836	-0.13058552
37	0xbe9231e1	-0.2855368
38	0xbe839f1c	-0.25707328
39	0xbd91f43d	-0.07126663
40	0xbd14e2a0	-0.03634894
41	0xbe08d66b	-0.13363044
42	0xbe14b8a7	-0.14523564
43	0xbe1759f8	-0.14780414
44	0xbe1b0b9f	-0.15141152
45	0xbcb4473b	-0.022006622
46	0xbc9e7894	-0.019344606
47	0xbe11eaca	-0.14249721
48	0xbd43f2d2	-0.047838993
49	0xbd5eea89	-0.05442289
50	0xbc82ed29	-0.015982227
51	0xbd9a70a9	-0.075410195
52	0x3d094510	0.03351313
53	0xbe32c515	-0.17457993
54	0xbe0f5966	-0.13998947
55	0xbd3804d8	-0.044926494
56	0xbe05b848	-0.13058579
57	0x3c8336e9	0.016017394
58	0x3cd939fe	0.02651691
59	0xbe6f06ac	-0.23342389
60	0xbe2cc339	-0.16871347
61	0xbd478145	-0.048707265
62	0xbc853c21	-0.016264023
63	0xbd84ce42	-0.06484653
64	0xbc8558cf	-0.016277699
65	0xbcf940db	-0.030426433
66	0xbd8f5264	-0.06998137
67	0xbd97270a	-0.07380493
68	0xbdcda7f7	-0.100418024
69	0xbe21aab3	-0.15787773
70	0xbd054ba6	-0.032542847
71	0xbcecec7c	-0.028921358
72	0xbbbf29c5	-0.0058338367
73	0xbe0acd88	-0.13554966
74	0xbe33f5fe	-0.17574307
75	0xbce73d50	-0.028227478
76	0xbcc99d98	-0.02461128
77	0xbdcd3c62	-0.10021283
78	0xbe5eeed3	-0.21770792
79	0xbe332125	-0.17493112
80	0xbd31424d	-0.04327612
81	0xbdff579e	-0.124678835
82	0xbdd4b2b2	-0.10385646
83	0xbde79191	-0.113070615
84	0xbddcf454	-0.107887894
85	0xbe802136	-0.25025338
86	0xbd153ed9	-0.03643689
87	0xbe84e836	-0.25958413
88	0xbe003220	-0.12519121
89	0x3c40174d	0.011724305
90	0xbe7e9e9d	-0.24865194
91	0x3e12a87e	0.14322087
92	0xbdd341c8	-0.10315281
93	0xbdeeb859	-0.11656255
94	0xbd0df2df	-0.034655448
95	0xbda023fd	-0.07819364
96	0xbdb98f7c	-0.090605706
97	0xbe4568cc	-0.19278258
98	0xbd857260	-0.06515956
99	0xbe4f1f46	-0.20226774
100	0xbd2f45bf	-0.042791124
101	0xbe7b0fda	-0.24517766
102	0xbdd03e2f	-0.101681106
103	0xbe1dba77	-0.15403162
104	0xbe696410	-0.22792077
105	0xbe1022d3	-0.14075784
106	0xbddd2217	-0.10797518
107	0xbd23f087	-0.040024307
108	0xbd24dc01	-0.040248875
109	0xbd9f1041	-0.07766772
110	0xb9e02c3c	-0.00042757567
111	0xbe345cb3	-0.17613487
112	0xbda7d72a	-0.08195336
113	0xbe17846a	-0.14796606
114	0xbd7bdf21	-0.06149209
115	0xbdf9079c	-0.121596545
116	0xbdc9c2f0	-0.098516345
117	0xbd678ff7	-0.05653378
118	0x3b6df978	0.0036312025
119	0xbdce6913	-0.10078635
120	0xbdb3edd6	-0.08785598
121	0xbe4160c2	-0.18884566
122	0xbd93e666	-0.072216794
123	0xbe160558	-0.14650476
124	0xbcaceaee	-0.021108117
125	0xbd9f1ecf	-0.07769548
126	0xbe3af6d8	-0.18258226
127	0xbc6b99a2	-0.014379891

encoder.W_h.weight f4 [128, 128]
0	0xbd6a6bbd	-0.057231653
1	0xbd85aca1	-0.06527067
2	0x3d1f680c	0.038917586
3	0xbd7f3fd3	-0.062316727
4	0xbda4a297	-0.08038824
5	0xbd9fa006	-0.07794194
6	0x3d79d997	0.060998525
7	0xbd369ba3	-0.04458202
8	0x3d276e03	0.0408764
9	0xbc2b7dbd	-0.01046699
10	0xbe166834	-0.14688188
11	0xbd28b7f5	-0.04119106
12	0xbdd97001	-0.10617066
13	0x3d0fb3ed	0.0350837
14	0x3d204fcf	0.03913861
15	0x3da248d8	0.0792405
16	0x3c5ce6fd	0.013482806
17	0xbd025d0d	-0.03182702
18	0xbcafc1c3	-0.021454697
19	0xbd316293	-0.0433069
20	0xbde9786a	-0.1139992
21	0x3d2d4ed8	0.04231152
22	0xbd948a7f	-0.072529785
23	0x3d3b97b2	0.045798965
24	0x3d0b8634	0.034063533
25	0xbc1e8278	-0.009674661
26	0xbd92cc49	-0.071678706
27	0xbd8141b1	-0.06311358
28	0x3d3204bb	0.043461543
29	0x3b603a3c	0.0034214398
30	0x3d8be5c9	0.068309374
31	0xbd1e5495	-0.038654882
32	0x3ceaa1ae	0.028641548
33	0xbd8a1492	-0.06742205
34	0xbd187b74	-0.03722711
35	0x3b524a9e	0.0032087932
36	0x3d812a86	0.06306939
37	0xbc0db534	-0.008649159
38	0xbd5c0978	-0.053719968
39	0x3b5a99b4	0.0033355774
40	0x3cbd0524	0.02307374
41	0x3d9a4c93	0.075341366
42	0x3d7d5892	0.061852045
43	0x3d95ffb6	0.073241636
44	0xbd50b1a7	-0.050950672
45	0xbd8e8cba	-0.06960435
46	0xbca91f4c	-0.020644806
47	0xbd70970b	-0.058737796
48	0xbccdbc51	-0.02511421
49	0x3d346496	0.04404124
50	0x3c624db6	0.013812473
51	0xbd3ae1ef	-0.045625623
52	0xbd16f95d	-0.036858905
53	0xbd225581	-0.039632324
54	0xbb86cbd2	-0.0041136527
55	0x3d099305	0.033587474
56	0xbdad8692	-0.08472933
57	0x3ca8ba7d	0.020596737
58	0xbcb0ccf5	-0.021582106
59	0xbdc2007e	-0.0947275
60	0xbc7885b8	-0.0151686
61	0xbcff6490	-0.031175882
62	0x3d00cecb	0.031447213
63	0x3bd54cc8	0.006509397
64	0x3d1cacc9	0.03825072
65	0x3ce3d332	0.027810667
66	0xbceea797	-0.029132647
67	0x3d69c16b	0.057069223
68	0xbb983375	-0.004644806
69	0xbd6d4197	-0.05792388
70	0x3d2083c6	0.03918817
71	0xbded80c4	-0.11596826
72	0xbd1dfb2e	-0.03856962
73	0x3d60b529	0.054860268
74	0xbbe077c1	-0.0068502133
75	0x3910d64e	0.00013812745
76	0xbbb75f5c	-0.0055960845
77	0x3d36eb48	0.044657975
78	0xbd99c3bd	-0.07508037
79	0xbd413541	-0.047169928
80	0xbc7839ec	-0.015150528
81	0x3d313da4	0.043271676
82	0xbc866217	-0.016404195
83	0xbd92595b	-0.071459495
84	0xbcdf849b	-0.02728491
85	0xbd2967d1	-0.041358773
86	0xbd12c3de	-0.035831325
87	0xbc3e43a9	-0.011612811
88	0x3cfd5040	0.030922055
89	0x3d2edbf7	0.042690244
90	0xbdeb0140	-0.11474848
91	0xbdde7876	-0.1086282
92	0xbdc17c5b	-0.09447547
93	0x3cb7c1ea	0.022431333
94	0xbd00a9c7	-0.031411912
95	0xbde38616	-0.11109559
96	0xbdb2855f	-0.08716845
97	0xbdcb11dc	-0.09915516
98	0xbd05e61e	-0.03269016
99	0xbd946b6b	-0.07247051
100	0xbdadfef5	-0.08495895
101	0xbb17b7e4	-0.002315038
102	0x3ca52293	0.020158088
103	0xbdb48aa8	-0.08815509
104	0x3c84c903	0.016209131
105	0xbd8f68e4	-0.07002428
106	0xbd5569c7	-0.05210283
107	0xbdb6bbb6	-0.08922522
108	0xbd5ba048	-0.053619653
109	0xbcb6646e	-0.022264685
110	0xbcf1b411	-0.029504808
111	0xbc98f084	-0.018669374
112	0x3d44150e	0.04787164
113	0xbd7259ce	-0.059167676
114	0x3d6cf57c	0.0578513
115	0xbdc5d875	-0.096604265
116	0xbde74f62	-0.11294438
117	0xbda22410	-0.079170346
118	0x3d0c8acc	0.034312055
119	0xbde3a048	-0.111145556
120	0xbd182774	-0.037147
121	0xbd908e8f	-0.07058441
122	0xbd741ada	-0.05959592
123	0xbd5c1932	-0.053734966
124	0xbc99e5f5	-0.01878641
125	0xbc7d3d93	-0.015456575
126	0x3d7d48c9	0.06183699
127	0xbcdaf8a2	-0.026729885
128	0x3d50b1ff	0.050951
129	0xbec1bf25	-0.37841144
130	0xbe9ed0c2	-0.31018645
131	0x3e2fd177	0.17169748
132	0xbe081a84	-0.13291365
133	0x3d834648	0.064098895
134	0xbd34c3da	-0.04413209
135	0xbccca874	-0.024982668
136	0x3e065e02	0.13121799
137	0xbd20579f	-0.039146062
138	0xbc974414	-0.01846508
139	0xbddd1be4	-0.10796335
140	0xbf0c9a6d	-0.54923135
141	0x3e6a2894	0.22867042
142	0xbdda9cc1	-0.1067443
143	0xbe0fa92d	-0.14029379
144	0x3e27d60e	0.16390249
145	0xbbfb5826	-0.00767042
146	0xbe8eef9f	-0.2791719
147	0xbd154bce	-0.036449246
148	0xbe8434f5	-0.25821653
149	0xbd8858b9	-0.066575475
150	0x3e03429e	0.12818381
151	0x3d3d2dd3	0.04618628
152	0xbe62dd29	-0.22154678
153	0xbedef3b7	-0.43545315
154	0xbc9872d7	-0.018609447
155	0x3e196b77	0.14982401
156	0x3c330c3c	0.01092821
157	0xbe1ba25b	-0.15198652
158	0x3d85f201	0.06540299
159	0x3dbeee04	0.09322742
160	0x3e864d14	0.2623068
161	0xbe621e12	-0.22081783
162	0x3d533f40	0.05157399
163	0xbf218440	-0.6309242
164	0x3e221a57	0.1583036
165	0xbe84617f	-0.25855634
166	0xbe71ae32	-0.23601606
167	0xbe0b1535	-0.13582309
168	0x3eaa972d	0.33318463
169	0x3edbbf6a	0.42919475
170	0x3e26a1e4	0.16272694
171	0xbebf8ab7	-0.3741052
172	0xbd5fcfd4	-0.05464156
173	0xbd9f99e4	-0.07793024
174	0x3e509b32	0.20371702
175	0x3e570a18	0.20999944
176	0x3e9c2a85	0.3050119
177	0xbb777ba4	-0.0037762905
178	0xbf257b9d	-0.64641744
179	0xbda7949d	-0.081826426
180	0xbed7d367	-0.42153475
181	0xbe070af3	-0.1318777
182	0x3e40762d	0.1879508
183	0x3e1322e6	0.14368781
184	0x3e3cc3cb	0.18434064
185	0xbd014dae	-0.03156822
186	0x3e11808f	0.14209197
187	0x3e219806	0.15780649
188	0xbeb08d5c	-0.3448285
189	0xbd30b118	-0.04313764
190	0xbe8dcd5e	-0.27695745
191	0xbd94ff51	-0.0727526
192	0x3e405e55	0.18785985
193	0xbe78c90b	-0.24295442
194	0x3e05ad8a	0.13054481
195	0xbc2f99a0	-0.010717779
196	0xbca6da3f	-0.02036774
197	0xbf37a717	-0.71739334
198	0xbe901110	-0.28138018
199	0xbee1696f	-0.44025752
200	0x3cca6865	0.024707982
201	0xbeb1fcc0	-0.34763145
202	0x3e5dd978	0.21664989
203	0xbef226b0	-0.4729514
204	0x3df7b15b	0.12094375
205	0xbdb7dae1	-0.08977295
206	0x3e332db3	0.17497902
207	0x3e9448e5	0.28961864
208	0xbeb82ef3	-0.3597332
209	0xbe43fd8b	-0.19139688
210	0x3d196822	0.037452824
211	0xbe0a5d5c	-0.13512176
212	0xbc242791	-0.010019199
213	0xbdedc289	-0.1160937
214	0xbdd9fee5	-0.106443204
215	0x3d367f6a	0.044555105
216	0xbe17e10f	-0.14831947
217	0x3d33b375	0.043872315
218	0xbc32dcb7	-0.01091688
219	0x3d4959d3	0.04915793
220	0xbf236ec3	-0.63840884
221	0x3d290529	0.041264687
222	0xbd0982b2	-0.033571906
223	0x3cfff655	0.03124539
224	0xbe493d65	-0.19652326
225	0x3e3bf2a3	0.18354277
226	0x3c7ad1ba	0.015308792
227	0xbe61ae80	-0.22039223
228	0xb9a07c37	-0.00030610125
229	0x3d37fd56	0.044919334
230	0xbe6217fb	-0.2207946
231	0x3e6b2bba	0.22965899
232	0x3e8ac016	0.27099675
233	0xbe7cc297	-0.24683605
234	0xbe9558e7	-0.2916939
235	0x3de3ce60	0.11123347
236	0x3d0db0c1	0.034592394
237	0xbe67302e	-0.22576973
238	0xbd4e3ece	-0.050352864
239	0xbdd6d176	-0.1048917
240	0xbfa44f29	-1.2836658
241	0xbf361a68	-0.7113404
242	0xbc960306	-0.018311989
243	0xbb61fe04	-0.003448368
244	0x3e435a79	0.19077481
245	0xbed5bc3c	-0.41745174
246	0xbcb2d452	-0.021829758
247	0xbe8c5c15	-0.27414003
248	0xbe2ab215	-0.16669495
249	0x3e1cb931	0.1530502
250	0x3d3f1e38	0.04665968
251	0xbf8cd9b4	-1.1003938
252	0x3ebdb73e	0.37053865
253	0xbeed2bd6	-0.46322507
254	0xbe91927d	-0.28432074
255	0xbdd8cb60	-0.10585666

encoder.W_h.bias f4 [128]
0	0xbdd337d1	-0.103133805
1	0x3dbdfd2f	0.092768066
2	0xbd69bd93	-0.057065558
3	0xbe0501e8	-0.12989008
4	0x3cc0af00	0.023520947
5	0xbd667f84	-0.056273952
6	0x3e087c81	0.13328744
7	0xbca9c9fb	-0.020726195
8	0xbdcbd0f6	-0.099519655
9	0x3da93fbd	0.0826411
10	0x3e5bbc78	0.21458614
11	0xbd93169a	-0.07182045
12	0xbea689b7	-0.32526943
13	0xbdc68278	-0.09692854
14	0x3d8e505f	0.06948923
15	0xbe06c631	-0.13161542
16	0xbda116cb	-0.078656755
17	0xbaa69503	-0.0012709204
18	0x3d1a24d5	0.037632782
19	0xbdc2f400	-0.095191956
20	0xbdc157c3	-0.09440567
21	0xbdc49ab8	-0.09599823
22	0x3e05a04d	0.13049431
23	0x3d9f3397	0.07773512
24	0x3d9cd469	0.076577015
25	0x3ded7313	0.11594214
26	0xbe0c3ead	-0.13695784
27	0xbe5582f4	-0.20850736
28	0xbc09af00	-0.00840354
29	0xbe165900	-0.14682388
30	0x3db6a1f0	0.08917606
31	0xbd2f9acf	-0.042872246
32	0x3e0a6921	0.13516666
33	0xbe4decf5	-0.20109923
34	0x3d00145a	0.03126941
35	0xbd8d7bcb	-0.06908377
36	0xbbf477c2	-0.0074605653
37	0x3e05f2df	0.13080929
38	0x3d65a589	0.05606607
39	0xbe5331eb	-0.20624511
40	0xbcb40107	-0.021973146
41	0x3c8caf1e	0.017173346
42	0x3e0f0e64	0.13970333
43	0x3de93d62	0.11388661
44	0x3d1e5a86	0.03866055
45	0x3c424c29	0.011858978
46	0xbdd3d4e8	-0.10343343
47	0x3d6f9e3f	0.058500525
48	0xbc3363e2	-0.010949107
49	0xbe0e5f7b	-0.1390361
50	0xbe29d7b6	-0.16586193
51	0x3da124f0	0.078683734
52	0xbe206fbc	-0.15667623
53	0xbc8684f7	-0.016420824
54	0xbd790c53	-0.06080277
55	0x3c6faf0c	0.014629137
56	0x3db61432	0.08890571
57	0x3e1d6bba	0.15373126
58	0xbcf7e858	-0.030262157
59	0x3e1019af	0.14072298
60	0xbd8dc52a	-0.06922372
61	0x3c9dcf15	0.019263783
62	0xbdd65e75	-0.10467235
63	0x3c9038d2	0.017605219
64	0xbea81843	-0.3283101
65	0x3cfb19eb	0.030652007
66	0x3c997590	0.018732816
67	0xbd7a7cf1	-0.06115431
68	0x3d441f54	0.04788144
69	0xbe4b5590	-0.19856858
70	0x3d00a060	0.031402946
71	0xbd22cf34	-0.039748386
72	0x3b198b56	0.0023428998
73	0x3b86e140	0.0041162074
74	0xbcacf2d4	-0.021111883
75	0xbdc20fd1	-0.09475673
76	0xbc739235	-0.014866401
77	0xbc8fc21c	-0.017548613
78	0xbd2c930f	-0.042132434
79	0xbe44ae2c	-0.19207066
80	0xbe19c289	-0.15015616
81	0xbd38b67a	-0.0450959
82	0xbd79e3af	-0.06100815
83	0x3e1c7226	0.15277919
84	0x3d8eded9	0.069760986
85	0x3e6095c1	0.21932127
86	0x3ce3513e	0.0277487
87	0x3d8c47ed	0.06849656
88	0x3cba539c	0.022744946
89	0x3db53862	0.08848645
90	0x3d9feaa6	0.078084275
91	0x3e752d40	0.23943043
92	0x3be4d09c	0.006982876
93	0x3d834159	0.064089485
94	0xbd7bb2d9	-0.06144986
95	0xbcdb3a4f	-0.026761202
96	0x3c7740ac	0.015091103
97	0x3d8ba332	0.068182364
98	0x3c931858	0.017955944
99	0x3d86f493	0.065896176
100	0xbf15838d	-0.58403856
101	0x3da6a847	0.08137565
102	0x3d22c985	0.039742965
103	0x3e2b7d5d	0.16747041
104	0x3c5ced7f	0.013484358
105	0xbc43d3fa	-0.011952395
106	0x3d587c92	0.052853175
107	0xbcf0333c	-0.029321305
108	0x3d2bc12d	0.041932274
109	0xbe337694	-0.17525703
110	0x3b2370de	0.00249391
111	0xbc158496	-0.009125849
112	0x3d9d11dc	0.07669422
113	0xbe4efd17	-0.20213734
114	0xbcb3a5c4	-0.02192963
115	0xbd4da4ae	-0.05020588
116	0xbddb7deb	-0.10717376
117	0xbdf74605	-0.12073902
118	0x3ea843c2	0.32864195
119	0xbd074451	-0.033024136
120	0x3d4e6537	0.050389495
121	0x3d954ebb	0.07290407
122	0xbe08f0a3	-0.13373046
123	0xbe0b8ac5	-0.13627155
124	0x3ca838a2	0.020534817
125	0x3a5ab54d	0.0008343056
126	0xbddfab81	-0.10921384
127	0xbd451855	-0.048118908

encoder.W_o.weight f4 [128, 261]
0	0x3ce7f8c8	0.02831687
1	0x3d7a8e24	0.061170712
2	0x3d6f73c4	0.058460012
3	0x3d50e8ab	0.05100314
4	0x3d0535b2	0.03252191
5	0xbd813dbe	-0.063106045
6	0xbce27f0e	-0.027648475
7	0x3ca3d9a6	0.020001244
8	0xbd0b4dca	-0.034009732
9	0x3d21fb49	0.039546285
10	0x3c541f8a	0.012946973
11	0x3c642d79	0.013926857
12	0xbd6379f5	-0.05553623
13	0xbd5156d7	-0.051108208
14	0x3cba27dd	0.022724086
15	0x3cd44888	0.025913492
16	0xbd1aecc8	-0.03782347
17	0xbc680522	-0.01416138
18	0xb9a3afc3	-0.00031220735
19	0xbc9a0631	-0.01880178
20	0x3ce96081	0.0284884
21	0xbc15d658	-0.009145342
22	0xbd12c198	-0.035829157
23	0x39ad8747	0.0003309792
24	0x3ccd2790	0.025043279
25	0xbccdf2f2	-0.02514026
26	0xbd002eea	-0.03129474
27	0xbd6a58ef	-0.05721372
28	0x3b2ef3fc	0.002669572
29	0x3c9eb837	0.01937495
30	0x3d437833	0.047722053
31	0xbd2c9323	-0.042132508
32	0xbcd6aa7b	-0.026204338
33	0xbcdf772a	-0.027278502
34	0x3d16f8b8	0.03685829
35	0x3cb25422	0.021768633
36	0xbc4da345	-0.0125511335
37	0x3b334cac	0.0027358932
38	0x3cc2a3e9	0.0237598
39	0xbcb65979	-0.02225946
40	0xbcdce42e	-0.026964273
41	0x3b9607cd	0.0045785666
42	0xbd7cca41	-0.06171632
43	0xbc62d290	-0.013844147
44	0x3cb2a302	0.021806244
45	0x3cc17687	0.023616089
46	0x3cd38fbc	0.025825374
47	0x3d56902c	0.052383587
48	0x3c59277e	0.013254045
49	0x3d0fda22	0.035120137
50	0x3d6e885e	0.05823552
51	0xbbdf1362	-0.0068077305
52	0xbd67b1df	-0.056566115
53	0x3d4c86f4	0.04993339
54	0xbd6ea1d8	-0.058259815
55	0xbcc0f42f	-0.023553936
56	0xbc9c8a92	-0.019109044
57	0xbba6c655	-0.005089561
58	0xbd4d2168	-0.050080687
59	0xbbf88051	-0.007583656
60	0x3beb4a9e	0.007180526
61	0x3d4ad24e	0.04951697
62	0x3d4ead92	0.0504585
63	0x3cdcb556	0.026941936
64	0xbd3bec7b	-0.045879822
65	0x3ceb694e	0.028736737
66	0x3d69053a	0.05688975
67	0x3d2f2010	0.042755187
68	0xbd3fafd0	-0.046798527
69	0x3c3c913d	0.011509237
70	0x3d3565c1	0.044286493
71	0xbd1d36ed	-0.03838246
72	0x3d6bf116	0.057602964
73	0xbd1a7227	-0.03770652
74	0xbd42cddf	-0.047559615
75	0xbc9ed688	-0.019389406
76	0xbd51f328	-0.051257282
77	0xbca60c87	-0.020269645
78	0xbbb59430	-0.005541347
79	0xbd2ebcff	-0.04266071
80	0x3d53a88a	0.051674403
81	0x3c85d2c3	0.01633585
82	0xbc4bfd76	-0.0124505665
83	0x3c6dddde	0.014518229
84	0xbc777571	-0.015103684
85	0x3bd51d2b	0.0065037212
86	0x3d33f69b	0.043936353
87	0x3cfd8384	0.0309465
88	0x3d14a33e	0.036288492
89	0x3c8c7794	0.017146863
90	0x3d18b22b	0.03727929
91	0x3c921e15	0.01783661
92	0xbc707040	-0.0146752
93	0xbd3de4a4	-0.046360627
94	0xbcaaab05	-0.020833502
95	0xbcd251b3	-0.025673723
96	0xbbee9788	-0.0072812475
97	0x3cfa652a	0.030565817
98	0xbd7a92b7	-0.061175074
99	0xbc43872c	-0.011934083
100	0xbd421dea	-0.04739181
101	0xbc85f30b	-0.016351243
102	0xbd2328ad	-0.039833713
103	0xbd7cbd3f	-0.061703917
104	0xbd9cc088	-0.0765391
105	0xbbea2434	-0.007145429
106	0xbc370be9	-0.011172273
107	0x3d1cc6d2	0.038275547
108	0xbd869dfb	-0.06573101
109	0x3d7a23bb	0.06106923
110	0x3bd4c990	0.0064937547
111	0xbcbe08c3	-0.023197537
112	0xbd7c7859	-0.06163821
113	0xb843e899	-4.6708246e-05
114	0xbd2957d3	-0.04134352
115	0x395d5753	0.00021108733
116	0xbc9208de	-0.017826494
117	0xbd611c21	-0.054958466
118	0x3cf71aae	0.030164089
119	0xbdb6538e	-0.089026555
120	0xbd6406aa	-0.055670418
121	0xbd0e9ac1	-0.034815554
122	0x3a0723b3	0.0005155161
123	0xbd5343f2	-0.05157847
124	0xbc65b8aa	-0.014021078
125	0xbd27bdfa	-0.04095266
126	0xbd2e2ea4	-0.04252495
127	0xbd7e5e28	-0.062101513
128	0x3d2b0a7f	0.041758057
129	0xbc8c6fcf	-0.017143158
130	0xbc0b0fa7	-0.0084876185
131	0xbccd6a35	-0.025075058
132	0xbd84d9ca	-0.064868525
133	0x3c7aacf8	0.015300028
134	0xbda3f2dd	-0.08005307
135	0xbda5fb56	-0.08104579
136	0x3d083cef	0.033261236
137	0x3c3d5959	0.011556947
138	0x3c3cc65a	0.0115219
139	0x3c96572e	0.018352117
140	0xbca736c8	-0.020411864
141	0x3bdfbaef	0.006827704
142	0xbd7e64f4	-0.062107995
143	0xbbaa4370	-0.0051960275
144	0x3d479d77	0.048734155
145	0x3b98cc19	0.004663002
146	0x3d4741c9	0.048646722
147	0xbc87f67f	-0.01659703
148	0xbd2e9f93	-0.04263265
149	0x3c2b829e	0.010468153
150	0xbc958331	-0.018251033
151	0xbd83150b	-0.06400498
152	0x3c0f661b	0.008752371
153	0xbc6ce9e1	-0.014460058
154	0x3aec3dfa	0.0018023842
155	0xbc164e05	-0.009173875
156	0xbcdd334b	-0.027001997
157	0x3c5be141	0.013420404
158	0xbd2b3ce6	-0.041806124
159	0xbda1071b	-0.078626834
160	0x3b71c97e	0.003689378
161	0xbd9d092e	-0.076677665
162	0xbd36d824	-0.04463972
163	0xbcfc4c0a	-0.030797977
164	0xbc231a3d	-0.009954986
165	0xbcc12940	-0.02357924
166	0xbd7f6197	-0.06234893
167	0xbd440175	-0.047852952
168	0xbb158a07	-0.0022817866
169	0x3c3bdf58	0.0114668235
170	0x3d1c9f6b	0.03823797
171	0xbda96683	-0.08271506
172	0xbc8d2bda	-0.017232824
173	0xbdf9b24d	-0.12192211
174	0x3c5cc4eb	0.013474683
175	0x3d0672a8	0.03282419
176	0xbd112cbb	-0.03544305
177	0x3d27cb06	0.040965103
178	0xb8804557	-6.116431e-05
179	0x3d058e5d	0.03260647
180	0xbc11048f	-0.0088511845
181	0x3d0fcc32	0.035106845
182	0xbc5962f3	-0.01326822
183	0xbd50f08c	-0.051010653
184	0xbd56b1dd	-0.052415717
185	0x3cc39519	0.023874806
186	0x3b5a0653	0.003326793
187	0x3d0ae46e	0.033909254
188	0x3d77253f	0.060338255
189	0xbc8bdfb0	-0.017074436
190	0x3bef08f8	0.0072947703
191	0xbd50d162	-0.050980933
192	0xbd4a1595	-0.04933699
193	0xbd187c85	-0.037228126
194	0x3d19bebc	0.037535414
195	0x3c8747f9	0.016513811
196	0x3d6538de	0.055962436
197	0x3d4ff6cd	0.050772477
198	0xbd6725b4	-0.05643244
199	0xbd5b58b0	-0.053551376
200	0xbc3ccc45	-0.011523311
201	0xbd98511a	-0.07437344
202	0x3d04fb64	0.032466307
203	0xbd674282	-0.05645991
204	0xbdb942b0	-0.09045923
205	0xbc841f9e	-0.016128357
206	0x3cbcf258	0.023064777
207	0x3dd697ec	0.104781955
208	0xbdd7222f	-0.10504567
209	0xbced1034	-0.02893839
210	0x3c6302f7	0.013855687
211	0xbd86c585	-0.065806426
212	0xbd46e47d	-0.048557747
213	0xbbed74b2	-0.007246577
214	0xbd46d362	-0.048541434
215	0xbcb6bb4d	-0.022306109
216	0x3c797993	0.015226739
217	0x3c189797	0.009313486
218	0xbc956898	-0.01823835
219	0xbd17e39a	-0.037082292
220	0xbb7707d4	-0.0037693875
221	0xbc542725	-0.012948786
222	0xbd35caff	-0.044383045
223	0x3cdfef40	0.027335763
224	0xbc1af309	-0.009457358
225	0xbc4c7ac3	-0.012480441
226	0x3bc5ede7	0.006040323
227	0x3ca89187	0.020577205
228	0xbd638501	-0.055546764
229	0xbd650ab2	-0.055918403
230	0xbd789c47	-0.060695913
231	0xbd3023b5	-0.043002803
232	0xbd8af028	-0.067840874
233	0xbd21c005	-0.039489765
234	0x3b91f653	0.004454413
235	0xbc8930a9	-0.016746836
236	0x3ca6ece4	0.02037663
237	0xbd6502c6	-0.055910848
238	0xbbc043ef	-0.0058674733
239	0xbd54c32e	-0.05194395
240	0xbba72f36	-0.0051020635
241	0x3c5f3c83	0.013625267
242	0x3cd922dd	0.026505882
243	0xbd3d7db5	-0.04626246
244	0xbcb8cfca	-0.022560019
245	0xbc8294d6	-0.015940111
246	0xbda51c30	-0.08062017
247	0xbb39d1d5	-0.002835383
248	0xbda5b3ce	-0.08090936
249	0x3c45ddf7	0.012076846
250	0xbd8705b6	-0.06592886
251	0xbd267aca	-0.040644445
252	0x3cce5989	0.025189178
253	0x3b7904d6	0.0037997267
254	0xbd01f82e	-0.031730823
255	0xbdb75644	-0.08952001

encoder.W_o.bias f4 [128]
0	0xbc8c3fe6	-0.017120313
1	0xbcbb3b3a	-0.02285539
2	0xbd82ea52	-0.06392349
3	0xbcd7437b	-0.026277294
4	0x3d8f2060	0.06988597
5	0x3cd83dd9	0.026396679
6	0xbdc092c5	-0.09402994
7	0x3de2ddb1	0.110774405
8	0xbdbdad9e	-0.092616305
9	0x3d86ac89	0.06575877
10	0xbd030afb	-0.031992894
11	0xbd5dbaee	-0.05413335
12	0x3dc72080	0.09722996
13	0x3da4795a	0.080309585
14	0x3d103d16	0.035214506
15	0xbe53a72b	-0.20669238
16	0x3cd31a6d	0.025769437
17	0xbdb6ee9b	-0.08932229
18	0xbc8017e2	-0.015636388
19	0x3d33b53c	0.04387401
20	0xbc26bd24	-0.010176931
21	0xbc3563f6	-0.011071196
22	0xbdab3704	-0.08360103
23	0xbcbb4165	-0.022858331
24	0x3db91b1a	0.09038372
25	0xbd524ed8	-0.051344723
26	0xbd8eaf25	-0.06967
27	0xbcce29ae	-0.025166359
28	0xbb865942	-0.004099996
29	0xbdc377f5	-0.09544364
30	0xbc5fc527	-0.013657845
31	0x3d8332fc	0.06406209
32	0xbc47fb95	-0.012205978
33	0x3e347cc1	0.17625715
34	0xbc7043f8	-0.0146646425
35	0x3dc74ddc	0.09731647
36	0xbdc7eeba	-0.0976233
37	0x3d97b2cd	0.074071504
38	0xbda3840c	-0.0798417
39	0xbcfc4d24	-0.030798502
40	0xbd468656	-0.048467956
41	0xbb2cf68f	-0.0026392078
42	0xbda8e567	-0.0824688
43	0x3d73bd3b	0.059506636
44	0xbd8e0c95	-0.069359936
45	0xbd73f2e6	-0.059557818
46	0xbd0a87d1	-0.03382093
47	0xbdfc55f2	-0.1232108
48	0xbdbc0157	-0.09179943
49	0xbd5e814c	-0.054322526
50	0x3c5a5b04	0.013327364
51	0x3bd246e9	0.0064171446
52	0x3b4cbbe3	0.003123992
53	0x3a7da2a3	0.0009675419
54	0xbb49b724	-0.0030779326
55	0xbd99ed0c	-0.07515916
56	0xbddd4129	-0.10803444
57	0xbdbd0f4a	-0.09231432
58	0x3dabe12c	0.083925575
59	0x3d5a5479	0.053303216
60	0xbc866329	-0.016404705
61	0x3c95e918	0.018299624
62	0xbd792ac2	-0.060831793
63	0xbdb7239d	-0.089423396
64	0x3dd5d77d	0.10441492
65	0xbdd190cb	-0.10232695
66	0x3d255409	0.040363345
67	0xbdf1f01b	-0.118133746
68	0x3d30c922	0.043160565
69	0xbdade9ea	-0.08491881
70	0x3e192649	0.14956011
71	0xbd976383	-0.07392027
72	0x3dbbb22a	0.091648415
73	0xbda8da56	-0.08244769
74	0xbdc4ee7d	-0.096158005
75	0xbd029e35	-0.03188916
76	0xbd200a05	-0.039072055
77	0xbe4801a6	-0.19531879
78	0xbd8c3e75	-0.0684785
79	0xbd0def9f	-0.03465235
80	0xbbdfc71f	-0.006829157
81	0xbbc15da0	-0.0059010535
82	0xbd89a245	-0.067204036
83	0x3dc37534	0.09543839
84	0xbcadf4e0	-0.02123493
85	0xbb02bf30	-0.0019950382
86	0xbd393169	-0.045213137
87	0xbe062860	-0.1310134
88	0x3e0188d6	0.12649855
89	0xbd5c08fd	-0.05371951
90	0xbabd1554	-0.0014425912
91	0xba84917e	-0.0010114161
92	0xbc8e2f9e	-0.01735669
93	0xbd1ed4be	-0.038777106
94	0xbe209818	-0.15683019
95	0x3b382286	0.002809675
96	0x3e231a33	0.15927963
97	0x3e3606c3	0.17776017
98	0xbdaf8ad8	-0.08571404
99	0x3caf9e3f	0.021437762
100	0xbd8d80d0	-0.06909335
101	0xbe134034	-0.1437996
102	0xbdb7e2ce	-0.089788064
103	0xbda82abc	-0.08211276
104	0xbe2cd9a7	-0.16879903
105	0xbd13c50e	-0.036076598
106	0x3c4281bf	0.011871754
107	0xbdb86091	-0.090027936
108	0xbdc6b2e9	-0.09702093
109	0xbcccea4a	-0.025014061
110	0xbdeae11e	-0.11468719
111	0xbd00af4a	-0.03141717
112	0xbddcb928	-0.10777503
113	0x3d151a3c	0.036401972
114	0xbda8d090	-0.08242905
115	0xbd87d357	-0.06632107
116	0xbd7a898c	-0.06116633
117	0xbcf2e866	-0.029651832
118	0xbbc3690d	-0.0059634508
119	0xbb8d83fc	-0.0043187123
120	0xbdc1f382	-0.094702736
121	0x3daaaa79	0.08333296
122	0xbdc0cf21	-0.09414507
123	0xbdbe4342	-0.09290172
124	0xbd281fdf	-0.04104602
125	0xbd9c6cfe	-0.07637976
126	0x3d8c0bf7	0.068382196
127	0x3dc6fb89	0.09715945

ffn.1.weight f4 [64, 128]
0	0xbda9000d	-0.08251963
1	0x3e33f821	0.17575122
2	0xbdd26986	-0.10274033
3	0x3d8babf6	0.06819908
4	0xbe6bcc24	-0.23027092
5	0xbe7ab2b3	-0.24482231
6	0xbd4341c9	-0.04767016
7	0xbcd6af44	-0.02620662
8	0x3d5882d8	0.052859157
9	0x3e6e2084	0.23254591
10	0xbd96b981	-0.07359601
11	0x3ca69877	0.020336373
12	0x3f493403	0.7859499
13	0x3b7151a7	0.003682235
14	0x3eaa3a4d	0.33247605
15	0x3eb79f72	0.35863835
16	0x3e669c1d	0.2252049
17	0x3c3e5e8b	0.0116192205
18	0x3c1083dd	0.008820501
19	0x3e824ea7	0.25450632
20	0xbd5f53b6	-0.054523192
21	0xbec63b57	-0.38717148
22	0xbd3bc309	-0.045840297
23	0x3daa2b7d	0.08309076
24	0x3c9ef6a9	0.019404726
25	0x3d041b10	0.03225237
26	0x3de32349	0.110907145
27	0xbd75e0b2	-0.06002874
28	0x3d41ea36	0.0473425
29	0x3dd4c32d	0.10388789
30	0xbea74af0	-0.3267436
31	0x3d2e1182	0.042497166
32	0x3e92e595	0.28690782
33	0xbb6c2c4e	-0.003603715
34	0xbcbc77eb	-0.0230064
35	0xbf2a19cf	-0.6644563
36	0x3da77e51	0.0817839
37	0x3cf70458	0.030153438
38	0xbd3ec97f	-0.04657888
39	0x3cf7d793	0.030254161
40	0x3e446547	0.19179259
41	0x3fa237af	1.2673243
42	0xbbcda269	-0.0062754643
43	0xbe5ceab9	-0.21573915
44	0xbe12d3c5	-0.14338596
45	0x3ca59e6e	0.020217147
46	0xbd8df1b1	-0.069308646
47	0xbc23ab14	-0.009989519
48	0x3d90a8f3	0.070634745
49	0xbe381678	-0.17977321
50	0xbcfcb7e7	-0.03084941
51	0xbb5c89e2	-0.003365152
52	0x3c948360	0.01812905
53	0x3d99d7fb	0.07511898
54	0x3da432d9	0.08017511
55	0xbdcbfadc	-0.09959957
56	0xbe14b2cd	-0.14521332
57	0xbd2bb3b2	-0.041919418
58	0xbe299d06	-0.16563806
59	0xbee12ca4	-0.4397937
60	0x3cbc2111	0.022964986
61	0xbd6dbb18	-0.058039755
62	0x3ea02e84	0.3128549
63	0x3d970365	0.07373694
64	0x3e861b8c	0.26192892
65	0xbd6095f5	-0.05483051
66	0x3e81faca	0.2538665
67	0x3cd6586b	0.026165208
68	0x3da21b60	0.079153776
69	0x3cfc2c5b	0.03078287
70	0x3df1995a	0.117968276
71	0x3cd48095	0.025940219
72	0xbe890240	-0.2675953
73	0x3d38fc20	0.04516232
74	0xbca7bea5	-0.020476649
75	0x3cc7e205	0.024399767
76	0xbcd4fbac	-0.025998913
77	0x3f331a2d	0.69961816
78	0x3c375c74	0.011191476
79	0xbd7c2797	-0.061561193
80	0xbf79cdac	-0.97579455
81	0x3f612530	0.8794737
82	0x3e28de5a	0.1649107
83	0xbe2c8adb	-0.16849844
84	0x3cf769a2	0.030201737
85	0x39e7fa1d	0.00044246102
86	0xbd0108f9	-0.031502698
87	0xbd3c2a9f	-0.045939084
88	0xbe1dd7a2	-0.15414289
89	0xbd8dff03	-0.06933405
90	0xbf03deba	-0.5151173
91	0xbca150fe	-0.01969194
92	0x3cc63c62	0.024198715
93	0xbd3f0e78	-0.046644658
94	0x3eceed41	0.40415385
95	0xbeead032	-0.45861965
96	0xbef82166	-0.4846298
97	0xbd1f6efa	-0.038924195
98	0x3cdd691d	0.027027661
99	0xbe558ee6	-0.20855293
100	0x3d7cac6a	0.061687864
101	0xbd974e1c	-0.07387945
102	0xbdcaa500	-0.098947525
103	0x3cc5dedd	0.024154121
104	0x3d594f93	0.053054404
105	0xbd255e64	-0.04037322
106	0x3eca5605	0.39518753
107	0xbccd65ac	-0.025072895
108	0xbda16cdc	-0.078820914
109	0xbd744d57	-0.05964407
110	0x3e82794d	0.2548317
111	0x3c72094b	0.014772723
112	0x3d7b74c0	0.06139064
113	0x3e2621ee	0.1622388
114	0x3dbb9852	0.09159912
115	0xbd93fe35	-0.072262205
116	0xbdb8d6f0	-0.09025371
117	0xbebb4a79	-0.36580256
118	0x3e7ca5b8	0.24672592
119	0xbd22e26a	-0.039766707
120	0x3d4d7fbb	0.05017064
121	0xbe6e931b	-0.23298304
122	0xbbf11cec	-0.007358184
123	0xbd3a25e7	-0.045446303
124	0xbc02f920	-0.007993966
125	0xbdfcb6b1	-0.12339533
126	0x3ea6b5dd	0.32560626
127	0xbe8c0e4a	-0.27354652
128	0x3d4bd1df	0.049760696
129	0xbe6daf1c	-0.2321133
130	0xbcc0b129	-0.023521977
131	0xbdd19106	-0.10232739
132	0xbebf9253	-0.37416324
133	0xbdce9e85	-0.10088829
134	0x3bca0778	0.006165441
135	0xbced4964	-0.02896566
136	0x3c7fa010	0.015602127
137	0x3e5c4b09	0.21512999
138	0xbda010c1	-0.078156956
139	0x3db54f1f	0.08852982
140	0x3f1a4b07	0.6027073
141	0x3c20eb18	0.009821676
142	0x3de05ceb	0.10955223
143	0x3e28d521	0.16487552
144	0x3eb77d02	0.3583756
145	0x3ddc999f	0.107714884
146	0x3dca244a	0.09870203
147	0xbe90d6b2	-0.282888
148	0x3da8fe83	0.08251669
149	0xbe63edb5	-0.22258647
150	0x3b0aa548	0.0021155644
151	0x3c465dd1	0.0121073285
152	0xbc82dfef	-0.01597592
153	0xbd6f7930	-0.058465183
154	0x3e3ac428	0.1823889
155	0x3b7c94b3	0.003854078
156	0xbc6c6bc9	-0.014429995
157	0x3e137c82	0.14402965
158	0xbe5c1a89	-0.21494497
159	0x3d24f77b	0.04027508
160	0x3eaf8544	0.3428136
161	0x3d268cdd	0.04066168
162	0xbd91520e	-0.07095729
163	0xbea35a91	-0.31905034
164	0xbdc116bf	-0.094281666
165	0x3bca6bd8	0.0061774068
166	0x3d2e9e21	0.042631272
167	0x3cf6f208	0.030144706
168	0x3deaca35	0.11464349
169	0x3f39a578	0.7251811
170	0x3c272c15	0.010203381
171	0x3d8303cf	0.06397211
172	0xbe944809	-0.28961208
173	0xbc8ddd82	-0.017317537
174	0xbdc6362e	-0.09678303
175	0x3c2f9a38	0.010717921
176	0x3d19372f	0.037406143
177	0xbd54657b	-0.05185459
178	0x3d833db4	0.06408253
179	0x3dbef063	0.09323194
180	0xbd9e32e5	-0.07724551
181	0xbb75d49c	-0.0037510758
182	0x3d974dbc	0.073878735
183	0xbeec62e3	-0.46169195
184	0xbe671d0a	-0.22569671
185	0xbd8aba0b	-0.06773766
186	0xbdc69de9	-0.09698088
187	0xbe544c9a	-0.20732346
188	0xbd7aa9b6	-0.061197005
189	0xbc3fad66	-0.011699056
190	0x3e32ff6f	0.17480253
191	0x3d1b5926	0.037926815
192	0x3f0223ff	0.50836176
193	0xbd302333	-0.04300232
194	0xbd316519	-0.043309305
195	0x3da25810	0.07926953
196	0x3dd5a4ae	0.10431801
197	0x3d984ed6	0.07436912
198	0x3de1a889	0.11018474
199	0x3c52fbdb	0.01287743
200	0xbe2304df	-0.15919827
201	0xbd3735f3	-0.044729184
202	0xbd463a29	-0.04839531
203	0x3d8ea04a	0.069641665
204	0x3a0593a0	0.0005095545
205	0x3e9c9d89	0.3058894
206	0x3d136041	0.035980467
207	0xbda83a58	-0.08214253
208	0xbf8de603	-1.1085819
209	0x3f49b596	0.78792703
210	0x3d727929	0.05919758
211	0xbe6bce1e	-0.23027846
212	0xbd902b0d	-0.07039461
213	0x3d47ad82	0.048749454
214	0x3d2843f5	0.041080434
215	0x3cae10a3	0.021248167
216	0xbdd00c2e	-0.10158573
217	0x3c238f6c	0.009982925
218	0x3d8e9c00	0.069633484
219	0xb9956397	-0.00028493695
220	0x3d45fded	0.048337866
221	0xbd5d77a2	-0.05406917
222	0x3db11b16	0.08647744
223	0xbf443dd5	-0.7665685
224	0xbf1969f5	-0.599273
225	0xbee1b080	-0.4407997
226	0xbda7858e	-0.081797704
227	0xbebd68e5	-0.3699409
228	0x3d22532f	0.03963011
229	0xbd4b3770	-0.049613416
230	0xbdee9404	-0.116493255
231	0xbdaf7a9c	-0.08568308
232	0x3d68e494	0.056858614
233	0x3e13c5c5	0.14430912
234	0x3ea1546a	0.31509715
235	0x3d819fb4	0.06329289
236	0xbd032f67	-0.03202763
237	0x3ce3727b	0.02776455
238	0x3e085f89	0.13317694
239	0xbdb42b7a	-0.08797355
240	0xbebde2b7	-0.37087032
241	0x3e38318b	0.17987649
242	0xbd821c3d	-0.06353042
243	0x3d1483a6	0.036258362
244	0x3ca41033	0.020027256
245	0xbeb4278b	-0.3518642
246	0xbeace072	-0.33764988
247	0x3c38a2c2	0.011269273
248	0x3d8f64dc	0.07001659
249	0x3dc97fba	0.09838815
250	0x3d85f12a	0.06540139
251	0xbdb83dd7	-0.0899617
252	0xbdfa2f27	-0.12216025
253	0xbec4c342	-0.3843022
254	0xbb65c6a7	-0.0035061033
255	0xbf182eef	-0.59446615

ffn.1.bias f4 [64]
0	0x3dd58770	0.10426223
1	0x3e512fd0	0.20428395
2	0xbd22a75d	-0.03971039
3	0xbe236bb5	-0.15959056
4	0xbe5a11a4	-0.21295792
5	0x3e585674	0.21126729
6	0xbc233360	-0.009960979
7	0x3d41bd62	0.04729975
8	0x3e18b545	0.14912899
9	0xbe26e37e	-0.16297719
10	0x3dba952d	0.09110484
11	0xbd7f7b89	-0.06237367
12	0xbe4273f6	-0.18989548
13	0xbcab6d0d	-0.020926023
14	0x3e6a4acf	0.228801
15	0xbe01b394	-0.1266616
16	0x3e0b61a0	0.1361146
17	0x3e50d114	0.20392257
18	0x3e6a60eb	0.22888534
19	0x3e031903	0.1280251
20	0x3e5a888f	0.21341155
21	0x3e07b376	0.13252053
22	0x3d345944	0.044030443
23	0xbd88676b	-0.066603504
24	0xbc863e3d	-0.0163871
25	0xbe4f397b	-0.20236771
26	0x3e3447de	0.1760554
27	0xbdf37a2f	-0.11888539
28	0xbcb5cd5d	-0.022192651
29	0xbe4b7f14	-0.19872695
30	0xbdabd2ca	-0.08389814
31	0x3db5f33b	0.08884283
32	0x3dea74d0	0.114480615
33	0xbe472eb8	-0.19451416
34	0xbda9b932	-0.08287276
35	0xbdee3149	-0.11630494
36	0x3e8a54de	0.27017874
37	0x3db90b7a	0.09035392
38	0x3bd01f59	0.006351393
39	0xbe088a58	-0.13334024
40	0xbe2d92e0	-0.1695056
41	0xbceac4d9	-0.028658317
42	0xbdcfd4f3	-0.10148039
43	0xbe527858	-0.2055372
44	0xbd6df241	-0.05809236
45	0x3d6797a9	0.05654112
46	0x3e487f02	0.195797
47	0x3de47aaa	0.11156209
48	0x3d081388	0.03322175
49	0x3d6aa400	0.05728531
50	0xbda28bd8	-0.07936829
51	0x3e153edb	0.14574759
52	0xbc991c9c	-0.0186904
53	0x3db45b19	0.08806438
54	0x3c98e645	0.018664489
55	0x3ccb775c	0.024837188
56	0x3df7bfe1	0.12097145
57	0x3d7e57bf	0.0620954
58	0xbdfb8473	-0.12281122
59	0xbdd901e9	-0.105960675
60	0xbe3999a5	-0.18125017
61	0x3ddfbf67	0.10925179
62	0x3d403e75	0.046934564
63	0x3e7977bf	0.24362086

ffn.4.weight f4 [64, 64]
0	0xbc903c8d	-0.017606998
1	0x3d27fe00	0.041013718
2	0xbd2dec8d	-0.04246192
3	0xbdff6c13	-0.124717854
4	0x3cff3e46	0.031157624
5	0xbd15e24a	-0.03659276
6	0xbe5f0b86	-0.2178174
7	0x3d62f4d9	0.055409286
8	0x3df2d2c1	0.11856604
9	0xbd6ba7f2	-0.057533212
10	0x3db85ceb	0.09002098
11	0x3dc5e9d1	0.096637376
12	0x3e16bb4f	0.1471989
13	0x3e04bede	0.12963435
14	0x3dd5bf97	0.104369335
15	0xbe6ef134	-0.23334199
16	0xbdbef6c6	-0.09324412
17	0xbdb2901d	-0.08718894
18	0x3db279c6	0.08714633
19	0xbe4287fb	-0.18997185
20	0x3e046a43	0.1293116
21	0xbd2f5168	-0.042802244
22	0x3de4b1a5	0.111666955
23	0xbe362044	-0.17785746
24	0x3dd43265	0.103611745
25	0xbce8a074	-0.028396823
26	0x3dabc54e	0.08387242
27	0x3d140b11	0.036143366
28	0xbc3991bb	-0.011326249
29	0xbe0b5a1b	-0.13608591
30	0xbda04207	-0.07825094
31	0xbdddd6ce	-0.10831986
32	0xbc23f49f	-0.010007053
33	0xbe0d076c	-0.13772362
34	0xbdf02edf	-0.1172769
35	0x3d5880eb	0.05285732
36	0x3da12939	0.07869191
37	0x3e54f8b0	0.20797992
38	0xbd9c621b	-0.076359
39	0xbe11c9fc	-0.14237207
40	0xbdecbf0f	-0.11559879
41	0x3e860512	0.26175743
42	0xbdb46a6b	-0.0880936
43	0xbc6ceb32	-0.014460372
44	0xbe489f9a	-0.19592133
45	0x3ca4bf48	0.020110741
46	0x3ba8e3b3	0.005154097
47	0xbdb924bf	-0.09040212
48	0xbe12dade	-0.14341304
49	0x3d7c62ee	0.061617784
50	0xbe5f3f8a	-0.21801582
51	0xbd68f33d	-0.056872595
52	0x3c4ca2fd	0.012490031
53	0x3b4c347d	0.0031159215
54	0xbdfbfb2e	-0.12303768
55	0x3e1126dc	0.1417498
56	0xbc9ba8b1	-0.019001337
57	0xbd851aae	-0.06499229
58	0x3d700626	0.058599614
59	0xbc1366a5	-0.00899664
60	0x3d5f8891	0.0545736
61	0xbc81a9d0	-0.015828043
62	0x3e1d1597	0.15340267
63	0xbdab4f7f	-0.08364772
64	0x3de794a8	0.11307651
65	0xbd80c736	-0.062879965
66	0xba8658f0	-0.0010249894
67	0x3e189cf5	0.14903624
68	0x3ded6f62	0.1159351
69	0xbe83daa8	-0.2575276
70	0xbd0320ae	-0.032013588
71	0x3d5287a0	0.051398873
72	0x3d8bfd2e	0.068353996
73	0x3e2e3e4e	0.17015955
74	0xbd270748	-0.04077843
75	0x3e1c6c69	0.1527573
76	0x3e942571	0.28934816
77	0xbd537c8f	-0.05163246
78	0xbe84fa40	-0.25972176
79	0x3e36e940	0.17862415
80	0xbe080a33	-0.1328514
81	0xbe2ba402	-0.16761783
82	0x3d502f22	0.0508262
83	0xbde6f6e4	-0.112775594
84	0xbd38775e	-0.045035712
85	0xbdb64805	-0.089004554
86	0x3c0fbab1	0.008772538
87	0xbdc0d126	-0.09414892
88	0xbca3302c	-0.019920431
89	0x3ea2c57a	0.31791288
90	0xbe02cd97	-0.12773739
91	0x3de29e99	0.11065406
92	0xbda3946f	-0.07987296
93	0x3d1ab670	0.037771642
94	0x3c70523e	0.014668046
95	0xbc81f750	-0.015864998
96	0xbddfed32	-0.10933913
97	0x3e459b9e	0.19297644
98	0xbd7a653a	-0.061131693
99	0x3e608ec5	0.21929462
100	0xbad1fe3d	-0.0016021203
101	0xbdabddfa	-0.08391948
102	0x3a9a61d7	0.0011778426
103	0x3da7adfb	0.08187481
104	0x3d914a24	0.07094219
105	0xbcc94c3c	-0.024572484
106	0xbc97cfc8	-0.018531695
107	0x3e281c21	0.1641698
108	0xbdb02fab	-0.08602842
109	0xbdb22e45	-0.087002315
110	0xbc813969	-0.015774446
111	0xbe30fe2a	-0.17284456
112	0xbce6ee2b	-0.02818974
113	0x3d2390dd	0.039933074
114	0x3da3e76b	0.08003124
115	0x3ccdf992	0.025143418
116	0x3c86dbc0	0.016462207
117	0x3dacffc7	0.08447223
118	0xbd01f431	-0.03172702
119	0xbe259429	-0.161698
120	0xbd2d3cfc	-0.042294487
121	0xbdf353f9	-0.11881251
122	0x3d7098e8	0.058739573
123	0x3df2a03f	0.11846971
124	0x3e248121	0.16064884
125	0x3cd5f676	0.026118498
126	0x3c59c37c	0.013291236
127	0xbe3f5199	-0.18683471
128	0x3d7682fd	0.060183514
129	0x3d45057a	0.048100926
130	0x3d21ea76	0.03953024
131	0xbddeaa96	-0.108723804
132	0xbc7fc135	-0.015610029
133	0xbe99f20a	-0.30067474
134	0xbcfda34a	-0.030961651
135	0xbcbc2bd4	-0.022970118
136	0xbd82dc20	-0.06389642
137	0x3cd89145	0.026436457
138	0xbd6be1e0	-0.057588458
139	0x3d065d88	0.032804042
140	0x3e849cc6	0.2590086
141	0x3cf08096	0.02935819
142	0xbe92500d	-0.285767
143	0x3e291a97	0.1651405
144	0x3c88550b	0.016642114
145	0xbe64caad	-0.2234294
146	0xbe1fe480	-0.1561451
147	0xbe2a2e19	-0.16619147
148	0xbe0b448b	-0.13600366
149	0xbd189401	-0.037250523
150	0xbe02eb6a	-0.12785116
151	0xbd4a0fec	-0.04933159
152	0x3d9599c3	0.07304718
153	0x3df1d863	0.118088506
154	0xbddb1fc7	-0.106994204
155	0x3e6bb583	0.2301846
156	0xbcad8cbe	-0.021185275
157	0x3e62f212	0.22162655
158	0x3dbdd6ee	0.0926951
159	0x3cd9f7db	0.026607445
160	0xbe380ccc	-0.17973632
161	0x3e3fbab9	0.18723573
162	0xbe0a0cda	-0.13481465
163	0x3e736ace	0.23771212
164	0xbd5b41d1	-0.053529564
165	0xbcdda82f	-0.027057735
166	0x3cacc47a	0.021089781
167	0xbd1fce89	-0.039015327
168	0x3d77603a	0.060394503
169	0x3dbf2107	0.09332471
170	0x3e648019	0.2231449
171	0xbbdd7619	-0.006758463
172	0xbde1ab54	-0.11019006
173	0x3d2e3ce4	0.04253854
174	0xbdbf0d12	-0.09328665
175	0xbe44a941	-0.1920519
176	0x3d9cdb08	0.076589644
177	0xbe3b4698	-0.18288648
178	0xbcd6bf73	-0.026214337
179	0xbdf686ee	-0.120374545
180	0x3d020ef1	0.03175253
181	0x3bcb947a	0.006212768
182	0x3d7cecaa	0.061749138
183	0xbd5b2985	-0.053506393
184	0xbd595e3c	-0.053068385
185	0xbddd7c23	-0.10814693
186	0x3df35874	0.118821055
187	0x3e65c8c1	0.22439863
188	0x3e0c0df3	0.13677196
189	0xbc88dc19	-0.016706513
190	0x3c16c9f5	0.009203424
191	0xbe842d8f	-0.25816008
192	0x3e39e5a9	0.18154015
193	0xbdfac28a	-0.12244137
194	0xbe257add	-0.1616015
195	0xbe4b4bf1	-0.19853188
196	0x3b9ddf96	0.0048179133
197	0xbc0ec987	-0.00871504
198	0xbe1fd495	-0.15608437
199	0x3d99838c	0.07495794
200	0x3e0e9f46	0.13927945
201	0xbd7e06eb	-0.062018316
202	0xbd335526	-0.043782376
203	0xbdee1a2d	-0.116260864
204	0xbde87929	-0.113512345
205	0xbe49b58e	-0.19698164
206	0x3d99684e	0.07490598
207	0xbe0330f8	-0.12811649
208	0x3e27b255	0.16376622
209	0xbe2ea8df	-0.17056607
210	0x3db64ea9	0.08901722
211	0x3c5bc735	0.013414194
212	0xbcb57980	-0.022152662
213	0x3dab18b3	0.083543204
214	0x3e49b06a	0.19696203
215	0xbe3a9f69	-0.18224873
216	0xbe014185	-0.1262265
217	0xbd7c3137	-0.061570372
218	0x3c63b40e	0.013897909
219	0xbbb77acc	-0.0055993553
220	0x3d60ad4c	0.05485277
221	0x3d365694	0.04451616
222	0xbb95562f	-0.004557393
223	0x3d3c38de	0.04595267
224	0xbe6205ff	-0.220726
225	0x3cc7b7d2	0.024379645
226	0x3dcd313a	0.10019155
227	0x3e02ffc9	0.12792887
228	0xbe059d95	-0.13048394
229	0x3b17770a	0.0023111724
230	0x3d495e40	0.04916215
231	0xbdb4c7e8	-0.088271916
232	0xbab1495c	-0.0013525891
233	0xbcb808a6	-0.022465061
234	0xbd4c1c09	-0.049831424
235	0xbe134817	-0.14382969
236	0xbd0dc6f4	-0.034613565
237	0x3e56f5fa	0.2099227
238	0xbdfe4238	-0.12414974
239	0xbe0cfaab	-0.13767497
240	0xbc3e47c5	-0.011613791
241	0x3eb32a2e	0.34993118
242	0xbbba9783	-0.005694331
243	0xbdd43691	-0.1036197
244	0xbe5c8bec	-0.21537751
245	0x3d83df3a	0.064390615
246	0x3ca7bc2d	0.020475471
247	0xbe899865	-0.2687408
248	0x3e72ea93	0.23722295
249	0x3d332054	0.043732002
250	0xbd6a3070	-0.0571751
251	0x3e319809	0.17343153
252	0x3dd5c3e6	0.10437755
253	0xbe73e38b	-0.2381727
254	0x3dc9ee9b	0.098599635
255	0x3d4e1ec6	0.050322317

ffn.4.bias f4 [64]
0	0xbdb7c2fc	-0.08972737
1	0xbe17f0cc	-0.1483795
2	0xbdd3cadc	-0.10341427
3	0xbc2dee29	-0.010615864
4	0xbe8db8f6	-0.27680176
5	0xbd34fdda	-0.044187404
6	0x3d9ea8f2	0.077470675
7	0x3d1f2278	0.03885123
8	0xbe3b4570	-0.18288207
9	0xbe4beac1	-0.1991377
10	0xbc5cb266	-0.013470268
11	0x3dbac67c	0.09119889
12	0x3cdd338c	0.027002119
13	0xbdefc4f0	-0.11707485
14	0xbd0e41eb	-0.034730833
15	0x3c82a88e	0.015949514
16	0x3c5add76	0.013358464
17	0xbce58576	-0.02801774
18	0x3cd45fa8	0.025924519
19	0xbd823099	-0.063569255
20	0xbddd3172	-0.108004466
21	0x3b23a14d	0.002496797
22	0xbddf6b9b	-0.10909196
23	0x3d8feb72	0.070273295
24	0x3deefd67	0.116694264
25	0x3ca43e9a	0.020049382
26	0x3d1c1d9d	0.03811418
27	0xbd955174	-0.072909266
28	0x3d5769f4	0.05259128
29	0xbc84e377	-0.016221745
30	0xbce1dfb9	-0.0275725
31	0x3da136fe	0.07871817
32	0xbd613ad4	-0.054987743
33	0x3e059b90	0.13047624
34	0xbe1059c4	-0.14096743
35	0x3e48e3d8	0.19618165
36	0x3daa8d0f	0.08327686
37	0x3d0467b0	0.032325447
38	0xbdb6d573	-0.08927431
39	0xbb582b2f	-0.0032984724
40	0xbe76e534	-0.24110872
41	0xbe95a2cb	-0.29225764
42	0xbe2dbf6f	-0.16967557
43	0x3e77d08e	0.24200651
44	0x3e8260d6	0.25464505
45	0x3ccde9a2	0.025135819
46	0xbbdf537e	-0.006815373
47	0xbeb02781	-0.3440514
48	0x3b3eeab6	0.0029131598
49	0xbd0cc2e3	-0.034365546
50	0xbc6e1167	-0.014530516
51	0x3b1fa5ad	0.0024360225
52	0x3dbcaeca	0.09213026
53	0x3c5eaa8c	0.013590466
54	0x3d7d382d	0.06182115
55	0xbc654c10	-0.0139951855
56	0x3db420bf	0.08795308
57	0x3aa62404	0.0012675528
58	0x3d9e9887	0.07743936
59	0x3d4793e2	0.048725016
60	0xbc87dbdd	-0.016584331
61	0xbe69dfe4	-0.22839314
62	0xbd5f5227	-0.054521706
63	0x3e7f4d6a	0.24931875
