THESIS/transfer_learning/trained/DMPNN_with_attention_QM9_alpha.pt (torch, 347576 bytes, 14 tensors)

encoder.cached_zero_vector f4 [128]
0	0x00000000	0.0
1	0x00000000	0.0
2	0x00000000	0.0
3	0x00000000	0.0
4	0x00000000	0.0
5	0x00000000	0.0
6	0x00000000	0.0
7	0x00000000	0.0
8	0x00000000	0.0
9	0x00000000	0.0
10	0x00000000	0.0
11	0x00000000	0.0
12	0x00000000	0.0
13	0x00000000	0.0
14	0x00000000	0.0
15	0x00000000	0.0
16	0x00000000	0.0
17	0x00000000	0.0
18	0x00000000	0.0
19	0x00000000	0.0
20	0x00000000	0.0
21	0x00000000	0.0
22	0x00000000	0.0
23	0x00000000	0.0
24	0x00000000	0.0
25	0x00000000	0.0
26	0x00000000	0.0
27	0x00000000	0.0
28	0x00000000	0.0
29	0x00000000	0.0
30	0x00000000	0.0
31	0x00000000	0.0
32	0x00000000	0.0
33	0x00000000	0.0
34	0x00000000	0.0
35	0x00000000	0.0
36	0x00000000	0.0
37	0x00000000	0.0
38	0x00000000	0.0
39	0x00000000	0.0
40	0x00000000	0.0
41	0x00000000	0.0
42	0x00000000	0.0
43	0x00000000	0.0
44	0x00000000	0.0
45	0x00000000	0.0
46	0x00000000	0.0
47	0x00000000	0.0
48	0x00000000	0.0
49	0x00000000	0.0
50	0x00000000	0.0
51	0x00000000	0.0
52	0x00000000	0.0
53	0x00000000	0.0
54	0x00000000	0.0
55	0x00000000	0.0
56	0x00000000	0.0
57	0x00000000	0.0
58	0x00000000	0.0
59	0x00000000	0.0
60	0x00000000	0.0
61	0x00000000	0.0
62	0x00000000	0.0
63	0x00000000	0.0
64	0x00000000	0.0
65	0x00000000	0.0
66	0x00000000	0.0
67	0x00000000	0.0
68	0x00000000	0.0
69	0x00000000	0.0
70	0x00000000	0.0
71	0x00000000	0.0
72	0x00000000	0.0
73	0x00000000	0.0
74	0x00000000	0.0
75	0x00000000	0.0
76	0x00000000	0.0
77	0x00000000	0.0
78	0x00000000	0.0
79	0x00000000	0.0
80	0x00000000	0.0
81	0x00000000	0.0
82	0x00000000	0.0
83	0x00000000	0.0
84	0x00000000	0.0
85	0x00000000	0.0
86	0x00000000	0.0
87	0x00000000	0.0
88	0x00000000	0.0
89	0x00000000	0.0
90	0x00000000	0.0
91	0x00000000	0.0
92	0x00000000	0.0
93	0x00000000	0.0
94	0x00000000	0.0
95	0x00000000	0.0
96	0x00000000	0.0
97	0x00000000	0.0
98	0x00000000	0.0
99	0x00000000	0.0
100	0x00000000	0.0
101	0x00000000	0.0
102	0x00000000	0.0
103	0x00000000	0.0
104	0x00000000	0.0
105	0x00000000	0.0
106	0x00000000	0.0
107	0x00000000	0.0
108	0x00000000	0.0
109	0x00000000	0.0
110	0x00000000	0.0
111	0x00000000	0.0
112	0x00000000	0.0
113	0x00000000	0.0
114	0x00000000	0.0
115	0x00000000	0.0
116	0x00000000	0.0
117	0x00000000	0.0
118	0x00000000	0.0
119	0x00000000	0.0
120	0x00000000	0.0
121	0x00000000	0.0
122	0x00000000	0.0
123	0x00000000	0.0
124	0x00000000	0.0
125	0x00000000	0.0
126	0x00000000	0.0
127	0x00000000	0.0

encoder.W_i.weight f4 [128, 147]
0	0xbd89d396	-0.0672981
1	0x3d27fae2	0.041010745
2	0xbd5085e4	-0.050908938
3	0x3cf18291	0.029481204
4	0xbcff5e82	-0.031172995
5	0xbdfaee73	-0.12252512
6	0xbcf60015	-0.030029336
7	0x3d2948f8	0.041329354
8	0xbc8ce2d9	-0.017198013
9	0x3d95c951	0.07313789
10	0x3d8bd091	0.0682689
11	0xbc4c0f5b	-0.012454833
12	0x3d242554	0.04007466
13	0xbcd03144	-0.025414117
14	0x3cf0a3e0	0.029375017
15	0x3da0b518	0.07847041
16	0x3d45a30a	0.04825119
17	0x3d462d37	0.048382964
18	0x3c8ec495	0.017427722
19	0x3d88457d	0.06653879
20	0x3affcb12	0.0019515476
21	0x3d9b6f18	0.07589549
22	0x3bd1f7a4	0.006407695
23	0xbd1ae0ec	-0.03781216
24	0x3a2318a7	0.000622163
25	0xbc703b5a	-0.014662588
26	0x3cf8724f	0.030327944
27	0x3ce110e1	0.027473869
28	0x3b9a57a0	0.0047101527
29	0x3d0b4b74	0.034007505
30	0x3d119a5a	0.03554759
31	0xbcf73fc2	-0.03018177
32	0xbca50c69	-0.02014752
33	0x3d1cee55	0.03831323
34	0x3d96a7f5	0.07356254
35	0x3cf0920f	0.029366521
36	0x3d809640	0.06278658
37	0xbba37c74	-0.004989201
38	0xbd67aed3	-0.05656321
39	0xbd852f00	-0.06503105
40	0xbd9f56e0	-0.07780242
41	0xbda591c9	-0.08084447
42	0xbd0b6825	-0.034034867
43	0xbd1582c2	-0.036501653
44	0xbd4e9279	-0.050432656
45	0xbd426d69	-0.047467623
46	0xbd1452b8	-0.0362117
47	0xbd5f3dfd	-0.054502476
48	0x3cf21f9b	0.029556086
49	0x3ca1c8b2	0.01974902
50	0xbce8d2cc	-0.028420828
51	0x3d250d62	0.040295966
52	0x3d10f656	0.035391174
53	0xbd0c4c23	-0.034252297
54	0x3c70406d	0.014663798
55	0xbcf48b15	-0.029851476
56	0xbd94518d	-0.07242117
57	0xbd9ed671	-0.07755745
58	0xbd0d298d	-0.034463454
59	0xba5ec065	-0.0008497297
60	0xbc982c02	-0.018575672
61	0xbd4053d3	-0.04695494
62	0x3c1a90e9	0.009433963
63	0xbd8564ea	-0.065133885
64	0xbd76d3dd	-0.060260642
65	0x3d4c4396	0.049869142
66	0xbb0e6b03	-0.0021731264
67	0x3cd7c920	0.026341021
68	0x3b889553	0.0041681915
69	0xbd035ab5	-0.032068927
70	0xbd1b87af	-0.037971195
71	0x3d3e140d	0.04640584
72	0x3c9d2790	0.019183904
73	0x3bb606ee	0.0055550253
74	0xbd2111d5	-0.039323647
75	0xbd06c5c8	-0.032903463
76	0x3d3112bb	0.043230753
77	0xbccd1647	-0.025035037
78	0xbb9f9cbb	-0.0048709786
79	0xbc66c8cb	-0.014085959
80	0xbccee8c1	-0.02525747
81	0xbbe999f1	-0.007128947
82	0x3d3e467d	0.04645394
83	0x3d26a2f3	0.040682744
84	0xbd818d0b	-0.0632573
85	0x3d995708	0.07487303
86	0xbd832569	-0.0640362
87	0xbd00e743	-0.03147055
88	0xbd26b4ce	-0.040699773
89	0x3d06562b	0.03279702
90	0xbcc8aef0	-0.02449748
91	0xbd850508	-0.064951
92	0x3d9c6aeb	0.076375805
93	0x3d5893b6	0.052875243
94	0xbda129e5	-0.07869319
95	0xbd3a85dc	-0.045537814
96	0x3c228427	0.009919203
97	0x3c7abe57	0.01530417
98	0xbda7e8d4	-0.08198705
99	0xbd20bd13	-0.039242815
100	0x3da5459f	0.0806992
101	0xbd281b87	-0.041041877
102	0xbcd47c28	-0.025938109
103	0x3bcbde9b	0.006221605
104	0x3cb42415	0.021989862
105	0xbafc96c7	-0.0019271009
106	0x3da0f4bf	0.078591816
107	0xbd0dddc9	-0.03463534
108	0xbc913af5	-0.017728308
109	0x3ccb482b	0.024814686
110	0xbcf32bcd	-0.029683972
111	0xbd97587a	-0.073899224
112	0xbe025d2a	-0.12730852
113	0x3c4e4ad9	0.012591087
114	0xbe119d1e	-0.14220092
115	0x3d17fdd0	0.03710729
116	0x3d3bf4eb	0.04588787
117	0xbd82e3f2	-0.06391133
118	0x3d40315e	0.04692208
119	0xbc9ef03a	-0.019401658
120	0xbb8bb708	-0.0042637624
121	0x3d1feb27	0.039042618
122	0xbd8f99a1	-0.07011724
123	0x3d8789a0	0.06618047
124	0x3d7cf1c6	0.06175401
125	0xbc9117ff	-0.017711638
126	0xba20272c	-0.00061093527
127	0xbdb70e86	-0.08938317
128	0xbd9d5d0f	-0.07683765
129	0x3c4a5545	0.012349431
130	0xbd9f17a8	-0.07768184
131	0xbda84d01	-0.08217812
132	0xbdfc85ac	-0.123301834
133	0x3d88cfe3	0.06680276
134	0xbd46b7f7	-0.048515286
135	0xbc82510d	-0.015907789
136	0xbd6d271b	-0.057898622
137	0xbda61ca5	-0.08110932
138	0xbcda042c	-0.026613317
139	0xbd7a4da8	-0.061109215
140	0xbd5fc588	-0.05463174
141	0xbcce00a4	-0.02514679
142	0x3d9366b9	0.07197327
143	0xbcaf6f27	-0.021415306
144	0xbda3b98f	-0.07994377
145	0x3cceb696	0.025233548
146	0x3c7206ad	0.014772099
147	0xbd1b0622	-0.037847646
148	0x3d61ffca	0.05517558
149	0x3cab5133	0.020912742
150	0x3d908459	0.07056493
151	0xbd70d89c	-0.058800325
152	0x3ba11665	0.0049159997
153	0xbf0e027c	-0.5547254
154	0xbeeb11df	-0.45912072
155	0xbe313750	-0.17306256
156	0x3c4adb42	0.012381377
157	0xbcfaac5c	-0.030599765
158	0x3d800b11	0.06252111
159	0xbd8fbe7d	-0.07018755
160	0xbd8ae9a7	-0.06782847
161	0xbca84e60	-0.020545185
162	0x3d9e2ea9	0.077237435
163	0x3c88e86c	0.01671239
164	0xbcde3dba	-0.027129043
165	0xbd5f96a7	-0.054587033
166	0x3d9c07b0	0.07618654
167	0xbd8da40d	-0.06916056
168	0x3d8e0f52	0.06936516
169	0xbcb588b8	-0.02215992
170	0x3da78bac	0.08180937
171	0xbc860ebb	-0.016364446
172	0xbc1a1473	-0.00940429
173	0xbd77f7c7	-0.060539033
174	0xbd86e662	-0.06586911
175	0x3ca6bfb1	0.020355077
176	0xbc34fbe8	-0.011046387
177	0x3c8129c2	0.015766982
178	0x3b0c0e71	0.0021370912
179	0xbda78c0d	-0.081810094
180	0xbd375925	-0.04476275
181	0x3d913ec3	0.07092049
182	0xbd9d9eaf	-0.07696282
183	0x3da5e252	0.08099808
184	0xbda03ad9	-0.07823724
185	0xbd69a480	-0.057041645
186	0x3d02fc27	0.031978752
187	0xbcb10b12	-0.021611724
188	0xbd80cc68	-0.062889874
189	0xbd24e2a3	-0.0402552
190	0x3d91a4be	0.071115
191	0xbd47d994	-0.048791483
192	0xbcb0caa2	-0.021580998
193	0x3d5773da	0.05260072
194	0x3d87f4b9	0.06638474
195	0xbcf5def5	-0.03001354
196	0xbd060f3d	-0.032729376
197	0x3d8f75c2	0.070048824
198	0xbb79b06e	-0.0038099545
199	0xbbec0c34	-0.007203603
200	0x3d63c99e	0.0556122
201	0x3da6c51c	0.081430644
202	0x3c759778	0.014989726
203	0x3c5574ae	0.013028307
204	0xbb46a1e1	-0.003030889
205	0xbd9783dd	-0.07398198
206	0x3c006ab2	0.007837938
207	0x3d650af4	0.05591865
208	0xbcdf802d	-0.027282799
209	0xbd9f5682	-0.07780172
210	0xbd2d6bb6	-0.04233905
211	0xbd0cc48e	-0.034367137
212	0xbd8354ec	-0.06412682
213	0x3d97e41d	0.07416556
214	0x3d0c0f91	0.034194533
215	0xbd36a787	-0.04459336
216	0x3d5157e9	0.05110923
217	0x3cfb8006	0.030700695
218	0xbd6207e7	-0.055183318
219	0x3d2d688c	0.04233603
220	0xbd92dc2e	-0.07170902
221	0xbd4938b0	-0.049126327
222	0xbd910795	-0.07081524
223	0xbd56a248	-0.052400857
224	0xbd1a8318	-0.037722677
225	0x3d7eea83	0.062235367
226	0xbbfaa4fb	-0.0076490617
227	0x3c68510f	0.014179482
228	0xbd0bed17	-0.034161653
229	0x3d8ce2d6	0.06879203
230	0x3da636da	0.08115931
231	0x3d8efd87	0.0698195
232	0x3c844471	0.016145917
233	0xbd89cdbd	-0.067286946
234	0xbb3ef318	-0.0029136594
235	0x3d6a429d	0.057192434
236	0x3d14e01f	0.03634655
237	0x3c5a0e44	0.013309065
238	0xbc6dbec8	-0.014510818
239	0x3b8cfa55	0.004302303
240	0xbd9d14dc	-0.07669994
241	0xbadfd190	-0.0017076004
242	0xbbb991f3	-0.0056631505
243	0x3cb01d63	0.021498388
244	0x3ce9f14f	0.028557448
245	0xbc3fd4cc	-0.01170845
246	0xbda0268e	-0.07819854
247	0xbcdbd903	-0.026836878
248	0x3d2fc182	0.042909153
249	0xbe2dcf0f	-0.16973518
250	0xbedcee1c	-0.43150413
251	0xbf5616e5	-0.83628684
252	0x3e1cff12	0.15331677
253	0x3c8fa224	0.01753337
254	0xbd10cdd6	-0.03535255
255	0xbc61e4b7	-0.01378744

encoder.W_i.bias f4 [128]
0	0xbd0c9307	-0.034319904
1	0xbe74147b	-0.23835938
2	0xbcd05d60	-0.02543515
3	0xbdcb5181	-0.09927655
4	0xbdac252a	-0.08405526
5	0xbcd7b6f6	-0.02633236
6	0xbe01a416	-0.1266025
7	0xbd6442f5	-0.055727918
8	0xbe09b6fc	-0.13448709
9	0xbd2dcb43	-0.042430174
10	0xbd060d7e	-0.03272771
11	0xbda8dd03	-0.0824528
12	0xbe16068e	-0.14650938
13	0xbde05e44	-0.1095548
14	0xbe1213cc	-0.14265364
15	0xbe1d508f	-0.15362762
16	0xbde1d54d	-0.11027012
17	0xbcdea882	-0.02717996
18	0xbda31b7c	-0.079642266
19	0xbce406c5	-0.02783526
20	0xbda4df93	-0.08050456
21	0xbc9996f0	-0.01874873
22	0xbea6972d	-0.32537213
23	0xbe81d9b5	-0.2536141
24	0xbe1ab754	-0.15108997
25	0xbe41eeb2	-0.18938711
26	0xbd47cfc8	-0.04878214
27	0xbd4bd3a4	-0.049762383
28	0xbdc14643	-0.094372295
29	0xbde341f1	-0.11096562
30	0xbe0898fb	-0.13339607
31	0x3dbb4914	0.09144798
32	0xbd9ae943	-0.075640224
33	0xbd802beb	-0.06258377
34	0xbd4bd1eb	-0.04976074
35	0xbdaad8b3	-0.08342113
36	0xbe00e603	-0.12587743
37	0xbe504c0c	-0.2034151
38	0xbde445d1	-0.11146129
39	0xbd8d8131	-0.06909407
40	0xbd415bbf	-0.047206637
41	0xbdc016f4	-0.09379378
42	0xbe8d6bcd	-0.27621308
43	0xbdae9bcd	-0.085258104
44	0xbde7e9a3	-0.113238595
45	0xbd715411	-0.058918063
46	0xbd8aa825	-0.06770352
47	0xbd85ef18	-0.06539744
48	0xbd3273f0	-0.043567598
49	0xbe0c75fc	-0.13716882
50	0xbd79d73c	-0.06099628
51	0xbe04d7ad	-0.12972899
52	0xbd3cadf9	-0.04606435
53	0xbd69d10c	-0.05708413
54	0xbe607789	-0.21920599
55	0xbd8f8cc4	-0.07009271
56	0xbe46cd8c	-0.19414347
57	0x3e2b3574	0.1671961
58	0x3d885aad	0.0665792
59	0xbe18c32b	-0.149182
60	0xbd41d1ba	-0.04731915
61	0x3d2a30b1	0.041550342
62	0x3d75f96b	0.060052317
63	0xbe2796b9	-0.1636609
64	0xbd2bf0ab	-0.041977566
65	0xbd8e6f42	-0.069548145
66	0x3e10c66e	0.14138195
67	0xbdc927b5	-0.09822027
68	0xbdd97d07	-0.1061955
69	0xbda052f1	-0.0782832
70	0xbe921bbd	-0.28536788
71	0xbdfb6248	-0.12274605
72	0xbe5223b1	-0.20521428
73	0xbda07c2e	-0.078361854
74	0xbac542b4	-0.0015049786
75	0xbde55b50	-0.11199057
76	0xbbb6328b	-0.0055602244
77	0xbdf9bbe8	-0.121940434
78	0xbdddf74a	-0.10838182
79	0xbd7850f3	-0.060624074
80	0xbdad308d	-0.08456526
81	0xbdd3e599	-0.10346527
82	0xbe37664e	-0.1791012
83	0xbe4fff59	-0.20312251
84	0xbe3e82e5	-0.1860462
85	0xbe685fad	-0.22692747
86	0xbcc413e6	-0.02393527
87	0xbe0c2d0c	-0.13689059
88	0xbe007c0d	-0.12547322
89	0xbb15db60	-0.0022866353
90	0xbe1972f1	-0.14985253
91	0xbd95bf2f	-0.07311856
92	0xbd5510b5	-0.052017886
93	0xbe01ee49	-0.12688555
94	0xbdd54fcd	-0.104156114
95	0xbe18eb70	-0.14933562
96	0x3e3b9445	0.18318279
97	0xbe183b32	-0.14866331
98	0xbd218df7	-0.03944203
99	0xbcf30a74	-0.02966807
100	0xbe98dec2	-0.2985745
101	0xbde63fe7	-0.11242657
102	0xbe3874fe	-0.18013379
103	0xbd2a863c	-0.041631922
104	0xbe8e1f5c	-0.277583
105	0xbe57ad9e	-0.21062323
106	0xbdd67cc2	-0.104730144
107	0xbdf1c36a	-0.118048504
108	0xbcbceddb	-0.023062637
109	0xbc3d01f7	-0.011536113
110	0xbc181172	-0.009281503
111	0xbe8731b3	-0.26405105
112	0xbd859d06	-0.065240905
113	0xbd2cf1d2	-0.042222805
114	0xbdcfb78e	-0.10142432
115	0xbd6cd7fc	-0.057823166
116	0xbe56d5ef	-0.20980047
117	0xbd6bdad8	-0.057581753
118	0xbcb26ddb	-0.021780899
119	0xbda2680e	-0.07930003
120	0xbd903d58	-0.070429504
121	0xbdcbb673	-0.09946909
122	0xbe1572e4	-0.14594609
123	0xbe03f18f	-0.12885116
124	0xbdac9025	-0.08425931
125	0xbda72a87	-0.08162408
126	0xbe0903ad	-0.13380308
127	0xbdcd920f	-0.10037624

encoder.W_h.weight f4 [128, 128]
0	0xbcd41a15	-0.025891343
1	0xbd98a714	-0.074537426
2	0x3d917e1c	0.071041316
3	0xbd6bc28d	-0.057558585
4	0xbd4e473b	-0.0503609
5	0xbd354213	-0.044252466
6	0x3d5a9589	0.053365264
7	0xbd2635f0	-0.040578783
8	0x3d055c50	0.03255874
9	0x3d0d2306	0.03445723
10	0xbdc0bc0b	-0.09410866
11	0xbd364f2f	-0.04450911
12	0xbdcc45ee	-0.099742755
13	0x3d86669e	0.065625414
14	0x3d419501	0.04726124
15	0xbc4601ac	-0.01208536
16	0x3c8d1398	0.017221257
17	0xbd44c921	-0.048043374
18	0x3cc867f8	0.024463639
19	0xbb4e13dc	-0.0031444943
20	0xbdaab8a1	-0.083359964
21	0x3d99e11f	0.075136416
22	0xbd81f186	-0.06344895
23	0x3cea96c9	0.028636353
24	0x3cc25422	0.023721758
25	0x3cb05e67	0.02152939
26	0xbdd16c67	-0.10225754
27	0xbd066e6f	-0.03282016
28	0x3d1bd0c5	0.038040895
29	0xbc4deaac	-0.012568157
30	0x3d112cec	0.03544323
31	0xbb70fef1	-0.003677305
32	0x3d3ca12d	0.046052147
33	0xbd77da31	-0.060510818
34	0xbbea5052	-0.007150688
35	0x3c713f9d	0.014724639
36	0x3d5872b1	0.052843753
37	0xbd3c4f73	-0.045974206
38	0xbcccf1b9	-0.025017606
39	0xbba856f6	-0.0051373197
40	0x3cdfe082	0.027328733
41	0x3d84bf93	0.064818524
42	0x3d94cc89	0.072655745
43	0x3daf41a4	0.08557442
44	0xbd4d15bf	-0.050069567
45	0xbd94981e	-0.072555766
46	0xbc8ee531	-0.017443271
47	0xbd8fca04	-0.07020953
48	0xbd02bd5c	-0.03191887
49	0x3d14b141	0.036301855
50	0x3cc14b27	0.023595406
51	0xbcf4645a	-0.029833008
52	0xbbb7b0a0	-0.005605772
53	0xbd3ce13f	-0.04611325
54	0xbda158b3	-0.07878246
55	0x3cd04a9e	0.025426205
56	0xbda8766f	-0.082257144
57	0x3cd769cc	0.026295565
58	0xbd0e6d5e	-0.03477227
59	0xbdd591a9	-0.10428173
60	0xbc1809ea	-0.009279707
61	0xbd3bb7b6	-0.045829497
62	0x3c9bb042	0.019004945
63	0xbbf9a950	-0.0076190606
64	0x3d8c6d44	0.06856778
65	0x3caf2fff	0.021385191
66	0xbc5388e9	-0.01291106
67	0x3d69c16b	0.057069223
68	0x3b2262ea	0.0024778196
69	0xbdfb099f	-0.122576945
70	0x3cdbf4d8	0.026850149
71	0xbdc6fb1c	-0.09715864
72	0xbd44ec98	-0.048077196
73	0x3d991594	0.07474819
74	0xbb53452d	-0.0032237277
75	0x3b96d0ad	0.004602513
76	0x3c56d042	0.013111176
77	0x3d2eb599	0.042653654
78	0xbda9066b	-0.08253177
79	0xbd06e653	-0.032934498
80	0xbc2f49ac	-0.010698717
81	0x3d6a0054	0.05712922
82	0xbcbc091d	-0.022953564
83	0xbddb25c3	-0.10700562
84	0xbd797566	-0.060902975
85	0xbd81a81a	-0.06330891
86	0xbcea2a1b	-0.02858453
87	0xbb9660f8	-0.0045891963
88	0xbc8be8ed	-0.017078841
89	0x3d95b9b8	0.07310814
90	0xbdca6db7	-0.09884208
91	0xbd6b27b1	-0.0574109
92	0xbdc12aff	-0.09432029
93	0x3ce78cb3	0.028265333
94	0xbb9a55f8	-0.0047099553
95	0xbdc9f22c	-0.09860644
96	0xbd9fc47f	-0.078011505
97	0xbd9b5213	-0.07584014
98	0xbcbed08f	-0.023292808
99	0xbdaa1b4c	-0.08305988
100	0xbdcac53f	-0.09900903
101	0x3c304ef5	0.010761012
102	0x3d068437	0.032840934
103	0xbdb44585	-0.08802322
104	0x3c5689c1	0.0130943665
105	0xbda41108	-0.08011061
106	0xbd97cdda	-0.0741231
107	0xbdc1be2a	-0.09460099
108	0xbd2c19ba	-0.042016722
109	0xbb32be5b	-0.0027274105
110	0xbcce0d5a	-0.02515285
111	0x3c5f344c	0.013623308
112	0x3d9e2296	0.077214405
113	0xbddd7fbf	-0.10815381
114	0x3d435788	0.0476909
115	0xbda35ac7	-0.07976299
116	0xbdc1fca3	-0.09472015
117	0xbdbe1c4e	-0.092827424
118	0x3d336a6a	0.043802656
119	0xbd70227d	-0.05862664
120	0xbcf5b6a2	-0.029994313
121	0xbd9e3d0b	-0.07726487
122	0xbd5e37f1	-0.05425257
123	0xbd172366	-0.036898993
124	0xbce748ab	-0.028232893
125	0x3c8756c5	0.016520867
126	0x3d9bbb03	0.07604029
127	0xbc808c70	-0.015691966
128	0x3d311b6c	0.043239042
129	0xbe82e466	-0.2556488
130	0xbe41938f	-0.18903945
131	0xbe4e0035	-0.20117266
132	0x3be23877	0.006903704
133	0xbd32f10d	-0.043686915
134	0x3dc3d521	0.095621355
135	0x3dec290b	0.11531266
136	0x3d74c196	0.05975493
137	0xbd8ea3ea	-0.06964858
138	0xbedb99c3	-0.42890748
139	0x3e0f1468	0.13972628
140	0x3c97d2d1	0.018533142
141	0xbe8125f2	-0.25224262
142	0xbd3ba719	-0.045813654
143	0x3cdae736	0.026721578
144	0xbbd21035	-0.0064106234
145	0xbecc2ab1	-0.3987632
146	0xbdd93aa3	-0.10606887
147	0xbd4ae0b1	-0.04953069
148	0x3dde4b70	0.10854232
149	0xbdbad999	-0.09123535
150	0x3db011ff	0.085971825
151	0xbe232b80	-0.15934563
152	0xbdbcf544	-0.09226468
153	0x3e3b9315	0.18317826
154	0xbe1428dc	-0.14468712
155	0xbe62f59f	-0.2216401
156	0xbccb9e64	-0.0248558
157	0xbd72927d	-0.059221733
158	0xbce916f3	-0.028453326
159	0xbead3822	-0.33831888
160	0xbce0ac14	-0.027425803
161	0xbcf91448	-0.030405179
162	0x3e9d973c	0.30779445
163	0xbe322be5	-0.17399557
164	0xbe4477ef	-0.19186376
165	0x3c8a0376	0.016847353
166	0xbc4c28db	-0.012460913
167	0xbe18d00a	-0.1492311
168	0x3d370b38	0.044688433
169	0x3c5b33a8	0.013379015
170	0xbd76a1b8	-0.06021282
171	0xbdb047c0	-0.08607435
172	0x3e5d245e	0.21595904
173	0xbecc2531	-0.39872125
174	0xbe6e5b26	-0.23276958
175	0x3d0cf41c	0.03441249
176	0xbdf90847	-0.12159782
177	0x3e283193	0.16425161
178	0xbcea55fd	-0.028605456
179	0x3d331d66	0.04372921
180	0xbe04270c	-0.1290552
181	0xbd9f0e70	-0.077664256
182	0x3e9301c8	0.28712296
183	0x3d322b8f	0.043498572
184	0xbd40bec8	-0.047056943
185	0x3d59e7d8	0.05319962
186	0xbf4e6d6f	-0.8063573
187	0x3c867e79	0.016417729
188	0xbe78f4f1	-0.24312188
189	0xbb42f9e1	-0.002975099
190	0xbd8452ff	-0.06461143
191	0x3e5e2989	0.21695532
192	0x3e03fd97	0.12889706
193	0xbd80aa81	-0.06282521
194	0x3c394e28	0.011310138
195	0x3b03e515	0.0020125557
196	0x3cd4b72a	0.025966246
197	0xbc934ae4	-0.017980047
198	0x3c24c3ee	0.010056479
199	0xbe7f568d	-0.2493536
200	0xbc7bc504	-0.015366796
201	0xbcced694	-0.025248803
202	0xbdbcd2d4	-0.092199
203	0xbd491cc5	-0.049099702
204	0xbe340e53	-0.1758359
205	0xbd3bf9f6	-0.04589268
206	0xbc138e6b	-0.009006123
207	0xbdfbee1f	-0.12301277
208	0xbc382620	-0.011239558
209	0xbd49aca6	-0.049236916
210	0x3dc601f9	0.09668345
211	0x3da41db8	0.08013481
212	0xbd44f979	-0.04808948
213	0x3c8daf0e	0.017295387
214	0xbf650b9b	-0.89470834
215	0xbe34135c	-0.1758551
216	0xba299cad	-0.0006470185
217	0xbea69dcd	-0.32542267
218	0xbdac7415	-0.084205784
219	0x3de2f9c8	0.11082798
220	0xbd519694	-0.051168993
221	0xbf044b44	-0.51677346
222	0x3eddf711	0.4335256
223	0xbdcde8b2	-0.10054149
224	0x3cdf2abb	0.027242055
225	0x3e3be751	0.18349959
226	0xbccc1b40	-0.024915338
227	0xbe65ca55	-0.22440465
228	0x3da0b43b	0.07846876
229	0x3cafe7e1	0.021472873
230	0xbc100298	-0.008789681
231	0xbd3086bc	-0.043097243
232	0x3e27e789	0.16396917
233	0x3dac15a0	0.08402562
234	0xbedb43e6	-0.4282524
235	0xbe8b62d2	-0.2722383
236	0xbe16654d	-0.1468708
237	0xbebd19ea	-0.36933833
238	0xbf3a74ad	-0.72834283
239	0xbdadb1f4	-0.084812075
240	0xbe037e1f	-0.1284108
241	0xbd9b3f51	-0.07580436
242	0xbd963b58	-0.07335538
243	0xbde51ba1	-0.111869104
244	0x3e74d71f	0.23910187
245	0xbe307fce	-0.17236254
246	0x3d513f82	0.051085956
247	0xbe89b49c	-0.26895607
248	0x3d394168	0.045228392
249	0xbe3a79ed	-0.18210573
250	0xbdcc0100	-0.09961128
251	0x3d1ad13c	0.037797198
252	0xbe5bb2df	-0.21454953
253	0xbd6c93da	-0.05775819
254	0xbd4a0481	-0.0493207
255	0x3d8f6608	0.07001883

encoder.W_h.bias f4 [128]
0	0xbdc6be35	-0.09704248
1	0x3dfaf4d4	0.122537285
2	0xbd21c45c	-0.039493904
3	0xbdb8f69b	-0.09031411
4	0xbe11c1ea	-0.14234129
5	0xbdf65d8c	-0.120295614
6	0x3d495f59	0.049163196
7	0xbd908862	-0.07057263
8	0x3d090455	0.033451397
9	0x3bf3edf9	0.00744414
10	0x3b9e29b6	0.0048267497
11	0x3d89e058	0.06732243
12	0xbb3cd590	-0.0028813817
13	0xbdd936b1	-0.10606135
14	0xbcb593dd	-0.022165233
15	0x3cf298ae	0.029613819
16	0xbddd1601	-0.107952125
17	0xbdd0df35	-0.10198823
18	0x3d3c5c00	0.045986176
19	0xbd88e8ee	-0.06685053
20	0xbd04fa2b	-0.03246514
21	0xbe33ec5b	-0.17570631
22	0x3e4cacb1	0.19987752
23	0x3bf8ad18	0.0075889938
24	0x3dbb57d1	0.09147609
25	0x3e5aa301	0.21351244
26	0xbc926315	-0.017869512
27	0xbe1961ac	-0.14978665
28	0xbd9ce818	-0.07661456
29	0x3b8a8ba1	0.004228071
30	0x3d5ee92c	0.05442159
31	0xbda5af5a	-0.08090086
32	0x3cd60a41	0.026127936
33	0xbd5da44f	-0.054111775
34	0xbd8d72bb	-0.06906649
35	0xbe02f89b	-0.12790148
36	0x3d0ec1e2	0.03485287
37	0xbc62c225	-0.013840233
38	0xbdd2f879	-0.10301299
39	0x3cd0f4bf	0.025507329
40	0xbdd2fed1	-0.103025086
41	0xbdef219f	-0.116763346
42	0x3c54d8b7	0.012991122
43	0x3c6b4030	0.014358565
44	0x3d25ed8d	0.04050975
45	0x3de379b3	0.11107197
46	0xbd430b8a	-0.047618426
47	0xbcfbb8e9	-0.03072782
48	0xbcd278e4	-0.02569241
49	0xbe085a9f	-0.13315819
50	0xbcb8b489	-0.022547023
51	0xbd15cd61	-0.036572818
52	0xbd822114	-0.063539654
53	0xbe8b0e9b	-0.2715958
54	0xbe3b57e1	-0.18295242
55	0xbcd9241d	-0.026506478
56	0x3e1631d6	0.14667448
57	0x3e4e709b	0.20160143
58	0xbe0b2210	-0.13587213
59	0x3df87dd9	0.121333785
60	0xbd146340	-0.036227465
61	0x3dc52ab3	0.09627285
62	0xbe111685	-0.14168747
63	0xbda62a3b	-0.081135236
64	0xbe8a6536	-0.27030343
65	0xbcb575cd	-0.022150898
66	0x3dc850c3	0.09781029
67	0xbd9f04be	-0.077645764
68	0xbd5bf64f	-0.053701695
69	0xbe15f4bb	-0.14644139
70	0x3d1c2870	0.0381245
71	0xbda16a85	-0.07881645
72	0x3d1c35f0	0.038137376
73	0xbe79870b	-0.24367921
74	0xbd551bbd	-0.052028406
75	0x3cb4cd4c	0.02207055
76	0x3b5467cc	0.00324105
77	0xbd30f224	-0.043199673
78	0xbd836251	-0.06415237
79	0xbe407df7	-0.18798052
80	0xbd6038a6	-0.054741524
81	0xbd9c11a3	-0.076205514
82	0xbda3ef4d	-0.080046274
83	0x3de8f716	0.11375253
84	0x3d887767	0.06663399
85	0xbe7bc265	-0.24585874
86	0x3da80725	0.08204488
87	0x3d5e2df0	0.05424303
88	0xbe83d443	-0.2574788
89	0xbd7cc14d	-0.061707783
90	0xbcfbc0e1	-0.03073162
91	0xbc2ac1f5	-0.0104222195
92	0xbdf387dc	-0.118911475
93	0xbe347a69	-0.17624821
94	0xbc5bba3f	-0.013411104
95	0x3c837643	0.016047603
96	0x3e4aab41	0.1979189
97	0xbd5e7bd5	-0.054317314
98	0x3d9ee099	0.07757682
99	0xbe0b956f	-0.13631223
100	0xbe041145	-0.12897213
101	0x3b5bff18	0.0033568796
102	0xbdc9e1e1	-0.09857536
103	0x3dbb3d9f	0.09142613
104	0x3d27211f	0.04080307
105	0x3e41d2d7	0.18928085
106	0xbe2a8fb4	-0.16656381
107	0xbc86ab53	-0.016439116
108	0x3d122235	0.035677154
109	0xbde3181a	-0.110885814
110	0xbc9b461f	-0.018954335
111	0x3d387613	0.04503448
112	0xbdaaf956	-0.08348338
113	0xbdf768a2	-0.12080504
114	0xbb24e44e	-0.0025160494
115	0xbdab7062	-0.08371045
116	0xbd3b2beb	-0.04569618
117	0xbe257b34	-0.1616028
118	0x3d8bc5a9	0.0682481
119	0x3d437689	0.047720466
120	0x3d36e760	0.04465425
121	0xbe219d9f	-0.15782784
122	0xbb77c92d	-0.003780912
123	0xbe01d84f	-0.12680171
124	0xbd6283ec	-0.05530159
125	0x3c82a3ea	0.015947301
126	0x3c3dac9a	0.011576796
127	0xbd7b9cf8	-0.061428994

encoder.W_o.weight f4 [128, 261]
0	0x3ce7f8c8	0.02831687
1	0x3d7a8e24	0.061170712
2	0x3d6f73c4	0.058460012
3	0x3d50e8ab	0.05100314
4	0x3d0535b2	0.03252191
5	0xbeb12aa2	-0.3460284
6	0x3e7abe79	0.24486722
7	0x3f02f308	0.51152086
8	0x3f5b35cf	0.8562898
9	0x3d21fb49	0.039546285
10	0x3c541f8a	0.012946973
11	0x3c642d79	0.013926857
12	0xbd6379f5	-0.05553623
13	0xbd5156d7	-0.051108208
14	0x3cba27dd	0.022724086
15	0x3cd44888	0.025913492
16	0xbd1aecc8	-0.03782347
17	0xbc680522	-0.01416138
18	0xb9a3afc3	-0.00031220735
19	0xbc9a0631	-0.01880178
20	0x3ce96081	0.0284884
21	0xbc15d658	-0.009145342
22	0xbd12c198	-0.035829157
23	0x39ad8747	0.0003309792
24	0x3ccd2790	0.025043279
25	0xbccdf2f2	-0.02514026
26	0xbd002eea	-0.03129474
27	0xbd6a58ef	-0.05721372
28	0x3b2ef3fc	0.002669572
29	0x3c9eb837	0.01937495
30	0x3d437833	0.047722053
31	0xbd2c9323	-0.042132508
32	0xbcd6aa7b	-0.026204338
33	0xbcdf772a	-0.027278502
34	0x3d16f8b8	0.03685829
35	0x3cb25422	0.021768633
36	0xbc4da345	-0.0125511335
37	0x3b334cac	0.0027358932
38	0x3cc2a3e9	0.0237598
39	0xbcb65979	-0.02225946
40	0xbcdce42e	-0.026964273
41	0x3b9607cd	0.0045785666
42	0xbd7cca41	-0.06171632
43	0xbc62d290	-0.013844147
44	0x3cb2a302	0.021806244
45	0x3cc17687	0.023616089
46	0x3cd38fbc	0.025825374
47	0x3d56902c	0.052383587
48	0x3c59277e	0.013254045
49	0x3d0fda22	0.035120137
50	0x3d6e885e	0.05823552
51	0xbbdf1362	-0.0068077305
52	0xbd67b1df	-0.056566115
53	0x3d4c86f4	0.04993339
54	0xbd6ea1d8	-0.058259815
55	0xbcc0f42f	-0.023553936
56	0xbc9c8a92	-0.019109044
57	0xbba6c655	-0.005089561
58	0xbd4d2168	-0.050080687
59	0xbbf88051	-0.007583656
60	0x3beb4a9e	0.007180526
61	0x3d4ad24e	0.04951697
62	0x3d4ead92	0.0504585
63	0x3cdcb556	0.026941936
64	0xbd3bec7b	-0.045879822
65	0x3ceb694e	0.028736737
66	0x3d69053a	0.05688975
67	0x3d2f2010	0.042755187
68	0xbd3fafd0	-0.046798527
69	0x3c3c913d	0.011509237
70	0x3d3565c1	0.044286493
71	0xbd1d36ed	-0.03838246
72	0x3d6bf116	0.057602964
73	0xbd1a7227	-0.03770652
74	0xbd42cddf	-0.047559615
75	0xbc9ed688	-0.019389406
76	0xbd51f328	-0.051257282
77	0xbca60c87	-0.020269645
78	0xbbb59430	-0.005541347
79	0xbd2ebcff	-0.04266071
80	0x3d53a88a	0.051674403
81	0x3c85d2c3	0.01633585
82	0xbc4bfd76	-0.0124505665
83	0x3c6dddde	0.014518229
84	0xbc777571	-0.015103684
85	0x3bd51d2b	0.0065037212
86	0x3d33f69b	0.043936353
87	0x3cfd8384	0.0309465
88	0x3d14a33e	0.036288492
89	0x3c8c7794	0.017146863
90	0x3d18b22b	0.03727929
91	0x3c921e15	0.01783661
92	0xbc707040	-0.0146752
93	0xbd3de4a4	-0.046360627
94	0xbcaaab05	-0.020833502
95	0xbcd251b3	-0.025673723
96	0xbbee9788	-0.0072812475
97	0x3cfa652a	0.030565817
98	0xbd7a92b7	-0.061175074
99	0xbc43872c	-0.011934083
100	0xbd421dea	-0.04739181
101	0xbc85f30b	-0.016351243
102	0x3ece1df6	0.40257233
103	0x3e4a1e47	0.19738112
104	0xbe48a69f	-0.19594811
105	0xbd916d69	-0.071009465
106	0xbc370be9	-0.011172273
107	0x3d1cc6d2	0.038275547
108	0xbe875d05	-0.26438156
109	0x3d7a23bb	0.06106923
110	0x3e83f0e5	0.25769725
111	0xbcbe08c3	-0.023197537
112	0x3d926b80	0.0714941
113	0xb843e899	-4.6708246e-05
114	0x3db032d6	0.08603446
115	0x395d5753	0.00021108733
116	0xbc9208de	-0.017826494
117	0xbd611c21	-0.054958466
118	0x3cf71aae	0.030164089
119	0x3e109a9c	0.14121479
120	0x3e099421	0.13435413
121	0x3dd0a3e6	0.10187511
122	0xbfb295d9	-1.395198
123	0x3e601aee	0.21885273
124	0xbc65b8aa	-0.014021078
125	0x3e0468d8	0.1293062
126	0x3cb0c739	0.021579372
127	0x3d82678a	0.06367405
128	0x3d2b0a7f	0.041758057
129	0xbc8c6fcf	-0.017143158
130	0xbc0b0fa7	-0.0084876185
131	0x3c548c0f	0.012972846
132	0x3df1b94b	0.1180292
133	0x3d2dfb4a	0.042475976
134	0xbe7a52ed	-0.24445696
135	0xbf9f67b7	-1.2453526
136	0xbd3afb87	-0.04565003
137	0x3e389b90	0.18028092
138	0x3e1533d3	0.1457055
139	0xbcc87358	-0.024469063
140	0xbea03feb	-0.31298766
141	0x3d5610e0	0.052262187
142	0xbdb30223	-0.08740642
143	0x3d8fe028	0.07025176
144	0x3d822984	0.06355575
145	0xbf105d0b	-0.5639197
146	0x3dbb73b8	0.09152931
147	0xbd8e4f5e	-0.06948732
148	0x3ded3375	0.1158208
149	0x3cd6446c	0.026155673
150	0xbe50f8e1	-0.2040744
151	0xbd8c7890	-0.06858933
152	0x3dcca992	0.099932805
153	0x3df7b011	0.12094129
154	0xbf0adc7e	-0.54242694
155	0xbe748f87	-0.23882876
156	0x3e82b9b9	0.2553232
157	0x3bc0cbad	0.005883655
158	0x3e0c916f	0.13727354
159	0xbdbfb22a	-0.09360154
160	0xbe69df46	-0.22839078
161	0xbd4d1658	-0.050070137
162	0xbe1c1601	-0.15242769
163	0x3d2b0772	0.041755147
164	0x3c3cb988	0.0115188435
165	0xbe257401	-0.16157533
166	0x3e538014	0.20654327
167	0x3d5b8f0e	0.053603224
168	0xbcf14870	-0.029453486
169	0xbf132001	-0.5747071
170	0x3da97627	0.08274489
171	0xbd449865	-0.047996897
172	0xbd372e54	-0.044721916
173	0xbda2be9d	-0.07946513
174	0x3e461aed	0.19346209
175	0xbdffa483	-0.1248255
176	0x3b7cde9b	0.0038584832
177	0xbb2a67d1	-0.002600182
178	0x3e223ce8	0.15843546
179	0x3e4645a9	0.1936251
180	0xbe9692c7	-0.29408857
181	0xbb05634e	-0.002035338
182	0xbccc62cd	-0.024949456
183	0xbc3fd5cd	-0.011708689
184	0x3e063fb5	0.1311024
185	0x3e112626	0.14174709
186	0xbd19bed7	-0.037535515
187	0x3c8c187f	0.017101524
188	0xbc0d968d	-0.008641851
189	0xbf0274c8	-0.50959444
190	0x3e1191fd	0.14215846
191	0xbcd7e1d5	-0.026352802
192	0xbe9ea020	-0.3098154
193	0xbd1b61cf	-0.037935074
194	0x3e13edd0	0.14446187
195	0x3d668823	0.056282174
196	0x3dfdd0a5	0.123933114
197	0xbe6ec7e8	-0.23318446
198	0xbf35194b	-0.7074172
199	0x3d1f0591	0.038823668
200	0x3cb286d9	0.021792816
201	0xbe3056fa	-0.17220679
202	0x3d6198f3	0.055077504
203	0xbe55b310	-0.20869088
204	0xbd86f000	-0.06588745
205	0xbe1a2abe	-0.15055367
206	0xbee582d8	-0.44826388
207	0x3d1c7030	0.038192928
208	0xbe19194f	-0.1495106
209	0x3c92b544	0.0179087
210	0x3e6bbcf4	0.23021299
211	0x3eca89a9	0.3955815
212	0xbd849084	-0.06472877
213	0x3d77a12f	0.06045645
214	0xbc57c943	-0.013170543
215	0x3d35e6ef	0.04440969
216	0x3d052168	0.03250256
217	0x3d28582b	0.04109971
218	0xbe3fd907	-0.18735133
219	0x3c15f751	0.009153203
220	0xbd8977ff	-0.067123406
221	0x3e64610f	0.2230265
222	0x3b548423	0.0032427392
223	0x3e94028a	0.28908187
224	0x3a97e8e0	0.0011589788
225	0xbc7dfccd	-0.015502167
226	0x3e59d58d	0.2127287
227	0x3ddeef43	0.10885479
228	0xbe226b2b	-0.15861194
229	0x3d58c75c	0.0529245
230	0x3d929bc4	0.07158616
231	0xbb1b8095	-0.0023727764
232	0x3e25dd39	0.16197671
233	0xbb9ddd5f	-0.0048176493
234	0xbf998bd0	-1.1995792
235	0xbaa757cd	-0.0012767256
236	0xbe249a41	-0.16074468
237	0xbea11f15	-0.31469026
238	0x3ddae092	0.10687365
239	0x3c0aae90	0.0084644705
240	0x3dd8f977	0.10594457
241	0x3c248cc8	0.0100433305
242	0x3bf6e542	0.007534654
243	0x3d485a91	0.048914496
244	0xbf33c677	-0.7022471
245	0xbe13d071	-0.14434983
246	0x3d42bcb4	0.047543243
247	0x3e0f829c	0.14014667
248	0x3c703877	0.0146619
249	0x3e3c0ce5	0.18364294
250	0x3e1b78b0	0.15182757
251	0x3e1a0747	0.15041839
252	0xbf2f9412	-0.6858531
253	0xbd0f1fcf	-0.034942444
254	0x3d113278	0.03544852
255	0xbf4992c4	-0.7873957

encoder.W_o.bias f4 [128]
0	0x3de1cf12	0.11025824
1	0x3db63db2	0.08898486
2	0xbcd7c818	-0.02634053
3	0xbd3192ed	-0.04335301
4	0xbdca542b	-0.09879335
5	0x3db1aa52	0.08675064
6	0xbdbebe5d	-0.09313653
7	0xbd00ebbf	-0.031474825
8	0x3e01c496	0.12672648
9	0x3c86121b	0.016366055
10	0x3ccd23a4	0.025041409
11	0x3dc02762	0.09382512
12	0xbd428ff0	-0.04750055
13	0xbc9e1c0c	-0.019300483
14	0x3e1c4e10	0.15264153
15	0xbd8a24fd	-0.06745336
16	0xbdaecf2a	-0.08535607
17	0xbdf0f584	-0.117655784
18	0x3d1e29f1	0.038614217
19	0x3b933cf0	0.0044933483
20	0x3da65682	0.08121969
21	0xbca823b5	-0.020524839
22	0xbdae4870	-0.0850991
23	0xbd853d8d	-0.065058805
24	0xbda00916	-0.07814233
25	0xbd9af253	-0.07565751
26	0xbd4dee4b	-0.050276082
27	0x3ce4455c	0.027865104
28	0xbe7ea96f	-0.24869321
29	0xbd186c30	-0.03721255
30	0x3c685482	0.0141803045
31	0xbd8ec525	-0.06971196
32	0xbcfe097b	-0.03101038
33	0xbd156fa5	-0.036483426
34	0xbcdb2997	-0.02675323
35	0x3d98fb11	0.07469762
36	0x3c8a2f2f	0.016868202
37	0xbccf12aa	-0.025277454
38	0xbd86ad2d	-0.065759994
39	0xbdf23f4b	-0.118284784
40	0xbb24f9c9	-0.0025173298
41	0x3d758bd3	0.0599478
42	0xbd873512	-0.06601919
43	0x3dcb0ce5	0.09914569
44	0xbb2a5ee2	-0.0025996496
45	0xbd5058ee	-0.05086606
46	0x3de69f50	0.11260855
47	0xbda37e48	-0.079830706
48	0xbd45ec6d	-0.048321176
49	0xbda47f31	-0.08032072
50	0x3cb7c76a	0.022433955
51	0xbc4c1b6d	-0.012457711
52	0xbdce30af	-0.100678794
53	0x3c52c5f8	0.012864582
54	0xbd41e8cd	-0.047341157
55	0xbb8648d4	-0.0040980373
56	0xbd864e5a	-0.06557913
57	0xbda9e7f5	-0.082961954
58	0x3deacc6b	0.11464771
59	0xbd9e8e96	-0.0774204
60	0x3d1897c4	0.03725411
61	0xbc737d93	-0.014861482
62	0xbdc997d6	-0.098434135
63	0xbdaea1b1	-0.08526934
64	0xbd36922b	-0.04457299
65	0x3d591b43	0.053004514
66	0xbd094f54	-0.03352292
67	0xbd113080	-0.035446644
68	0x3d8973b5	0.067115225
69	0xbdef868c	-0.11695585
70	0x3da77e74	0.08178416
71	0xbd934e1a	-0.07192631
72	0x3e0e3190	0.13886094
73	0xbda11448	-0.078651965
74	0xbd963d2c	-0.07335886
75	0x3e705016	0.2346805
76	0xbdfdb4f6	-0.12388031
77	0xbd0ac3a8	-0.033878
78	0xbdb2548e	-0.08707534
79	0xbc070e3d	-0.008243141
80	0x3d73872f	0.059455093
81	0xbc830929	-0.015995579
82	0xbd1e6232	-0.038667865
83	0x38a08441	7.654029e-05
84	0xbc42731a	-0.011868263
85	0x3e060915	0.13089402
86	0x3e1a262a	0.15053621
87	0x3e19c3e5	0.15016134
88	0xbc48655b	-0.012231196
89	0xbdc95ca7	-0.09832125
90	0xbdd506cd	-0.10401688
91	0xbcd4abd0	-0.025960833
92	0x3d3239df	0.04351222
93	0xbe0c171c	-0.1368069
94	0x3e2ce638	0.16884696
95	0x3dfa29a1	0.12214971
96	0x3d346c8e	0.04404884
97	0xbd0d37ac	-0.03447692
98	0xbc0df625	-0.008664642
99	0xbdac56fd	-0.08415029
100	0xbda1805f	-0.07885813
101	0xbd92423c	-0.071415395
102	0xbdbcc102	-0.09216501
103	0xbdfa8e21	-0.1223414
104	0xbe7e435e	-0.24830386
105	0xbde83f8c	-0.113402456
106	0xbd449960	-0.047997832
107	0xbdd42b1c	-0.10359785
108	0xbd309d79	-0.043118928
109	0xbd1003ef	-0.03516
110	0xbe1a9ac0	-0.15098095
111	0xbcc4ac48	-0.024007931
112	0xbe07960a	-0.13240829
113	0x3d2f6ba2	0.042827256
114	0xbe2afc81	-0.16697885
115	0xbdbb1a36	-0.09135859
116	0xbdcdf169	-0.10055811
117	0xbde10504	-0.10987285
118	0x3cb1d6a3	0.021708792
119	0x3e03d2c8	0.12873375
120	0xbe0d5f1c	-0.13805813
121	0x3ddaffc6	0.10693316
122	0xbd6ddcf0	-0.05807203
123	0xbdd044cd	-0.10169373
124	0x3d1e623d	0.038667906
125	0x3ce95572	0.028483126
126	0xbcd45aff	-0.025922297
127	0x3c8e99de	0.017407354

ffn.1.weight f4 [64, 128]
0	0xbe1aca7c	-0.15116304
1	0xbceb575c	-0.02872818
2	0xbe96aba0	-0.29427814
3	0x3dbe19bd	0.09282253
4	0xbd45db1d	-0.048304666
5	0xbc3a57f9	-0.011373513
6	0xbd671445	-0.056415815
7	0x3e0c7d01	0.1371956
8	0x3e2b3723	0.16720252
9	0x3c53c797	0.012926004
10	0xbd3d9345	-0.046283025
11	0x3c056598	0.008141898
12	0x3dd5998f	0.104296796
13	0xbd853376	-0.06503956
14	0x3d74bf7c	0.059752926
15	0x3daa5206	0.08316426
16	0x3d626085	0.05526783
17	0x3f17012c	0.58986163
18	0xbf0908c2	-0.5352899
19	0x3cea1ee6	0.028579187
20	0x3d478b32	0.04871673
21	0xbe869936	-0.26288766
22	0xbd1ba101	-0.037995342
23	0x3da9473e	0.082655415
24	0xbe765cad	-0.2405879
25	0xbd8b7276	-0.06808941
26	0xbe76f8f2	-0.24118403
27	0xbca5843b	-0.020204654
28	0x3c8062ce	0.015672114
29	0x3ccdb416	0.025110286
30	0xbe719f72	-0.2359598
31	0xbe660f5e	-0.224668
32	0x3c140875	0.009035219
33	0xbddf4370	-0.109015346
34	0xbc5b6d48	-0.013392754
35	0x3e8e7bf6	0.2782895
36	0x3e4d0602	0.20021823
37	0x3e327d28	0.17430556
38	0xbd1cb500	-0.038258553
39	0xbe8faa8e	-0.2805981
40	0xbd88c63f	-0.066784374
41	0x3cbba38f	0.02290514
42	0x3d0bbe57	0.03411707
43	0xbe049f89	-0.12951483
44	0xbe38c157	-0.18042503
45	0x3bf46b37	0.00745907
46	0xbf261639	-0.6487766
47	0xbe821462	-0.25406176
48	0xbd839c67	-0.06426316
49	0x3dcc24b2	0.099679366
50	0xbd1e6458	-0.038669914
51	0x3adbf3e9	0.0016781065
52	0xbeb7eef3	-0.3592449
53	0xbe9415f4	-0.28923
54	0x3d7b3dc1	0.06133819
55	0x3d1c256f	0.038121637
56	0x3d4f37e2	0.050590403
57	0xbc2d8737	-0.01059132
58	0x3e8124a5	0.2522327
59	0x3c602dda	0.013682807
60	0x3efcf8bb	0.49408516
61	0xbd254268	-0.040346533
62	0x3dd30594	0.10303798
63	0x3d2da313	0.042391848
64	0x3d3e7c71	0.046505395
65	0x3eb97bc0	0.36227226
66	0x3dc94ee1	0.09829498
67	0xbe916f30	-0.28405142
68	0xba9e2746	-0.0012066148
69	0x3da1b6f9	0.078962274
70	0x3ed443cc	0.41457975
71	0xbf0305f5	-0.51180965
72	0xbdeaa54d	-0.1145731
73	0x3d86d3ba	0.065833524
74	0x3b952746	0.004551801
75	0xbe90530b	-0.28188357
76	0xbb559d0d	-0.003259483
77	0x3d946395	0.07245556
78	0xbb21b455	-0.0024674137
79	0xbe4938e0	-0.19650602
80	0xbeab7b60	-0.33492565
81	0xbd5ac94e	-0.053414635
82	0x3d1378fd	0.036004055
83	0xbc827a22	-0.015927378
84	0x3d47451d	0.048649896
85	0xbdea033a	-0.11426397
86	0xbc99e7b8	-0.01878725
87	0x3e052c2e	0.13005134
88	0xbdb0f7b0	-0.08640993
89	0xbd55bf4f	-0.0521844
90	0x3eef1c7b	0.46701416
91	0xbe514acb	-0.20438688
92	0x3de94c23	0.11391475
93	0x3c99164a	0.018687386
94	0x3d827a95	0.06371037
95	0x3e89e1e2	0.26930147
96	0x3e8c51e4	0.27406228
97	0x3e39b032	0.1813362
98	0xbec39eb5	-0.3820702
99	0x3d810b9c	0.063010424
100	0xbf360fdf	-0.7111797
101	0xbe988b09	-0.29793575
102	0xbdcad227	-0.09903365
103	0xbd1064ff	-0.035252567
104	0x3f4e28a3	0.80530757
105	0xbcacea7c	-0.021107905
106	0x3e965142	0.2935887
107	0x3e82e136	0.25562447
108	0xbeb4c675	-0.3530766
109	0xbd130e04	-0.03590204
110	0x3e010030	0.12597728
111	0x3ba1dfbc	0.0049400013
112	0xbc2380d7	-0.009979448
113	0x3caa6584	0.02080036
114	0x3e811cb0	0.252172
115	0xbdd4dd06	-0.103937194
116	0xbdca96d8	-0.098920524
117	0x3e06892a	0.13138261
118	0xbd0a3803	-0.033744823
119	0x3e05dbea	0.13072172
120	0x3db9b3bf	0.09067487
121	0x3e0edd24	0.13951546
122	0x3c7684ee	0.015046341
123	0xbce211bd	-0.027596349
124	0xbe5d73de	-0.21626231
125	0xbe95df17	-0.29271767
126	0x3e9fdf81	0.31225207
127	0x3b101ed1	0.0021991024
128	0xbdd27b21	-0.10277391
129	0xbddbd9c0	-0.10734892
130	0xbe38a066	-0.18029937
131	0xbd9d3818	-0.07676715
132	0xbdb69344	-0.089148074
133	0x3e0a65d1	0.13515402
134	0xbc897a75	-0.016782025
135	0x3e01259e	0.12612006
136	0x3d339b39	0.043849204
137	0x3c37a805	0.011209493
138	0xbcbaa89f	-0.022785483
139	0x3db26c11	0.08712018
140	0x3ddb1dde	0.10699056
141	0xbc5a249b	-0.0133143915
142	0x3ce28266	0.02765007
143	0x3d021096	0.0317541
144	0x3ba6656e	0.0050780093
145	0x3f3d1fea	0.7387682
146	0xbe9b739a	-0.30361634
147	0xbe3905bc	-0.18068594
148	0x3e8874e9	0.26651695
149	0xbe5e6456	-0.21717963
150	0xbc24055d	-0.010011044
151	0x3b821412	0.0039696777
152	0xbe9ec01e	-0.3100595
153	0xbc691932	-0.014227198
154	0xbe621c38	-0.22081077
155	0xbd977635	-0.07395593
156	0xbe2f3e6e	-0.17113659
157	0x3e0d9a4e	0.13828394
158	0xbeccff09	-0.40038326
159	0xbe14e506	-0.1454049
160	0xbcadd85d	-0.021221334
161	0x3c0a4509	0.008439311
162	0xbd7a4ca0	-0.06110823
163	0x3e6ab29b	0.22919695
164	0x3e30a2e5	0.1724964
165	0xbb83bc67	-0.004020262
166	0x3d5d955d	0.054097522
167	0x3e264267	0.16236268
168	0x3c930c3a	0.017950166
169	0xbe9d8250	-0.30763483
170	0x3d9fad54	0.077967316
171	0x3c479d44	0.012183491
172	0xbea24eaa	-0.3170064
173	0xbc8321ed	-0.016007388
174	0xbf3ea5f1	-0.74471956
175	0xbe8b6f29	-0.27233246
176	0xbd0027d3	-0.03128798
177	0xbcaf263b	-0.021380534
178	0x3d55db2b	0.052210968
179	0x3dc5bf39	0.096556135
180	0xbea85acf	-0.3288178
181	0xbe3bc9a9	-0.18338646
182	0x3d8ace15	0.06777588
183	0xbd366013	-0.044525217
184	0x3e5d2e71	0.21599747
185	0xbd391fea	-0.04519645
186	0x3ecd00c4	0.40039647
187	0xbee755bd	-0.451826
188	0x3f05c185	0.5224841
189	0xbb113cc4	-0.0022161463
190	0x3da2e3b3	0.079535864
191	0xbea8dc29	-0.3298047
192	0x3ebf0405	0.37307754
193	0x3dfdbfc4	0.12390092
194	0xbcb6a8fb	-0.022297373
195	0xbe15bfc9	-0.14623941
196	0x3d787d4c	0.060666367
197	0x3de25cf7	0.11052888
198	0x3edf9704	0.43669903
199	0xbed13980	-0.40864182
200	0xbe2bebcb	-0.16789167
201	0xbd0951f6	-0.03352543
202	0xbb797856	-0.003806611
203	0xbee5c4ba	-0.44876653
204	0x3e016e5e	0.12639758
205	0x3d7e1fb6	0.06204196
206	0x3c8fc92e	0.017551985
207	0xbe6e012a	-0.23242632
208	0xbe1aa37a	-0.15101424
209	0x3d1fe592	0.039037295
210	0x3d749045	0.0597079
211	0xbd410ec5	-0.047133226
212	0xbce988e1	-0.028507652
213	0xbdf518aa	-0.11967595
214	0x3d87bd53	0.066279076
215	0x3e5c6484	0.21522719
216	0xbd53f6ee	-0.051749162
217	0x3c8b5598	0.017008588
218	0x3ead7116	0.3387534
219	0xbe6cc03d	-0.23120208
220	0x3e0ef2d2	0.13959816
221	0x3dc33bee	0.09532915
222	0xbd8a8cb2	-0.06765117
223	0xbb483fcd	-0.0030555606
224	0x3de79b6b	0.113089405
225	0x3eb08ceb	0.34482512
226	0xbf1577ee	-0.58386123
227	0x3d579671	0.052633706
228	0xbe1eba77	-0.15500818
229	0xbe3ee92e	-0.18643638
230	0xbdccc1c1	-0.09997893
231	0xbdc10ff2	-0.094268695
232	0x3f685807	0.9075932
233	0xbc6c0ca8	-0.014407314
234	0x3e7668d2	0.24063423
235	0x3e9a877b	0.30181488
236	0xbdba3ff0	-0.09094226
237	0xbd92a3e0	-0.07160163
238	0xbe59d06f	-0.21270917
239	0xbda4bb8d	-0.08043585
240	0xba82ae9f	-0.0009970254
241	0x3e00303d	0.12518401
242	0x3e354154	0.17700702
243	0x3bdd615c	0.006755991
244	0x3c38aaa3	0.011271152
245	0x3dbee610	0.09321225
246	0xba8b269a	-0.0010616363
247	0x3e0a5567	0.13509141
248	0x3ddff426	0.109352395
249	0x3d049198	0.03236541
250	0x3dc4ff61	0.09619022
251	0xbd1a37cb	-0.037650865
252	0xbe5f857c	-0.21828264
253	0xbe936500	-0.28787994
254	0x3dc8660d	0.0978509
255	0xbc561227	-0.013065851

ffn.1.bias f4 [64]
0	0xbb7fde53	-0.0039042428
1	0x3e11a7b4	0.1422413
2	0xbd125f4d	-0.035735417
3	0xbe0cdc5d	-0.13755937
4	0xbe0b519f	-0.13605355
5	0x3cc967b1	0.024585577
6	0xbdfa532b	-0.12222894
7	0x3d6221ef	0.055208143
8	0x3ca6e5e8	0.0203733
9	0xbd2d0838	-0.042244166
10	0x3d545214	0.05183609
11	0xbd6df908	-0.058098823
12	0x3d477825	0.048698563
13	0xbe0b3c67	-0.1359726
14	0x3d1b7843	0.037956487
15	0xbc261b49	-0.010138341
16	0x3c940f35	0.018073658
17	0x3cc8d5fe	0.024516102
18	0x3d93f287	0.07223993
19	0x3c24e1d0	0.0100636035
20	0x3d171a20	0.03689015
21	0x3dc2c040	0.09509325
22	0xbd8cbe58	-0.06872243
23	0xbe53812a	-0.20654741
24	0xbe4f71cd	-0.20258255
25	0xbe3e642e	-0.18592903
26	0x3dc29e9e	0.0950291
27	0x3dafd4a1	0.085854776
28	0xbdec11fc	-0.11526868
29	0xbbe7e614	-0.007076988
30	0x3cd188ff	0.02557802
31	0x3de148fe	0.1100025
32	0x3929f437	0.00016208073
33	0xbd84b76d	-0.06480298
34	0xbe227516	-0.15864977
35	0x3d68931d	0.056780923
36	0xbe06f7ad	-0.13180418
37	0xbd1cba9d	-0.038263906
38	0x3ca0b055	0.019615332
39	0xbde94738	-0.11390537
40	0xbe39bec4	-0.18139178
41	0xbdc8af9d	-0.097991206
42	0x3c7c6fa8	0.01540748
43	0xbe6661a2	-0.22498181
44	0xbdc89631	-0.09794272
45	0xbc857624	-0.016291685
46	0x3dcdf6cb	0.10056838
47	0xbe105924	-0.14096504
48	0x3dc5be30	0.09655416
49	0x3dacdfcf	0.084411256
50	0xbe37fb48	-0.1796695
51	0xbe267f8e	-0.16259596
52	0x3d401895	0.046898443
53	0xbd4e615f	-0.05038583
54	0xbd771d1f	-0.060330506
55	0x3e521402	0.20515445
56	0x3dcad5e9	0.099040814
57	0xbe096bc8	-0.13420022
58	0x3d544f28	0.0518333
59	0xbb1c26ed	-0.0023826913
60	0xbcf1f5b5	-0.029536108
61	0x3d05e05f	0.03268468
62	0x3c2286a4	0.009919796
63	0x3de10f87	0.1098929

ffn.4.weight f4 [64, 64]
0	0x3dc19f96	0.09454267
1	0xbd16d76a	-0.03682653
2	0x3e21f245	0.15815075
3	0xbd65233f	-0.055941816
4	0x3e2d825c	0.1694426
5	0xbd02f00b	-0.031967204
6	0xbd3102e2	-0.04321564
7	0x3dc2ffb5	0.095214285
8	0x3d4ea6bc	0.05045198
9	0xbd9fec55	-0.07808749
10	0x3bdf268f	0.0068100165
11	0xbcadef5a	-0.021232296
12	0x3cd9712d	0.026543224
13	0x3daec8fc	0.085344285
14	0x3da26487	0.0792933
15	0xbd564d7d	-0.052319992
16	0xbd8d5664	-0.06901243
17	0xbd4bb919	-0.04973707
18	0x3e0f9f76	0.14025673
19	0xbc109353	-0.008824187
20	0x3e0847bd	0.13308616
21	0xbd29f1de	-0.04149043
22	0x3dad7cc5	0.084710635
23	0xbc7a1ee2	-0.015266152
24	0x3cfd0de9	0.030890422
25	0x3c166c23	0.009181055
26	0x3bf51a7f	0.007479965
27	0x3c2e4d5a	0.010638559
28	0xbab88335	-0.0014077189
29	0x3dd8c3a6	0.10584192
30	0x3abed063	0.0014557954
31	0xbc8b9559	-0.017038988
32	0x3db14ebe	0.08657597
33	0xbdefed58	-0.117151916
34	0xbbb742b4	-0.0055926684
35	0x3cbace93	0.02280358
36	0x3c983e9c	0.018584542
37	0x3e2aad6e	0.1666772
38	0xbdedb1bb	-0.11606165
39	0x3d64885f	0.055794116
40	0xbd2acb74	-0.041697934
41	0x3d813f20	0.06310868
42	0xbd0cf3cd	-0.034412194
43	0x3c8dc705	0.017306814
44	0xbd9d6d0e	-0.07686816
45	0x3d7ea4a1	0.06216872
46	0x3da18452	0.07886566
47	0x3d6ada5b	0.057337146
48	0xbd092157	-0.03347906
49	0xbd1d4355	-0.03839429
50	0xbdc3d6f8	-0.095624864
51	0xbc9519f1	-0.018200846
52	0x3d588de2	0.052869685
53	0xbc4c1544	-0.012456242
54	0xbd0fd2a6	-0.035113
55	0x3cd26389	0.025682228
56	0x3c09e872	0.008417236
57	0xbc7e5e26	-0.015525376
58	0x3e44b06e	0.19207928
59	0xbdc50a3d	-0.096210934
60	0x3dd64469	0.10462267
61	0xbd2ba6f4	-0.041907266
62	0x3d4fcfd8	0.050735325
63	0xbcb57cb1	-0.022154184
64	0x3e0eb3bd	0.13935752
65	0xbdd5d924	-0.10441807
66	0xbd901cf1	-0.0703677
67	0x3e27ba60	0.1637969
68	0xbe1a7c65	-0.15086515
69	0xbe198040	-0.1499033
70	0x3e2f8740	0.17141438
71	0x3e40d9b9	0.18833055
72	0x3e1930f4	0.1496008
73	0xbd7659ff	-0.06014442
74	0xbda03b74	-0.0782384
75	0xbdfe0dd5	-0.12404982
76	0x3dfd0455	0.12354342
77	0xbcc19e92	-0.023635183
78	0xbe350c13	-0.17680387
79	0x3d1ba756	0.03800138
80	0xbdb5bddf	-0.08874106
81	0xbe2d7938	-0.16940773
82	0x3d93b17a	0.07211585
83	0x3d4ebeae	0.050474815
84	0xbce67b15	-0.028134862
85	0x3cf64912	0.03006414
86	0x3e4674cd	0.19380493
87	0xbe36684f	-0.17813228
88	0xbd540e10	-0.051771224
89	0x3e4ba845	0.19888408
90	0xbdd5f60c	-0.1044732
91	0x3d58f715	0.05297001
92	0xbe59ce6b	-0.21270148
93	0xbdc0dea8	-0.09417468
94	0xbdff12af	-0.124547355
95	0x3c84f692	0.016230855
96	0xbc5f0d30	-0.013613984
97	0x3e3b15cc	0.18270034
98	0xbd052399	-0.03250465
99	0x3e5c2e19	0.2150196
100	0x3d797719	0.060904596
101	0x3d73efca	0.059554853
102	0x3d7892ca	0.060686864
103	0xbd1427fd	-0.03617095
104	0xbe70f743	-0.23531823
105	0xbcc6cc46	-0.024267327
106	0x3ccf967b	0.02534031
107	0x3e4510e2	0.19244722
108	0x3e1fc447	0.15602218
109	0x3c9808f0	0.01855895
110	0x3e17eab0	0.1483562
111	0xbe06ca5e	-0.13163134
112	0x3d6e0ff6	0.05812069
113	0x3e8218a0	0.25409412
114	0xbd142e26	-0.036176823
115	0x3df10e97	0.11770361
116	0xbdb031a1	-0.08603216
117	0xbd131f46	-0.035918497
118	0x3c864ba7	0.016393496
119	0xbe2b7dff	-0.16747282
120	0x3d695e6c	0.056974813
121	0xbe412838	-0.18862998
122	0x3c98feb1	0.018676134
123	0xbc872b4a	-0.016500134
124	0x3e6434e9	0.22285809
125	0x3e292af4	0.16520292
126	0x3d5f3d47	0.054501798
127	0xbd3cdb1a	-0.04610739
128	0x3e3ff971	0.18747498
129	0xbbccc42e	-0.0062489724
130	0x3dcaa8d3	0.09895482
131	0xbd7280f5	-0.059205014
132	0xbc77279c	-0.015085127
133	0xbd9400cd	-0.07226715
134	0x3ad3e1c1	0.0016165302
135	0xbb82b9a1	-0.003989414
136	0xbc65eead	-0.0140339555
137	0xbe18ee5b	-0.14934675
138	0xbd600687	-0.054693725
139	0x3cb30cf4	0.021856762
140	0x3d96f2ef	0.07370555
141	0xba1ffb18	-0.00061027845
142	0xbdc848e2	-0.09779526
143	0x3d92f193	0.07174983
144	0x3cbadf45	0.022811541
145	0x3a3ab3bc	0.00071221194
146	0xbd324bc4	-0.043529287
147	0xbcf825c6	-0.03029145
148	0x3d9c5a0f	0.07634365
149	0x3d79b1dd	0.06096064
150	0x3baf4c56	0.005349676
151	0x3d082eb3	0.03324766
152	0x3db6f296	0.08932988
153	0x3b45bf9c	0.0030174023
154	0xbd3a25fc	-0.04544638
155	0x3c40474b	0.011735748
156	0xbcfc1af7	-0.030774577
157	0xbcb44ce2	-0.022009317
158	0x3d2f857e	0.042851917
159	0x3d15ed66	0.036603354
160	0xbe340673	-0.17580585
161	0x3be70f36	0.007051374
162	0x3ce02d03	0.027365213
163	0x3d8dc7d5	0.069228806
164	0x3deeac7a	0.11653991
165	0xbc27e8e4	-0.010248397
166	0x3dc5a332	0.09650268
167	0xbaa7ab1f	-0.0012792087
168	0x3dab05f1	0.083507426
169	0x3dd10cf2	0.10207547
170	0x3d97eaf3	0.0741786
171	0xbdb1946d	-0.08670888
172	0xbd0fe18a	-0.0351272
173	0x3da6b7d4	0.08140531
174	0xbd2c5b72	-0.042079397
175	0xbda25456	-0.07926242
176	0x3de0a551	0.109690316
177	0xbe002964	-0.1251579
178	0x3d1e72a0	0.038683534
179	0xbcc0e3fe	-0.023546215
180	0x3cb490fe	0.022041794
181	0xbdbda2b3	-0.09259548
182	0x3dfd812b	0.123781525
183	0xbe150d9e	-0.14555976
184	0x3d8940e1	0.06701828
185	0xbda5e5e1	-0.081004865
186	0xbb951332	-0.0045494074
187	0x3dc00ecb	0.093778215
188	0x3d86b8f2	0.06578244
189	0xbd2fb2a5	-0.042894978
190	0x3cfd33f4	0.030908562
191	0xbdb90697	-0.0903446
192	0xbcb2321a	-0.021752406
193	0xbd915114	-0.070955426
194	0xbda7de7c	-0.081967324
195	0xbcf04087	-0.029327644
196	0xbcc39ce8	-0.02387853
197	0xbdb0636f	-0.086127155
198	0xbdb2be3f	-0.08727693
199	0xbddf2cae	-0.10897194
200	0xbcd88a25	-0.02643306
201	0xbea9200e	-0.33032268
202	0x3dbf71c5	0.09347872
203	0x3ddfb202	0.10922624
204	0xbdd0e8c8	-0.102006495
205	0xbdd9f013	-0.10641494
206	0xbd72a8ab	-0.059242886
207	0xbc839ff9	-0.016067492
208	0x3dda334a	0.10654314
209	0x3dd775e5	0.105205335
210	0xbe011647	-0.12606154
211	0x3bb1d21b	0.005426658
212	0xbdb6d92a	-0.089281395
213	0x3d1c4f81	0.03816176
214	0xbd0bef9b	-0.034164052
215	0xbcd3dc46	-0.02586187
216	0x3e00f3c4	0.12592989
217	0x3e02512d	0.12726279
218	0xbd312884	-0.04325153
219	0xbce16ef7	-0.027518732
220	0x3da0fc55	0.078606285
221	0x3c7b0303	0.015320542
222	0x3ceff7e1	0.029293003
223	0x3ddc30fd	0.10751531
224	0xbdfb4eaf	-0.12270867
225	0x3dafb721	0.08579851
226	0x3daaee66	0.08346252
227	0x3e3d5b89	0.18491949
228	0xbd1d81a7	-0.038453724
229	0xbc9f085f	-0.019413171
230	0x3de02b07	0.10945707
231	0xbe50f4c9	-0.20405878
232	0xbc4f112a	-0.01263837
233	0x3e2e016b	0.16992728
234	0xbd9c47f4	-0.076309115
235	0xbb9f33ea	-0.0048584836
236	0xbda52885	-0.08064369
237	0x3e5443d8	0.20729005
238	0xbd1a2d35	-0.03764077
239	0xbe83b41a	-0.25723344
240	0xbd7e9692	-0.062155314
241	0xbdfdf78b	-0.12400731
242	0x3d76dbf6	0.060268365
243	0xbd8b9483	-0.06815436
244	0xbde5b3f7	-0.11215966
245	0x3da42db2	0.08016528
246	0x3e1e32d4	0.15449077
247	0xbe5c7069	-0.21527256
248	0x3e091120	0.13385439
249	0xbded84c9	-0.115975924
250	0xbdf9384f	-0.12168943
251	0x3a604ea5	0.0008556641
252	0xbc2f3674	-0.010694135
253	0xbe3de6ed	-0.18545122
254	0xbe06f508	-0.1317941
255	0xbcbe8ac9	-0.023259537

ffn.4.bias f4 [64]
0	0xbd007595	-0.031362135
1	0xbd1422c2	-0.03616596
2	0x3d219486	0.039448284
3	0xbd4bc997	-0.049752798
4	0xbe24be83	-0.160883
5	0xbe6987dd	-0.22805734
6	0x3d885c34	0.06658211
7	0xbe36197c	-0.17783159
8	0xbc8fa63e	-0.017535325
9	0xbe7b655e	-0.24550387
10	0xbe7db3f5	-0.2477568
11	0xbb9f2091	-0.004856177
12	0xbea59e15	-0.3234717
13	0xbcc808a3	-0.02441818
14	0xbebe3eef	-0.3715739
15	0xbe0065d4	-0.12538844
16	0x3da3e011	0.08001722
17	0x3cc8215d	0.024429971
18	0x3bb94683	0.0056541576
19	0x3db4a942	0.08821346
20	0x3dacf6a8	0.084454834
21	0x3dcdd7a8	0.10050899
22	0x3d18c9e6	0.03730192
23	0xbdfe0ed8	-0.12405175
24	0x3dd9fc51	0.10643829
25	0x3c385106	0.011249786
26	0xbf02c981	-0.5108872
27	0xbd6b83c7	-0.05749872
28	0x3dfe31c4	0.12411836
29	0xbe24623e	-0.16053101
30	0xbb3d850d	-0.0028918416
31	0xbdf26736	-0.11836092
32	0xbe07e322	-0.13270238
33	0xbbadc999	-0.0053035733
34	0xbe5ad783	-0.21371274
35	0x3d4b2503	0.049595844
36	0xbde678c7	-0.11253505
37	0x3d580a4a	0.052744187
38	0xbdc0938b	-0.094031416
39	0xbc965a92	-0.018353734
40	0xbd05cfa0	-0.03266871
41	0xbe14af83	-0.14520077
42	0xbde65407	-0.11246496
43	0x3d94518f	0.072421186
44	0x3dac1a0c	0.084034055
45	0x3d5f1aba	0.054468848
46	0xbe773359	-0.24140681
47	0xbe8400a4	-0.2578174
48	0x3e30e4db	0.17274801
49	0x3db352eb	0.0875605
50	0xbda34b09	-0.07973296
51	0xbd6d0df4	-0.057874635
52	0xbe2fece1	-0.17180206
53	0x3f417c1c	0.7558
54	0x3e3ae774	0.18252355
55	0xbe34ad81	-0.17644311
56	0xbdc40625	-0.095714845
57	0xbe4ca323	-0.19984107
58	0x3b833824	0.004004495
59	0x3d6a654e	0.057225518
60	0xbe5cd32c	-0.2156493
61	0xbe7bf14a	-0.24603763
62	0xbe786b95	-0.2425979
63	0x3d839a24	0.06425884
