THESIS/transfer_learning/trained/DMPNN_with_attention_Holdout_test.pt (torch, 658723 bytes, 21 tensors)

encoder_sol.cached_zero_vector f4 [128]
000000 00 00 00 00 00 00 00 00 00 00 00 00 00 00 00 00
       0.0 0.0 0.0 0.0
000010 00 00 00 00 00 00 00 00 00 00 00 00 00 00 00 00
       0.0 0.0 0.0 0.0
000020 00 00 00 00 00 00 00 00 00 00 00 00 00 00 00 00
       0.0 0.0 0.0 0.0
000030 00 00 00 00 00 00 00 00 00 00 00 00 00 00 00 00
       0.0 0.0 0.0 0.0
000040 00 00 00 00 00 00 00 00 00 00 00 00 00 00 00 00
       0.0 0.0 0.0 0.0
000050 00 00 00 00 00 00 00 00 00 00 00 00 00 00 00 00
       0.0 0.0 0.0 0.0
000060 00 00 00 00 00 00 00 00 00 00 00 00 00 00 00 00
       0.0 0.0 0.0 0.0
000070 00 00 00 00 00 00 00 00 00 00 00 00 00 00 00 00
       0.0 0.0 0.0 0.0
000080 00 00 00 00 00 00 00 00 00 00 00 00 00 00 00 00
       0.0 0.0 0.0 0.0
000090 00 00 00 00 00 00 00 00 00 00 00 00 00 00 00 00
       0.0 0.0 0.0 0.0
0000a0 00 00 00 00 00 00 00 00 00 00 00 00 00 00 00 00
       0.0 0.0 0.0 0.0
0000b0 00 00 00 00 00 00 00 00 00 00 00 00 00 00 00 00
       0.0 0.0 0.0 0.0
0000c0 00 00 00 00 00 00 00 00 00 00 00 00 00 00 00 00
       0.0 0.0 0.0 0.0
0000d0 00 00 00 00 00 00 00 00 00 00 00 00 00 00 00 00
       0.0 0.0 0.0 0.0
0000e0 00 00 00 00 00 00 00 00 00 00 00 00 00 00 00 00
       0.0 0.0 0.0 0.0
0000f0 00 00 00 00 00 00 00 00 00 00 00 00 00 00 00 00
       0.0 0.0 0.0 0.0
000100 00 00 00 00 00 00 00 00 00 00 00 00 00 00 00 00
       0.0 0.0 0.0 0.0
000110 00 00 00 00 00 00 00 00 00 00 00 00 00 00 00 00
       0.0 0.0 0.0 0.0
000120 00 00 00 00 00 00 00 00 00 00 00 00 00 00 00 00
       0.0 0.0 0.0 0.0
000130 00 00 00 00 00 00 00 00 00 00 00 00 00 00 00 00
       0.0 0.0 0.0 0.0
000140 00 00 00 00 00 00 00 00 00 00 00 00 00 00 00 00
       0.0 0.0 0.0 0.0
000150 00 00 00 00 00 00 00 00 00 00 00 00 00 00 00 00
       0.0 0.0 0.0 0.0
000160 00 00 00 00 00 00 00 00 00 00 00 00 00 00 00 00
       0.0 0.0 0.0 0.0
000170 00 00 00 00 00 00 00 00 00 00 00 00 00 00 00 00
       0.0 0.0 0.0 0.0
000180 00 00 00 00 00 00 00 00 00 00 00 00 00 00 00 00
       0.0 0.0 0.0 0.0
000190 00 00 00 00 00 00 00 00 00 00 00 00 00 00 00 00
       0.0 0.0 0.0 0.0
0001a0 00 00 00 00 00 00 00 00 00 00 00 00 00 00 00 00
       0.0 0.0 0.0 0.0
0001b0 00 00 00 00 00 00 00 00 00 00 00 00 00 00 00 00
       0.0 0.0 0.0 0.0
0001c0 00 00 00 00 00 00 00 00 00 00 00 00 00 00 00 00
       0.0 0.0 0.0 0.0
0001d0 00 00 00 00 00 00 00 00 00 00 00 00 00 00 00 00
       0.0 0.0 0.0 0.0
0001e0 00 00 00 00 00 00 00 00 00 00 00 00 00 00 00 00
       0.0 0.0 0.0 0.0
0001f0 00 00 00 00 00 00 00 00 00 00 00 00 00 00 00 00
       0.0 0.0 0.0 0.0

encoder_sol.W_i.weight f4 [128, 147]
000000 a5 1c ef bc 76 8c 5d bd 88 1c 79 bc e8 8f 5f 3d
       -0.029188463 -0.054089032 -0.015204556 0.0545806
000010 98 68 cf bd f1 c6 52 bd bf 2b 51 be 52 99 bc 3d
       -0.101273715 -0.051459257 -0.20426844 0.09208931
000020 83 89 35 3e 00 30 d6 ba 28 d9 8a bd 18 f9 05 3d
       0.17728238 -0.0016341209 -0.067797005 0.032708257
000030 3f 5e 81 bd 13 57 b6 3d 09 e0 89 3e 01 1d 21 be
       -0.06316804 0.08903327 0.26928738 -0.1573372
000040 dd 27 be bd ac ed 85 3d 60 74 9d bd a0 5e 55 bb
       -0.09284947 0.06539473 -0.076882124 -0.0032557622
000050 63 bd 72 bd d0 6c b9 bb ca e8 20 bd ec 1b b1 3c
       -0.059262644 -0.0056587234 -0.039284505 0.02161976
000060 9e 1d f3 bc a0 be 71 3d 08 1e 4b 3c 13 26 16 bd
       -0.029677209 0.059019685 0.012397297 -0.036657404
000070 2c 3a d0 bc 70 f2 16 bd e4 de 6c 3d 78 ea e2 3c
       -0.025418364 -0.0368523 0.057829753 0.027699694
000080 81 38 36 3d 22 85 35 bd c1 94 12 bd a0 b6 91 3d
       0.04448748 -0.04431642 -0.035786394 0.07114911
000090 96 6e 96 3d 94 11 a7 3c cb 56 27 bd 9a 47 09 3d
       0.07345311 0.020394124 -0.040854257 0.03351555
0000a0 32 5c a6 3d 44 eb 7d 3d 06 0c a3 bd 30 b7 14 bd
       0.081230536 0.061991945 -0.07961278 -0.036307514
0000b0 c0 1f a9 3a 10 bc dc bb 8c 2d 82 3d ce 26 6d bd
       0.0012903139 -0.006736286 0.063563436 -0.057898335
0000c0 3c 93 57 bd 01 d1 2b 3d 2a 9a 87 3d 84 77 69 3d
       -0.052630648 0.04194737 0.06621201 0.056998745
0000d0 80 98 c1 bd 40 f1 38 bd 14 93 7a 3d d0 e5 aa bc
       -0.09452915 -0.04515195 0.06117542 -0.020861536
0000e0 10 3b 4d 3d e0 b3 61 bd 58 83 51 3d 60 6e 6d 3d
       0.050105155 -0.055103183 0.05115065 0.05796659
0000f0 02 b3 82 3d f2 23 f9 bc cc 46 9c bd 8a e1 8a bd
       0.06381799 -0.030412648 -0.07630691 -0.067812994
000100 e2 98 83 3d b5 84 76 bd 21 3c 04 bd f9 2c 96 bd
       0.064256445 -0.060185153 -0.032283906 -0.073327966
000110 68 ab 3c bc a0 bf 5e bb b7 0b 9f bd 04 67 9a bc
       -0.011515476 -0.003398873 -0.07765906 -0.01884795
000120 94 63 5a 3d b0 d0 8d 3d bb b3 a2 bd 80 5e 6d 3b
       0.05331762 0.069245696 -0.07944437 0.0036219656
000130 f4 dd 77 3d 6c 52 cd 3c b8 d9 9f 3d a9 42 9a bc
       0.060514405 0.025063716 0.078051984 -0.018830614
000140 18 52 68 bc 90 9e 3e 3d ec 0f 88 3d 85 de 14 bd
       -0.014179729 0.046537936 0.06643662 -0.036345024
000150 84 42 64 3d 88 9a 6c 3c c4 12 a7 bc 2b 75 60 bd
       0.055727497 0.01444114 -0.02039469 -0.05479924
000160 38 0d 3e 3d 80 a2 68 3d 6e 66 03 3d c3 b9 57 bd
       0.046399325 0.056795597 0.032080106 -0.05266739
000170 24 de a4 3c 40 15 5a 3b ec ca b3 3c 08 57 66 bd
       0.020125456 0.0033276826 0.021947347 -0.056235343
000180 d2 0e d8 bc 78 31 3a 3d 40 4a 08 3d 58 d4 02 bc
       -0.026374254 0.045457333 0.033273935 -0.007985197
000190 7d 90 12 bd 75 db 90 bd ef 9b 4a 3d 74 e1 7e bd
       -0.035782326 -0.07073108 0.049465116 -0.062226728
0001a0 be 4e f9 bc 69 c7 2d be a4 5b d3 bc 48 96 00 3c
       -0.030433055 -0.169706 -0.025800534 0.00784833
0001b0 3e 50 67 be d6 77 1e bd bf 3b 17 bd ac fd a3 bc
       -0.22589204 -0.038688503 -0.036922213 -0.020018421
0001c0 eb 18 34 3d cf 8d 33 bd be 2f ec bb f2 13 1d be
       0.043969076 -0.04383641 -0.0072078397 -0.1533964
0001d0 7d e5 56 bc b0 cd 46 3c d5 b1 92 bd 0b 6c ca 3d
       -0.013116238 0.012134001 -0.07162825 0.09883889
0001e0 46 4b cd bd f4 08 b7 bd 17 86 9f bd 80 c0 ff bb
       -0.10024123 -0.089372545 -0.077892475 -0.00780493
0001f0 66 f2 97 3d e9 af 46 bd 2e 2d e0 bc a2 84 a4 bd
       0.07419281 -0.048507605 -0.027365293 -0.0803311
000200 c0 e1 6b 3b 18 13 36 bc 35 72 23 bd d3 02 90 bd
       0.0035992712 -0.011112951 -0.03990384 -0.07031789
000210 a5 51 3f bd 48 ac 86 bc 10 59 54 3c 27 03 14 3d
       -0.04670872 -0.016439572 0.012960687 0.03613582
000220 7c 00 14 bd 20 4c 54 bd b3 72 77 3d 00 55 89 3c
       -0.036133274 -0.05183041 0.06041212 0.016764164
000230 96 d5 ff 3c 56 b3 7c bd 08 7c cd bd dc 88 53 bd
       0.031229775 -0.061694466 -0.10033423 -0.05164419
000240 a4 3a 8d 3d e3 4d 93 bd 1a 19 a7 3d 23 ad 18 3c
       0.068959504 -0.0719259 0.081590846 0.009318623
000250 05 21 2b bd 7c e1 78 3d 04 ab 3f 3d 8f 74 54 3e
       -0.041779537 0.060761914 0.046793953 0.20747589
000260 b3 bc 9d bc e8 db 00 3e 46 32 21 be 08 42 a3 bd
       -0.019255018 0.12583888 -0.15741834 -0.07971579
000270 4c 3f 4d 3d 54 97 45 3d a5 80 4d bd fc fd e4 bc
       0.050109193 0.04824002 -0.050171513 -0.02795314
000280 7f ef b5 3d 07 29 e8 3b 7d be 34 be f6 0d 25 3e
       0.08883571 0.007084969 -0.1765079 0.16118607
000290 e0 3a 90 3d 56 01 2a 3d a8 fb b5 3c 4a 3d ff bc
       0.070424795 0.04150518 0.022214726 -0.031157155
0002a0 0c 1e 82 3d 0b 7a 9e bd 3e 28 94 3d e2 7e 7f bd
       0.06353387 -0.077381216 0.07234238 -0.062376864
0002b0 e0 de 35 3d fc e1 a7 3d 22 52 87 bd 16 b0 ef bc
       0.044402003 0.081974 -0.066074625 -0.029258769
0002c0 af 77 98 bd c8 2f 85 bd 1e 1b 8d 3d 71 c7 6e be
       -0.07444703 -0.06503254 0.06889938 -0.23318268
0002d0 23 2c 01 3d 23 3a 1b 3e 8a 69 66 bd 11 e7 74 bd
       0.031536233 0.15158896 -0.056252994 -0.059790675
0002e0 b1 af 20 bd f8 47 d9 bc 20 fa 29 3d 12 59 94 bd
       -0.039230052 -0.026523575 0.041498303 -0.07243551
0002f0 2a f4 09 3d 0e 2b 80 3d e2 f4 f1 bc 38 c6 27 3d
       0.03368012 0.06258212 -0.029535715 0.04096052
000300 c0 12 cf bb 76 a2 90 3d 10 0e 55 3c de 28 19 3d
       -0.006319374 0.07062237 0.013003841 0.03739249
000310 63 97 0c 3e 00 8c 25 bc d7 eb 6b bd ab 3f e5 bd
       0.13729624 -0.010104179 -0.05759796 -0.11193784
000320 d4 29 2b 3d 5e 97 8a 3d e9 e6 77 bd 94 8b df bc
       0.041787937 0.06767152 -0.060522947 -0.027288236
000330 10 91 77 bd 40 53 70 3d e4 62 87 bd 78 8b 46 3d
       -0.060441077 0.058673143 -0.06610659 0.04847285
000340 2d 32 03 bd e0 e5 24 3b 9c 5c cd 3c 15 d1 4d bd
       -0.032030273 0.002516143 0.025068574 -0.050248224
000350 00 e9 a5 3b f0 c1 84 bd d8 20 99 3d 52 8c cd bc
       0.005063176 -0.06482303 0.074769676 -0.025091324
000360 1c 82 fa 3c 04 14 98 bd 62 0b ae bc 0c d9 80 3c
       0.03057962 -0.07425693 -0.021245662 0.015728496
000370 70 d2 59 bd 80 60 3d 3a 08 7c 7e 3d 4d 56 2b bd
       -0.053179204 0.00072241575 0.062130004 -0.04183035
000380 d0 98 20 3d f8 a1 8c 3c 04 55 91 bd 62 05 70 bd
       0.039208233 0.017167076 -0.070962936 -0.058598883
000390 18 0c be bc e0 d9 e5 3c f4 bc 5e 3d 28 ef 00 3c
       -0.023199126 0.028057992 0.05437942 0.007869519
0003a0 0e f7 9e 3d ec 35 80 3d e8 9a db 3c cf 0d 23 bd
       0.07761966 0.06260285 0.026807263 -0.03980809
0003b0 e2 b8 c7 bc 62 48 94 3d cc 69 40 3d 9c dd 81 bc
       -0.024380151 0.072403684 0.046975896 -0.015852742
0003c0 3c 65 0e 3d fc 3c cf bc 10 0f da bb a4 fd 9a 3d
       0.034764513 -0.025297634 -0.0066546276 0.07567909
0003d0 f0 78 99 3d a7 94 34 bd 42 2a 24 3d c0 02 af ba
       0.0749377 -0.04408708 0.040079363 -0.001335226
0003e0 98 f8 83 3d 2f 7b 60 bd 8b fe 43 3e cb 67 23 3d
       0.064439 -0.054804977 0.19140069 0.039893907
0003f0 dc c6 22 3d f0 4f 27 3c 82 61 d4 bc e1 e2 29 bd
       0.03974043 0.01021193 -0.025925402 -0.041476134

encoder_sol.W_i.bias f4 [128]
000000 42 58 fc bd 95 25 4e bc 81 c9 8e bd 2b 54 80 bd
       -0.12321521 -0.012582202 -0.069720276 -0.06266054
000010 7a 37 08 3c ed 27 3c bd 21 9e fc bb 2a 1f b3 bd
       0.008314008 -0.045936514 -0.00770928 -0.087461784
000020 84 f6 0c bd 93 6d 43 bd 3f e3 88 bd 9b 2a 6a bd
       -0.034414783 -0.04771192 -0.06683969 -0.057169538
000030 38 3c 76 bc 74 db f5 bc b1 b0 b2 bd ee eb 26 bd
       -0.015029006 -0.03001187 -0.087251075 -0.040752344
000040 2c c2 a9 bd ae 40 eb bd bc c1 26 bc 26 54 b1 bc
       -0.082889885 -0.11486946 -0.010178026 -0.02164657
000050 9b 0a af bc 76 8c 82 bd 2e 41 8d bd 1f 77 91 bb
       -0.021367362 -0.06374447 -0.06897198 -0.004439249
000060 8c b2 62 bd 0d ea 86 bc b8 bf d4 3c 36 fa ad bd
       -0.055346057 -0.016469026 0.025970325 -0.084949896
000070 ac 2f 29 bd 81 47 c0 bc 81 55 87 bb ad 91 ce bd
       -0.04130523 -0.023471596 -0.004130066 -0.10086379
000080 92 46 d9 bd f8 7e 93 b9 4f 62 54 bd 7f cb 5f 3d
       -0.10609163 -0.00028132624 -0.051851567 0.05463743
000090 ea f7 4e bd 3d 97 64 bc f1 4c 54 3c 02 e7 f2 bd
       -0.050529398 -0.013952074 0.012957797 -0.118604675
0000a0 6c 9d ab bc b7 83 b8 bc b1 62 65 bd 16 97 cc bc
       -0.020949088 -0.022523744 -0.056002323 -0.024974387
0000b0 78 b6 21 bc 83 a0 a5 bc ae 49 b7 bd 16 9a 1d bc
       -0.009870164 -0.02021814 -0.089496 -0.0096192565
0000c0 34 8f e5 bb f7 50 ad bc 4b 82 a8 bd ba b6 0a be
       -0.0070055965 -0.021156771 -0.082279764 -0.13546267
0000d0 a2 d2 ac bd 0c da bb bc e6 04 27 bd 93 4f a8 bd
       -0.084386125 -0.022931121 -0.040776156 -0.082183026
0000e0 61 27 d8 bd 9a 39 dd bd af 56 46 bd d8 db d4 bd
       -0.10554386 -0.10802002 -0.04842251 -0.10393494
0000f0 19 1b cf bd 88 d7 39 3c cb a4 88 bb 26 c4 f2 bc
       -0.1011259 0.011342891 -0.0041700355 -0.029634546
000100 f9 ee aa bc b0 5c bb bc f4 4c 63 bd b2 65 21 bd
       -0.020865904 -0.022871345 -0.05549331 -0.039403625
000110 8c 08 12 bd 66 45 84 bb a0 3f 0c 3d 46 17 a7 3b
       -0.035652682 -0.0040365933 0.034240365 0.00509921
000120 96 4a 96 bd 5f 5a eb bd 5a d7 a6 bd 64 30 04 be
       -0.07338445 -0.11491846 -0.08146544 -0.12909085
000130 f8 7f 86 ba 4e b8 a2 bd f3 22 60 bd 93 1a fe 3b
       -0.0010261526 -0.079453096 -0.05472083 0.0077546327
000140 47 ce 9c bd 88 15 a0 bd 5c 21 b3 3c ad f7 34 bc
       -0.07656532 -0.07816607 0.021866493 -0.011045379
000150 ec b3 f2 bb 0f 0a db bd 19 bd 9a bd fe 29 f3 bd
       -0.0074067023 -0.10695278 -0.07555599 -0.11873244
000160 11 14 1f bc 23 5e e9 bc 55 71 9f bd 41 e7 65 bd
       -0.009709374 -0.02848727 -0.07785288 -0.056128744
000170 87 8a d2 3c f2 61 40 bc 15 f0 69 bd a8 0d f2 bd
       0.02570082 -0.011742102 -0.057113726 -0.11819011
000180 db 9e bc bd 70 df 9b 3a 8c 06 8f bd e6 20 c2 bc
       -0.09209987 0.0011892151 -0.069836706 -0.023697328
000190 ab 85 61 bc 83 e6 b9 bd 8d cd 85 bd a2 8d aa bb
       -0.013764779 -0.0907717 -0.06533346 -0.005204872
0001a0 3f c2 11 3d 06 a7 6b bd bc 7c 72 bd 28 b0 7a bc
       0.035585638 -0.057532333 -0.059200987 -0.015300788
0001b0 ca b2 e7 bd af 3d 05 bd 39 4c 95 bc c2 8c 0a bd
       -0.11313398 -0.03252953 -0.018224822 -0.033825643
0001c0 3d 24 68 bd 39 76 72 bc 38 80 98 bb 24 0e 8b bd
       -0.056675185 -0.014798694 -0.0046539567 -0.067898065
0001d0 21 8f 83 bb ae 5f ce bd 05 6c e9 bc 9e 7e 7c bd
       -0.004014865 -0.10076843 -0.02849389 -0.06164419
0001e0 af e2 83 bd 55 b9 44 bd 97 cf 49 bc 80 f1 96 bc
       -0.06439721 -0.04802831 -0.01231756 -0.018425703
0001f0 73 1f bf bb 3e 76 98 bc 0e 4d e7 bd 50 7d 7d bd
       -0.0058326065 -0.01861107 -0.11293994 -0.061887085

encoder_sol.W_h.weight f4 [128, 128]
000000 99 ca 2d bd a1 22 bc be 67 c1 b2 bc 52 4b 20 3e
       -0.04242954 -0.3674517 -0.021820737 0.15653732
000010 3a e3 33 3d 7d 36 29 3d 39 3d 92 be 63 b8 56 3e
       0.043917872 0.04131173 -0.28562334 0.20968775
000020 a5 8e ec 3d 23 be 22 be 23 25 46 3d cb 47 40 3c
       0.11550645 -0.15892844 0.04837526 0.011735867
000030 37 21 26 be dc 2d 9a 3d 5f 22 29 3e f3 2c 77 bd
       -0.16223608 0.07528278 0.16517018 -0.0603456
000040 5b b6 18 3c 2c 6a 1d 3e 25 ab dd 3d e4 ac ab bc
       0.009320821 0.15372533 0.10823659 -0.020956464
000050 ca d6 eb 3d 9c 25 e3 bd 2f 5a 99 bd 57 09 8e 3d
       0.11515577 -0.11091158 -0.07487904 0.06935375
000060 8a bd c9 3d c2 d5 66 3d 4d e2 8c be 55 fb 13 3c
       0.09850605 0.0563562 -0.27516404 0.00903209
000070 03 22 9e 3d 3e 16 e8 bd 50 57 9c bd b3 ac c3 3d
       0.07721331 -0.11332367 -0.07633841 0.09554424
000080 19 48 95 3c 5f ea f7 bd 75 27 3f bd 7c 33 44 3d
       0.018222855 -0.121052496 -0.04666849 0.04790066
000090 bc 4a aa 3c df 68 32 bc fa 6f ef bb ed 66 2e be
       0.02078759 -0.010889261 -0.00730705 -0.1703145
0000a0 65 6e 8e bd 73 ea 28 bc 8e 8f bd bd 8e b7 e6 3d
       -0.0695465 -0.010309803 -0.092558965 0.11265479
0000b0 58 b4 42 be cf ae e3 bd f6 d4 51 bd 4e 48 8e be
       -0.19014108 -0.111173265 -0.051228486 -0.2778954
0000c0 a9 d2 49 3c f8 39 b2 be 02 e3 fd bd 04 cb 82 be
       0.012318292 -0.34809852 -0.12396814 -0.25545514
0000d0 bb 63 a9 bd ea 07 a8 be c2 79 b9 3b 98 a9 8c 3d
       -0.08270975 -0.32818538 0.0056602666 0.06868285
0000e0 dc bf bc bd ad ea f7 3d 54 aa 8b 3e 41 8d 2e 3d
       -0.09216282 0.12105308 0.27278388 0.04261518
0000f0 cc aa 04 bd a2 f8 55 bb 6e b2 a6 bc f3 81 4e 3d
       -0.032389447 -0.0032649417 -0.020348754 0.050416898
000100 77 8f 2b bd 2e 9d a4 bc d6 9e 54 3e d3 17 2f 3c
       -0.041884866 -0.02009448 0.20763716 0.0106868325
000110 93 b0 b1 3c f3 fa 9d be 4b 9a a8 bd a0 dc 80 3d
       0.021690642 -0.30855522 -0.08232554 0.06292081
000120 df 89 8e be 9f 43 70 3e 8f 1c 59 be 85 c9 90 bd
       -0.27839562 0.23463295 -0.212023 -0.07069687
000130 57 f8 34 bd c5 3c 95 be 91 eb 44 bd c2 64 0a 3e
       -0.044182148 -0.29147926 -0.048076216 0.13514999
000140 7f 7d 0d bd 02 ee b4 3e a1 1d 8a bd 73 cf d4 3d
       -0.03454351 0.35337836 -0.067439325 0.1039113
000150 dc c8 35 3e 08 01 5d bd 51 b1 3d 3b 8b d5 95 3c
       0.17752403 -0.05395606 0.00289448 0.018290302
000160 bd 17 1a be c3 d0 1c be 2d e5 a5 bd 66 04 56 be
       -0.15048118 -0.15314011 -0.081003524 -0.20900115
000170 6b 26 25 be 8c 90 5d bd fa 27 22 be 69 35 b5 be
       -0.16127937 -0.05409293 -0.15835562 -0.3539231
000180 c5 e9 b9 3d 61 9e 0c be 5f 31 cc bd 54 1e 84 3d
       0.09077791 -0.13732292 -0.09970354 0.06451097
000190 44 5d db 3d c9 24 87 3d 1b 58 a1 be a4 81 d8 3c
       0.107111484 0.06598813 -0.31512532 0.026429005
0001a0 01 ec 96 3c 9b 25 08 be 25 64 2d ba 78 b7 92 3e
       0.018423082 -0.13295595 -0.0006614349 0.286556
0001b0 51 32 47 bd 53 15 cf 3d 7f 29 8a be 3e 34 fa 3d
       -0.04863197 0.10111489 -0.26984784 0.12216996
0001c0 db 26 24 3d ff c7 1f 3e 31 91 24 3e 94 f7 81 3d
       0.040076118 0.15603636 0.16071011 0.0634605
0001d0 9c da 8a be b8 52 4c be 48 67 c0 3b b2 62 12 be
       -0.2711991 -0.1995343 0.005871687 -0.14295462
0001e0 1e 40 88 bd 3e f9 ab bd ce db 6f bd cb 3d 51 bd
       -0.066528544 -0.083971485 -0.05855923 -0.05108432
0001f0 ad 4b de 3d 14 51 bd 3d 64 b3 7b be 42 b1 07 bd
       0.10854278 0.0924398 -0.24580151 -0.03312803
000200 1a 99 45 3d f0 9a 40 3c 67 23 d5 bd 7a b7 e7 bd
       0.048241712 0.01175569 -0.10407143 -0.11314292
000210 5e fc ac 3d ad 9b d3 3c d8 87 9a 3d 11 4d 97 bd
       0.08446573 0.025831068 0.075454414 -0.07387746
000220 78 e5 02 be b4 eb 25 be 16 6c 5b 3b 1e cb 26 be
       -0.12782848 -0.16203195 0.0033481172 -0.1628842
000230 52 ce 54 bd ef 74 ed 3c 2c 8e ec be 08 16 f3 bd
       -0.051954575 0.028986422 -0.4620222 -0.118694365
000240 6a 8c 4b 3e 33 71 18 3d 32 01 92 bd 06 cc 3b 3d
       0.19877782 0.03721733 -0.07129134 0.04584887
000250 65 6f 74 be 87 03 0f 3e f1 b6 6b bd 66 92 76 bd
       -0.23870619 0.1396619 -0.057547513 -0.06019821
000260 63 a7 b8 bc 35 a3 12 be b3 3c 6c be dc 70 6a be
       -0.022540754 -0.14320071 -0.2307003 -0.22894615
000270 d1 2b 07 be 01 41 49 bc 87 70 75 be 91 76 e1 bd
       -0.13200308 -0.012283565 -0.23968707 -0.11008943
000280 86 85 3e bd 74 52 59 be 35 88 3a 3c d6 d7 c3 3c
       -0.046514057 -0.2122286 0.011385013 0.02390663
000290 b2 cc b9 3d 93 7d fc bd f8 69 07 3e 1f 06 99 3d
       0.09072246 -0.12328639 0.13224018 0.07471871
0002a0 db 29 a5 bd 1c 9c d3 bd 62 4b 13 3e a1 e3 eb bd
       -0.08064624 -0.1033251 0.14384225 -0.11518026
0002b0 83 ad 80 39 5e 47 95 bb 34 8b 3f 3e 31 80 76 3d
       0.0002454334 -0.004555627 0.18705446 0.060180847
0002c0 3b 67 a1 bd 5a 01 77 3d b5 39 65 3e df 1f 76 bd
       -0.07881018 0.060304023 0.22385295 -0.06008899
0002d0 37 41 80 3e 29 d4 cd 3d c1 eb 09 be 97 a8 40 3e
       0.25049755 0.10050232 -0.13468839 0.18814312
0002e0 4e 82 b3 bb 83 af 98 bd 6e 25 af be c0 04 90 be
       -0.00547818 -0.07455351 -0.34208244 -0.28128624
0002f0 e8 f7 c5 3d 8b 46 4a bc 9f 8e be bd a8 12 91 3d
       0.09666425 -0.01234592 -0.093045466 0.070836365
000300 d1 f5 0b 3e 1a 48 41 bf 07 0b 54 3e 80 f7 34 3e
       0.1366799 -0.75500643 0.20707332 0.17672539
000310 4c 6a c4 3c ed 71 23 3d 83 f2 8d be ec e3 cb bd
       0.023976468 0.03990357 -0.27724084 -0.09955582
000320 39 6f f8 3d cc ed 5c 3d e5 b6 1b be 77 80 2d bd
       0.12130589 0.05393772 -0.15206487 -0.04235884
000330 52 c2 61 be fd 59 74 bd cd 7c 7b be 7d ad 54 be
       -0.22046784 -0.059656132 -0.24559326 -0.20769306
000340 84 d1 a2 bc a2 65 3e be 85 dc 8e 3e 1e a6 10 3e
       -0.019875295 -0.18593457 0.27902618 0.14125869
000350 d3 e4 02 3e 0c fe 18 3d 0e d6 df bd 9a 51 8c be
       0.12782602 0.037351653 -0.109294996 -0.27406007
000360 18 5a 75 be e6 92 9d 3e c9 09 28 be 2d f8 d3 3d
       -0.2396015 0.30776137 -0.16409983 0.1035007
000370 9b 43 86 be 46 a4 9b 3e 39 3a 6d 3e 31 9e 86 bd
       -0.26223454 0.30398768 0.23166741 -0.06573141
000380 73 93 1c 3e e2 b2 3c 3b d7 42 fe 3d 1b b2 65 3e
       0.15290622 0.0028793146 0.124150924 0.22431223
000390 c5 c0 25 3e d1 da 9d 3c b8 d1 66 3e 2a 70 b2 3d
       0.16186817 0.019269379 0.22540939 0.087128
0003a0 ad 38 ae bc df df 08 be bd 13 81 bc 01 2f a3 be
       -0.02126726 -0.1336665 -0.015756482 -0.318718
0003b0 97 7f 63 be ee ef 8a 3d 80 72 65 be 40 93 5b be
       -0.2221664 0.06784044 -0.2240696 -0.2144289
0003c0 e3 4c 9d bd b7 a2 05 be b0 59 02 be d0 57 8c 3d
       -0.076806806 -0.13050352 -0.12729526 0.068526864
0003d0 dd 60 6f be 35 97 ab be c8 72 a0 bd b3 c3 a7 3b
       -0.23376794 -0.335138 -0.07834393 0.0051197647
0003e0 4d 75 40 be db 52 4f be 68 c7 1f be e1 13 03 3c
       -0.18794747 -0.2024645 -0.15603411 0.008000345
0003f0 2e 04 26 be ac 38 ac bd 5c d4 ac be a5 1e 97 bd
       -0.16212532 -0.08409247 -0.33755767 -0.07378892

encoder_sol.W_h.bias f4 [128]
000000 a4 27 92 3d 55 26 d7 bc 8c 18 c5 3c 5b 7c d5 bc
       0.07136467 -0.026263395 0.024059556 -0.026060274
000010 ae e8 03 bd ca 04 55 3a 72 a9 5d bd 31 f1 70 bc
       -0.032204323 0.0008126019 -0.054116674 -0.014705942
000020 8e 09 55 bb 65 7d ba bd 35 57 da 3a 27 a7 84 bd
       -0.0032506916 -0.09105948 0.001665807 -0.06477194
000030 b0 df 65 3d b6 cc db bc ad 24 17 3d 12 16 6b bd
       0.05612153 -0.026831012 0.03690021 -0.057394095
000040 9a e6 4d bd b6 5c b5 bb 1f 0e 03 be 0c a9 48 bd
       -0.050268747 -0.0055347336 -0.12798356 -0.04898934
000050 e3 85 0f 3c ec 76 f5 bd e6 9c 83 3a 05 71 c8 bd
       0.008759948 -0.11985573 0.0010041266 -0.09787182
000060 c5 55 32 bc bf be 27 be 46 34 ad bc 82 e9 31 bd
       -0.010884707 -0.16381358 -0.02114309 -0.04343558
000070 b9 65 af bc e1 84 70 bd 51 ae 83 bd 00 28 de bb
       -0.02141081 -0.058720473 -0.064297326 -0.0067796707
000080 0b 11 87 3c 57 d2 2b be f6 6f 6a 3c 2f ce 0b be
       0.016487619 -0.16779457 0.01430892 -0.13652872
000090 0e df 37 bd 50 66 3e ba d6 1a 40 bd 91 53 00 bd
       -0.044890456 -0.00072631706 -0.046900593 -0.031329695
0000a0 02 46 38 bd f0 ca 27 bd 2e c8 47 bd 4b ee 1e bd
       -0.04498864 -0.04096502 -0.04877489 -0.038801473
0000b0 c2 ed 2c bd 60 2d a4 bd 0a 92 09 3c b9 40 81 bd
       -0.04221893 -0.08016467 0.008396635 -0.06311173
0000c0 a4 f7 06 be f1 f0 ca bd 1e 21 2a 3d 05 4b ea 3b
       -0.13180405 -0.09909237 0.04153549 0.0071500563
0000d0 66 ce fe bd bc e4 ec bd b4 f9 a5 bd 44 21 85 bd
       -0.12441711 -0.11567065 -0.08104268 -0.065004855
0000e0 a3 1b 02 3c 83 f1 28 bc af de 88 bd f1 c2 6a 3d
       0.007941159 -0.010311487 -0.066830985 0.057314817
0000f0 b7 cf 23 3b 4b 88 fe bd ef 91 14 bd a1 05 f9 39
       0.0024995634 -0.124283396 -0.036271986 0.00047497175
000100 a7 cb a8 3b 76 45 b1 bd a7 37 65 3b 8d 6d a3 bc
       0.0051512304 -0.08655827 0.0034975798 -0.019949699
000110 be 66 c5 3a 29 9f f0 bc 28 ea ae bd 4e 46 f7 bd
       0.0015060527 -0.029372768 -0.085407555 -0.120739564
000120 f1 89 25 3c c0 8e 93 3c 43 a4 a1 bd fc 96 88 bb
       0.010103689 0.018012404 -0.078926586 -0.0041683894
000130 3d 0c ce bc 15 39 ce 3b 2d 77 2f bd e3 36 4d 3d
       -0.02515232 0.006293426 -0.042838264 0.050101172
000140 9c 9e 05 3d e9 1d 20 3c 1f e5 d4 39 62 d3 ea bd
       0.032621965 0.009772756 0.000406065 -0.11466099
000150 e1 dc 28 bd 35 6a e0 39 e2 17 6c 3b 27 57 ab 3d
       -0.04122627 0.0004280374 0.0036024977 0.08366232
000160 47 0e 28 bd 2c a5 00 be d8 dd 1e 3d 41 e5 19 bc
       -0.04102924 -0.12563008 0.038785785 -0.009393037
000170 d2 d9 6c bd d1 00 3f be e4 b2 ea 3c 42 4c 60 3d
       -0.057824917 -0.18652655 0.028649755 0.054760225
000180 27 1e 4e 3d c8 15 f9 3c 3e 7a 3e bd 27 27 1c be
       0.050321724 0.030405894 -0.046503298 -0.1524931
000190 a6 a8 de bd 65 2b 3d 3d 93 b9 0c bc 8e 87 5b bd
       -0.10872011 0.046183962 -0.008589166 -0.053596072
0001a0 d2 4d a1 bd b9 09 63 bd 5a c0 69 3c bb 83 0d be
       -0.07876171 -0.055429194 0.014267052 -0.13819782
0001b0 fd 4f 47 bd 80 af 5d bc d9 a3 54 bd f8 f1 a3 bd
       -0.048660267 -0.013530612 -0.05191407 -0.08005136
0001c0 21 b3 43 bb 2c 0f b3 bd 41 38 51 bd 10 df 9a bd
       -0.0029861408 -0.08743128 -0.05107904 -0.07562077
0001d0 02 b1 2c bd f2 f3 83 bd f3 75 23 bd fc 3e ec bc
       -0.042160995 -0.06443013 -0.039907407 -0.028838627
0001e0 39 d9 02 bd 4b 4a 95 bd ef fd 49 be 58 1e 24 bd
       -0.03194544 -0.07289561 -0.19725774 -0.040068
0001f0 f6 12 80 bd 5c a6 ba bd b3 d5 54 3d 2f 5f 57 bb
       -0.062536165 -0.09113762 0.051961612 -0.003286313

encoder_sol.W_o.weight f4 [128, 261]
000000 e1 14 b0 3d c4 4d 2b 3d 6a a6 72 3d f8 6c ce 3c
       0.08597732 0.04182221 0.059240736 0.025198445
000010 a8 7e f3 bd b8 71 99 be 36 4d c4 3c cb 8b 97 3d
       -0.11889392 -0.29969573 0.023962598 0.0739971
000020 c5 86 00 bf 12 51 23 3d 03 8e bb bd e8 43 38 3d
       -0.5020564 0.039872237 -0.09157946 0.044986635
000030 88 5f 4a bd 72 d8 56 3d 01 82 3c 3e 90 76 0e 3f
       -0.049407512 0.052452512 0.18408968 0.5564966
000040 a9 21 28 bf de 78 35 bd 41 32 69 3d 02 c9 8e bd
       -0.6567636 -0.04430472 0.05693269 -0.06971933
000050 43 70 68 bd 7e 0c 2f 3d 30 82 bb bc d3 9b 5d bd
       -0.056747686 0.042736523 -0.022889227 -0.054103684
000060 72 d6 8e bc 2c 23 9a 3c 7c c1 8d 3c a0 59 d3 3b
       -0.01743624 0.0188156 0.017304175 0.006449893
000070 d4 2f 1e bd d8 a3 a5 3c c8 ab 2a 3d 72 4e 79 3d
       -0.03861983 0.020219728 0.04166773 0.060865827
000080 90 4c 3d 3d 6c 6b 1b 3e 5b 85 28 be 66 24 57 3d
       0.046215594 0.15177697 -0.16457121 0.052524947
000090 f0 59 16 bc 8e 20 08 3d 00 f7 23 ba aa 1a 46 3d
       -0.009176716 0.03323417 -0.00062547624 0.048365273
0000a0 32 36 95 bc 3a 9b 42 bd ba ce 0d 3d 08 7b 87 3c
       -0.018214319 -0.047511317 0.034620978 0.016538158
0000b0 50 5d b9 3c 24 c7 54 3d 4c 40 fe 3c 38 ed 16 3d
       0.022627503 0.051947728 0.031036519 0.036847323
0000c0 e0 89 19 3c e8 93 e7 3c b8 54 61 3c 3c 4f 61 3d
       0.009371251 0.02826877 0.013753109 0.055007204
0000d0 39 26 d5 3c b8 f9 1e 3c e0 4e 3b 3b 18 33 eb bc
       0.026019203 0.009703092 0.0028580949 -0.028710887
0000e0 42 14 78 3d 9a 8b 52 3d 61 3e fc bc 0e 3a 60 3d
       0.060566194 0.051402666 -0.030791463 0.054742865
0000f0 10 f8 78 bc f0 45 bd bc a8 51 e6 3c 50 2c d4 3b
       -0.015195861 -0.023104638 0.028115109 0.006475009
000100 3c 12 17 bd 54 9b 54 bc d8 55 b4 bc 50 f7 ae 3b
       -0.036882624 -0.012976486 -0.02201359 0.0053395405
000110 24 7e b1 3c a0 15 d7 bb 10 73 95 bb 74 2c 96 3c
       0.021666594 -0.006563857 -0.0045608357 0.018331744
000120 9c e1 6b 3d 72 c5 c2 bc 5e 93 60 3d 38 f2 a7 bb
       0.057588205 -0.02377579 0.05482804 -0.0051253103
000130 d6 3c db bc c0 42 66 3c 5c 82 9d 3c ff 79 ee 3c
       -0.026762407 0.014054 0.0192272 0.029110907
000140 94 ac 3a 3d f6 8f 97 bc a0 f1 8a ba 76 d8 63 3d
       0.04557474 -0.018501263 -0.0010600574 0.055626355
000150 e6 cd 58 bd 82 6f ef bc f8 d3 a0 3c 88 ac 62 bd
       -0.052930735 -0.029227976 0.019632325 -0.05534032
000160 fe 2c 3e 3d 60 dd 58 3b e0 89 db 3b 36 3f 22 bd
       0.046429627 0.0033090934 0.0066997856 -0.039611064
000170 cc 15 a1 bc a2 f5 13 3d d0 46 be bb 0a b4 2f bd
       -0.019663714 0.036122926 -0.0058067814 -0.042896308
000180 40 91 ec 3a d4 ea c3 3c ba a1 4f 3d 24 13 f3 bc
       0.0018048659 0.023915686 0.050691344 -0.029672213
000190 84 15 3a 3d 54 56 6d bd 74 57 70 3d c5 96 de 3d
       0.045430675 -0.057943657 0.05867715 0.10868601
0001a0 9a bf 3c be ca c8 be be 30 45 f6 bb 30 9d 63 3d
       -0.18432465 -0.37262565 -0.007515572 0.055569828
0001b0 93 19 9c 3e 62 c0 bd bc bf 16 7b bd b2 cb 81 bd
       0.30488262 -0.023163024 -0.06130099 -0.0633768
0001c0 8a 7c 1a be ca 53 90 bc 4c 14 4b bd ed 2b b5 be
       -0.1508657 -0.017618079 -0.049579903 -0.35385075
0001d0 36 78 35 bd 48 5f ff 3c ea 8b 12 3d c1 e5 b4 3c
       -0.044304095 0.031173363 0.035777964 0.022082211
0001e0 4e ba e1 bd 5b 79 9c be 2e 7d c9 be 5c 3c c5 bc
       -0.11021863 -0.30561337 -0.39353317 -0.024076633
0001f0 84 e5 48 3d c2 e3 49 3b eb 3d ae 3b 49 87 15 be
       0.04904701 0.003080592 0.00531744 -0.14602388
000200 f2 3a 39 3d e8 44 21 3c 13 60 e5 bb 54 b3 4a bd
       0.04522223 0.009843089 -0.0069999783 -0.049487427
000210 45 49 bc bc 10 79 85 3d 7d 2f 38 3c 1c a4 0c bd
       -0.022984156 0.065172315 0.011241791 -0.034336194
000220 f5 90 b0 3d 1d 00 2e be e1 d6 03 3e 93 79 9d 3c
       0.08621398 -0.1699223 0.12874939 0.01922301
000230 04 8c 46 be 15 01 59 bd 1f 48 44 bd 38 c3 8a 3d
       -0.19389349 -0.052979548 -0.047920343 0.06775516
000240 1f 2d 77 bd f1 69 63 3d ee 00 7e bd b4 8e dd 3d
       -0.060345765 0.055520955 -0.062012605 0.10818234
000250 42 b0 81 3e 87 5d c1 3d 56 a5 91 3d 02 11 7b 3c
       0.25329787 0.09441667 0.071116135 0.015323879
000260 13 7f 3a 3d ab e9 7c be af 66 07 3d 45 7d 76 3e
       0.045531344 -0.24698512 0.03305691 0.24071224
000270 2b 8c df bc 32 88 9d 3d 46 64 0c bd 92 4c 0c bf
       -0.027288517 0.07691993 -0.034275316 -0.5480434
000280 92 a4 79 3d 1e b5 20 be cf 63 98 bd 47 fe f1 bc
       0.060947962 -0.1569409 -0.07440912 -0.029540194
000290 99 7e 9c 3d 76 97 8f be 04 8f 31 3e cc e4 70 bd
       0.07641334 -0.28045243 0.17339712 -0.058811948
0002a0 fc 48 27 bd 73 41 0d bd 85 1f dc bd 82 ea c6 3d
       -0.040841088 -0.034486245 -0.107481994 0.097126976
0002b0 29 c8 cf 3d cf a0 81 3d 4d 59 3a be 13 7c 95 bd
       0.101455994 0.063295 -0.18198128 -0.07299056
0002c0 8d 08 71 be 48 d0 b5 bc 8a 40 5d bd 0c 32 0a 3e
       -0.23538418 -0.022194043 -0.054016627 0.13495654
0002d0 e6 21 b8 bd 59 0a 22 3e 08 70 cb 3a b8 5b de be
       -0.089908406 0.1582426 0.0015521059 -0.4342935
0002e0 9b 48 2b 3d 23 94 38 3d 45 a3 bc 3d 93 01 82 bd
       0.04181729 0.04506315 0.09210829 -0.063479565
0002f0 f7 48 c4 3c 87 9e 7b 3d 83 99 43 be 74 d6 05 bd
       0.023960574 0.06143048 -0.19101529 -0.03267522
000300 84 e1 07 3d 60 36 ec bd 7d 66 54 bd 3b df 63 be
       0.033174053 -0.11533809 -0.051855553 -0.22253124
000310 cf b5 29 bd f4 25 4d be f8 7e 14 bd 69 28 4b be
       -0.04143315 -0.20034009 -0.0362539 -0.19839634
000320 28 ac 8d be ca b5 9d bd 99 96 98 bc 69 57 05 be
       -0.27670407 -0.07700689 -0.018626498 -0.13021626
000330 8f 9a 6d 3d 30 e0 97 3d b6 21 c1 bc 0d f8 56 3e
       0.058008727 0.07415807 -0.023575645 0.20993061
000340 b4 3a 9d 3d 72 47 28 be a9 17 b9 3d 90 86 2a be
       0.07677212 -0.16433504 0.09037716 -0.16652894
000350 14 6f c2 ba 92 22 83 3c c9 4a fa bb d7 75 4d 3d
       -0.0014834129 0.016007695 -0.0076383096 0.05016121
000360 41 a9 9e 3d 32 69 b2 3e 94 c5 64 bd f2 7d 07 be
       0.07747126 0.34845883 -0.055852488 -0.13231638
000370 5f 82 28 bd 95 20 04 3c 49 af a8 bd 64 7b 4e 3b
       -0.041139957 0.008064409 -0.08236558 0.0031506652
000380 04 9c 0d 3e 57 76 11 3e ec 2e 7e 3e 8b 38 67 3e
       0.13829046 0.142053 0.24822587 0.22580163
000390 63 34 45 3d 76 5b 83 bd f8 b8 1b be 86 28 cf 3d
       0.048145663 -0.06413929 -0.15207279 0.10115151
0003a0 a9 f3 f0 bd 26 03 60 3c 12 a8 0f bd e1 9b 4d be
       -0.117652245 0.013672626 -0.035072394 -0.20078994
0003b0 c9 45 56 3e e3 ea be bc 03 c4 a4 bd 2b d8 d2 3d
       0.20925058 -0.023305362 -0.08045199 0.10295137
0003c0 37 fa 65 be d1 96 31 be ca ce 20 bd 96 d5 31 3d
       -0.2245873 -0.17342688 -0.03925971 0.043416582
0003d0 e6 8e e9 3d fe b4 99 bd 1c ee 24 bd 16 09 af be
       0.11404209 -0.07505225 -0.04026614 -0.3418662
0003e0 16 fc 33 3d db 52 01 be 1e 6b 8b 3d 49 c9 d4 bd
       0.04394158 -0.12629263 0.0680754 -0.103899546
0003f0 22 e4 b4 3d d5 63 94 3e 76 dd 63 be a5 9d 56 be
       0.088325754 0.28982416 -0.2225245 -0.20958574

encoder_sol.W_o.bias f4 [128]
000000 98 52 52 3d 65 0e 9f bc d6 42 bc bd 74 37 72 3c
       0.0513483 -0.019416044 -0.091924354 0.014783729
000010 43 93 9f bd 5e 52 db 3c 91 10 d8 3a 9c f6 f7 bd
       -0.0779176 0.026772674 0.0016484429 -0.12107584
000020 75 14 5f bd ab c0 ec bc 36 ed d3 bd 85 7b 1b bd
       -0.05446287 -0.028900465 -0.10347979 -0.037959594
000030 d8 06 f5 3c 40 bc 03 bd ed 7a 0d 3d 48 bf c4 bc
       0.02991049 -0.03216195 0.03454106 -0.024016991
000040 a2 a0 e0 39 da 36 89 bd e1 f2 73 3c b1 22 79 3c
       0.0004284429 -0.06699915 0.01488945 0.015206025
000050 1e 1b 85 bd 3a c1 6e bc 01 45 de bd 75 8f 95 bd
       -0.06499313 -0.014572436 -0.10853005 -0.07302753
000060 0d 93 42 bc c7 80 0e bc 99 9b 21 bd c2 67 6b bd
       -0.01187588 -0.008697695 -0.03945503 -0.057471998
000070 e0 c6 43 3b 70 fd da bd d2 65 9b 3b b0 80 a6 bd
       0.0029873177 -0.106928706 0.0047423625 -0.08130014
000080 61 a6 81 3d 52 b2 73 3c af 47 a9 3c 86 2c af 3d
       0.063305624 0.014874058 0.020664064 0.08553414
000090 2e be 2d bd 6e 45 01 bd d8 11 9f bd 99 a6 13 bd
       -0.042417698 -0.031560354 -0.07767075 -0.03604755
0000a0 fb 3d 7c bd 3c 6a ff bd 7f 49 0f be f2 71 65 bd
       -0.061582547 -0.124714345 -0.1399288 -0.05601687
0000b0 97 0b 6d bd 62 44 84 bd d8 68 4b 3c a3 c4 f3 bc
       -0.05787238 -0.064583555 0.012415133 -0.02975685
0000c0 0f 7f 42 bd 64 31 5e bd 01 bd cb bd e0 54 c9 bb
       -0.047484454 -0.05424632 -0.09948159 -0.006144151
0000d0 bf d4 6f bc 06 99 97 3c 42 31 8c bd cd 07 3b bd
       -0.014638125 0.018505584 -0.06845333 -0.045661736
0000e0 54 e4 65 bb bf 36 a6 bc 67 bb 09 bd 00 34 46 bd
       -0.003507872 -0.020289777 -0.033625986 -0.048389435
0000f0 9b ad ab bc d8 83 63 bd bf 52 0d bd d6 a0 cc bc
       -0.020956805 -0.055545658 -0.03450274 -0.024979036
000100 23 a6 1f 3d 4c 8e ab bc 56 96 60 3d d8 87 60 bc
       0.0389768 -0.020941876 0.05483087 -0.013704263
000110 27 85 32 3b 8a 84 7a 3d 54 e0 88 bd 1a 00 ab bd
       0.002724001 0.061161555 -0.06683412 -0.08349629
000120 17 d6 30 3d 39 ba 86 bd 77 b5 50 bd d9 d4 1e bd
       0.043172922 -0.06578488 -0.05095431 -0.038777206
000130 3d 7d af ba be 51 b4 3c 8f ed 1f 3c bb 71 21 bd
       -0.0013388764 0.022011634 0.009761228 -0.039415102
000140 34 3c 5a bd 2a b8 03 3d 3b 7a 4f 3d a1 63 68 bd
       -0.05328007 0.032158054 0.050653677 -0.05673564
000150 db 26 a2 3c 97 87 13 bc f8 fe 28 bd 2a f7 b0 bd
       0.019793918 -0.009004495 -0.041258782 -0.08640893
000160 d5 73 17 bd 87 f3 52 bd d7 f3 4e 3c 54 07 0a 3d
       -0.0369757 -0.051501777 0.012631378 0.033698395
000170 a6 8e a3 bd de bd 88 bc b1 3c 5a 3c b6 0c 7e 3c
       -0.079861924 -0.016692098 0.013320134 0.01550596
000180 88 e8 35 3d 4f 1c 19 3d 66 e6 27 3d 85 68 c2 3d
       0.044411212 0.037380513 0.04099121 0.09492592
000190 e3 1f 1d 3d 25 5c ca bd 57 f7 d7 bd 19 e1 8b 3d
       0.038360488 -0.098808564 -0.10545223 0.06830043
0001a0 06 82 0d bd da 31 7b bd 02 ca b2 bb 5a 3e 5f 3d
       -0.03454783 -0.06132684 -0.00545621 0.054502822
0001b0 15 af e0 ba fa 61 04 bd 6a b3 07 bd ab 63 de bd
       -0.0017142022 -0.03232 -0.033130087 -0.10858854
0001c0 a5 47 b2 3c 7a fb 92 bd 41 95 a5 bd a6 b1 81 3d
       0.021762678 -0.071768716 -0.080851085 0.06332712
0001d0 56 8b 52 bd e4 d3 2e 3d 7c 86 48 bc 57 59 c3 bd
       -0.051402412 0.042682543 -0.012239095 -0.095385246
0001e0 f8 35 92 bd 79 81 9d bd f0 1e 64 bd 6c 28 73 bc
       -0.071392 -0.076907106 -0.055693567 -0.01484118
0001f0 3f 5a 61 bd 32 b9 5f bd 6d cf 91 bb 08 15 b5 bd
       -0.055017706 -0.054619975 -0.004449776 -0.08841902

encoder_solv.cached_zero_vector f4 [128]
000000 00 00 00 00 00 00 00 00 00 00 00 00 00 00 00 00
       0.0 0.0 0.0 0.0
000010 00 00 00 00 00 00 00 00 00 00 00 00 00 00 00 00
       0.0 0.0 0.0 0.0
000020 00 00 00 00 00 00 00 00 00 00 00 00 00 00 00 00
       0.0 0.0 0.0 0.0
000030 00 00 00 00 00 00 00 00 00 00 00 00 00 00 00 00
       0.0 0.0 0.0 0.0
000040 00 00 00 00 00 00 00 00 00 00 00 00 00 00 00 00
       0.0 0.0 0.0 0.0
000050 00 00 00 00 00 00 00 00 00 00 00 00 00 00 00 00
       0.0 0.0 0.0 0.0
000060 00 00 00 00 00 00 00 00 00 00 00 00 00 00 00 00
       0.0 0.0 0.0 0.0
000070 00 00 00 00 00 00 00 00 00 00 00 00 00 00 00 00
       0.0 0.0 0.0 0.0
000080 00 00 00 00 00 00 00 00 00 00 00 00 00 00 00 00
       0.0 0.0 0.0 0.0
000090 00 00 00 00 00 00 00 00 00 00 00 00 00 00 00 00
       0.0 0.0 0.0 0.0
0000a0 00 00 00 00 00 00 00 00 00 00 00 00 00 00 00 00
       0.0 0.0 0.0 0.0
0000b0 00 00 00 00 00 00 00 00 00 00 00 00 00 00 00 00
       0.0 0.0 0.0 0.0
0000c0 00 00 00 00 00 00 00 00 00 00 00 00 00 00 00 00
       0.0 0.0 0.0 0.0
0000d0 00 00 00 00 00 00 00 00 00 00 00 00 00 00 00 00
       0.0 0.0 0.0 0.0
0000e0 00 00 00 00 00 00 00 00 00 00 00 00 00 00 00 00
       0.0 0.0 0.0 0.0
0000f0 00 00 00 00 00 00 00 00 00 00 00 00 00 00 00 00
       0.0 0.0 0.0 0.0
000100 00 00 00 00 00 00 00 00 00 00 00 00 00 00 00 00
       0.0 0.0 0.0 0.0
000110 00 00 00 00 00 00 00 00 00 00 00 00 00 00 00 00
       0.0 0.0 0.0 0.0
000120 00 00 00 00 00 00 00 00 00 00 00 00 00 00 00 00
       0.0 0.0 0.0 0.0
000130 00 00 00 00 00 00 00 00 00 00 00 00 00 00 00 00
       0.0 0.0 0.0 0.0
000140 00 00 00 00 00 00 00 00 00 00 00 00 00 00 00 00
       0.0 0.0 0.0 0.0
000150 00 00 00 00 00 00 00 00 00 00 00 00 00 00 00 00
       0.0 0.0 0.0 0.0
000160 00 00 00 00 00 00 00 00 00 00 00 00 00 00 00 00
       0.0 0.0 0.0 0.0
000170 00 00 00 00 00 00 00 00 00 00 00 00 00 00 00 00
       0.0 0.0 0.0 0.0
000180 00 00 00 00 00 00 00 00 00 00 00 00 00 00 00 00
       0.0 0.0 0.0 0.0
000190 00 00 00 00 00 00 00 00 00 00 00 00 00 00 00 00
       0.0 0.0 0.0 0.0
0001a0 00 00 00 00 00 00 00 00 00 00 00 00 00 00 00 00
       0.0 0.0 0.0 0.0
0001b0 00 00 00 00 00 00 00 00 00 00 00 00 00 00 00 00
       0.0 0.0 0.0 0.0
0001c0 00 00 00 00 00 00 00 00 00 00 00 00 00 00 00 00
       0.0 0.0 0.0 0.0
0001d0 00 00 00 00 00 00 00 00 00 00 00 00 00 00 00 00
       0.0 0.0 0.0 0.0
0001e0 00 00 00 00 00 00 00 00 00 00 00 00 00 00 00 00
       0.0 0.0 0.0 0.0
0001f0 00 00 00 00 00 00 00 00 00 00 00 00 00 00 00 00
       0.0 0.0 0.0 0.0

encoder_solv.W_i.weight f4 [128, 147]
000000 04 6d d4 3c 68 c2 96 bd 64 b1 87 bc 90 2e 11 bc
       0.025930889 -0.07361299 -0.016564079 -0.008861199
000010 ef 6b 90 bd 4f 8d ed 3b 70 21 13 bb 12 44 10 bd
       -0.07051837 0.0072495113 -0.002245035 -0.035221167
000020 5c b7 09 3d 68 b3 75 3d b4 bd 8b 3d 80 5b 77 bb
       0.03362213 0.05998555 0.068232924 -0.0037743747
000030 28 3c 8e 3c 8a 3a 54 bd 0c 6f fe 3c fa 84 c5 bd
       0.01736267 -0.05181364 0.03105881 -0.09644504
000040 9d 27 c9 3d d8 29 a1 bc fb 57 a7 bd be d2 60 bd
       0.09822009 -0.019673273 -0.08171078 -0.05488848
000050 c8 b6 68 3c 7e 58 97 3d 24 3c ba bc 30 e2 fc bb
       0.014203735 0.073899254 -0.022733755 -0.0077173933
000060 27 6a a4 bd aa ae 27 3d 38 9e 5c bd 10 7d 7f 3d
       -0.080280595 0.040938057 -0.053861827 0.06237513
000070 e8 dc 5b 3d c8 b0 25 3c 24 27 7d 3d 8e 62 45 bd
       0.05367747 0.010112949 0.061804906 -0.048189692
000080 05 60 92 bd 62 18 8e 3d 39 07 4d bd b0 52 a1 bc
       -0.071472205 0.069382444 -0.050055716 -0.019692749
000090 28 5e 49 3d 1c 5a 8a bc 80 5d 02 3c 80 f3 42 ba
       0.04916206 -0.01688867 0.007956862 -0.0007436797
0000a0 48 a7 d4 3c c4 0c 74 bd e2 9f 25 bd 7e e8 34 bd
       0.025958672 -0.059582487 -0.04043568 -0.044167034
0000b0 3a dc 08 3d 91 43 9b bd fc 64 82 3d 28 ac 8a bc
       0.03341315 -0.07581247 0.063669175 -0.016927794
0000c0 92 f2 3c bd 6e 68 a6 bd 50 34 a5 3d 69 51 95 bd
       -0.04612977 -0.08125387 0.080666184 -0.072909184
0000d0 44 ae 35 bd ef 9f 9a bd 98 34 34 3d 33 e5 16 bd
       -0.044355646 -0.07550036 0.04399547 -0.036839675
0000e0 94 c6 ae 3c 84 ed 97 3c 28 36 87 bd a4 4b 83 3d
       0.021334924 0.018545873 -0.06602126 0.06410912
0000f0 ae c4 a0 3d c4 e9 23 3d b0 74 e0 bb bb 72 71 bd
       0.07850014 0.04001786 -0.0068498477 -0.058947306
000100 dc 1b 64 3d cd c8 24 bd 08 18 7a 3d 8e 8e 03 3d
       0.05569063 -0.04023056 0.061058074 0.032118373
000110 ec a6 9e bc 98 87 a5 bc b4 25 d3 3c af 4f 84 bd
       -0.019366704 -0.020206258 0.025774814 -0.06460511
000120 9e f8 01 3d 22 00 91 3d 10 41 77 3c 40 1a 5c bc
       0.03173124 0.070801035 0.015091196 -0.013433993
000130 00 a5 7c 3d 0f 21 0e bd d6 62 94 3d 30 6a 36 bc
       0.061680794 -0.034699496 0.07245414 -0.0111337155
000140 88 78 10 bc f8 c9 98 3d f0 4f 5a 3d ac a0 07 3d
       -0.008817799 0.074603975 0.05329889 0.033112213
000150 3e 85 9b bd cc a6 21 3d f8 fd 18 bd 9c 3c 19 3d
       -0.07593773 0.03946571 -0.03735158 0.037411317
000160 60 cc 26 3d 3e eb 07 bd 52 a9 85 bd a2 39 16 bd
       0.04072225 -0.03318333 -0.06526436 -0.036676057
000170 78 c4 24 bc c7 e8 a1 bd 50 0d ed 3b e4 fa 10 bd
       -0.010056607 -0.07905727 0.007234253 -0.035395518
000180 14 57 26 3d 7a 63 89 3d 10 cf a7 bb 5c b2 9b 3d
       0.040610388 0.06708427 -0.0051211193 0.07602379
000190 db f4 95 bd b2 82 1c 3d 31 e1 ac 3d d2 44 ed 3c
       -0.07322093 0.03821058 0.08441389 0.02896348
0001a0 39 8d a2 bc d7 dc 73 3d 40 20 bc 3a 28 cd 17 3c
       -0.01984273 0.05953678 0.0014352873 0.009265222
0001b0 be 66 93 3d 26 45 61 bd a8 07 a1 bc de e2 9a bd
       0.07197331 -0.054997586 -0.019656971 -0.07562803
0001c0 32 6d ac 3d 38 21 98 3d 3d bb 8c 3d a6 00 d6 bc
       0.08419265 0.07428211 0.0687165 -0.026123356
0001d0 ae 29 92 3d 34 65 8e 3d 94 4c d5 3c ae b8 61 bc
       0.07136856 0.06952897 0.026037492 -0.013776941
0001e0 60 8b bb bc ff dc b4 3d ff 50 9b 3c 0c ad 8c 3c
       -0.022893608 0.08831214 0.01895952 0.017172359
0001f0 36 d2 f2 bc 01 dd 48 bd 12 61 a9 bd 9d 39 2c 3b
       -0.029641252 -0.04903889 -0.08270468 0.0026279457
000200 74 ae eb 3c d8 81 67 bc ec 28 75 3d f6 48 03 bd
       0.02876971 -0.014130078 0.05985348 -0.032052003
000210 95 dc 9c 3d 0c 33 44 3d 37 c4 35 bc b9 4c a1 bd
       0.0765926 0.047900245 -0.011094145 -0.07875962
000220 52 b7 a2 3d 99 8d 87 bd 33 31 b3 bc 27 80 96 3c
       0.07945122 -0.066188045 -0.021874046 0.018371655
000230 1d 91 10 bd bd f1 8a bd fc 00 3a bd b1 9a 36 bd
       -0.03529464 -0.06784389 -0.045411095 -0.04458112
000240 34 79 8b 3d 58 36 65 bc 6e 0c 40 bd 58 a1 61 3d
       0.06810227 -0.013990007 -0.046886854 0.05508551
000250 28 14 13 3c 34 97 02 3d b0 1b 42 3d 80 9b ee bb
       0.008976974 0.03188248 0.047389686 -0.0072817206
000260 d5 87 0f 3c 8c 46 f9 bc 7b 20 34 3e 35 88 46 bd
       0.008760412 -0.030429147 0.17590515 -0.04846974
000270 50 e6 51 3d a0 b6 94 3d f0 ab 60 3d 50 fc 2c 3d
       0.051245034 0.072613955 0.054851472 0.04223281
000280 14 97 b9 3c ad dc 89 bd c9 7e 44 bd df 02 12 be
       0.022655047 -0.06731544 -0.047972474 -0.14258908
000290 68 6f 49 3d 40 6d 9c 3d 4e ba b6 bc 84 3b 6a 3d
       0.04917851 0.07638025 -0.022305634 0.057185665
0002a0 80 d1 ac bb 5d a6 3c bd c0 93 0f bd 38 69 a2 3d
       -0.005273998 -0.046057094 -0.035053015 0.07930225
0002b0 e0 d0 45 3d 50 8f cc 3b 60 6c 71 3d 10 53 9b 3d
       0.0482949 0.00624267 0.058941245 0.07584202
0002c0 f1 62 22 bd 0a a1 1f bd 80 60 62 3d 54 be 73 bd
       -0.03964514 -0.03897194 0.05526781 -0.059507683
0002d0 38 2b 46 3c 68 60 6c bd a6 58 0d 3d 48 f9 7e 3c
       0.012095265 -0.057709128 0.03450837 0.015562363
0002e0 2b 50 1f bd 2c fc 64 3d 31 d3 59 bd b2 0e 8a 3d
       -0.038894814 0.055904552 -0.053179923 0.06741084
0002f0 88 99 0c 3d 1f d4 98 bd 90 60 c5 3c 66 46 5e bd
       0.034326106 -0.07462334 0.024093896 -0.054266356
000300 39 4a 36 bd c5 71 25 bd 3a de 7c bd d2 0a a5 bd
       -0.044504378 -0.040391702 -0.06173537 -0.080587044
000310 3c e1 85 bd 14 12 91 3d 28 f9 19 bd 52 49 53 bd
       -0.06537101 0.07083526 -0.03759113 -0.051583596
000320 0a de b6 bc d4 fb 64 3d 40 b6 85 bb dd b6 a3 bd
       -0.022322673 0.055904225 -0.004080564 -0.07993863
000330 9e b0 82 bd 68 7d 85 3d f9 a0 94 bd d8 d2 93 bc
       -0.06381343 0.0651806 -0.072572656 -0.018044874
000340 8a a7 0e 3d d8 83 6c 3d c0 aa 86 3a c8 9a 37 3c
       0.034827746 0.057742923 0.0010274276 0.011206336
000350 b4 88 8c 3c 40 9e 82 bc 2c f7 36 bd 00 9f 31 bb
       0.017155029 -0.0159446 -0.044669315 -0.0027102828
000360 6c 5b ff 3c 66 21 85 3d e6 c2 8f 3d e0 92 ee 3c
       0.031171523 0.06500511 0.07019596 0.02912277
000370 c8 da 3d bc 34 49 fc 3c 66 28 5c bd e8 0b 4f 3c
       -0.011587806 0.030796625 -0.053749464 0.012637116
000380 7c 8f 6f 3d a8 b9 85 bc 44 71 ec 3c 0c cf d0 bc
       0.058486447 -0.01632388 0.028862603 -0.025489353
000390 00 ff 57 ba 20 3e 55 3c 04 56 5e 3d 46 df 9f 3d
       -0.0008239597 0.0130153 0.05428125 0.07806258
0003a0 48 cf 04 3c 0c 3e a5 3d 00 4f 01 3d 5b 00 8c bd
       0.00810606 0.08068475 0.03156948 -0.06836005
0003b0 e4 5b 09 bd fc 79 7d bd 62 a7 2c bd 40 d9 52 bc
       -0.0335349 -0.06188391 -0.042151816 -0.012869179
0003c0 a8 d8 ff 3c d8 de 89 3d 24 c5 8e 3c 9e ae 76 bd
       0.03123124 0.06731957 0.017427988 -0.06022512
0003d0 24 5b 91 bd f0 d0 09 3d 0c ec 36 bd 46 fc a2 3d
       -0.07097462 0.033646524 -0.044658706 0.079582736
0003e0 44 5b b0 3c 2b 82 a3 3d 09 11 01 3e 4d 45 3a 3b
       0.021527894 0.07983812 0.12604155 0.0028422654
0003f0 20 4a 88 bd 2c 10 27 3d 54 de 9d 3c 6f 0d 35 bd
       -0.06654763 0.040786907 0.019271053 -0.044202264

encoder_solv.W_i.bias f4 [128]
000000 cb ad 97 bd aa 32 01 bd c2 52 3a bc 80 98 39 bd
       -0.07406195 -0.031542458 -0.01137227 -0.04531145
000010 55 1e 30 bd 88 5f c3 3c 26 b2 21 bd 58 9d 9c bd
       -0.042997677 0.023849264 -0.039476536 -0.076471984
000020 45 93 8c bd bb 26 06 ba a8 0f 8c bd 32 54 0c bd
       -0.06864027 -0.00051174656 -0.06838924 -0.034259982
000030 6b 53 15 3d e8 7f 53 bd 63 5c 85 bd 16 e6 40 bd
       0.036456507 -0.051635653 -0.06511762 -0.047094427
000040 b8 66 82 3a 8f a0 f0 3b 1c 4f 8d bd ba e8 84 bc
       0.0009948825 0.007343359 -0.068998545 -0.016224254
000050 8a 83 90 3c 45 93 10 bd 68 39 e1 bc ce b7 ae bd
       0.017640848 -0.035296697 -0.027493194 -0.08531152
000060 b7 a9 83 3d ba 11 3f 3d 8b 13 d6 3a 35 5b eb 3c
       0.06428855 0.046647765 0.0016332729 0.028730014
000070 3d 56 21 bd 8f 1a ef 3c b7 67 bc bb 3f a1 ad bd
       -0.039388884 0.029187469 -0.0057496685 -0.08478021
000080 5e 95 b8 bd 7d 27 6e bd 7a ce 1f bd 56 76 90 bd
       -0.090128645 -0.058143128 -0.03901527 -0.07053821
000090 0f ac 35 3d 35 60 b6 3c e2 ac 10 3d 2b 92 82 bd
       0.04435354 0.022262672 0.035321124 -0.063755356
0000a0 6e 27 2f 3c 13 2f a9 3c c4 3d a0 bd 53 c9 44 3d
       0.010690553 0.02065233 -0.07824281 0.04804356
0000b0 26 a8 00 bd 2f 4d 76 3d fb 82 5f 3d f2 33 3e bd
       -0.03141036 0.0601322 0.054568272 -0.046436258
0000c0 0c 2d 93 3c 08 80 2a bd a1 6a 4d 3d e6 2e 2d 3d
       0.017965816 -0.041626006 0.050150517 0.042281054
0000d0 02 62 35 3d 30 33 2c bd 73 d7 ca bc ab 47 86 3b
       0.04428292 -0.042041004 -0.024760937 0.004097899
0000e0 29 dc 93 bd 51 26 22 bd cb 9e b2 3c 76 65 cd 3c
       -0.072197266 -0.039587323 0.021804234 0.025072794
0000f0 c7 73 74 3d b4 b2 81 3d b1 ce 7a 3d 7e af 8d 3d
       0.059680726 0.06332913 0.061232273 0.06918238
000100 9b 93 a7 3c 21 90 89 bd e8 ee 73 3d 5d fb 1b 3c
       0.020456126 -0.067169435 0.05955401 0.009520379
000110 4f 9d 54 bd c5 13 17 bd 5a 5b 41 3d 00 00 0d bd
       -0.051907834 -0.036884088 0.04720626 -0.034423828
000120 62 9d 48 3d 7b 69 36 bd a6 48 25 bd ee 3c 20 3d
       0.048978217 -0.044534188 -0.040352486 0.039120607
000130 3e 80 97 bd 1e 33 00 bd 1d 86 31 3b a5 ca d4 bc
       -0.07397507 -0.03129875 0.0027087994 -0.025975535
000140 20 40 c6 bc 70 b8 65 bc ed 90 16 3d 9f 28 d1 3c
       -0.024200499 -0.014021024 0.036759306 0.025532065
000150 08 f7 72 3d ac 09 5a bc 64 29 1a 3d ae 68 5f 3c
       0.05931762 -0.01330797 0.03763713 0.013635797
000160 31 07 36 bd fb 3d 97 bd 26 a8 1a 3d b8 7f 8d bd
       -0.044440452 -0.07384869 0.037758015 -0.06909126
000170 28 dc 01 bd 50 b5 ff bc cc fd 7e 3c ad ba 93 3c
       -0.031704098 -0.031214386 0.01556344 0.01803335
000180 f0 14 9f bd b0 35 92 3c ee c0 be bc d4 f4 6c bd
       -0.077676654 0.017847866 -0.023285355 -0.057850674
000190 37 28 1b 3d c6 ad 80 bd 2d eb 97 3c d2 79 a7 bb
       0.03788015 -0.06283145 0.018544758 -0.0051109577
0001a0 4b 48 5c 3c bc 92 95 bd f7 a6 4c 3c c9 a1 80 3d
       0.01344497 -0.07303378 0.012490979 0.06280858
0001b0 63 81 ad 3c 47 ed 7f 3c fb 09 7e bd 6b f9 50 bb
       0.02117986 0.015620536 -0.062021237 -0.0031886946
0001c0 5e 64 5d bc d1 cb 1a 3d 10 d0 a8 3c 66 63 b3 bd
       -0.013512699 0.03779203 0.020607024 -0.08759193
0001d0 47 b1 ab bc 2a a7 5f 3d d1 21 01 bd af 59 2a 3c
       -0.020958556 0.05460278 -0.03152639 0.010397359
0001e0 c6 49 81 3c a8 be a3 3c 9c 6e 93 bc 9f f9 57 bd
       0.015782248 0.019988373 -0.017997079 -0.05272829
0001f0 f1 ae 42 3d 00 78 cc bb f2 90 6f bd df de e3 bc
       0.04753012 -0.006239891 -0.05848784 -0.027816234
