THESIS/transfer_learning/trained/DMPNN_Gsolv.pt (torch, 558709 bytes, 15 tensors)

encoder_sol.cached_zero_vector f4 [128]
0	0x00000000	0.0
1	0x00000000	0.0
2	0x00000000	0.0
3	0x00000000	0.0
4	0x00000000	0.0
5	0x00000000	0.0
6	0x00000000	0.0
7	0x00000000	0.0
8	0x00000000	0.0
9	0x00000000	0.0
10	0x00000000	0.0
11	0x00000000	0.0
12	0x00000000	0.0
13	0x00000000	0.0
14	0x00000000	0.0
15	0x00000000	0.0
16	0x00000000	0.0
17	0x00000000	0.0
18	0x00000000	0.0
19	0x00000000	0.0
20	0x00000000	0.0
21	0x00000000	0.0
22	0x00000000	0.0
23	0x00000000	0.0
24	0x00000000	0.0
25	0x00000000	0.0
26	0x00000000	0.0
27	0x00000000	0.0
28	0x00000000	0.0
29	0x00000000	0.0
30	0x00000000	0.0
31	0x00000000	0.0
32	0x00000000	0.0
33	0x00000000	0.0
34	0x00000000	0.0
35	0x00000000	0.0
36	0x00000000	0.0
37	0x00000000	0.0
38	0x00000000	0.0
39	0x00000000	0.0
40	0x00000000	0.0
41	0x00000000	0.0
42	0x00000000	0.0
43	0x00000000	0.0
44	0x00000000	0.0
45	0x00000000	0.0
46	0x00000000	0.0
47	0x00000000	0.0
48	0x00000000	0.0
49	0x00000000	0.0
50	0x00000000	0.0
51	0x00000000	0.0
52	0x00000000	0.0
53	0x00000000	0.0
54	0x00000000	0.0
55	0x00000000	0.0
56	0x00000000	0.0
57	0x00000000	0.0
58	0x00000000	0.0
59	0x00000000	0.0
60	0x00000000	0.0
61	0x00000000	0.0
62	0x00000000	0.0
63	0x00000000	0.0
64	0x00000000	0.0
65	0x00000000	0.0
66	0x00000000	0.0
67	0x00000000	0.0
68	0x00000000	0.0
69	0x00000000	0.0
70	0x00000000	0.0
71	0x00000000	0.0
72	0x00000000	0.0
73	0x00000000	0.0
74	0x00000000	0.0
75	0x00000000	0.0
76	0x00000000	0.0
77	0x00000000	0.0
78	0x00000000	0.0
79	0x00000000	0.0
80	0x00000000	0.0
81	0x00000000	0.0
82	0x00000000	0.0
83	0x00000000	0.0
84	0x00000000	0.0
85	0x00000000	0.0
86	0x00000000	0.0
87	0x00000000	0.0
88	0x00000000	0.0
89	0x00000000	0.0
90	0x00000000	0.0
91	0x00000000	0.0
92	0x00000000	0.0
93	0x00000000	0.0
94	0x00000000	0.0
95	0x00000000	0.0
96	0x00000000	0.0
97	0x00000000	0.0
98	0x00000000	0.0
99	0x00000000	0.0
100	0x00000000	0.0
101	0x00000000	0.0
102	0x00000000	0.0
103	0x00000000	0.0
104	0x00000000	0.0
105	0x00000000	0.0
106	0x00000000	0.0
107	0x00000000	0.0
108	0x00000000	0.0
109	0x00000000	0.0
110	0x00000000	0.0
111	0x00000000	0.0
112	0x00000000	0.0
113	0x00000000	0.0
114	0x00000000	0.0
115	0x00000000	0.0
116	0x00000000	0.0
117	0x00000000	0.0
118	0x00000000	0.0
119	0x00000000	0.0
120	0x00000000	0.0
121	0x00000000	0.0
122	0x00000000	0.0
123	0x00000000	0.0
124	0x00000000	0.0
125	0x00000000	0.0
126	0x00000000	0.0
127	0x00000000	0.0

encoder_sol.W_i.weight f4 [128, 147]
0	0xbd98eeb3	-0.07467403
1	0x3d2963f0	0.041355073
2	0x3d120d94	0.03565748
3	0xbd8c2526	-0.06843023
4	0xbd2bdfd0	-0.04196149
5	0x3d82ded0	0.06390154
6	0xbc1cfbf1	-0.009581552
7	0xbd570778	-0.052497357
8	0x3d189c22	0.037258275
9	0x3d304bbc	0.043040976
10	0xbc6c9130	-0.014438912
11	0xbd91fc72	-0.07128228
12	0xbcc7237a	-0.024308909
13	0x3ca5fda4	0.020262547
14	0xbd72731d	-0.05919181
15	0x3db54052	0.08850159
16	0xbd00a06e	-0.031402998
17	0x3da10160	0.078615904
18	0xbd7f659f	-0.062352773
19	0x3aa51500	0.001259476
20	0x3b5bc380	0.0033533275
21	0xbd7b235c	-0.06131302
22	0xbcbde7a8	-0.023181751
23	0x3da46d2e	0.08028637
24	0x3d9a87be	0.07545422
25	0x3c5eb260	0.013592333
26	0xbc85fbdc	-0.016355447
27	0x3d4e42b4	0.05035658
28	0xbd545b01	-0.0518446
29	0xbcf5f178	-0.030022368
30	0x3d2141e8	0.039369494
31	0xbc4853c0	-0.012226999
32	0xbccde1b0	-0.02513203
33	0x3d3428c0	0.043984175
34	0xbd1ffd53	-0.03905995
35	0xbd875bb4	-0.06609288
36	0xbd2ed089	-0.042679343
37	0x3d9935d6	0.074809715
38	0xbd4ebba4	-0.050471917
39	0x3b86d390	0.0041145757
40	0xbd977e84	-0.07397178
41	0x3c6f2d08	0.014598139
42	0xbc68be78	-0.014205568
43	0xbd9a86aa	-0.075452164
44	0xbd9a3865	-0.07530288
45	0x3d5e0250	0.054201424
46	0xbd2793bf	-0.040912386
47	0x3cd692d8	0.026193067
48	0xbd6d2b38	-0.057902545
49	0x3d022c74	0.031780675
50	0x3d2a1a7e	0.04152917
51	0x3d48e268	0.049044043
52	0xbbd8140d	-0.006594187
53	0x3d9ee27c	0.07758042
54	0x3d262988	0.04056695
55	0xbd9d65c2	-0.076854244
56	0xbd1fa9e0	-0.038980365
57	0xbc934f74	-0.017982222
58	0xbd855b6f	-0.0651158
59	0xbd3f4fe7	-0.04670706
60	0x3d15317e	0.036424153
61	0xbcfee270	-0.031113833
62	0x3d767fd0	0.060180485
63	0xbd054b6f	-0.032542642
64	0xbadebac0	-0.0016992912
65	0xbd2e9e5e	-0.0426315
66	0xbd74ed09	-0.059796367
67	0x3da6429a	0.08118172
68	0x3be7ca40	0.0070736706
69	0x3bd40750	0.0064705983
70	0x3cea380c	0.028591178
71	0xbd80d186	-0.062899634
72	0xbd966e97	-0.07345312
73	0x3cdc39c4	0.026883014
74	0x3d9b4d1e	0.07583068
75	0x3da40ade	0.08009885
76	0xbc3864d0	-0.011254504
77	0xbda60d22	-0.08107974
78	0xbd13c884	-0.0360799
79	0xbcb2f89a	-0.021847058
80	0xbd823501	-0.06357766
81	0x3d50de54	0.05099328
82	0xbd5b9596	-0.053609453
83	0xbd38e0cc	-0.045136258
84	0xbd8b7846	-0.0681005
85	0x3c8b0218	0.016968772
86	0x3d922560	0.07136035
87	0x3d020656	0.031744324
88	0x3c9ba0d8	0.018997595
89	0xbd481f06	-0.04885771
90	0xbbe76e10	-0.007062681
91	0x39a63800	0.0003170371
92	0x3d8ebf8e	0.0697013
93	0x3d280272	0.041017957
94	0x3c911d00	0.017714024
95	0x3d92321e	0.07138465
96	0x3d6d1f44	0.057891145
97	0x3cca5940	0.02470076
98	0x3d72ea6c	0.059305593
99	0x3c973500	0.01845789
100	0xbd7c2a10	-0.06156355
101	0xbd532161	-0.051545504
102	0xbb505463	-0.003178858
103	0x3d1c901e	0.03822338
104	0xbc5eaf77	-0.013591639
105	0x3d2dfee7	0.042479422
106	0x3d4744ec	0.048649713
107	0x3da70382	0.08154966
108	0xbcfd4cc0	-0.030920386
109	0x3d090a02	0.03345681
110	0x3dacd510	0.08439076
111	0xbbefc8a0	-0.0073176175
112	0x3c822242	0.015885476
113	0xbb66eac0	-0.0035235137
114	0x3bde6024	0.006786363
115	0x3d9e05c0	0.077159405
116	0xbd6d0296	-0.057863794
117	0x3da4d418	0.08048266
118	0x3d46b378	0.048511
119	0xbcd19c00	-0.025587082
120	0x3d4ddb42	0.05025793
121	0xbd65015c	-0.0559095
122	0xbc4b510c	-0.01240946
123	0x3d0ea9a0	0.034829736
124	0x3cec8148	0.02887024
125	0xbd4660c6	-0.048432134
126	0xbd37b9d7	-0.044854965
127	0xbd5168e0	-0.051125407
128	0x3d219476	0.039448224
129	0x3c1d0200	0.009582996
130	0x3d9330fe	0.07187079
131	0x3d8313d6	0.06400268
132	0x3d5d422d	0.05401819
133	0xbcbbeb7c	-0.022939436
134	0x3d895d3a	0.06707235
135	0x3be87c59	0.0070949015
136	0xbd8915ea	-0.06693633
137	0x3db8a8cd	0.09016571
138	0xbb90b77d	-0.0044164048
139	0x3c5d2972	0.013498651
140	0xbc3ef2a9	-0.011654534
141	0xbba61450	-0.0050683394
142	0xbd836cc2	-0.06417228
143	0x3c1ef260	0.009701341
144	0xbc3dec00	-0.011591911
145	0x3d3f6a9c	0.04673253
146	0x3b23f820	0.002501972
147	0xbd6904cd	-0.056889344
148	0x3d3935b0	0.045217216
149	0xbd8bb2d7	-0.0682122
150	0xbccf4eae	-0.025306072
151	0x3d369724	0.044577733
152	0xbacd8841	-0.0015680866
153	0x3dc645bc	0.096812695
154	0x3d7dec62	0.06199301
155	0x3d06003a	0.03271506
156	0x3da1e754	0.079054505
157	0xbd9f89a3	-0.07789924
158	0x3d3f6c44	0.04673411
159	0x3d9424d0	0.07233584
160	0xbd282203	-0.04104806
161	0xbc5bf129	-0.013424196
162	0x3d6d360c	0.05791287
163	0xbccf8a1a	-0.025334407
164	0xbc84f7d8	-0.016231462
165	0x3c8c43b8	0.017122135
166	0xbc1b10e8	-0.00946448
167	0xbd8be717	-0.06831186
168	0xbceb46a6	-0.028720211
169	0xbd8c28a6	-0.068436906
170	0xbda770b2	-0.08175792
171	0xbd882cbf	-0.0664916
172	0x3d7481ac	0.059693977
173	0x3c29bd60	0.010360092
174	0x3d00229c	0.031283006
175	0x3d8395e8	0.06425077
176	0xbd70fd5d	-0.058835376
177	0x3c515618	0.012776874
178	0x3c303488	0.010754712
179	0xbd0e3ec0	-0.03472781
180	0x3c6d0f78	0.01446902
181	0xbd973afb	-0.073842965
182	0x3d3967dc	0.045265064
183	0xbd947035	-0.07247964
184	0x3d326650	0.043554604
185	0xbda55a4b	-0.08073863
186	0x3d1a7122	0.037705548
187	0xbd7b2514	-0.061314657
188	0x3cb848d8	0.022495672
189	0xbd01a83d	-0.031654585
190	0xbd0e46dd	-0.03473555
191	0xbc538430	-0.012909934
192	0xbd1928c9	-0.03739241
193	0xbd35ce28	-0.04438606
194	0xbd912c52	-0.070885316
195	0xbd62b59a	-0.05534897
196	0xbc7631b0	-0.015026495
197	0x3d283332	0.04106445
198	0xbd97bafe	-0.07408713
199	0x3d43d2af	0.047808345
200	0xbd88ec2a	-0.0668567
201	0x3cc6676c	0.024219237
202	0xbca2e07c	-0.019882433
203	0x3d03af20	0.032149434
204	0xbd82205a	-0.06353827
205	0xbcd0d078	-0.02549003
206	0x3c047c20	0.008086234
207	0x3ccda844	0.02510465
208	0x3d01fa1a	0.031732656
209	0xbd9cccbd	-0.07656238
210	0xbd63eebc	-0.055647597
211	0xba5ae200	-0.00083497167
212	0xbd79af7b	-0.060958367
213	0xbc390fe8	-0.011295296
214	0x3be89a40	0.007098466
215	0x3d3293a0	0.043597817
216	0x3cf3da90	0.029767305
217	0x3d8f8bc0	0.07009077
218	0xbaaf5f00	-0.0013379753
219	0x3d6b1ed0	0.057402432
220	0x3da1ac5e	0.078942046
221	0xbd88dd7b	-0.06682869
222	0xbd2d0f95	-0.04225119
223	0xbd997ca8	-0.074944794
224	0xbd9c27ef	-0.07624804
225	0x3ca450ec	0.020058118
226	0x3d85d9ae	0.0653566
227	0x3c03dba0	0.008047968
228	0x3d509670	0.05092472
229	0x3d165a66	0.036707304
230	0xbc402f90	-0.01173009
231	0x3d9609fc	0.07326123
232	0xbd01aa26	-0.031656407
233	0x3d3b8ff0	0.045791566
234	0xbd398a64	-0.045297995
235	0x3d94ea1e	0.07271217
236	0xbd787340	-0.060656786
237	0xbd985650	-0.07438338
238	0x3cded85c	0.027202778
239	0x3d6bad88	0.05753854
240	0x3d9cadf6	0.07650368
241	0xbcc76f60	-0.0243451
242	0x3d4133e8	0.047168642
243	0xbb3e5900	-0.0029044747
244	0x3d582728	0.052771717
245	0x3bb34f10	0.0054720715
246	0x3d8c9a8c	0.06865415
247	0x3d14aaf0	0.03629583
248	0x3d9ac534	0.07557145
249	0xbd21b646	-0.03948047
250	0xbbd34c0b	-0.006448274
251	0xbcaa1178	-0.020760283
252	0x3d125555	0.03572591
253	0xbd01d460	-0.031696677
254	0xbd23e070	-0.040008962
255	0xbda9e35b	-0.08295318

encoder_sol.W_i.bias f4 [128]
0	0x3d84e5d5	0.064891495
1	0x3ccd203c	0.025039785
2	0xbd052b7c	-0.032512173
3	0x3d1c242b	0.03812043
4	0xbcd516e7	-0.026011897
5	0x3ca698ac	0.020336471
6	0xbd3f62e8	-0.046725184
7	0xbd488b40	-0.048960924
8	0xbda50559	-0.080576606
9	0xbc8c8d7c	-0.017157309
10	0xbd011eaa	-0.031523384
11	0xbd02c9a5	-0.031930584
12	0xbcdfaf8d	-0.027305389
13	0x3d87a04d	0.06622372
14	0xbd9eace4	-0.0774782
15	0xbd10dff5	-0.035369832
16	0x3cab3b83	0.0209024
17	0xbd826be5	-0.063682355
18	0xbc85c287	-0.01632811
19	0x3d3b97ad	0.045798946
20	0xbb88f54f	-0.0041796337
21	0x3d497390	0.049182475
22	0x3d0f995b	0.03505836
23	0xbd447880	-0.04796648
24	0x3ce0e6bb	0.02745377
25	0x3d2eefe1	0.042709235
26	0xbda888d0	-0.0822922
27	0x3d8b997a	0.06816383
28	0x3d6d762a	0.05797402
29	0x3ce7e8b2	0.0283092
30	0x3d2cbd5c	0.042172775
31	0x3d3ab155	0.045579273
32	0xbd1acf60	-0.037795424
33	0xbd3b8d55	-0.04578908
34	0xbc94f7df	-0.0181846
35	0x3ccc29c2	0.024922255
36	0xbd36a60b	-0.044591945
37	0x3d82497d	0.06361673
38	0xbd8cfa3d	-0.06883667
39	0xbd764ea9	-0.06013361
40	0xbd850009	-0.06494147
41	0x3ce1c5e3	0.02756018
42	0x3cdd64bd	0.027025575
43	0xbda902d9	-0.08252496
44	0xbd9da8ef	-0.07698237
45	0x3c627afe	0.013823269
46	0x3d5ec327	0.05438533
47	0xbd13627b	-0.03598259
48	0x3d37aac8	0.044840604
49	0xbd7ce4c5	-0.06174161
50	0xbcf9afc3	-0.030479318
51	0x3d6926cb	0.05692176
52	0x3d08fd09	0.033444438
53	0x3c544d7d	0.012957928
54	0xbb8c8b19	-0.0042890427
55	0xbd5566c5	-0.05209996
56	0xbce31a0d	-0.027722383
57	0x3d8c8fc5	0.06863359
58	0xbd6ad962	-0.05733622
59	0x3beb990b	0.007189875
60	0xbd7ab4d3	-0.061207604
61	0x3d79a8f1	0.06095213
62	0xbd67088e	-0.056404643
63	0xbd8636be	-0.0655341
64	0xbc47e84e	-0.012201382
65	0x3d1df4df	0.038563605
66	0x3cc17efa	0.023620117
67	0x3cea26ba	0.02858292
68	0x3d6b3668	0.057424933
69	0x3c695705	0.0142419385
70	0x3d509805	0.050926227
71	0x3d9bc858	0.07606572
72	0x3d892058	0.06695622
73	0x3d0a6af9	0.033793423
74	0x3c874689	0.016513126
75	0x3c8df685	0.017329464
76	0xbd44178e	-0.047874026
77	0x3cb2837d	0.021791214
78	0x3d9a4428	0.07532531
79	0xbce5f5db	-0.028071335
80	0x3d53b56f	0.0516867
81	0xbd1db8e0	-0.03850639
82	0x3d81abc2	0.06331588
83	0x3daab818	0.08335894
84	0xbce99f51	-0.02851835
85	0x3c4092de	0.011753766
86	0x3d913f81	0.070921905
87	0xbced9ad7	-0.029004497
88	0xbd33b624	-0.043874875
89	0xbd971e60	-0.073788404
90	0xbd55c464	-0.052189246
91	0x3cc8f7fb	0.024532309
92	0x3c56227f	0.013069748
93	0x3d3558b7	0.04427406
94	0xbd3f95b0	-0.046773612
95	0xbd82176a	-0.06352122
96	0x3d981a1f	0.07426857
97	0x3d1a7f3f	0.037719008
98	0x3d4d3566	0.050099753
99	0xbc6276c7	-0.013822264
100	0xbd1e8b0e	-0.03870683
101	0xbda4f0c0	-0.08053732
102	0xbd5a3dfd	-0.053281773
103	0xbd42e660	-0.047582984
104	0x3c51142c	0.012761157
105	0xbd323a5e	-0.043512695
106	0xbd466ece	-0.048445515
107	0xbce16834	-0.027515508
108	0xba8794f7	-0.0010344078
109	0x3cbe35b7	0.023218973
110	0x3d53737e	0.051623814
111	0xbd7d51d0	-0.0618456
112	0x3d8bf82f	0.06834447
113	0x3d1f04c8	0.03882292
114	0x3d103d81	0.035214905
115	0xbd8337d6	-0.06407134
116	0xbdb30fe7	-0.087432675
117	0x3d2bac81	0.04191256
118	0x3c0b870d	0.008516085
119	0xbd5a4462	-0.05328787
120	0x3c1941ee	0.009354098
121	0xbd6a0df3	-0.05714221
122	0xbd52f15a	-0.051499702
123	0x3bb61ca9	0.005557616
124	0x3d4f9a62	0.05068434
125	0x3d53baed	0.05169194
126	0x3d496bb6	0.049174987
127	0xbd1e3c6d	-0.038631845

encoder_sol.W_h.weight f4 [128, 128]
0	0xbd30116c	-0.042985365
1	0x3b279a63	0.00255742
2	0xbdc31062	-0.09524609
3	0x3da7ee10	0.08199704
4	0x3c8f9e4c	0.017531537
5	0x3bb3e303	0.0054897084
6	0x3cbf6b09	0.023366468
7	0xbd88db31	-0.066824324
8	0xbd89b1dd	-0.06723378
9	0x3cfc721c	0.03081613
10	0xbcf3e97b	-0.029774418
11	0x3d0c6d57	0.034283962
12	0x3d8188ee	0.063249454
13	0x3dbb556c	0.09147152
14	0x3d5a3241	0.053270582
15	0x3d82f13e	0.063936695
16	0x3ccd2fcb	0.025047204
17	0xbda135ae	-0.07871567
18	0x3d0d63f6	0.03451916
19	0x3bf7cfe3	0.007562624
20	0xbd9908a4	-0.07472351
21	0xbcbdef33	-0.023185348
22	0x3c15bd66	0.009139394
23	0x3cd97774	0.026546218
24	0x3cd20690	0.025637895
25	0x3d244c19	0.040111635
26	0x3d9a1220	0.07522988
27	0xbd8f2f3f	-0.06991433
28	0xbd7f7a4c	-0.06237249
29	0xbb585393	-0.0033008798
30	0x3d0f986a	0.035057463
31	0x3d4775ca	0.048696317
32	0x3cace100	0.021103382
33	0x3c92c038	0.017913923
34	0x3b4026d1	0.0029320011
35	0xbd2c6dfe	-0.042097084
36	0xbc06378c	-0.008191954
37	0xbdb088c5	-0.08619837
38	0xbbbbea5d	-0.0057347254
39	0xbd195dee	-0.037443094
40	0xbc5b534e	-0.013386561
41	0xbd9fbac8	-0.077992976
42	0x3ccee414	0.02525524
43	0x3cff5ed6	0.031173151
44	0xbda1fce8	-0.07909566
45	0x3cd736a9	0.026271181
46	0x3d9d9f95	0.076964535
47	0x3d4fb07f	0.05070543
48	0x3d8befd1	0.06832851
49	0x3d5fd4f4	0.054646447
50	0xbd9ccae2	-0.07655884
51	0x3d018435	0.031620223
52	0xbd731674	-0.059347585
53	0xbd4ca33a	-0.049960352
54	0x3b94a414	0.004536161
55	0x3c94834e	0.018129017
56	0x3d5b3df9	0.0535259
57	0xbd276815	-0.040870745
58	0x3d4c97d6	0.04994949
59	0x3d7812a8	0.060564667
60	0x3b3f76a2	0.0029214998
61	0xbd25ff52	-0.040526696
62	0x3d24dc39	0.040249083
63	0xbc56b530	-0.013104722
64	0x3d85b196	0.065280125
65	0xbd8f5675	-0.06998912
66	0xbd96c9b5	-0.07362691
67	0xbdc25436	-0.09488718
68	0xbcf87d38	-0.030333146
69	0xbd3717a5	-0.044700284
70	0xbcc1bdd6	-0.023650091
71	0xbd02db0a	-0.031947173
72	0x3c1e75cb	0.009671639
73	0x3db28f6a	0.0871876
74	0xbda340a1	-0.07971311
75	0xbcaef60e	-0.021357562
76	0xbcbb4d20	-0.022863925
77	0xbbd53d0c	-0.0065075215
78	0x3d8a0f9b	0.06741258
79	0xbda74627	-0.081676774
80	0x3d52efe6	0.051498316
81	0x3d9b421e	0.0758097
82	0x3922a2ff	0.00015510245
83	0xbc72f21f	-0.014828234
84	0x3d3d8eeb	0.046278875
85	0xbdbcdec5	-0.092221774
86	0xbcad16b5	-0.021128992
87	0x3d9c9cd4	0.076471
88	0x3d85a6f2	0.06525983
89	0xbbc28b40	-0.00593701
90	0xbc94dd15	-0.018171826
91	0xbcad2238	-0.02113448
92	0xbd87c0bb	-0.06628557
93	0xbdb71cf6	-0.08941071
94	0x3d89e8d8	0.067338645
95	0x3d57874c	0.052619264
96	0xbcb418be	-0.021984454
97	0xbc1c8cc8	-0.009555049
98	0x3b921673	0.0044582426
99	0x3c4b85d3	0.012422043
100	0x3d971283	0.07376578
101	0x3d817761	0.06321598
102	0x3d6a45d0	0.057195485
103	0xbc9be646	-0.019030701
104	0x3d5f6d7b	0.054547768
105	0x3c36cef8	0.011157744
106	0x3d0e6801	0.034767155
107	0x3c1bb6e1	0.009504051
108	0xbcd4884f	-0.025943903
109	0x3d157f17	0.036498155
110	0x3d7c34e6	0.061573885
111	0xbd044329	-0.03229061
112	0x3d4b89dd	0.049692024
113	0x3c36742a	0.011136094
114	0xbd54b492	-0.051930018
115	0xbd154f03	-0.036452305
116	0xbd0a8594	-0.033818796
117	0x3c6f9f30	0.014625356
118	0x3d28c3d4	0.04120238
119	0xbd9f8354	-0.07788721
120	0xbd9dc8fb	-0.077043496
121	0xbb18663f	-0.0023254303
122	0x3bc790c8	0.0060902573
123	0x3da7a276	0.08185284
124	0xbdc060a1	-0.093934305
125	0x3d8bbeb2	0.068234816
126	0xbdb6cbe5	-0.089256085
127	0x3d350bf5	0.044200856
128	0xbd77d050	-0.060501397
129	0xbdad6130	-0.08465803
130	0xbd018e2e	-0.031629734
131	0x3cdddbfa	0.027082432
132	0xbc733380	-0.0148438215
133	0x3c6c8c9c	0.014437821
134	0xbd6f98e2	-0.05849541
135	0x3c9a18aa	0.018810589
136	0x3ac4d2c4	0.0015016426
137	0xbd5fba71	-0.054621164
138	0x3d5ec833	0.054390144
139	0x3d7400ad	0.059570957
140	0x3d2567bf	0.040382143
141	0x3bdbf311	0.0067123254
142	0xbdaf89d0	-0.085712075
143	0x3c3f1267	0.011662102
144	0x3d017a47	0.031610753
145	0xbd440157	-0.04785284
146	0x3d2ca955	0.042153675
147	0xbd4aefa0	-0.04954493
148	0x3cdbd12f	0.026833145
149	0xbd0281a5	-0.03186192
150	0x3d4590da	0.048233844
151	0x3c98ad4c	0.018637322
152	0xbd4a7318	-0.04942617
153	0x3b3f179d	0.0029158362
154	0x3c906849	0.017627852
155	0x3ca2ea38	0.019887075
156	0xba93999f	-0.0011260993
157	0xbd956042	-0.0729375
158	0xbb803a0b	-0.0039131693
159	0x3cff9043	0.031196719
160	0x3d1240c4	0.035706297
161	0x3d42a4b7	0.047520366
162	0xbd0555e7	-0.032552626
163	0x3d2545b7	0.04034969
164	0x3d44c546	0.048039697
165	0xbd2e606c	-0.042572424
166	0x3d4b57eb	0.049644392
167	0xbb8264d6	-0.0039793057
168	0xbda236ae	-0.079205856
169	0x3d8d4430	0.06897771
170	0x3cc2325e	0.023705658
171	0xbd7039c2	-0.058648832
172	0xbd6a6500	-0.057225227
173	0x3b642636	0.0034812815
174	0x3d2050f9	0.03913972
175	0xbb8cac75	-0.0042930194
176	0x3d8d045f	0.06885599
177	0x3d90ddbc	0.070735425
178	0x3db49fe6	0.08819561
179	0xbd13d0ba	-0.03608773
180	0xbd322e42	-0.043501146
181	0xbbde8bb3	-0.006791556
182	0xbdb82251	-0.0899092
183	0x3c83bc87	0.016081108
184	0xbd12d13d	-0.035844076
185	0xbc36f9b3	-0.011167931
186	0xbdb04fc5	-0.08608965
187	0xbd4c5e71	-0.049894754
188	0xbda97dc9	-0.08275945
189	0x3d506164	0.05087413
190	0xbc07b74f	-0.00828345
191	0xbd96e35f	-0.07367586
192	0xbaba306c	-0.0014205105
193	0xbd7dd3a5	-0.061969418
194	0x3be82708	0.007084731
195	0x3c2e609b	0.01064315
196	0xbd333cd8	-0.043759197
197	0xbc0e7895	-0.008695741
198	0xbda7ded6	-0.081967995
199	0xbc622a06	-0.0138039645
200	0x3cfb749c	0.030695252
201	0xbd8fa161	-0.070132025
202	0xbbb15aab	-0.00541242
203	0x3c6b96d6	0.014379224
204	0xbd2bd28d	-0.041948844
205	0x3d770298	0.060305208
206	0xbc0a9bb7	-0.008459977
207	0xbd42a970	-0.04752487
208	0xbda617ba	-0.08109994
209	0xbd80d1d9	-0.06290025
210	0xbda0a979	-0.07844824
211	0x3cef7ae9	0.029233413
212	0xbd8daa29	-0.06917221
213	0xbd9ea026	-0.0774539
214	0x3d88d394	0.0668098
215	0x3be446e6	0.0069664596
216	0x3d9c8076	0.076416895
217	0x3c8abf31	0.01693687
218	0x3d92af49	0.07162339
219	0x3d55cba8	0.052196175
220	0xbd0abc2b	-0.033870857
221	0xbd9f9604	-0.07792285
222	0x3c851c9b	0.016248992
223	0x3d8a98e8	0.06767446
224	0xbd94f0d8	-0.072725
225	0x3c5ac35b	0.01335224
226	0x3c180ac2	0.009279909
227	0x3d8b7492	0.068093434
228	0x3c91ae3e	0.01778328
229	0xbd004d4f	-0.031323727
230	0x3d35ee30	0.044416606
231	0x3c0067a8	0.007837214
232	0x3d139bf2	0.036037393
233	0x3d7fd193	0.062455725
234	0x3d4d485d	0.05011784
235	0xbcde599a	-0.027142335
236	0x3d20d300	0.039263725
237	0x3d72f06b	0.05931131
238	0x3c3311d7	0.010929546
239	0xbcd8ece9	-0.026480155
240	0xbd166209	-0.036714587
241	0xb9e572c1	-0.00043763782
242	0x3d6100d5	0.054932434
243	0xbce0cb05	-0.027440557
244	0xbcb97819	-0.022640275
245	0xbd8f2583	-0.06989577
246	0x3c692d25	0.014231955
247	0x3d4f9983	0.05068351
248	0x3d20c3aa	0.0392491
249	0xbd5348df	-0.051583167
250	0x3c3f54cf	0.011677935
251	0xbd8e0a64	-0.069355756
252	0xbcd654f7	-0.026163561
253	0xbd7db2c5	-0.061938066
254	0x3ca046a6	0.019564938
255	0xbcdeab52	-0.027181301

encoder_sol.W_h.bias f4 [128]
0	0xbd52fd47	-0.051511075
1	0xbd7ac727	-0.061225083
2	0x3d52fb98	0.05150947
3	0x3c9814c7	0.018564595
4	0xbaf1cefd	-0.0018448528
5	0x3d4af4eb	0.04954998
6	0x3c93e2d4	0.018052496
7	0x3d8d659e	0.069041476
8	0x3d9940bb	0.074830495
9	0xbd97916a	-0.074007824
10	0x3c38c541	0.011277498
11	0xbd7dff22	-0.06201089
12	0x3c846661	0.0161621
13	0x3d476a9d	0.04868566
14	0x3cfc20b5	0.030777315
15	0xbc32178f	-0.010869875
16	0xbdb4b051	-0.08822692
17	0xb93304ed	-0.00017072605
18	0x3d791b7b	0.060817223
19	0xbb7b9872	-0.0038390425
20	0x3adeb361	0.0016990715
21	0xbd486553	-0.048924755
22	0xbb09542e	-0.0020954716
23	0x3cb73308	0.0223632
24	0x3d6d842c	0.057987377
25	0x3daaec38	0.083458364
26	0xbd50b4a1	-0.05095351
27	0xbdae4faf	-0.08511292
28	0x3c8b40c6	0.01699866
29	0xbd9d4681	-0.07679463
30	0xbd4da05b	-0.050201755
31	0xbc802e96	-0.015647214
32	0x3d4e3e47	0.05035236
33	0x3d1f6318	0.038912863
34	0x3d765c6e	0.06014674
35	0x3d3f8632	0.046758838
36	0xbcd9be90	-0.026580125
37	0x3cb390cb	0.021919629
38	0x3c54d127	0.012989319
39	0xbbf00132	-0.0073243612
40	0xbd06adbc	-0.03288053
41	0x3bdb9435	0.0067010173
42	0xbd9a9305	-0.07547573
43	0xbd86671d	-0.06562636
44	0x3d179664	0.037008658
45	0x3d1094ee	0.03529828
46	0xbd5537ee	-0.05205529
47	0x3cf8c621	0.030367913
48	0xbd853a4f	-0.06505262
49	0xbd9d95fd	-0.076946236
50	0xbc8ca4d4	-0.01716844
51	0x3dac03a4	0.08399132
52	0x3b482a8f	0.0030542945
53	0xbd892fff	-0.06698608
54	0xbcae7283	-0.021294838
55	0xbd5194be	-0.051167242
56	0xbdb90e0e	-0.09035884
57	0xbc987807	-0.018611921
58	0x3d59e9b8	0.053201407
59	0xbc8f77ef	-0.017513243
60	0xbd934017	-0.071899585
61	0xbc78687e	-0.015161632
62	0x3cd0689d	0.025440508
63	0xbd95f672	-0.07322396
64	0x3d8da7a6	0.06916742
65	0x3c21b340	0.009869397
66	0xbdadd2a7	-0.08487444
67	0xbda2a6cb	-0.079419695
68	0xbd17cf9a	-0.03706322
69	0x3d548f25	0.051894326
70	0xbc99f988	-0.018795744
71	0xbbe0e8fa	-0.0068637105
72	0xbce45dfb	-0.027876845
73	0x3d12277f	0.035682198
74	0x3d9809c8	0.074237406
75	0x3d9b919e	0.07596134
76	0xbd2fddc0	-0.042936087
77	0x3d410361	0.047122363
78	0xbc5e653d	-0.013573942
79	0x3d3c8c18	0.04603204
80	0xbd804643	-0.06263401
81	0x3c9f03de	0.019411024
82	0xbd86b41a	-0.065773204
83	0xbbfccd3e	-0.0077148965
84	0x3d1999bd	0.037500132
85	0x3c996146	0.018723141
86	0x3cb9b177	0.02266763
87	0x3db970b3	0.09054699
88	0xbd01c010	-0.031677306
89	0xbdbc4a88	-0.09193903
90	0x3c2f409e	0.010696558
91	0xbca5cdf0	-0.0202398
92	0xbd9b9c80	-0.075982094
93	0x3d53e38c	0.051730677
94	0x3c262a8b	0.010141979
95	0x3d1cbd1b	0.038266283
96	0x3d9e8069	0.07739336
97	0xbd222910	-0.03958994
98	0xbd951068	-0.0727852
99	0x3c637f40	0.013885319
100	0x3c9cb8ae	0.01913103
101	0xbd0a7d83	-0.033811104
102	0x3dbd5b29	0.09245903
103	0xbd4fc872	-0.05072827
104	0x3d900d29	0.0703376
105	0x3d95290d	0.072832204
106	0x3d016709	0.031592403
107	0xbcb80d71	-0.022467347
108	0xbd91aea9	-0.07113392
109	0xbd940f03	-0.07229426
110	0x3d090dda	0.033460476
111	0x3d66eb86	0.056376956
112	0xbd731830	-0.05934924
113	0xbca5000d	-0.020141626
114	0x3d8dd459	0.06925268
115	0xbd4729e8	-0.04862395
116	0xbd92eb8f	-0.071738355
117	0x3c1290c1	0.008945645
118	0xbdafbdf8	-0.085811555
119	0x3d8c2b8d	0.06844244
120	0x3d54dc37	0.051967826
121	0x3d8662d7	0.06561821
122	0xbc8833cf	-0.016626267
123	0xbd962400	-0.07331085
124	0xbd842758	-0.06452817
125	0x3d574aab	0.052561443
126	0xbce8556b	-0.028361043
127	0xbda78420	-0.08179498

encoder_sol.W_o.weight f4 [128, 261]
0	0xbd014662	-0.031561263
1	0x3ce413e4	0.027841516
2	0x3d79ceea	0.060988344
3	0xbd628c45	-0.055309553
4	0x3d17f0a2	0.03709472
5	0x3d0bd706	0.03414061
6	0x3bc535c0	0.0060183704
7	0xbd955aab	-0.07292684
8	0xbd5d118f	-0.053971823
9	0x3cff9920	0.031200945
10	0xbc05e350	-0.008171871
11	0xbd1ddaa2	-0.038538583
12	0x3ccab4d0	0.024744421
13	0x3d4204e4	0.047367945
14	0x3c893b0c	0.016751789
15	0x3d0041a8	0.031312615
16	0xbc328d18	-0.010897897
17	0xbd53c9c5	-0.051706094
18	0xbd5a724d	-0.053331662
19	0xbc04480c	-0.008073818
20	0xba952200	-0.0011377931
21	0x3d727256	0.05919107
22	0x3c8609bc	0.016362064
23	0x3d107e1a	0.03527651
24	0xbd7a28bd	-0.061074007
25	0xbb37c7c0	-0.0028042644
26	0xbd420a49	-0.04737309
27	0xbd23d7f8	-0.040000886
28	0x3ad21940	0.0016029254
29	0xbd114b00	-0.035471916
30	0x3d38a6e0	0.04508102
31	0xbca8dcb4	-0.020613052
32	0x3c1b6b20	0.00948599
33	0x3c9e09ac	0.019291721
34	0xbd728382	-0.059207447
35	0x3d609cbe	0.05483698
36	0xbd72518a	-0.059159793
37	0x3d7d71fc	0.061876282
38	0x3d485b6e	0.04891532
39	0x3ac86c40	0.001529105
40	0x3d31e37e	0.043429844
41	0x3cb714dc	0.022348814
42	0x3d0d77de	0.034538142
43	0x3d794588	0.060857326
44	0x3d621408	0.055194885
45	0x3c7d75d0	0.015469983
46	0xbd2abf7c	-0.04168652
47	0xbba14680	-0.0049217343
48	0xbc7e434c	-0.0155189745
49	0x3c44a050	0.012001112
50	0xbcdccbce	-0.02695265
51	0xbb9f79e0	-0.0048668236
52	0x3d5d0283	0.053957473
53	0x3cc4ee34	0.024039365
54	0x3d2c19e2	0.04201687
55	0x3a7f4280	0.00097373873
56	0x3d6d3cc8	0.057919294
57	0x3d427930	0.047478855
58	0xbc3f3900	-0.011671305
59	0xbd2e6a60	-0.042581916
60	0xbcfa502e	-0.03055581
61	0x3c8109f8	0.015751824
62	0x3d1e5862	0.038658507
63	0x3c000fb0	0.00781624
64	0xbd0532ca	-0.03251914
65	0x3c01be60	0.007918924
66	0x3d3ef58e	0.046620898
67	0x3d47fb1e	0.04882347
68	0x3c09a138	0.008400254
69	0xbd6bb217	-0.057542887
70	0xbcfebfe9	-0.03109737
71	0x3c183120	0.009289056
72	0x3beb9120	0.007188931
73	0xbd6a2dde	-0.05717265
74	0xbd05680b	-0.032569926
75	0xbd60c6b9	-0.054877017
76	0xbd2fcb40	-0.042918444
77	0xbc9050dc	-0.017616682
78	0xbd78ade9	-0.06071273
79	0xbcab5430	-0.020914167
80	0x3d746fdc	0.05967699
81	0xbd02500c	-0.03181462
82	0x3cb1a544	0.02168525
83	0x3d3a8866	0.045540236
84	0x3d14ebc8	0.03635767
85	0x3d5d36ea	0.05400745
86	0xbc65e43c	-0.014031466
87	0x3c9d89c4	0.01923073
88	0x3cc6b878	0.024257883
89	0x3d70568c	0.058676288
90	0xbcf6c92a	-0.03012522
91	0x3cfa48b4	0.030552246
92	0xbd6dcaeb	-0.058054846
93	0xbc1d5588	-0.009602912
94	0xbd17547e	-0.036945812
95	0x3d35b34c	0.044360444
96	0xbd3e1060	-0.046402335
97	0xbcf0db3e	-0.029401418
98	0x3d679d22	0.056546338
99	0x3d215478	0.039387196
100	0xbcf8beca	-0.030364413
101	0xbcec6e14	-0.028861083
102	0xbd2a57e5	-0.04158773
103	0x3d067bcb	0.032832902
104	0x3d17ddab	0.037076633
105	0xbc7387b0	-0.014863893
106	0x3cc6027c	0.024171107
107	0xbb1d4d60	-0.0024002418
108	0xbd3d738a	-0.046252765
109	0x3d005c36	0.03133794
110	0x3d61c52a	0.05511967
111	0xbab58720	-0.0013849474
112	0x3d479029	0.048721466
113	0xbd5a7ef7	-0.05334374
114	0xbd75b389	-0.05998567
115	0xbd69f356	-0.05711683
116	0x3cbf2de8	0.02333732
117	0xbaa43380	-0.0012527555
118	0x3d59ee50	0.053205788
119	0xbd43540e	-0.047687583
120	0x3d3e4533	0.046452712
121	0xbd02f818	-0.031974882
122	0xbd214752	-0.039374657
123	0x3c23bae8	0.009993292
124	0x3d50e8d0	0.051003277
125	0xbd7927a3	-0.060828816
126	0xbd889436	-0.06668894
127	0x3d612410	0.054966033
128	0xbd58afe1	-0.052902106
129	0xbcb4b100	-0.022057056
130	0x3d69e368	0.057101637
131	0xbd499931	-0.04921836
132	0x3d6c2c7e	0.05765962
133	0x3ca1506a	0.019691665
134	0xbd25f3ee	-0.040515833
135	0xbc3877e0	-0.011259049
136	0x3cc731cc	0.024315737
137	0xbb7d4107	-0.0038643496
138	0xbcfcb4c2	-0.03084791
139	0xbd41e6a1	-0.047339085
140	0x3d234caf	0.039868053
141	0xbbfccea2	-0.0077150622
142	0xbcde35c7	-0.027125252
143	0xbd1422e6	-0.036166094
144	0x3d0b95eb	0.03407852
145	0x3b86f381	0.0041183834
146	0x3cd2447b	0.02566742
147	0x3c8b85d4	0.017031588
148	0xbcb4836a	-0.02203532
149	0xbd81f16a	-0.06344874
150	0xbd3ec91f	-0.046578523
151	0xbd6e5a63	-0.05819167
152	0x3d4152d4	0.04719813
153	0xbd75460a	-0.059881248
154	0xbc24f319	-0.010067725
155	0x3ceda6b7	0.02901016
156	0xbd4488cb	-0.04798202
157	0x39e7ae08	0.00044189417
158	0x3d3fee9d	0.04685842
159	0x3cb7af31	0.022422405
160	0x3d231b40	0.03982091
161	0x3d03a365	0.032138247
162	0xbd0c65b1	-0.034276668
163	0xbb514377	-0.0031931081
164	0x3cf0c62a	0.029391367
165	0xbd111452	-0.03541977
166	0x3cb40525	0.02197511
167	0xbd1d5178	-0.038407773
168	0x3cc387a3	0.023868388
169	0x3cabd862	0.020977203
170	0xbca5d27e	-0.020241972
171	0x3d58a665	0.05289306
172	0x3ceab609	0.028651254
173	0x3946ff50	0.00018977863
174	0x3c324710	0.0108812
175	0x3d6e2b82	0.05814696
176	0xbcb00357	-0.021485968
177	0xbd72d0d1	-0.059281174
178	0xbd507bd3	-0.050899338
179	0x3c51dc54	0.012808878
180	0x3d43f5d8	0.047841877
181	0xbd4d36e4	-0.050101176
182	0xbd84e766	-0.06489448
183	0x3d3f0d38	0.046643466
184	0xbd57c6f5	-0.052679975
185	0x3c4f9886	0.012670642
186	0x3d209fba	0.039214827
187	0xbd809910	-0.06279194
188	0xbc392e57	-0.011302552
189	0xbd4f1783	-0.050559532
190	0xbd204fb4	-0.03913851
191	0x3c3f5acb	0.011679362
192	0xbd5b2bea	-0.053508677
193	0xbcda1f7b	-0.02662634
194	0x3d5a3d3e	0.05328106
195	0xbca9c43f	-0.02072346
196	0x3d5527b6	0.052039824
197	0xbd8b5a77	-0.06804364
198	0x3cf07b15	0.029355565
199	0x3d075fe3	0.03305043
200	0x3cae83f9	0.021303164
201	0x3ca5d241	0.020241858
202	0x3d1acfca	0.03779582
203	0xbd1e4ee3	-0.03864945
204	0xbce6e787	-0.028186573
205	0xbb1dfae5	-0.0024105844
206	0xbd7a8d75	-0.06117006
207	0x3cfcb56e	0.030848231
208	0xbc1a7edd	-0.009429661
209	0xbd276adc	-0.040873393
210	0xbce548ad	-0.027988756
211	0xbc29699e	-0.0103401225
212	0xbbd5fc5b	-0.0065303273
213	0xbc06dfe0	-0.008232087
214	0x3c9e3e45	0.019316802
215	0xbc34fdd6	-0.011046847
216	0x3cc91bd2	0.024549399
217	0xbd8794c6	-0.06620173
218	0x3d0f03a9	0.0349156
219	0x3b676dce	0.0035313251
220	0x3c3930bd	0.011303124
221	0x3c878f11	0.016547712
222	0xbc8f444f	-0.017488627
223	0xbd3dcb23	-0.046336304
224	0x3c94112f	0.0180746
225	0xbd600e3a	-0.054701068
226	0xbd42c3a9	-0.047549877
227	0xbbc9f034	-0.0061626676
228	0x3d30b82e	0.043144397
229	0xbce50790	-0.027957708
230	0xbd7dc020	-0.061950803
231	0xbc68c886	-0.014207965
232	0xbc5f6e99	-0.013637208
233	0xbd0a8b99	-0.033824537
234	0x3bbb837f	0.0057224627
235	0x3ca31de1	0.019911708
236	0xbc843272	-0.016137335
237	0xbd7f8cd6	-0.06239017
238	0xbd362b5b	-0.04447494
239	0x3d5c00a0	0.053711534
240	0xbb5fbe13	-0.0034140393
241	0x3cb9bb6f	0.022672383
242	0x3a323f6e	0.0006799613
243	0xbca8303c	-0.020530812
244	0x3c8ecaa9	0.01743062
245	0xbb959d46	-0.0045658676
246	0x3cae82f7	0.021302683
247	0xbd716caa	-0.05894152
248	0xbc75ec19	-0.015009903
249	0x3c3cecfc	0.011531111
250	0x3d28f6bd	0.041250933
251	0xbd03a24b	-0.032137197
252	0xbd00acd0	-0.031414807
253	0xbd649275	-0.055803735
254	0x3d28a2e6	0.041170977
255	0x3d49f0a2	0.04930175

encoder_sol.W_o.bias f4 [128]
0	0xbd786b2f	-0.060649093
1	0xbd66d979	-0.05635974
2	0xbcb19b1e	-0.021680411
3	0x3d20cafd	0.039256085
4	0x3cc1d0de	0.023659166
5	0x3cec2b71	0.028829308
6	0xbd4d0bd3	-0.050060105
7	0x3d5c5d09	0.053799663
8	0xbcce0624	-0.025149412
9	0xbcb84046	-0.022491585
10	0xbcefe193	-0.029282367
11	0x3cb7e6ef	0.022448985
12	0x3d30f3c7	0.043201234
13	0xbc918fae	-0.017768707
14	0xbd5e6a26	-0.05430045
15	0x3badb0ee	0.0053006327
16	0xbbb96740	-0.0056580603
17	0xbc439d30	-0.011939332
18	0x3ca75e0b	0.020430585
19	0xbd714ea5	-0.058912892
20	0xbca68a3f	-0.020329593
21	0x3cace985	0.021107445
22	0xbd467ad0	-0.048456967
23	0x3a5f668d	0.0008522056
24	0x3d5548c5	0.05207135
25	0xbc892752	-0.016742382
26	0x3cdc4fe4	0.026893564
27	0xbd63db0a	-0.055628814
28	0x3d243d0f	0.040097293
29	0xbd466b6c	-0.04844229
30	0x3d7549d1	0.05988485
31	0xbcd0abfc	-0.025472634
32	0x39f365fe	0.00046424562
33	0xbcb75a1e	-0.022381838
34	0x3d0c1d63	0.034207713
35	0xbd4cce25	-0.050001282
36	0x3d22a685	0.039709587
37	0x3d6b217c	0.05740498
38	0xbb8d1c48	-0.00430635
39	0xbd77af20	-0.060469747
40	0x3cff33a3	0.031152552
41	0x3d301846	0.0429919
42	0x3d3a2fae	0.045455627
43	0x3bc5d43b	0.0060372627
44	0x3d2cb023	0.042160165
45	0xbd7de5b3	-0.061986636
46	0xbcf58e46	-0.029975068
47	0xbd146c1e	-0.03623592
48	0xbb6479b5	-0.0034862582
49	0x3b574fbf	0.003285393
50	0xbd4beaa9	-0.049784336
51	0x3d8aebb7	0.0678324
52	0xbc9f1e7b	-0.019423714
53	0xbca53679	-0.020167576
54	0xbccf3949	-0.02529587
55	0x3c6e90f6	0.014560929
56	0xbd4084c4	-0.047001615
57	0xbd7d40ca	-0.061829366
58	0xbd542f61	-0.051802997
59	0x3c724b39	0.014788442
60	0x3cfc59af	0.030804483
61	0x3d782f6e	0.060592107
62	0x3b7e8f76	0.0038842834
63	0x3cf74a7a	0.03018688
64	0x3d1e8e97	0.038710203
65	0x3cc40137	0.02392636
66	0x3d5af426	0.053455494
67	0xbd24f03b	-0.040268164
68	0xbcea09e1	-0.028569164
69	0xbd48fd14	-0.04906948
70	0xbc150a38	-0.009096675
71	0x3d043a22	0.032282002
72	0xbd767e99	-0.060179327
73	0xbcd537b6	-0.026027542
74	0x3d7f5400	0.062335968
75	0xbd16adfe	-0.036787026
76	0xbd5e0103	-0.054200184
77	0xbb0335d6	-0.0020021102
78	0xbd10cf3c	-0.035353884
79	0x3bc5259c	0.0060164463
80	0x3c1ced0a	0.009577999
81	0xbcd3fd89	-0.02587773
82	0x3c8e8db2	0.01740155
83	0xbcddf63b	-0.02709495
84	0x3c4a133c	0.012333687
85	0xbcab1bee	-0.020887341
86	0x3b1aac6e	0.0023601311
87	0x3d29c6cb	0.04144935
88	0xbd1a65e3	-0.037694823
89	0xbd368ac0	-0.044565916
90	0x3ca790f6	0.020454865
91	0xbc8033d0	-0.015649706
92	0xbabc667a	-0.0014373802
93	0xbd5df7b8	-0.05419132
94	0xbb62585d	-0.0034537532
95	0xbbca2e95	-0.006170104
96	0xbd840d41	-0.064478405
97	0xbd88794b	-0.0666376
98	0xbce25ca8	-0.027632073
99	0x3b5a1a26	0.0033279746
100	0xbbb69367	-0.005571771
101	0xbd6e2849	-0.058143888
102	0x3d2ce2eb	0.042208593
103	0xbd1ba7e5	-0.038001914
104	0xbc24e835	-0.010065128
105	0xbd185954	-0.037194565
106	0xbc0b6f1f	-0.00851038
107	0xbca36253	-0.019944346
108	0x3d71d7c7	0.059043672
109	0xbc8cfc52	-0.01721016
110	0x3d412e20	0.04716313
111	0xbcfa308f	-0.030540733
112	0xbd5d72d5	-0.05406459
113	0x3d196d43	0.037457716
114	0xbc86a72b	-0.016437134
115	0x3d048e91	0.032362524
116	0xbbd8870c	-0.0066078957
117	0x3d35418b	0.04425196
118	0x3d82c133	0.06384506
119	0x3c4b3dbc	0.012404855
120	0x3cc2207d	0.023697132
121	0xbd4cbdb1	-0.04998559
122	0xbd6169b8	-0.055032462
123	0xbc8077b8	-0.015682086
124	0x3c1c6762	0.009546133
125	0x3d2cf3ef	0.04222482
126	0xbcdb906c	-0.026802264
127	0xbd3d47cc	-0.04621105

encoder_solv.cached_zero_vector f4 [128]
0	0x00000000	0.0
1	0x00000000	0.0
2	0x00000000	0.0
3	0x00000000	0.0
4	0x00000000	0.0
5	0x00000000	0.0
6	0x00000000	0.0
7	0x00000000	0.0
8	0x00000000	0.0
9	0x00000000	0.0
10	0x00000000	0.0
11	0x00000000	0.0
12	0x00000000	0.0
13	0x00000000	0.0
14	0x00000000	0.0
15	0x00000000	0.0
16	0x00000000	0.0
17	0x00000000	0.0
18	0x00000000	0.0
19	0x00000000	0.0
20	0x00000000	0.0
21	0x00000000	0.0
22	0x00000000	0.0
23	0x00000000	0.0
24	0x00000000	0.0
25	0x00000000	0.0
26	0x00000000	0.0
27	0x00000000	0.0
28	0x00000000	0.0
29	0x00000000	0.0
30	0x00000000	0.0
31	0x00000000	0.0
32	0x00000000	0.0
33	0x00000000	0.0
34	0x00000000	0.0
35	0x00000000	0.0
36	0x00000000	0.0
37	0x00000000	0.0
38	0x00000000	0.0
39	0x00000000	0.0
40	0x00000000	0.0
41	0x00000000	0.0
42	0x00000000	0.0
43	0x00000000	0.0
44	0x00000000	0.0
45	0x00000000	0.0
46	0x00000000	0.0
47	0x00000000	0.0
48	0x00000000	0.0
49	0x00000000	0.0
50	0x00000000	0.0
51	0x00000000	0.0
52	0x00000000	0.0
53	0x00000000	0.0
54	0x00000000	0.0
55	0x00000000	0.0
56	0x00000000	0.0
57	0x00000000	0.0
58	0x00000000	0.0
59	0x00000000	0.0
60	0x00000000	0.0
61	0x00000000	0.0
62	0x00000000	0.0
63	0x00000000	0.0
64	0x00000000	0.0
65	0x00000000	0.0
66	0x00000000	0.0
67	0x00000000	0.0
68	0x00000000	0.0
69	0x00000000	0.0
70	0x00000000	0.0
71	0x00000000	0.0
72	0x00000000	0.0
73	0x00000000	0.0
74	0x00000000	0.0
75	0x00000000	0.0
76	0x00000000	0.0
77	0x00000000	0.0
78	0x00000000	0.0
79	0x00000000	0.0
80	0x00000000	0.0
81	0x00000000	0.0
82	0x00000000	0.0
83	0x00000000	0.0
84	0x00000000	0.0
85	0x00000000	0.0
86	0x00000000	0.0
87	0x00000000	0.0
88	0x00000000	0.0
89	0x00000000	0.0
90	0x00000000	0.0
91	0x00000000	0.0
92	0x00000000	0.0
93	0x00000000	0.0
94	0x00000000	0.0
95	0x00000000	0.0
96	0x00000000	0.0
97	0x00000000	0.0
98	0x00000000	0.0
99	0x00000000	0.0
100	0x00000000	0.0
101	0x00000000	0.0
102	0x00000000	0.0
103	0x00000000	0.0
104	0x00000000	0.0
105	0x00000000	0.0
106	0x00000000	0.0
107	0x00000000	0.0
108	0x00000000	0.0
109	0x00000000	0.0
110	0x00000000	0.0
111	0x00000000	0.0
112	0x00000000	0.0
113	0x00000000	0.0
114	0x00000000	0.0
115	0x00000000	0.0
116	0x00000000	0.0
117	0x00000000	0.0
118	0x00000000	0.0
119	0x00000000	0.0
120	0x00000000	0.0
121	0x00000000	0.0
122	0x00000000	0.0
123	0x00000000	0.0
124	0x00000000	0.0
125	0x00000000	0.0
126	0x00000000	0.0
127	0x00000000	0.0

encoder_solv.W_i.weight f4 [128, 147]
0	0xbd72cc4e	-0.05927687
1	0xbd0eb3d4	-0.034839466
2	0x3ccfdca4	0.025373764
3	0x3d1eb2b0	0.03874463
4	0x3d2687e4	0.04065694
5	0x3d0acbbe	0.03388571
6	0xbc124df1	-0.0089297155
7	0x3d76c483	0.060246002
8	0xbcbb49dc	-0.022862367
9	0x3c742fa0	0.014903933
10	0xbcb38b50	-0.021917015
11	0xbc06dba8	-0.008231081
12	0xbd880880	-0.06642246
13	0xbd076164	-0.033051863
14	0x3ce06bfd	0.027395243
15	0x3d68f2fb	0.05687235
16	0xbaed9139	-0.0018124945
17	0x3da534e0	0.08066726
18	0xbd1b4f1b	-0.037917238
19	0x3d95bd52	0.073115006
20	0xbd6d347c	-0.05791138
21	0x3da3440a	0.07971962
22	0x3cbe4ae8	0.023229077
23	0xbc8c0fd8	-0.017097399
24	0xbd64d13a	-0.055863596
25	0xbd486c3c	-0.048931345
26	0x3c93fc58	0.018064663
27	0xbd172d04	-0.036908165
28	0x3d8effe4	0.06982401
29	0xbd9fa28f	-0.077946775
30	0x3d70d578	0.05879733
31	0x3d172a7e	0.036905758
32	0xbd1e74f3	-0.03868575
33	0x3c2da318	0.010597967
34	0x3c8b9830	0.017040342
35	0xbb520de0	-0.0032051727
36	0xbd8940ce	-0.06701814
37	0xbd7fa9c8	-0.062417775
38	0xbd75c4ec	-0.060002252
39	0x3cb9c100	0.022675037
40	0x3d8afcdc	0.0678651
41	0xbc88432c	-0.016633593
42	0xbd442767	-0.04788914
43	0x3cdafc68	0.026731685
44	0x3b8365f0	0.0040099546
45	0xbbccbd90	-0.0062481835
46	0xbd9211b4	-0.07132283
47	0xbd93a844	-0.072098285
48	0x3cf35e8c	0.02970817
49	0x3bc0b050	0.005880393
50	0xbc115978	-0.008871429
51	0x3cdb1bb8	0.026746616
52	0x3d0a7165	0.033799548
53	0xbce89dde	-0.02839559
54	0x3b25fe80	0.0025328696
55	0x3d3065cc	0.04306583
56	0x3d8f56da	0.069989875
57	0x3d9b2e82	0.0757723
58	0xbce41472	-0.02784178
59	0xbcde89d6	-0.027165335
60	0xbd2a85a9	-0.041631375
61	0xbcbb5726	-0.022868704
62	0x3a56f480	0.00081998855
63	0x3cff601c	0.031173758
64	0xbcbbcd86	-0.02292515
65	0xbd4f1ca2	-0.050564416
66	0xbcff106c	-0.03113576
67	0xbd1dd906	-0.038537048
68	0xbcd4b964	-0.025967307
69	0xbcd9cbaa	-0.026586372
70	0x3d9e587e	0.07731722
71	0xbce8fc2a	-0.028440554
72	0x3d641e1c	0.055692777
73	0xbd5e0b92	-0.054210253
74	0x3d7d394c	0.06182222
75	0xbd887bf7	-0.066642694
76	0xbd169615	-0.036764223
77	0x3d9ee51c	0.07758543
78	0x3d88ac32	0.06673469
79	0x3d837e02	0.064205185
80	0xbd7683ec	-0.060184404
81	0xbc3a79c0	-0.0113815665
82	0x3c8e8f88	0.017402425
83	0x3bbfe740	0.0058564246
84	0xbd834396	-0.06409375
85	0xbca220d4	-0.019791044
86	0x3a10be80	0.0005521551
87	0xbd3a634a	-0.045504846
88	0xbbc99c80	-0.0061526895
89	0xbcd29884	-0.02570749
90	0x3d8d13fc	0.06888577
91	0xbcbed244	-0.023293622
92	0x3cc8422c	0.024445616
93	0xbc20fde8	-0.009826161
94	0x3c97f188	0.018547788
95	0xbd8a857a	-0.0676374
96	0x3b85d740	0.0040844977
97	0x3d144412	0.03619773
98	0x3c3cbc50	0.011519507
99	0x3ba38b10	0.004990943
100	0xbd030b47	-0.031993177
101	0xbc143bb8	-0.009047441
102	0x3d1bbe36	0.038023196
103	0xbcf62ea2	-0.030051533
104	0xbd1ac79d	-0.037788022
105	0x3dcd32ef	0.100194804
106	0xbd3f2680	-0.046667576
107	0x3c89fed4	0.016845144
108	0xbd9a9a8a	-0.07549007
109	0x3d0f7978	0.03502795
110	0x3d3c6404	0.04599382
111	0x3af8ee00	0.0018991828
112	0x3c094e4b	0.008380483
113	0x3da341a0	0.07971501
114	0x3d56eecd	0.052473832
115	0xbcf08946	-0.029362332
116	0x3c5d38e8	0.013502337
117	0xbc34de58	-0.011039339
118	0xbd80fe7c	-0.06298539
119	0xbd6589f1	-0.056039754
120	0x3d2266ea	0.039648928
121	0xbcb82f47	-0.022483481
122	0xbc83ce86	-0.016089689
123	0x3d69b1d4	0.057054356
124	0xbc9d7f60	-0.019225776
125	0xbd26b072	-0.040695615
126	0x3dd6161b	0.10453435
127	0xbd645950	-0.055749238
128	0xbd661566	-0.05617275
129	0x3d74b610	0.05974394
130	0x3d22900c	0.039688155
131	0x3cda8123	0.026672905
132	0x3dc6dc3b	0.097099744
133	0xbbee8da0	-0.0072800666
134	0xbd7855cc	-0.060628697
135	0x3d99c7b1	0.07508791
136	0xbd0aa024	-0.03384413
137	0xbd220ae6	-0.039561175
138	0xb9332322	-0.00017083858
139	0x3d09d730	0.033652484
140	0x3d894299	0.067021556
141	0x3d140f34	0.03614731
142	0xbd19edf3	-0.03758044
143	0xbda318e7	-0.07963734
144	0x3d76bd60	0.060239196
145	0xbbbc4360	-0.0057453364
146	0xbda38a74	-0.07985392
147	0x3c9b8a88	0.018986955
148	0x3d4c84dc	0.049931392
149	0x3c82c2cc	0.015962027
150	0x3d8d9d40	0.06914759
151	0x3dc744fc	0.097299546
152	0xbcac6138	-0.021042451
153	0x3d622c71	0.055218164
154	0x3da07fe0	0.0783689
155	0xbbe96e45	-0.007123741
156	0xbd845d5d	-0.0646312
157	0xbc5ed3f0	-0.0136003345
158	0x3d3c2d78	0.0459418
159	0x3d0823da	0.033237316
160	0xbd27fb2f	-0.04101103
161	0xbd623e25	-0.055235047
162	0xbd2da2ab	-0.04239146
163	0x3d8fcd7a	0.070216134
164	0xbd54ec68	-0.051983267
165	0x3da0dbfe	0.0785446
166	0x3caef100	0.021355152
167	0x3d28fc96	0.04125651
168	0x3d1c95ae	0.038228683
169	0xbd4fc948	-0.050729066
170	0xbd231248	-0.039812356
171	0xbd74a006	-0.059722923
172	0xbd88dd60	-0.06682849
173	0xbd12d11d	-0.035843957
174	0x3caa22e8	0.020768598
175	0x3d90e9be	0.07075833
176	0xbbf213a0	-0.0073875934
177	0x3d8c9352	0.068640366
178	0xbb046200	-0.0020200014
179	0x3da117ae	0.07865845
180	0x3d6839e0	0.05669582
181	0xbd151a9f	-0.03640234
182	0x3d82c44a	0.063850954
183	0x3d4a276c	0.049354002
184	0x3c74b568	0.014935829
185	0x3d1ac96e	0.037789755
186	0x3c8933b0	0.01674828
187	0x3cc395b0	0.023875087
188	0xbd0c76ad	-0.034292866
189	0xbd82e093	-0.063904904
190	0xbd70b48e	-0.05876594
191	0xbd26f5ef	-0.040761884
192	0x3ce39460	0.027780712
193	0x3cebd318	0.02878718
194	0x3bec9fd0	0.0072211996
195	0x3c23a990	0.009989157
196	0xbc706318	-0.014672063
197	0xbc95b980	-0.01827693
198	0xbd11c52e	-0.035588436
199	0xbd2f2d63	-0.042767894
200	0x3da83ce0	0.08214736
201	0xbd460e26	-0.048353337
202	0x3d857988	0.06517321
203	0x3ca99c10	0.0207043
204	0xbd1a0850	-0.037605584
205	0xbd5cc80e	-0.053901725
206	0xbd95c7fe	-0.07313536
207	0xbd12a38b	-0.035800498
208	0x3cb79c80	0.022413492
209	0xbd3a3f1f	-0.045470353
210	0x3ce67538	0.028132066
211	0x3d2aa0c2	0.041657217
212	0x3d0fae5a	0.035078384
213	0xbd032420	-0.032016873
214	0x3d6db1c4	0.05803086
215	0x3d94ba32	0.072620764
216	0x3c846028	0.016159132
217	0xbce6f14a	-0.028191227
218	0x3c104cc8	0.008807369
219	0x3d8cc41e	0.06873344
220	0x3d096bc0	0.033550024
221	0x3ccb0234	0.024781324
222	0xbc9d013c	-0.019165628
223	0x3d8cdb7a	0.06877799
224	0xbda0bc26	-0.078483865
225	0xbb775340	-0.003773883
226	0xbd9ab168	-0.07553369
227	0xbda74215	-0.08166901
228	0xbd85ec57	-0.06539219
229	0x3c092778	0.0083712265
230	0x3d988c98	0.07448691
231	0xbd226a1c	-0.039651975
232	0x3d1fd010	0.039016783
233	0xbc83f738	-0.016109094
234	0xbcda9598	-0.02668266
235	0xbd8e26c5	-0.069409885
236	0xbca8f0c6	-0.020622622
237	0x3d88a43e	0.06671952
238	0xbb8a8ed0	-0.0042284504
239	0xbd3856d7	-0.045004692
240	0x3d7c1548	0.061543733
241	0xbd9a110d	-0.075227834
242	0x3d8add3e	0.0678048
243	0x3bda5390	0.0066627935
244	0xbda862af	-0.082219474
245	0x3d208e66	0.0391983
246	0xbd13ba30	-0.036066234
247	0xbd816d3b	-0.06319662
248	0xbd0ea933	-0.03482933
249	0xbd2ae945	-0.04172637
250	0x3ca15426	0.019693445
251	0x3cf50115	0.029907743
252	0xbda5c04f	-0.080933206
253	0xbd96765d	-0.07346795
254	0x3d96ba12	0.07359709
255	0xbc2f9378	-0.010716312

encoder_solv.W_i.bias f4 [128]
0	0x3d68a68d	0.05679946
1	0xbd302df8	-0.04301259
2	0xbd829785	-0.06376556
3	0x3cc8ba64	0.02450294
4	0x3cbaaf4f	0.022788672
5	0xbd642458	-0.055698723
6	0x3d852d34	0.065027624
7	0xbd3b2b7a	-0.04569576
8	0xbd7d426d	-0.061830927
9	0x3c9f9ac0	0.01948297
10	0x3d735089	0.059402976
11	0xbd72dc67	-0.059292223
12	0x3d2fe3ff	0.042942043
13	0xbc8acb18	-0.016942546
14	0xbc99c45e	-0.018770393
15	0x3c4c5924	0.012472425
16	0xbb80ed84	-0.003934564
17	0x3d75c586	0.060002826
18	0x3923c65a	0.00015618783
19	0x3d666d4d	0.05625658
20	0xbbabad57	-0.0052391696
21	0xbc1976eb	-0.009366731
22	0x3d293616	0.041311346
23	0x3c80ad2c	0.015707575
24	0xbd0cab3d	-0.034342993
25	0x3d092f10	0.033492148
26	0x3d5044b1	0.05084676
27	0xbd352555	-0.044225056
28	0xbd9c0827	-0.076187424
29	0xbcb5e06d	-0.022201741
30	0x3c25d665	0.010121916
31	0xbd9cc2ba	-0.07654329
32	0xbc414963	-0.011797282
33	0xbd0613c3	-0.03273369
34	0x3d0a422a	0.033754505
35	0x3d4b45ab	0.049626987
36	0x3d96bfd2	0.073608056
37	0xbcf43f53	-0.029815352
38	0xbcae50b2	-0.021278713
39	0xbc05b018	-0.00815966
40	0x3c5e9070	0.013584241
41	0xbd05c965	-0.032662768
42	0xbd62a388	-0.055331737
43	0xbd928914	-0.07155052
44	0xbd0ad37b	-0.03389309
45	0x3cb938e3	0.022610134
46	0x3d3eb279	0.046556924
47	0x3d000d95	0.031262953
48	0x3b58c622	0.003307708
49	0x3d3887dc	0.04505144
50	0x3c40b27b	0.011761303
51	0xbbcb5666	-0.006205368
52	0xbd7d7b4f	-0.061885174
53	0xbad55e2b	-0.0016278675
54	0x3d954d43	0.07290127
55	0x3cf57b1b	0.029965928
56	0xb9fd17bb	-0.000482736
57	0x3c5134ab	0.012768905
58	0x3d671b4a	0.05642251
59	0x3d28c015	0.04119881
60	0xbcbbabe8	-0.02290912
61	0xbcbb3dfb	-0.022856703
62	0x3cecd829	0.028911667
63	0x3d8911b4	0.0669283
64	0xbd1ac7c0	-0.037788153
65	0xbd91a19e	-0.07110904
66	0xbc8b5ad3	-0.017011082
67	0x3d129582	0.035787113
68	0x3d27b6fc	0.040945992
69	0xbd4f77d8	-0.0506514
70	0xbd7c714d	-0.06163149
71	0xbd340d06	-0.043957733
72	0xbd4b7b8e	-0.049678378
73	0x3bd1a00c	0.006397253
74	0xbd369091	-0.044571463
75	0x3d80dbcc	0.06291923
76	0x3d620f0b	0.055190127
77	0xbc68c1ae	-0.014206333
78	0xbcab50e0	-0.020912588
79	0xbd69994c	-0.05703096
80	0xbd91b738	-0.07115024
81	0xb8f575c2	-0.000117044445
82	0xbd0ac348	-0.03387764
83	0x3d718614	0.058965757
84	0xbd34c82c	-0.04413621
85	0xbd63dcad	-0.055630375
86	0xbd8a0fe8	-0.06741315
87	0xbd7aeba7	-0.06125989
88	0x3c078c42	0.008273186
89	0xbd9dedcd	-0.077113725
90	0x3d113a1b	0.035455804
91	0x3d73b0ea	0.05949489
92	0xbd4af663	-0.04955138
93	0x3cfeed0b	0.03111889
94	0x3d63df8d	0.055633117
95	0x3c615f62	0.013755651
96	0xbd955f92	-0.07293619
97	0x3cfe2019	0.031021165
98	0x3b9aebcc	0.004727816
99	0x3cb0fe80	0.02160573
100	0xbd48b6b6	-0.04900237
101	0xbd557138	-0.052109927
102	0xbc1af885	-0.009458666
103	0x3d1233b5	0.035693843
104	0x3c1c12fb	0.00952601
105	0xbc34c7b8	-0.011033945
106	0x3d9fc766	0.07801704
107	0x3c37ffa3	0.011230382
108	0x3ce6d201	0.02817631
109	0x3cf52e56	0.029929321
110	0x3d9e25ef	0.07722079
111	0x3d1dfb60	0.038569808
112	0xbc93b3bf	-0.018030046
113	0x3b470b34	0.0030371668
114	0x3d627696	0.055288874
115	0xbd789cac	-0.06069629
116	0xbbb111a5	-0.0054037147
117	0x3d113e2a	0.035459675
118	0x3c5b7ca7	0.013396419
119	0xbcb88aba	-0.022527087
120	0x3c051639	0.008122974
121	0x3cfab426	0.03060348
122	0x3d6e75fb	0.058217984
123	0xbd8d6cc5	-0.06905512
124	0xbc551431	-0.013005302
125	0x3ce5f103	0.028069025
126	0x3d75fc02	0.060054787
127	0xbd0b210f	-0.033967074
