THESIS/transfer_learning/trained/DMPNN_with_attention_QM9_gap.pt (torch, 347576 bytes, 14 tensors)

encoder.cached_zero_vector f4 [128]
00000000: 0000 0000 0000 0000 0000 0000 0000 0000
00000010: 0000 0000 0000 0000 0000 0000 0000 0000
00000020: 0000 0000 0000 0000 0000 0000 0000 0000
00000030: 0000 0000 0000 0000 0000 0000 0000 0000
00000040: 0000 0000 0000 0000 0000 0000 0000 0000
00000050: 0000 0000 0000 0000 0000 0000 0000 0000
00000060: 0000 0000 0000 0000 0000 0000 0000 0000
00000070: 0000 0000 0000 0000 0000 0000 0000 0000
00000080: 0000 0000 0000 0000 0000 0000 0000 0000
00000090: 0000 0000 0000 0000 0000 0000 0000 0000
000000a0: 0000 0000 0000 0000 0000 0000 0000 0000
000000b0: 0000 0000 0000 0000 0000 0000 0000 0000
000000c0: 0000 0000 0000 0000 0000 0000 0000 0000
000000d0: 0000 0000 0000 0000 0000 0000 0000 0000
000000e0: 0000 0000 0000 0000 0000 0000 0000 0000
000000f0: 0000 0000 0000 0000 0000 0000 0000 0000
00000100: 0000 0000 0000 0000 0000 0000 0000 0000
00000110: 0000 0000 0000 0000 0000 0000 0000 0000
00000120: 0000 0000 0000 0000 0000 0000 0000 0000
00000130: 0000 0000 0000 0000 0000 0000 0000 0000
00000140: 0000 0000 0000 0000 0000 0000 0000 0000
00000150: 0000 0000 0000 0000 0000 0000 0000 0000
00000160: 0000 0000 0000 0000 0000 0000 0000 0000
00000170: 0000 0000 0000 0000 0000 0000 0000 0000
00000180: 0000 0000 0000 0000 0000 0000 0000 0000
00000190: 0000 0000 0000 0000 0000 0000 0000 0000
000001a0: 0000 0000 0000 0000 0000 0000 0000 0000
000001b0: 0000 0000 0000 0000 0000 0000 0000 0000
000001c0: 0000 0000 0000 0000 0000 0000 0000 0000
000001d0: 0000 0000 0000 0000 0000 0000 0000 0000
000001e0: 0000 0000 0000 0000 0000 0000 0000 0000
000001f0: 0000 0000 0000 0000 0000 0000 0000 0000
0.0 0.0 0.0 0.0 0.0 0.0 0.0 0.0
0.0 0.0 0.0 0.0 0.0 0.0 0.0 0.0
0.0 0.0 0.0 0.0 0.0 0.0 0.0 0.0
0.0 0.0 0.0 0.0 0.0 0.0 0.0 0.0
0.0 0.0 0.0 0.0 0.0 0.0 0.0 0.0
0.0 0.0 0.0 0.0 0.0 0.0 0.0 0.0
0.0 0.0 0.0 0.0 0.0 0.0 0.0 0.0
0.0 0.0 0.0 0.0 0.0 0.0 0.0 0.0
0.0 0.0 0.0 0.0 0.0 0.0 0.0 0.0
0.0 0.0 0.0 0.0 0.0 0.0 0.0 0.0
0.0 0.0 0.0 0.0 0.0 0.0 0.0 0.0
0.0 0.0 0.0 0.0 0.0 0.0 0.0 0.0
0.0 0.0 0.0 0.0 0.0 0.0 0.0 0.0
0.0 0.0 0.0 0.0 0.0 0.0 0.0 0.0
0.0 0.0 0.0 0.0 0.0 0.0 0.0 0.0
0.0 0.0 0.0 0.0 0.0 0.0 0.0 0.0

encoder.W_i.weight f4 [128, 147]
00000000: 96d3 89bd e2fa 273d e485 50bd 9182 f13c
00000010: 825e ffbc 8b61 29bd 04bf 693e a9e4 8c3e
00000020: 5344 0dbd 51c9 953d 91d0 8b3d 5b0f 4cbc
00000030: 5425 243d 4431 d0bc e0a3 f03c 18b5 a03d
00000040: 0aa3 453d 372d 463d 95c4 8e3c 7d45 883d
00000050: 12cb ff3a 186f 9b3d a4f7 d13b ece0 1abd
00000060: a718 233a 5a3b 70bc 4f72 f83c e110 e13c
00000070: a057 9a3b 744b 0b3d 5a9a 113d c23f f7bc
00000080: 690c a5bc 55ee 1c3d f5a7 963d 0f92 f03c
00000090: 4096 803d 747c a3bb d3ae 67bd 002f 85bd
000000a0: e056 9fbd c991 a5bd 2568 0bbd c282 15bd
000000b0: 7992 4ebd 696d 42bd b852 14bd fd3d 5fbd
000000c0: 9b1f f23c b2c8 a13c ccd2 e8bc 620d 253d
000000d0: 56f6 103d 234c 0cbd 6d40 703c 158b f4bc
000000e0: 8d51 94bd 71d6 9ebd 8d29 0dbd 65c0 5eba
000000f0: 022c 98bc d353 40bd e990 1a3c ea64 85bd
00000100: ddd3 76bd 9643 4c3d 036b 0ebb 20c9 d73c
00000110: 5395 883b b55a 03bd af87 1bbd 0d14 3e3d
00000120: 9027 9d3c ee06 b63b d511 21bd c8c5 06bd
00000130: bb12 313d 4716 cdbc bb9c 9fbb cbc8 66bc
00000140: c1e8 cebc f199 e9bb 7d46 3e3d f3a2 263d
00000150: 0b8d 81bd 0857 993d 6925 83bd 43e7 00bd
00000160: ceb4 26bd 2b56 063d f0ae c8bc 0805 85bd
00000170: eb6a 9c3d b693 583d e529 a1bd dc85 3abd
00000180: 2784 223c 57be 7a3c d4e8 a7bd 13bd 20bd
00000190: 9f45 a53d 871b 28bd 495c 93be 8bcc f83d
000001a0: cbd9 ad3d 211c 5c3e bff4 a03d c9dd 0dbd
000001b0: 2283 e53d 2b48 cb3c f773 7f3e 7a58 97bd
000001c0: 705d c6bc d94a 4e3c 9005 e5bb d0fd 173d
000001d0: ebf4 3b3d f2e3 82bd 5e31 403d 1b4c a4be
000001e0: fcdb 933e d235 e93e 3030 0fbf a089 873d
000001f0: c6f1 7c3d b6fc 87be 14ad 7b3d 83fd a43d
00000200: 0f5d 9dbd 4555 4a3c a817 9fbd b746 99be
00000210: 92e5 0a3c e3cf 883d e207 273e 536b 17bf
00000220: 6b05 5bbe f3c2 a8bf c1a1 b2be 4f01 a2bf
00000230: 1607 a53d a400 cebc b966 933d 276f afbc
00000240: 8fb9 a3bd 96b6 ce3c ad06 723c 2206 1bbd
00000250: caff 613d 3351 ab3c 5984 903d 9cd8 70bd
00000260: 0e37 85bd 1c84 c7bb 3968 34bd fc23 0d3e
00000270: 42db 4a3c 5cac fabc 110b 803d 7dbe 8fbd
00000280: a7e9 8abd 604e a8bc a92e 9e3d 6ce8 883c
00000290: ba3d debc a796 5fbd b007 9c3d 0da4 8dbd
000002a0: 520f 8e3d b888 b5bc ac8b a73d bb0e 86bc
000002b0: 7314 1abc c7f7 77bd 62e6 86bd b1bf a63c
000002c0: e8fb 34bc c229 813c 710e 0c3b 0d8c a7bd
000002d0: 2559 37bd c33e 913d af9e 9dbd 52e2 a53d
000002e0: d93a a0bd 80a4 69bd 27fc 023d 120b b1bc
000002f0: 68cc 80bd a3e2 24bd bea4 913d 94d9 47bd
00000300: a2ca b0bc da73 573d b9f4 873d f5de f5bc
00000310: 3d0f 06bd c275 8f3d 6eb0 79bb 340c ecbb
00000320: 9ec9 633d 1cc5 a63d 7897 753c ae74 553c
00000330: e1a1 46bb dd83 97bd b26a 003c f40a 653d
00000340: 2d80 dfbc 8256 9fbd b66b 2dbd 8ec4 0cbd
00000350: ec54 83bd 1de4 973d 910f 0c3d 87a7 36bd
00000360: e957 513d 0680 fb3c e707 62bd 8c68 2d3d
00000370: 2edc 92bd b038 49bd 9507 91bd 48a2 56bd
00000380: 1883 1abd 83ea 7e3d fba4 fabb 0f51 683c
00000390: 17ed 0bbd d6e2 8c3d da36 a63d 87fd 8e3d
000003a0: 7144 843c bdcd 89bd 18f3 3ebb 9d42 6a3d
000003b0: 1fe0 143d 440e 5a3c c8be 6dbc 55fa 8c3b
000003c0: dc14 9dbd 90d1 dfba f391 b9bb 631d b03c
000003d0: 4ff1 e93c ccd4 3fbc 8e26 a0bd 03d9 dbbc
000003e0: 82c1 2f3d 8d42 0d3e 655c 01be 1216 48be
000003f0: 048e 263e 24a2 8f3c d6cd 10bd 5eef d8be
-0.0672981 0.041010745 -0.050908938 0.029481204 -0.031172995 -0.04135279 0.22826773 0.27518204
-0.034488987 0.07313789 0.0682689 -0.012454833 0.04007466 -0.025414117 0.029375017 0.07847041
0.04825119 0.048382964 0.017427722 0.06653879 0.0019515476 0.07589549 0.006407695 -0.03781216
0.000622163 -0.014662588 0.030327944 0.027473869 0.0047101527 0.034007505 0.03554759 -0.03018177
-0.02014752 0.03831323 0.07356254 0.029366521 0.06278658 -0.004989201 -0.05656321 -0.06503105
-0.07780242 -0.08084447 -0.034034867 -0.036501653 -0.050432656 -0.047467623 -0.0362117 -0.054502476
0.029556086 0.01974902 -0.028420828 0.040295966 0.035391174 -0.034252297 0.014663798 -0.029851476
-0.07242117 -0.07755745 -0.034463454 -0.0008497297 -0.018575672 -0.04695494 0.009433963 -0.065133885
-0.060260642 0.049869142 -0.0021731264 0.026341021 0.0041681915 -0.032068927 -0.037971195 0.04640584
0.019183904 0.0055550253 -0.039323647 -0.032903463 0.043230753 -0.025035037 -0.0048709786 -0.014085959
-0.02525747 -0.007128947 0.04645394 0.040682744 -0.0632573 0.07487303 -0.0640362 -0.03147055
-0.040699773 0.03279702 -0.02449748 -0.064951 0.076375805 0.052875243 -0.07869319 -0.045537814
0.009919203 0.01530417 -0.08198705 -0.039242815 0.0806992 -0.041041877 -0.28781345 0.121483885
0.08488806 0.21495105 0.078591816 -0.03463534 0.11206652 0.024814686 0.24946581 -0.073899224
-0.024214476 0.012591087 -0.0069891885 0.03710729 0.04588787 -0.06391133 0.04692208 -0.32089314
0.28878772 0.45548874 -0.55932903 0.06618047 0.06175401 -0.2655999 0.061444357 0.08056166
-0.07683765 0.012349431 -0.07768184 -0.29936764 0.008477585 0.06680276 0.16311601 -0.5914814
-0.21388786 -1.3184494 -0.34889033 -1.2656649 0.08057992 -0.02514679 0.07197327 -0.021415306
-0.07994377 0.025233548 0.014772099 -0.037847646 0.05517558 0.020912742 0.07056493 -0.058800325
-0.065046415 -0.0060887467 -0.044044707 0.13783258 0.012381377 -0.030599765 0.06252111 -0.07018755
-0.06782847 -0.020545185 0.077237435 0.01671239 -0.027129043 -0.054587033 0.07618654 -0.06916056
0.06936516 -0.02215992 0.08180937 -0.016364446 -0.00940429 -0.060539033 -0.06586911 0.020355077
-0.011046387 0.015766982 0.0021370912 -0.081810094 -0.04476275 0.07092049 -0.07696282 0.08099808
-0.07823724 -0.057041645 0.031978752 -0.021611724 -0.062889874 -0.0402552 0.071115 -0.048791483
-0.021580998 0.05260072 0.06638474 -0.03001354 -0.032729376 0.070048824 -0.0038099545 -0.007203603
0.0556122 0.081430644 0.014989726 0.013028307 -0.003030889 -0.07398198 0.007837938 0.05591865
-0.027282799 -0.07780172 -0.04233905 -0.034367137 -0.06412682 0.07416556 0.034194533 -0.04459336
0.05110923 0.030700695 -0.055183318 0.04233603 -0.07170902 -0.049126327 -0.07081524 -0.052400857
-0.037722677 0.062235367 -0.0076490617 0.014179482 -0.034161653 0.06879203 0.08115931 0.0698195
0.016145917 -0.067286946 -0.0029136594 0.057192434 0.03634655 0.013309065 -0.014510818 0.004302303
-0.07669994 -0.0017076004 -0.0056631505 0.021498388 0.028557448 -0.01170845 -0.07819854 -0.026836878
0.042909153 0.13794918 -0.12632902 -0.19539669 0.16265112 0.01753337 -0.03535255 -0.42370123

encoder.W_i.bias f4 [128]
00000000: 5ad5 11bd b635 e0bd c7ad 8ebd 4b56 54bd
00000010: f263 bbbd 1cdc b1bd 0abf 27be d2f0 a1bd
00000020: 44f1 05be 26ea 21bd 6005 0cbe b815 96bd
00000030: b7b2 4ebd cf79 88bd 93f5 bfbd 5314 a4bd
00000040: 2aa7 7cbd f49c f3bd ef17 28be f4da 28be
00000050: 0b2a 6fbd e3c2 03bd 3e92 5bbe d081 fdbd
00000060: fef9 02be 1325 49be 220a 37bd ea9d b6bd
00000070: 50b6 3fbc cec6 1e3d 2c4b 10be 5062 9ebd
00000080: 308a e0bd 42ee 4fbd db71 803d cf42 dabd
00000090: b4c3 15be 5abe 77be 00e9 cdbd e8a9 38be
000000a0: 29e4 e7bd 2dfe 1cbd 48a7 08be 94e3 05be
000000b0: ce13 a2bd 4208 1abe 31f0 98bd 77a1 d0bd
000000c0: bf81 82bd 045e 62bd 268e a3bd a995 19bd
000000d0: b24c 0ebe 954c 4dbd 421d 0cbe 2d58 03bd
000000e0: 14a0 1ebe 7a61 a2bc bd50 89bd 4eba e6bd
000000f0: aa8a 85bd 71b4 07be baf7 31bd c135 cdbd
00000100: 6beb 04bd ffa5 35be a587 12be 1b43 c4bd
00000110: cae8 9ebd 2192 62bd 6140 a4bc 90aa 90bd
00000120: 3204 4d3d 2392 c6bd 15a5 73bc ceb8 1ebd
00000130: 42f4 a1bd 9173 dcbd 652a adbd ced5 cabd
00000140: 79d4 9ebd 6a5c bebd 1ab6 8dbd f172 5ebe
00000150: ae1b c4bd 4ce9 c9bd e61e 08be d4b2 1ebe
00000160: c182 3dbe e724 5b3d 1701 d6bd 8ca2 e9bd
00000170: 000f 13be 0227 2cbd 085d 1bbd 9af0 86bd
00000180: 3184 9ebd f0ca e9bd b65f 49be e502 20be
00000190: 242e 34be f1d3 5cbe c95a 11be 067c a7bd
000001a0: dc1b 2fbe cfbb 4dbe b215 9abd 2df5 d6bd
000001b0: 4c81 2fbe 63d0 87bd 4291 36bd 1c19 8ebd
000001c0: 6c4a 25be ab71 93bd a454 c8bd fca5 b4bd
000001d0: f671 fdbd 7553 13be 8a1b 07be 83eb aebd
000001e0: a90c 24bd c449 09bd 547c 19be 76f5 33be
000001f0: b382 e3bd 94bc 0dbe 8a40 29be 9443 70bd
-0.03560386 -0.109477445 -0.06966739 -0.051840108 -0.091499224 -0.08684561 -0.1638147 -0.07907261
-0.13080317 -0.039529942 -0.13673925 -0.07328361 -0.050463405 -0.06663858 -0.093730114 -0.08011689
-0.061682858 -0.11895171 -0.1641538 -0.16489774 -0.058389705 -0.03216828 -0.21442506 -0.123782754
-0.12790677 -0.19643049 -0.044687398 -0.089168385 -0.0117011815 0.038763814 -0.14091176 -0.07733595
-0.10963857 -0.05076433 0.06271716 -0.10657274 -0.14625436 -0.24193707 -0.10054207 -0.18033564
-0.11322815 -0.03832834 -0.13345063 -0.13075095 -0.07913934 -0.15042213 -0.07467688 -0.10187047
-0.06372403 -0.05526544 -0.07986097 -0.037496243 -0.13896444 -0.050121862 -0.13683036 -0.032066513
-0.15490752 -0.019821871 -0.06704853 -0.112660035 -0.06520589 -0.13252427 -0.04344914 -0.10020018
-0.032451075 -0.17739104 -0.14309557 -0.09583112 -0.07759245 -0.05531514 -0.02005023 -0.07063782
0.05005283 -0.09695842 -0.014870902 -0.038750462 -0.079079166 -0.1076423 -0.08455352 -0.09904061
-0.0775537 -0.0929497 -0.06919499 -0.21723534 -0.09575592 -0.09858951 -0.13293037 -0.15497905
-0.1850691 0.05350199 -0.104494266 -0.114079565 -0.14361191 -0.04202939 -0.03793052 -0.0658886
-0.07740057 -0.114156604 -0.19665417 -0.15626104 -0.17595726 -0.21565224 -0.14194788 -0.081779525
-0.17100471 -0.20091175 -0.07523669 -0.10495982 -0.17139167 -0.066315435 -0.044572122 -0.06938383
-0.16141671 -0.07199415 -0.09781769 -0.088207215 -0.12375252 -0.14387305 -0.13194099 -0.08541014
-0.040051136 -0.033517614 -0.14988834 -0.17574105 -0.11108913 -0.13841468 -0.16528526 -0.058658198

encoder.W_h.weight f4 [128, 128]
00000000: f7b6 adbd d974 c83c cf88 0bbd d0cb a1bd
00000010: 5ad1 bc3e f97a a73e 541b d4be 20b9 593d
00000020: 8b6a ffbd 24d5 ba3d dbeb 4fbe fcd3 fcbc
00000030: 41b2 cb3c 3c71 ad3d bda8 bc3d c172 033e
00000040: 7db8 f8bd 59a5 b6be 4f7c d13d fcf7 00bf
00000050: 91fc 3ebe 44d3 2d3e 46c8 32bf 60e6 8a3e
00000060: 9c2b 85bd f662 3dbf 3749 0abe c1fc 713d
00000070: 8095 0cbd c5e9 083e 9930 1b3e fd74 4fbc
00000080: 9035 e1bd b021 3abe 582c 31be c054 dc3d
00000090: ee91 513e 9e79 ca3d fa43 8bbd a2f5 8f3d
000000a0: 6afc 01be 900b 8dbd 16a0 243e 8bad f63d
000000b0: 4039 cf3d 32df b5bd 3014 163f c7f0 00bf
000000c0: 05d9 623c 4680 bc3c 3458 be3e 80e5 4fbf
000000d0: f3cf c03c 02fc e0bc 4de1 15be c56b b73d
000000e0: eab6 b0bd b5fe 343d 7565 b4be 0211 3c3e
000000f0: ea50 01bd 2d5e dcbe ea61 e83d 5856 efbb
00000100: 78fe 5b3e 1354 e63d 4f0b 78bc 5969 873d
00000110: 9934 c5bd 5e00 0abe ab6e c53e 0583 2ebe
00000120: 9ab6 99bd 04f1 92bd e07f 17be 36c5 ad3e
00000130: 4cdf 813d e2f3 693e b5ad 63bd b623 8e3c
00000140: dc92 343e cb00 183e eaf3 edbe 2531 78be
00000150: 3802 c4bd 25e2 15be f1b5 d1be 17ce 66be
00000160: 35ca 2cbe 3178 9ebd d284 45bf f1de 01be
00000170: 86d4 81be 93b9 febc e897 583e 7a45 0bbf
00000180: 3de1 b53e ea9c 99be 40b1 56bd 2f62 82bd
00000190: 23f3 1bbe f336 af3c 1be9 4c3d bd4c 95be
000001a0: 61ed de3d 8f78 80bd 2ff9 0c3d b4da 0ebe
000001b0: 8a3f df3d f2e3 163e e398 b53e de51 17be
000001c0: e619 8c3e 8433 50be ae25 21be 24da 273d
000001d0: 904b 693d 034c 81be 145e afbd 0084 7bbc
000001e0: c35f 1ebe 7df3 6c3e 3416 75be 2f25 273c
000001f0: 99ca 723e 6f25 333e 0210 393d 4cac 673d
00000200: 1265 f53d 9a5a 9bbe 2bf3 acbe f5bf 35bd
00000210: 5192 bcbe e978 c4bd 822f 683e f6ea a83d
00000220: 125a 733c fc0d 823e d30e 4e3e 51f4 a2bd
00000230: a8f3 ae3d 83e8 66bf 99a3 f13c 5f22 813e
00000240: 07e5 8a3d 0493 723d 70d0 5f3d a10e f53d
00000250: 7361 febe 9824 79be f990 103c c23d 0f3e
00000260: 2100 9c3d b724 44bf 3462 abbd e47a 9fbe
00000270: c399 623e 415d 28be 4eb6 2b3e 7f9f a73c
00000280: aa85 613c b12b 44be 02a4 00bf 4917 fabb
00000290: 2824 0f3d 6a89 afbd bf17 92be 6148 23bf
000002a0: f236 dd3d b281 acbe 00d1 68be f8d6 f7bd
000002b0: f008 873d 69a7 933c 5c27 86be da0a b73d
000002c0: 9cd0 1d3d 0987 443e e9b0 90be 3a67 95bd
000002d0: 59cf 03be 9e1b 8dbe 9707 f3bd ae15 b3be
000002e0: 5910 bebe 020f 02be e227 debe 9a7d 5d3d
000002f0: ddaa 643d 254f 50be fe12 a4be f0bf 8fbd
00000300: 0484 103f e1b1 a23d 2c99 1bbc be14 29bd
00000310: b94d a4bd 1124 57bf 2cc0 acbd 61a0 8ebe
00000320: 4172 adbe 90eb 4bbe 2f5e 9ebe 3eeb 08bd
00000330: c06c 963c 269f e43c cbc1 ef3d d051 0c3e
00000340: be9b c33c 95dc 3bbc 80ff 4e3e 4c1d 93bd
00000350: 4df2 9b3d 9b04 38bd ee3c 073e 8123 bf3d
00000360: 178f 2abe aa25 09bf 87f5 46be 08fc 703e
00000370: 0d47 e73d acf5 34be 69ca f9be 5b09 0c3d
00000380: b826 f4bc efbc 91be a124 2abf 37f1 93bd
00000390: 65a7 843d 33e5 3dbc 4ab1 a43d c9ac 26be
000003a0: 47f0 fdbd dc11 ff3d ccf5 4d3e d3b4 553e
000003b0: b785 f9be 099c 50be 8c97 c73c 878e 303e
000003c0: 26cd 243e 936e 3ebf 0cba 8abc 6bfa 44be
000003d0: 6b8f f83d 01b9 af3b 3c32 d1be 02db ba3e
000003e0: f6f1 5ebe d404 84be d8c6 83be 29f6 08bf
000003f0: 0d11 f5bd 6d00 a8bd 1f97 aabd 454d 85be
-0.084821634 0.02446978 -0.034066018 -0.07900202 0.36878473 0.32711008 -0.414271 0.053155065
-0.12471493 0.091226846 -0.20304815 -0.0308628 0.024865272 0.08468863 0.09211872 0.12836744
-0.12144563 -0.35673025 0.10228788 -0.50378394 -0.18651034 0.16975123 -0.69836843 0.27128887
-0.065024585 -0.7397913 -0.13504492 0.059078936 -0.03432226 0.13370426 0.15155257 -0.0126621695
-0.10996544 -0.18176913 -0.17302072 0.10758352 0.20465824 0.09886478 -0.06800075 0.070292726
-0.12693945 -0.06886971 0.16076693 0.120448194 0.101183414 -0.08880462 0.58624554 -0.503674
0.013845687 0.023010384 0.3717667 -0.81209564 0.023536658 -0.027463917 -0.14636727 0.08956102
-0.08628638 0.04418822 -0.35233656 0.18365863 -0.031571306 -0.430406 0.113468006 -0.007303994
0.21483791 0.11246505 -0.015139415 0.0661189 -0.09629173 -0.13476703 0.38560995 -0.17042167
-0.075055316 -0.07174876 -0.14794874 0.33939523 0.063414186 0.2284694 -0.05558558 0.017351013
0.17634147 0.14844052 -0.46475154 -0.24237497 -0.09570736 -0.14637049 -0.40959123 -0.22539555
-0.16874011 -0.077377684 -0.7715579 -0.12682702 -0.25357455 -0.031094348 0.21151698 -0.5440289
0.35523406 -0.30002528 -0.052415133 -0.06366383 -0.15229468 0.021388507 0.050026994 -0.2916011
0.1088512 -0.06272995 0.034417327 -0.13950616 0.10900791 0.14735392 0.35468206 -0.14777324
0.2736351 -0.20332152 -0.1573703 0.04097952 0.056956828 -0.25253305 -0.08562866 -0.0153512955
-0.15466218 0.23139758 -0.23934251 0.010201736 0.23710097 0.17494749 0.045181282 0.0565608
0.11982168 -0.3034256 -0.33779272 -0.044372518 -0.3683038 -0.09593374 0.22674373 0.0824794
0.014853017 0.25401294 0.20122842 -0.07956756 0.085425675 -0.90198535 0.029496955 0.25221536
0.06781965 0.059222236 0.05464214 0.11965681 -0.49683723 -0.24330366 0.008823627 0.13988402
0.07617212 -0.7661852 -0.0836834 -0.31148446 0.22128968 -0.16441824 0.16768762 0.020461796
0.013764778 -0.19157292 -0.50250256 -0.0076321703 0.03494659 -0.085711315 -0.28533742 -0.63782316
0.108014956 -0.336927 -0.22735977 -0.12101549 0.065935016 0.018024163 -0.26201904 0.08937617
0.038529024 0.19192137 -0.28259972 -0.072950795 -0.12872066 -0.27560133 -0.11866682 -0.34977478
-0.37121847 -0.12701038 -0.43389803 0.05407486 0.05582701 -0.20342691 -0.3204574 -0.07019031
0.5645144 0.07944084 -0.009496968 -0.041279547 -0.08022637 -0.8403941 -0.084350914 -0.27856734
-0.3387623 -0.19914079 -0.3093123 -0.03342747 0.018362403 0.02790792 0.11706885 0.13703084
0.023877975 -0.011466165 0.20214653 -0.07183322 0.076145746 -0.044926267 0.13206837 0.09332944
-0.16656147 -0.53573096 -0.19429599 0.23533642 0.11292849 -0.17671841 -0.4878724 0.03418861
-0.029803619 -0.28464457 -0.6646214 -0.072237425 0.064772405 -0.01159029 0.08041628 -0.1627685
-0.12399345 0.12454578 0.20113295 0.2086976 -0.4873483 -0.20372023 0.024364255 0.1724187
0.16093883 -0.7438747 -0.016934417 -0.19236152 0.1213673 0.0053626304 -0.40858638 0.36495215
-0.21771988 -0.25784934 -0.25737643 -0.5350061 -0.11966143 -0.08203206 -0.08329605 -0.26035514

encoder.W_h.bias f4 [128]
00000000: f7a6 3abd e55b 793d 6a9b 3fbe bc38 3abc
00000010: 9332 0cbe a8a4 3dbe 79ad 07bc 0a65 f23c
00000020: 1535 9abd 855c 66be dc5d 423d 5601 05bd
00000030: d567 bcbe b039 04be 84c0 143c a645 c2bb
00000040: 52f0 96be a417 45bd bf8d fa3d 3561 003e
00000050: b00c d3bd b962 61be 6b85 103e e582 b8bc
00000060: 32d2 613d a1a6 ec3d facf f6bd ca19 abbe
00000070: 85fa 34be 3c10 8cbd ab09 5e3d 8da7 f0ba
00000080: f50b 713d 6233 743c 4eb6 cebd 20a8 c6be
00000090: fd4c 503c 60fb 5d3e 2134 c8bc f49f 133d
000000a0: 26da 4cbe f0fd babc 3205 9a3b 6b2e a93c
000000b0: 8539 52bd e131 9fbc b25c 82bc dd22 5a3c
000000c0: 0705 aebd 188f 6abe 8688 1ebd 6cdf 8fbd
000000d0: d11f 513d 1c0e 4ebe 7a8b a03d 7697 b1bc
000000e0: 65f0 0abd e018 e9be 456c ca3c ca88 88bd
000000f0: c84f 983c cfb9 88bd 65cb c8bd 901e dbbc
00000100: f7cc bbbe 96a4 213d c68b e93d a29d aabd
00000110: b356 05be ced6 a7be a397 49be 23e6 22bd
00000120: fcde 87bd a2c3 aa3d 4ed0 32bd 062f 85bd
00000130: bcef 11bc f775 0bbd 249b b7bc ec94 113d
00000140: b6e3 59be 346f 9d3b 4571 1c3d f620 1b3e
00000150: 882a 643d 3fbd 23bd 7769 9d3d 1333 fa3d
00000160: 52f5 1fbe 6857 cdbd 5c74 9fbb b3d8 813d
00000170: 35e7 43bc 52a9 e2bc 66bc 14be d96f 1b3d
00000180: 23ad 693d 06f9 0f3d a3fd 1e3d cb0e 21bd
00000190: f47c 743d 6f1c 1f3e bbdb 5bbd 4896 5dbd
000001a0: 06fa 713d 7e81 253e 3d08 f7bd 056c f53c
000001b0: 0a4c 553d 46c7 8cbe 7312 81bd 7920 ff3c
000001c0: d63a 0b3d 3999 2abd 10a7 fd3c c00b 4abe
000001d0: 6a0d 6c3d 18d3 3ebe 95e7 363d a691 b8bd
000001e0: f2bc 00be c844 62bd 2df6 b9bc 9c88 1fbe
000001f0: 236e bb3b 9612 d93d 5b85 a73c 2bc3 07be
-0.045569386 0.060878653 -0.1871163 -0.011366066 -0.13691168 -0.18519843 -0.008281105 0.029589195
-0.07529656 -0.22496231 0.047452793 -0.032471977 -0.36797968 -0.12912631 0.009079102 -0.005928713
-0.29480225 -0.04811825 0.12234067 0.12537082 -0.10305154 -0.22010316 0.14113395 -0.022523353
0.0551321 0.115552194 -0.12051387 -0.33418113 -0.1767369 -0.06839034 0.05420844 -0.0018360481
0.058849294 0.014904829 -0.100933656 -0.38800144 0.012713668 0.21677923 -0.02443892 0.036041215
-0.20005092 -0.022826165 0.0047003264 0.020652017 -0.051324386 -0.019432964 -0.015913341 0.013313976
-0.08497053 -0.22906148 -0.038704418 -0.07025036 0.051055733 -0.2012257 0.07839103 -0.021678668
-0.033920664 -0.4552679 0.02470983 -0.066667154 0.01859273 -0.06676065 -0.098044194 -0.026747972
-0.36679813 0.039463602 0.11403613 -0.08330847 -0.13021354 -0.3278107 -0.19686751 -0.039770257
-0.06634328 0.08338095 -0.043655686 -0.0650311 -0.008907255 -0.034048047 -0.022412844 0.035542414
-0.21278271 0.004804516 0.03819396 0.15149292 0.055704623 -0.0399754 0.076861314 0.12216773
-0.15620926 -0.10026437 -0.004866166 0.0634016 -0.0119569795 -0.027668629 -0.14524993 0.037948463
0.05704988 0.035149597 0.038816106 -0.03932075 0.059689477 0.1553819 -0.05367635 -0.054098397
0.05907633 0.16162679 -0.12062118 0.029958734 0.05207447 -0.27495784 -0.06302347 0.031143414
0.033991657 -0.04165003 0.03096345 -0.19731045 0.05762998 -0.18635213 0.044654448 -0.09012155
-0.12572077 -0.055241376 -0.022700394 -0.15579456 0.0057199164 0.10599248 0.020449331 -0.13258044

encoder.W_o.weight f4 [128, 261]
00000000: c8f8 e73c 248e 7a3d c473 6f3d abe8 503d
00000010: b235 053d c18c e0bd 9bd1 21bf 3610 143e
00000020: 39f7 a9bf 49fb 213d 8a1f 543c 792d 643c
00000030: f579 63bd d756 51bd dd27 ba3c 8848 d43c
00000040: c8ec 1abd 2205 68bc c3af a3b9 3106 9abc
00000050: 8160 e93c 58d6 15bc 98c1 12bd 4787 ad39
00000060: 9027 cd3c f2f2 cdbc ea2e 00bd ef58 6abd
00000070: fcf3 2e3b 37b8 9e3c 3378 433d 2393 2cbd
00000080: 7baa d6bc 2a77 dfbc b8f8 163d 2254 b23c
00000090: 45a3 4dbc ac4c 333b e9a3 c23c 7959 b6bc
000000a0: 2ee4 dcbc cd07 963b 41ca 7cbd 90d2 62bc
000000b0: 02a3 b23c 8776 c13c bc8f d33c 2c90 563d
000000c0: 7e27 593c 22da 0f3d 5e88 6e3d 6213 dfbb
000000d0: dfb1 67bd f486 4c3d d8a1 6ebd 2ff4 c0bc
000000e0: 928a 9cbc 55c6 a6bb 6821 4dbd 5180 f8bb
000000f0: 9e4a eb3b 4ed2 4a3d 92ad 4e3d 56b5 dc3c
00000100: 7bec 3bbd 4e69 eb3c 3a05 693d 1020 2f3d
00000110: d0af 3fbd 3d91 3c3c c165 353d ed36 1dbd
00000120: 16f1 6b3d 2772 1abd dfcd 42bd 88d6 9ebc
00000130: 28f3 51bd 870c a6bc 3094 b5bb ffbc 2ebd
00000140: 8aa8 533d c3d2 853c 76fd 4bbc dedd 6d3c
00000150: 7175 77bc 2b1d d53b 9bf6 333d 8483 fd3c
00000160: 3ea3 143d 9477 8c3c 2bb2 183d 151e 923c
00000170: 4070 70bc a4e4 3dbd 05ab aabc b351 d2bc
00000180: 8897 eebb 2a65 fa3c b792 7abd 2c87 43bc
00000190: ea1d 42bd 0bf3 85bc 97df 8e3e ceee 9fbf
000001a0: 3fa8 98be 66e2 98be e90b 37bc d2c6 1c3d
000001b0: e2a6 e6bd bb23 7a3d 3d02 f63d c308 bebc
000001c0: 72a3 54be 99e8 43b8 5fae 08be 5357 5d39
000001d0: de08 92bc 211c 61bd ae1a f73c d5e3 f33d
000001e0: 6efa 15bf 7cf8 4abf a66f b1bf f243 53bd
000001f0: aab8 65bc c92c ebbe d099 003d 8ff8 51bf
00000200: 7f0a 2b3d cf6f 8cbc a70f 0bbc 6ee6 0f3f
00000210: 8c85 22be 6d2a 8fbe 572d c03e 1dfd 8f3e
00000220: e688 683e 4bba 3c3e add8 a0be c2a1 0f3e
00000230: 55ad fbbe df26 a8be 25b0 c13d ba96 e33d
00000240: deef e03b 0703 75bd a013 a13e e61e 7b3e
00000250: 4336 1fbe 30ae 1bbe 2ec7 4abe b3f2 46be
00000260: 09fd cbbd 07bd e4bd 88fd 22be 9d14 0f3e
00000270: 9fac 1fbe 7c4a 873d 67ac 4b3e 3b47 5e3c
00000280: 9c29 383e b84d 8cbe 6572 d1bc 8472 1fbf
00000290: 5a0f 0cbe c6a9 d2be f4a6 cebd 76df 563d
000002a0: 7dbb 1b3e 7652 b13d 4cc4 a1bd dbf5 093f
000002b0: 5951 3ebd 9d37 0b3e 3277 dc3c 81fc 853e
000002c0: f748 33be fd59 2ebe aa65 953e aa50 0d3e
000002d0: 7a0e 29bc d297 1a3c 1715 82be 14b1 073e
000002e0: 7cec 8d3e fc86 323d 6870 a2be 0764 9fbe
000002f0: e430 2e3e 301d 873d 0ecd 10bc 0738 1fbe
00000300: c8ce 03bf 0535 ffbd 170d 86bc f955 ba3c
00000310: de38 653d 582a 343f bd5b 22bf c72d adbe
00000320: aa91 3c3c c4bf bebd e213 b63d a7f7 913e
00000330: d8fb 0b3f c4b6 ea3e 3d64 683d cf24 6abe
00000340: fa41 8cbc c1b7 81be 945a 493e 8be2 a9be
00000350: b7fc de39 8301 5f3d 46a9 163e 5bfc 0ebf
00000360: a4ba 2bbe 9d71 853c 7dcb cdbc 0ab5 57be
00000370: aab3 bebd faaa fabe 610c eb3b dc95 753d
00000380: f166 d5be 99e4 b4ba 4cad debe 0683 c23e
00000390: 9fcf 03bf 6d9b 6fbe 8f98 e33d b158 dcbd
000003a0: 3b93 5dbe fc1a 8bbd b0b2 5d3c 8bf2 abbc
000003b0: ca77 833d bb7a 15be b452 d9be 3ec2 8cbd
000003c0: 26e4 0cbf aebe 3a3d 8f97 ed3d 2d27 b83e
000003d0: 8d06 dc3e d2b7 343e 040d 653d de5c 4fbe
000003e0: efdc 85be 9174 a8be b863 a5bd 0dc3 25bd
000003f0: 5276 de3e 441e 05be 587d bdbe 3499 37bd
0.02831687 0.061170712 0.058460012 0.05100314 0.03252191 -0.10964347 -0.6321046 0.14459309
-1.3278571 0.039546285 0.012946973 0.013926857 -0.05553623 -0.051108208 0.022724086 0.025913492
-0.03782347 -0.01416138 -0.00031220735 -0.01880178 0.0284884 -0.009145342 -0.035829157 0.0003309792
0.025043279 -0.02514026 -0.03129474 -0.05721372 0.002669572 0.01937495 0.047722053 -0.042132508
-0.026204338 -0.027278502 0.03685829 0.021768633 -0.0125511335 0.0027358932 0.0237598 -0.02225946
-0.026964273 0.0045785666 -0.06171632 -0.013844147 0.021806244 0.023616089 0.025825374 0.052383587
0.013254045 0.035120137 0.05823552 -0.0068077305 -0.056566115 0.04993339 -0.058259815 -0.023553936
-0.019109044 -0.005089561 -0.050080687 -0.007583656 0.007180526 0.04951697 0.0504585 0.026941936
-0.045879822 0.028736737 0.05688975 0.042755187 -0.046798527 0.011509237 0.044286493 -0.03838246
0.057602964 -0.03770652 -0.047559615 -0.019389406 -0.051257282 -0.020269645 -0.005541347 -0.04266071
0.051674403 0.01633585 -0.0124505665 0.014518229 -0.015103684 0.0065037212 0.043936353 0.0309465
0.036288492 0.017146863 0.03727929 0.01783661 -0.0146752 -0.046360627 -0.020833502 -0.025673723
-0.0072812475 0.030565817 -0.061175074 -0.011934083 -0.04739181 -0.016351243 0.2790496 -1.2494752
-0.29815862 -0.29860228 -0.011172273 0.038275547 -0.11262299 0.06106923 0.12012146 -0.023197537
-0.20765474 -4.6708246e-05 -0.13347767 0.00021108733 -0.017826494 -0.054958466 0.030164089 0.1190869
-0.5858525 -0.7928541 -1.3862197 -0.05157847 -0.014021078 -0.45932606 0.031396687 -0.82019895
0.041758057 -0.017143158 -0.0084876185 0.5621098 -0.15871257 -0.27962056 0.37534592 0.28122798
0.22708473 0.1843044 -0.3141531 0.1402655 -0.4915568 -0.32842156 0.09457425 0.11112733
0.006864532 -0.05981734 0.31460285 0.24523506 -0.15548043 -0.15203166 -0.19802544 -0.1942852
-0.09960372 -0.111688666 -0.15917027 0.13972707 -0.15593193 0.06606004 0.19889985 0.013566787
0.17984623 -0.27403045 -0.025567243 -0.6228411 -0.13677731 -0.41145152 -0.100904375 0.052459203
0.1520824 0.08658306 -0.07898769 0.5389077 -0.046464298 0.13595434 0.026912306 0.26169208
-0.17508303 -0.17026515 0.29179126 0.13800302 -0.010318393 0.009435611 -0.25406715 0.13251144
0.27719486 0.043585762 -0.31726384 -0.31131002 0.17010838 0.06597364 -0.008837951 -0.15548716
-0.514874 -0.124612845 -0.016363664 0.022746073 0.055962436 0.7037711 -0.6342123 -0.33823988
0.011509338 -0.0931392 0.08890511 0.28509256 0.5468116 0.45842564 0.05673622 -0.22865604
-0.017121304 -0.25335506 0.19663459 -0.3318065 0.00042531427 0.0544448 0.1471301 -0.55853814
-0.16770416 0.016289527 -0.025121445 -0.21065155 -0.09311612 -0.4895857 0.0071731065 0.05995737
-0.416801 -0.0013801038 -0.4349159 0.37990588 -0.5148868 -0.23399134 0.111130826 -0.10759104
-0.21638195 -0.06792256 0.013531372 -0.020989677 0.06419332 -0.14597599 -0.4244591 -0.06872986
-0.55035627 0.045592003 0.11601173 0.3596739 0.42973748 0.17648247 0.055920616 -0.2025027
-0.2614512 -0.32901433 -0.080756605 -0.040469218 0.43449646 -0.12999827 -0.37009692 -0.04482384

encoder.W_o.bias f4 [128]
00000000: ccc0 dfbd c376 65bd 3206 eebd ada4 81bd
00000010: d234 ae3d 63cf 40bd 8e06 03be 5255 643e
00000020: c3c4 dabd 2456 7c3d 186f 7abb ba04 923c
00000030: bfd8 9bbd 63a6 10be 3a03 6a3d c196 85bd
00000040: 9487 ad3c 65dc cabd 45b2 9d3d 3520 373d
00000050: 41b5 afbc 861d fbbd f704 edbb f753 7ebe
00000060: 6504 57be 8e3d e2bb 37a0 70be 859e 023d
00000070: f187 31bc 641b 07be f572 25bc 0ad2 7fbd
00000080: 1cc0 42bd a9c5 b1bd d1ac 8fbd a84b 063d
00000090: 1783 cdbd 20a2 99bd 8d81 e1bd 927a 58bd
000000a0: b3e5 d4bd 9a47 04be 60a0 72bd 375f 64bd
000000b0: 42f7 3ebe 9fbd e1bd 7cc5 61be 61c8 78be
000000c0: 9530 75bd cb03 c8bd 0ead 10bd 553c cbbd
000000d0: e8ba 17bd eeda 05be 0ed1 d8bc e60b 85be
000000e0: 9504 57be c059 fdbd f840 fa3c 4bdb a1bc
000000f0: 2319 9fbd d1e2 ae3d f05a 83bd 41d1 d8bd
00000100: 6665 c5bd 67aa 87bd 8a0a 04be 2718 3ebe
00000110: 1517 42bd c1f2 2fbd f23a 5bbd 8e3c 22bd
00000120: 3619 ecbd 6b0b 33bd e6fb 833d 0740 36bb
00000130: 5e47 27be 068f 99bd 067c 133a 0a14 10bd
00000140: 1409 bdbd e7af d4bc bac4 85be bef2 10ba
00000150: b91e b73b 67f5 20bc cab2 32be ead9 03be
00000160: 69d3 d1bc d696 84bd 80a5 05bd 5b9e 83bd
00000170: b86b 9abd c22b f0bd b2b8 a6bc 7517 14bd
00000180: 2724 04be a056 cf3d 74bf 15be 1415 69be
00000190: 1443 70bd e8e1 a9bd f699 07be 4ceb babd
000001a0: b568 a4bd b656 89be d88b afbd 2f31 86be
000001b0: eae1 87be a598 8cbd 9096 0cbe 1866 46bc
000001c0: 367f 79bd c318 93bd 69d0 33be c135 35bd
000001d0: 749e 0fbe f6e2 5abe 02ac 0abd 6ed3 c8bd
000001e0: 25b6 c6bd d1c7 79bc ffc1 b4bd f081 e9bd
000001f0: 7ea3 98bd 9415 b2bd e9a1 103e d6bf 30bc
-0.10925445 -0.056021463 -0.116222754 -0.063302375 0.085061684 -0.04707278 -0.12795469 0.22298172
-0.106820606 0.061605588 -0.003821319 0.01782452 -0.076097004 -0.14125971 0.057131983 -0.06522895
0.021182813 -0.09905318 0.07700018 0.04470845 -0.021448733 -0.122614905 -0.007233258 -0.24836718
-0.2099777 -0.0069043105 -0.23498617 0.031889457 -0.010835634 -0.13194042 -0.010098209 -0.06245617
-0.04754649 -0.08680279 -0.07015384 0.032786995 -0.10034769 -0.07501626 -0.11011038 -0.052851267
-0.10395374 -0.12917939 -0.059234977 -0.055754866 -0.18649009 -0.110224955 -0.2204799 -0.24295188
-0.059860785 -0.097663485 -0.035321288 -0.09923617 -0.037043482 -0.13071796 -0.026466873 -0.2598564
-0.20997842 -0.12370634 0.030548558 -0.019757887 -0.07768466 0.085393555 -0.06413829 -0.10586787
-0.09638481 -0.066242985 -0.12894645 -0.18563901 -0.047385294 -0.042956118 -0.05352301 -0.03960853
-0.11528246 -0.04371206 0.0644453 -0.002780916 -0.16335818 -0.07497983 0.0005626086 -0.03517536
-0.09230247 -0.025962783 -0.26126653 -0.00055293355 0.005588379 -0.0098241335 -0.17451015 -0.12876096
-0.025613504 -0.06474082 -0.032628536 -0.06426688 -0.07540077 -0.11727096 -0.020351741 -0.036155183
-0.12904416 0.10123944 -0.14623815 -0.22761947 -0.05865772 -0.08295041 -0.13242325 -0.091269106
-0.08027784 -0.26823968 -0.08571595 -0.262094 -0.26539546 -0.06865052 -0.1372931 -0.012109302
-0.060912333 -0.07182457 -0.17559971 -0.044240717 -0.14025289 -0.21375641 -0.033855446 -0.09805952
-0.0970271 -0.015245394 -0.08826064 -0.11401737 -0.07453059 -0.08695522 0.14124264 -0.010787925

ffn.1.weight f4 [64, 128]
00000000: af45 5fbf 8618 07be 17df 0cbf 337d 103d
00000010: 6ace fc3d 1aec 01bd f81d aebd 7bdb 453f
00000020: 1b83 c63e d867 be3c f364 073e 62d6 b2be
00000030: bf20 c73d 2c44 a83d c622 4cbf 4cf0 c2bb
00000040: 578f 223e 82c0 66bd 56e8 21bd c171 e5be
00000050: d555 4cbe 8a31 b23e 6dd3 393d b502 51bc
00000060: 049f 123e 5787 0fbf 2ba2 7bbe 085d b7be
00000070: 0813 493d c279 90be 29fc 5ebe c7de ab3d
00000080: fdbd 7d3b fb92 51bf 89d4 9bbc 3448 503e
00000090: 69cf 763e b37a 84be 8cc4 56ba 04ff 173d
000000a0: f4c0 693d 51c5 80be 83a5 cebc 39fe a9bc
000000b0: 69db 00be cba3 a5be b6db a7be 775e f1bd
000000c0: 212e 9e3d 194f 113c f6be 66bd b572 5b3d
000000d0: 69ab b4be 051f 9abe 6632 793d 492d 4e3c
000000e0: 216a 27be 7183 c9bc 98c4 5a3e 7512 0c3d
000000f0: c99e e9bc 4dce 7e3e fdd6 bc3d 3227 393d
00000100: deef e6bd 9466 abbe c416 9b3e d980 4a3e
00000110: 5764 81be 1110 37be 1115 a03d ac53 bb3e
00000120: 2ef1 3e3e 7331 253f 5541 e73d 599e f43b
00000130: 207c 943d 02d5 643d 8d43 313e 77e1 bebd
00000140: aeff d4be 9c33 cebe 4865 46be e5b2 65ba
00000150: 234e 8b3c 0f0b 2d3c 1711 9cbe 9831 ec3e
00000160: b588 aa3e 07bb d3bd 5d3a 2c3d 56ea 91be
00000170: 2bcc 433e 80eb 4abd 6c96 35bf 0f4e 03be
00000180: 2070 5fbd bd3a 133e 82cc 84be 7f11 b3bd
00000190: a89f 803e 696a 85be 4bb9 5abd d367 a73c
000001a0: 8887 8dbd 623e 17bf 82a9 ab3d 704d 123e
000001b0: 02e3 90be bc3e cfbc 0bc2 523e ff22 f53b
000001c0: 2572 24be b542 2b3e 7362 343d 4db3 793e
000001d0: 8bbc f1bd cae6 cebe 4111 94be 0020 cdbe
000001e0: 55e6 b03b 2d76 0fbd 62be 993c 6e3b 95bd
000001f0: 06e2 3e3d 743e 923c a11c ce3b 6be2 ff3d
00000200: f89d b6be 0e6b a33e fe08 b2bc d1e5 8abd
00000210: 7486 1c3e 35f5 623d d0d5 97bd a59d 573e
00000220: 2f9d 933f 6546 573e 40d9 b7bd f408 2ebc
00000230: 46c3 af3d 719c 0a3f c40f 0cbe e273 963e
00000240: 7c47 523e a0ea 433c 4ef7 a3bc e57d dabd
00000250: f731 7e3e 7d07 8abe b878 45be 04d8 073f
00000260: 4e2f ca3e 6050 61be 950f 0cbf 67e4 edbe
00000270: 3371 0cbd 5851 873e aed4 86be 1e47 443d
00000280: 3cff 5cbd 6513 1fbf 5271 c1bd 2fe1 c33e
00000290: 39d1 9b3e 77f8 d4bc 8e91 273d 3466 193d
000002a0: 0a0c 793d eb05 0dbf 03b9 5a3c e201 dd3e
000002b0: 5b32 8fbe bda5 73be c515 94be 453c c1be
000002c0: a9d9 9f3b 47de cdbc c899 9e3d ce1d 1a3f
000002d0: 4d85 be3d a079 293c b5e1 6f3d 0f4c a33e
000002e0: d069 76bf edf4 79bd adb7 553e 9e92 3e3d
000002f0: 6f7b 93bd e162 6c3f 9905 503d feab 073f
00000300: d41b 823e 995c 55be 133a fe3e 2d78 a23e
00000310: 371e edbd 4fb1 c83d 1d44 843c 8513 f03e
00000320: 85aa 7dbd 9eb1 153f e24f b239 5ed1 973d
00000330: bf33 a93e 8c7a 203d 4624 493e 3c6c b0bd
00000340: 2b5c 6a3d 488f 1b3d ffd3 9bbd 3416 aebd
00000350: 4444 84bd d5b7 643d 14f2 d6bd 7f14 303f
00000360: a082 513f 1967 0f3d 4e73 d73e 27ce 5b3d
00000370: d6a8 7b3e 880a 363d a7fa dbbe fafd 84be
00000380: fc33 2c3e 00f5 c9be 8d63 b5be 6f91 87be
00000390: cbbe c73e d69e 34bf 89ba b8bd 3cd1 69bd
000003a0: 2ba2 c8be 3e1b 04be 8837 af3e 6876 0c3f
000003b0: e678 bbbe f6ff 0b3d 43bf 703e 3899 acbd
000003c0: c2a9 173f 9cdc a53d d239 c1bd 3bab e03e
000003d0: 768b 41bc 78cf e23d e348 f8bd 7711 1bbe
000003e0: 705f d23c 19ec ffbc 3863 9c3e a90d 9dbd
000003f0: 8ab1 6abd 792d 9cbd 8ca1 c5be dce8 d53e
-0.87215704 -0.13192949 -0.5502791 0.03527565 0.12344058 -0.031719305 -0.0850181 0.77288026
0.387719 0.023242876 0.13222103 -0.34929186 0.09723043 0.08216128 -0.7974056 -0.005949056
0.15874992 -0.056335934 -0.039528213 -0.4481335 -0.19954617 0.3480342 0.045367647 -0.012756993
0.14318472 -0.5606589 -0.24573581 -0.35813165 0.049090415 -0.28217894 -0.21775879 0.08392101
0.0038717978 -0.818649 -0.019022243 0.20340043 0.24102558 -0.25874862 -0.000819274 0.037108436
0.05706878 -0.2515054 -0.025225407 -0.020751106 -0.12583698 -0.32351527 -0.32784814 -0.11785596
0.07723642 0.008868956 -0.05633446 0.05357619 -0.35287026 -0.3010179 0.06083908 0.012584039
-0.16349079 -0.024598809 0.21364057 0.03419729 -0.028518097 0.24883385 0.09220693 0.045203395
-0.1127622 -0.33476698 0.30290806 0.19775714 -0.25271866 -0.17877223 0.07816518 0.36587274
0.1864669 0.6452858 0.11291758 0.0074651656 0.072502375 0.055867203 0.17310925 -0.09320348
-0.41601318 -0.4027375 -0.19374573 -0.0008762314 0.017005032 0.010561719 -0.3048179 0.46131587
0.33307424 -0.10338407 0.042047847 -0.28499097 0.19120853 -0.049540997 -0.7093265 -0.12822746
-0.05455029 0.14377876 -0.25937277 -0.087435715 0.25121808 -0.26057747 -0.053399365 0.02043525
-0.06910616 -0.59079564 0.083819404 0.14287353 -0.28298193 -0.025298469 0.20581834 0.0074809785
-0.16059168 0.16724665 0.0440392 0.24384804 -0.1180354 -0.40410453 -0.28919414 -0.40063477
0.0053985515 -0.03502481 0.01876754 -0.07286726 0.04660227 0.017852046 0.006290034 0.12494358
-0.35667396 0.31917614 -0.021732803 -0.06782115 0.15285665 0.05540963 -0.074138284 0.2105623
1.1532344 0.21022947 -0.08976984 -0.010622252 0.08582167 0.5414496 -0.13677889 0.29385287
0.20535082 0.011957794 -0.020015385 -0.10668544 0.24823748 -0.26958838 -0.19284332 0.5306399
0.39489216 -0.22003317 -0.54711276 -0.4646332 -0.034287643 0.26429248 -0.26334137 0.047919385
-0.053954348 -0.6213897 -0.09445442 0.3825774 0.30433062 -0.025997384 0.040910296 0.037450984
0.060802497 -0.55087155 0.013349774 0.431655 -0.27968106 -0.23793693 -0.2892286 -0.37741295
0.004878242 -0.025130404 0.07744175 0.6020173 0.09302769 0.010343939 0.05856486 0.31893966
-0.9625521 -0.061024595 0.20870848 0.046526544 -0.072012775 0.9233838 0.05078659 0.52996814
0.25411856 -0.20836104 0.49653682 0.31732312 -0.11578029 0.09799444 0.01614576 0.46889892
-0.0619302 0.5847415 0.00034010323 0.074129805 0.33047292 0.03917937 0.19642743 -0.08614394
0.057216804 0.03797844 -0.076087944 -0.08500329 -0.06458333 0.05583938 -0.104953915 0.68781275
0.8183994 0.03501043 0.42080158 0.0536634 0.24576125 0.044443637 -0.4296467 -0.2597502
0.16816705 -0.39444733 -0.35427514 -0.26478145 0.3901275 -0.70554864 -0.09019954 -0.057084307
-0.39186224 -0.12901017 0.34222054 0.54868174 -0.36615676 0.03417965 0.2351046 -0.08427662
0.59243405 0.080987185 -0.094348565 0.43880638 -0.011813035 0.11074728 -0.12123277 -0.15143381
0.025680274 -0.03124051 0.30544448 -0.07668621 -0.05729822 -0.07625861 -0.38599813 0.4177922

ffn.1.bias f4 [64]
00000000: fc48 c03d 988d 693e e60c bebd b816 343d
00000010: 2a3c f5bc 3061 a1bd c2b7 e93d 0326 7ebd
00000020: 473c aa3c 22d3 cd3c 8d0d 813d abf2 08be
00000030: 04a2 01bd ae98 1cbe fbac 073c 4047 e03c
00000040: c088 37bd 42cc 033c 792e a63d b345 0f3e
00000050: 45b9 97bd 6fb9 7d3c 8996 773e 7a7e 563d
00000060: 1785 03be 7f4f 3cbc b069 023d 977c cf3d
00000070: 17f5 63bc 794f 56be b90a fb3c d43c 26bc
00000080: c424 05be e073 253d 7220 5a39 bf6b 0e3e
00000090: 64ba 8c3d 5016 82bd 5d18 873e ad07 cabd
000000a0: bdd2 37be 9cd0 e0bd 8e15 9f3d 8f66 033e
000000b0: 2517 873d 2cc6 84bd 6d5b 483e 14ee bf3d
000000c0: 5188 d23d bbcd 023e 783a 0abe f79a 69bc
000000d0: 355e 343d 343c 473e 44e5 803d bcc4 c2bd
000000e0: 600f d13d 1f64 60bc 2d0d 023e 324e 2b3d
000000f0: 2adc a23c 641b 15be 3847 7abc 4c5d 573d
0.09388921 0.2280792 -0.09279804 0.04396698 -0.029935915 -0.07879865 0.11412002 -0.06204797
0.020780696 0.02512509 0.06301413 -0.1337382 -0.03164865 -0.15292618 0.008280988 0.027377725
-0.04480815 0.008044304 0.08114333 0.13991432 -0.07408384 0.015486105 0.24178518 0.05236671
-0.12843738 -0.011493563 0.031839073 0.101311855 -0.013913414 -0.20928754 0.030644761 -0.0101463385
-0.13002306 0.04039371 0.00020802187 0.1390829 0.06871489 -0.06351912 0.26385775 -0.09864745
-0.17951484 -0.10977289 0.07767783 0.12832092 0.06596211 -0.06483111 0.19566126 0.09371582
0.102799065 0.12773792 -0.13498867 -0.014258138 0.044035155 0.1945656 0.06293729 -0.0951018
0.10208011 -0.013695746 0.12700339 0.04182262 0.019880373 -0.1456123 -0.015275769 0.05257921

ffn.4.weight f4 [64, 64]
00000000: 490d 883d 3a47 84bd c891 83bd f204 583b
00000010: 1474 3f3e fb25 a1bd 21aa 91bd cd8c e43d
00000020: c806 353e 898f 34be c9e0 f53b 5dd3 84bd
00000030: 945c 203d 6148 193e f022 9b3d 88d9 01be
00000040: d552 59be 7cb8 eabc adfb d3bd 007f a8bd
00000050: b4c5 153e e60d 7fbe 42dc 1cbd 3e47 8abd
00000060: 9f24 a4bb dc27 903e 5193 3d3d 31d2 823d
00000070: 9339 ac3c 706d 0bbe 2590 c33d 4d38 f6bd
00000080: c3a7 013d 128e 043c a427 6d3b 0c56 5fbd
00000090: eb87 4cbb e29f 8f3d e602 68be 0f2f 03bd
000000a0: fdf0 e5bd 5c49 563d f554 abbd 69d9 a9bd
000000b0: cf24 23be aa2c de3d 8a85 8ebc 7429 1bbe
000000c0: d1be b83c dda4 1ebe ccfc 063d d614 123d
000000d0: 6126 f33d 5846 29bc f7c6 ecbd e3f8 f6bd
000000e0: 52e7 893d 4987 74bd 73d7 df3d 4d66 11be
000000f0: f0ab 6a3e ef28 afbe 28a1 b43e f286 19be
00000100: 2ce2 bd3e 2812 bbbb 4d4a 38be 97b1 7e3e
00000110: 3692 d6bd dd76 97be 57b8 803b ffdc fd3c
00000120: e856 333c a4de 8abd a20f 45bd 791f 8d3c
00000130: 858c 383e 6379 e4bd 4666 2fbe e61b 763e
00000140: 5c82 54be 410d 0abc 52b4 9f3d d424 663d
00000150: 099b 583e 7269 203d cc7e fa3d df38 50bd
00000160: f044 90bd b76a 823e 9434 cbbd 846d d73d
00000170: 217b f5bc 29f3 8abe 7b0c 0a3c 1d43 92bd
00000180: 5c47 a8bd 65e0 a43e 5e0e ab3b 1473 8f3d
00000190: 96ae 9e3d 3b1e aebe 09b6 273e 90d4 98bd
000001a0: fc76 8dbc c5ed a5bd d887 21bd c2c2 083e
000001b0: 2607 093d 6dc5 6cbe 54eb ed3d 7d1c cabb
000001c0: 1683 ff3d 9285 643e 5b9c 163e 627d f73d
000001d0: 48f5 853e 084a 1e3e b07b 583c 8fb4 76be
000001e0: 4608 833e 94c3 88bd 7893 d83c ddfd b5bd
000001f0: 3b7d b43c 7d21 7fbe 4514 b03d b7de ee3c
00000200: daf3 bd3e c11b d93d d049 1ebe c805 a5bb
00000210: bcf8 b3be 5750 adbe 36c5 d4bd 21e3 233c
00000220: 32b9 d53d b66f 82be b4f2 e8bc 379e 10be
00000230: 76b9 5b3e 9770 23be 66be 96be ad11 503e
00000240: d4b9 2a3e 085a 09be 7196 a6bc faf2 453c
00000250: 25d5 523d 3133 133d 9539 58bd fb23 d2bd
00000260: 4a24 f4bc 9f32 c23d 0de4 0dbe 35f9 653e
00000270: a0b9 92bd 3e39 453e 2821 683c 50b3 b43d
00000280: 3ae0 25be 2262 a53e 9509 7cbe be44 883d
00000290: 70ba e3bd e5ea 59be 8e58 4b3e 5d50 49be
000002a0: d397 c4bc ab59 423e ecb0 663d b3d8 0fbe
000002b0: b7b9 473d 11a4 87bd 17cb 4aba 48a6 16bb
000002c0: ca0e 833e 942f 2dbe 5551 b3bd 6e75 abbd
000002d0: 062b 903e 513d 23bd 615c 053e 0783 42be
000002e0: 2fdb 933e 9d97 a4bd 3765 b23d 4f6b 853c
000002f0: fed2 5ebd c91e 27be b1da 5e3d 503b 35be
00000300: 41a2 a73c fe1c 48bd a6d6 4fbd a4b9 d2bc
00000310: 0551 92bd dbe5 713d d133 d1bd ce01 893d
00000320: 7f03 023e 06fe 723c 63fd 86bd f71f b73d
00000330: ed0b 0e3d b9ab 4e3d df2b 03bc b9be 25bd
00000340: 4e74 9bbd 90c7 b53a 5b02 a53d c06f df3d
00000350: 406f 9d3d 7e3d 1b3e 7125 1b3d 1243 9f3a
00000360: 4038 063d 2504 883d b89b 6cbd 20ec ed3c
00000370: d1ca a0bd 5d9a 9cbd 3574 98bd 2294 073d
00000380: c475 623d 614d 653d 68a9 1fbe 7700 433e
00000390: 5907 493d 6443 1d3d c0f1 b4bd b6d8 20bd
000003a0: 523f 85bc 3634 12be 6efd 3b3b bd85 34bd
000003b0: a57c 6ebd 639b 353d 0f95 4e3d 3fa0 d4bd
000003c0: 0bf3 46bd 5f66 1d3e 5960 82bc a354 c7bc
000003d0: cc1e f3bd cc33 a73d 0df7 d43d e517 cdbc
000003e0: ee2d a43d 74bb 27be 4a49 d1bd 93e3 d73d
000003f0: 25b4 5f3d ee13 57bc d235 94bd c734 853d
0.06643159 -0.06458898 -0.0642429 0.0032961932 0.18696624 -0.07868572 -0.07112528 0.11159668
0.17678368 -0.1763288 0.007503603 -0.06485627 0.03915079 0.14969017 0.07575023 -0.12680638
-0.21223004 -0.028652422 -0.10350738 -0.08227348 0.14626199 -0.24907646 -0.03829599 -0.067518696
-0.0050092484 0.2815541 0.04628307 0.06387747 0.021023547 -0.13615966 0.09548978 -0.12022457
0.03165413 0.008090513 0.0036186958 -0.05452542 -0.0031208943 0.07012917 -0.22657356 -0.0320273
-0.112276055 0.052316055 -0.08365814 -0.08293421 -0.1593201 0.10848363 -0.01739766 -0.15152532
0.022551926 -0.15492578 0.03295593 0.035664402 0.118725546 -0.010331713 -0.11561387 -0.1205919
0.06733574 -0.05969933 0.109297656 -0.14199181 0.22917151 -0.34210917 0.35279202 -0.14992884
0.37086618 -0.0057089515 -0.17997093 0.24872433 -0.10477106 -0.29582873 0.003928225 0.030989168
0.010946013 -0.067807466 -0.04811061 0.017226921 0.18022354 -0.11155965 -0.17128858 0.2403408
-0.20752853 -0.008426012 0.07798065 0.056187466 0.21152891 0.03916306 0.12231216 -0.050835487
-0.07044399 0.25472042 -0.09922138 0.10518935 -0.029965939 -0.2713864 0.008425827 -0.07141707
-0.08216736 0.3220245 0.0052202186 0.07004371 0.077481434 -0.3400744 0.16378035 -0.07462418
-0.01726865 -0.081019916 -0.03943619 0.13355544 0.033454083 -0.23122187 0.11617151 -0.006167947
0.124761745 0.22316578 0.14708082 0.12084462 0.26163697 0.15457928 0.013213083 -0.24092315
0.2559225 -0.066779286 0.026437506 -0.08886311 0.02203237 -0.24915119 0.08597616 0.029158933
0.37100106 0.10600997 -0.15457845 -0.0050360896 -0.35150707 -0.33850357 -0.103891775 0.010002882
0.10435714 -0.25475854 -0.028436042 -0.14122854 0.21457466 -0.15960918 -0.29442137 0.20319243
0.1667245 -0.1341325 -0.020335408 0.012081856 0.0514728 0.03593749 -0.05278929 -0.10260769
-0.02980246 0.094823115 -0.13856526 0.22458346 -0.071643114 0.19260117 0.014168061 0.08823264
-0.16198817 0.32301432 -0.2461303 0.066537365 -0.111195445 -0.21281011 0.19858 -0.19659562
-0.023998177 0.18979518 0.05632107 -0.14047508 0.048761096 -0.0662309 -0.0007735951 -0.0022987295
0.2559722 -0.16912681 -0.08755747 -0.08372007 0.28157824 -0.039853398 0.13023521 -0.18995295
0.2887816 -0.080367304 0.087107114 0.01628652 -0.054400437 -0.16320337 0.05440778 -0.17698407
0.02046311 -0.048855774 -0.050741814 -0.025723286 -0.071443595 0.059057098 -0.10214961 0.06689797
0.12696646 0.014831072 -0.065912984 0.08941644 0.034679342 0.050456736 -0.008006065 -0.04046509
-0.07590543 0.0013868678 0.0805709 0.109099865 0.07687235 0.15160176 0.037877504 0.0012150726
0.032768488 0.066414155 -0.057765692 0.029043257 -0.07851184 -0.0764663 -0.0744404 0.033100255
0.05528809 0.055981997 -0.15591967 0.19043146 0.049079273 0.038394347 -0.08835173 -0.03926917
-0.016265545 -0.1427773 0.0028684991 -0.044072855 -0.05822434 0.04433764 0.050435122 -0.10382127
-0.048571628 0.15371083 -0.015915083 -0.02433235 -0.118711084 0.08164176 0.10398684 -0.025035808
0.08016573 -0.16380101 -0.10219057 0.10541453 0.05461516 -0.01312731 -0.07236828 0.06504207

ffn.4.bias f4 [64]
00000000: 1872 b1bc 04e7 b63d 1e84 ee3d d629 44bb
00000010: fc09 0dbc f6fa 77bd 2441 f03c 0326 b53c
00000020: 6d39 94bd 85a4 a8bd 15a6 8bbb c7b0 673c
00000030: 52eb 69bd a93d 853d 0126 50be b27d f6bd
00000040: 03c0 143c 799d 1ebc 2066 1f3c 1f92 5f3e
00000050: cd5e 3e3e 474b a4ba 9a03 ccbc 3444 793d
00000060: eb82 663d 743e 31bd efb8 773d 9eb5 84bc
00000070: e3b9 413d a672 afbd 4e16 913c 9cce 10ba
00000080: fba7 553c fc65 2e3e 233d b2be f897 7e3d
00000090: f52e 513d a439 f53b 8f00 96be 663e 173d
000000a0: b7ba 743b 27ce 1bbe e028 5bbd 6596 673d
000000b0: af3b 5f3d 895d 113d 5a14 9cbe 958c f3bd
000000c0: 502c 453e c952 e03d 980b 39bd cfce e43c
000000d0: 8a3f 8cbe b21d 373e 7d5f ca3c 1027 fc3c
000000e0: 49ea b23d 473e 6ebb c7e3 14be e49e c63d
000000f0: a73d 8e3d d231 67bd d1aa 38bd e529 923c
-0.02166085 0.089307815 0.11646293 -0.0029932163 -0.0086083375 -0.06054207 0.029327936 0.022112852
-0.072375156 -0.082345046 -0.004261742 0.014141268 -0.057109185 0.06505901 -0.20326997 -0.12035693
0.009078982 -0.009681099 0.009728938 0.21833085 0.18590851 -0.0012534641 -0.024904061 0.06085606
0.056277197 -0.04327245 0.0604791 -0.016199883 0.047296416 -0.08566789 0.017710831 -0.0005523951
0.013040538 0.17031091 -0.3481227 0.062156647 0.051070172 0.007483678 -0.292973 0.036924742
0.0037342736 -0.1521536 -0.05350578 0.05653991 0.054500278 0.035489593 -0.30484277 -0.11892048
0.19255185 0.1095329 -0.045177072 0.027930645 -0.27392226 0.17882422 0.024703735 0.030780345
0.087360926 -0.0036353038 -0.14540015 0.09698275 0.06945353 -0.056443997 -0.04508478 0.017842242
