THESIS/transfer_learning/trained/DMPNN_Water_pka.pt (torch, 279627 bytes, 8 tensors)

encoder.cached_zero_vector f4 [128]
0.0 0.0 0.0 0.0 0.0 0.0 0.0 0.0
0.0 0.0 0.0 0.0 0.0 0.0 0.0 0.0
0.0 0.0 0.0 0.0 0.0 0.0 0.0 0.0
0.0 0.0 0.0 0.0 0.0 0.0 0.0 0.0
0.0 0.0 0.0 0.0 0.0 0.0 0.0 0.0
0.0 0.0 0.0 0.0 0.0 0.0 0.0 0.0
0.0 0.0 0.0 0.0 0.0 0.0 0.0 0.0
0.0 0.0 0.0 0.0 0.0 0.0 0.0 0.0
0.0 0.0 0.0 0.0 0.0 0.0 0.0 0.0
0.0 0.0 0.0 0.0 0.0 0.0 0.0 0.0
0.0 0.0 0.0 0.0 0.0 0.0 0.0 0.0
0.0 0.0 0.0 0.0 0.0 0.0 0.0 0.0
0.0 0.0 0.0 0.0 0.0 0.0 0.0 0.0
0.0 0.0 0.0 0.0 0.0 0.0 0.0 0.0
0.0 0.0 0.0 0.0 0.0 0.0 0.0 0.0
0.0 0.0 0.0 0.0 0.0 0.0 0.0 0.0
00000000: 0000 0000 0000 0000 0000 0000 0000 0000
00000010: 0000 0000 0000 0000 0000 0000 0000 0000
00000020: 0000 0000 0000 0000 0000 0000 0000 0000
00000030: 0000 0000 0000 0000 0000 0000 0000 0000
00000040: 0000 0000 0000 0000 0000 0000 0000 0000
00000050: 0000 0000 0000 0000 0000 0000 0000 0000
00000060: 0000 0000 0000 0000 0000 0000 0000 0000
00000070: 0000 0000 0000 0000 0000 0000 0000 0000
00000080: 0000 0000 0000 0000 0000 0000 0000 0000
00000090: 0000 0000 0000 0000 0000 0000 0000 0000
000000a0: 0000 0000 0000 0000 0000 0000 0000 0000
000000b0: 0000 0000 0000 0000 0000 0000 0000 0000
000000c0: 0000 0000 0000 0000 0000 0000 0000 0000
000000d0: 0000 0000 0000 0000 0000 0000 0000 0000
000000e0: 0000 0000 0000 0000 0000 0000 0000 0000
000000f0: 0000 0000 0000 0000 0000 0000 0000 0000
00000100: 0000 0000 0000 0000 0000 0000 0000 0000
00000110: 0000 0000 0000 0000 0000 0000 0000 0000
00000120: 0000 0000 0000 0000 0000 0000 0000 0000
00000130: 0000 0000 0000 0000 0000 0000 0000 0000
00000140: 0000 0000 0000 0000 0000 0000 0000 0000
00000150: 0000 0000 0000 0000 0000 0000 0000 0000
00000160: 0000 0000 0000 0000 0000 0000 0000 0000
00000170: 0000 0000 0000 0000 0000 0000 0000 0000
00000180: 0000 0000 0000 0000 0000 0000 0000 0000
00000190: 0000 0000 0000 0000 0000 0000 0000 0000
000001a0: 0000 0000 0000 0000 0000 0000 0000 0000
000001b0: 0000 0000 0000 0000 0000 0000 0000 0000
000001c0: 0000 0000 0000 0000 0000 0000 0000 0000
000001d0: 0000 0000 0000 0000 0000 0000 0000 0000
000001e0: 0000 0000 0000 0000 0000 0000 0000 0000
000001f0: 0000 0000 0000 0000 0000 0000 0000 0000

encoder.W_i.weight f4 [128, 147]
0.043792725 0.0004285872 0.0275466 -0.07062912 -0.03615366 0.053394854 -0.057203818 -0.049205337
0.0785513 0.068571076 -0.05246947 0.06455915 0.08161478 -0.05058468 -0.07654888 0.03558958
0.095296316 0.04513088 -0.006707497 0.08011624 -0.040049046 -0.0333626 0.06746763 -0.04007955
0.037204407 0.05243145 0.016073175 -0.07917222 0.059980094 0.064259484 0.022210881 0.066232175
-0.011594161 0.07982737 0.09780094 0.019546792 -0.018463813 -0.059033073 -0.00075262785 0.04632786
0.05719088 -0.031411503 0.031091675 -0.0658208 -0.008803606 -0.02430807 -0.02834408 0.036031738
0.013426617 -0.04572145 0.04610896 0.046442106 0.056337383 -0.078705154 -0.0025538877 0.0524842
0.024660617 0.06496467 0.048452973 -0.025668673 -0.051495686 0.059166968 0.039729036 0.04776536
0.058376923 -0.072196044 -0.0024409369 -0.05085201 -0.04409103 0.037584305 -0.07574119 -0.011351503
-0.041162368 0.025341667 -0.041763294 0.036785424 0.030254379 -0.030211296 0.018548466 0.052088022
0.066596374 0.071614146 -0.049267724 -0.05335074 0.05679646 0.009760588 -0.0058166236 0.039140463
0.023138471 0.039995097 0.066266835 0.046021283 0.008057363 0.028725684 -0.041411765 -0.010095201
0.0549971 -0.05860366 -0.002132222 0.002354294 0.027341299 -0.050128978 0.02407441 -0.065234885
0.068176456 -0.019643893 0.060308307 -0.042262368 -0.012917782 -0.04314669 -0.072062455 0.017357245
0.08016039 0.023987837 -0.06262275 -0.0718782 -0.050105393 -0.019536734 0.068244785 0.005130081
-0.019668302 -0.0681343 -0.11264325 -0.05489915 0.0022839233 0.033842586 0.04362404 -0.07017613
-0.03259092 0.036359742 0.04640375 0.04814247 -0.031106388 0.07770963 0.03473338 0.029508684
0.033312015 0.0037261916 0.039142586 0.051075723 0.024096793 -0.074169084 0.007668779 -0.07241931
0.037435845 0.043037266 -0.009464942 0.030899383 0.010119788 0.06088154 -0.014330544 -0.07233437
-0.0037709554 0.061382215 -0.092380814 0.039252304 -0.05268856 -0.030210115 0.022134393 -0.02620687
0.0030974348 -0.023474082 -0.04482826 -0.08533915 0.07684092 -0.07475488 -0.052709717 0.015512347
-0.03140082 -0.063684225 0.06917733 -0.004635878 -0.04987681 0.0022519976 -0.010816254 -0.008498102
0.002655536 0.066399425 -0.00583262 0.064452246 -0.051037807 0.04677349 0.008915305 0.01493185
-0.017479353 -0.002692759 0.046640307 0.081266925 0.0148976445 -0.020770755 0.016758926 -0.06544933
0.0017912462 0.051791638 0.013651915 0.0006037876 -0.0359128 0.04151342 0.07108861 -0.06836327
-0.019995142 -0.02088232 -0.0076993033 0.008618452 -0.077969246 0.016560078 0.03774836 0.06921068
-0.040494036 -0.03772957 -0.04656952 0.033886604 0.075497195 -0.0018056259 -0.05863288 -0.00471095
-0.0074607953 -0.054631963 0.02986727 0.06202483 -0.056732904 -0.033299025 -0.07427691 -0.05164184
0.043584198 -0.02595137 -0.047719967 0.012761064 0.074162796 0.04671584 -0.022634096 0.060970828
0.04952641 -0.047427997 0.06915854 0.02055005 0.03182336 0.021925658 -0.038305383 -0.026326273
0.012579568 -0.017012782 -0.031137105 0.07371166 0.020977274 0.024629682 0.060106948 0.036873862
-0.0064978674 0.038363736 0.01297217 -0.11397988 0.014698147 0.025331609 0.0005420521 0.10648419
00000000: 0060 333d 00b4 e039 68a9 e13c 00a6 90bd
00000010: dc15 14bd 90b4 5a3d 8d4e 6abd 898b 49bd
00000020: 81df a03d fe6e 8c3d 3aea 56bd 9637 843d
00000030: a625 a73d e231 4fbd a9c5 9cbd 61c6 113d
00000040: b72a c33d 28db 383d 90ca dbbb fc13 a43d
00000050: 780a 24bd 39a7 08bd 782c 8a3d 742a 24bd
00000060: a663 183d 5cc2 563d e4ab 833c 0b25 a2bd
00000070: b0ad 753d 7a9a 833d 98f3 b53c bca4 873d
00000080: 70f5 3dbc 887c a33d dc4b c83d 9820 a03c
00000090: 6c41 97bc aacc 71bd 004c 45ba 48c2 3d3d
000000a0: fc40 6a3d 59a9 00bd f8b3 fe3c 0ecd 86bd
000000b0: 003d 10bc b821 c7bc d831 e8bc 0496 133d
000000c0: 50fb 5b3c 6a46 3bbd c0dc 3c3d 143a 3e3d
000000d0: 07c2 663d 2b30 a1bd 205f 27bb acf9 563d
000000e0: 1005 ca3c 320c 853d a076 463d 1c47 d2bc
000000f0: 24ed 52bd 1059 723d eaba 223d 9ca5 433d
00000100: a41c 6f3d 85db 93bd 20f8 1fbb 324a 50bd
00000110: cc98 34bd 00f2 193d 321e 9bbd a8fb 39bc
00000120: df99 28bd 5499 cf3c fd0f 2bbd 50ac 163d
00000130: 08d8 f73c ae7d f7bc f4f2 973c 405a 553d
00000140: ae63 883d 70aa 923d f4cc 49bd 4e86 5abd
00000150: 68a3 683d e0ea 1f3c 6099 bebb c051 203d
00000160: e48c bd3c e6d1 233d e8b6 873d d080 3c3d
00000170: 0803 043c 2052 eb3c 629f 29bd 5866 25bc
00000180: a444 613d 640a 70bd c0bc 0bbb 804a 1a3b
00000190: dcfa df3c 0b54 4dbd b237 c53c de99 85bd
000001a0: 19a0 8b3d 3bec a0bc d805 773d 4e1b 2dbd
000001b0: 1ba5 53bc 95ba 30bd 7b95 93bd c830 8e3c
000001c0: 212b a43d 2482 c43c 5b40 80bd e134 93bd
000001d0: 503b 4dbd 800b a0bc ecc3 8b3d 3d1a a83b
000001e0: 6b1f a1bc ff89 8bbd 81b1 e6bd eedd 60bd
000001f0: e0ad 153b 869e 0a3d 1faf 323d 81b8 8fbd
00000200: 0e7e 05bd f4ed 143d dc11 3e3d 0a31 453d
00000210: d3d2 febc 3a26 9f3d 9744 0e3d 32bc f13c
00000220: 2e72 083d 1f33 743b fa53 203d c734 513d
00000230: a366 c53c f6e5 97bd 624a fb3b 9350 94bd
00000240: 5456 193d d847 303d d812 1bbc b420 fd3c
00000250: 78cd 253c ec5e 793d a8ca 6abc 0b24 94bd
00000260: 2222 77bb eb6b 7b3d 2732 bdbd 06c7 203d
00000270: f6cf 57bd 347b f7bc 3053 b53c caaf d6bc
00000280: 55fe 4a3b b84c c0bc d69d 37bd 4bc6 aebd
00000290: c65e 9d3d 1619 99bd 25e6 57bd 8027 7e3c
000002a0: 259e 00bd e06c 82bd d8ac 8d3d 90e8 97bb
000002b0: a04b 4cbd 4096 133b a836 31bc a03b 0bbc
000002c0: 8008 2e3b 6cfc 873d 901f bfbb 8aff 833d
000002d0: 050d 51bd 8f95 3f3d 8011 123c b8a4 743c
000002e0: dc30 8fbc 0079 30bb e809 3f3d 466f a63d
000002f0: 4015 743c 6e27 aabc 044a 893c 4c0a 86bd
00000300: 40c8 ea3a 7823 543d 48ac 5f3c 8047 1e3a
00000310: 4d19 13bd fa09 2a3d e896 913d 0b02 8cbd
00000320: dacc a3bc 6611 abbc 704a fcbb 6834 0d3c
00000330: 57ae 9fbd 00a9 873c 069e 1a3d 54be 8d3d
00000340: 13dd 25bd 528a 1abd aebf 3ebd aecc 0a3d
00000350: 469e 9a3d c0aa ecba 0829 70bd 505e 9abb
00000360: b079 f4bb c4c5 5fbd 34ac f43c c00d 7e3d
00000370: c360 68bd 8f64 08bd 7e1e 98bd 6586 53bd
00000380: 5885 323d f897 d4bc 0376 43bd c813 513c
00000390: aae2 973d 1c59 3f3d 246b b9bc 8cbc 793d
000003a0: 34dc 4a3d dc43 42bd fea2 8d3d 9458 a83c
000003b0: 3659 023d 709d b33c 1be6 1cbd 32aa d7bc
000003c0: 881a 4e3c 645e 8bbc 3e13 ffbc 24f6 963d
000003d0: 88d8 ab3c 30c4 c93c b432 763d 0c09 173d
000003e0: 10ec d4bb 4b23 1d3d 3989 543c 496e e9bd
000003f0: 7fd0 703c 3c84 cf3c 8018 0e3a 6214 da3d

encoder.W_i.bias f4 [128]
0.025127018 0.0066617187 -0.033407174 -0.099245906 0.04676699 0.031008324 0.052499037 -0.005558136
0.011334636 -0.08287885 -0.064457074 0.04114365 -0.05463315 -0.019202922 0.00553439 -0.06826277
-0.04516778 -0.042997796 0.02848222 0.008484709 -0.021340596 0.025073385 0.054095674 -0.07581795
-0.06279358 0.06233993 0.027749434 -0.004257463 0.017181182 -0.057754524 0.007466933 0.012462934
0.0024583936 0.061626296 -0.04912325 0.07021382 0.0004285881 -0.03907856 0.02137238 0.028048893
0.045252733 0.006010378 -0.08049722 0.02180601 -0.056333628 0.015394484 0.050452042 -0.046397217
0.042374216 -0.039598007 0.041843683 -0.04974667 -0.038741753 0.057928927 -0.031448714 0.008813087
0.010773076 -0.0013823741 0.006182374 -0.081074975 -0.010680594 -0.061040733 0.046283826 -0.036025837
0.03897269 0.044390954 -0.008550754 -0.03490617 -0.08976531 0.002891462 -0.06024896 0.017214552
0.03740366 0.05936079 0.0023416993 -0.014493063 -0.020016555 0.0136616295 -0.06125786 0.041366085
-0.052373085 -0.03358042 -0.08316456 0.010443039 0.016376631 -0.0060801045 0.057061344 -0.0056405775
0.013859601 -0.031763855 0.05414525 -0.006133014 -0.00882947 -0.06483818 -0.058332656 0.02469434
0.07479304 0.013110746 0.018827086 0.051558938 0.019628517 -0.030813029 -0.03129887 0.039788928
-0.04029911 -0.039966017 -0.04931369 -0.028998975 0.059013788 -0.058399677 0.015040002 0.0027217541
-0.024716511 0.0035659736 -0.042005282 0.07824586 -0.005214476 0.019953152 -0.010265987 0.0146418
0.0035407355 0.030537976 -0.064722925 -0.021683749 -0.024347998 -0.06332079 -0.020305479 -0.0057802154
00000000: 2dd7 cd3c 8c4a da3b f6d5 08bd 7041 cbbd
00000010: be8e 3f3d 2b05 fe3c 3b09 573d 0621 b6bb
00000020: e9b4 393c 63bc a9bd 1202 84bd 3e86 283d
00000030: 03c7 5fbd 724f 9dbc d459 b53b 5acd 8bbd
00000040: da01 39bd 751e 30bd 8b53 e93c 7303 0b3c
00000050: 79d2 aebc b366 cd3c 6d93 5d3d 7146 9bbd
00000060: ec99 80bd 2858 7f3d c852 e33c 3082 8bbb
00000070: 8dbf 8c3c 0290 6cbd 2dad f43b 5531 4c3c
00000080: 001d 213b db6b 7c3d 7635 49bd 43cc 8f3d
00000090: 1fb4 e039 d710 20bd 2115 af3c cbc6 e53c
000000a0: ee5a 393d b4f2 c43b badb a4bd 84a2 b23c
000000b0: 17be 66bd 2539 7c3c cda6 4e3d 020b 3ebd
000000c0: 9690 2d3d 8531 22bd 4864 2b3d 2ac3 4bbd
000000d0: acaf 1ebd e246 6d3d 5ed0 00bd c464 103c
000000e0: 8e81 303c c730 b5ba 8395 ca3b a30a a6bd
000000f0: a8fd 2ebc d905 7abd 1c94 3d3d d48f 13bd
00000100: d4a1 1f3d 4ad3 353d 7618 0cbc c6f9 0ebd
00000110: e0d6 b7bd af7e 3d3b 9dc7 76bd 8805 8d3c
00000120: 9534 193d 4d24 733d 3277 193b 5074 6dbc
00000130: c2f9 a3bc 07d5 5f3c 86e9 7abd 7c6f 293d
00000140: 2985 56bd 9f8b 09bd 2e52 aabd 4819 2b3c
00000150: 4928 863c 9d3b c7bb 28b9 693d 98d4 b8bb
00000160: 6113 633c d11a 02bd 69c7 5d3d 73f7 c8bb
00000170: 7ba9 10bc e1c9 84bd 39ee 6ebd c94b ca3c
00000180: 182d 993d 74ce 563c 433b 9a3c 772f 533d
00000190: fccb a03c 9b6b fcbc 3e33 00bd b7f9 223d
000001a0: ae10 25bd 68b3 23bd 27fd 49bd 428f edbc
000001b0: 71b8 713d 8034 6fbd 576a 763c 755f 323b
000001c0: 487a cabc 1cb3 693b bb0d 2cbd 5e3f a03d
000001d0: 32de aabb cb74 a33c ac32 28bc 29e4 6f3c
000001e0: af0b 683b c72a fa3c 748d 84bd 1ea2 b1bc
000001f0: 7475 c7bc 55ae 81bd ad57 a6bc f667 bdbb

encoder.W_h.weight f4 [128, 128]
0.010972044 -0.06694871 -0.114254944 -0.013069592 0.02369268 -0.06476599 0.016339231 0.057167318
0.085741945 -0.052365057 -0.051066898 -0.090262026 -0.031055586 -0.08009016 0.026472988 0.003105551
0.083008446 0.024131224 0.049414065 -0.025006205 0.03223008 -0.051686063 -0.044609133 -0.009013443
0.03500461 0.014713659 0.1080067 -0.042122565 0.011549597 -0.00087692845 -0.04009356 0.03281941
-0.0023067766 -0.055097967 -0.040477443 0.0459093 0.008647378 -0.0010454126 0.00038829283 -0.032329805
0.048202537 -0.0075712376 -0.084039964 0.04041273 -0.105518974 -0.09778929 -0.05140537 0.055176556
0.029408775 0.067803115 0.056240868 0.02463265 -0.024899859 -0.052127704 0.004553309 -0.06909408
0.06515193 -0.004895369 -0.050038937 -0.07361082 -0.0011238668 0.045978356 -0.07940481 0.1343941
0.037024084 0.06898829 0.010137354 0.007633406 -0.07870598 -0.10996655 -0.058851156 -0.032096002
-0.0032605303 -0.067802265 -0.07837007 0.008393729 -0.066707395 0.013722064 0.01754244 -0.015857436
0.023803294 -0.012873332 0.06950821 -0.07432104 0.013401001 -0.06361966 -0.050391257 -0.053243924
-0.0066443826 -0.0196435 -0.08172328 -0.0050335946 0.023940826 0.04463941 -0.0029236479 0.026159165
0.07782558 0.05069386 -0.03690068 -0.06432542 -0.083229534 0.014227576 -0.097886585 -0.044272512
0.022419877 0.018765843 -0.021342762 0.01745334 0.08059982 -0.10235667 0.08127498 0.11959447
-0.061255645 0.026096428 0.006897134 -0.037461784 0.016540792 0.068707936 -0.061276782 0.034650534
-0.09339071 -0.06901361 -0.03981525 0.017687662 -0.060360238 0.0071671098 -0.007922229 -0.008629543
0.046675406 0.008983366 0.048801254 0.048171002 0.05042292 0.025096476 0.021360235 -0.07907575
-0.06810506 -0.05616687 -0.0049663763 0.0030003549 -0.04211138 0.16721825 0.014082892 -0.05832416
0.02068846 0.08276359 0.021316966 -0.04728684 0.025302406 0.079812154 0.0516909 -0.06874812
0.11567417 0.018860852 0.015214166 0.03095033 -0.0730861 -0.07548239 -0.045603376 0.060446125
-0.039988432 -0.023839345 -0.0005665468 0.072351836 0.05214647 -0.05250733 -0.02317958 -0.03153317
-0.08404434 -0.022668293 0.047132555 -0.058705434 0.04983793 -0.026394308 -0.034097407 0.026760636
0.00832417 -0.08991345 0.04829685 0.05120332 0.011339025 -0.0949558 -0.06696626 0.029943325
0.030044656 0.006661468 -0.06664486 -0.102530465 -0.067265294 0.026083414 0.048740994 -0.0757284
-0.036363076 0.055019815 -0.023558756 -0.07771564 0.040029444 0.0152552845 -0.049528092 -0.043072585
0.076384164 0.06270764 0.015982423 -0.008176068 0.044888932 0.051532466 0.00090593507 0.021579206
-0.0053271516 0.06789369 -0.05787294 -0.046946697 -0.023868762 0.0605345 0.052912652 0.12990549
-0.05826197 0.04929386 0.07870516 0.029210674 -0.08055857 -0.009403043 -0.0587791 -0.052999698
-0.08077426 0.050310966 0.06743448 0.007095561 0.05720478 0.025031354 0.07825526 -0.011457904
-0.007290316 -0.011265985 0.077938385 -0.06327969 0.012360536 0.03393465 -0.042781994 0.0012612479
-0.09091031 -0.024035525 0.03525173 0.02960458 0.046903715 0.038125716 0.11089532 -0.0026956964
0.05828342 -0.036820576 0.015865589 0.042732764 -0.03419945 0.06358796 -0.026572207 0.070968956
00000000: 17c4 333c 681c 89bd 7ffe e9bd d821 56bc
00000010: 2717 c23c 08a4 84bd dad9 853c 4728 6a3d
00000020: 7999 af3d be7c 56bd 862b 51bd 4cdb b8bd
00000030: 4968 febc 4f06 a4bd e1dd d83c 8086 4b3b
00000040: 5500 aa3d d8ae c53c 6766 4a3d d0d9 ccbc
00000050: b003 043d c4b4 53bd 11b8 36bd 1fad 13bc
00000060: fe60 0f3d 8f11 713c 9e32 dd3d b688 2cbd
00000070: 853a 3d3c ace1 65ba 2539 24bd a56d 063d
00000080: 4a2d 17bb 68ae 61bd adcb 25bd 640b 3c3d
00000090: bbad 0d3c 3a06 89ba c893 cb39 426c 04bd
000000a0: 0670 453d 2518 f8bb 251d acbd d287 253d
000000b0: 551a d8bd c045 c8bd 708e 52bd d000 623d
000000c0: acea f03c 5cdc 8a3d d35c 663d 69ca c93c
000000d0: cafa cbbc dc83 55bd ed33 953b 3281 8dbd
000000e0: 606e 853d 5569 a0bb a1f5 4cbd 45c1 96bd
000000f0: b64e 93ba cd53 3c3d fd9e a2bd 9b9e 093e
00000100: 91a6 173d bc49 8d3d 2517 263c a721 fa3b
00000110: 9a30 a1bd 2436 e1bd e90d 71bd 1977 03bd
00000120: 9fae 55bb eadb 8abd 7d80 a0bd da85 093c
00000130: e39d 88bd 82d2 603c 2ab5 8f3c 74e7 81bc
00000140: 20ff c23c abea 52bc 525a 8e3d a135 98bd
00000150: df8f 5b3c 064b 82bd 1067 4ebd 4d16 5abd
00000160: 1fb9 d9bb 68eb a0bc 895e a7bd daf0 a4bb
00000170: 8d1f c43c d0d7 363d ac9a 3fbb bf4b d63c
00000180: 0563 9f3d 5da4 4f3d 2b25 17bd 0cbd 83bd
00000190: 3f74 aabd c71a 693c c378 c8bd 1857 35bd
000001a0: e4a9 b73c d3ba 993c 04d7 aebc 4ffa 8e3c
000001b0: 8511 a53d 60a0 d1bd 7f73 a63d f2ed f43d
000001c0: 33e7 7abd 2dc8 d53c 5a01 e23b 8771 19bd
000001d0: 8e80 873c bfb6 8c3d 5dfd 7abd b8ed 0d3d
000001e0: a143 bfbd 0257 8dbd 5115 23bd b7e5 903c
000001f0: 4c3c 77bd 13da ea3b 3dcc 01bc ed62 0dbc
00000200: b62e 3f3d f82e 133c d3e3 473d f54e 453d
00000210: 4488 4e3d 2097 cd3c a9fb ae3c 78f2 a1bd
00000220: aa7a 8bbd 3b0f 66bd fcbc a2bb 9aa1 443b
00000230: fb7c 2cbd 433b 2b3e eebb 663c 50e5 6ebd
00000240: d87a a93c f57f a93d eba0 ae3c d8af 41bd
00000250: fe46 cf3c 8e74 a33d d6b9 533d d0cb 8cbd
00000260: 94e6 ec3d 1382 9a3c d644 793c 8c8b fd3c
00000270: 2aae 95bd 8396 9abd 9bca 3abd 5b96 773d
00000280: e9ca 23bd bb4a c3bc 5084 14ba 332d 943d
00000290: 8997 553d ed11 57bd 1ae3 bdbc ed28 01bd
000002a0: 701f acbd dbb2 b9bc 110e 413d 1c75 70bd
000002b0: db22 4c3d e038 d8bc b9a9 0bbd 1f39 db3c
000002c0: 1962 083c 8b24 b8bd ebd2 453d 93ba 513d
000002d0: 51c7 393c 3078 c2bd 9b25 89bd b44b f53c
000002e0: 3620 f63c 7248 da3b 1a7d 88bd 7efb d1bd
000002f0: 63c2 89bd e2ac d53c a3a4 473d 7e17 9bbd
00000300: 73f1 14bd 755c 613d 4bfe c0bc 6129 9fbd
00000310: eaf5 233d 4df1 793c f8dd 4abd e16c 30bd
00000320: 4d6f 9c3d dd6c 803d 92ed 823c eaf4 05bc
00000330: 75dd 373d b513 533d 467c 6d3a e0c6 b03c
00000340: 638f aebb d90b 8b3d 2d0c 6dbd 2e4b 40bd
00000350: 6c88 c3bc 06f3 773d f0ba 583d f205 053e
00000360: 1aa4 6ebd 5ce8 493d 2c30 a13d 394b ef3c
00000370: e4fb a4bd 390f 1abc 5bc2 70bd 3616 59bd
00000380: fa6c a5bd df12 4e3d 171b 8a3d e181 e83b
00000390: 8f4f 6a3d 8e0e cd3c 4b44 a03d efb9 3bbc
000003a0: 9ae3 eebb f794 38bc 299e 9f3d c898 81bd
000003b0: d883 4a3c 0fff 0a3d 2c3c 2fbd 7550 a53a
000003c0: 2f2f babd 26e6 c4bc 1e64 103d 4e85 f23c
000003d0: 1c1e 403d b629 1c3d 161d e33d 48aa 30bb
000003e0: 98ba 6e3d 2cd1 16bd 8df8 813c 8d08 2f3d
000003f0: b914 0cbd 683a 823d f5ad d9bc 2c58 913d

encoder.W_h.bias f4 [128]
0.021240251 -0.07690241 -0.10153534 0.055444863 0.003288263 0.020430135 -0.08674515 -0.0075011216
0.011137073 -0.067909315 0.029720929 0.027976694 -0.09098742 -0.04440731 -0.030210102 -0.04218632
0.06774144 -0.0700408 -0.0041333414 -0.08817248 0.025326798 -0.041815236 -0.0013925454 -0.0635995
0.05194064 0.042654518 -0.045317404 -0.03542818 -0.029157186 0.03626324 -0.0039643697 0.07660991
0.017158192 0.05010454 0.00019757415 0.0473116 0.029124198 0.0654941 -0.08816052 -0.075349234
0.0373903 0.043871358 0.06462404 -0.092584744 -0.034924883 0.026861742 -0.043994483 0.004625934
-0.033817187 -0.033228315 0.037926167 0.0072589074 0.034393735 0.020732693 -0.05207358 0.058770694
0.007520084 -0.072401494 -0.062740594 0.0016125134 0.03516953 -0.012531867 -0.018938888 -0.06048776
0.07145544 0.04927417 0.014401279 0.017587446 -0.01852383 -0.030710245 -0.015763143 0.007814962
-0.043096904 0.02859527 -0.064437956 -0.042086344 0.042505313 -0.08416923 0.066532955 0.042344846
-0.078285 0.051309552 -0.04735489 -0.040568206 0.056703992 0.048522297 0.019035814 0.068461135
0.060800202 -0.074772224 -0.018579885 -0.08083607 0.02517941 -0.047829457 0.025860244 -0.05022527
0.06417624 -0.024496369 0.06994852 0.06352008 -0.023881057 0.029935384 0.012941213 -0.010082523
0.0068735164 0.038692366 -0.021919128 -0.025087507 -0.027329333 -0.0101768 0.0442724 0.03872736
-0.033524387 -0.07735042 -0.061833683 -0.046020865 0.07337403 -0.0016068914 -0.009365993 0.017178101
0.059982434 0.015155302 -0.063600175 0.041084908 -0.062922634 -0.0042287405 0.019640472 0.026977783
00000000: 0900 ae3c 037f 9dbd c3f1 cfbd 271a 633d
00000010: e67f 573b 195d a73c 71a7 b1bd f8cb f5bb
00000020: 4578 363c 0a14 8bbd 4e79 f33c 612f e53c
00000030: 9d57 babd 71e4 35bd 2d7b f7bc 90cb 2cbd
00000040: 06bc 8a3d 8d71 8fbd fb70 87bb c693 b4bd
00000050: 257a cf3c 7446 2bbd 1286 b6ba 7440 82bd
00000060: b5bf 543d 81b6 2e3d be9e 39bd 241d 11bd
00000070: 0ddb eebc c388 143d 8be7 81bb a8e5 9c3d
00000080: 568f 8c3c 6b3a 4d3d e82b 4f39 cfc9 413d
00000090: df95 ee3c c521 863d 818d b4bd b350 9abd
000000a0: 9226 193d 74b2 333d 9c59 843d 129d bdbd
000000b0: 650d 0fbd 280d dc3c 8f33 34bd 2695 973b
000000c0: e483 0abd 6a1a 08bd 7858 1b3d 21dc ed3b
000000d0: 72e0 0c3d 9cd7 a93c 1b4b 55bd 8ab9 703d
000000e0: 096b f63b 3c47 94bd 247e 80bd f95a d33a
000000f0: ed0d 103d 7652 4dbc ba25 9bbc 03c2 77bd
00000100: 3b57 923d b6d3 493d 58f3 6b3c 8c13 903c
00000110: 4abf 97bc 0d94 fbbc b521 81bc 540a 003c
00000120: 6186 30bd a140 ea3c 0cf8 83bd bb62 2cbd
00000130: 0d1a 2e3d eb60 acbd 6e42 883d ca71 2d3d
00000140: e353 a0bd f729 523d 33f7 41bd d92a 26bd
00000150: 7242 683d 51bf 463d fff0 9b3c 5a35 8c3d
00000160: a209 793d 2e22 99bd d834 98bc 628d a5bd
00000170: 0d45 ce3c d2e8 43bd ddd8 d33c 03b9 4dbd
00000180: d56e 833d 9cac c8bc 2b41 8f3d d116 823d
00000190: 35a2 c3bc 0d3b f53c 6207 543c 2b31 25bc
000001a0: 3c3b e13b e37b 1e3d be8f b3bc 5184 cdbc
000001b0: c4e1 dfbc 98bc 26bc fa56 353d 95a0 1e3d
000001c0: de50 09bd e669 9ebd 5145 7dbd 6080 3cbd
000001d0: 2045 963d 549e d2ba d273 19bc 17b9 8c3c
000001e0: 24b0 753d f24d 783c cf40 82bd a648 283d
000001f0: 95dd 80bd 3f91 8abb 0ee5 a03c 8300 dd3c

encoder.W_o.weight f4 [128, 261]
-0.016440757 0.02689369 0.048868828 0.025277697 0.024915546 -0.02456146 0.012231646 -0.08464403
0.041528124 -0.026598193 0.03890167 -0.035151225 0.0008642152 0.0027768223 0.0012341125 -0.015010042
-0.071874656 -0.012197014 -0.0152477175 -0.03913767 -0.014045924 0.04189127 0.034312293 0.020020157
0.0039345026 0.058838755 0.015510656 0.055686735 0.024145328 -0.00089278445 -0.049206443 -0.056096163
-0.052161045 0.020015389 -0.078784235 -0.041100875 -0.055397492 0.05053989 0.0021565259 -0.019482452
-0.039731666 -0.01947878 -0.032303445 0.046224184 -0.025212169 0.028788991 0.026905224 0.054895036
0.052418977 -0.045391038 -0.029748239 0.0043527484 -0.06267526 0.035944633 0.0015007034 0.041113064
0.030916803 0.008792378 0.023024157 -0.052167185 0.038557693 0.040786587 -0.023358144 -0.039647825
-0.023347888 -0.0142692365 0.03944981 -0.05731868 -0.05119868 0.010560222 -0.014799483 0.011036158
-0.04157404 -0.052837048 0.038343705 0.053958908 0.03899996 0.042516768 -0.008116655 0.04510676
0.05062466 0.040133193 -0.045664385 0.012629561 0.005217947 -0.052570514 0.05674903 0.006831296
0.046238266 0.023499705 -0.057584547 0.041280076 -0.02973869 0.013898194 -0.0036883801 0.040373653
-0.054442447 0.042705595 -0.01900499 0.026833512 -0.03678178 0.042416394 0.05570556 -0.0016552889
-0.039462604 0.04863888 0.03476143 -0.024163842 -0.048598874 -0.008647349 0.018812796 -0.020635769
-0.01871279 0.041991852 -0.016708266 0.010047851 0.0126120085 0.06178067 -0.031231716 0.05005117
-0.00029877466 0.0137071395 -0.09462093 -0.03074947 0.05626414 0.1036274 -0.0033550723 -0.053822253
0.034914598 -0.05490742 -0.023349572 -0.0046836645 0.041895084 -0.013510844 0.061621774 -0.017150905
-0.029711474 0.057097357 -0.007839676 0.001421549 -0.05350742 0.012917076 0.037600353 -0.06765362
0.012419258 -0.061950963 0.076255545 -0.04062181 -0.03463848 -0.007756805 0.028620098 -0.028792994
-0.005806459 -0.026858047 0.063495174 -0.02875703 0.005926052 0.012334201 -0.018903244 -0.025757788
0.049770694 -0.05817786 0.10612737 -0.039655533 0.025226125 0.05929158 -0.02173901 0.020458052
0.014216891 -0.07048918 -0.02385462 0.056000404 -0.02950916 -0.01810922 0.011093066 -0.011144022
-0.07637432 -0.024177965 -0.004911293 0.0415201 -0.002294995 0.040172026 0.03067976 -0.0127213495
0.046007514 0.03387318 -0.004460858 0.16181096 0.055966925 0.066578776 -0.028809965 0.067218274
0.035723835 0.04119565 -0.031500153 -0.062258445 -0.060637016 0.0016039 -0.051780816 -0.005129491
0.05251452 0.047971427 0.052997623 0.004058781 0.03954697 -0.066593625 0.03688287 0.0002593979
-0.062070392 0.013874102 -0.0373837 -0.0129578635 -0.026677681 -0.07665977 -0.00402454 0.028589178
-0.03660603 0.026331449 -0.02989345 -0.042204138 0.065684676 -0.011390521 -0.034997076 0.044953167
0.093062334 0.02313734 -0.03257946 -0.0037105428 0.01783664 0.012659304 -0.055043057 0.069505915
0.04488254 -0.025598714 -0.028471634 0.006836769 0.047028203 0.04204166 -0.017418804 -0.00071733864
0.048595507 -0.01795301 0.05262944 -0.04256189 0.05990122 0.03949907 0.0019094932 -0.034708086
0.03265375 -0.03586458 0.013801998 0.026819998 0.06286499 -0.039120197 -0.039106388 -0.010842289
00000000: c4ae 86bc 2850 dc3c ae2a 483d 2c13 cf3c
00000010: b01b cc3c 1d35 c9bc 3e67 483c d959 adbd
00000020: 6519 2a3d 74e4 d9bc 5c57 1f3d bbfa 0fbd
00000030: 808c 623a 59fb 353b f2c1 a13a aeec 75bc
00000040: 0533 93bd fcd5 47bc 90d1 79bc d24e 20bd
00000050: e020 66bc 2e96 2b3d 0c8b 0c3d 5001 a43c
00000060: 00ed 803b e800 713d 6820 7e3c c617 643d
00000070: 6ccc c53c c009 6aba b28c 49bd 17c5 65bd
00000080: d2a6 55bd 50f7 a33c a159 a1bd 6459 28bd
00000090: 7be8 62bd ea02 4f3d 8054 0d3b aa99 9fbc
000000a0: acbd 22bd f691 9fbc 9e50 04bd 9255 3d3d
000000b0: c089 cebc e4d6 eb3c 5868 dc3c 9ed9 603d
000000c0: 48b5 563d f4eb 39bd 94b2 f3bc 80a1 8e3b
000000d0: e35b 80bd ae3a 133d 40b3 c43a 2c66 283d
000000e0: 3c45 fd3c e80d 103c 289d bc3c 42ad 55bd
000000f0: acee 1d3d d60f 273d 9459 bfbc c265 22bd
00000100: 1244 bfbc 84c9 69bc 2096 213d fec6 6abd
00000110: b5b5 51bd c804 2d3c 8879 72bc 00d1 343c
00000120: 8a49 2abd a96b 58bd 4a0e 1d3d 0404 5d3d
00000130: 6cbe 1f3d 1026 2e3d b8fb 04bc dec1 383d
00000140: ce5b 4f3d b462 243d 940a 3bbd 38ec 4e3c
00000150: 50fb aa3b 2e54 57bd ac71 683d 10d9 df3b
00000160: 5664 3d3d 7482 c03c c6dd 6bbd 4c15 293d
00000170: 8e9e f3bc 40b5 633c c0b8 71bb d85e 253d
00000180: 0bff 5ebd 10ec 2e3d 5ab0 9bbc f4d1 db3c
00000190: 7ea8 16bd d0bc 2d3d 832b 643d 47f6 d8ba
000001a0: 8aa3 21bd 9039 473d 0062 0e3d 40f3 c5bc
000001b0: 9d0f 47bd 9cad 0dbc 4b1d 9a3c 580c a9bc
000001c0: 914b 99bc a6ff 2b3d c6df 88bc be9f 243c
000001d0: 99a2 4e3c ba0d 7d3d a8d9 ffbc 7502 4d3d
000001e0: dba4 9cb9 e993 603c 9ec8 c1bd 50e6 fbbc
000001f0: 3a75 663d 9a3a d43d c6e0 5bbb b974 5cbd
00000200: 9c02 0f3d 9ae6 60bd 9a47 bfbc 6d79 99bb
00000210: 2e9a 2b3d 965c 5dbc 1d67 7c3d 0e80 8cbc
00000220: 7a65 f3bc ebde 693d fc71 00bc 4553 ba3a
00000230: 992a 5bbd 25a2 533c d402 1a3d fb8d 8abd
00000240: 257a 4b3c 4bc0 7dbd de2b 9c3d 0e63 26bd
00000250: 14e1 0dbd cc2c febb b274 ea3c 49df ebbc
00000260: 1c44 bebb 6805 dcbc c209 823d dd93 ebbc
00000270: 542f c23b 6315 4a3c fada 9abc ff01 d3bc
00000280: 5bdc 4b3d e84b 6ebd 4e59 d93d d76d 22bd
00000290: 05a7 ce3c badb 723d 0216 b2bc a597 a73c
000002a0: f6ed 683c a25c 90bd c46a c3bc ae60 653d
000002b0: 32bd f1bc c959 94bc b1bf 353c 6b95 36bc
000002c0: 246a 9cbd de10 c6bc e9ee a0bb fb10 2a3d
000002d0: a067 16bb 6c8b 243d 1f54 fb3c 356d 50bc
000002e0: 6072 3c3d 9bbe 0a3d 642c 92bb c6b1 253e
000002f0: 933d 653d 745a 883d e002 ecbc bca9 893d
00000300: 2853 123d c5bc 283d 4e06 01bd b602 7fbd
00000310: 855e 78bd f439 d23a 1f18 54bd 4a15 a8bb
00000320: 7719 573d b07d 443d 0914 593d 86ff 843b
00000330: 01fc 213d 3d62 88bd 7e12 173d ccff 8739
00000340: 863d 7ebd 3450 633c a71f 19bd 384d 54bc
00000350: 278b dabc ccff 9cbd 4ae0 83bb da33 ea3c
00000360: 34f0 15bd 0db5 d73c 1ce3 f4bc 3fde 2cbd
00000370: b085 863d 4f9f 3abc 1859 0fbd d020 383d
00000380: 7797 be3d 858a bd3c 0a72 05bd 942c 73bb
00000390: 251e 923c f868 4f3c d474 61bd 1e59 8e3d
000003a0: c1d6 373d 65b4 d1bc 583d e9bc fa06 e03b
000003b0: a5a0 403d e033 2c3d e1b1 8ebc c80b 3cba
000003c0: 150c 473d 3112 93bc f891 573d 6055 2ebd
000003d0: fb5a 753d c7c9 213d f647 fa3a 112a 0ebd
000003e0: f0bf 053d bde6 12bd c721 623c 9db5 db3c
000003f0: 5cbf 803d 803c 20bd 052e 20bd dba3 31bc

encoder.W_o.bias f4 [128]
0.036512814 -0.058323547 -0.020143311 0.05055493 0.026854398 0.011438656 0.0070992373 0.050609395
-0.06681485 0.0059628165 -0.059638105 -0.045192767 0.04024484 0.033392213 -0.024227599 -0.0047851084
-0.021671575 -0.0052713463 0.025754116 0.026682531 -0.04378465 -0.012617765 0.026473278 0.01002911
-0.06235615 -0.015509843 0.007834886 0.013975381 -0.008233209 0.014764481 -0.0018319257 -0.07117474
0.041359786 0.05359911 -0.055058133 0.043453973 -0.011457689 -0.024266 -0.05712703 -0.036530953
-0.016707966 -0.05080515 0.059120826 0.04048378 -0.049060777 -0.012305231 0.04897327 -0.05364735
-0.06260985 0.0016406005 0.049257204 -0.007086967 -0.05592588 0.043689847 0.009758724 -0.060152203
0.02809378 -0.011546073 -0.011494635 0.016263822 0.049680363 -0.0035866448 0.049344376 -0.017395198
-0.01585648 -0.044505816 -0.0015718488 -0.046583872 0.0054844855 -0.060038548 -0.02240312 0.05439838
-0.045000553 0.03813272 -0.007389144 0.0022387058 -0.044531085 -0.028909162 -0.03619366 -0.06499418
0.018200453 -0.042914845 0.03235247 -0.0097141415 -0.016173 0.036698446 -0.008377094 -0.03045828
-0.043016184 -0.04491676 -0.017055102 -0.038214933 0.022817647 0.016489578 -0.048025716 -0.0088972645
-0.035906497 0.03568985 -0.011499276 -0.039755948 0.042243518 0.058669217 -0.051650256 0.025227085
-0.0032977299 0.046577346 -0.04852963 -0.029646281 -0.005064886 -0.03686412 -0.056230642 0.026399579
-0.016269203 0.025338648 -0.016893763 -0.029587775 0.0032620719 -0.024004342 -0.044475306 -0.0046511237
0.0050292043 -0.048220918 0.0582731 0.054723497 0.024083752 0.0539499 -0.03012764 -0.0449415
00000000: 768e 153d ace4 6ebd 9603 a5bc b012 4f3d
00000010: c1fd db3c 3369 3b3c b8a0 e83b cc4b 4f3d
00000020: 39d6 88bd bb63 c33b 1647 74bd 0d1c 39bd
00000030: c6d7 243d 46c6 083d f578 c6bc 66cc 9cbb
00000040: 9688 b1bc 42bb acbb 4cfa d23c 5395 da3c
00000050: 8857 33bd beba 4ebc 7dde d83c 2351 243c
00000060: 2a69 7fbd ff1c 7ebc e55d 003c fff8 643c
00000070: 95e4 06bc b9e6 713c 3a1d f0ba 10c4 91bd
00000080: e168 293d be8a 5b3d a384 61bd cbfc 313d
00000090: 08b9 3bbc 7ec9 c6bc 08fe 69bd 7ba1 15bd
000000a0: 25df 88bc 1019 50bd ae28 723d 52d2 253d
000000b0: f4f3 48bd e19b 49bc 3298 483d 53bd 5bbd
000000c0: 9839 80bd 6b09 d73a ecc1 493d ca39 e8bb
000000d0: 8912 65bd 20f4 323d 0ee3 1f3c 2862 76bd
000000e0: ed24 e63c bd2b 3dbc fe53 3cbc b53b 853c
000000f0: a37d 4b3d ea0d 6bbb 541d 4a3d 6080 8ebc
00000100: 73e5 81bc bb4b 36bd 7e06 ceba bbce 3ebd
00000110: 33b7 b33b fbea 75bd bf86 b7bc d6d0 5e3d
00000120: 8052 38bd 0e31 1c3d a220 f2bb 40b7 123b
00000130: 3a66 36bd e8d2 ecbc ce3f 14bd ab1b 85bd
00000140: 1e19 953c 7ac7 2fbd 0684 043d 1028 1fbc
00000150: 3d7d 84bc 1c51 163d 1440 09bc a583 f9bc
00000160: bd31 30bd a3fa 37bd 24b7 8bbc 4387 1cbd
00000170: 13ec ba3c 2715 873c 9db6 44bd d5c5 11bc
00000180: b112 13bd 852f 123d 7667 3cbc 22d7 22bd
00000190: 8a07 2d3d 224f 703d 388f 53bd 08a9 ce3c
000001a0: ba1e 58bb e3c7 3e3d 01c7 46bd c2dc f2bc
000001b0: 58f7 a5bb d5fe 16bd 1a52 66bd ee43 d83c
000001c0: fe46 85bc ff92 cf3c ca64 8abc 1062 f2bc
000001d0: 7cc8 553b c1a4 c4bc bd2b 36bd 7468 98bb
000001e0: 06cc a43b 4c83 45bd c6af 6e3d bf25 603d
000001f0: 4a4b c53c 92fa 5c3d 3ece f6bc 9414 38bd

ffn.1.weight f4 [1, 128]
-0.046849586 0.10919602 0.096105166 -0.064110495 0.06587783 0.017276766 -0.06161478 -0.053661622
-0.06349328 -0.11582732 0.06957912 -0.061479833 -0.057112724 -0.050587665 0.07820737 -0.044619065
0.04302064 0.06167403 0.06402929 -0.054144673 0.0420168 -0.052515674 -0.04261519 0.042592224
-0.08202988 0.16315241 0.06804626 -0.014125675 -0.036497623 -0.062268894 0.072208904 0.05613904
-0.022001889 0.08095354 -0.0668412 0.046721425 0.113405794 0.03646156 0.07488933 -0.052946318
0.0359995 -0.069490135 -0.072218046 0.05395714 -0.11304231 -0.033763822 -0.074281394 0.09249761
-0.023650516 0.06880585 0.07462731 -0.0014638201 -0.052809346 -0.08996483 -0.054268833 -0.08279283
0.087714635 -0.03543242 0.08574345 -0.09634324 0.019708173 -0.026025856 0.04419171 0.089753516
0.1077699 0.0015248053 -0.018334018 -0.022204334 0.09734934 0.01568902 -0.012467421 0.0689012
-0.082831085 0.09212918 0.09567688 0.049771044 0.08276857 0.12604895 0.042835426 -0.13333175
0.115521826 0.038012814 -0.06913891 -0.02102813 0.05165183 0.06135476 0.060117554 0.17233033
0.02818528 -0.056818 -0.03481091 -0.06796438 -0.0747824 -0.04982785 -0.107642196 -0.05345912
0.109317586 0.059638724 0.013857779 0.06613962 0.0840489 -0.06389892 -0.10884978 -0.030256767
0.08611097 -0.07686254 -0.06111754 0.11051258 0.050165206 -0.011881264 0.009554839 -0.07372758
-0.050299704 -0.04148181 -0.088001356 0.056151535 -0.026662674 0.060674638 0.05713576 0.064956404
0.08889497 -0.049446493 -0.07428935 0.031964995 0.06817163 0.111079514 -0.04023098 -0.09124897
00000000: 5ae5 3fbd 2aa2 df3d c9d2 c43d 5d4c 83bd
00000010: f5ea 863d 0188 8d3c c85f 7cbd 4acc 5bbd
00000020: c408 82bd e036 edbd 7f7f 8e3d 47d2 7bbd
00000030: 08ef 69bd 0335 4fbd 302b a03d 7bc2 36bd
00000040: 6936 303d e89d 7c3d ca21 833d cec6 5dbd
00000050: cf19 2c3d ad1a 57bd 448d 2ebd 2f75 2e3d
00000060: 48ff a7bd 6d11 273e d65b 8b3d 606f 67bc
00000070: 887e 15bd ab0d 7fbd 43e2 933d 0df2 653d
00000080: 4e3d b4bc f8ca a53d 0ae4 88bd f75e 3f3d
00000090: 4c41 e83d b758 153d 945f 993d 3dde 58bd
000000a0: 3674 133d d850 8ebd 0ee7 93bd 2902 5d3d
000000b0: ba82 e7bd ef4b 0abd d820 98bd 636f bd3d
000000c0: babe c1bc 15ea 8c3d 34d6 983d a7dd bfba
000000d0: 9d4e 58bd 7b3f b8bd ff48 5ebd 4a8f a9bd
000000e0: bba3 b33d 9621 11bd 439a af3d 9b4f c5bd
000000f0: 0973 a13c 2d34 d5bc 5e02 353d b1d0 b73d
00000100: 77b6 dc3d fadb c73a 3931 96bc dde5 b5bc
00000110: 175f c73d 4286 803c 2744 4cbc 131c 8d3d
00000120: 58a3 a9bd 39ae bc3d 3df2 c33d b9dc 4b3d
00000130: 9182 a93d fa12 013e 3374 2f3d 1e88 08be
00000140: b596 ec3d 53b3 1b3d b398 8dbd 2f43 acbc
00000150: df90 533d 214f 7b3d d33d 763d 5d77 303e
00000160: d1e4 e63c feb9 68bd e295 0ebd e930 8bbd
00000170: 8427 99bd 4a18 4cbd 8373 dcbd f3f7 5abd
00000180: e6e1 df3d bc47 743d bd0b 633c 3674 873d
00000190: d421 ac3d 70dd 82bd a2ec debd 0add f7bc
000001a0: f35a b03d 1b6a 9dbd 6356 7abd 6b54 e23d
000001b0: 087a 4d3d a2a9 42bc e68b 1c3c 7cfe 96bd
000001c0: 1007 4ebd d5e8 29bd 0e3a b4bd 27ff 653d
000001d0: ae6b dabc f885 783d 3007 6a3d dd07 853d
000001e0: 910e b63d 6888 4abd 0425 98bd baed 023d
000001f0: 919d 8b3d a87d e33d 3dc9 24bd bde0 babd
