THESIS/transfer_learning/trained/DMPNN_with_attention_QM9_cv.pt (torch, 347576 bytes, 14 tensors)

encoder.cached_zero_vector f4 [128]
0	0x00000000	0.0
1	0x00000000	0.0
2	0x00000000	0.0
3	0x00000000	0.0
4	0x00000000	0.0
5	0x00000000	0.0
6	0x00000000	0.0
7	0x00000000	0.0
8	0x00000000	0.0
9	0x00000000	0.0
10	0x00000000	0.0
11	0x00000000	0.0
12	0x00000000	0.0
13	0x00000000	0.0
14	0x00000000	0.0
15	0x00000000	0.0
16	0x00000000	0.0
17	0x00000000	0.0
18	0x00000000	0.0
19	0x00000000	0.0
20	0x00000000	0.0
21	0x00000000	0.0
22	0x00000000	0.0
23	0x00000000	0.0
24	0x00000000	0.0
25	0x00000000	0.0
26	0x00000000	0.0
27	0x00000000	0.0
28	0x00000000	0.0
29	0x00000000	0.0
30	0x00000000	0.0
31	0x00000000	0.0
32	0x00000000	0.0
33	0x00000000	0.0
34	0x00000000	0.0
35	0x00000000	0.0
36	0x00000000	0.0
37	0x00000000	0.0
38	0x00000000	0.0
39	0x00000000	0.0
40	0x00000000	0.0
41	0x00000000	0.0
42	0x00000000	0.0
43	0x00000000	0.0
44	0x00000000	0.0
45	0x00000000	0.0
46	0x00000000	0.0
47	0x00000000	0.0
48	0x00000000	0.0
49	0x00000000	0.0
50	0x00000000	0.0
51	0x00000000	0.0
52	0x00000000	0.0
53	0x00000000	0.0
54	0x00000000	0.0
55	0x00000000	0.0
56	0x00000000	0.0
57	0x00000000	0.0
58	0x00000000	0.0
59	0x00000000	0.0
60	0x00000000	0.0
61	0x00000000	0.0
62	0x00000000	0.0
63	0x00000000	0.0
64	0x00000000	0.0
65	0x00000000	0.0
66	0x00000000	0.0
67	0x00000000	0.0
68	0x00000000	0.0
69	0x00000000	0.0
70	0x00000000	0.0
71	0x00000000	0.0
72	0x00000000	0.0
73	0x00000000	0.0
74	0x00000000	0.0
75	0x00000000	0.0
76	0x00000000	0.0
77	0x00000000	0.0
78	0x00000000	0.0
79	0x00000000	0.0
80	0x00000000	0.0
81	0x00000000	0.0
82	0x00000000	0.0
83	0x00000000	0.0
84	0x00000000	0.0
85	0x00000000	0.0
86	0x00000000	0.0
87	0x00000000	0.0
88	0x00000000	0.0
89	0x00000000	0.0
90	0x00000000	0.0
91	0x00000000	0.0
92	0x00000000	0.0
93	0x00000000	0.0
94	0x00000000	0.0
95	0x00000000	0.0
96	0x00000000	0.0
97	0x00000000	0.0
98	0x00000000	0.0
99	0x00000000	0.0
100	0x00000000	0.0
101	0x00000000	0.0
102	0x00000000	0.0
103	0x00000000	0.0
104	0x00000000	0.0
105	0x00000000	0.0
106	0x00000000	0.0
107	0x00000000	0.0
108	0x00000000	0.0
109	0x00000000	0.0
110	0x00000000	0.0
111	0x00000000	0.0
112	0x00000000	0.0
113	0x00000000	0.0
114	0x00000000	0.0
115	0x00000000	0.0
116	0x00000000	0.0
117	0x00000000	0.0
118	0x00000000	0.0
119	0x00000000	0.0
120	0x00000000	0.0
121	0x00000000	0.0
122	0x00000000	0.0
123	0x00000000	0.0
124	0x00000000	0.0
125	0x00000000	0.0
126	0x00000000	0.0
127	0x00000000	0.0

encoder.W_i.weight f4 [128, 147]
0	0xbd89d396	-0.0672981
1	0x3d27fae2	0.041010745
2	0xbd5085e4	-0.050908938
3	0x3cf18291	0.029481204
4	0xbcff5e82	-0.031172995
5	0xbe0740c0	-0.13208294
6	0xbfa027a5	-1.2512099
7	0xbf4a67e4	-0.79064775
8	0xbc592b74	-0.013254989
9	0x3d95c951	0.07313789
10	0x3d8bd091	0.0682689
11	0xbc4c0f5b	-0.012454833
12	0x3d242554	0.04007466
13	0xbcd03144	-0.025414117
14	0x3cf0a3e0	0.029375017
15	0x3da0b518	0.07847041
16	0x3d45a30a	0.04825119
17	0x3d462d37	0.048382964
18	0x3c8ec495	0.017427722
19	0x3d88457d	0.06653879
20	0x3affcb12	0.0019515476
21	0x3d9b6f18	0.07589549
22	0x3bd1f7a4	0.006407695
23	0xbd1ae0ec	-0.03781216
24	0x3a2318a7	0.000622163
25	0xbc703b5a	-0.014662588
26	0x3cf8724f	0.030327944
27	0x3ce110e1	0.027473869
28	0x3b9a57a0	0.0047101527
29	0x3d0b4b74	0.034007505
30	0x3d119a5a	0.03554759
31	0xbcf73fc2	-0.03018177
32	0xbca50c69	-0.02014752
33	0x3d1cee55	0.03831323
34	0x3d96a7f5	0.07356254
35	0x3cf0920f	0.029366521
36	0x3d809640	0.06278658
37	0xbba37c74	-0.004989201
38	0xbd67aed3	-0.05656321
39	0xbd852f00	-0.06503105
40	0xbd9f56e0	-0.07780242
41	0xbda591c9	-0.08084447
42	0xbd0b6825	-0.034034867
43	0xbd1582c2	-0.036501653
44	0xbd4e9279	-0.050432656
45	0xbd426d69	-0.047467623
46	0xbd1452b8	-0.0362117
47	0xbd5f3dfd	-0.054502476
48	0x3cf21f9b	0.029556086
49	0x3ca1c8b2	0.01974902
50	0xbce8d2cc	-0.028420828
51	0x3d250d62	0.040295966
52	0x3d10f656	0.035391174
53	0xbd0c4c23	-0.034252297
54	0x3c70406d	0.014663798
55	0xbcf48b15	-0.029851476
56	0xbd94518d	-0.07242117
57	0xbd9ed671	-0.07755745
58	0xbd0d298d	-0.034463454
59	0xba5ec065	-0.0008497297
60	0xbc982c02	-0.018575672
61	0xbd4053d3	-0.04695494
62	0x3c1a90e9	0.009433963
63	0xbd8564ea	-0.065133885
64	0xbd76d3dd	-0.060260642
65	0x3d4c4396	0.049869142
66	0xbb0e6b03	-0.0021731264
67	0x3cd7c920	0.026341021
68	0x3b889553	0.0041681915
69	0xbd035ab5	-0.032068927
70	0xbd1b87af	-0.037971195
71	0x3d3e140d	0.04640584
72	0x3c9d2790	0.019183904
73	0x3bb606ee	0.0055550253
74	0xbd2111d5	-0.039323647
75	0xbd06c5c8	-0.032903463
76	0x3d3112bb	0.043230753
77	0xbccd1647	-0.025035037
78	0xbb9f9cbb	-0.0048709786
79	0xbc66c8cb	-0.014085959
80	0xbccee8c1	-0.02525747
81	0xbbe999f1	-0.007128947
82	0x3d3e467d	0.04645394
83	0x3d26a2f3	0.040682744
84	0xbd818d0b	-0.0632573
85	0x3d995708	0.07487303
86	0xbd832569	-0.0640362
87	0xbd00e743	-0.03147055
88	0xbd26b4ce	-0.040699773
89	0x3d06562b	0.03279702
90	0xbcc8aef0	-0.02449748
91	0xbd850508	-0.064951
92	0x3d9c6aeb	0.076375805
93	0x3d5893b6	0.052875243
94	0xbda129e5	-0.07869319
95	0xbd3a85dc	-0.045537814
96	0x3c228427	0.009919203
97	0x3c7abe57	0.01530417
98	0xbda7e8d4	-0.08198705
99	0xbd20bd13	-0.039242815
100	0x3da5459f	0.0806992
101	0xbd281b87	-0.041041877
102	0xbd09d6a2	-0.033651955
103	0xbf9f163a	-1.2428658
104	0xbf4d5aa0	-0.8021641
105	0x3da6eba3	0.08150413
106	0x3da0f4bf	0.078591816
107	0xbd0dddc9	-0.03463534
108	0xbcb6aae0	-0.022298276
109	0x3ccb482b	0.024814686
110	0xbf7fe19c	-0.9995363
111	0xbd97587a	-0.073899224
112	0xbe60061b	-0.21877329
113	0x3c4e4ad9	0.012591087
114	0xbe6c35b4	-0.23067361
115	0x3d17fdd0	0.03710729
116	0x3d3bf4eb	0.04588787
117	0xbd82e3f2	-0.06391133
118	0x3d40315e	0.04692208
119	0x3f1ca908	0.6119542
120	0xbf6bf409	-0.92169243
121	0xbe848546	-0.2588293
122	0xbda20ae8	-0.079122365
123	0x3d8789a0	0.06618047
124	0x3d7cf1c6	0.06175401
125	0xbf960979	-1.1721641
126	0xbf6206c3	-0.8829157
127	0xbd417b82	-0.047236927
128	0xbd9d5d0f	-0.07683765
129	0x3c4a5545	0.012349431
130	0xbd9f17a8	-0.07768184
131	0xbec532e4	-0.3851539
132	0xbe6cbb08	-0.23118222
133	0x3d88cfe3	0.06680276
134	0xbd9d709f	-0.076874964
135	0xbf17bc1b	-0.592714
136	0xbf75b5c3	-0.9598047
137	0xbe09eed0	-0.13470006
138	0x3e0e5cf5	0.13902648
139	0xbf17d24d	-0.5930527
140	0xbe12899a	-0.14310303
141	0xbcce00a4	-0.02514679
142	0x3d9366b9	0.07197327
143	0xbcaf6f27	-0.021415306
144	0xbda3b98f	-0.07994377
145	0x3cceb696	0.025233548
146	0x3c7206ad	0.014772099
147	0xbd1b0622	-0.037847646
148	0x3d61ffca	0.05517558
149	0x3cab5133	0.020912742
150	0x3d908459	0.07056493
151	0xbd70d89c	-0.058800325
152	0xbedc0f79	-0.42980555
153	0x3e5d541f	0.21614121
154	0x3c8d042a	0.0172139
155	0xbdb2888e	-0.08717452
156	0x3c4adb42	0.012381377
157	0xbcfaac5c	-0.030599765
158	0x3d800b11	0.06252111
159	0xbd8fbe7d	-0.07018755
160	0xbd8ae9a7	-0.06782847
161	0xbca84e60	-0.020545185
162	0x3d9e2ea9	0.077237435
163	0x3c88e86c	0.01671239
164	0xbcde3dba	-0.027129043
165	0xbd5f96a7	-0.054587033
166	0x3d9c07b0	0.07618654
167	0xbd8da40d	-0.06916056
168	0x3d8e0f52	0.06936516
169	0xbcb588b8	-0.02215992
170	0x3da78bac	0.08180937
171	0xbc860ebb	-0.016364446
172	0xbc1a1473	-0.00940429
173	0xbd77f7c7	-0.060539033
174	0xbd86e662	-0.06586911
175	0x3ca6bfb1	0.020355077
176	0xbc34fbe8	-0.011046387
177	0x3c8129c2	0.015766982
178	0x3b0c0e71	0.0021370912
179	0xbda78c0d	-0.081810094
180	0xbd375925	-0.04476275
181	0x3d913ec3	0.07092049
182	0xbd9d9eaf	-0.07696282
183	0x3da5e252	0.08099808
184	0xbda03ad9	-0.07823724
185	0xbd69a480	-0.057041645
186	0x3d02fc27	0.031978752
187	0xbcb10b12	-0.021611724
188	0xbd80cc68	-0.062889874
189	0xbd24e2a3	-0.0402552
190	0x3d91a4be	0.071115
191	0xbd47d994	-0.048791483
192	0xbcb0caa2	-0.021580998
193	0x3d5773da	0.05260072
194	0x3d87f4b9	0.06638474
195	0xbcf5def5	-0.03001354
196	0xbd060f3d	-0.032729376
197	0x3d8f75c2	0.070048824
198	0xbb79b06e	-0.0038099545
199	0xbbec0c34	-0.007203603
200	0x3d63c99e	0.0556122
201	0x3da6c51c	0.081430644
202	0x3c759778	0.014989726
203	0x3c5574ae	0.013028307
204	0xbb46a1e1	-0.003030889
205	0xbd9783dd	-0.07398198
206	0x3c006ab2	0.007837938
207	0x3d650af4	0.05591865
208	0xbcdf802d	-0.027282799
209	0xbd9f5682	-0.07780172
210	0xbd2d6bb6	-0.04233905
211	0xbd0cc48e	-0.034367137
212	0xbd8354ec	-0.06412682
213	0x3d97e41d	0.07416556
214	0x3d0c0f91	0.034194533
215	0xbd36a787	-0.04459336
216	0x3d5157e9	0.05110923
217	0x3cfb8006	0.030700695
218	0xbd6207e7	-0.055183318
219	0x3d2d688c	0.04233603
220	0xbd92dc2e	-0.07170902
221	0xbd4938b0	-0.049126327
222	0xbd910795	-0.07081524
223	0xbd56a248	-0.052400857
224	0xbd1a8318	-0.037722677
225	0x3d7eea83	0.062235367
226	0xbbfaa4fb	-0.0076490617
227	0x3c68510f	0.014179482
228	0xbd0bed17	-0.034161653
229	0x3d8ce2d6	0.06879203
230	0x3da636da	0.08115931
231	0x3d8efd87	0.0698195
232	0x3c844471	0.016145917
233	0xbd89cdbd	-0.067286946
234	0xbb3ef318	-0.0029136594
235	0x3d6a429d	0.057192434
236	0x3d14e01f	0.03634655
237	0x3c5a0e44	0.013309065
238	0xbc6dbec8	-0.014510818
239	0x3b8cfa55	0.004302303
240	0xbd9d14dc	-0.07669994
241	0xbadfd190	-0.0017076004
242	0xbbb991f3	-0.0056631505
243	0x3cb01d63	0.021498388
244	0x3ce9f14f	0.028557448
245	0xbc3fd4cc	-0.01170845
246	0xbda0268e	-0.07819854
247	0xbcdbd903	-0.026836878
248	0x3d2fc182	0.042909153
249	0xbdc5807d	-0.09643648
250	0xbcf4090b	-0.029789468
251	0x3e7886a4	0.24270111
252	0xbe601df2	-0.21886423
253	0x3c8fa224	0.01753337
254	0xbd10cdd6	-0.03535255
255	0xbeedfde3	-0.46482763

encoder.W_i.bias f4 [128]
0	0xbe0a4f01	-0.135067
1	0xbe49a917	-0.19693409
2	0xbda318e4	-0.07963732
3	0xbdefb878	-0.117051065
4	0xbe0a22d9	-0.13489856
5	0xbe4c5e07	-0.19957744
6	0xbd92b838	-0.07164043
7	0xbd9fb3f5	-0.07797996
8	0xbe0798ad	-0.13241835
9	0xbe32b39b	-0.17451327
10	0xbcb5add4	-0.022177614
11	0xbe302214	-0.172005
12	0xbd1c03b9	-0.038089488
13	0xbd93be37	-0.07214015
14	0xbe05acab	-0.13054149
15	0xbe17b649	-0.1481563
16	0x3d9ebffd	0.077514626
17	0xbda32e5e	-0.07967828
18	0xbdd19369	-0.102331944
19	0xbdcb2196	-0.099185154
20	0xbcc88098	-0.02447538
21	0xbccb61e7	-0.024826957
22	0xbd4082d0	-0.046999753
23	0xbea0f219	-0.31434706
24	0xbe735828	-0.23764098
25	0xbe4d9a35	-0.20078357
26	0xbdd46660	-0.10371089
27	0x3d005572	0.031331487
28	0xbe6881d7	-0.2270578
29	0xbd5843c4	-0.052799
30	0xbe5e0810	-0.21682763
31	0xbe487d59	-0.19579066
32	0xbd85c32d	-0.065313675
33	0xbce0a627	-0.027422978
34	0xbd4ead50	-0.050458252
35	0xbdb62103	-0.08893015
36	0xbd1a9dd6	-0.03774818
37	0xbe57cd3e	-0.21074387
38	0xbdae1a71	-0.08501137
39	0xbe02dd3f	-0.12779711
40	0xbd2b5073	-0.04182477
41	0xbd6ccc11	-0.0578118
42	0xbeb13344	-0.34609425
43	0xbe880f30	-0.26574087
44	0xbddd66a8	-0.10810596
45	0xbd03b879	-0.03215835
46	0xbd874004	-0.06604007
47	0xbe841aa8	-0.25801587
48	0xbe2c77b8	-0.16842544
49	0xbd765b47	-0.060145643
50	0xbd976497	-0.07392233
51	0x3ce0a7ca	0.027423758
52	0xbd9dbd8c	-0.07702169
53	0xbe1961d9	-0.14978732
54	0xbe424c02	-0.18974307
55	0xbddfc886	-0.10926919
56	0xbdf5affd	-0.11996458
57	0xbdca5bb4	-0.09880772
58	0xbe071102	-0.13190082
59	0xbe09aef9	-0.13445653
60	0xbe2165d5	-0.15761502
61	0xbdb25964	-0.08708456
62	0x3d8e16af	0.0693792
63	0xbda52d87	-0.08065324
64	0xbd0af129	-0.033921394
65	0xbda6211e	-0.08111785
66	0xbde03957	-0.10948437
67	0xbd8b3845	-0.06797842
68	0xbe0ad884	-0.13559157
69	0xbda3b850	-0.07994139
70	0xbe31cfe2	-0.17364457
71	0xbd5371be	-0.051622145
72	0x3dab197f	0.08354472
73	0xbe564df1	-0.2092817
74	0xbe4e0d4e	-0.20122263
75	0x3d20db19	0.039271448
76	0x3e0be5cf	0.13661884
77	0xbe1564a6	-0.14589176
78	0xbcfeb4df	-0.031092105
79	0xbe2405ae	-0.16017792
80	0xbd2bd267	-0.041948702
81	0xbd70b0cb	-0.058762353
82	0xbe11488f	-0.14187835
83	0xbe1e0f7d	-0.15435596
84	0xbe31b722	-0.17355016
85	0xbd89002f	-0.06689488
86	0xbda6e8ba	-0.08149858
87	0xbeb211ff	-0.34779355
88	0xbdf62a15	-0.12019745
89	0xbda0bb87	-0.07848268
90	0xbec204a7	-0.37894174
91	0xbe0f4bad	-0.13993712
92	0xbe6f8726	-0.23391399
93	0xbd5ef870	-0.054436147
94	0xbe0d5fbd	-0.13806053
95	0xbde84481	-0.11341191
96	0xbc9c67f6	-0.019092541
97	0xbe84ac0b	-0.25912508
98	0xbe966a37	-0.2937791
99	0xbe20edae	-0.15715668
100	0xbe342754	-0.17593127
101	0xbdaca1c0	-0.08429289
102	0xbe33aa3f	-0.17545412
103	0xbe52e86e	-0.20596477
104	0xbe67cdc8	-0.22637093
105	0xbe85deb6	-0.26146477
106	0xbd2799cd	-0.04091816
107	0xbe3f39e1	-0.18674423
108	0xbe02bd55	-0.12767537
109	0xbceb17e5	-0.028697917
110	0xbc7f5339	-0.015583807
111	0xbe5835df	-0.211143
112	0xbdab6167	-0.083681874
113	0xbd9b13cc	-0.07572135
114	0xbe407035	-0.18792804
115	0xbe544bcf	-0.20732044
116	0xbd91a574	-0.07111636
117	0xbe8502b8	-0.25978637
118	0xbe002174	-0.12512761
119	0xbdbfbe9b	-0.09362527
120	0xbe32100d	-0.17388935
121	0xbdee8bc7	-0.11647754
122	0xbd86453a	-0.06556173
123	0xbda36cb6	-0.07979719
124	0xbcbb85a3	-0.022890871
125	0xbe2a85cb	-0.166526
126	0xbe1c6720	-0.15273714
127	0xbd3ba5ad	-0.045812298

encoder.W_h.weight f4 [128, 128]
0	0xbdd438c6	-0.10362391
1	0x3ef35ad1	0.47530225
2	0x3d829a90	0.06377137
3	0xbd515647	-0.05110767
4	0xbdf12998	-0.117755115
5	0xbe0fd8c8	-0.14047539
6	0xbe181db1	-0.14855076
7	0xbd50c798	-0.050971597
8	0x3e4d3bb7	0.2004231
9	0x3d926673	0.07148447
10	0x3d9318dc	0.07182476
11	0xbdddfc80	-0.10839176
12	0xbeac8ced	-0.33701268
13	0xbb3060a3	-0.0026913069
14	0xbcd608f9	-0.026127325
15	0x3c91d1bb	0.017800203
16	0xbe810a6b	-0.2520326
17	0x3e478263	0.19483332
18	0x3ca9d4b7	0.020731313
19	0xbe9222d2	-0.2854219
20	0xbe038035	-0.12841876
21	0x3e467ef5	0.19384368
22	0x3dc01644	0.09379247
23	0x3e4017af	0.18759035
24	0x3eb56d4f	0.35434958
25	0x3d03cdfd	0.032178868
26	0x3cef8489	0.029238002
27	0x3dbdb4c5	0.09262995
28	0x3e803e36	0.25047463
29	0x3e4a0676	0.19729027
30	0xbd401004	-0.046890274
31	0xbd29359e	-0.0413109
32	0xbf0d875f	-0.55284685
33	0xbd6480fa	-0.055787064
34	0x3d8b4fe7	0.068023495
35	0x3dc72fa1	0.09725881
36	0x3bb3ea13	0.0054905503
37	0xbd27cdc2	-0.04096771
38	0xbbb44f38	-0.0055026077
39	0x3dd5f0c3	0.10446312
40	0x3de850c9	0.113435335
41	0x3e74c6db	0.23903982
42	0xbd5ae8a9	-0.05344454
43	0x3cb4044d	0.021974707
44	0x3e285f39	0.16442575
45	0xbeae2cdb	-0.34018597
46	0x3dd3b4bb	0.10337206
47	0x3e761a6d	0.24033518
48	0x3b804a68	0.00391512
49	0x3e940f52	0.28917938
50	0x3d3a44ef	0.045475896
51	0xbe791ef7	-0.24328218
52	0x3c341388	0.010990985
53	0xbe662f93	-0.22479086
54	0xbd789349	-0.060687337
55	0x3e3d5562	0.18489602
56	0x3dacbc82	0.084343925
57	0xbe14224f	-0.14466213
58	0xbd417f24	-0.04724039
59	0x3dc993cd	0.09842644
60	0x3db04798	0.086074054
61	0xbd51e954	-0.05124791
62	0x3e0b3447	0.13594161
63	0x3bfd510c	0.007730609
64	0xbeb418c6	-0.3517515
65	0x3e423212	0.18964413
66	0xbe87f9bc	-0.2655772
67	0x3de5e657	0.112255745
68	0x3e29c47a	0.16578856
69	0x3e8afe07	0.27146932
70	0x3e2aa258	0.16663492
71	0xbe9eb844	-0.3099996
72	0x3e486d08	0.19572842
73	0x3d7aa124	0.061188832
74	0xbdadb79a	-0.08482285
75	0x3e3843a3	0.17994551
76	0xbf3f3fdb	-0.7470681
77	0x3d4b5b5a	0.049647667
78	0xbdac2e94	-0.084073216
79	0x3d72d4b7	0.059284892
80	0xbd2094a8	-0.03920427
81	0x3e467a16	0.1938251
82	0xbbf21438	-0.007387664
83	0x3e73990f	0.23788856
84	0x3de1ce18	0.110256374
85	0xbd03d850	-0.032188714
86	0x3d2ecfad	0.042678524
87	0x3dd98144	0.106203586
88	0xbb75bb74	-0.0037495764
89	0xbe113751	-0.14181258
90	0xbdcfd026	-0.10147123
91	0xbe19183a	-0.14950648
92	0xbe076e71	-0.13225724
93	0xbd8846b9	-0.06654114
94	0xbd86e8ac	-0.065873474
95	0x3cd5b5c5	0.026087651
96	0xbcd1cd07	-0.02561046
97	0x3e3e4329	0.18580307
98	0x3d6eb5aa	0.058278717
99	0x3e5c6e62	0.21526483
100	0xbd866976	-0.06563084
101	0x3e357ed5	0.17724164
102	0x3e74e104	0.23913962
103	0x3ce2681c	0.027637534
104	0x3de630e7	0.11239796
105	0xbd497867	-0.04918709
106	0xbd0e2e42	-0.034712084
107	0xbcd9b280	-0.026574373
108	0x3e92a099	0.2863815
109	0xbd1db386	-0.038501285
110	0x3e84ea95	0.25960222
111	0xbf1d5b4d	-0.6146744
112	0x3e223b1f	0.15842865
113	0x3dc5f6cf	0.09666216
114	0x3d0ade45	0.03390338
115	0xbd82402f	-0.06359898
116	0x3c2c4d95	0.010516544
117	0xbf0e96c3	-0.55698794
118	0xbef38731	-0.4756408
119	0x3ee8de5c	0.45482147
120	0x3e14ac7b	0.14518921
121	0x3e44669b	0.19179766
122	0x3db22f1f	0.08700394
123	0x3b5f3974	0.0034061344
124	0x3e4da3f8	0.2008208
125	0xbd11fdfb	-0.035642605
126	0x3e0ec986	0.13944063
127	0x3dabb6dd	0.08384488
128	0x3eb10ef6	0.34581727
129	0xbd0d52ad	-0.034502674
130	0x3e3137a8	0.17306387
131	0xbd681128	-0.056656986
132	0xbebb5039	-0.36584643
133	0x3cafa05f	0.021438776
134	0xbdaeb430	-0.08530462
135	0xbda1d97e	-0.079028115
136	0xbf39a5ce	-0.7251862
137	0xbf18de73	-0.5971443
138	0x3e663797	0.22482143
139	0x3e3e9533	0.18611602
140	0xbef5fa5c	-0.48042572
141	0x3e5dcf67	0.21661149
142	0xbe372419	-0.17884864
143	0x3e4aba8c	0.19797724
144	0xbef24be9	-0.4732354
145	0x3e501f52	0.20324448
146	0xbc984f63	-0.018592542
147	0x3e687414	0.2270053
148	0x3bf5627f	0.0074885483
149	0xbeeb75b8	-0.4598825
150	0x3dc95f69	0.09832651
151	0xbd990a32	-0.07472648
152	0xbe0460e0	-0.1292758
153	0x3ea7e0de	0.32788748
154	0x3e0a418a	0.13501564
155	0xba08e470	-0.0005222028
156	0x3e65971e	0.22420928
157	0x3ecaae2e	0.39586014
158	0xbdc87c2e	-0.097893104
159	0x3f06d476	0.5266794
160	0x3e92422a	0.28566104
161	0xbdf343f9	-0.11878199
162	0x3f0c490e	0.5479897
163	0x3db209c6	0.086932704
164	0xbeb0de9f	-0.34544846
165	0xbe86a185	-0.26295105
166	0xbf0a0a55	-0.53922015
167	0x3e0fd4bc	0.14045995
168	0x3e50e0fc	0.20398325
169	0x3dd3a21d	0.10333655
170	0x3dfa8955	0.12233225
171	0xbed7c3ae	-0.4214148
172	0x3920218f	0.0001527129
173	0xbe49a404	-0.19691473
174	0xbeaea280	-0.34108353
175	0x3d37a4be	0.044834845
176	0xbd94d522	-0.07267214
177	0xbe9a2acc	-0.30110776
178	0xbe0ba42d	-0.13636847
179	0xbf0e0868	-0.55481577
180	0x3e17b078	0.14813411
181	0xbe73d209	-0.23810591
182	0x3e0ddfc0	0.13854885
183	0xbda07300	-0.078344345
184	0xbeaa9cca	-0.33322746
185	0x3e2dd898	0.16977155
186	0x3edc86b3	0.43071517
187	0xbd7d2752	-0.061805077
188	0x3e292b0a	0.16520324
189	0xbc8c21fb	-0.017106047
190	0xbd92c304	-0.071661025
191	0xbd75fd60	-0.06005609
192	0xbf03844c	-0.51373744
193	0x3e63e978	0.2225703
194	0xbe02c7e2	-0.12771562
195	0xbcfa8b8e	-0.030584123
196	0xbefcb61d	-0.4935769
197	0xbedf87ab	-0.43658194
198	0xbe56a9e3	-0.20963244
199	0xbecca38e	-0.39968532
200	0xbe4ac6fe	-0.19802472
201	0xbecf5ed3	-0.40502033
202	0xbf01a154	-0.5063679
203	0x3dbe0f7a	0.09280296
204	0xbe573263	-0.21015315
205	0xbcec550f	-0.028849153
206	0x3dc90a46	0.09816413
207	0xbd84abef	-0.06478106
208	0xbdfc9f36	-0.123350546
209	0xbea271f9	-0.3172758
210	0x3cc30220	0.023804724
211	0x3eb2767a	0.34856015
212	0xbef5b918	-0.47992778
213	0x3d1d9fdd	0.038482536
214	0xbe41a360	-0.18909979
215	0x3bc28b01	0.0059369807
216	0xbeb38197	-0.35059807
217	0xbe6015c8	-0.21883309
218	0x3e22dc0b	0.15904252
219	0x3e304838	0.1721505
220	0xbea715bf	-0.32633778
221	0x3bec1a20	0.007205263
222	0xbea3ad68	-0.31968236
223	0xbcd5d029	-0.026100235
224	0xbeea52ba	-0.4576624
225	0xbd5937cb	-0.053031724
226	0x3ed28f0f	0.4112477
227	0x3e868d99	0.26279905
228	0xbf81d7c7	-1.0143975
229	0x3de74c2f	0.11293828
230	0x3d8e2582	0.06940748
231	0x3e91a1f2	0.28443867
232	0xbd6dbcda	-0.05804143
233	0xbd5bf1fa	-0.053697564
234	0x3d3ba5b5	0.045812327
235	0xbe92b7b1	-0.2865577
236	0x3deecdf0	0.11660373
237	0xbdd0f035	-0.10202066
238	0xbf1e97b1	-0.6195021
239	0xbe4898be	-0.19589517
240	0xbedb9166	-0.42884368
241	0x3dab3055	0.08358828
242	0xbe35ff15	-0.17773087
243	0xbe7672d7	-0.24067245
244	0x3e52e4d3	0.20595102
245	0x3e8cb245	0.2747976
246	0xbe0534d4	-0.13008434
247	0x3db4c761	0.08827091
248	0x3e41387d	0.18869205
249	0x3e837fe6	0.25683516
250	0x3e74b0bf	0.23895548
251	0x3eb6322a	0.35585147
252	0xbddf9650	-0.10917342
253	0xbf3e5a14	-0.743562
254	0x3d5776c9	0.052603517
255	0x3ac9846e	0.001537455

encoder.W_h.bias f4 [128]
0	0xbe4980b0	-0.19677997
1	0xbdd8f154	-0.10592905
2	0xbd472c75	-0.048626382
3	0xbdcf6622	-0.10126902
4	0x3cc4f824	0.024044104
5	0x3d10ff07	0.035399463
6	0xbc87c724	-0.01657445
7	0xbe322b3e	-0.17399308
8	0x3bdad185	0.0066778087
9	0xbd82650c	-0.063669294
10	0xbbeb2b7a	-0.0071768137
11	0xbdea39e8	-0.11436826
12	0xbe236e56	-0.15960059
13	0xbe007ea1	-0.12548305
14	0xbd91b605	-0.071147956
15	0xbd6d5c05	-0.057949085
16	0xbec83ca5	-0.39108768
17	0xbd49d4fa	-0.049275376
18	0x3df7fc90	0.12108719
19	0xbdb68741	-0.089125164
20	0xbb8ac0ab	-0.0042343936
21	0xbd9f80a1	-0.07788206
22	0xbe064d9d	-0.13115545
23	0x3c618638	0.01376491
24	0x3c3b546e	0.011433704
25	0x3d01f216	0.03172501
26	0xbd4695f1	-0.04848284
27	0xbd797cf9	-0.0609102
28	0x3ca68b58	0.020330116
29	0x3c47092a	0.012148181
30	0x3e299826	0.16561946
31	0xbddf9420	-0.109169245
32	0x3c8bf517	0.017084641
33	0xbdb32814	-0.08747879
34	0xbd8cfb86	-0.06883912
35	0xbdadd66f	-0.084881656
36	0x3ce8012b	0.02832087
37	0x3dac1df7	0.08404153
38	0x3d9edff8	0.077575624
39	0x3dbea280	0.09308338
40	0xbce7bfae	-0.028289642
41	0xbc1eb35d	-0.009686318
42	0x3c9b2c0e	0.018941905
43	0x3ddf6245	0.10907415
44	0x3de7f0f0	0.11325252
45	0x3e0649e7	0.13114129
46	0x3d4de192	0.05026395
47	0xbc7d9a2a	-0.01547865
48	0xbe021e26	-0.12706813
49	0x3cb91384	0.022592314
50	0xbdeb017f	-0.11474895
51	0x3e2b60cd	0.16736145
52	0xbd77133a	-0.06032107
53	0xbdfc1ccb	-0.12310179
54	0x3dcc323b	0.09970518
55	0x3d5ff0d9	0.05467305
56	0x3d593731	0.05303115
57	0x3d49af53	0.049239468
58	0xbe36e06e	-0.1785905
59	0xbc217753	-0.009855109
60	0xbd6e24df	-0.05814063
61	0xbcce4050	-0.025177151
62	0xbe2c7321	-0.16840793
63	0xba08f243	-0.0005224088
64	0xbef77f19	-0.48339155
65	0xbdda0a6e	-0.106465206
66	0xbd23dc23	-0.04000486
67	0xbd629f6c	-0.055327818
68	0x3a6269df	0.0008636992
69	0xbe94481b	-0.28961262
70	0x3cfac6bd	0.030612344
71	0xbd04875b	-0.032355648
72	0x3d0b300f	0.03398138
73	0x3e7c0744	0.24612147
74	0xbc104f46	-0.008807963
75	0xbdc30608	-0.09522635
76	0x3e840975	0.25788465
77	0xbcf8cf16	-0.030372184
78	0xbdd8024f	-0.10547315
79	0xbc408c4f	-0.011752202
80	0xbcd28591	-0.025698455
81	0xbdce5db7	-0.100764684
82	0xbdbf82c5	-0.09351114
83	0x3dc15e54	0.0944182
84	0x3db2a986	0.0872374
85	0xbe8250f9	-0.25452402
86	0xbb6ddeb9	-0.0036296083
87	0xbb243725	-0.0025057283
88	0xbe87fd2b	-0.2656034
89	0x3c132d1a	0.008982921
90	0x3da80982	0.082049385
91	0x3d2cab85	0.04215576
92	0xbc0b8fae	-0.008518143
93	0xbdbaf8ca	-0.09129484
94	0xbcea467f	-0.028598068
95	0x3c41bef4	0.011825312
96	0x3c871b37	0.01649247
97	0xbd36f050	-0.044662774
98	0xbc0c4ae3	-0.008562776
99	0xbcdb1d65	-0.026747415
100	0xbd6e2ce6	-0.058148287
101	0x3bbee95e	0.0058261594
102	0x3e41e797	0.18936001
103	0x3e053163	0.13007121
104	0x3e0f28a3	0.13980345
105	0x3e0a57ac	0.13510007
106	0x3bb74304	0.0055927057
107	0x3d99daf5	0.07512466
108	0x3d1c7c9e	0.03820478
109	0xb7843eb6	-1.5764828e-05
110	0xbda840f9	-0.082155176
111	0xbdb4aba3	-0.088217996
112	0xbcfd997d	-0.030956978
113	0xbd8770b5	-0.06613294
114	0x3e154408	0.14576733
115	0xbd2ef6a6	-0.04271569
116	0xbd982532	-0.074289694
117	0xbe416a57	-0.18888222
118	0x3cc86017	0.024459882
119	0xbe3716b5	-0.17879756
120	0x3e1511e2	0.14557603
121	0xbd17281e	-0.036903493
122	0xbe132033	-0.14367752
123	0xbdb1bb4a	-0.08678301
124	0xbc5e18f2	-0.013555752
125	0x3bb31ef6	0.0054663373
126	0x3d9d50a5	0.07681397
127	0xbcfd0fe1	-0.03089136

encoder.W_o.weight f4 [128, 261]
0	0x3ce7f8c8	0.02831687
1	0x3d7a8e24	0.061170712
2	0x3d6f73c4	0.058460012
3	0x3d50e8ab	0.05100314
4	0x3d0535b2	0.03252191
5	0xbda976e8	-0.08274633
6	0xbe26b5c8	-0.16280282
7	0x3ce4dbaa	0.027936775
8	0x3e5c3884	0.21505934
9	0x3d21fb49	0.039546285
10	0x3c541f8a	0.012946973
11	0x3c642d79	0.013926857
12	0xbd6379f5	-0.05553623
13	0xbd5156d7	-0.051108208
14	0x3cba27dd	0.022724086
15	0x3cd44888	0.025913492
16	0xbd1aecc8	-0.03782347
17	0xbc680522	-0.01416138
18	0xb9a3afc3	-0.00031220735
19	0xbc9a0631	-0.01880178
20	0x3ce96081	0.0284884
21	0xbc15d658	-0.009145342
22	0xbd12c198	-0.035829157
23	0x39ad8747	0.0003309792
24	0x3ccd2790	0.025043279
25	0xbccdf2f2	-0.02514026
26	0xbd002eea	-0.03129474
27	0xbd6a58ef	-0.05721372
28	0x3b2ef3fc	0.002669572
29	0x3c9eb837	0.01937495
30	0x3d437833	0.047722053
31	0xbd2c9323	-0.042132508
32	0xbcd6aa7b	-0.026204338
33	0xbcdf772a	-0.027278502
34	0x3d16f8b8	0.03685829
35	0x3cb25422	0.021768633
36	0xbc4da345	-0.0125511335
37	0x3b334cac	0.0027358932
38	0x3cc2a3e9	0.0237598
39	0xbcb65979	-0.02225946
40	0xbcdce42e	-0.026964273
41	0x3b9607cd	0.0045785666
42	0xbd7cca41	-0.06171632
43	0xbc62d290	-0.013844147
44	0x3cb2a302	0.021806244
45	0x3cc17687	0.023616089
46	0x3cd38fbc	0.025825374
47	0x3d56902c	0.052383587
48	0x3c59277e	0.013254045
49	0x3d0fda22	0.035120137
50	0x3d6e885e	0.05823552
51	0xbbdf1362	-0.0068077305
52	0xbd67b1df	-0.056566115
53	0x3d4c86f4	0.04993339
54	0xbd6ea1d8	-0.058259815
55	0xbcc0f42f	-0.023553936
56	0xbc9c8a92	-0.019109044
57	0xbba6c655	-0.005089561
58	0xbd4d2168	-0.050080687
59	0xbbf88051	-0.007583656
60	0x3beb4a9e	0.007180526
61	0x3d4ad24e	0.04951697
62	0x3d4ead92	0.0504585
63	0x3cdcb556	0.026941936
64	0xbd3bec7b	-0.045879822
65	0x3ceb694e	0.028736737
66	0x3d69053a	0.05688975
67	0x3d2f2010	0.042755187
68	0xbd3fafd0	-0.046798527
69	0x3c3c913d	0.011509237
70	0x3d3565c1	0.044286493
71	0xbd1d36ed	-0.03838246
72	0x3d6bf116	0.057602964
73	0xbd1a7227	-0.03770652
74	0xbd42cddf	-0.047559615
75	0xbc9ed688	-0.019389406
76	0xbd51f328	-0.051257282
77	0xbca60c87	-0.020269645
78	0xbbb59430	-0.005541347
79	0xbd2ebcff	-0.04266071
80	0x3d53a88a	0.051674403
81	0x3c85d2c3	0.01633585
82	0xbc4bfd76	-0.0124505665
83	0x3c6dddde	0.014518229
84	0xbc777571	-0.015103684
85	0x3bd51d2b	0.0065037212
86	0x3d33f69b	0.043936353
87	0x3cfd8384	0.0309465
88	0x3d14a33e	0.036288492
89	0x3c8c7794	0.017146863
90	0x3d18b22b	0.03727929
91	0x3c921e15	0.01783661
92	0xbc707040	-0.0146752
93	0xbd3de4a4	-0.046360627
94	0xbcaaab05	-0.020833502
95	0xbcd251b3	-0.025673723
96	0xbbee9788	-0.0072812475
97	0x3cfa652a	0.030565817
98	0xbd7a92b7	-0.061175074
99	0xbc43872c	-0.011934083
100	0xbd421dea	-0.04739181
101	0xbc85f30b	-0.016351243
102	0xbdf276f0	-0.11839092
103	0x3dba25ef	0.090892665
104	0xbd021eb8	-0.031767577
105	0xbf170bd6	-0.59002435
106	0xbc370be9	-0.011172273
107	0x3d1cc6d2	0.038275547
108	0x3f49d83a	0.7884556
109	0x3d7a23bb	0.06106923
110	0xbf1145b7	-0.56747
111	0xbcbe08c3	-0.023197537
112	0xbe5a69aa	-0.2132937
113	0xb843e899	-4.6708246e-05
114	0xbdb41f3e	-0.087950215
115	0x395d5753	0.00021108733
116	0xbc9208de	-0.017826494
117	0xbd611c21	-0.054958466
118	0x3cf71aae	0.030164089
119	0xbdf5aa6d	-0.11995397
120	0xbe49571d	-0.19662137
121	0x3e9853c6	0.29751414
122	0xbe946591	-0.2898374
123	0xbd5343f2	-0.05157847
124	0xbc65b8aa	-0.014021078
125	0xbeca1714	-0.39470732
126	0x3dd4ac78	0.10384458
127	0xbeb8684b	-0.3601707
128	0x3d2b0a7f	0.041758057
129	0xbc8c6fcf	-0.017143158
130	0xbc0b0fa7	-0.0084876185
131	0x3ef2336b	0.47304854
132	0xbdd7480b	-0.10511788
133	0x3eaa81eb	0.33302245
134	0x3e02208a	0.12707725
135	0xbec9cd6f	-0.39414546
136	0xbeef6cb2	-0.46762615
137	0xbe814e93	-0.2525526
138	0xbd3ab2e6	-0.045580767
139	0x3e2bff2c	0.16796559
140	0xbe51b6ef	-0.2047994
141	0xbf03047b	-0.5117871
142	0xbce2d5e2	-0.027689878
143	0xbcbfe7f4	-0.023426034
144	0xbe4acb95	-0.19804223
145	0xbe1318c5	-0.14364918
146	0xbe82c310	-0.25539446
147	0xbd583249	-0.05278233
148	0xbe53aa5b	-0.20670454
149	0x3e94d640	0.2906971
150	0xbe7faef3	-0.24969082
151	0x3e31d116	0.17364916
152	0x3e5839bd	0.21115775
153	0x3e772c3b	0.24137966
154	0x3eab0e6d	0.33409443
155	0x3c690d02	0.014224293
156	0xbe6b891a	-0.23001519
157	0x3eb23e1c	0.3481301
158	0xbf5c2011	-0.8598643
159	0xbdc9716a	-0.09836085
160	0x3c275db4	0.010215212
161	0xbd330323	-0.043704163
162	0x3e993ed1	0.29930738
163	0xbe8a1213	-0.26966915
164	0x3dc1c974	0.09462252
165	0xbdb007cf	-0.08595239
166	0xbdc996e5	-0.09843234
167	0xbf84d0cb	-1.0376219
168	0xbe44ce42	-0.19219306
169	0x3d98ae44	0.074551135
170	0xbe3d914b	-0.18512456
171	0x3e5e42ea	0.21705213
172	0xbf2365b0	-0.6382704
173	0xbed32ef2	-0.41246754
174	0x3e99088a	0.29889327
175	0xbf019b68	-0.50627756
176	0xbf190314	-0.5977032
177	0x3eab3eee	0.3344645
178	0x3e6c37ad	0.23068114
179	0xbed74fd5	-0.42053095
180	0x3f48066f	0.78134817
181	0x3dc8fa2b	0.09813341
182	0xbdf652c6	-0.120275065
183	0x3e9a7382	0.3016625
184	0xbdc315a5	-0.09525613
185	0x3e4fa65f	0.2027831
186	0xbec3ee3a	-0.3826769
187	0x3e0db67c	0.13839144
188	0xbe3071db	-0.17230932
189	0xbe75b6df	-0.23995541
190	0x3d6dc0d7	0.058045235
191	0x3c140de8	0.009036519
192	0xbe9759e4	-0.2956077
193	0x3e101057	0.14068733
194	0x3cdac46d	0.026704991
195	0xbc8bcc97	-0.01706533
196	0x3d6538de	0.055962436
197	0xbf02e73b	-0.5113408
198	0x3f0091c5	0.50222427
199	0xbe76ec1b	-0.24113505
200	0xbc52cd3c	-0.0128663145
201	0xbe8f5eed	-0.2800211
202	0x3e76bbf0	0.2409513
203	0xbd514caf	-0.05109852
204	0xbf0fecb1	-0.5622054
205	0xbe7b0544	-0.24513727
206	0xbec9193a	-0.3927706
207	0x3ea09e00	0.31370544
208	0x3d098919	0.033578012
209	0xbdc6f04f	-0.09713804
210	0xbe9eae1b	-0.30992207
211	0xbf58f60c	-0.8475044
212	0xbdf56cf8	-0.11983675
213	0x3e059681	0.13045694
214	0xbe197594	-0.14986259
215	0xbcaa88e0	-0.02081722
216	0x3e33cba1	0.17558147
217	0xbe85d3fa	-0.26138288
218	0xbed8e767	-0.42364046
219	0x3bd3e28d	0.006466216
220	0xbe1f46d8	-0.15554368
221	0xbea86305	-0.32888046
222	0xbc10c4d8	-0.008835994
223	0x3e4b3dd3	0.19847803
224	0x3e650194	0.22363883
225	0xbdf8e11e	-0.12152313
226	0x3df27394	0.11838451
227	0xbeafe0d4	-0.34351218
228	0x3dba860e	0.091076
229	0xbd57d9af	-0.052697834
230	0xbf546768	-0.82970285
231	0xbe1a1357	-0.1504644
232	0xbf4374a4	-0.76349854
233	0x3e8e8492	0.27835518
234	0x3c593465	0.013257121
235	0xbebc4a2c	-0.3677534
236	0xbde252b1	-0.110509284
237	0xbe17de6d	-0.14830942
238	0xbe983f89	-0.29735973
239	0xbd272855	-0.040809948
240	0xbe8a0b52	-0.26961762
241	0x3ea094c2	0.31363493
242	0xbdc5e691	-0.09663118
243	0x3ea82feb	0.32849059
244	0xbe6b4831	-0.22976758
245	0xbda86545	-0.08222441
246	0x3bf7424b	0.0075457445
247	0xbe9cfa06	-0.30659503
248	0xbdb8b814	-0.09019485
249	0xbf02378d	-0.50866014
250	0x3e03672d	0.12832327
251	0x3e7d2149	0.24719729
252	0x3e4dba5c	0.20090622
253	0x3e26bbc9	0.16282572
254	0xbef07c87	-0.46970007
255	0x3d98467a	0.07435317

encoder.W_o.bias f4 [128]
0	0xbd8283a2	-0.06372763
1	0xbcdb29ca	-0.026753325
2	0xbdc31155	-0.0952479
3	0xbb8cb9f5	-0.0042946287
4	0xbdd0e23a	-0.10199399
5	0x3acf2fe8	0.0015807124
6	0xbdc3dcaa	-0.09563573
7	0xbcef4cb1	-0.029211374
8	0xbd3c07a2	-0.045905717
9	0xbe1e1021	-0.1543584
10	0xbcb31c65	-0.021864126
11	0xbd792e0b	-0.060834926
12	0x3e18c657	0.1491941
13	0xbe8301d2	-0.25587326
14	0x3db73f06	0.08947568
15	0x3c072d52	0.008250551
16	0x3d812fdb	0.06307956
17	0xbdd2218c	-0.10260305
18	0x3e281aba	0.16416445
19	0x3e0da0cc	0.1383087
20	0xbc348f70	-0.011020526
21	0x3db63ead	0.08898673
22	0xbdba3b6e	-0.090933666
23	0xbcfc82a1	-0.030824007
24	0x3bb53c45	0.0055308663
25	0xbdb4a793	-0.08821025
26	0xbdcd7f3c	-0.10034034
27	0xbe5d81d0	-0.21631551
28	0xbd102e85	-0.035200614
29	0x3de483b1	0.11157931
30	0xbc927d9a	-0.017882157
31	0x3d8ad857	0.06779545
32	0xbd3c6509	-0.045994792
33	0x3c360a0b	0.011110793
34	0xbc99c45f	-0.018770395
35	0xbd8d6c38	-0.06905407
36	0xbe5752a3	-0.21027617
37	0xbde6e598	-0.1127426
38	0xbdf25ef6	-0.118345186
39	0xbd27a69f	-0.040930387
40	0xbdb29c3c	-0.087212056
41	0x3db36e77	0.08761304
42	0x3c297e05	0.010344987
43	0x3d8b1adc	0.067922324
44	0x3e3989a2	0.18118909
45	0xbdf43c48	-0.1192556
46	0x3d57315f	0.05253732
47	0xbda2e082	-0.07952978
48	0xbcf46d23	-0.029837197
49	0xbd8ca704	-0.06867793
50	0x3c656636	0.01400142
51	0x3b779595	0.0037778367
52	0xbda49614	-0.08036438
53	0xbd6d3a9d	-0.057917226
54	0xbc31f55a	-0.010861719
55	0xbd0caf2e	-0.034346752
56	0xbd943526	-0.072367
57	0xbdc9cd56	-0.09853618
58	0xbe53644d	-0.2064373
59	0xbdcc6112	-0.09979452
60	0xbd835f47	-0.06414657
61	0x3e831ccf	0.25607917
62	0xbd8ad006	-0.067779586
63	0xbe0028f7	-0.12515627
64	0x3dd39acd	0.1033226
65	0xbe8dfee8	-0.2773354
66	0xbbf222ac	-0.007389387
67	0xbd0ac3d4	-0.033878163
68	0x3db12a83	0.086506866
69	0xbdd105a3	-0.10206153
70	0xbde816c9	-0.11332471
71	0xbd8f7f58	-0.07006711
72	0x3dccc92d	0.09999309
73	0xbda2317e	-0.07919596
74	0xbddf7def	-0.10912692
75	0xbc2dadd4	-0.010600526
76	0xbb8825bf	-0.0041548903
77	0x3e4dcd0c	0.2009775
78	0x3d66781d	0.056266893
79	0xbd014a65	-0.03156509
80	0x3d8d8647	0.06910377
81	0x3dc3eb25	0.09566335
82	0x3e03ac61	0.12858726
83	0xbc900487	-0.017580284
84	0xbbd5940d	-0.006517893
85	0x3c9ba7e2	0.019000951
86	0x3dd4fd73	0.10399904
87	0xbca746d1	-0.02041951
88	0xbe09aea7	-0.13445531
89	0xbd80ea2c	-0.06294665
90	0x3d1bfdbb	0.038083773
91	0x3b1fd53a	0.0024388568
92	0xbd02183e	-0.0317614
93	0xbe0b0a27	-0.13578092
94	0x3cb9f337	0.022698982
95	0x3d8e90f8	0.06961244
96	0x3d436fb4	0.04771395
97	0x3e253b05	0.16135795
98	0x3d6b6ad5	0.05747493
99	0xbd1f7de1	-0.038938407
100	0xbe22b1c5	-0.15888126
101	0xbb3faad8	-0.0029246118
102	0xbda41927	-0.0801261
103	0xbc40e364	-0.011772964
104	0xbd7e9a66	-0.062158965
105	0x3d82f3a5	0.06394128
106	0x3c3f3aca	0.011671731
107	0xbe24ad6e	-0.16081783
108	0xbde84c83	-0.113427185
109	0xbbba3f78	-0.0056838356
110	0xbdb4a0ef	-0.08819758
111	0x3bf5b18e	0.007497973
112	0x3d3876c1	0.045035128
113	0xbc5b4c11	-0.013384835
114	0xbde8e8a6	-0.11372499
115	0xbe7e11ad	-0.2481143
116	0xbd9e65e6	-0.07734279
117	0xbdf13339	-0.11777348
118	0xbcde96df	-0.02717155
119	0x3dd8040b	0.10547646
120	0xbda66014	-0.08123794
121	0x3d031e7d	0.032011498
122	0xbe6e8736	-0.23293766
123	0xbddf1015	-0.10891739
124	0xbb70053f	-0.003662422
125	0x3cbf4a0c	0.023350738
126	0xbd001c19	-0.031276796
127	0x3d8b27bc	0.06794688

ffn.1.weight f4 [64, 128]
0	0xbdc6c6fd	-0.09705923
1	0xbdbd2b70	-0.09236801
2	0xbd0784ad	-0.033085514
3	0x3d2b2cd3	0.041790795
4	0xbd4946a2	-0.049139626
5	0x3dc60c4b	0.096703134
6	0xbdb0ea5d	-0.08638451
7	0x3e52f311	0.20600535
8	0x3e082a2e	0.1329734
9	0x3e36b09a	0.17840806
10	0xbd6eddf7	-0.05831715
11	0x3d43123b	0.047624808
12	0x3e851e5f	0.25999734
13	0x3e836eb1	0.25670388
14	0xbe77af2a	-0.24187914
15	0x3eb210fc	0.34778583
16	0xbd8c86f3	-0.06861677
17	0xbd9d2e1a	-0.07674809
18	0xbe58df19	-0.21178855
19	0xbb59fa60	-0.0033260807
20	0x3d097229	0.033556137
21	0xb9f442a3	-0.00046588955
22	0xbd6cdb1f	-0.057826158
23	0xbefc3484	-0.49258816
24	0x3e310814	0.17288238
25	0x3d137ca8	0.036007553
26	0xbe69d49d	-0.22835012
27	0x3f11cab5	0.5694993
28	0x3d92315d	0.071383215
29	0xbeb9929d	-0.3624467
30	0xbe8d99be	-0.27656358
31	0x3e041914	0.12900192
32	0x3cc11f0d	0.023574376
33	0xbd37fbd3	-0.044917893
34	0xbcdb258c	-0.026751302
35	0x3f048cb6	0.5177721
36	0x3cc39345	0.023873935
37	0xbe5678f9	-0.20944585
38	0xbec3d508	-0.38248467
39	0x3d51b201	0.05119515
40	0x3d420a22	0.047372945
41	0xbdea25f3	-0.114330195
42	0xbf3432b9	-0.70389897
43	0xbe3875de	-0.18013713
44	0x3e45a47f	0.19301032
45	0x3d0eae15	0.034833986
46	0xbbd75ed3	-0.006572583
47	0xbe194747	-0.14968596
48	0xbda581c7	-0.08081394
49	0xbd199870	-0.03749889
50	0xbd62ae94	-0.055342272
51	0x3b81703f	0.0039501484
52	0xbd36f49d	-0.044666875
53	0x3da47405	0.080299415
54	0x3dd9d654	0.10636583
55	0x3d66f422	0.056385167
56	0xbcaa7458	-0.02080743
57	0x3e8532a8	0.2601521
58	0x3e676742	0.22597983
59	0x3e7de8ab	0.24795787
60	0xbce15245	-0.02750505
61	0xbebaa810	-0.36456347
62	0x3d9aa53a	0.07551046
63	0x3d89a700	0.06721306
64	0x3da58d7f	0.08083629
65	0x3eed7d43	0.4638463
66	0x3d9c0fc0	0.076201916
67	0xbee56f9e	-0.4481172
68	0xbefb3eed	-0.49071446
69	0x3ce88562	0.028383914
70	0xbe5906f4	-0.21194059
71	0x3ce64f6b	0.028114041
72	0x3d8b0cb4	0.06789532
73	0x3daddb34	0.08489075
74	0xbca9ebb3	-0.020742273
75	0xbdddf13c	-0.108370274
76	0xbf4d9602	-0.8030702
77	0x3e8ba38f	0.27273223
78	0x3dfd405d	0.12365792
79	0xbd88e584	-0.06684402
80	0x3d8d56d2	0.06901325
81	0xbe92a487	-0.2864115
82	0x3d9fc449	0.0780111
83	0x3c958e1b	0.018256238
84	0x3d22c8ef	0.039742406
85	0xbd577e15	-0.052610476
86	0x3e85678d	0.26055565
87	0xbe611e32	-0.21984175
88	0x3e25b1d1	0.16181113
89	0xbdf4072e	-0.11915432
90	0xbdba6600	-0.09101486
91	0xbf073330	-0.5281248
92	0x3cb9f61e	0.022700366
93	0xbdc42fa1	-0.09579397
94	0xbde6a030	-0.11261022
95	0xbde59087	-0.11209207
96	0x3e5dc91e	0.21658751
97	0xbd69dabd	-0.05709337
98	0x3d68ec46	0.056865953
99	0xbe0fdd6e	-0.14049312
100	0x3ea9e940	0.33185768
101	0xbe2a426c	-0.166269
102	0xbd77c758	-0.060492843
103	0x3ec3ff1a	0.38280565
104	0xbe2d5aaa	-0.16929117
105	0xbca38fda	-0.019966055
106	0xbd9ed934	-0.07756272
107	0x3e23ef3e	0.16009232
108	0xbd8d9043	-0.06912281
109	0xbf04b76d	-0.51842386
110	0xbb8960c6	-0.0041924445
111	0xbba04548	-0.0048910715
112	0x3d8922f8	0.06696123
113	0xbca63982	-0.020291094
114	0x3dc3888e	0.0954753
115	0x3f1ce05b	0.6127984
116	0xbda390ea	-0.079866245
117	0x3ddf9e1f	0.10918831
118	0xbec0ef77	-0.37682697
119	0x3da16acf	0.078817
120	0x3d57c515	0.052678186
121	0x3eeb33b9	0.459379
122	0xbf90e144	-1.1318746
123	0xbd4bee65	-0.049787898
124	0x3e1a2498	0.15053022
125	0xbdad7889	-0.08470256
126	0xbeb053ec	-0.34439027
127	0xbdcc22fa	-0.09967609
128	0xbdd730b7	-0.105073385
129	0xbdf41454	-0.1191794
130	0x3c289af6	0.010290852
131	0xbda84b09	-0.08217437
132	0xbda47b70	-0.08031356
133	0xbcd6e55b	-0.026232412
134	0xbd704433	-0.05865879
135	0x3e4bf5e5	0.1991802
136	0x3e862edc	0.26207626
137	0x3f2f9916	0.68592966
138	0xbd8d4c1b	-0.068992816
139	0x3db6c69e	0.08924602
140	0x3eb8564f	0.36003348
141	0x3eff83ec	0.49905336
142	0xbe1fae26	-0.15593776
143	0xbe14f086	-0.14544877
144	0xbe171b60	-0.14756536
145	0x3d25a38c	0.040439174
146	0xbe08ff17	-0.13378559
147	0xbd279826	-0.040916584
148	0x3e36a70a	0.17837158
149	0xbdab1066	-0.08352737
150	0x3bdbf026	0.0067119775
151	0xbecf95a8	-0.40543866
152	0x3e017299	0.12641372
153	0xbdb6bb66	-0.08922462
154	0x3e52c8ff	0.20584486
155	0x3e345d90	0.17613816
156	0x3c04ded3	0.008109766
157	0xbdcdf8f7	-0.10057252
158	0xbecc59e4	-0.3991233
159	0x3ed8691b	0.4226769
160	0xbd5d56e6	-0.05403795
161	0x3c82bd24	0.01595933
162	0xbdae19a9	-0.08500988
163	0xbd7ce6c6	-0.06174352
164	0xbd86155f	-0.06547045
165	0xbe80ca3d	-0.25154296
166	0xbe937cd8	-0.28806186
167	0x3d1ad0de	0.037796848
168	0x3a8fe8da	0.0010979429
169	0xbe0d8f9a	-0.13824311
170	0x3e0df166	0.13861617
171	0x3dffb1a0	0.12485051
172	0xbe130be8	-0.1436001
173	0x3c9e8ca6	0.019354176
174	0xbe42b651	-0.1901486
175	0xbe0bf6ad	-0.13668318
176	0xbda9157d	-0.08256052
177	0xbcfffd0f	-0.031248597
178	0x3d1def61	0.038558368
179	0x3de15f20	0.11004472
180	0xbd8fc4b7	-0.07019942
181	0xbdcd11fb	-0.10013195
182	0x3dcff821	0.10154749
183	0x3d805c15	0.06267563
184	0x3c709cc6	0.014685815
185	0xbeb5e044	-0.35522664
186	0x3cc32bd7	0.023824615
187	0x3ed177af	0.40911624
188	0xbdb5658f	-0.088572614
189	0xbf341828	-0.7034936
190	0x3d262a85	0.040567894
191	0x3da4e76f	0.08051955
192	0x3d03022d	0.031984497
193	0x3ed3df10	0.4138112
194	0xbd934e1b	-0.07192632
195	0xbe42b7a5	-0.19015367
196	0xbe9c5aaf	-0.30537936
197	0x3dc1709a	0.09445305
198	0x3d02251a	0.031773664
199	0x3ce62108	0.028091922
200	0x3d01dda4	0.031705514
201	0xbd22b4b7	-0.039723124
202	0xbd38e754	-0.045142487
203	0x3d922312	0.071355954
204	0x3defe7a0	0.11714101
205	0xbdc332fc	-0.09531209
206	0x3e75087f	0.23929022
207	0xbd47e5c7	-0.048803117
208	0xbe58e1d9	-0.21179904
209	0xbdfcdb51	-0.12346519
210	0xbc6d470f	-0.014482274
211	0xbd69afc7	-0.0570524
212	0xbd48f4df	-0.049061652
213	0x3e59c4ee	0.21266529
214	0x3d1c2936	0.03812524
215	0xbe3074a5	-0.17231996
216	0x3ceabc19	0.028654145
217	0x3d2575a6	0.0403954
218	0xbd1a3aae	-0.037653618
219	0xbe576c53	-0.21037416
220	0x3d251a11	0.040308062
221	0x3ea7a1da	0.3274067
222	0xbe024b6e	-0.12724087
223	0xbec54561	-0.38529494
224	0xbdeb687b	-0.114945374
225	0xbe6caef2	-0.23113611
226	0xbebf8f56	-0.37414044
227	0xbd91f069	-0.07125933
228	0x3e337d6c	0.17528313
229	0xbdec357a	-0.11533637
230	0xbdcc0827	-0.099624924
231	0x3e71b603	0.23604588
232	0xbe8f8981	-0.28034595
233	0xbcd2a602	-0.025713924
234	0x3cd72b15	0.02626566
235	0x3e52b682	0.20577434
236	0xbcce3667	-0.025172425
237	0xbd7343b9	-0.059390757
238	0x3da6ddf6	0.081478044
239	0xbdcb9f66	-0.09942512
240	0xbda5dc92	-0.08098711
241	0x3d72dad9	0.05929074
242	0xbdb9c674	-0.09071055
243	0x3eef2a4c	0.46711957
244	0x3cf4874f	0.029849676
245	0x3e1a1105	0.15045555
246	0xbe28c08d	-0.16479702
247	0x3dfa5ee1	0.12225128
248	0x3dab60b4	0.08368054
249	0xbe19b191	-0.15009142
250	0x3e9b9099	0.30383757
251	0xbd8829e9	-0.06648619
252	0xbe98ad17	-0.29819557
253	0xbd078af3	-0.033091497
254	0xbe163edb	-0.14672415
255	0x3dd7b821	0.10533167

ffn.1.bias f4 [64]
0	0x3e407e96	0.18798289
1	0x3e0c8e1b	0.13726084
2	0xbe647fa7	-0.2231432
3	0x3d4c89a8	0.049935967
4	0xbdef9d7f	-0.11699962
5	0x3c977930	0.018490404
6	0x3db66e1e	0.08907722
7	0xbd301b39	-0.04299471
8	0x3dc64404	0.09680942
9	0xbe46bd09	-0.19408049
10	0x3e2a86bc	0.1665296
11	0xbe0c44c7	-0.13698111
12	0x3d7529f8	0.059854478
13	0xbe991d7a	-0.299053
14	0x3e135122	0.14386418
15	0x3d884420	0.06653619
16	0x3ce9b28e	0.028527524
17	0x3d9b8ecd	0.075955965
18	0x3e8fd2b3	0.28090438
19	0xbd8e10d8	-0.069368064
20	0x3e8b5edd	0.27220812
21	0x3e558fe8	0.20855677
22	0xbd7141e8	-0.058900744
23	0xbe56e6c8	-0.20986474
24	0x3d41b165	0.047288317
25	0xbe68e8d0	-0.22745061
26	0x3e9e7c8b	0.30954394
27	0xbb2a90bd	-0.0026026212
28	0x3c9e5c4b	0.019331118
29	0x3db31889	0.08744914
30	0xbdbae0ac	-0.09124884
31	0x3de95685	0.113934554
32	0xbe4f4b4c	-0.20243567
33	0xbde9a6b3	-0.114087485
34	0xbe31fd87	-0.1738187
35	0xbca08463	-0.019594377
36	0x3e786fc3	0.24261384
37	0x3e68dd4e	0.22740671
38	0x3e2b6571	0.16737916
39	0x3bdfe38c	0.0068325456
40	0xbe664534	-0.22487336
41	0xbb1b6a4f	-0.0023714488
42	0x3d5d3865	0.05400886
43	0xbd0e101f	-0.034683343
44	0xbd826d0e	-0.06368457
45	0xbe594519	-0.21217765
46	0x3d1cdb58	0.03829512
47	0xbe8a82a3	-0.27052793
48	0xbbbce51b	-0.005764616
49	0xbaa02611	-0.0012218376
50	0xbe5f16be	-0.21786019
51	0xbe295786	-0.16537294
52	0x3dfd107f	0.12356662
53	0xbcc13ffa	-0.023590077
54	0x3d316098	0.04330501
55	0xbe78994d	-0.2427723
56	0xbe763bb8	-0.24046218
57	0xbe58f533	-0.21187286
58	0xbd914421	-0.07093073
59	0x3d51f92f	0.05126303
60	0x3df44b95	0.11928479
61	0xbdc01922	-0.09379794
62	0xbe1e65b5	-0.15468486
63	0x3e6368cf	0.2220795

ffn.4.weight f4 [64, 64]
0	0x3e2ebeb7	0.1706494
1	0xbdd0b127	-0.10190039
2	0x3cd16317	0.025559945
3	0xbd9d5aea	-0.07683356
4	0x3d476446	0.048679613
5	0xbc4a9489	-0.012364515
6	0xbd35d339	-0.04439089
7	0x3d1b02ff	0.037844654
8	0x3d9c0fd8	0.076202095
9	0xbe2bdb2c	-0.16782826
10	0x3bcd79ae	0.006270609
11	0x3dbf1c17	0.093315296
12	0x3da95969	0.08269007
13	0x3df12607	0.11774831
14	0xbcc9a741	-0.024615886
15	0xbc99e40c	-0.018785499
16	0xbc7f4789	-0.01558102
17	0xbdb53dd4	-0.088496834
18	0x3c80dba8	0.01572974
19	0xbd2d0711	-0.042243067
20	0x3e37fd28	0.17967665
21	0xbd17d46c	-0.037067816
22	0xbca02914	-0.019550838
23	0x3d6ddec9	0.058073793
24	0x3d17bd88	0.037045985
25	0x3dc2e6c9	0.09516675
26	0xbd84f968	-0.06492883
27	0x3dc18fee	0.094512805
28	0xbd44af5b	-0.048018795
29	0xbba92db4	-0.005162919
30	0x3d0473af	0.032336887
31	0xbe0334fc	-0.1281318
32	0x3cfd768d	0.030940318
33	0xbd81bf00	-0.063352585
34	0x3c87cf10	0.016578227
35	0x3c2537b1	0.010084079
36	0xbd62826e	-0.05530017
37	0x3d6fd59d	0.058553327
38	0xbde1ac1d	-0.11019156
39	0xbbaad686	-0.0052135615
40	0xbdc3c7b5	-0.095595755
41	0x3c6c9add	0.014441219
42	0xbc416b17	-0.011805317
43	0xbca33376	-0.019922
44	0xbdb8b770	-0.09019363
45	0x3d6ea19f	0.058259603
46	0x3d69a02f	0.05703753
47	0x3d57f8d7	0.052727547
48	0x3ca19322	0.019723479
49	0xbd9f8d08	-0.077905715
50	0xbd840f66	-0.064482495
51	0xbe2cc7b9	-0.16873063
52	0xbcfdb89e	-0.030971821
53	0x3dab2957	0.08357494
54	0x3c6b4e79	0.014361971
55	0x3cb68084	0.022278078
56	0xbd7535e9	-0.059865866
57	0x3b32a4b4	0.0027258815
58	0x3d9e9b64	0.07744482
59	0x3d392d16	0.045209013
60	0x3cd45f36	0.025924306
61	0xbbabe634	-0.005245948
62	0x3ce8a979	0.028401123
63	0xbe2c36ce	-0.16817781
64	0x3e1028f5	0.14078124
65	0xbd919f6e	-0.07110487
66	0x3d8697cc	0.06571922
67	0x3dc575a2	0.09641577
68	0x3b9b3f37	0.0047377604
69	0xbe410ea0	-0.18853235
70	0x3d061e2b	0.032743614
71	0x3e0e509c	0.13897938
72	0x3d5e9805	0.054344196
73	0xbd1ff5ea	-0.03905288
74	0xbd59d64f	-0.053182896
75	0x3da5670e	0.08076297
76	0x3e4deaa6	0.20109043
77	0xbdfebd41	-0.12438441
78	0xbe7d8122	-0.24756292
79	0x3e572b39	0.21012582
80	0xbd0944cd	-0.03351288
81	0xbddcdba7	-0.10784083
82	0x3db99e36	0.090633795
83	0xbd8d5abf	-0.06902074
84	0x3dca2777	0.098708086
85	0xbc36e655	-0.011163314
86	0x3bd89272	0.0066092545
87	0xbe37212b	-0.17883746
88	0x3dedd7c9	0.116134234
89	0x3db68c18	0.089134395
90	0xbe00870e	-0.1255152
91	0x3e22a995	0.15885003
92	0xbe0ece99	-0.13945998
93	0xbc1e5f6a	-0.009666303
94	0xbda8b0fc	-0.08236882
95	0xbd2c257f	-0.042027947
96	0x3b38bcd1	0.0028188715
97	0x3e99d635	0.3004624
98	0x3d96f10e	0.07370196
99	0x3e8f67d1	0.28008893
100	0x3d15f4ef	0.03661054
101	0xbd96967d	-0.07352922
102	0x3d0502ba	0.032473303
103	0xbe19952d	-0.14998312
104	0x3d3856e7	0.04500475
105	0x3ccfd7bb	0.025371423
106	0xbe5bbac9	-0.21457972
107	0x3d8db7fb	0.06919857
108	0x3e06a2c5	0.13148029
109	0xbe19369e	-0.14962241
110	0x3de1aa7e	0.11018847
111	0x3d64674f	0.055762585
112	0x3da5bbc3	0.08092453
113	0x3e78c882	0.24295238
114	0x3dc06f9b	0.09396287
115	0x3de24b09	0.11049468
116	0x3e222769	0.15835346
117	0xbc3bff3d	-0.011474428
118	0x3cfa2281	0.03053403
119	0xbe3fc125	-0.18726023
120	0x3e08e0c1	0.13366987
121	0xbe6769f6	-0.22599015
122	0x3d49911a	0.049210645
123	0xbd5f324d	-0.05449133
124	0xbd1a67f1	-0.037696782
125	0x3d7b3d7c	0.061337933
126	0xbc7c6c70	-0.015406713
127	0xbc2fec9e	-0.010737566
128	0x3dcff584	0.1015425
129	0x3d4aebf8	0.049541444
130	0x3e25fb22	0.16209081
131	0xbd82da7e	-0.0638933
132	0xbdf83496	-0.12119405
133	0xbe3cb56a	-0.18428579
134	0x3c906117	0.017624421
135	0x3d68846a	0.056766905
136	0xbdb6dadf	-0.08928465
137	0xbe00ec56	-0.12590155
138	0xbdf1c25c	-0.11804649
139	0xbddc6450	-0.107613206
140	0xbcc1820c	-0.023621581
141	0x3a5cdfa8	0.00084256614
142	0xbe8fda19	-0.28096083
143	0x3e0c666a	0.13710943
144	0x3e2dc20f	0.16968559
145	0xbe1ab0bb	-0.1510648
146	0xbdeb7262	-0.11496426
147	0xbdacec1a	-0.0844347
148	0xbc39ab22	-0.011332305
149	0x3d2546ac	0.0403506
150	0xbd93ee14	-0.07223144
151	0xbd930544	-0.07178739
152	0x3e2abd12	0.16673687
153	0xbd864247	-0.0655561
154	0xbe1da694	-0.15395576
155	0x3e9a67ec	0.3015741
156	0xbe35879a	-0.17727509
157	0x3d804c91	0.06264604
158	0x3d2dd5a0	0.042440057
159	0x3d3871b8	0.045030326
160	0xbdb2645a	-0.08710547
161	0x3e9eebf8	0.31039405
162	0xbd5972af	-0.053087886
163	0x3e9ff15a	0.31238824
164	0xbe2b64fc	-0.16737741
165	0xbc29c835	-0.0103626745
166	0x3dc09869	0.0940407
167	0xbe622ff4	-0.22088605
168	0x3d7c01fc	0.06152533
169	0x3bb93614	0.0056521986
170	0x3b74fdec	0.0037382795
171	0xbdd55e61	-0.10418392
172	0x3e29b512	0.16572979
173	0x3ce62c72	0.028097365
174	0x3ddc00d2	0.10742344
175	0x3e1790ca	0.14801326
176	0x3e685a99	0.2269081
177	0xbd1d5e59	-0.038420055
178	0xbd47db03	-0.04879285
179	0x3ca9790c	0.020687602
180	0x3e173f3d	0.14770217
181	0xbb6f5a88	-0.0036522467
182	0x3db950d0	0.09048617
183	0xbd6508b6	-0.05591651
184	0x3e3c8e20	0.18413591
185	0xbdbefc3c	-0.09325454
186	0x3e03d9f8	0.12876117
187	0x3d0ce1ef	0.034395155
188	0xbdf3ca79	-0.11903853
189	0xbc66ff1f	-0.014098912
190	0xbc694c9d	-0.014239457
191	0xbdc316e6	-0.09525852
192	0x3d81526a	0.06314547
193	0xbd3e2b5a	-0.046428062
194	0xbe0feddb	-0.14055578
195	0x3d62d92e	0.0553829
196	0xbc3e51e9	-0.011616209
197	0xbdda31d4	-0.10654035
198	0xbe0b4334	-0.13599855
199	0x3c5adbb8	0.013358049
200	0x3cd9aeef	0.026572673
201	0xbe9d6414	-0.30740416
202	0xbda18139	-0.078859754
203	0xbd7a5151	-0.061112706
204	0x3db2e69e	0.08735393
205	0xbd6d1cd6	-0.05788883
206	0xbdda8bea	-0.10671218
207	0x3d131fe4	0.035919085
208	0xbdd3c050	-0.10339415
209	0xbe506bd5	-0.20353635
210	0xbdb5ce7a	-0.08877273
211	0xbc561116	-0.013065597
212	0xbe439d54	-0.19102985
213	0xbe065e53	-0.1312192
214	0xbd6a34b3	-0.057179164
215	0xbe2e4d77	-0.17021738
216	0x3d02fcf7	0.031979527
217	0x3e30687c	0.17227358
218	0xbe6609fb	-0.22464745
219	0xbd1dd564	-0.038533583
220	0x3c90b858	0.017666027
221	0x3dbf6491	0.093453534
222	0xbe54f717	-0.20797382
223	0x3daef2b4	0.08542386
224	0x3dd106e4	0.102063924
225	0x3da0d2c4	0.078527
226	0x3dc6bc04	0.0970383
227	0x3cd9d3df	0.026590286
228	0xbda24722	-0.07923724
229	0xbe4805c8	-0.19533455
230	0xbddac0a0	-0.106812716
231	0xbe2a1c8c	-0.16612452
232	0x3dca0ec1	0.09866095
233	0x3c5fd5f9	0.013661855
234	0xbc7e26bf	-0.0155121675
235	0xbd011368	-0.031512648
236	0xbdf617f7	-0.1201629
237	0x3da053b8	0.07828468
238	0xbda701dc	-0.081546515
239	0xbdfbc2b3	-0.12292995
240	0xbdba14ce	-0.090859994
241	0x3d912670	0.070874095
242	0x3df164fb	0.117868386
243	0xbc90369b	-0.017604163
244	0xbe3b9479	-0.18318357
245	0x3d347f40	0.044066668
246	0x3e4c9069	0.19976963
247	0xbe75d209	-0.24005903
248	0x3e730a1d	0.23734327
249	0xbe1477cb	-0.14498822
250	0xbe4e9a76	-0.2017611
251	0x3dbe1a26	0.09282331
252	0xbe119447	-0.1421672
253	0x3d4f686b	0.05063669
254	0xbe2aa5e6	-0.16664848
255	0x3c778719	0.015107893

ffn.4.bias f4 [64]
0	0xbdd6bc4c	-0.104851335
1	0xbe3801de	-0.17969462
2	0xbdefddc3	-0.117122196
3	0xbebe9596	-0.372235
4	0xbec32348	-0.38112855
5	0xbd7ab65e	-0.061209075
6	0xbc8d08b1	-0.017216058
7	0x3d863672	0.06553353
8	0xbdfddf6a	-0.123961285
9	0xbe819b51	-0.2531381
10	0xbe95817c	-0.2920035
11	0xbcbe6ba8	-0.023244694
12	0x3d302e0f	0.043012675
13	0xbbf3bbac	-0.0074381437
14	0x3cd22039	0.02565013
15	0xbd8a5188	-0.06753832
16	0x3cd0335d	0.025415117
17	0x3e0023db	0.12513678
18	0xbecbbc53	-0.39792117
19	0xbe176414	-0.1478427
20	0xbc666211	-0.014061467
21	0xbdcdf046	-0.10055594
22	0xbcdef4e3	-0.02721638
23	0xbe7c01fc	-0.24610132
24	0x3dbaf2b3	0.091283225
25	0x3d0bfcc5	0.034176607
26	0xbeb5fd90	-0.35545015
27	0xbe02545c	-0.12727493
28	0x3d9905c9	0.074718066
29	0xbd96dea2	-0.073666826
30	0xbcf2f29a	-0.029656697
31	0xbe31a481	-0.1734791
32	0x3d2d597c	0.042321667
33	0x3b902207	0.0043985876
34	0xbe1d761f	-0.15377091
35	0x3df6ad80	0.12044811
36	0xbe5e8ed3	-0.2173417
37	0x3ef24e40	0.47325325
38	0xbe75c6d6	-0.24001631
39	0x3e055a56	0.13022742
40	0xbe6e7ae3	-0.23289065
41	0xbe25b020	-0.16180468
42	0xbdbfd5bc	-0.093669385
43	0x3e28f511	0.16499735
44	0x3d84cb80	0.06484127
45	0x3c99121d	0.018685395
46	0xbe999d0f	-0.3000264
47	0xbeb46b6a	-0.352382
48	0x3de62562	0.11237599
49	0x3cae2330	0.021257013
50	0xbea0b6fa	-0.313896
51	0xbcdf2d09	-0.027243154
52	0xbe8165fe	-0.25273126
53	0x3dfabc17	0.122429065
54	0x3da8e384	0.0824652
55	0xbec2eb93	-0.38070354
56	0x3e056065	0.13025053
57	0xbe1f6ef9	-0.15569676
58	0xbd9ea64e	-0.07746564
59	0x3d0dfd83	0.034665596
60	0xbe88afb3	-0.26696548
61	0xbe68e39a	-0.22743073
62	0xbdced2ba	-0.10098787
63	0x3e32977b	0.17440598
