THESIS/transfer_learning/trained/DMPNN_with_attention_QM9_g298.pt (torch, 347576 bytes, 14 tensors)

encoder.cached_zero_vector f4 [128]
00000000: 0000 0000 0000 0000 0000 0000 0000 0000
00000010: 0000 0000 0000 0000 0000 0000 0000 0000
00000020: 0000 0000 0000 0000 0000 0000 0000 0000
00000030: 0000 0000 0000 0000 0000 0000 0000 0000
00000040: 0000 0000 0000 0000 0000 0000 0000 0000
00000050: 0000 0000 0000 0000 0000 0000 0000 0000
00000060: 0000 0000 0000 0000 0000 0000 0000 0000
00000070: 0000 0000 0000 0000 0000 0000 0000 0000
00000080: 0000 0000 0000 0000 0000 0000 0000 0000
00000090: 0000 0000 0000 0000 0000 0000 0000 0000
000000a0: 0000 0000 0000 0000 0000 0000 0000 0000
000000b0: 0000 0000 0000 0000 0000 0000 0000 0000
000000c0: 0000 0000 0000 0000 0000 0000 0000 0000
000000d0: 0000 0000 0000 0000 0000 0000 0000 0000
000000e0: 0000 0000 0000 0000 0000 0000 0000 0000
000000f0: 0000 0000 0000 0000 0000 0000 0000 0000
00000100: 0000 0000 0000 0000 0000 0000 0000 0000
00000110: 0000 0000 0000 0000 0000 0000 0000 0000
00000120: 0000 0000 0000 0000 0000 0000 0000 0000
00000130: 0000 0000 0000 0000 0000 0000 0000 0000
00000140: 0000 0000 0000 0000 0000 0000 0000 0000
00000150: 0000 0000 0000 0000 0000 0000 0000 0000
00000160: 0000 0000 0000 0000 0000 0000 0000 0000
00000170: 0000 0000 0000 0000 0000 0000 0000 0000
00000180: 0000 0000 0000 0000 0000 0000 0000 0000
00000190: 0000 0000 0000 0000 0000 0000 0000 0000
000001a0: 0000 0000 0000 0000 0000 0000 0000 0000
000001b0: 0000 0000 0000 0000 0000 0000 0000 0000
000001c0: 0000 0000 0000 0000 0000 0000 0000 0000
000001d0: 0000 0000 0000 0000 0000 0000 0000 0000
000001e0: 0000 0000 0000 0000 0000 0000 0000 0000
000001f0: 0000 0000 0000 0000 0000 0000 0000 0000
0.0 0.0 0.0 0.0 0.0 0.0 0.0 0.0
0.0 0.0 0.0 0.0 0.0 0.0 0.0 0.0
0.0 0.0 0.0 0.0 0.0 0.0 0.0 0.0
0.0 0.0 0.0 0.0 0.0 0.0 0.0 0.0
0.0 0.0 0.0 0.0 0.0 0.0 0.0 0.0
0.0 0.0 0.0 0.0 0.0 0.0 0.0 0.0
0.0 0.0 0.0 0.0 0.0 0.0 0.0 0.0
0.0 0.0 0.0 0.0 0.0 0.0 0.0 0.0
0.0 0.0 0.0 0.0 0.0 0.0 0.0 0.0
0.0 0.0 0.0 0.0 0.0 0.0 0.0 0.0
0.0 0.0 0.0 0.0 0.0 0.0 0.0 0.0
0.0 0.0 0.0 0.0 0.0 0.0 0.0 0.0
0.0 0.0 0.0 0.0 0.0 0.0 0.0 0.0
0.0 0.0 0.0 0.0 0.0 0.0 0.0 0.0
0.0 0.0 0.0 0.0 0.0 0.0 0.0 0.0
0.0 0.0 0.0 0.0 0.0 0.0 0.0 0.0

encoder.W_i.weight f4 [128, 147]
00000000: 96d3 89bd e2fa 273d e485 50bd 9182 f13c
00000010: 825e ffbc b050 05be 4da2 393c 8608 a23c
00000020: c06b 27bd 51c9 953d 91d0 8b3d 5b0f 4cbc
00000030: 5425 243d 4431 d0bc e0a3 f03c 18b5 a03d
00000040: 0aa3 453d 372d 463d 95c4 8e3c 7d45 883d
00000050: 12cb ff3a 186f 9b3d a4f7 d13b ece0 1abd
00000060: a718 233a 5a3b 70bc 4f72 f83c e110 e13c
00000070: a057 9a3b 744b 0b3d 5a9a 113d c23f f7bc
00000080: 690c a5bc 55ee 1c3d f5a7 963d 0f92 f03c
00000090: 4096 803d 747c a3bb d3ae 67bd 002f 85bd
000000a0: e056 9fbd c991 a5bd 2568 0bbd c282 15bd
000000b0: 7992 4ebd 696d 42bd b852 14bd fd3d 5fbd
000000c0: 9b1f f23c b2c8 a13c ccd2 e8bc 620d 253d
000000d0: 56f6 103d 234c 0cbd 6d40 703c 158b f4bc
000000e0: 8d51 94bd 71d6 9ebd 8d29 0dbd 65c0 5eba
000000f0: 022c 98bc d353 40bd e990 1a3c ea64 85bd
00000100: ddd3 76bd 9643 4c3d 036b 0ebb 20c9 d73c
00000110: 5395 883b b55a 03bd af87 1bbd 0d14 3e3d
00000120: 9027 9d3c ee06 b63b d511 21bd c8c5 06bd
00000130: bb12 313d 4716 cdbc bb9c 9fbb cbc8 66bc
00000140: c1e8 cebc f199 e9bb 7d46 3e3d f3a2 263d
00000150: 0b8d 81bd 0857 993d 6925 83bd 43e7 00bd
00000160: ceb4 26bd 2b56 063d f0ae c8bc 0805 85bd
00000170: eb6a 9c3d b693 583d e529 a1bd dc85 3abd
00000180: 2784 223c 57be 7a3c d4e8 a7bd 13bd 20bd
00000190: 9f45 a53d 871b 28bd db38 2c3d 7fbe 443d
000001a0: 7bdd 4f3d abb3 c73c bff4 a03d c9dd 0dbd
000001b0: 0225 823e 2b48 cb3c 2ed8 9a3d 7a58 97bd
000001c0: dcb8 47be d94a 4e3c 84f3 27be d0fd 173d
000001d0: ebf4 3b3d f2e3 82bd 5e31 403d 3318 133c
000001e0: 5288 fdbd ef2b 163d a199 8fbd a089 873d
000001f0: c6f1 7c3d 9b09 54bd 3179 c4bb 4506 c5bd
00000200: 0f5d 9dbd 4555 4a3c a817 9fbd a367 17be
00000210: a57b 11be e3cf 883d 8786 513c 4765 3abe
00000220: 347e 80bd 78a7 12be 2415 5cbd 9a5a 06bd
00000230: 128f 9cbd a400 cebc b966 933d 276f afbc
00000240: 8fb9 a3bd 96b6 ce3c ad06 723c 2206 1bbd
00000250: caff 613d 3351 ab3c 5984 903d 9cd8 70bd
00000260: b188 02be 2054 0e3d c3f2 8cbe 6340 6a3e
00000270: 42db 4a3c 5cac fabc 110b 803d 7dbe 8fbd
00000280: a7e9 8abd 604e a8bc a92e 9e3d 6ce8 883c
00000290: ba3d debc a796 5fbd b007 9c3d 0da4 8dbd
000002a0: 520f 8e3d b888 b5bc ac8b a73d bb0e 86bc
000002b0: 7314 1abc c7f7 77bd 62e6 86bd b1bf a63c
000002c0: e8fb 34bc c229 813c 710e 0c3b 0d8c a7bd
000002d0: 2559 37bd c33e 913d af9e 9dbd 52e2 a53d
000002e0: d93a a0bd 80a4 69bd 27fc 023d 120b b1bc
000002f0: 68cc 80bd a3e2 24bd bea4 913d 94d9 47bd
00000300: a2ca b0bc da73 573d b9f4 873d f5de f5bc
00000310: 3d0f 06bd c275 8f3d 6eb0 79bb 340c ecbb
00000320: 9ec9 633d 1cc5 a63d 7897 753c ae74 553c
00000330: e1a1 46bb dd83 97bd b26a 003c f40a 653d
00000340: 2d80 dfbc 8256 9fbd b66b 2dbd 8ec4 0cbd
00000350: ec54 83bd 1de4 973d 910f 0c3d 87a7 36bd
00000360: e957 513d 0680 fb3c e707 62bd 8c68 2d3d
00000370: 2edc 92bd b038 49bd 9507 91bd 48a2 56bd
00000380: 1883 1abd 83ea 7e3d fba4 fabb 0f51 683c
00000390: 17ed 0bbd d6e2 8c3d da36 a63d 87fd 8e3d
000003a0: 7144 843c bdcd 89bd 18f3 3ebb 9d42 6a3d
000003b0: 1fe0 143d 440e 5a3c c8be 6dbc 55fa 8c3b
000003c0: dc14 9dbd 90d1 dfba f391 b9bb 631d b03c
000003d0: 4ff1 e93c ccd4 3fbc 8e26 a0bd 03d9 dbbc
000003e0: 82c1 2f3d 66ba a7bd fcc7 9abe 12c1 533d
000003f0: 485e 3c3d 24a2 8f3c d6cd 10bd 2df5 b63e
-0.0672981 0.041010745 -0.050908938 0.029481204 -0.031172995 -0.13019061 0.011330199 0.019779455
-0.040874243 0.07313789 0.0682689 -0.012454833 0.04007466 -0.025414117 0.029375017 0.07847041
0.04825119 0.048382964 0.017427722 0.06653879 0.0019515476 0.07589549 0.006407695 -0.03781216
0.000622163 -0.014662588 0.030327944 0.027473869 0.0047101527 0.034007505 0.03554759 -0.03018177
-0.02014752 0.03831323 0.07356254 0.029366521 0.06278658 -0.004989201 -0.05656321 -0.06503105
-0.07780242 -0.08084447 -0.034034867 -0.036501653 -0.050432656 -0.047467623 -0.0362117 -0.054502476
0.029556086 0.01974902 -0.028420828 0.040295966 0.035391174 -0.034252297 0.014663798 -0.029851476
-0.07242117 -0.07755745 -0.034463454 -0.0008497297 -0.018575672 -0.04695494 0.009433963 -0.065133885
-0.060260642 0.049869142 -0.0021731264 0.026341021 0.0041681915 -0.032068927 -0.037971195 0.04640584
0.019183904 0.0055550253 -0.039323647 -0.032903463 0.043230753 -0.025035037 -0.0048709786 -0.014085959
-0.02525747 -0.007128947 0.04645394 0.040682744 -0.0632573 0.07487303 -0.0640362 -0.03147055
-0.040699773 0.03279702 -0.02449748 -0.064951 0.076375805 0.052875243 -0.07869319 -0.045537814
0.009919203 0.01530417 -0.08198705 -0.039242815 0.0806992 -0.041041877 0.04204641 0.048033234
0.05074833 0.024377665 0.078591816 -0.03463534 0.2541886 0.024814686 0.07560764 -0.073899224
-0.19504112 0.012591087 -0.16401488 0.03710729 0.04588787 -0.06391133 0.04692208 0.0089779375
-0.12379517 0.036662992 -0.07011724 0.06618047 0.06175401 -0.051766973 -0.0059958925 -0.096203364
-0.07683765 0.012349431 -0.07768184 -0.14785628 -0.14207323 0.06680276 0.0127884215 -0.18202697
-0.06274071 -0.14321697 -0.0537311 -0.032801248 -0.07644476 -0.02514679 0.07197327 -0.021415306
-0.07994377 0.025233548 0.014772099 -0.037847646 0.05517558 0.020912742 0.07056493 -0.058800325
-0.12747456 0.034748197 -0.27528962 0.22876124 0.012381377 -0.030599765 0.06252111 -0.07018755
-0.06782847 -0.020545185 0.077237435 0.01671239 -0.027129043 -0.054587033 0.07618654 -0.06916056
0.06936516 -0.02215992 0.08180937 -0.016364446 -0.00940429 -0.060539033 -0.06586911 0.020355077
-0.011046387 0.015766982 0.0021370912 -0.081810094 -0.04476275 0.07092049 -0.07696282 0.08099808
-0.07823724 -0.057041645 0.031978752 -0.021611724 -0.062889874 -0.0402552 0.071115 -0.048791483
-0.021580998 0.05260072 0.06638474 -0.03001354 -0.032729376 0.070048824 -0.0038099545 -0.007203603
0.0556122 0.081430644 0.014989726 0.013028307 -0.003030889 -0.07398198 0.007837938 0.05591865
-0.027282799 -0.07780172 -0.04233905 -0.034367137 -0.06412682 0.07416556 0.034194533 -0.04459336
0.05110923 0.030700695 -0.055183318 0.04233603 -0.07170902 -0.049126327 -0.07081524 -0.052400857
-0.037722677 0.062235367 -0.0076490617 0.014179482 -0.034161653 0.06879203 0.08115931 0.0698195
0.016145917 -0.067286946 -0.0029136594 0.057192434 0.03634655 0.013309065 -0.014510818 0.004302303
-0.07669994 -0.0017076004 -0.0056631505 0.021498388 0.028557448 -0.01170845 -0.07819854 -0.026836878
0.042909153 -0.081898496 -0.302307 0.051697798 0.04598835 0.01753337 -0.03535255 0.3573393

encoder.W_i.bias f4 [128]
00000000: 6dc0 e0bd 3f7b acbe 2fc3 1abe ee42 dabd
00000010: a70f 4bbe 797b dabe 49a3 75be 4c1c 60be
00000020: bae6 7cbe 3b9b 1bbe 92a8 a6be 503f 60be
00000030: a616 69be 1516 24be 8827 94be b18d 24be
00000040: 1e7a adbe fa08 88be e7ba 40be 1124 35be
00000050: 931b 76bd 42d1 b1bc ebac 30be 4445 01bf
00000060: 1c08 8abe 5433 52be 473f f7bd fdd2 03bd
00000070: be25 14bf eb5f 3cbe 4fde 47be 7fd9 9bbd
00000080: b2c0 fcbd fdae 3ebe 60da 79bd 4662 06be
00000090: 467f 79be 41a4 cfbe 7cea 98be 275e b8be
000000a0: 0f3f 27be b46a 12be c435 59be 2ed9 a5be
000000b0: 40a8 31be 7a52 08be 346b 54be 6f10 babe
000000c0: bada efbc 8793 dbbd 6a80 80be e53c 61be
000000d0: 2815 303e 6238 08be 5020 84be 4a37 abbe
000000e0: e3cc 36be bd11 d1bb c615 97be a203 5fbe
000000f0: 789b 02bd 2321 c5bb 8241 e13d 87d7 a6bd
00000100: 46a6 17be 1940 18be 86f6 80be d82d 79be
00000110: 5785 6dbe 428b 05be 9705 74be 7096 23be
00000120: d46a 8fbc addc 58be 493b a3be e114 bdbe
00000130: ac0f 6dbe c3fa 8abe 7974 b0be c043 08be
00000140: 62e0 c6bd bdbd bebd 07dc 0ebe f8b0 e7be
00000150: cf9a 85be 7c8c bbbd 9c3d 68be ab79 83be
00000160: 72d9 58be 3f53 ea3d 280e 5bbe f786 693e
00000170: 725b 4bbe f15f 9bbe 2f11 08be 8041 8abe
00000180: 26f7 f23d 2042 78be 8313 aebd 71c0 bbbe
00000190: ac75 aebe 3294 d3be 72a1 bfbd 6075 98be
000001a0: 35e7 debe dfa0 21bf 204d 37be bf0e 9cbe
000001b0: 9bbf 8dbe d093 b83d a019 37be 87e5 59be
000001c0: ea2f 2cbe 047a 48be 5251 28be 45ac 06bf
000001d0: 2d61 58be 5454 f2bd 9d99 95bb bdfd 69bd
000001e0: 0c1f 86be 0faa aabd f2bb acbd c7e8 0ebe
000001f0: abf5 a1be 68d9 2abd 18c3 97be 9592 0cbd
-0.10974202 -0.3368778 -0.15113519 -0.10657297 -0.1983019 -0.42672327 -0.2398807 -0.21885794
-0.2469739 -0.15195934 -0.32550484 -0.21899152 -0.22762546 -0.16024049 -0.2893641 -0.16069676
-0.3388223 -0.2656935 -0.18821298 -0.1768954 -0.06008489 -0.021706227 -0.17253463 -0.50496316
-0.26959312 -0.20527393 -0.12072616 -0.032183636 -0.5787009 -0.18395965 -0.19518398 -0.076098435
-0.12341441 -0.1862144 -0.060999274 -0.13123426 -0.24364957 -0.40555003 -0.29866397 -0.36009333
-0.16332649 -0.14298517 -0.21211916 -0.32392257 -0.17349339 -0.13312712 -0.2074402 -0.36340663
-0.029279102 -0.10721498 -0.25097972 -0.21995886 0.1719557 -0.13302758 -0.25805902 -0.3344062
-0.17851596 -0.0063802884 -0.295088 -0.2177873 -0.031886548 -0.006015913 0.10998823 -0.08146577
-0.14809522 -0.14868201 -0.25188082 -0.24333894 -0.23195396 -0.13041404 -0.23830257 -0.15975356
-0.017506994 -0.21177931 -0.31881168 -0.36929992 -0.2315051 -0.2714444 -0.34463862 -0.13307095
-0.097107664 -0.093135335 -0.13951121 -0.45252204 -0.26094672 -0.09157655 -0.22679752 -0.25678763
-0.21176699 0.11441659 -0.21392119 0.22805391 -0.19859102 -0.30346635 -0.13287805 -0.27003098
0.11863546 -0.24243975 -0.08499815 -0.3667026 -0.34074152 -0.41324002 -0.09356965 -0.2977705
-0.43535772 -0.63136095 -0.17900515 -0.3048 -0.27685246 0.09012568 -0.17880869 -0.21278964
-0.16815153 -0.19577795 -0.16437271 -0.5260661 -0.2113082 -0.118324906 -0.0045654313 -0.05712675
-0.26195562 -0.08333217 -0.08434285 -0.13955985 -0.31632742 -0.04171124 -0.29641032 -0.03431948

encoder.W_h.weight f4 [128, 128]
00000000: 6f09 90bd 3674 dabc 0592 173e 09e3 62bd
00000010: 5ec3 abbd ca71 babd 07f2 013d 9312 90bd
00000020: a2fd 1cbd 7283 d1ba 2127 eabd e69a 043d
00000030: 1583 10be c1dc d73d ddd0 2d3d 1f4b d13d
00000040: e981 98bd 3236 fbbd c200 33bd db70 65bd
00000050: d397 41bd 1996 303a 54fa 72bd 59ce f93c
00000060: b262 bdbc eb05 1cbc 77b1 2bbe a3d0 85bd
00000070: 85c9 923a 636b d13b a1b4 983d 94ed b6bc
00000080: 516a 923c 4b84 0abd 0702 77bc b5ae aabd
00000090: 2deb a43d f526 fcbc ba85 3bbd dd02 dcbc
000000a0: 53d9 0a3d 5366 813b bc1f cf3d b483 77ba
000000b0: 383e f5bd 48a5 8dbd f6c5 00bd 0567 3cbd
000000c0: 0606 f2bc 7b78 733d 522c d33c d405 aabd
000000d0: 0b00 cfbd ccaf 813b 4265 52bd ef05 0f3d
000000e0: ebcd 2ebd 41bd 5c3e 7c01 c6bb 387c 91bd
000000f0: 9544 1d3e 949f 36bd d1b2 293d 1857 da3b
00000100: b55c 983d 364d 793d c874 4b3d 8c29 febc
00000110: 28b1 db3c 4d1c e0bd dca8 dd3b 5983 93bd
00000120: 613b 93bd 2f1a 833b bc8c 4b3d a597 e4bc
00000130: 0bc2 d53c 93db 673d 7a9a 10bd 4a61 44bd
00000140: 2a29 56bc c7c2 873d 7999 03be 4ded c4bd
00000150: 390f 7abd bce5 a2bd 9fab daba c211 c7bc
00000160: 07b9 b63d 38ae 423d 7780 52bd 6748 dabd
00000170: 7950 06be dcd6 013d ddc9 eb3a 71f0 eebd
00000180: c591 1bbe a6f7 a5bd 0fd5 1bbd 159f 0cbe
00000190: 68ad 09be 3589 8e3d b6b1 acbc 4884 83bd
000001a0: 9110 923c a2de 12be 7dd8 fa3b 82d4 b1bd
000001b0: 2067 913b 7876 743b 3203 13bd ca1f 90bc
000001c0: b739 fc3b 069a adbd 5c20 443d 0ea1 01be
000001d0: a226 37bd e411 14bd de32 593d 0dd4 a3bd
000001e0: 7067 39bd 9a4b 08be 7950 73bd e5fa 28bd
000001f0: e1a1 81bd 406b 093c 7861 093c c03e 3fbd
00000200: 66b3 973d 4e26 06bf 3776 87be f598 86bd
00000210: 93f7 92bf d357 01bf ab63 83bc 6356 64bf
00000220: 4201 4e3e 4033 693e 09a3 12bd bb1f 4cbe
00000230: 3c9e f4be 3510 493e ae93 46be a265 81be
00000240: b12f 723e be36 013e fdfd bebc 95c0 c8bd
00000250: 7049 83be d4ac 2ebe f677 783e 5a0d c13e
00000260: f03d 23be 79e8 44be 57e1 67be c262 43be
00000270: 0b18 99be af17 293e f556 bc3e d31e e53d
00000280: b69b 3bbf 31de 723c 87c3 36bc 7c33 bcbe
00000290: df1d 84be 4dbf 97be a615 013d 3574 d93e
000002a0: 5c0c 9bbd eb9c 61bd 359c 0f3e 26ef d63e
000002b0: 8506 f7bc 156e a9be a413 573e 93c0 763e
000002c0: 2ff2 ea3b c760 843e 0daa 353e f102 5b3e
000002d0: b730 03be 7d04 c2be 005c debc 72d6 93be
000002e0: 1c83 6ebe 5a9c 793e fcf2 dbbe b54b 073e
000002f0: 7458 233e 185d a4bd 3613 41bf 6ad9 36bd
00000300: 3c98 383f 3fb0 3abf b1c1 483e 44f3 03bf
00000310: 9839 2ebe 8dda 49be d348 9fbe 8a5d 553d
00000320: fcd8 c13e c79b bbbd f1c4 09be 43c4 43bf
00000330: 7b33 553e a048 5fbd 153c 84bd 4fef 783d
00000340: dac2 193e 31a9 bebd a37c 7b3e 0959 a2be
00000350: 8c8d 433e 2acc 763e e60e 8f3e 83bc b9bc
00000360: 5e87 49be db7e c1be 6660 e0be 7bd4 2e3c
00000370: a598 1b3e 6f97 263f 7a52 f83d 2911 cc3e
00000380: 4c42 b53c d8db ebbd ada1 0ebd fed7 1f3e
00000390: d07e 75be 0c7c 193e 7fa9 09bf bfaf a4bc
000003a0: 938f bdbe c0e8 fcbd 9ad6 0b3f 0753 76bc
000003b0: 1e19 92be 2f1f b6be 46e3 49be 5f30 2abe
000003c0: af59 a8be 8cb5 6d3e fca4 8bbe 02e0 90be
000003d0: 6510 d9bd 5117 51be e54b 5fbe 3235 583e
000003e0: 1f9d 14bf f7da 593e de20 4e3e 327f 9e3d
000003f0: 94fd a9be 4967 a5bd 13b9 91be 417c 0f3f
-0.07033049 -0.026666742 0.14801796 -0.0553923 -0.08386873 -0.09103735 0.031724956 -0.07034793
-0.03832782 -0.0015984608 -0.114332445 0.032374285 -0.14112504 0.10540152 0.042435516 0.10219406
-0.074466534 -0.12266196 -0.043701895 -0.05601583 -0.04726393 0.00067362335 -0.059320763 0.030493902
-0.02311835 -0.009522895 -0.16766916 -0.06533935 0.0011198974 0.0063909753 0.07456327 -0.022330083
0.017872961 -0.03381757 -0.015076167 -0.08334104 0.08052669 -0.030780295 -0.04578183 -0.026856834
0.033898663 0.0039489656 0.10113475 -0.00094419275 -0.11974758 -0.069162905 -0.03143879 -0.045996685
-0.029543888 0.05944107 0.02577797 -0.08301893 -0.1010743 0.003957724 -0.0513661 0.034917768
-0.042676847 0.2155657 -0.0060426574 -0.07103771 0.15358193 -0.04458578 0.0414303 0.0066632144
0.074395575 0.06086465 0.04967192 -0.03102567 0.026817873 -0.10942898 0.0067645144 -0.07202787
-0.0718906 0.004000924 0.04969476 -0.027904341 0.026093503 0.056605887 -0.03530357 -0.047944345
-0.013071338 0.06628948 -0.12851514 -0.09615574 -0.061049674 -0.079539746 -0.0016683227 -0.02430046
0.0892201 0.04752943 -0.051392045 -0.10658341 -0.13116635 0.031699046 0.0017989237 -0.11666954
-0.15192325 -0.08103876 -0.038044985 -0.1373256 -0.13445055 0.06959764 -0.021080833 -0.06421715
0.017830165 -0.1434274 0.007655202 -0.08683111 0.0044373423 0.0037302058 -0.03589172 -0.017593283
0.00769731 -0.08476643 0.047882423 -0.12659094 -0.044714577 -0.036149874 0.053027026 -0.0799943
-0.04526466 -0.1331009 -0.059402917 -0.041254897 -0.06329704 0.008387387 0.008385055 -0.046690702
0.074072644 -0.524022 -0.26457378 -0.06572143 -1.1481804 -0.50524634 -0.016038736 -0.89194316
0.20117667 0.22773457 -0.035800014 -0.19933979 -0.47776973 0.19635089 -0.19392273 -0.25272852
0.23651005 0.12618539 -0.02331447 -0.09802357 -0.25641966 -0.17058116 0.24264511 0.377055
-0.15941596 -0.19229306 -0.22644554 -0.19080642 -0.29901156 0.16512941 0.36785093 0.1118752
-0.7328447 0.014823482 -0.011155016 -0.3675803 -0.2580404 -0.29638138 0.031514786 0.4247147
-0.07570717 -0.05508129 0.14024432 0.4197933 -0.030154476 -0.33091798 0.21003586 0.24096899
0.007169984 0.25855085 0.1774065 0.21387841 -0.12811552 -0.3789405 -0.027143478 -0.28874546
-0.23292202 0.2437605 -0.4295882 0.13212474 0.15951711 -0.08025569 -0.7541994 -0.044640936
0.7210729 -0.7292518 0.19605137 -0.5154307 -0.17014158 -0.19712277 -0.31110248 0.05209116
0.37860858 -0.091605715 -0.13454033 -0.76471347 0.2082042 -0.05451262 -0.06456772 0.060775097
0.15015736 -0.093096144 0.24559264 -0.31708553 0.19096965 0.2410132 0.27941054 -0.022672897
-0.19680545 -0.37792096 -0.43823546 0.0106707765 0.15194948 0.6507482 0.12125106 0.39856842
0.02212634 -0.11516541 -0.034822155 0.15609738 -0.23974156 0.14988726 -0.53774256 -0.020103334
-0.370236 -0.12349081 0.5462433 -0.015034444 -0.28534788 -0.35570666 -0.19715604 -0.16620015
-0.32880923 0.23213786 -0.2727431 -0.28295904 -0.1059883 -0.20419051 -0.21806295 0.21114042
-0.5805225 0.21274935 0.20129725 0.07739104 -0.33201277 -0.08076341 -0.28461513 0.5604897

encoder.W_h.bias f4 [128]
00000000: 253c a9bd 68ab 013e 911c cdbd 6d53 58be
00000010: 2782 5cbe 0b38 ae3c 8447 b63b 67db 013d
00000020: 5f39 b7bc fad4 88be 1a96 74be 722b 35be
00000030: 48ef cebc 3b86 7ebe f2d4 0bbe fd09 25be
00000040: 2421 8fbd f376 78bd 464c 7dbd 9669 0bbe
00000050: 7a0f 84bd 002d debe 6554 bb3c bf2a 243e
00000060: 94b0 763d e929 a53d 83dc 78be 80bb 04be
00000070: a192 f83d 666b 3cbe dc3b b03d 3084 14be
00000080: ef0b d43c c456 563d 4940 c6bd 3810 633d
00000090: 325c 83bd 7701 893e 0a31 82bd 26ae 32bd
000000a0: 3ffa 03be 3e20 91be 9377 fcbd 8391 a8ba
000000b0: c8a0 3cbe 8287 b3bd a132 f5bd b5a8 dc3d
000000c0: 003c 3abd 5a87 47bd f386 3c3d 9982 15be
000000d0: 30bc 803d 6fdb 07be 81e9 17be 78e3 ad3d
000000e0: ddbc 0cbe dfd7 853e 5c99 0c3d 4f07 6ebe
000000f0: 8cd1 863e 77a9 cd3e ff3d a0be 968e 39ba
00000100: b7aa 8abe 5560 bdbd 7139 443b b2bb 84be
00000110: 55a9 53be 57f4 16bd b9d1 d23d 052e 88be
00000120: 7d51 38be bc7b d33d e385 42bd 0e62 e93d
00000130: 0a28 1ebe cd26 cbbd 7391 92bd 2de3 acbc
00000140: ac11 c4be f53c 02be 88d6 263d c54b 373e
00000150: 7f56 193e 3bde 85be 8d13 ebbd 4c3a b53d
00000160: 4bab 58be d0cb edbd df16 b9bd 606f 953e
00000170: 7a6f 2bbe 53b3 1abe 2c42 993e 2e8c adbc
00000180: 7405 853e 5951 b3bd 8805 28bb a657 73bd
00000190: 7640 b33d f179 58be 7fb9 06be 8b1c bfbd
000001a0: 7653 213e 4a2f 103e 07bf 4d3e 9b85 643e
000001b0: 8793 e3bd 3a1d 26be 15c3 31be af06 ae3c
000001c0: f1a4 29bd 04c7 aebd ddbc 1d3b e9a9 4b3e
000001d0: 37dd 11be 4092 7ebe e148 da3e 6b63 4ebe
000001e0: bf77 8d3d 8c0a 133d 5ae7 6fbe a0da 0dbe
000001f0: 8a2c 85be d46a ddbc 3189 acbd 4db0 85be
-0.08263425 0.12663043 -0.10015214 -0.21125574 -0.21534024 0.021266958 0.0055627245 0.03170338
-0.022366224 -0.26724988 -0.23885384 -0.17692354 -0.025260583 -0.24855892 -0.13655451 -0.16117091
-0.06988743 -0.060660314 -0.06184032 -0.13614497 -0.064482644 -0.43393707 0.02286739 0.16031931
0.06022699 0.08064634 -0.24302869 -0.1296215 0.12137342 -0.18400344 0.08605167 -0.1450355
0.025884597 0.05232884 -0.0968023 0.05543539 -0.06414069 0.2675893 -0.0635701 -0.043623112
-0.1288843 -0.2834491 -0.123274945 -0.0012860749 -0.18420708 -0.087660804 -0.11972547 0.10774366
-0.045467377 -0.048713066 0.046027135 -0.146006 0.06285894 -0.13267301 -0.14835168 0.08490652
-0.1374392 0.2614126 0.034325942 -0.23244976 0.26331747 0.40168354 -0.312973 -0.0007078437
-0.2708337 -0.092468895 0.0029941464 -0.2592445 -0.20670064 -0.036854114 0.10293908 -0.2659761
-0.17999835 0.10326335 -0.047490966 0.113956556 -0.15444961 -0.0991951 -0.071566485 -0.02110442
-0.38294733 -0.12718566 0.040731937 0.17899998 0.14974402 -0.2614611 -0.114783384 0.0884901
-0.21159093 -0.1161114 -0.090375654 0.29186535 -0.16741744 -0.1510747 0.29933298 -0.021185007
0.25980723 -0.0875575 -0.0025638063 -0.05940976 0.08752529 -0.21140267 -0.13156699 -0.09331616
0.15754494 0.1408054 0.20092402 0.22316591 -0.11112123 -0.16222087 -0.17359574 0.021243421
-0.041417066 -0.08534053 0.002406887 0.19889034 -0.14244543 -0.24860477 0.42633727 -0.20155112
0.069076054 0.03589873 -0.23428097 -0.1385293 -0.26010543 -0.027028479 -0.08424605 -0.2611107

encoder.W_o.weight f4 [128, 261]
00000000: c8f8 e73c 248e 7a3d c473 6f3d abe8 503d
00000010: b235 053d bbbc d8c0 d0bf 6d3e 167f 593f
00000020: 2f2a d33f 49fb 213d 8a1f 543c 792d 643c
00000030: f579 63bd d756 51bd dd27 ba3c 8848 d43c
00000040: c8ec 1abd 2205 68bc c3af a3b9 3106 9abc
00000050: 8160 e93c 58d6 15bc 98c1 12bd 4787 ad39
00000060: 9027 cd3c f2f2 cdbc ea2e 00bd ef58 6abd
00000070: fcf3 2e3b 37b8 9e3c 3378 433d 2393 2cbd
00000080: 7baa d6bc 2a77 dfbc b8f8 163d 2254 b23c
00000090: 45a3 4dbc ac4c 333b e9a3 c23c 7959 b6bc
000000a0: 2ee4 dcbc cd07 963b 41ca 7cbd 90d2 62bc
000000b0: 02a3 b23c 8776 c13c bc8f d33c 2c90 563d
000000c0: 7e27 593c 22da 0f3d 5e88 6e3d 6213 dfbb
000000d0: dfb1 67bd f486 4c3d d8a1 6ebd 2ff4 c0bc
000000e0: 928a 9cbc 55c6 a6bb 6821 4dbd 5180 f8bb
000000f0: 9e4a eb3b 4ed2 4a3d 92ad 4e3d 56b5 dc3c
00000100: 7bec 3bbd 4e69 eb3c 3a05 693d 1020 2f3d
00000110: d0af 3fbd 3d91 3c3c c165 353d ed36 1dbd
00000120: 16f1 6b3d 2772 1abd dfcd 42bd 88d6 9ebc
00000130: 28f3 51bd 870c a6bc 3094 b5bb ffbc 2ebd
00000140: 8aa8 533d c3d2 853c 76fd 4bbc dedd 6d3c
00000150: 7175 77bc 2b1d d53b 9bf6 333d 8483 fd3c
00000160: 3ea3 143d 9477 8c3c 2bb2 183d 151e 923c
00000170: 4070 70bc a4e4 3dbd 05ab aabc b351 d2bc
00000180: 8897 eebb 2a65 fa3c b792 7abd 2c87 43bc
00000190: ea1d 42bd 0bf3 85bc 68cf a9bb 1c80 b63e
000001a0: 2e19 683f 070e 9c3f e90b 37bc d2c6 1c3d
000001b0: 50be 773e bb23 7a3d 56da 5f3f c308 bebc
000001c0: 7408 dc3e 99e8 43b8 075c ed3e 5357 5d39
000001d0: de08 92bc 211c 61bd ae1a f73c e7cc 1a3f
000001e0: 2cf6 853e 7823 80be 1308 d1be f243 53bd
000001f0: aab8 65bc 3000 503e 6197 db3e ad3f c13e
00000200: 7f0a 2b3d cf6f 8cbc a70f 0bbc 1f36 a33d
00000210: 6bdf 053f 6fb8 963d ff32 413d 4cba b8bc
00000220: 9888 9d3c 1693 a9bc 27d7 983d a9d2 cf3d
00000230: 15b7 253e 7819 233c b2b5 eb3a fb79 abbc
00000240: b276 c2bc ebfd 9f3d 778c 923d 16d3 1a3d
00000250: 9e04 2bbf 49fb 843c 26f1 c43b 3a6e ad3c
00000260: 4fd5 b73c f6b4 373c 0f38 02be 0d82 edbb
00000270: c299 3d3d eb5b 9e3d 44e3 92bd 9b36 a039
00000280: c171 313c 5170 0e3e ee76 d13c 625c be3c
00000290: da87 883d d91c fc3b 1049 583b 8ba0 adbc
000002a0: 37eb 45bd c2e5 2f3e 56eb 4d3d bf10 0bbe
000002b0: 9256 05bd d756 d53c b82d a5bd b257 313d
000002c0: b3d0 103d 4011 b53d 87ae c6bb 7ef8 943b
000002d0: 84d1 9c3d c9e7 ba3c c548 673d 29ba eabc
000002e0: 7af3 953d 193a 113d 45f5 0f3d 72cd bcbd
000002f0: 3715 813d 3f9a d1ba 357e 093e b98a 923c
00000300: 30f9 f43b d56f a03d ec47 5e3e eb4c 933c
00000310: de38 653d a005 343d ae35 18bc fead 2e3b
00000320: f4ee ac3b a0a6 1ebd c05c fc3c 3ae4 03be
00000330: 468f 60bd 0d4b 52bc b015 eb3b 5429 973c
00000340: 99c0 833d 9fce 33bd 9cf3 0c3c 1e59 233d
00000350: 6f8f 59bd b590 d8bb c768 d3bc f312 6f3d
00000360: 4e10 c13c 8b5d 6d3d 3c42 33bb 1a8f 64bc
00000370: 000f b23b 4646 ea3d 4100 ef3c b1a0 a83e
00000380: 658f 833e 6c10 a33c 1a1b d4bd 9d35 0d3d
00000390: 1f70 17bc d66d 423e 5ac3 0a3e 4506 debc
000003a0: d1ab d8bc 941f 853a b5f7 003e de38 21bd
000003b0: a5bc 073d e1fb 733d bcb9 813d 2efd 0b3d
000003c0: 5a76 593d a3d7 1b3c 32a2 d5bc 410d 123d
000003d0: 6f31 c6bc bd99 cebc 5eb9 6bbe c685 5f3d
000003e0: 08a1 3d3d 0d7e 13bd 0556 23be 3693 553e
000003f0: 2956 d93c 8c83 ba3b 0298 e3bc ca6c 043d
0.02831687 0.061170712 0.058460012 0.05100314 0.03252191 -6.7730384 0.23217702 0.8495954
1.6497248 0.039546285 0.012946973 0.013926857 -0.05553623 -0.051108208 0.022724086 0.025913492
-0.03782347 -0.01416138 -0.00031220735 -0.01880178 0.0284884 -0.009145342 -0.035829157 0.0003309792
0.025043279 -0.02514026 -0.03129474 -0.05721372 0.002669572 0.01937495 0.047722053 -0.042132508
-0.026204338 -0.027278502 0.03685829 0.021768633 -0.0125511335 0.0027358932 0.0237598 -0.02225946
-0.026964273 0.0045785666 -0.06171632 -0.013844147 0.021806244 0.023616089 0.025825374 0.052383587
0.013254045 0.035120137 0.05823552 -0.0068077305 -0.056566115 0.04993339 -0.058259815 -0.023553936
-0.019109044 -0.005089561 -0.050080687 -0.007583656 0.007180526 0.04951697 0.0504585 0.026941936
-0.045879822 0.028736737 0.05688975 0.042755187 -0.046798527 0.011509237 0.044286493 -0.03838246
0.057602964 -0.03770652 -0.047559615 -0.019389406 -0.051257282 -0.020269645 -0.005541347 -0.04266071
0.051674403 0.01633585 -0.0124505665 0.014518229 -0.015103684 0.0065037212 0.043936353 0.0309465
0.036288492 0.017146863 0.03727929 0.01783661 -0.0146752 -0.046360627 -0.020833502 -0.025673723
-0.0072812475 0.030565817 -0.061175074 -0.011934083 -0.04739181 -0.016351243 -0.0051821955 0.35644615
0.9066342 1.2191781 -0.011172273 0.038275547 0.24193692 0.06106923 0.8744253 -0.023197537
0.429752 -4.6708246e-05 0.46359274 0.00021108733 -0.017826494 -0.054958466 0.030164089 0.60468906
0.26164377 -0.2502706 -0.40826473 -0.05157847 -0.014021078 0.20312572 0.4288893 0.37743893
0.041758057 -0.017143158 -0.0084876185 0.07969307 0.52294034 0.07359397 0.047167774 -0.02254977
0.019230172 -0.020700019 0.07462912 0.10147602 0.16183122 0.009954803 0.0017983227 -0.020932188
-0.023738239 0.07812103 0.07155698 0.037798963 -0.6680392 0.016233103 0.0060101924 0.021170724
0.02244058 0.011212578 -0.12716697 -0.0072481693 0.046289213 0.07732376 -0.07172254 0.00030558262
0.010830344 0.13910033 0.025569405 0.023237411 0.06666537 0.0076938686 0.0033002533 -0.021194717
-0.04832002 0.1717749 0.050273262 -0.13580607 -0.032553263 0.026042385 -0.08065361 0.043296523
0.03535528 0.08841181 -0.0060632857 0.004546224 0.076571494 0.022815602 0.056465883 -0.028653221
0.0732183 0.035455797 0.035146017 -0.09218873 0.063028745 -0.0015991403 0.1342705 0.017888414
0.0074759945 0.0783383 0.21707124 0.017981013 0.055962436 0.043950677 -0.009290142 0.0026654
0.005277509 -0.038733125 0.030805945 -0.1288003 -0.054824136 -0.012835276 0.007174216 0.018452324
0.064332195 -0.04389822 0.008603003 0.03987991 -0.053115305 -0.0066090473 -0.025806798 0.05836768
0.023567345 0.057950538 -0.0027352711 -0.013950134 0.005433917 0.11439185 0.029174926 0.32935098
0.2569534 0.019905291 -0.10356732 0.034474958 -0.00924304 0.18987212 0.13551083 -0.027102599
-0.026449116 0.0010156506 0.12594493 -0.039360873 0.03313889 0.059566382 0.06334254 0.034176998
0.053091384 0.009511861 -0.026078317 0.03565717 -0.024193494 -0.025219793 -0.2301993 0.054570936
0.04629615 -0.036008883 -0.15950783 0.20856938 0.026530342 0.005691951 -0.027782444 0.03233031

encoder.W_o.bias f4 [128]
00000000: 20c3 f93e 2bcc a3be 3ac7 88bd 9ce0 1abd
00000010: a63e 99bd 52ea a93d c7a6 afbd 3069 403d
00000020: 481a 6bbd 55a5 33be 1116 123d 1530 c23e
00000030: b9d4 93bd d421 3b3d 724c 59be cc63 09be
00000040: 13f2 5abe 25ed 933d 484f f43d 4911 6f3b
00000050: e9be 323e 6614 553c 9437 12be e417 21bd
00000060: 5322 de3d a109 b0be fce7 edbd 091c 59bd
00000070: e107 00bd f2f5 d8bd e01a d7bd eb80 2b3d
00000080: 7e93 7fbc b3a3 20bc 9899 ccbc c130 25be
00000090: 8a1b 893d 32f4 80be 01e6 96bd 100f 85bd
000000a0: 1f8d 3cbd 370a 693d 4921 64bd c59d 0e3e
000000b0: 95d6 4cbd a6ea 923e 343e c5bd 2a67 2bbe
000000c0: dbac 84bd 79a7 cebd 150e b4bc 25b8 1bbc
000000d0: fb9e 83bd 6094 0bbe 0f97 2c3d da0a 7dbd
000000e0: 893c 80bd 77fd f5bd a727 a93d 6cf9 f7bb
000000f0: c1e4 05bd 201e 28bd 6fdd 17be de99 babd
00000100: 1b82 6c3e b5c4 bd3e 67cc d6bb 4bb2 02be
00000110: 7946 88be 6bb2 69bb 5ceb 12be 0a69 49bd
00000120: 4337 ce3c 7f22 adbd 0084 93be dfae b7bd
00000130: 5e90 19be 4199 64bd 1e4d 9dbd ddfc d6bd
00000140: 0c67 efbd f5b2 4bbd 8bd7 d13d 0ecb 163e
00000150: e9f9 51bd 9630 91bc 2f5c 47be f510 e6bd
00000160: d47f c23b e2e8 cdbc 20f7 993d e0c0 443d
00000170: 5f49 4d3e d198 b9bd c18e c3bd 7a85 e7bd
00000180: ed5d 78bd 5264 e83d 76b2 86be da43 7dbe
00000190: 1466 83bd a9c9 c9be 91b9 00be 02b6 ec3d
000001a0: 2a16 833d e1b5 6abd 962c 4b3d e9f5 cd3c
000001b0: 6d7e 1abc 6182 9cbd adf1 1aba fb55 23bd
000001c0: 9587 c83d 0845 1b3e 5162 11bd 5524 53bd
000001d0: 933c edbd 42c4 15be 60f6 e2bd e2d7 b3be
000001e0: cc31 0ebe 9a60 cabc 6be1 96bd d2fa d7bd
000001f0: 5bc8 95bd c016 02be 8c00 263e d49a 2e3e
0.4878168 -0.31991705 -0.066786245 -0.03781186 -0.07482652 0.08296646 -0.08576732 0.046975315
-0.05739811 -0.17543538 0.035665575 0.3792731 -0.07218308 0.045686558 -0.21220568 -0.13416976
-0.21381406 0.07222966 0.11929184 0.0036478809 0.17455639 0.013005352 -0.14279014 -0.039329425
0.108463906 -0.34382346 -0.11616513 -0.053005252 -0.031257514 -0.10593785 -0.10503173 0.041870993
-0.01559913 -0.009804654 -0.024975583 -0.1613188 0.06694706 -0.25186306 -0.073680885 -0.064970136
-0.04603302 0.056894507 -0.055695806 0.13927372 -0.05000933 0.28694648 -0.09631005 -0.16738573
-0.06478282 -0.100905366 -0.021979371 -0.009504353 -0.064268075 -0.1363082 0.04213625 -0.061777927
-0.06261546 -0.12011235 0.08259516 -0.007567575 -0.03268886 -0.041044354 -0.14830564 -0.09111379
0.23096506 0.37064138 -0.0065551284 -0.12763326 -0.26616266 -0.0035659324 -0.14347595 -0.04917244
0.025172835 -0.08453845 -0.28811646 -0.08968901 -0.14996478 -0.055810217 -0.076807246 -0.104974486
-0.116895765 -0.049731214 0.1024619 0.14725897 -0.051263724 -0.017723363 -0.19468759 -0.11233703
0.0059356485 -0.025135461 0.075178385 0.048035502 0.2004752 -0.090623505 -0.095487125 -0.113047555
-0.06063645 0.113472596 -0.2630803 -0.24732915 -0.06415954 -0.39411667 -0.12570788 0.11558153
0.06400712 -0.05730236 0.049603067 0.025141673 -0.009429556 -0.07642055 -0.0005910646 -0.03987692
0.09791485 0.15163052 -0.035494152 -0.05154832 -0.11583819 -0.14625648 -0.110821486 -0.35125643
-0.13886184 -0.024704266 -0.07367214 -0.10545887 -0.073136054 -0.12703991 0.16211146 0.1705125

ffn.1.weight f4 [64, 128]
00000000: 5281 223c b4d1 fcbe ff83 adbd 2f8f 1c3d
00000010: 44d1 83bd 7cba 7b3d 1d50 7bbd 5128 8a3f
00000020: 1db2 083e 984b fd3d 3e4d f5be e6db 483e
00000030: 4b08 553d fe24 03bf 18b7 5f3f 85cd 3cbf
00000040: 773a 323e c807 ccbd 7090 febe f319 bfbd
00000050: c267 f83c 64e2 91bd 4823 dd3e c7a3 3d3d
00000060: 8500 313e d1ed 86bf 0fd1 aabd 7741 a2bd
00000070: b3d4 3c3d 2b81 b1bc 3a03 00bf 6b7a 363e
00000080: 4ed6 4e3c b291 c6bd af0c 04bd 25b6 d2bd
00000090: d85b 493e f537 d9be f01e c6bc d5ab 08bd
000000a0: becd a9bc 99f1 4dbe 1e10 0c3b f6e3 f43e
000000b0: a236 a03d aa17 a63e 463f 45bd 547a 47bf
000000c0: 2913 7e3d be5c 0b3c b3cd bebd 3015 b1bb
000000d0: 6f87 53bd b081 53bf d110 693e 0d9d d43e
000000e0: 658a e73c 4d52 bfbd e10f 5b3e a273 dbbb
000000f0: eff6 b1bb b3de 7bbd 1da7 b63e e709 4e3d
00000100: 6be4 8c3e dc0b ea3c cef7 b63d b809 f73e
00000110: c055 f4be 04e4 823e b0b3 0dbf df76 99bd
00000120: f137 4b3d 5110 3a3d 0828 2a3f 87b8 4d3d
00000130: 7c46 b1bd e66e e43d 9cc2 debc 835b 11bf
00000140: 91aa 773c 1c00 02be 1e8d 01bd 6667 f1be
00000150: 4de6 863d 580b 53bc 8fa5 fabe 67c3 32be
00000160: 3b71 eabb 8e01 acbd 2b2e e9bc b425 b63d
00000170: 699d 88bd bb0f 70bd fe10 e1be f77f 27be
00000180: 7564 80bf b173 b33d 60d0 dabd f7ba 5e3e
00000190: 1abf 7c3d 0ba3 e4bf 63e3 59bd ae05 1b3e
000001a0: 6249 973d f77b cebe f83d 36be 516a 4c3e
000001b0: 286e 92bd 29a3 e5bf cc4c ca3d 18bd 033d
000001c0: 8b08 a3bc b99c afbe 0da2 393f e57e 4fbd
000001d0: 9a76 85bd 8735 0f3f beb3 4ebe 8062 00bf
000001e0: 62e4 d93d a2bc 1cbd e6c6 9e39 caf6 8fbd
000001f0: 5b6f 273d 075d 9dbc fa4c af3c 6ab6 573c
00000200: 5504 8dbe cbb5 a2be c645 47bb 3f26 d3bd
00000210: 9121 efbd 56bc b8bb ef97 2bbc eef1 be3d
00000220: c791 50be f4ac a33d c50f 7b3b 2e09 72be
00000230: 45a0 a73d a4cb f63c 75ec f43e c3a4 26bf
00000240: ea7a cbbd 28bd 883d 1b8c b63d d593 aebd
00000250: 6944 b03e 37ae b43d 095f b53e 9595 03ba
00000260: 425b d1bd 3eba 9cbe f681 aa3d 426e 8e3d
00000270: 1923 3c3b c690 1ebe eed5 1dbd 8977 403d
00000280: 0a91 18bd b39c bb3c ecde 91bd 4a55 aebd
00000290: 0276 c3bd 29b9 33be 8a62 883d 61e3 3abc
000002a0: 3b3e a73d c7d8 a7be 09c5 833d 0a8d ba3e
000002b0: 6fa9 d7bd 9265 c4bd b6a1 9fbd 49b7 94be
000002c0: 9622 4d3b 49a1 a4bc bba4 1a3c 35c7 a53d
000002d0: fbcd 153b 7d3e 6e35 a850 103e 9f1e 18bd
000002e0: d4f1 4e3c d9ad e2bd d557 633e c433 c83c
000002f0: e5e2 a2bd 1436 29bd c255 403d b76e af3c
00000300: 6de8 d53e cf60 d2be 0166 54bd 8067 b93c
00000310: 2f1e 06bf 0000 a03c b7a2 163d 5a57 243e
00000320: 83de 063d 1655 ddbc 338f 663f 38ba 3a3d
00000330: 1c84 eb3c 88a0 943d bb6e 443b bb70 4bbe
00000340: 2514 053e 696b 593d b6ac bdbe d532 483c
00000350: 5fba 82bc 1c00 9e3d 488b 4d3d 5832 923e
00000360: f09f 823b 7ea2 c53c 96fb 363e c0ae 943e
00000370: 4893 413e bb45 a53b 418b acbe aac0 a1bd
00000380: 2d0f 65bd 7786 e3bb c2ec 10be 84c7 3cbe
00000390: 71ba 853d edf0 99be 99d0 a6bd 29c5 f53e
000003a0: f9c8 923e 0a2c 623e f35e 843b c466 883e
000003b0: 750e 553d 59f3 44be de4f 193e d656 8fbd
000003c0: 61c8 1fbe 13b0 30bc 649c a33d 6a54 743d
000003d0: fdbb b23c fd15 a43d 3eb4 fbbd dfba 43bd
000003e0: cc7b 973d 2107 c7bc d151 813d 98db 79bd
000003f0: bf08 e6bd 8e5d d2bd bdb3 7e3e ee78 2c3f
0.009918528 -0.4937874 -0.08472442 0.038222488 -0.064363986 0.061457142 -0.0613557 1.0793554
0.13349195 0.12367934 -0.47910494 0.19615135 0.052009862 -0.5122832 0.87388754 -0.737511
0.17405115 -0.09962422 -0.49719572 -0.09331121 0.030322913 -0.07123259 0.4319098 0.04629877
0.17285354 -1.0541326 -0.08340656 -0.07922643 0.046101283 -0.021668037 -0.50004923 0.17820136
0.012624336 -0.09695758 -0.03223866 -0.102886476 0.19663942 -0.42425504 -0.024184674 -0.033366997
-0.020727988 -0.20111693 0.0021371911 0.4783017 0.078229204 0.3243993 -0.048156045 -0.7792103
0.06202999 0.008505998 -0.09316578 -0.005404137 -0.05164283 -0.8261976 0.22760321 0.4152607
0.028264234 -0.093418695 0.21392776 -0.006697134 -0.005431048 -0.06149168 0.35674372 0.050302412
0.2751802 0.028570108 0.08933984 0.48249602 -0.47721672 0.25564587 -0.55352306 -0.07493376
0.049613897 0.045425717 0.6646733 0.050224807 -0.08656022 0.11153965 -0.027192406 -0.5678026
0.01511635 -0.12695354 -0.03162872 -0.471492 0.06586895 -0.0128811225 -0.48954436 -0.17457353
-0.0071546114 -0.08398734 -0.028464397 0.0889391 -0.066706486 -0.05860875 -0.43958277 -0.16357408
-1.0030657 0.08762301 -0.106842756 0.21751009 0.061705686 -1.7862257 -0.05319537 0.15138885
0.073870435 -0.40328953 -0.17797077 0.19962431 -0.07149917 -1.7940418 0.09877929 0.032162756
-0.019901535 -0.34299257 0.72512895 -0.050658125 -0.06516762 0.5594105 -0.20185754 -0.501503
0.10639264 -0.03826583 0.000302843 -0.07029493 0.04087768 -0.019209398 0.02139901 0.0131660495
-0.27542368 -0.31779322 -0.0030406578 -0.10310029 -0.11676324 -0.005637686 -0.0104732355 0.09323488
-0.2036811 0.079919726 0.003830896 -0.23636314 0.08184866 0.0301264 0.47836652 -0.65095156
-0.09935553 0.06676704 0.08913442 -0.085242905 0.34427193 0.08822291 0.3542407 -0.0005019543
-0.10222484 -0.30610842 0.08325569 0.06954624 0.0028707443 -0.15484914 -0.038534097 0.046988998
-0.037247695 0.022901868 -0.07122597 -0.08512361 -0.095439926 -0.17551102 0.0665942 -0.01140675
0.081661664 -0.32782575 0.06434066 0.3643573 -0.10530364 -0.095896855 -0.07794516 -0.29046085
0.0031301132 -0.020096438 0.009438689 0.08094636 0.002285837 8.875284e-07 0.14093268 -0.037138578
0.0126308985 -0.11068315 0.22201474 0.024438746 -0.07953433 -0.04131134 0.046956785 0.021415098
0.4177889 -0.41089484 -0.05185509 0.02263236 -0.52389807 0.01953125 0.03677627 0.16048947
0.032927047 -0.027018111 0.90062255 0.04558775 0.028749518 0.072571814 0.0029973227 -0.19867222
0.12995966 0.05308095 -0.3704583 0.012219151 -0.01595801 0.077148646 0.050181657 0.28554034
0.003986351 0.024125334 0.1786941 0.29039574 0.1890384 0.005043713 -0.33699992 -0.07898076
-0.055922676 -0.0069435197 -0.14152816 -0.18435484 0.065297015 -0.30066624 -0.081452556 0.48001984
0.28668955 0.22087112 0.004039639 0.26640904 0.05201574 -0.19233455 0.14971873 -0.069989845
-0.15603782 -0.010784167 0.079888135 0.059650816 0.021818155 0.080120064 -0.12290238 -0.047785636
0.07396659 -0.024295392 0.06314433 -0.061000437 -0.11232137 -0.102717504 0.24873252 0.67372024

ffn.1.bias f4 [64]
00000000: 1a99 b83d b5dc df3e 1a86 42be f67b aebe
00000010: 9c53 84be 3690 a83e aef2 593d a761 80bc
00000020: 7c48 8ebd 0e59 1dbe ea30 2a3e 1b5a 8dbe
00000030: 8e84 8ebe ce3b 0bbe 8837 c23e 1529 b3bd
00000040: 0318 afbe 8f1b 053f 2fdb 5bbe 761c e1be
00000050: 3e6e 903e 5af0 203e 6006 0bbe b5fc c7be
00000060: 6475 9ebe 1eba b1be a4e1 8d3e 3795 91be
00000070: 7994 3abe 250a 99be ec37 013e 5127 70be
00000080: 5e1c 083e 9fe4 6dbe e4bd a6be d834 8b3d
00000090: 809b 683d 626e 3bbd a917 d23e 5a96 b1bd
000000a0: 26a1 bebe be5f f3be 9d53 983e 19b8 ffbd
000000b0: 534d 6c3d 1451 9abd ce45 3c3e 11e2 1dbd
000000c0: 5559 153e 1f8e 3c3e cc18 cdbe 2f6d 4d3e
000000d0: 38ea eabe 70a5 1a3e 71b0 36be 1882 01bf
000000e0: b1de 013e 796e b2bc 62d0 8dbd ce17 1ebe
000000f0: 1aeb b9bc 6adc 863d ac8e 343d aff6 ad3e
0.09013577 0.43723074 -0.18996468 -0.3407895 -0.2584504 0.32922524 0.053209953 -0.015671564
-0.06947419 -0.15366003 0.16620222 -0.27607808 -0.27835506 -0.13597032 0.37932992 -0.0874807
-0.34198007 0.51995176 -0.2147033 -0.43967026 0.28209108 0.15716687 -0.1357665 -0.39059988
-0.30948937 -0.3471231 0.27711213 -0.28434154 -0.182207 -0.29890552 0.12618989 -0.23452498
0.13292071 -0.23231743 -0.3256675 0.067971885 0.05678892 -0.045759566 0.41033676 -0.086712554
-0.37232322 -0.47533983 0.29751292 -0.12486286 0.05769093 -0.07534996 0.18386003 -0.03854567
0.14584859 0.1841359 -0.4005798 0.20061181 -0.4588182 0.15102172 -0.17840745 -0.5058913
0.12682606 -0.021781193 -0.069245115 -0.15438768 -0.022695113 0.065850094 0.044081375 0.33977267

ffn.4.weight f4 [64, 64]
00000000: cd00 3dbd df38 003e f2a8 1a3d a46b ba3d
00000010: 4368 d83d 14cf ac3b 9948 debd 2c41 563c
00000020: a172 b83d dd18 0cbe 4aa0 013e 7ef7 163d
00000030: 9433 9dbb 3556 193d 34cb ae3d 26ca 2bbe
00000040: af79 f7bb 1bca dfbd ce00 59bd d6a9 3dbe
00000050: baeb 0b3e 8760 b73d c4ca 90bc 39bd 11be
00000060: d042 c13c 2576 6d3b e2bb c53e 133e 8a3d
00000070: 388f 89bd 74e3 2fbd fb31 3abd 0c68 16be
00000080: a0a7 adbc 3cb7 37bd 6c97 49bd 5828 533d
00000090: e3c5 6dbd 8bc3 20bd 3d78 33bd 02d1 e73d
000000a0: 35e0 e8bd 3b4e b93d 26a9 30be 6640 aabc
000000b0: 0890 b6bd 2346 31bd 1635 ba3d 4c92 103d
000000c0: 8eb4 fbbc 17b2 2bbe be10 843b 3f77 0a3c
000000d0: c3aa 243e 5e27 1b3e b0eb fe3d 9d6c 423b
000000e0: 10ae 87bd 0ecb c9bd ca33 69bc e7d6 9bbd
000000f0: 0a5e bcbc 15bd 22bd 6a12 1d3e 1fc8 723d
00000100: 3c49 503f 0e15 dabe 2d8a 413d dfdf 383d
00000110: ec9c a7be 4459 08be dcfb 7bbe f6f8 973e
00000120: 9b23 ba3e 7278 16bf c736 57be 599f 383e
00000130: 469c 0c3e 08f0 10bc 10e7 6fbf 52ab 153f
00000140: 1fbb f7bd cbae 4cbd 4be8 a63c 9c77 9c3e
00000150: 99a4 1a3e 8ea0 e7bd 4330 0fbe 84c0 ebbd
00000160: e3eb 113d 1fac c93e 2784 a5be a736 07bd
00000170: e5ca 2fbf c1ca 6dbb 1cf2 ebbc d712 7bbd
00000180: ae82 873e bb59 343f 4f5e 44be 24c0 64be
00000190: 8842 9e3e c593 363e fd41 6bbe ee57 31bf
000001a0: 6c61 4cbe 1131 e83d 97ff 5c3d 94f9 5e3e
000001b0: d589 d1be 2891 053e 8298 723d f0a6 a53d
000001c0: 052c 7cbe 4631 3d3e 83bd 0d3e 33a2 3a3e
000001d0: 7ad7 993c eecb f2bd f0a9 01be 2cad d53e
000001e0: 05d9 2f3d c367 00be 297b 41bb 7c45 ecbc
000001f0: eca7 903e 3c8b 86be 9708 b63d 2594 f4bd
00000200: 1128 213e 549b c3bc 456e ecbc e910 1fbe
00000210: 58b7 69be f1c9 babd e41b 083d 5a6c 523e
00000220: 781b db3d fa38 0abf fa55 d7bd b66c a73c
00000230: af64 0c3e c001 96bd 4ca1 cbbe 4978 973e
00000240: 0aab 893d 035b 66be 9083 3dbe 5175 093e
00000250: ce5b c4bd 4878 b63d f22b dabe 9e21 61bd
00000260: ff0f bb3d f4bf 073e 2f1b 683d a312 19bd
00000270: 80e9 bcbe d6d5 d13d 29bf 363e c9ab e9bc
00000280: a0d5 35bc 4a60 063f 2fe5 a8be d5b2 86bd
00000290: 2fcb 27bd 06ec 5f3e 9a14 b13d 989c d3be
000002a0: 3444 1cbe 8db3 acbd 93ac ca3d 3ec8 6abe
000002b0: ee24 4bbe d601 e4bd c864 7a3e 6fed f9bd
000002c0: a4bc 283e 9639 39be efa9 23bd 11c0 1bbe
000002d0: 6755 133d dddf 17be f9e6 6c3d 6452 793e
000002e0: 796e 853c 7ad5 dbbc dc27 71be e074 983d
000002f0: fa8e e3be 6382 b5bd 3e38 8bbc d0a8 99bd
00000300: 9386 7c3d 5b40 9f3d f04b edbd 6caa 4f3c
00000310: 7095 a13b eb70 d53d d580 5dbd 817a a5bd
00000320: 21e1 433d 237b 823d ffa9 3abe 0936 0dbe
00000330: 34a0 50bd 9868 27be afea 0d3d 24bd 463e
00000340: a93a 853d 396d ccbc eabe e4bd 2d5b ec3d
00000350: f203 ebbd 53f4 af3b c67d efbc 0bbc 373d
00000360: 31ff 74bb accc 563d 4b7c 9c3d dd34 783c
00000370: e200 be3d 9d3f 79bd 41f6 e3bc 602e 85bd
00000380: 91b5 013d 77aa 0bbd 5ed7 bf3c 667e 813e
00000390: b4d1 47bd db44 2e3c d8da 623c ec31 ddbd
000003a0: 223d cd3c 58af 49be 5b41 ff3c d2d3 b6bc
000003b0: 7fd3 a0bd d73e 343c afaf 783d e9b7 e8bd
000003c0: 3a6b 10be 920d 8bbd 0190 fcbc 93f9 7a3d
000003d0: 5648 27bd cd37 ed3d 0594 6b3d b0da b9bc
000003e0: 14e9 abbc a664 32bd 25fd bd3a 4bde 533c
000003f0: 46bf bdbc 1575 293e 5f42 da3d a313 513e
-0.04614334 0.12521695 0.037758775 0.09102562 0.10566761 0.005273709 -0.10853691 0.013077062
0.09006239 -0.1368136 0.12658802 0.03685712 -0.0047974084 0.03743573 0.08534852 -0.16776332
-0.0075523476 -0.109272204 -0.052979283 -0.18521819 0.13664141 0.08953958 -0.017674811 -0.14232339
0.023591429 0.003623375 0.38619906 0.06750121 -0.0671677 -0.042941526 -0.04545782 -0.14688128
-0.021198094 -0.04485248 -0.049216673 0.051552147 -0.058050048 -0.039248984 -0.04381584 0.11319162
-0.11370889 0.090481244 -0.17252025 -0.02078266 -0.089141905 -0.04327978 0.090921566 0.03529577
-0.030725744 -0.16767155 0.004030316 0.008451282 0.16080765 0.15151736 0.124472976 0.002966679
-0.06624997 -0.09853183 -0.014233539 -0.07609349 -0.02299406 -0.039731104 0.15339056 0.05927288
0.81361747 -0.42594188 0.047250915 0.045135375 -0.3273691 -0.13315302 -0.24607795 0.2968213
0.3635529 -0.58777535 -0.2101699 0.18029536 0.13731489 -0.00884629 -0.9371195 0.5846454
-0.120962374 -0.049971383 0.020374438 0.30560005 0.15101852 -0.1130992 -0.13983254 -0.11511329
0.03562535 0.3938913 -0.32327387 -0.033011105 -0.6866897 -0.003628418 -0.02880197 -0.061297264
0.26466888 0.7044942 -0.19176601 -0.22338921 0.30910134 0.17829807 -0.22974391 -0.69274795
-0.19959038 0.11337484 0.053954687 0.21774894 -0.4092547 0.13043654 0.059227474 0.080884814
-0.24626167 0.18475828 0.13841824 0.18225937 0.018779505 -0.11855303 -0.12662482 0.41733682
0.042931575 -0.12539582 -0.0029522872 -0.028841726 0.28253114 -0.26278102 0.08888357 -0.11942319
0.1573794 -0.023877777 -0.028861174 -0.15533794 -0.22823846 -0.091205485 0.033229724 0.20549145
0.106985986 -0.5399319 -0.105144456 0.02043758 0.13710283 -0.073245525 -0.39771497 0.29583958
0.06722076 -0.22495656 -0.18507218 0.13423659 -0.09587823 0.089096606 -0.42611653 -0.0549637
0.091339104 0.13256818 0.05666655 -0.03737129 -0.36896896 0.10245864 0.1784636 -0.028524296
-0.011098295 0.52490675 -0.32987353 -0.06577078 -0.040965255 0.2186738 0.086465076 -0.4133041
-0.15260392 -0.08432684 0.09896197 -0.22927949 -0.19838306 -0.11133163 0.24452507 -0.1220349
0.1647821 -0.18088374 -0.039956983 -0.15209986 0.035970118 -0.14831491 0.05783746 0.24347836
0.016288029 -0.026835192 -0.23550361 0.07444167 -0.4444502 -0.0886276 -0.016994592 -0.075029016
0.061651777 0.07775947 -0.115867496 0.012674909 0.0049311444 0.10421928 -0.054077942 -0.080800064
0.04782212 0.06371143 -0.18228911 -0.13790144 -0.05093403 -0.16348493 0.03464764 0.19408089
0.06505329 -0.024954425 -0.111692265 0.11540828 -0.11475362 0.005369702 -0.029234778 0.044857066
-0.0037383551 0.052441284 0.076408945 0.015149322 0.09277512 -0.060851682 -0.027827384 -0.06502986
0.031667296 -0.034098115 0.023418125 0.25291747 -0.048783973 0.010636534 0.013846122 -0.108005375
0.025053564 -0.19695795 0.031159094 -0.0223178 -0.0785284 0.01100131 0.06071442 -0.11363203
-0.14103404 -0.06789698 -0.030830385 0.06127317 -0.04084047 0.11582909 0.05751421 -0.022687286
-0.020985164 -0.043553017 0.0014494999 0.012931417 -0.023162495 0.1654857 0.106571905 0.20417647

ffn.4.bias f4 [64]
00000000: ffa5 a4bd c030 e3be d563 cebd fa97 df3b
00000010: b85d f7be 6714 86bf 82ff 1ebf f153 acbc
00000020: 4d40 8a3d 4c35 75bf 0838 1bbf d788 57bf
00000030: 6b52 04bd 1a88 16be 40f0 dd3e 9595 5bbf
00000040: 378c 14bf e913 6fbd 5da6 5bbe f0cb 19be
00000050: 7cb5 d3bd 3441 923c d715 10be a81f 0fbe
00000060: 9619 e1bd c045 3cbe b49e 7ebe 1b2e 0abf
00000070: 0dd6 653e b69d 04bf 336f d0be c14f 9a3d
00000080: 600a d2bd 1ce8 5abe 2927 efbe ad2a 56bd
00000090: a54b 20be d7af 173d 9fab 6fbf 4bf7 4abf
000000a0: 31e0 5dbf 85ce 26bf b225 28bd b03c cdbe
000000b0: a8a1 a33a a72b 92bd 862a 38bf 24c6 6bbf
000000c0: fb4f 003f eb72 6abd cae3 acbd 9fca 0abf
000000d0: 3887 f0be 7e9c 01be 7d58 d73d aecf 0bbd
000000e0: 610d f4be b465 abbe 66a0 15bf 47a8 af3e
000000f0: e9c4 693a f9a8 9cbd 884f 9abe 7ebd 55bc
-0.08039474 -0.4437313 -0.10077635 0.006823537 -0.4831369 -1.0474976 -0.62108624 -0.02103612
0.06750546 -0.9578445 -0.6063237 -0.84193176 -0.032305162 -0.14700356 0.4334736 -0.8577512
-0.5802645 -0.058368597 -0.21450181 -0.15019202 -0.1033735 0.017853357 -0.14070831 -0.1397692
-0.10991208 -0.18385983 -0.24865228 -0.539766 0.22444935 -0.5180315 -0.40709838 0.07534743
-0.10255885 -0.21377605 -0.46709564 -0.052286793 -0.15653856 0.03703293 -0.9362125 -0.7928359
-0.86670214 -0.65158874 -0.041051574 -0.40085363 0.001248409 -0.07137232 -0.71939886 -0.92099214
0.5012204 -0.0572385 -0.08441885 -0.54215425 -0.46978164 -0.12657353 0.10514925 -0.034133606
-0.47666457 -0.3347603 -0.58447874 0.34308073 0.00089175865 -0.076494165 -0.30138803 -0.013045667
