THESIS/transfer_learning/trained/DMPNN_with_attention_Gsolv.pt (torch, 658979 bytes, 21 tensors)

encoder_sol.cached_zero_vector f4 [128]
0	0x00000000	0.0
1	0x00000000	0.0
2	0x00000000	0.0
3	0x00000000	0.0
4	0x00000000	0.0
5	0x00000000	0.0
6	0x00000000	0.0
7	0x00000000	0.0
8	0x00000000	0.0
9	0x00000000	0.0
10	0x00000000	0.0
11	0x00000000	0.0
12	0x00000000	0.0
13	0x00000000	0.0
14	0x00000000	0.0
15	0x00000000	0.0
16	0x00000000	0.0
17	0x00000000	0.0
18	0x00000000	0.0
19	0x00000000	0.0
20	0x00000000	0.0
21	0x00000000	0.0
22	0x00000000	0.0
23	0x00000000	0.0
24	0x00000000	0.0
25	0x00000000	0.0
26	0x00000000	0.0
27	0x00000000	0.0
28	0x00000000	0.0
29	0x00000000	0.0
30	0x00000000	0.0
31	0x00000000	0.0
32	0x00000000	0.0
33	0x00000000	0.0
34	0x00000000	0.0
35	0x00000000	0.0
36	0x00000000	0.0
37	0x00000000	0.0
38	0x00000000	0.0
39	0x00000000	0.0
40	0x00000000	0.0
41	0x00000000	0.0
42	0x00000000	0.0
43	0x00000000	0.0
44	0x00000000	0.0
45	0x00000000	0.0
46	0x00000000	0.0
47	0x00000000	0.0
48	0x00000000	0.0
49	0x00000000	0.0
50	0x00000000	0.0
51	0x00000000	0.0
52	0x00000000	0.0
53	0x00000000	0.0
54	0x00000000	0.0
55	0x00000000	0.0
56	0x00000000	0.0
57	0x00000000	0.0
58	0x00000000	0.0
59	0x00000000	0.0
60	0x00000000	0.0
61	0x00000000	0.0
62	0x00000000	0.0
63	0x00000000	0.0
64	0x00000000	0.0
65	0x00000000	0.0
66	0x00000000	0.0
67	0x00000000	0.0
68	0x00000000	0.0
69	0x00000000	0.0
70	0x00000000	0.0
71	0x00000000	0.0
72	0x00000000	0.0
73	0x00000000	0.0
74	0x00000000	0.0
75	0x00000000	0.0
76	0x00000000	0.0
77	0x00000000	0.0
78	0x00000000	0.0
79	0x00000000	0.0
80	0x00000000	0.0
81	0x00000000	0.0
82	0x00000000	0.0
83	0x00000000	0.0
84	0x00000000	0.0
85	0x00000000	0.0
86	0x00000000	0.0
87	0x00000000	0.0
88	0x00000000	0.0
89	0x00000000	0.0
90	0x00000000	0.0
91	0x00000000	0.0
92	0x00000000	0.0
93	0x00000000	0.0
94	0x00000000	0.0
95	0x00000000	0.0
96	0x00000000	0.0
97	0x00000000	0.0
98	0x00000000	0.0
99	0x00000000	0.0
100	0x00000000	0.0
101	0x00000000	0.0
102	0x00000000	0.0
103	0x00000000	0.0
104	0x00000000	0.0
105	0x00000000	0.0
106	0x00000000	0.0
107	0x00000000	0.0
108	0x00000000	0.0
109	0x00000000	0.0
110	0x00000000	0.0
111	0x00000000	0.0
112	0x00000000	0.0
113	0x00000000	0.0
114	0x00000000	0.0
115	0x00000000	0.0
116	0x00000000	0.0
117	0x00000000	0.0
118	0x00000000	0.0
119	0x00000000	0.0
120	0x00000000	0.0
121	0x00000000	0.0
122	0x00000000	0.0
123	0x00000000	0.0
124	0x00000000	0.0
125	0x00000000	0.0
126	0x00000000	0.0
127	0x00000000	0.0

encoder_sol.W_i.weight f4 [128, 147]
0	0x3cf0d3bb	0.029397836
1	0xbcdf20df	-0.027237354
2	0x3d7d19d4	0.06179221
3	0xbc7244b3	-0.014786887
4	0x3d3c37dc	0.04595171
5	0x3ccdacf2	0.02510688
6	0x3c9e70d6	0.019340914
7	0xbc43e43c	-0.011956271
8	0xbc8389c0	-0.016056895
9	0xbd16edc9	-0.036847863
10	0x3ade908e	0.0016980337
11	0xbd637b9f	-0.055537816
12	0xbd4673f8	-0.04845044
13	0xbcc595e8	-0.024119332
14	0x3d05aea2	0.032637246
15	0x3cb5cb18	0.02219157
16	0xbb8ad360	-0.0042366236
17	0x3d374945	0.04474761
18	0x3d96809a	0.073487476
19	0x3d4b8ed0	0.049696743
20	0xbca85830	-0.020549864
21	0x3d199a89	0.03750089
22	0x3d1c7098	0.038193315
23	0xbda67da3	-0.08129432
24	0x3c58335b	0.013195838
25	0x3cdc2271	0.026871892
26	0xbd0b04b5	-0.033940036
27	0xbd7c5e28	-0.061613232
28	0x3cfbc0ef	0.030731646
29	0x3d79f555	0.061024982
30	0x3c933f2e	0.017974462
31	0x3d8bb5b1	0.06821764
32	0x3d7d01f0	0.061769426
33	0x3c20070b	0.009767304
34	0x3a99b394	0.0011726492
35	0xbd902b01	-0.07039452
36	0x3cc018dd	0.023449356
37	0x3d3011d4	0.042985752
38	0xbd14698c	-0.03623347
39	0x3bc80094	0.0061035845
40	0x3d744eba	0.059645392
41	0xbd28f50b	-0.041249316
42	0xbc465410	-0.012105003
43	0xbd283f62	-0.04107607
44	0x381480b4	3.5405814e-05
45	0x3c298c2a	0.010348359
46	0xbc5b3214	-0.013378639
47	0xbd8284a5	-0.06372956
48	0x3d744ddd	0.05964457
49	0xbc3b497a	-0.011431092
50	0x3c7e9952	0.015539484
51	0x3c843c2c	0.016141973
52	0x3cb60148	0.022217408
53	0x3c4f0b70	0.012637004
54	0x3c3b6506	0.01143766
55	0x3c175feb	0.009239177
56	0xbc4cdf34	-0.012504388
57	0xbda459ca	-0.080249384
58	0xbc505965	-0.012716626
59	0x3d550dfe	0.052015297
60	0x3d021a8b	0.031763595
61	0x3d300168	0.04297009
62	0xbc64f430	-0.013974234
63	0x3d8953bc	0.06705424
64	0x3cc69c8a	0.024244566
65	0xbc8d2bd2	-0.01723281
66	0xbd2d0ae7	-0.042246725
67	0xbd0fbae2	-0.035090335
68	0xbd30e16e	-0.043183737
69	0x3d245c87	0.040127303
70	0x3b95ddc0	0.004573554
71	0xbc730f5a	-0.014835203
72	0x3b41ef57	0.002959212
73	0xbd25040d	-0.040287066
74	0x3d1b1bae	0.037868194
75	0x3cb828cc	0.022480391
76	0x3d54a3d5	0.051914055
77	0xbd897884	-0.0671244
78	0xbcdec810	-0.027195007
79	0xbd11d8f2	-0.035607286
80	0x3c800457	0.01562707
81	0xbc33d439	-0.010975891
82	0xbd54f658	-0.051992744
83	0x3da89cbe	0.08233021
84	0x3d9c45ca	0.07630499
85	0xbd9dbe1f	-0.07702278
86	0x3d89cb27	0.06728201
87	0xbd0ed124	-0.03486742
88	0x3da3a690	0.07990754
89	0x3d47b422	0.048755772
90	0xbd7708e1	-0.060311202
91	0x3d874080	0.06604099
92	0x3d3d3d61	0.046201114
93	0xbd49350c	-0.049122855
94	0xbc89ffb7	-0.016845567
95	0xba87cdba	-0.0010360994
96	0x3da83e0f	0.08214962
97	0xbd2f4eba	-0.04279969
98	0xbc35185d	-0.011053172
99	0x3d90037c	0.070319146
100	0x3d74c0a1	0.059754018
101	0xbd02ee67	-0.03196564
102	0x3d2e43fe	0.04254531
103	0xbd82b77a	-0.063826516
104	0xbb3a5f3d	-0.0028438114
105	0xbb53f684	-0.003234298
106	0xbc57e647	-0.013177461
107	0x3d93198d	0.07182608
108	0xbb1c6dd7	-0.002386918
109	0x3b65f9bb	0.0035091478
110	0xbd323995	-0.043511946
111	0xbcec095c	-0.028813057
112	0xbca7bfa5	-0.020477125
113	0x39c16ae1	0.0003689146
114	0x3d3aaf83	0.045577537
115	0xbd3d3c96	-0.046200357
116	0x3c318656	0.010835251
117	0x3c2a208b	0.010383735
118	0xbd862bc9	-0.0655132
119	0xbd0d2a75	-0.03446432
120	0xbd1af0ef	-0.03782743
121	0x3d49ab19	0.049235437
122	0xbcf02cd1	-0.029318245
123	0x3b2546de	0.0025219242
124	0x3cf4ab5a	0.029866863
125	0x3c1c4997	0.00953903
126	0x3d3171df	0.043321487
127	0xbd338d74	-0.043836072
128	0xbd9c9e1f	-0.07647347
129	0x3d991f28	0.07476646
130	0xbd90270e	-0.07038699
131	0x3d5020db	0.050812583
132	0x3d8fed5f	0.07027697
133	0xbd1d047a	-0.038334347
134	0x3d8d92b7	0.06912749
135	0x3c6db9a1	0.014509589
136	0xbd9cb1c2	-0.07651092
137	0xbd9531a5	-0.072848596
138	0xbd8e7451	-0.06955779
139	0xbd023d87	-0.03179696
140	0xbd5eb113	-0.05436809
141	0x3c138f5f	0.00900635
142	0x3c908e32	0.017645929
143	0x3d0ce618	0.034399122
144	0xbd8d1074	-0.06887904
145	0xbd6d9b89	-0.058009658
146	0xbcbe58a2	-0.023235623
147	0x3cc07d1d	0.023497159
148	0x3d2950d5	0.041336853
149	0x3cbcba48	0.023038045
150	0xbd74db26	-0.05977931
151	0x3d63dafa	0.055628754
152	0xbc579929	-0.013159075
153	0x3d075ea6	0.03304925
154	0xbcca4d00	-0.02469492
155	0xbd179350	-0.037005723
156	0x3d9f1bdb	0.07768985
157	0xbbe769ff	-0.0070621963
158	0x3d5ad7b3	0.053428363
159	0xbd89c27a	-0.067265466
160	0x3d7ac4be	0.061222784
161	0x3da6b200	0.081394196
162	0xbbb19c66	-0.0054202555
163	0xbccd7f50	-0.025085121
164	0xbb9e5dde	-0.004832967
165	0x3c238bd6	0.00998207
166	0x3d89e6ee	0.067334995
167	0x3d16d6ee	0.036826067
168	0x3a11a0fe	0.0005555301
169	0xbd6fdb7e	-0.058558933
170	0xbd63f422	-0.055652745
171	0xbd21fdc3	-0.039548647
172	0xbd944fc9	-0.0724178
173	0xbc6bfdb0	-0.0144037455
174	0xbda6e8e8	-0.08149892
175	0xbc013a36	-0.007887414
176	0x3d312596	0.043248735
177	0xbc9ca69b	-0.019122412
178	0x3cfb669e	0.03068858
179	0xbd4c3341	-0.049853567
180	0xbc8d1bc7	-0.01722516
181	0x3c76784e	0.015043331
182	0xbd6adf67	-0.05734196
183	0x3cdbc348	0.026826516
184	0x3da02c12	0.07820906
185	0x3da527b5	0.08064214
186	0x3d1ef474	0.038807347
187	0xbd358886	-0.044319652
188	0x3d6f76b7	0.058462825
189	0x3d623abd	0.0552318
190	0xbcd0ffab	-0.025512537
191	0xbbc781cf	-0.0060884724
192	0xbd8e2d5a	-0.06942244
193	0x3d3af71d	0.04564582
194	0x3d1df4f2	0.038563676
195	0xbd6bb46a	-0.057545103
196	0x3d2f2911	0.042763773
197	0x3b944ef8	0.0045260154
198	0x3d970569	0.07374079
199	0x3c0e723a	0.008694226
200	0xbd9bd5c1	-0.0760913
201	0xbd41e8c6	-0.04734113
202	0x3d50d871	0.050987665
203	0x3d51ae61	0.05119169
204	0xbd89550f	-0.06705677
205	0xbd17227b	-0.036898118
206	0x3d96c599	0.073619075
207	0x3da58cf4	0.08083525
208	0x3d8aba28	0.06773788
209	0xbd265be2	-0.04061497
210	0xbd6d405a	-0.0579227
211	0xbd7162cb	-0.058932107
212	0xbd993455	-0.07480685
213	0xbc450d3d	-0.012027082
214	0x3c53962e	0.012914224
215	0x3d973dfe	0.07384871
216	0xbcb73391	-0.022363456
217	0x3c7efabb	0.0155627085
218	0xbd1e2aed	-0.038615156
219	0x3d960f46	0.07327132
220	0xbd394f27	-0.0452415
221	0xbd57dd81	-0.052701477
222	0xbd33c20c	-0.04388623
223	0x3d4ea9ed	0.050455023
224	0xbd9d95db	-0.07694598
225	0x3c7ea909	0.015543231
226	0x3d7ae395	0.061252195
227	0xbd36506e	-0.044510297
228	0xbce0c734	-0.027438737
229	0x3cff2cc1	0.03114927
230	0x3cc4b181	0.024010422
231	0x3c353d11	0.011061923
232	0xbda0ec11	-0.07857526
233	0xbd8ffa55	-0.07030169
234	0xbd20cd8f	-0.039258536
235	0x3d0fbac8	0.035090238
236	0xbd8d804c	-0.06909236
237	0xbd7056df	-0.058676597
238	0x3bcd845d	0.0062718824
239	0x3d9b37f4	0.075790316
240	0x3d7f01ff	0.062257763
241	0x3d84aee1	0.06478668
242	0xbc38509d	-0.011249688
243	0xbd2d7cac	-0.042355224
244	0xbd0515d2	-0.032491513
245	0xbd772723	-0.060340058
246	0x3da4e3d4	0.08051267
247	0x3d98ed73	0.07467165
248	0xbd229227	-0.039690163
249	0x3bcad415	0.006189833
250	0xbd011be2	-0.03152073
251	0x3c71ba2d	0.01475386
252	0xbb95c29e	-0.0045703193
253	0x3ca0630d	0.019578481
254	0xbda11fa4	-0.07867363
255	0xbc82d16e	-0.015969004

encoder_sol.W_i.bias f4 [128]
0	0xbce7b80a	-0.028285999
1	0xbcd1bbed	-0.025602305
2	0x3c029bcc	0.007971715
3	0x3d53932b	0.051654022
4	0xbd6bfcdf	-0.057614204
5	0x3d286cdc	0.04111944
6	0x3d125e40	0.035734415
7	0x3d5ec16a	0.054383673
8	0xbd4c602f	-0.049896415
9	0xbcf37def	-0.029723136
10	0xbda6b96a	-0.08140834
11	0x3d963385	0.07334045
12	0x3bec9cb5	0.0072208294
13	0xbcea66c2	-0.028613452
14	0xbcf7e423	-0.030260151
15	0xbd5605df	-0.052251693
16	0x3ce758ec	0.028240643
17	0xbb66b056	-0.003520032
18	0x3d2ac1b7	0.041688647
19	0x3d332378	0.043734998
20	0x3c239820	0.009985
21	0x3cef1a73	0.029187417
22	0x3aab7919	0.0013082355
23	0xbc5a89bd	-0.013338503
24	0x3d17cc4e	0.037060075
25	0x3c0b68c9	0.008508869
26	0xbd3b2f65	-0.045699496
27	0x3d548604	0.05188562
28	0xbcd2b34d	-0.025720263
29	0x3c84cefc	0.01621198
30	0xbd04b123	-0.032395493
31	0xbd60c5e8	-0.054876238
32	0xbd468930	-0.048470676
33	0xbd5eeec4	-0.054426923
34	0xbd9d5974	-0.076830775
35	0x3da596e5	0.080854215
36	0xbd3638cd	-0.044487763
37	0x3c6763b0	0.014122888
38	0xbd264f49	-0.040602956
39	0xbcc0b226	-0.023522448
40	0x3d68b978	0.0568175
41	0x3d4aaac8	0.049479276
42	0xbd10f604	-0.03539087
43	0x3d15ad9d	0.036542524
44	0x3ccc793d	0.024960155
45	0x3cbb9234	0.022896864
46	0xbd458ab6	-0.04822799
47	0xbd95bdf5	-0.07311622
48	0xbc854699	-0.016269015
49	0xbd1d0e3b	-0.03834365
50	0x3d2498a7	0.040184643
51	0x3bd49b0f	0.006488211
52	0xbcd40908	-0.025883213
53	0x3d823729	0.06358177
54	0xbbf9af9b	-0.0076198108
55	0x3d973ff5	0.07385246
56	0x3d90c876	0.07069485
57	0xbcfddfbf	-0.03099048
58	0x3d9803fe	0.074226364
59	0xbcc1785e	-0.023616966
60	0xbd4102c6	-0.047121786
61	0x3c99581c	0.018718772
62	0xbd8e8554	-0.06959024
63	0x3d09731e	0.03355705
64	0xbd8dabb1	-0.06917513
65	0xbd2d8687	-0.042364623
66	0xbb7bba31	-0.003841054
67	0xbce9113c	-0.0284506
68	0x3d86db2a	0.06584771
69	0xbd8dd238	-0.06924862
70	0xbd9514b4	-0.072793394
71	0x3d66b3d5	0.056323845
72	0x3d506ee6	0.05088701
73	0xbd1a1698	-0.037619203
74	0x3d7ac515	0.06122311
75	0xbb84a375	-0.004047806
76	0xbd924ff1	-0.07144154
77	0x3c959f07	0.018264307
78	0xbcdab807	-0.02669908
79	0xbcc10b3f	-0.023564933
80	0x3c43b314	0.011944551
81	0xbd7bc41e	-0.06146633
82	0x3d92ef01	0.071744926
83	0xbd9443e0	-0.07239509
84	0x3d6004f8	0.05469224
85	0xbd5ed7d4	-0.05440505
86	0x3d92a1ca	0.07159765
87	0xbd610757	-0.05493864
88	0xbda0c227	-0.078495316
89	0x3cd61202	0.026131634
90	0xbd320c72	-0.0434689
91	0xbd4e6739	-0.05039141
92	0xbd99d18b	-0.0751067
93	0xbd8e92d5	-0.069616
94	0xbd65dbd5	-0.05611785
95	0xbd6c2c2f	-0.057659324
96	0xbd2d6912	-0.04233653
97	0x3d576f4b	0.05259637
98	0x3ceeb1e3	0.029137557
99	0xbd2b2a08	-0.04178813
100	0xbd94bb5c	-0.072622985
101	0xbd95af17	-0.07308786
102	0xbd6e6c69	-0.058208857
103	0xbc4b50ff	-0.012409448
104	0x3c995f9d	0.01872235
105	0xbd0c893e	-0.03431057
106	0xbd66025e	-0.0561546
107	0xbd50a878	-0.050941914
108	0x3d5a372b	0.05327527
109	0xbda65f5a	-0.081236556
110	0x3d382d75	0.044965226
111	0x3cd43b2e	0.025907125
112	0x3da41e67	0.08013611
113	0x3d1a0e6d	0.037611414
114	0x3d0f95df	0.035055038
115	0x3cf5e4c5	0.030016312
116	0xbd9d13bf	-0.07669782
117	0x3b4a4662	0.0030864705
118	0xbc90f190	-0.017693311
119	0x3d8aa3a8	0.06769496
120	0xbd82895c	-0.063738555
121	0xbc7e90b4	-0.01553743
122	0x3d152271	0.0364098
123	0xbd969dbc	-0.07354304
124	0xbd1bff62	-0.03808535
125	0xbd11109b	-0.035416227
126	0xbd980312	-0.074224606
127	0x3d9ae22a	0.075626686

encoder_sol.W_h.weight f4 [128, 128]
0	0xbd4caa86	-0.04996731
1	0xbda71a30	-0.08159292
2	0xbd8b2d97	-0.06795805
3	0x3cd68f59	0.0261914
4	0xbc9c34fd	-0.019068236
5	0xbd811182	-0.063021675
6	0xbd509065	-0.050918955
7	0xbc64290d	-0.013925803
8	0xbd54215c	-0.051789626
9	0xbcb4156b	-0.02198287
10	0x3cec170c	0.028819583
11	0xbab8fe7a	-0.0014113926
12	0xbd9d8ce9	-0.07692892
13	0x3d5ff169	0.054673586
14	0xbd139542	-0.036031015
15	0xbd796692	-0.060888834
16	0x3cc3059b	0.023806384
17	0x3da11497	0.07865255
18	0xbdb2b9f1	-0.08726872
19	0x3d9ae751	0.07563651
20	0xbbc0fc50	-0.005889453
21	0xbd0e8c22	-0.03480161
22	0x3d59daf8	0.05318734
23	0xbd2e7dec	-0.042600557
24	0xbdb0412e	-0.08606182
25	0xbbedf299	-0.007261586
26	0xbcfaca5b	-0.030614069
27	0x3ca40c5a	0.020025421
28	0xbc6e3138	-0.014538102
29	0x3b35fad8	0.0027767923
30	0xbbc1bcd3	-0.005912402
31	0x3cf6c2aa	0.03012212
32	0x3cba83ea	0.02276798
33	0xbdb3b0be	-0.08773945
34	0xbdb1ed8e	-0.08687888
35	0xbd14cc16	-0.036327444
36	0xbc57a99d	-0.013162998
37	0xbd311a59	-0.043238018
38	0xbdb2b6b0	-0.08726251
39	0x3cff9042	0.031196717
40	0x3d71fece	0.05908089
41	0x3d2e5d87	0.042569663
42	0xbd683e14	-0.056699827
43	0xbd913d90	-0.0709182
44	0xbd7b9d5a	-0.06142936
45	0xbdadbb69	-0.08483011
46	0x3d44caa1	0.048044804
47	0x3d8b2d51	0.06795753
48	0xbd9b9e8e	-0.07598601
49	0xbd9d8f8b	-0.07693394
50	0xbaf4cbb1	-0.0018676427
51	0xbd426030	-0.047455013
52	0xbda3edac	-0.08004317
53	0x3d5a2266	0.05325546
54	0x3cf8902f	0.03034219
55	0xbc58a1a2	-0.01322213
56	0xbbfd2190	-0.007724948
57	0x3da3cf40	0.07998514
58	0xbd3e5482	-0.04646731
59	0x3d372b55	0.04471906
60	0x3c475489	0.012166151
61	0xbd0b5203	-0.03401376
62	0x3a49df9b	0.00077008613
63	0xbda19d38	-0.07891315
64	0xbd814f35	-0.06313936
65	0xbccb8a42	-0.0248462
66	0xbd84c727	-0.06483298
67	0xbd9ae476	-0.07563107
68	0xbce77bb4	-0.028257228
69	0xbce785d2	-0.028262053
70	0xbd462440	-0.048374414
71	0x3da25a16	0.07927339
72	0x3d5671f2	0.05235476
73	0xbd7f54df	-0.0623368
74	0xbdaf25fe	-0.08552168
75	0x3cff42da	0.031159807
76	0xbda3c66c	-0.0799683
77	0x3bf1c6e9	0.0073784483
78	0xbd5e31ec	-0.054246828
79	0xbc0cecc4	-0.008601371
80	0xbd81b123	-0.06332614
81	0xbda45cf6	-0.080255434
82	0x3d806b1a	0.06270428
83	0xbd11f0ea	-0.035630144
84	0xbda172f3	-0.07883253
85	0xbbaa0f6a	-0.005189826
86	0x3ce811c3	0.028328782
87	0xbd866b6f	-0.0656346
88	0x3d8053d4	0.06265989
89	0x3d536d6c	0.051618025
90	0x3c8caf17	0.017173333
91	0xbd131bf1	-0.03591532
92	0xbd1dddcb	-0.038541596
93	0x3da56bb5	0.08077184
94	0x3d5d9382	0.054095753
95	0xbd802194	-0.062564045
96	0x3cf85db7	0.030318124
97	0x3cc7d322	0.024392668
98	0xbd30664d	-0.04306631
99	0xbc66c632	-0.014085339
100	0x3db1c8ca	0.086808756
101	0xbd896d05	-0.06710247
102	0xbb942c20	-0.0045218617
103	0x3d2abfce	0.041686825
104	0xbd55789d	-0.05211698
105	0x3d8b7617	0.06809633
106	0xbc0b33b5	-0.008496215
107	0x3d721d94	0.05911024
108	0x3d9b9afb	0.075979196
109	0x3cdf8b5e	0.027288135
110	0xbdb2d26a	-0.087315395
111	0x3bb262a2	0.005443887
112	0x3d2bfaa8	0.04198709
113	0xbd8f6aa0	-0.07002759
114	0xbcba961f	-0.022776661
115	0x3d841347	0.06448989
116	0x3d34de91	0.04415757
117	0xbc34f729	-0.011045256
118	0xbd058e3d	-0.032606352
119	0xbc14f836	-0.009092381
120	0xbd26fdf1	-0.04076952
121	0x3d2e3c10	0.04253775
122	0xb764653f	-1.3613432e-05
123	0xbdad206e	-0.08453451
124	0x3ab41e6f	0.001374198
125	0x3d95a304	0.073064834
126	0xbd9fe8f9	-0.07808108
127	0x3ccc6eb2	0.024955127
128	0xbb520455	-0.003204604
129	0xbd09ae5b	-0.033613544
130	0xbdaf6b15	-0.08565346
131	0xbd551aae	-0.052027397
132	0x3d17afc6	0.037032865
133	0x3cd08b94	0.025457181
134	0xbd95e92e	-0.07319866
135	0xbc47a6bd	-0.01218575
136	0xbd89d320	-0.06729722
137	0xbc64686d	-0.013940913
138	0x3bef7e66	0.007308769
139	0x3d3ee63d	0.04660629
140	0x3d298d08	0.041394264
141	0xbd3cd566	-0.04610195
142	0x3d7f9779	0.062400315
143	0x3c2afd17	0.010436318
144	0xbcd1e30e	-0.025620963
145	0xbd3f45b2	-0.046697326
146	0x3cfcd614	0.0308638
147	0xbd9ef5eb	-0.07761749
148	0xbbb53453	-0.005529919
149	0xbd010624	-0.031499997
150	0x3d7ebcb6	0.062191688
151	0xbd6de8c9	-0.05808333
152	0xbbeac5c7	-0.00716469
153	0x3ad4af93	0.0016226642
154	0x3c085862	0.008321853
155	0x3d4dfd73	0.050290536
156	0x3d92abdb	0.07161685
157	0x3d50b015	0.050949175
158	0x3ce34283	0.027741676
159	0x3d3cd325	0.0460998
160	0x3dae8970	0.08522308
161	0xbd9a9611	-0.07548154
162	0xbd880931	-0.06642378
163	0xbd33901b	-0.0438386
164	0x3cfc9709	0.030833738
165	0xbd6ef0f2	-0.058335252
166	0x3da01cb7	0.07817977
167	0xbcaded58	-0.021231338
168	0xbcff2a2b	-0.031148037
169	0xbca91ea5	-0.020644495
170	0xbdb1430c	-0.08655366
171	0xbd0a55d4	-0.03377326
172	0x3d08c23a	0.033388354
173	0xbdb2d62b	-0.087322555
174	0xbd84858c	-0.064707845
175	0xbd8bd73f	-0.06828164
176	0xbd03e3af	-0.032199558
177	0xbd14898d	-0.03626399
178	0xbd58ae38	-0.052900523
179	0x3d9257f1	0.0714568
180	0xbd12a981	-0.035806183
181	0xbdaa1073	-0.08303919
182	0xbd125947	-0.035729673
183	0x3d4cc877	0.049995866
184	0x3d8f65f9	0.070018716
185	0xbd04218c	-0.032258555
186	0xbd06a97d	-0.03287648
187	0x3d8f63dd	0.07001469
188	0x3c1835bd	0.009290156
189	0x3da24d5d	0.07924912
190	0x3d8db77e	0.06919764
191	0xbd02fda2	-0.031980164
192	0x3b18b9e1	0.0023304152
193	0x3b0f051b	0.0021823111
194	0x3c77d78b	0.015127073
195	0xbc74643b	-0.014916475
196	0x3d6bdccc	0.057583615
197	0xbd88db7f	-0.066824906
198	0xbcda287c	-0.026630633
199	0x3b9811ad	0.004640779
200	0xbd5cacf3	-0.053875875
201	0x3dab023c	0.083500355
202	0xbd505c83	-0.050869476
203	0xbd8f5fb0	-0.07000673
204	0x3b4de8b0	0.003141921
205	0x3c360bc6	0.011111205
206	0x3c9ca368	0.019120887
207	0xbc951d23	-0.01820237
208	0xbd4316e5	-0.047629256
209	0x3daded8d	0.08492575
210	0x3d25c183	0.04046775
211	0xbd3ba199	-0.04580841
212	0xbd9c8260	-0.076420546
213	0x3d9c999f	0.076464884
214	0x3d5ce685	0.053930778
215	0x3ca8210f	0.020523576
216	0x3d81c46e	0.06336294
217	0x3d272df8	0.040815324
218	0xba19eda5	-0.00058718986
219	0xbcb3ae01	-0.021933557
220	0xbc8d896f	-0.017277448
221	0x3d8f9a56	0.07011859
222	0x3d446b1d	0.047953714
223	0x3d1e6caf	0.038677868
224	0x3d59eee4	0.05320634
225	0x3d42b21f	0.04753315
226	0xba4da9c1	-0.00078454247
227	0xbd535e8d	-0.051603843
228	0xbd807ced	-0.06273828
229	0x3d088c8d	0.033337165
230	0xbb6105de	-0.0034335773
231	0x3d1f69dc	0.038919315
232	0x3daff934	0.085924536
233	0x3d951225	0.072788514
234	0xbd4f4e9b	-0.050612073
235	0x3dae5171	0.085116275
236	0xbd936a26	-0.071979806
237	0xbcd26b10	-0.025685817
238	0xbd009596	-0.031392656
239	0xbca20458	-0.019777462
240	0x3d2afbfc	0.041744217
241	0x3d3c6941	0.045998815
242	0x3d343afb	0.04400156
243	0xbc1d8806	-0.00961495
244	0xbcfb26be	-0.030658122
245	0x3d9cc358	0.07654446
246	0xbd0656fa	-0.03279779
247	0x3dae88af	0.08522164
248	0x3a4f48d4	0.00079072756
249	0xbd15b766	-0.036551856
250	0xbc8237d7	-0.015895767
251	0x3d560c83	0.052258026
252	0x3cdc23f2	0.026872609
253	0xbc61731d	-0.013760355
254	0x3da99465	0.08280257
255	0x3c253a8d	0.01008476

encoder_sol.W_h.bias f4 [128]
0	0x3ce0c4b4	0.027437545
1	0x3c176080	0.009239316
2	0xbb9990a9	-0.0046864343
3	0x3cad8f8a	0.021186609
4	0xbd9d5e8a	-0.076840475
5	0xbd854758	-0.06507748
6	0xbd93de51	-0.07220138
7	0xbd8228ed	-0.06355462
8	0xbd8423de	-0.064521536
9	0xbd933296	-0.07187383
10	0xbdaa92be	-0.0832877
11	0xbdb4e154	-0.088320404
12	0xbdaba858	-0.083817184
13	0x3ca551ee	0.020180669
14	0xbc3956b0	-0.011312172
15	0x3d6a0c79	0.0571408
16	0xbd8338e0	-0.064073324
17	0x3bac20c6	0.0052529303
18	0xbd281cba	-0.04104302
19	0xbce17db3	-0.027525758
20	0x3d74d3ca	0.05977229
21	0x3cc7e617	0.024401708
22	0xbcf1469e	-0.029452618
23	0xbcb09096	-0.021553319
24	0xbd88c788	-0.066786826
25	0x3d85793a	0.06517263
26	0xbd679ede	-0.056547992
27	0x3d8dd404	0.069252044
28	0xbd632c76	-0.055462323
29	0x3da4e0d0	0.08050692
30	0x3d0a682e	0.03379076
31	0x3d216f68	0.039412886
32	0x3d84a53f	0.06476831
33	0xbba0ff0b	-0.004913216
34	0xbd6d4500	-0.05792713
35	0x3d76240d	0.060092974
36	0xbc42dde5	-0.011893724
37	0xbdabdf43	-0.08392193
38	0xbc2ded74	-0.010615695
39	0xbd78e2da	-0.060763218
40	0x3c5b550d	0.013386977
41	0x3d989f0d	0.074522115
42	0xbd8c2759	-0.068434425
43	0x3b831bcc	0.0040011164
44	0x3d1fe817	0.039039697
45	0x3d8b6294	0.06805912
46	0x3b96ffd9	0.004608136
47	0xbd9c02e2	-0.07617737
48	0xbd8411c5	-0.06448702
49	0xbb866d79	-0.0041024056
50	0xbd852b80	-0.065024376
51	0xbd64a356	-0.05581983
52	0xbd591f8b	-0.053008597
53	0xbd835bd9	-0.06414003
54	0x3c1a2012	0.00940706
55	0xbd0b9e61	-0.03408659
56	0x3c1713f5	0.009221067
57	0xbc897fe3	-0.016784614
58	0xbc06a495	-0.00821795
59	0xbc0d0b37	-0.008608631
60	0x3d824763	0.06361272
61	0xbca12c4c	-0.019674443
62	0xbc6aa973	-0.014322626
63	0xbd024ebc	-0.03181337
64	0x3db21e4a	0.086971834
65	0xbd9fe6c8	-0.0780769
66	0x3d2369e5	0.03989591
67	0x3d496711	0.049170557
68	0x3d1c2c78	0.038128346
69	0xbd8e90f9	-0.06961245
70	0x3d5d995a	0.054101326
71	0x3d59e15b	0.05319343
72	0xbd52fd4d	-0.051511098
73	0xbd2bb56a	-0.041921057
74	0x3becdf5b	0.0072287745
75	0xbd1a7fe2	-0.037719615
76	0xbda389e1	-0.07985283
77	0x3d8c0dce	0.068385705
78	0xbcd904a1	-0.026491465
79	0xbd8cbaa6	-0.06871538
80	0xbd9ed7df	-0.07756018
81	0xbda3dae6	-0.08000736
82	0x3c86cf3b	0.016456237
83	0x3d0abad0	0.033869565
84	0x3d633895	0.055473883
85	0x3d81d83e	0.06340073
86	0x3d4c8161	0.049928073
87	0xbd457d54	-0.048215225
88	0x3cd76523	0.026293343
89	0xbc5024d3	-0.012704092
90	0xbd7bbd80	-0.06146002
91	0x3c94e99b	0.018177798
92	0x3d8f8f63	0.07009771
93	0xbc2c8140	-0.0105288625
94	0xbd54b084	-0.05192615
95	0xbc8a26da	-0.016864229
96	0xbcdd2374	-0.026994444
97	0xbdb0b92b	-0.08629068
98	0xbd6fb4ef	-0.05852216
99	0xbd494747	-0.04914024
100	0x3d01ebd7	0.031719055
101	0x3c6e96f4	0.014562357
102	0xbd65d8f1	-0.056115095
103	0xbd147883	-0.03624774
104	0x3d7ae65a	0.061254837
105	0x3d51b564	0.05119838
106	0x3c69fe3e	0.0142818075
107	0xbd7240ec	-0.059143946
108	0x3bdb3990	0.0066902116
109	0x3d5a4476	0.053287946
110	0xbca63d3e	-0.020292874
111	0x3d9ad619	0.07560367
112	0xbb8654e6	-0.004099476
113	0x3b120341	0.0022279772
114	0x3d9ac2fa	0.0755672
115	0xbd97698e	-0.0739318
116	0x3d4e5543	0.05037428
117	0x3d0c2735	0.03421708
118	0x3d3d49e8	0.04621306
119	0x3bdf0a85	0.006806674
120	0xbd8c08ca	-0.06837614
121	0xbca86fe7	-0.020561172
122	0x3d57141e	0.05250942
123	0xbda77355	-0.08176295
124	0xbd2fb81f	-0.0429002
125	0xbd7b2f5f	-0.061324473
126	0x3c9b0dd0	0.018927485
127	0xbd087e09	-0.03332332

encoder_sol.W_o.weight f4 [128, 261]
0	0xbced419f	-0.028961955
1	0xbc97c493	-0.018526351
2	0xbd601d17	-0.054715242
3	0x3c7bda1b	0.015371825
4	0xbbd1304f	-0.0063839327
5	0xbd07b497	-0.03313121
6	0x3d2acb8c	0.041698024
7	0xbc1e1515	-0.009648581
8	0xbd261987	-0.04055169
9	0xbc5a67a1	-0.013330371
10	0xbd2f0496	-0.042728983
11	0x3d0b8cc2	0.034069784
12	0xbc1edc7d	-0.009696123
13	0x3d7057fe	0.058677666
14	0xbd1406e7	-0.036139395
15	0x3ce03091	0.027366908
16	0x3d631cd9	0.055447433
17	0xbd57f171	-0.05272049
18	0xbcac55a7	-0.021036936
19	0x3ca2db15	0.019879857
20	0x3d292faf	0.04130524
21	0xbd5193d7	-0.05116638
22	0x3d7ae46a	0.06125299
23	0xbd0c1b1c	-0.03420554
24	0x39b150db	0.00033820313
25	0xbc9bd460	-0.019022167
26	0x3ce9f6b8	0.028560027
27	0x3c9e1094	0.019295014
28	0x3d0ea324	0.03482355
29	0x3c1f2b11	0.009714858
30	0xbd277d2e	-0.040890865
31	0x3d1979b5	0.037469584
32	0xbc7bf9bc	-0.0153793655
33	0x3d05dd87	0.032681968
34	0x3ca178aa	0.019710857
35	0x3d516bd9	0.051128242
36	0x39045cb2	0.00012623033
37	0xbc874e14	-0.016516723
38	0xbca4b35e	-0.02010506
39	0x3d1d445e	0.03839528
40	0xbcaba04f	-0.020950465
41	0xbc26a471	-0.010171042
42	0xbca1b9e8	-0.019741967
43	0xbb89bc04	-0.0042033214
44	0xbcbee614	-0.02330307
45	0x3ca8ba70	0.020596713
46	0x3ca1ddb3	0.019759035
47	0x3be69555	0.0070368447
48	0x3bd4c91c	0.0064937007
49	0xbb00732e	-0.0019599902
50	0xbd72f9a6	-0.059320115
51	0xba86884c	-0.0010264008
52	0xbc865b8f	-0.01640108
53	0xbd6ecd36	-0.058301173
54	0x3ce263b8	0.02763544
55	0x3cf00076	0.029297095
56	0xbccc3a47	-0.024930133
57	0xbd402536	-0.046910487
58	0xbd56c6a6	-0.05243554
59	0xb945cfdd	-0.00018864819
60	0xbd1d4681	-0.038397316
61	0x3cab08d0	0.020878226
62	0x3d0b1baa	0.03396193
63	0x3c6d79cf	0.014494373
64	0xbd7c1cb1	-0.0615508
65	0x3d4cf5de	0.050039165
66	0xbb805880	-0.0039168
67	0xbc4c423b	-0.012466962
68	0x3d38e13b	0.04513667
69	0x3d045804	0.0323105
70	0x3d4f24a6	0.05057206
71	0x3d2ee0f5	0.042695004
72	0x3abb4c06	0.0014289625
73	0xbc8f3950	-0.017483383
74	0xbd4d8083	-0.050171386
75	0xbc95aa2e	-0.018269625
76	0x3cec9f72	0.028884623
77	0xbcf1635f	-0.02946633
78	0xbc35fc1d	-0.011107472
79	0xbd62e46a	-0.055393614
80	0xbd0eb722	-0.034842618
81	0x3ccb0991	0.024784835
82	0xbd13f1ef	-0.036119398
83	0xbd5c91dc	-0.05385004
84	0xbd4fce93	-0.050734114
85	0x3c6d1ed9	0.014472687
86	0x3a259292	0.0006316091
87	0x3c9c3d2b	0.019072136
88	0xbd28a7a3	-0.041175496
89	0x3c45ea33	0.012079763
90	0x3ce37d4b	0.027769705
91	0xbd0d6edb	-0.03452955
92	0xbca9cbfc	-0.02072715
93	0xbd339c83	-0.043850433
94	0xbc5cb19f	-0.013470083
95	0x3d499350	0.049212754
96	0x3c2504a3	0.010071906
97	0x3cac7fbf	0.021057008
98	0x3cb1d657	0.02170865
99	0xbd3ef381	-0.046618942
100	0xbcf5900c	-0.029975913
101	0x3d3e4829	0.046455536
102	0xbcbf6b01	-0.023366453
103	0x3d3304c2	0.04370571
104	0xbd142542	-0.036168344
105	0x3d5f421e	0.054506414
106	0x3d74846e	0.059696607
107	0xbac78894	-0.0015223199
108	0xbd590c00	-0.05298996
109	0x3cf2e89b	0.02965193
110	0xbcfb98e9	-0.030712562
111	0xbd4f969e	-0.05068075
112	0xbb8189a9	-0.003953178
113	0xbc39d599	-0.01134243
114	0x3d728721	0.0592109
115	0xbd777190	-0.060411036
116	0x3b6c5ecf	0.0036067253
117	0x3cea60fb	0.028610697
118	0xbbb8fc66	-0.0056453226
119	0xbd35fb49	-0.044429097
120	0x3ccac761	0.024753274
121	0x3ca11c93	0.019666946
122	0x3cfb97df	0.030712066
123	0xbd2134a4	-0.039356843
124	0xbd7c73d4	-0.0616339
125	0xbd0e77fd	-0.0347824
126	0xbc3274b5	-0.010892083
127	0x3d526dcf	0.051374253
128	0x3b297b39	0.00258608
129	0xbc8d3ead	-0.0172418
130	0xbce5feeb	-0.028075656
131	0x3ccd33c2	0.025049094
132	0xbd055544	-0.03255202
133	0x3cf7ecef	0.030264346
134	0x3cad35de	0.02114385
135	0xbc81d3ec	-0.015848123
136	0xbcd57d48	-0.026060715
137	0xbacf1a40	-0.001580067
138	0x3cca0eb9	0.024665223
139	0x3d417faa	0.04724089
140	0xbc98c28f	-0.01864746
141	0xbcf4bbc4	-0.02987469
142	0x3c8f94b5	0.017526964
143	0x3d037bb2	0.032100387
144	0xbcbd57fe	-0.023113247
145	0xbc90c010	-0.017669708
146	0xbd1536cf	-0.036429223
147	0xbc8e5ef7	-0.017379267
148	0xbc3e6e4a	-0.011622975
149	0xbc245f66	-0.01003251
150	0xbc206864	-0.009790514
151	0xbc10d008	-0.008838661
152	0x3d575aa8	0.05257669
153	0x3c1ab4d3	0.009442526
154	0x3ce33e93	0.027739799
155	0xbd0e0e09	-0.034681354
156	0x3c0933a0	0.008374125
157	0x3cbeeaf8	0.023305401
158	0xbd26c9e2	-0.040719874
159	0xbc6c723f	-0.014431535
160	0xbc81cf24	-0.015845843
161	0xbd73dc9a	-0.059536554
162	0x3cc75e32	0.024336908
163	0x3c30ef16	0.01079919
164	0x3c1e498a	0.009661088
165	0x3b4d63c3	0.003133998
166	0xbd71465b	-0.058904987
167	0x3bb4ae4c	0.005513942
168	0xbd0f29c3	-0.034951936
169	0x3b2d94e5	0.0026486453
170	0xbd5969c9	-0.0530794
171	0xbd0a3b34	-0.033747867
172	0x393dac1d	0.00018088562
173	0xbd579992	-0.05263669
174	0x3d4cbb8f	0.049983557
175	0xbc4ff286	-0.012692099
176	0x3bd69a07	0.006549123
177	0x3b77679b	0.0037750963
178	0x3a7b0aee	0.0009576519
179	0xbd7cda1e	-0.06173145
180	0xbce30415	-0.027711907
181	0x3d3af1dc	0.04564081
182	0xbd017d42	-0.031613596
183	0xbd153904	-0.036431327
184	0x3ca0973b	0.019603362
185	0xbd4c7667	-0.049917605
186	0x3d5eb46d	0.054371286
187	0x3d062503	0.03275014
188	0x3cc5c8de	0.024143633
189	0x3d44afb2	0.04801912
190	0xbcc54f11	-0.024085553
191	0xbd43f7d9	-0.047843788
192	0xbd323c6f	-0.043514665
193	0xbd0789c9	-0.033090387
194	0x3cd36f09	0.025809782
195	0x3bb60e8f	0.0055559347
196	0x3d1e8f80	0.03871107
197	0xbd28360c	-0.041067168
198	0xbd1055da	-0.035238124
199	0x3d0e6a35	0.034769256
200	0xbd29ce70	-0.04145664
201	0x3d7ca98b	0.061685126
202	0xbbcfdb4f	-0.0063432823
203	0xbd73a4ab	-0.05948321
204	0x3d342f16	0.043990217
205	0xbd185041	-0.03718591
206	0x3ce80386	0.028321993
207	0xbcc0b8a7	-0.02352555
208	0x3d6b060b	0.05737881
209	0xbcfd503c	-0.030922048
210	0x3d20f6ef	0.039297994
211	0x3d5ddb9c	0.054164514
212	0x3ce0dc79	0.02744888
213	0xbd05c97b	-0.03266285
214	0xbc11fc16	-0.0089102
215	0xbd793fb3	-0.060851764
216	0xbd655115	-0.05598553
217	0xbc5efa68	-0.013609506
218	0x3bea17aa	0.0071439343
219	0xbd726659	-0.059179638
220	0x3b857c76	0.004073675
221	0xbd60f945	-0.054925222
222	0x3cb5651d	0.022142941
223	0xbd47f12c	-0.048813984
224	0x3c8df86f	0.017330376
225	0xbd799426	-0.0609323
226	0x3d23f90f	0.040032443
227	0x3c14dcfc	0.00908589
228	0x3d5c4f76	0.053786717
229	0xbc89275a	-0.016742397
230	0xbbf8aab7	-0.00758871
231	0x3d211028	0.03932205
232	0x3d18a448	0.037266046
233	0x3d488eb8	0.048964232
234	0xbc8b841e	-0.017030772
235	0xbd0c020e	-0.034181647
236	0xbbab86d2	-0.0052345777
237	0x3d1b29ee	0.037881784
238	0xbc53ea1f	-0.012934237
239	0xbd00a1d2	-0.031404324
240	0x3cea1030	0.028572172
241	0xbd213be4	-0.039363757
242	0xbc5e7669	-0.013578036
243	0xbd2a1727	-0.041525986
244	0x3cc658ec	0.024212323
245	0x3c629ca6	0.013831293
246	0xbd276483	-0.04086734
247	0xbbda4e31	-0.006662153
248	0x3d25bb6d	0.040461946
249	0x3d27bb8b	0.04095034
250	0xbc987911	-0.018612416
251	0xbc673393	-0.014111417
252	0xbd53fe96	-0.051756464
253	0xbd76163c	-0.060079798
254	0x3c8bd106	0.017067444
255	0xbd669e09	-0.056303058

encoder_sol.W_o.bias f4 [128]
0	0xbd34c956	-0.04413732
1	0xbbd1b496	-0.0063997013
2	0xbd301ccb	-0.04299621
3	0x3ced78ed	0.028988326
4	0xb83cea00	-4.5040622e-05
5	0xbd61744b	-0.055042546
6	0xbbad43df	-0.005287632
7	0xbcfbf68c	-0.030757211
8	0xbd0a8962	-0.033822425
9	0xbb6126f8	-0.0034355503
10	0xbd296e31	-0.041364852
11	0x3d515250	0.05110389
12	0xbcd9e392	-0.026597772
13	0x3d38796a	0.045037664
14	0x3d0982d5	0.033572037
15	0x3cfb219e	0.030655678
16	0x3d0c4e23	0.034254204
17	0x3c9279ad	0.017880285
18	0xbd340005	-0.04394533
19	0xbc120c6d	-0.008914095
20	0xbc32e982	-0.01091993
21	0xbcdc57fe	-0.026897427
22	0x3b1a4907	0.0023542063
23	0xbd302b08	-0.043009788
24	0xbd418b90	-0.047252238
25	0x3caf08bc	0.02136647
26	0xbbf8fa02	-0.0075981626
27	0xbc10e6ff	-0.008844136
28	0xbd5ae970	-0.05344528
29	0x3d530a1c	0.051523313
30	0xbc260fcb	-0.010135601
31	0x3c913264	0.017724223
32	0xbd0579d5	-0.03258689
33	0x3b31cc48	0.0027129818
34	0xbd758565	-0.059941668
35	0xbcf561f3	-0.029953932
36	0x3b8dfe0d	0.0043332637
37	0xbbce543c	-0.0062966626
38	0xbd35842e	-0.04431551
39	0xbd50bb07	-0.050959613
40	0xbc5907d4	-0.013246495
41	0xbc64ebb8	-0.013972215
42	0xb95fcf2f	-0.00021344119
43	0x3b83172c	0.004000565
44	0x3b161932	0.0022903201
45	0xbcba99ae	-0.022778358
46	0x3cb7ce75	0.022437314
47	0x3bd0e2a0	0.006374672
48	0xbce5d84b	-0.028057238
49	0x3c6237a1	0.013807208
50	0x3c8459a6	0.016156029
51	0xbb8d55bf	-0.0043132002
52	0x3c9049de	0.017613348
53	0x3d2244af	0.039616283
54	0x3c8e824c	0.017396115
55	0x3d408f7c	0.047011837
56	0xb9dd6e1a	-0.00042234437
57	0x3be2535c	0.00690691
58	0xbcad7b84	-0.02117706
59	0x3c904eae	0.017615642
60	0xbb50dfb7	-0.0031871626
61	0x3d3501f2	0.04419131
62	0xbd5c7db6	-0.053830825
63	0x3c449902	0.0119993705
64	0xbd2c2398	-0.042026132
65	0xbd376a2b	-0.044778984
66	0xbc0a3fc5	-0.008438055
67	0x3d034961	0.0320524
68	0x3cc6418a	0.024201173
69	0x3d033d14	0.03204067
70	0xbcf6dac9	-0.030133622
71	0xbd6a18e1	-0.057152633
72	0xbcca5b42	-0.024701718
73	0xbd11212e	-0.035432033
74	0xbd29cf53	-0.041457485
75	0x3d166486	0.03671696
76	0xbcd181d8	-0.02557461
77	0x3bc4aff9	0.006002423
78	0xbb061687	-0.0020460205
79	0xbd6be98b	-0.05759577
80	0x3c5fe78a	0.013666043
81	0xbc69cfc5	-0.0142707275
82	0xbcbe2102	-0.023209099
83	0xbc1676a9	-0.009183564
84	0xbd75d5f2	-0.060018487
85	0xbcf864bd	-0.030321473
86	0x3cf5f0c4	0.030022033
87	0xbd02b926	-0.031914853
88	0x3d68a609	0.05679897
89	0x3d650841	0.055916075
90	0x3c6098a2	0.0137082655
91	0x39e3683c	0.00043374475
92	0x3d788a36	0.060678683
93	0x3c190728	0.009340085
94	0xbc86819c	-0.016419224
95	0xbd3e963f	-0.046530005
96	0x3d351f98	0.044219583
97	0xbd139538	-0.036030978
98	0x3d4c4602	0.049871452
99	0xbd6e624e	-0.05819922
100	0xbd4f4eb7	-0.050612178
101	0x3979ee32	0.00023835225
102	0xbc89803d	-0.016784782
103	0xbd25f3bf	-0.040515658
104	0xbd18e4a4	-0.037327424
105	0xbccd4596	-0.025057595
106	0x3ca0f127	0.01964624
107	0xbd6d480d	-0.05793004
108	0xbc74708c	-0.014919411
109	0xbd6cc21c	-0.057802305
110	0xbd08eb97	-0.0334278
111	0x3a16be77	0.00057504274
112	0x3d2f56f6	0.04280754
113	0xbc592fd1	-0.013256029
114	0xbbfbdbf6	-0.0076861335
115	0x3d74562d	0.059652496
116	0x3bef80f3	0.007309073
117	0x3d071bb1	0.032985393
118	0xbcd8f1b7	-0.026482446
119	0xbd5a5d53	-0.053311657
120	0xbd2be317	-0.041964617
121	0xbd38c998	-0.04511413
122	0x3cc4d777	0.024028523
123	0x3d14e07e	0.036346905
124	0xbd5cd1f9	-0.053911183
125	0x3c557492	0.013028281
126	0x3d28e6c4	0.0412357
127	0xbd7c845b	-0.06164966

encoder_solv.cached_zero_vector f4 [128]
0	0x00000000	0.0
1	0x00000000	0.0
2	0x00000000	0.0
3	0x00000000	0.0
4	0x00000000	0.0
5	0x00000000	0.0
6	0x00000000	0.0
7	0x00000000	0.0
8	0x00000000	0.0
9	0x00000000	0.0
10	0x00000000	0.0
11	0x00000000	0.0
12	0x00000000	0.0
13	0x00000000	0.0
14	0x00000000	0.0
15	0x00000000	0.0
16	0x00000000	0.0
17	0x00000000	0.0
18	0x00000000	0.0
19	0x00000000	0.0
20	0x00000000	0.0
21	0x00000000	0.0
22	0x00000000	0.0
23	0x00000000	0.0
24	0x00000000	0.0
25	0x00000000	0.0
26	0x00000000	0.0
27	0x00000000	0.0
28	0x00000000	0.0
29	0x00000000	0.0
30	0x00000000	0.0
31	0x00000000	0.0
32	0x00000000	0.0
33	0x00000000	0.0
34	0x00000000	0.0
35	0x00000000	0.0
36	0x00000000	0.0
37	0x00000000	0.0
38	0x00000000	0.0
39	0x00000000	0.0
40	0x00000000	0.0
41	0x00000000	0.0
42	0x00000000	0.0
43	0x00000000	0.0
44	0x00000000	0.0
45	0x00000000	0.0
46	0x00000000	0.0
47	0x00000000	0.0
48	0x00000000	0.0
49	0x00000000	0.0
50	0x00000000	0.0
51	0x00000000	0.0
52	0x00000000	0.0
53	0x00000000	0.0
54	0x00000000	0.0
55	0x00000000	0.0
56	0x00000000	0.0
57	0x00000000	0.0
58	0x00000000	0.0
59	0x00000000	0.0
60	0x00000000	0.0
61	0x00000000	0.0
62	0x00000000	0.0
63	0x00000000	0.0
64	0x00000000	0.0
65	0x00000000	0.0
66	0x00000000	0.0
67	0x00000000	0.0
68	0x00000000	0.0
69	0x00000000	0.0
70	0x00000000	0.0
71	0x00000000	0.0
72	0x00000000	0.0
73	0x00000000	0.0
74	0x00000000	0.0
75	0x00000000	0.0
76	0x00000000	0.0
77	0x00000000	0.0
78	0x00000000	0.0
79	0x00000000	0.0
80	0x00000000	0.0
81	0x00000000	0.0
82	0x00000000	0.0
83	0x00000000	0.0
84	0x00000000	0.0
85	0x00000000	0.0
86	0x00000000	0.0
87	0x00000000	0.0
88	0x00000000	0.0
89	0x00000000	0.0
90	0x00000000	0.0
91	0x00000000	0.0
92	0x00000000	0.0
93	0x00000000	0.0
94	0x00000000	0.0
95	0x00000000	0.0
96	0x00000000	0.0
97	0x00000000	0.0
98	0x00000000	0.0
99	0x00000000	0.0
100	0x00000000	0.0
101	0x00000000	0.0
102	0x00000000	0.0
103	0x00000000	0.0
104	0x00000000	0.0
105	0x00000000	0.0
106	0x00000000	0.0
107	0x00000000	0.0
108	0x00000000	0.0
109	0x00000000	0.0
110	0x00000000	0.0
111	0x00000000	0.0
112	0x00000000	0.0
113	0x00000000	0.0
114	0x00000000	0.0
115	0x00000000	0.0
116	0x00000000	0.0
117	0x00000000	0.0
118	0x00000000	0.0
119	0x00000000	0.0
120	0x00000000	0.0
121	0x00000000	0.0
122	0x00000000	0.0
123	0x00000000	0.0
124	0x00000000	0.0
125	0x00000000	0.0
126	0x00000000	0.0
127	0x00000000	0.0

encoder_solv.W_i.weight f4 [128, 147]
0	0x3cd7ce96	0.026343625
1	0xbce1c342	-0.027558926
2	0x3cb4509f	0.0220111
3	0xbb345865	-0.0027518508
4	0x3cc9d6c5	0.024638543
5	0xbcd1b73f	-0.025600074
6	0x3d0bc151	0.034119908
7	0x3d854687	0.06507593
8	0x3d8ffaf3	0.07030287
9	0xbc1b490b	-0.009477864
10	0xbd7ce1e8	-0.06173888
11	0xbd405d2a	-0.04696385
12	0xbd8db6b2	-0.06919612
13	0xbbbc6b24	-0.005750077
14	0x3bc687bc	0.0060586613
15	0x3d9f2b0a	0.07771881
16	0x3d987da6	0.074458405
17	0x3d913870	0.07090843
18	0x3d25c07e	0.040466778
19	0xbb33cc58	-0.002743503
20	0x3d2638f1	0.040581647
21	0x3ccaef42	0.02477229
22	0x3adefe16	0.0017012979
23	0x3b5c23d2	0.0033590687
24	0xbd834270	-0.06409156
25	0xbc8aa6b6	-0.016925197
26	0x3d6b984a	0.05751828
27	0x3d86df28	0.065855324
28	0x3d540454	0.05176194
29	0x3d97db98	0.07414931
30	0x3d715bda	0.058925487
31	0xbd7615de	-0.060079448
32	0x3d2614e6	0.040547274
33	0xbd708b2c	-0.058726475
34	0xbd8e65a0	-0.06952977
35	0x3c36f863	0.011167618
36	0xbd42047d	-0.04736756
37	0xbd4ff195	-0.0507675
38	0x3d89c67b	0.0672731
39	0xbda042e1	-0.07825256
40	0xbca83118	-0.020531222
41	0x3cb37c52	0.021909866
42	0xbd333363	-0.043750178
43	0xbce413af	-0.027841417
44	0xbd7df7a2	-0.06200374
45	0x3cbbc24a	0.022919793
46	0xbd67855c	-0.056523666
47	0xbcf54767	-0.029941274
48	0xbceac02f	-0.028656093
49	0xbd61ea6a	-0.055155195
50	0xbd90179a	-0.07035752
51	0x3d88a0c4	0.066712886
52	0xbd70375d	-0.05864655
53	0xbd830d0d	-0.063989736
54	0x3d45bde3	0.048276793
55	0x3da5dfbe	0.08099316
56	0x3d72fedb	0.05932508
57	0xbd9f9165	-0.07791404
58	0xbd788aa4	-0.060679093
59	0x3d581b4b	0.052760404
60	0xbb7b9933	-0.0038390874
61	0xbb4944b8	-0.0030711126
62	0x3d689bac	0.056789085
63	0x3c6f1a2f	0.014593645
64	0x3d8e9185	0.069613494
65	0xbd5f27c2	-0.054481275
66	0xbd62a655	-0.055334408
67	0x3cbfa97f	0.023396252
68	0xbd16e35a	-0.036837913
69	0x3d71d340	0.059039354
70	0x3d98127d	0.07425401
71	0xbda8cf31	-0.082426436
72	0xbc249de9	-0.010047414
73	0x3d823039	0.06356854
74	0x3c9ae38d	0.018907333
75	0xbceb8681	-0.02875066
76	0xbd89ae13	-0.06722655
77	0xbd0413dc	-0.032245502
78	0xbcfe5669	-0.031047063
79	0x3c4724e6	0.012154793
80	0xbd8b2de8	-0.06795865
81	0xbd5a5745	-0.053305883
82	0xbd8d9e0f	-0.06914913
83	0x3d4fda14	0.050745085
84	0x3d9bfb0c	0.07616243
85	0x3bff497f	0.007790744
86	0x3d86c6a0	0.065808535
87	0x3d63ac95	0.05558451
88	0x3c9753ab	0.018472513
89	0x3d0ad026	0.033889912
90	0x3d701964	0.058617964
91	0xbd51b78c	-0.051200435
92	0x3c8bafad	0.017051542
93	0xbb82f554	-0.0039965305
94	0xbd4993d9	-0.049213264
95	0x3d200926	0.039071225
96	0xbd996045	-0.07489065
97	0xbd35c547	-0.04437759
98	0xbd24bc49	-0.040218625
99	0xbd8a36cb	-0.06748732
100	0x3d8b422d	0.067997314
101	0xbd92c297	-0.07166021
102	0xbb0bcfed	-0.002133365
103	0x3d0f49f1	0.034982625
104	0x3da00d2b	0.078150116
105	0x3d597428	0.05308929
106	0xbd81f3c2	-0.06345321
107	0xba81edfa	-0.0009912841
108	0x3b0af488	0.002120288
109	0xbd518f7e	-0.051162235
110	0xbd36ef95	-0.044662077
111	0xbc462e69	-0.012096026
112	0x3bbe3735	0.005804921
113	0xbd8beccb	-0.06832274
114	0xbd8d4046	-0.06897025
115	0xbd125b55	-0.035731632
116	0x3d3bffc1	0.045898203
117	0x3d99051e	0.07471679
118	0xbd7936f6	-0.06084343
119	0xbce896bc	-0.028392188
120	0xbcca5945	-0.02470077
121	0xbd0fd922	-0.035119183
122	0xbd5a16a1	-0.053244237
123	0x3cbfcf65	0.023414323
124	0xbd8ded75	-0.06930057
125	0xbd83c170	-0.0643338
126	0xbd5d5f19	-0.05404577
127	0x3d0c02c0	0.03418231
128	0x3bd6c761	0.0065545295
129	0xbbc94689	-0.0061424416
130	0x3da3f4c6	0.08005671
131	0xbd8c7b03	-0.068594
132	0x3d05eb07	0.032694843
133	0x3d1f99d0	0.038965046
134	0x3d45d9e1	0.04830349
135	0xbd8d0b43	-0.068869136
136	0x3cbc5763	0.022990888
137	0x3c022aed	0.007944805
138	0xbd9cf5f5	-0.076641
139	0x3ceee468	0.029161647
140	0xbd44a1f2	-0.048006006
141	0xbc520b65	-0.0128200995
142	0x3d78eeb0	0.060774505
143	0xbd90ed97	-0.07076567
144	0x3d96cf31	0.073637374
145	0x398f3ab1	0.00027318814
146	0x3da8a941	0.082354076
147	0x3d921123	0.07132175
148	0xbd34e184	-0.04416038
149	0xbca4132f	-0.020028679
150	0xbcb87bcf	-0.022519974
151	0x3bfc610b	0.007701998
152	0xbd4b516b	-0.049638193
153	0x3c98c8f7	0.018650515
154	0x3d4d580e	0.050132804
155	0x3d067249	0.032823835
156	0xbccbdef6	-0.02488659
157	0x3d9a87bf	0.07545423
158	0xbd88c50c	-0.06678209
159	0xbd99d793	-0.07511821
160	0x3ce88e8c	0.028388284
161	0x3d030cc9	0.031994615
162	0x3d66f5d6	0.05638679
163	0x3d91d620	0.07120919
164	0x3d04e7da	0.032447673
165	0x3d09b8be	0.03362345
166	0xbd4b0c30	-0.04957217
167	0x3d02c8ad	0.03192966
168	0xbd8d1af5	-0.06889907
169	0x3da62a10	0.081134915
170	0x3d27b94b	0.040948194
171	0x3d2911e6	0.041276835
172	0xbd4a9c80	-0.049465656
173	0xbcc28769	-0.02374621
174	0x3cfa0523	0.030520028
175	0x3cb58d27	0.022162033
176	0xbd9345e3	-0.07191064
177	0xbd03b242	-0.03215242
178	0xbc5f34ef	-0.01362346
179	0x3d5a92cd	0.053362656
180	0xbcfae2ac	-0.030625664
181	0x3d596b74	0.05308099
182	0xbd84d8e3	-0.0648668
183	0xb9b7c1d7	-0.00035048902
184	0xbcfd7754	-0.03094069
185	0x3d3d755d	0.046254504
186	0xbd7181fa	-0.058961846
187	0x3da40f32	0.08010711
188	0x3d8b48e7	0.068010144
189	0x3d0f4767	0.034980204
190	0xbd2def0c	-0.0424643
191	0x3c406f67	0.01174531
192	0x3c85e602	0.016345028
193	0x3d22f8d1	0.03978807
194	0x3d2404aa	0.04004351
195	0xbc67f79d	-0.014158157
196	0xbc283713	-0.010267037
197	0x3d6e21af	0.058137592
198	0x3cb44ea4	0.022010155
199	0xbd8b58ad	-0.06804023
200	0x3d3b1108	0.04567054
201	0x3cd572d8	0.026055738
202	0x3ae0aafa	0.0017140799
203	0x3d6b76fb	0.057486515
204	0x3d05d4e8	0.032673746
205	0xbc613c19	-0.013747239
206	0xbc49ca75	-0.012316336
207	0xbc0ddb0b	-0.008658181
208	0x3bdc147b	0.0067163086
209	0xbd6519c2	-0.055932768
210	0xbbfc76bc	-0.007704584
211	0xbd476848	-0.048683435
212	0xbc9c91ed	-0.019112552
213	0xbda3b0bd	-0.079926945
214	0xbc6fd631	-0.01463847
215	0xbd1371bb	-0.035997134
216	0xbc7a14af	-0.01526372
217	0x3c248b7a	0.010043019
218	0x3d3f3f88	0.046691447
219	0xbca600a2	-0.020263974
220	0xbd5f7013	-0.05455024
221	0x3c49bcf9	0.012313121
222	0x3cd08478	0.025453791
223	0xbda4baf7	-0.08043473
224	0xbd30f737	-0.043204512
225	0x3bb202ac	0.0054324474
226	0xbd7a3eb2	-0.061094947
227	0xbd712c58	-0.05888018
228	0x3ccfbb92	0.025357995
229	0x3d364fc8	0.04450968
230	0x3d97e2eb	0.07416328
231	0xbd8f8ea2	-0.07009627
232	0xbba1329b	-0.0049193627
233	0x3d818553	0.06324258
234	0x3d9a5d7e	0.075373635
235	0xbd02e674	-0.03195806
236	0xbd4534f1	-0.048146192
237	0x3d3307f7	0.043708768
238	0x3d8f059f	0.06983494
239	0x3d9a454a	0.07532747
240	0xbcb7aeea	-0.022422273
241	0x3d6becb0	0.05759877
242	0x3cf4295d	0.02980488
243	0x3d290b7d	0.04127072
244	0x3d4f0d80	0.050549984
245	0xbd6d571e	-0.05794441
246	0x3cdf1001	0.027229311
247	0xbc4171ef	-0.011806949
248	0x3d327ff5	0.04357906
249	0x3da1ca12	0.0789987
250	0x3d536d2b	0.051617783
251	0xbd3a463a	-0.04547713
252	0x3cf30eab	0.02967008
253	0x3d828da7	0.06374674
254	0x3d947ba1	0.07250143
255	0x3c721cf2	0.014777409

encoder_solv.W_i.bias f4 [128]
0	0x3ba2ff40	0.004974276
1	0x3a461e69	0.0007557632
2	0xbd65c29f	-0.05609381
3	0xbd169069	-0.036758814
4	0x3d91a822	0.07112147
5	0x3c92069b	0.017825415
6	0x3bc61234	0.0060446505
7	0x3d881ba2	0.066458955
8	0xbd718e54	-0.058973625
9	0xbd28812c	-0.041138813
10	0x3d0dab32	0.034587093
11	0xbd92cb54	-0.07167688
12	0x3da63dbd	0.081172444
13	0x3d237d6f	0.039914545
14	0xbd494ef5	-0.049147565
15	0xbce6bae5	-0.02816529
16	0xbc3bd513	-0.011464375
17	0x3c5e9c6f	0.013587101
18	0xbcbde047	-0.023178233
19	0xbd58fac2	-0.052973516
20	0x3d6b51dd	0.057451118
21	0x3d7c4fc4	0.061599508
22	0x3da77a40	0.08177614
23	0x3c0c5726	0.0085657
24	0xbc6e9218	-0.014561199
25	0x3d846bcd	0.06465874
26	0x3d92bdd0	0.0716511
27	0xbc06f03b	-0.008235986
28	0x3c580bb9	0.013186389
29	0x3d17840b	0.03699116
30	0xbcbf1728	-0.023326471
31	0xbd734f7f	-0.059401985
32	0xbc75a3e1	-0.014992685
33	0x3cbf077d	0.023319
34	0x3d1b3c6c	0.03789942
35	0x3cf6236a	0.030046184
36	0xbc9cfab7	-0.019162519
37	0xbd932d59	-0.07186384
38	0x3d621d56	0.05520376
39	0x3d0af0a2	0.03392089
40	0x3d98bf63	0.07458379
41	0xbba7f90d	-0.0051261247
42	0xbd0c94ad	-0.034321476
43	0x3c8aabde	0.016927656
44	0x3d70ed55	0.058820087
45	0x3d59a6a7	0.053137448
46	0x3d9218ed	0.071336605
47	0x3d9cb812	0.07652296
48	0xb9dc2be8	-0.00041994383
49	0xbcdf3bd3	-0.027250206
50	0xba400498	-0.0007324903
51	0xbceef370	-0.029168814
52	0x3a694284	0.0008898156
53	0xbcdba391	-0.026811393
54	0x3c0a1d82	0.008429887
55	0xbd7ff6c1	-0.062491182
56	0xbcc55f5e	-0.024093326
57	0x3d4c2dfa	0.049848534
58	0x3ca8a6a5	0.020587275
59	0xbda55976	-0.08073704
60	0xbc222708	-0.009897001
61	0x3d7dd018	0.06196603
62	0x3d26bdfb	0.040708523
63	0xbc9c8d93	-0.019110477
64	0xbc679b3c	-0.014136132
65	0xbc50b088	-0.012737401
66	0xbd7e89bc	-0.062143072
67	0x3cfe4d7c	0.031042807
68	0x3d703e62	0.058653243
69	0xbbc2a0ac	-0.0059395637
70	0xbb145a1a	-0.0022636713
71	0xbccf519b	-0.025307467
72	0x3d764ebc	0.06013368
73	0x3d27adb2	0.040937133
74	0x3d68189a	0.056664087
75	0xbd1c422e	-0.03814905
76	0xbd3926bd	-0.04520296
77	0x3d90367d	0.07041643
78	0x3d324940	0.043526888
79	0x3cad9208	0.021187797
80	0xbba0422e	-0.0048907017
81	0x3d895c59	0.06707067
82	0xbd68df39	-0.056853507
83	0x3d83b518	0.06431025
84	0x3d78a28a	0.060701884
85	0x3c372d76	0.011180272
86	0xbc899981	-0.01679683
87	0xbd3b2730	-0.04569167
88	0x3c9c687b	0.019092789
89	0x3d4ae769	0.049537096
90	0x3cb6e0ec	0.022324048
91	0xbd9d73f3	-0.07688131
92	0x3cbf3cb0	0.023344368
93	0xbd2fdecc	-0.042937085
94	0x3c2cba99	0.010542535
95	0xbd817b94	-0.06322399
96	0xbd1f3d6a	-0.03887693
97	0xbd8803fa	-0.066413835
98	0xbd1f0b5c	-0.038829193
99	0xbd2c4a1e	-0.04206287
100	0xbd2c7154	-0.042100266
101	0x3da50152	0.080568925
102	0xbd6388bf	-0.055550333
103	0x3d41234f	0.047152814
104	0x3d0cdce6	0.034390353
105	0x3d9df757	0.07713192
106	0x3d6b8a25	0.05750479
107	0x39ed8dca	0.00045309804
108	0xbd35e9c6	-0.044412397
109	0x3c0cff13	0.008605736
110	0x3d09f55f	0.03368127
111	0xbb69a651	-0.003565211
112	0xbd7f5cd4	-0.062344387
113	0x3c10becc	0.008834552
114	0xbd922cc9	-0.07137448
115	0xbd79f50b	-0.061024707
116	0x3cbcd2e6	0.023049783
117	0x3c5033c8	0.012707658
118	0xbd87c466	-0.06629257
119	0x3ce6bb8e	0.028165605
120	0xbd0f5d5d	-0.035001148
121	0xbc8062e7	-0.01567216
122	0x3d5a339f	0.053271886
123	0xbcafdf7d	-0.021468872
124	0xbda82b28	-0.082113564
125	0xbd3d448c	-0.04620795
126	0xbd0f2f1b	-0.034957033
127	0xbd779be0	-0.06045139
