THESIS/transfer_learning/trained/DMPNN_with_attention_Water_pka.pt (torch, 347384 bytes, 14 tensors)

encoder.cached_zero_vector f4 [128]
00000000: 0000 0000 0000 0000 0000 0000 0000 0000
00000010: 0000 0000 0000 0000 0000 0000 0000 0000
00000020: 0000 0000 0000 0000 0000 0000 0000 0000
00000030: 0000 0000 0000 0000 0000 0000 0000 0000
00000040: 0000 0000 0000 0000 0000 0000 0000 0000
00000050: 0000 0000 0000 0000 0000 0000 0000 0000
00000060: 0000 0000 0000 0000 0000 0000 0000 0000
00000070: 0000 0000 0000 0000 0000 0000 0000 0000
00000080: 0000 0000 0000 0000 0000 0000 0000 0000
00000090: 0000 0000 0000 0000 0000 0000 0000 0000
000000a0: 0000 0000 0000 0000 0000 0000 0000 0000
000000b0: 0000 0000 0000 0000 0000 0000 0000 0000
000000c0: 0000 0000 0000 0000 0000 0000 0000 0000
000000d0: 0000 0000 0000 0000 0000 0000 0000 0000
000000e0: 0000 0000 0000 0000 0000 0000 0000 0000
000000f0: 0000 0000 0000 0000 0000 0000 0000 0000
00000100: 0000 0000 0000 0000 0000 0000 0000 0000
00000110: 0000 0000 0000 0000 0000 0000 0000 0000
00000120: 0000 0000 0000 0000 0000 0000 0000 0000
00000130: 0000 0000 0000 0000 0000 0000 0000 0000
00000140: 0000 0000 0000 0000 0000 0000 0000 0000
00000150: 0000 0000 0000 0000 0000 0000 0000 0000
00000160: 0000 0000 0000 0000 0000 0000 0000 0000
00000170: 0000 0000 0000 0000 0000 0000 0000 0000
00000180: 0000 0000 0000 0000 0000 0000 0000 0000
00000190: 0000 0000 0000 0000 0000 0000 0000 0000
000001a0: 0000 0000 0000 0000 0000 0000 0000 0000
000001b0: 0000 0000 0000 0000 0000 0000 0000 0000
000001c0: 0000 0000 0000 0000 0000 0000 0000 0000
000001d0: 0000 0000 0000 0000 0000 0000 0000 0000
000001e0: 0000 0000 0000 0000 0000 0000 0000 0000
000001f0: 0000 0000 0000 0000 0000 0000 0000 0000
0.0 0.0 0.0 0.0 0.0 0.0 0.0 0.0
0.0 0.0 0.0 0.0 0.0 0.0 0.0 0.0
0.0 0.0 0.0 0.0 0.0 0.0 0.0 0.0
0.0 0.0 0.0 0.0 0.0 0.0 0.0 0.0
0.0 0.0 0.0 0.0 0.0 0.0 0.0 0.0
0.0 0.0 0.0 0.0 0.0 0.0 0.0 0.0
0.0 0.0 0.0 0.0 0.0 0.0 0.0 0.0
0.0 0.0 0.0 0.0 0.0 0.0 0.0 0.0
0.0 0.0 0.0 0.0 0.0 0.0 0.0 0.0
0.0 0.0 0.0 0.0 0.0 0.0 0.0 0.0
0.0 0.0 0.0 0.0 0.0 0.0 0.0 0.0
0.0 0.0 0.0 0.0 0.0 0.0 0.0 0.0
0.0 0.0 0.0 0.0 0.0 0.0 0.0 0.0
0.0 0.0 0.0 0.0 0.0 0.0 0.0 0.0
0.0 0.0 0.0 0.0 0.0 0.0 0.0 0.0
0.0 0.0 0.0 0.0 0.0 0.0 0.0 0.0

encoder.W_i.weight f4 [128, 147]
00000000: f3c0 5fbd 768c 5dbd 881c 79bc e88f 5f3d
00000010: 9868 cfbd bf49 cebc 517c 5bbe 29d1 c43d
00000020: 1afe 323e 0030 d6ba 28d9 8abd 18f9 053d
00000030: 3f5e 81bd 1357 b63d f964 8b3e 76ed 78be
00000040: 4508 b6bb aced 853d 6074 9dbd a05e 55bb
00000050: 63bd 72bd d06c b9bb cae8 20bd ec1b b13c
00000060: 9e1d f3bc a0be 713d 081e 4b3c 1326 16bd
00000070: 2c3a d0bc 70f2 16bd e4de 6c3d 78ea e23c
00000080: 8138 363d 2285 35bd 3536 003d a0b6 913d
00000090: 966e 963d 9411 a73c cb56 27bd 9a47 093d
000000a0: 325c a63d 44eb 7d3d 060c a3bd 30b7 14bd
000000b0: c01f a93a 10bc dcbb 8c2d 823d ce26 6dbd
000000c0: 3c93 57bd 01d1 2b3d 2a9a 873d 8477 693d
000000d0: 55a4 c9bd 40f1 38bd 1493 7a3d d0e5 aabc
000000e0: 103b 4d3d e0b3 61bd 5883 513d 606e 6d3d
000000f0: 02b3 823d f223 f9bc cc46 9cbd 8ae1 8abd
00000100: e298 833d b584 76bd 213c 04bd f92c 96bd
00000110: 68ab 3cbc a0bf 5ebb b70b 9fbd 0467 9abc
00000120: 9463 5a3d b0d0 8d3d bbb3 a2bd 805e 6d3b
00000130: f4dd 773d 6c52 cd3c b8d9 9f3d a942 9abc
00000140: 1852 68bc 909e 3e3d ec0f 883d 85de 14bd
00000150: 8442 643d 889a 6c3c c412 a7bc 2b75 60bd
00000160: 380d 3e3d 80a2 683d 6e66 033d c3b9 57bd
00000170: 24de a43c 4015 5a3b ecca b33c 0857 66bd
00000180: d20e d8bc 7831 3a3d 404a 083d 58d4 02bc
00000190: 7d90 12bd 75db 90bd e90e 603d 84a8 37bd
000001a0: 4759 8fbc ab63 57be a45b d3bc 4896 003c
000001b0: cef4 56be d677 1ebd 7f79 30bd acfd a3bc
000001c0: f4a6 4e3d cf8d 33bd 1b09 f4ba 3b66 c7bd
000001d0: b536 203e b0cd 463c d5b1 92bd 415a d43d
000001e0: 44c7 a6bd c258 20bc 1786 9fbd 80c0 ffbb
000001f0: 66f2 973d 5a96 edbc d20c 5bbc 4611 a8bd
00000200: c0e1 6b3b 1813 36bc 66d2 85bd 4f4f 85bd
00000210: f23d 30bd 48ac 86bc dbca 823c 24e2 cb3c
00000220: f600 8cba f5d4 2ebd 7f6b 953d 61f7 ed3c
00000230: 1927 1f3d 56b3 7cbd 7808 12be 1282 e4bd
00000240: a43a 8d3d e34d 93bd 1a19 a73d 5433 a4bc
00000250: 0521 2bbd 7ce1 783d 04ab 3f3d 8f74 543e
00000260: e9b9 debc 7eb0 373e bddf 64be eb78 aebd
00000270: 4c3f 4d3d 5497 453d a580 4dbd fcfd e4bc
00000280: 76e4 b03d da88 11bb 2d9b 4bbe 1e7d 193e
00000290: e03a 903d 5601 2a3d a8fb b53c 4a3d ffbc
000002a0: 0c1e 823d 0b7a 9ebd 3e28 943d e27e 7fbd
000002b0: e0de 353d fce1 a73d 2252 87bd 16b0 efbc
000002c0: af77 98bd c82f 85bd 1e1b 8d3d 71c7 6ebe
000002d0: 232c 013d bdd3 783e 8a69 66bd 11e7 74bd
000002e0: b1af 20bd f847 d9bc 20fa 293d 1259 94bd
000002f0: 2af4 093d 0e2b 803d e2f4 f1bc 38c6 273d
00000300: c012 cfbb 76a2 903d 100e 553c de28 193d
00000310: 6397 0c3e 008c 25bc d7eb 6bbd 99ab 29be
00000320: d429 2b3d 5e97 8a3d e9e6 77bd 948b dfbc
00000330: 1091 77bd 4053 703d e462 87bd 788b 463d
00000340: 2d32 03bd e0e5 243b 9c5c cd3c 15d1 4dbd
00000350: 00e9 a53b f0c1 84bd d820 993d 528c cdbc
00000360: 1c82 fa3c 0414 98bd 620b aebc 0cd9 803c
00000370: 70d2 59bd 8060 3d3a 087c 7e3d 4d56 2bbd
00000380: d098 203d f8a1 8c3c 0455 91bd 6205 70bd
00000390: 180c bebc e0d9 e53c f4bc 5e3d 28ef 003c
000003a0: 0ef7 9e3d ec35 803d e89a db3c cf0d 23bd
000003b0: e2b8 c7bc 6248 943d cc69 403d 9cdd 81bc
000003c0: 3c65 0e3d fc3c cfbc 100f dabb a4fd 9a3d
000003d0: f078 993d a794 34bd 422a 243d c002 afba
000003e0: 98f8 833d a2d5 6dbd 3d18 103e e795 483d
000003f0: fb5e e63c f04f 273c 8261 d4bc e0a1 81bd
-0.05462737 -0.054089032 -0.015204556 0.0545806 -0.101273715 -0.02518165 -0.21434142 0.09610207
0.17479745 -0.0016341209 -0.067797005 0.032708257 -0.06316804 0.08903327 0.27225474 -0.24309334
-0.005555185 0.06539473 -0.076882124 -0.0032557622 -0.059262644 -0.0056587234 -0.039284505 0.02161976
-0.029677209 0.059019685 0.012397297 -0.036657404 -0.025418364 -0.0368523 0.057829753 0.027699694
0.04448748 -0.04431642 0.031301696 0.07114911 0.07345311 0.020394124 -0.040854257 0.03351555
0.081230536 0.061991945 -0.07961278 -0.036307514 0.0012903139 -0.006736286 0.063563436 -0.057898335
-0.052630648 0.04194737 0.06621201 0.056998745 -0.09845797 -0.04515195 0.06117542 -0.020861536
0.050105155 -0.055103183 0.05115065 0.05796659 0.06381799 -0.030412648 -0.07630691 -0.067812994
0.064256445 -0.060185153 -0.032283906 -0.073327966 -0.011515476 -0.003398873 -0.07765906 -0.01884795
0.05331762 0.069245696 -0.07944437 0.0036219656 0.060514405 0.025063716 0.078051984 -0.018830614
-0.014179729 0.046537936 0.06643662 -0.036345024 0.055727497 0.01444114 -0.02039469 -0.05479924
0.046399325 0.056795597 0.032080106 -0.05266739 0.020125456 0.0033276826 0.021947347 -0.056235343
-0.026374254 0.045457333 0.033273935 -0.007985197 -0.035782326 -0.07073108 0.05470172 -0.044838443
-0.017498625 -0.21034114 -0.025800534 0.00784833 -0.20991823 -0.038688503 -0.043084618 -0.020018421
0.050452188 -0.04383641 -0.0018618436 -0.09736296 0.15645869 0.012134001 -0.07162825 0.10368777
-0.08143476 -0.0097867865 -0.077892475 -0.00780493 0.07419281 -0.029002357 -0.013369756 -0.0820642
0.0035992712 -0.011112951 -0.06534271 -0.065092675 -0.043027826 -0.016439572 0.01596587 0.024888106
-0.0010681439 -0.04268356 0.07295894 0.029048624 0.038855646 -0.061694466 -0.14261043 -0.111576214
0.068959504 -0.0719259 0.081590846 -0.020044006 -0.041779537 0.060761914 0.046793953 0.20747589
-0.027188258 0.1793842 -0.22350974 -0.08519157 0.050109193 0.04824002 -0.050171513 -0.02795314
0.086373255 -0.0022206814 -0.19883414 0.14989135 0.070424795 0.04150518 0.022214726 -0.031157155
0.06353387 -0.077381216 0.07234238 -0.062376864 0.044402003 0.081974 -0.066074625 -0.029258769
-0.07444703 -0.06503254 0.06889938 -0.23318268 0.031536233 0.24299522 -0.056252994 -0.059790675
-0.039230052 -0.026523575 0.041498303 -0.07243551 0.03368012 0.06258212 -0.029535715 0.04096052
-0.006319374 0.07062237 0.013003841 0.03739249 0.13729624 -0.010104179 -0.05759796 -0.16569366
0.041787937 0.06767152 -0.060522947 -0.027288236 -0.060441077 0.058673143 -0.06610659 0.04847285
-0.032030273 0.002516143 0.025068574 -0.050248224 0.005063176 -0.06482303 0.074769676 -0.025091324
0.03057962 -0.07425693 -0.021245662 0.015728496 -0.053179204 0.00072241575 0.062130004 -0.04183035
0.039208233 0.017167076 -0.070962936 -0.058598883 -0.023199126 0.028057992 0.05437942 0.007869519
0.07761966 0.06260285 0.026807263 -0.03980809 -0.024380151 0.072403684 0.046975896 -0.015852742
0.034764513 -0.025297634 -0.0066546276 0.07567909 0.0749377 -0.04408708 0.040079363 -0.001335226
0.064439 -0.058065064 0.14071746 0.048971083 0.028121462 0.01021193 -0.025925402 -0.06329703

encoder.W_i.bias f4 [128]
00000000: ee23 edbd 6188 82bc 520f 8dbd 6113 a0bd
00000010: f93e 913c 9e26 27bd ba4c c0bb 40d3 8cbd
00000020: c3d6 e1bc d7d0 0abd a76f 7cbd 1df0 8ebd
00000030: 0847 77bc 123f edbb 702d b2bd 378b e6bc
00000040: e47a 8cbd ee3d ddbd bbbc d7bb 3af5 cbbc
00000050: 4581 36bc 6cf5 7abd 227f 94bd b38d 9cbc
00000060: 022b 40bd 5adb 5dbc cfd5 473c 7926 85bd
00000070: c892 17bd d78e bdbc c21c 78bc e132 abbd
00000080: 4105 04be 4374 bdbb 9c05 3fbd f9aa 833d
00000090: 84d6 29bd 9d84 16bd 369d 4cbc f54d b6bd
000000a0: 5b0f 68bc 0f30 92bc cd83 f6bc cf4f 03bd
000000b0: d059 ffba eb9a a1bc cb1f d2bd 704a 91bc
000000c0: 167c f2bb 75bc 38bc 5547 9dbd ed9e 06be
000000d0: 6c40 a2bd 6076 2fbc 165c 0dbd 3d49 96bd
000000e0: 9392 d4bd dbb1 c6bd c128 33bd 3843 c4bd
000000f0: 318f 83bd 1539 5c3c 999f 38bc 7f78 06bd
00000100: 5acc b1bc b44d d8bc a2b0 84bd 1c29 23bd
00000110: edba 31bd b16a 26bc 741a c53c 082a bb3c
00000120: a261 89bd 3741 f6bd f79b ebbc f295 0abe
00000130: f371 21bc baac b6bd ef59 2fbd 423a 283b
00000140: 47ce 9cbd 7435 abbd a4e4 013c c454 83bc
00000150: 2689 91bc aff0 afbd e671 7bbd a3bc e3bd
00000160: 9e29 7abb 9ef8 e3bc 5457 c0bd 6ade 8bbd
00000170: 15b4 603c 1763 a6bc 0caf 95bd b148 f7bd
00000180: 5a45 c6bd a173 5b3c b457 50bd a0ff 7abc
00000190: 41fe 1bbc 61c2 c6bd a613 99bd 4bfc cbbc
000001a0: a3b4 c93c 74cd 34bd fc69 7bbd a7f3 2fbc
000001b0: 2ef2 babd 2f2a f0bc df4d 9abc c6c3 edbc
000001c0: 530b 46bd d4ef a0bc 40bc cbbb 6f66 83bd
000001d0: 908d 28bc 42a7 cbbd bc9c 88bc 1ac2 26bd
000001e0: 384e 56bd 4dba 28bd a049 86bc ccde c5bc
000001f0: 8cff b4bb 9225 73bc 469f d8bd 507d 7dbd
-0.11579119 -0.015934171 -0.06887688 -0.07816196 0.017730223 -0.040808313 -0.0058685215 -0.0687623
-0.027568227 -0.03389057 -0.061629917 -0.06979392 -0.015092619 -0.0072401846 -0.08700073 -0.028142555
-0.06859377 -0.10802828 -0.0065837777 -0.024897207 -0.011139219 -0.06126921 -0.07250811 -0.019110536
-0.046916015 -0.013541067 0.012196972 -0.06501479 -0.037005216 -0.0231394 -0.015143575 -0.08359314
-0.12892629 -0.0057816817 -0.04663621 0.06429095 -0.041464344 -0.036747564 -0.012488654 -0.08901588
-0.014163817 -0.017845182 -0.030092144 -0.032058533 -0.0019481722 -0.019727191 -0.1025997 -0.01773569
-0.007400046 -0.0112754 -0.07679621 -0.13146563 -0.07922444 -0.010709375 -0.034511648 -0.07338188
-0.10379519 -0.09701892 -0.043740038 -0.095831335 -0.06423796 0.013441344 -0.01126852 -0.032829758
-0.021703888 -0.02640424 -0.064790025 -0.039834127 -0.043391157 -0.010157273 0.024060465 0.02284719
-0.06708075 -0.120241575 -0.028760893 -0.13533762 -0.009853828 -0.08919664 -0.042810377 0.002566949
-0.07656532 -0.08359805 0.007928047 -0.01603163 -0.017765593 -0.085908286 -0.06138792 -0.11119964
-0.0038171778 -0.02782851 -0.093916565 -0.068295315 0.01371481 -0.020310922 -0.07308778 -0.12074412
-0.096811965 0.013394267 -0.05086489 -0.015319735 -0.009521068 -0.097050436 -0.07474451 -0.024900576
0.024622267 -0.044141248 -0.06138037 -0.010739244 -0.09128223 -0.02931699 -0.01883596 -0.029024016
-0.048350643 -0.019645609 -0.0062175095 -0.06416022 -0.010287657 -0.09944011 -0.0166763 -0.040712453
-0.05232069 -0.041193295 -0.016392529 -0.02415409 -0.0055236276 -0.0148405 -0.10577254 -0.061887085

encoder.W_h.weight f4 [128, 128]
00000000: 519a 80bd 8bcc c9be ea16 cd3d 5d67 063e
00000010: d02e 423d 595d 4f3d 6be6 5fbe 99ae 6d3e
00000020: e0f6 dc3d c959 0ebe ad2c 14bd 7c64 713d
00000030: ccb9 14be dc2d 9a3d 7c54 053e d980 82bd
00000040: 93db e13c 624a 0b3e c62e 883d 0393 a43d
00000050: 3823 af3d aa5a 13be f366 f7bc 5c50 433d
00000060: 8eb3 f93d f985 683d 52a8 93be 162e 0b3d
00000070: 316e 9b3d 7e1f 04be 5e4b 95bd f2a2 a43d
00000080: e5a1 3f3d dcf0 a63c 87b0 15bc c394 7d3d
00000090: 238e a63d 5914 783d 1c67 643c 3f9c 32be
000000a0: c9be b1bc c13a 8b3b 12b0 cbbd 8438 5b3e
000000b0: fd38 4fbe 064a 05be 2d87 05bd 131c 16be
000000c0: 78a8 943c ee9e 92be d8fb 2ebe 2e4a 59be
000000d0: f2e5 fdbd c8e3 96be 0b3e 893c 4ad6 823d
000000e0: 7fc8 8cbd 5543 c53d 21a3 813e 3db7 653d
000000f0: d586 dabc 35ff 97bc d6af 8abd d7ed f53c
00000100: 3874 1cbb c9b1 13bd 1437 363e 32d8 dc3c
00000110: f76a 103d 9565 83be 507a 81bd 5535 7f3d
00000120: eef0 69be e599 853e f533 4bbe 7940 8cbd
00000130: 9bfc 083d 845b 8bbe a5ef 07bc 4191 ce3d
00000140: 7f7d 0dbd 10f5 983e c72a 30bd 867e 2c3e
00000150: fb03 333e 5a28 aabc 8167 13bb 6666 d93c
00000160: dac5 0ebe 96e3 08be aa29 ac3c 25c6 3dbe
00000170: 460d 1ebe ce9c efbc 7cfb f3bd 836d 9cbe
00000180: 7afd 913d f55e f3bd 6f63 25bd 6e6a 123d
00000190: 220d ae3d d03e 043c 958a 98be 374b 08bd
000001a0: 3a22 e63c 2002 24be 9578 913c 5eaa 793e
000001b0: 4773 b6bd 93ae ed3d 20a3 80be 1f9a d13d
000001c0: c150 8c3d 841a 013e 3f9d d13d b096 093d
000001d0: 2f4f 85be 431b c4bd a8aa b1bb 0184 06be
000001e0: a914 91bd 4525 09be d2b1 97bd 2304 87bd
000001f0: 2a75 f23d 163c ac3d 71eb 47be 42b1 07bd
00000200: ea52 f13c 3cd7 50bd 386f f6bd 8e60 f8bd
00000210: 70c0 6c3d 2290 413d fee8 763d c894 06bd
00000220: 6bf9 b4bd e9f1 bbbd 6456 88bc 86b0 5bbe
00000230: 99c8 f2bc ef74 ed3c 0882 d5be dd57 edbd
00000240: 00f3 ef3d ac1a 253d 4ecc dcbd e572 803d
00000250: dfa1 4bbe 3c72 063e c107 653c 2e5a 88bd
00000260: 3b63 84bc 0a1d 10be 1621 37be ffd9 57be
00000270: cd5a 05be e3ed 0bbc 6208 81be c920 a6bd
00000280: cf64 143d 35f3 63be d8a3 013d 0fe7 4c3d
00000290: 3eb3 f73d 3251 4ebd 3f33 e23d cf0d e53d
000002a0: ab08 87bd 3e1c 81bd f6df 593e 1df4 29be
000002b0: 08ef f83b d811 72bc 0c55 7f3e cbd6 6e3d
000002c0: 0fc3 b0bd a6fa b43c 9803 6e3e f58f 24bd
000002d0: 7459 193e e556 b83d b617 4dbd a104 503e
000002e0: b7c2 2b3d 905f 84bd 52f0 8fbe cee6 89be
000002f0: 5e2e 873d 16c7 57bd 3777 22be 331f 883d
00000300: e60a 0d3e 1389 26bf eb83 483e 19f5 143e
00000310: deb6 2a3c 410b 803c 13ed 7abe c0f8 d9bd
00000320: e456 fb3d 8d65 503c f7c2 1abe ffca 69bd
00000330: 2f23 37be 9b6c 8dbc 7f97 6dbe 7ac9 48be
00000340: 84d1 a2bc 424e 49be 4dcb 7e3e d1da db3d
00000350: 8d80 c23d d69e 6e3d ab85 6ebd 7c7c 56be
00000360: e65b 80be d009 9e3e 169f 47bd 3fc0 163e
00000370: dbb4 6dbe e979 ae3e 5c0a 6c3e fe1b 5c3c
00000380: c649 163e 5fc3 ae3c 7cf8 443d 4677 673e
00000390: a9ba 003e 7460 8d3c 965b 893e bfce 0d3e
000003a0: 75bb 113c 232e e5bd ecd6 9d3c ca59 b0be
000003b0: 7606 38be fcba b13d f9ca 25be 1948 69be
000003c0: cf00 f5bd 5e4e 11be fcf6 e7bd 1d60 9a3d
000003d0: f7ce 45be 022f 93be 6592 5abd 0c24 8cbc
000003e0: ff12 27be 36c6 27be ad69 0bbe 8773 d63b
000003f0: 8ca7 2dbe a87d 04be d0fe b2be a51e 97bd
-0.062794335 -0.39413866 0.10014136 0.13125367 0.047407925 0.050626133 -0.21865241 0.23211135
0.10789275 -0.13901438 -0.03617542 0.05893372 -0.14524001 0.07528278 0.1302051 -0.06372232
0.027570521 0.13602594 0.06649546 0.08035853 0.08551639 -0.14390054 -0.030200457 0.04768406
0.121924505 0.05676839 -0.28839356 0.033979498 0.07589377 -0.12902638 -0.07289766 0.08038892
0.046785254 0.020378523 -0.009136326 0.06190945 0.08132579 0.06056628 0.013940599 -0.17442416
-0.021697419 0.0042489474 -0.09945692 0.21408278 -0.20236583 -0.13016519 -0.032599617 -0.14659147
0.018146738 -0.2863688 -0.17088258 -0.21219704 -0.12397374 -0.29470658 0.016753217 0.06388529
-0.06874179 0.09631983 0.2531977 0.056082953 -0.026675621 -0.01855431 -0.06771819 0.030020637
-0.0023872983 -0.03605822 0.17794448 0.026958559 0.03525826 -0.25663438 -0.063221574 0.06230672
-0.22845814 0.26093975 -0.19844039 -0.06848235 0.03344403 -0.27218258 -0.008296882 0.10086299
-0.03454351 0.29874468 -0.043009546 0.1684514 0.17481987 -0.020771194 -0.0022492113 0.026538085
-0.13942662 -0.13368067 0.02101596 -0.18532617 -0.15434751 -0.029249575 -0.11913201 -0.305523
0.07128425 -0.11883346 -0.04037803 0.03574603 0.08498599 0.008071616 -0.2979323 -0.033274855
0.028092492 -0.16016436 0.017757693 0.24381396 -0.08908706 0.11605563 -0.25124454 0.102344744
0.0685134 0.12607771 0.102350704 0.033590972 -0.26036975 -0.09575512 -0.005421955 -0.13136293
-0.07084019 -0.13393123 -0.074069634 -0.06592586 0.118387535 0.08409898 -0.19523408 -0.03312803
0.029458482 -0.050986513 -0.12032932 -0.12127791 0.05780071 0.047256596 0.060280792 -0.032856733
-0.08836635 -0.09177 -0.016642757 -0.21454057 -0.029636668 0.028986422 -0.41700768 -0.11589024
0.117162704 0.04030864 -0.107811555 0.062719144 -0.19885968 0.13129514 0.013978899 -0.066578254
-0.016160598 -0.14073578 -0.17883715 -0.21079253 -0.13022919 -0.008540603 -0.25201708 -0.08111722
0.03622895 -0.22260745 0.031650394 0.050025042 0.120947346 -0.050370403 0.11044931 0.111842744
-0.0659345 -0.06304215 0.2127684 -0.16597028 0.007596854 -0.014774762 0.24934787 0.05831031
-0.086309545 0.022092175 0.23243558 -0.04017635 0.1497553 0.09000949 -0.05007144 0.20314266
0.04193374 -0.064635396 -0.28113037 -0.26933903 0.06600641 -0.052680098 -0.1586579 0.06646576
0.13773689 -0.6505291 0.19581573 0.14546622 0.0104195755 0.015630366 -0.24504499 -0.106431484
0.122724324 0.012719524 -0.15113436 -0.057078358 -0.17884515 -0.017263701 -0.23202322 -0.19608107
-0.019875295 -0.19658759 0.2488224 0.10735095 0.09497175 0.058256947 -0.058232944 -0.20945925
-0.25070113 0.3086686 -0.0487357 0.14721774 -0.23213522 0.34077385 0.23050827 0.013434408
0.1467658 0.021333395 0.048088536 0.22604093 0.12571205 0.017257906 0.26827687 0.13848399
0.008894791 -0.111904405 0.019267522 -0.34443504 -0.17971215 0.086782426 -0.16190709 -0.2278141
-0.11963045 -0.14190051 -0.113264054 0.075378634 -0.19317232 -0.28746802 -0.05336227 -0.017107032
-0.1631584 -0.16384205 -0.13614531 0.0065445337 -0.16958445 -0.12938559 -0.34960032 -0.07378892

encoder.W_h.bias f4 [128]
00000000: 370b 8d3d f435 c3bc 4b2a 133d 2eee 32bd
00000010: 4d9e e7bc 57d4 6fbc 3769 3abd a73d 2dbb
00000020: e0de e539 249e b5bd 94e9 2fbb 4fa0 74bd
00000030: d413 543d 1804 85bb e48b c43c 15a5 36bd
00000040: f3bd 22bd 64e1 563c 7232 febd 1049 82bd
00000050: 0fbb 54bb ff8a fcbd 9e3f 25bc c677 f8bd
00000060: 0667 86bb 5764 1fbe d911 24bc fb26 92bc
00000070: cbc6 c4bc 0522 67bd 966a b3bd bc15 103c
00000080: 0891 0a3b 1750 33be 6c96 123c 2fce 0bbe
00000090: 4b7b febc 3344 82bc b00c 86bd 45a2 06bc
000000a0: 6297 34bd 40fd 4ebd 40fb d9bc 20cb 22bd
000000b0: b045 25bd 0faf 91bd 2788 8739 52a5 cdbd
000000c0: 5bc5 28be 28f0 a2bd 2e0e 2a3d 18a2 073c
000000d0: 4673 e5bd 4642 dbbd f722 86bd 3316 e0bc
000000e0: 8edb 6d3c 5766 8c3c 5928 79bd 0fed 843d
000000f0: 6178 333d 0c4e 14be 4991 4dbd c9fa bcba
00000100: 61f9 d1ba b986 b7bd ade4 68bc bdd6 69bc
00000110: 743c c13b 28ed 06bd 39fb 9fbd ff23 cbbd
00000120: e308 1b3c 1bf0 ca3c 964e 28bd 604e f5bb
00000130: 59ff 19bd c184 8f3c de8f 2abd 5da1 053d
00000140: 9c9e 053d 7c84 c83c 4431 c3bc 6acc ebbd
00000150: 8edf 73bd df83 093d afdc 893a 31b7 833d
00000160: f2e4 1ebd 8938 18be 1674 aa3b da0e fabc
00000170: 93ff 59bd d58b 41be 8bc7 03bb 0f8b 523d
00000180: cc5f 543d 5a36 c33c b51a 28bd 9895 02be
00000190: 9666 aebd b7fa 6f3d 23dd 07bc 14a4 90bd
000001a0: d24d a1bd a938 6bbd f6bc 0dbc 7b85 06be
000001b0: dc9c d5bc a00a acbc 5b49 eebc 175c a0bd
000001c0: 29b3 7b3a 26fd a6bd 22b2 28bd 2295 67bd
000001d0: 7dfc 08bd 9103 76bd a5e2 0bbd 6238 13bd
000001e0: 6c68 97bc 6913 75bd 3cbe 36be 909c 15bd
000001f0: 469f 84bd fcd6 d4bd da0a 663d 2f5f 57bb
0.06886905 -0.023829438 0.035929006 -0.043684177 -0.028273726 -0.014638028 -0.045510497 -0.0026434453
0.00043844339 -0.088680536 -0.0026842104 -0.059723195 0.051776722 -0.004059326 0.023992486 -0.04459103
-0.03973193 0.013115261 -0.124119654 -0.06361592 -0.0032460128 -0.12331199 -0.010085968 -0.1213222
-0.004101637 -0.1556562 -0.010014021 -0.017840853 -0.024020573 -0.056428928 -0.08760564 0.008794244
0.0021143574 -0.1751102 0.008946996 -0.13652872 -0.03106465 -0.01590166 -0.06545389 -0.008217399
-0.044089682 -0.050534487 -0.026609063 -0.039744496 -0.040349662 -0.07113468 0.00025850648 -0.10041298
-0.16481535 -0.079559624 0.04151743 0.008278392 -0.11203627 -0.10706 -0.06549638 -0.027354335
0.014517678 0.017138643 -0.060829494 0.06490528 0.043815974 -0.14482898 -0.050187383 -0.0014418002
-0.0016019755 -0.08961243 -0.014214677 -0.014272389 0.005897099 -0.032941014 -0.07811589 -0.09918975
0.009462568 0.024772694 -0.04109057 -0.0074861497 -0.037597034 0.017519357 -0.04164111 0.03262459
0.032621965 0.024477236 -0.023827203 -0.11513598 -0.05953937 0.033573028 0.0010518039 0.06431425
-0.038792558 -0.14865316 0.005201827 -0.03052466 -0.05322225 -0.18900998 -0.002010795 0.051402148
0.05184917 0.023829628 -0.041041095 -0.12752378 -0.085156605 0.05858871 -0.008292469 -0.070625454
-0.07876171 -0.057427082 -0.008651009 -0.13136856 -0.026075773 -0.02100116 -0.029087713 -0.07830065
0.0009601587 -0.08153753 -0.041185506 -0.05653871 -0.033443917 -0.060061995 -0.034151692 -0.035942443
-0.01848241 -0.059832964 -0.17846006 -0.036526263 -0.064756915 -0.103925675 0.056162693 -0.003286313

encoder.W_o.weight f4 [128, 261]
00000000: e114 b03d c44d 2b3d 6aa6 723d f86c ce3c
00000010: a87e f3bd fbf1 8fbe a7ac 5a3c dc5d c63d
00000020: f0ce a2be 1251 233d 038e bbbd e843 383d
00000030: 885f 4abd 72d8 563d 6c39 2a3e 9c54 ea3e
00000040: d189 edbe de78 35bd 4132 693d 02c9 8ebd
00000050: 4370 68bd 7e0c 2f3d 3082 bbbc d39b 5dbd
00000060: 72d6 8ebc 2c23 9a3c 7cc1 8d3c a059 d33b
00000070: d42f 1ebd d8a3 a53c c8ab 2a3d 724e 793d
00000080: 904c 3d3d 6c6b 1b3e 5e56 61be 6624 573d
00000090: f059 16bc 8e20 083d 00f7 23ba aa1a 463d
000000a0: 3236 95bc 3a9b 42bd bace 0d3d 087b 873c
000000b0: 505d b93c 24c7 543d 4c40 fe3c 38ed 163d
000000c0: e089 193c e893 e73c b854 613c 3c4f 613d
000000d0: 9b70 2cbe b8f9 1e3c e04e 3b3b 1833 ebbc
000000e0: 4214 783d 9a8b 523d 613e fcbc 0e3a 603d
000000f0: 10f8 78bc f045 bdbc a851 e63c 502c d43b
00000100: 3c12 17bd 549b 54bc d855 b4bc 50f7 ae3b
00000110: 247e b13c a015 d7bb 1073 95bb 742c 963c
00000120: 9ce1 6b3d 72c5 c2bc 5e93 603d 38f2 a7bb
00000130: d63c dbbc c042 663c 5c82 9d3c ff79 ee3c
00000140: 94ac 3a3d f68f 97bc a0f1 8aba 76d8 633d
00000150: e6cd 58bd 826f efbc f8d3 a03c 88ac 62bd
00000160: fe2c 3e3d 60dd 583b e089 db3b 363f 22bd
00000170: cc15 a1bc a2f5 133d d046 bebb 0ab4 2fbd
00000180: 4091 ec3a d4ea c33c baa1 4f3d 2413 f3bc
00000190: 8415 3a3d 5456 6dbd 129c c33d f4b2 cf3d
000001a0: 19ae 33be 1d03 c8be 3045 f6bb 309d 633d
000001b0: b751 a13e 62c0 bdbc 12d8 edbd b2cb 81bd
000001c0: 66f5 02be ca53 90bc d692 e3bc 3258 94be
000001d0: e4c0 2dbe 485f ff3c ea8b 123d 27e4 233d
000001e0: 13bc acbd 126a c0be ef8f 5fbe 5c3c c5bc
000001f0: 84e5 483d 2afb 1bbb a9ec 863c 2a78 c6bd
00000200: f23a 393d e844 213c 1360 e5bb 596e 37bd
00000210: 0b5b 78bc d2e1 283d ddd9 003d bb8a 143d
00000220: 7c8d a93d 8b4d 1dbe 6dac a73d 9ed2 fd3c
00000230: 1a57 5abe acd1 89bd 13ad 0bbd 3fcd a13d
00000240: 5806 fcbc bff4 653d 458c a3bd f47e f23d
00000250: ef37 643e 4d75 7d3d 673e 8c3d 049e 173c
00000260: 74aa 7b3d 42d4 1ebe 9221 303d da52 8e3e
00000270: 720d cbbc 6134 8c3d a709 88bc 13c5 16bf
00000280: 543e 683d 74f6 eebd 2ed5 a6bd 32ab 25bc
00000290: 2d3a a43d 27dd 2abe 29de 513e 7f45 d6bd
000002a0: fc48 27bd ecf2 9e3c fc7e d8bd a10e c93d
000002b0: 5e65 883d 50d1 8c3d 1ecb 4bbe 4acb 14bd
000002c0: a001 21be 6aef 23bd a70c bcbd 2d6b c13d
000002d0: ec36 8cbc d196 1a3e ed47 dbbb 1970 d3be
000002e0: 275e 8d3c 6221 2e3d c8ff 053e e88e 00be
000002f0: 5ec1 0a3e 00ea 833d 15aa 4fbe 946d aabd
00000300: 51dc ac3c 02e9 c9bd 1ca6 7cbd 4340 2bbe
00000310: 51f4 d1ba 1503 11be 7a40 57bd 8741 77be
00000320: 3cc9 50be 86f3 7dbd 2e62 4ebc 0e5a 02be
00000330: 15f9 c63b 61ee a03d faea 893b ec49 873e
00000340: 6b67 4d3d e285 9bbd 4b55 cc3d f058 29be
00000350: c2cf a33a 9222 833c 71d0 c5b9 6467 15bd
00000360: ca7f ef3d 42e1 a63e 1a74 1ebe e0c5 02be
00000370: 3a63 1bbe 71f8 3cbd 8824 cdbd d4ac f3bc
00000380: 3708 173e fcd4 023e 74ad 523e 433a 563e
00000390: 0045 773d f825 4bbd 4836 42bd dfcb cb3d
000003a0: 7e8f 07be 7cbf 97bc e6fb 53bd 7f41 25be
000003b0: 20ea 583e e3ea bebc 4920 c0bd 7a61 ec3d
000003c0: ca4e 47be d7c0 4dbe 35ce 9bb9 d60f 1b3d
000003d0: 3ab3 f83d 516c cbbd 8932 3cbc 7638 b8be
000003e0: 48a9 873c d030 0bbe d7ea 773d 62f8 86bd
000003f0: f2b4 963b db80 863e 8174 50be 205a a9be
0.08597732 0.04182221 0.059240736 0.025198445 -0.11889392 -0.28114304 0.013346828 0.09685871
-0.31798506 0.039872237 -0.09157946 0.044986635 -0.049407512 0.052452512 0.16623467 0.45767677
-0.46394208 -0.04430472 0.05693269 -0.06971933 -0.056747686 0.042736523 -0.022889227 -0.054103684
-0.01743624 0.0188156 0.017304175 0.006449893 -0.03861983 0.020219728 0.04166773 0.060865827
0.046215594 0.15177697 -0.22005603 0.052524947 -0.009176716 0.03323417 -0.00062547624 0.048365273
-0.018214319 -0.047511317 0.034620978 0.016538158 0.022627503 0.051947728 0.031036519 0.036847323
0.009371251 0.02826877 0.013753109 0.055007204 -0.1683983 0.009703092 0.0028580949 -0.028710887
0.060566194 0.051402666 -0.030791463 0.054742865 -0.015195861 -0.023104638 0.028115109 0.006475009
-0.036882624 -0.012976486 -0.02201359 0.0053395405 0.021666594 -0.006563857 -0.0045608357 0.018331744
0.057588205 -0.02377579 0.05482804 -0.0051253103 -0.026762407 0.014054 0.0192272 0.029110907
0.04557474 -0.018501263 -0.0010600574 0.055626355 -0.052930735 -0.029227976 0.019632325 -0.05534032
0.046429627 0.0033090934 0.0066997856 -0.039611064 -0.019663714 0.036122926 -0.0058067814 -0.042896308
0.0018048659 0.023915686 0.050691344 -0.029672213 0.045430675 -0.057943657 0.095512524 0.101415545
-0.17546882 -0.39064875 -0.007515572 0.055569828 0.31507656 -0.023163024 -0.11613478 -0.0633768
-0.12788925 -0.017618079 -0.027779978 -0.28973538 -0.16968113 0.031173363 0.035777964 0.040012505
-0.0843431 -0.37580925 -0.2183225 -0.024076633 0.04904701 -0.0023800828 0.01647027 -0.09690888
0.04522223 0.009843089 -0.0069999783 -0.04478297 -0.015158425 0.041230984 0.03145777 0.036265116
0.08278939 -0.15361612 0.081871845 0.03098422 -0.21322289 -0.06729445 -0.034100603 0.07900476
-0.030764744 0.05614161 -0.07985739 0.11840621 0.22286962 0.061879445 0.0684784 0.009253982
0.061441854 -0.15510657 0.043000765 0.27797586 -0.024786685 0.06845928 -0.016606165 -0.5889446
0.056700066 -0.11668101 -0.081461295 -0.010111617 0.08018909 -0.16685925 0.20494904 -0.10462474
-0.040841088 0.019402944 -0.10571095 0.09817243 0.06659959 0.06875861 -0.19901702 -0.036326684
-0.15723276 -0.040023245 -0.09182101 0.0944427 -0.017116033 0.15096594 -0.006691924 -0.4129646
0.01725681 0.042512305 0.13085854 -0.12554514 0.13550326 0.06441116 -0.20279725 -0.083216816
0.021101149 -0.09858896 -0.06168185 -0.16723733 -0.0016018247 -0.14161332 -0.052551724 -0.2414609
-0.20389265 -0.06199982 -0.01259665 -0.12729666 0.0060721734 0.07857967 0.0042089196 0.26423585
0.050147455 -0.075938955 0.09977206 -0.16537833 0.001249783 0.016007695 -0.0003773007 -0.036475554
0.11694296 0.32593733 -0.15473977 -0.12770796 -0.1517457 -0.04613537 -0.100167334 -0.029745497
0.14749227 0.1277656 0.2057398 0.20920663 0.060368538 -0.049596757 -0.047415048 0.09950995
-0.13238332 -0.018523924 -0.0517539 -0.16138266 0.21183062 -0.023305362 -0.09381158 0.1154203
-0.1946365 -0.20093094 -0.0002971754 0.0378569 0.1214356 -0.09932769 -0.011486658 -0.35980576
0.016560212 -0.13592839 0.060526695 -0.06590344 0.004599207 0.26270184 -0.20356943 -0.33076572

encoder.W_o.bias f4 [128]
00000000: 70ad 943d e738 babb 6b25 b7bd 8e44 4e3c
00000010: 0e03 a0bd a5fd da3c 8d6b 23bc 9cf6 f7bd
00000020: 0b76 9bbd a153 0fbd 7872 9fbd 25c0 6fbd
00000030: 627b 2d3d 7c48 a9bc 4f33 2f3d 1f48 b8bc
00000040: a2a0 e039 14a6 8bbd d414 7c3c ed35 a0bc
00000050: 1e1b 85bd 3ac1 6ebc 31ea babd 6499 4dbd
00000060: e173 3cbb ca36 ccbb 0f24 eebc 96a6 06bd
00000070: 6dc3 2e3c baa2 e1bd a359 903b 3b15 a7bd
00000080: 8443 4b3d 4a88 b539 bfe1 0e3c 7394 623d
00000090: 3d2a 9cb9 e45a a6bb cfe4 8fbd 99a6 13bd
000000a0: 477b 7bbc ad50 02be e217 08be c8e9 36bd
000000b0: 9adf 8fbd f9c4 0ebd d868 4b3c 4ee6 c9bd
000000c0: 0f7f 42bd 2b89 9dbc 68c4 acbd 093c 713c
000000d0: 2fc5 5abc b437 0dbc 7e85 83bd ca5e 48bd
000000e0: b08c 20bc d698 26bc 902f 5dbd d927 1fbd
000000f0: a6b9 9dbc e79f 69bd 459f 0fbd d6a0 ccbc
00000100: b3c3 c83c 71ab 8bbc 6113 053d b922 01bd
00000110: 7b74 633c c9ed 4e3d 54e0 88bd b58e 98bd
00000120: 4aec 9e3c 6252 a8bd 9a72 82bd d9d4 1ebd
00000130: c4a3 e1bc cb6e 573c 2325 1c3b cabc 6fbc
00000140: e2e6 3ebd 13ef b13c c996 3bbc 1cb3 91bd
00000150: 120f 1e3b a3a0 31bc b8e4 44bd 3c92 c2bd
00000160: 8c5f 33bc 87f3 52bd 101b 1c3c 0717 a73c
00000170: 5847 9dbd 1296 ad39 6ad7 cc3b 6627 d23c
00000180: 3ef7 be3b 0e45 a5b9 b1e5 d03c 3dd0 873d
00000190: 6a24 e63c ed62 b8bd 0b2c bbbd 9fc3 6f3c
000001a0: 500a 13bd da31 7bbd c08c 86bb 8c14 0b3d
000001b0: 7213 7fbc 1ced 91bc 99a7 11bd 1ee3 c2bd
000001c0: a38c 1f3a b9d2 84bd 29fe 89bd 1b0b 333d
000001d0: a365 80bd 84d4 6e3c 0434 243b f870 cbbd
000001e0: 6f2d 9fbd 7981 9dbd 1b8a 60bd d998 4dbc
000001f0: 3f5a 61bd caf0 81bd ffe8 a2bc 0003 d7bd
0.07259643 -0.005683053 -0.08942684 0.012589587 -0.07813083 0.026732275 -0.009974373 -0.12107584
-0.07590874 -0.034991864 -0.07785505 -0.058532853 0.042353995 -0.020664446 0.04277354 -0.022495328
0.0004284429 -0.06818786 0.015385825 -0.019556964 -0.06499313 -0.014572436 -0.091267 -0.050195113
-0.0028755593 -0.0062321173 -0.029069928 -0.032873712 0.01066671 -0.11017366 0.004405217 -0.08158346
0.049624935 0.00034624554 0.008720814 0.055317353 -0.0002978611 -0.005076753 -0.07026064 -0.03604755
-0.015349216 -0.12726088 -0.1329036 -0.044656545 -0.070250705 -0.034855817 0.012415133 -0.0985838
-0.047484454 -0.019230446 -0.08435899 0.014723786 -0.013352676 -0.008619238 -0.06421946 -0.048918523
-0.0097991675 -0.010168275 -0.054000437 -0.03885636 -0.019253563 -0.05703726 -0.035064 -0.024979036
0.02450738 -0.017049523 0.032489184 -0.031527255 0.013882752 0.05051974 -0.06683412 -0.07449094
0.01939978 -0.08218838 -0.06369515 -0.038777206 -0.02754391 0.013148974 0.0023825846 -0.014632413
-0.046606906 0.021720445 -0.011449524 -0.071142405 0.002411787 -0.010841521 -0.048069686 -0.09500548
-0.010948073 -0.051501777 0.009527937 0.020396722 -0.07679623 0.00033108942 0.0062512653 0.025653552
0.0058278134 -0.00031522702 0.02550015 0.06631515 0.028093535 -0.090032436 -0.0913926 0.014634042
-0.035898507 -0.06132684 -0.004106134 0.033955142 -0.015568601 -0.017813258 -0.035560224 -0.095159754
0.0006086325 -0.06485505 -0.0673793 0.043711763 -0.06269386 0.014577035 0.0025055418 -0.099336565
-0.07772338 -0.076907106 -0.054819208 -0.012548649 -0.055017706 -0.06344755 -0.019886492 -0.10498619

ffn.1.weight f4 [64, 128]
00000000: e7c7 0d3e ab8a 98bd 449b acbe 89dc 8d3e
00000010: d939 6ebe efb9 e43c b038 133e 01e9 763d
00000020: da96 b63d 290d c13d 14e8 74bd b065 923e
00000030: 7eeb adbd f177 643d 464a 29bd 92a0 babd
00000040: a56f 3f3d 0497 a7bd bd96 d6bd 77e6 22be
00000050: 6108 cabd d797 2bbc 23bc f7be be10 dabc
00000060: a6c7 343d 8b4b 883e 91a3 1fbe 67b4 8bbd
00000070: 9106 f6bd 9536 183e 6aa0 44be 61f2 bbbc
00000080: 97ef e1bd 6941 36bc 4fa7 c3bd 7fab 40be
00000090: 0c14 fcbd f1b9 b2bd ce3b 26bd 0ea4 30bd
000000a0: f5d7 383e 1f4b d23c cbfc a93e c9b6 c2be
000000b0: c62e c4bd be7c f3be 1c60 ce3b 8978 a43e
000000c0: e2eb 6d3c ced3 c43e db63 84bd edb6 333e
000000d0: 8206 a43d 9767 933c 8017 843d 74a9 e23d
000000e0: 81f8 65be 8ca6 97bd 9264 273e 4552 dcbd
000000f0: 087e 8dbc 1294 55bd 8c71 933d 1f2d b23d
00000100: c23c 753e 89d2 283d c0b8 c6bc b8d0 883d
00000110: 5c9e 1dbe fe15 413e 6d9c 5dbd 50b5 023d
00000120: 19df 38be f736 cd3d 65e1 f83c 8e5e 3cbc
00000130: b034 0ebd 8698 513d 8356 47be 1248 4fbd
00000140: 94ab adbc a9ac d0bc f6f5 ed3d 4490 bdbc
00000150: ebb4 93be 57bf 6dbd cdc8 aebd 1bfd 273e
00000160: 909b e03c 58d2 783d 3504 2b3e b89d f4bd
00000170: a64e 06be add0 8d3e 7199 48be 6fd7 443d
00000180: d218 8a3e 2a6f a23e f4fe ecbc 0551 933d
00000190: 2b82 81be e9ed 60be 8ab6 a73d a6ee e1bc
000001a0: 8047 573e e180 843d 679f 9bbc 84b3 8d3e
000001b0: 8a05 0ebe 8b87 503d 3790 51bd 371b 7a3e
000001c0: 2ec6 0ebe 391c 6ebd c3b6 88bd e914 a13e
000001d0: 602e 44bc 0ca1 00be 243c b73e 8f12 8f3d
000001e0: 5ae1 103d 2071 453d cd09 0bbe 1204 0dbe
000001f0: 5c09 853c 7132 36bd f88d 4f3e b9a4 f9bb
00000200: fbaf 6e3e 05b4 cdbd 5431 6bbe a170 3b3e
00000210: 13c0 11be 31a1 6e3d 6938 733d 88d8 eebc
00000220: 6886 91bd 5c73 0b3d 9b44 f4bd 8e91 c93e
00000230: 0b8e 303d 8e01 813e 1fd6 a6bd 986c 09bc
00000240: aa73 0c3d c51a a83d 5620 21bd 064d d43b
00000250: ad83 803d c47e b63c 0be7 f8be c29f 1abd
00000260: c842 113d 09ea b73e 444d adbc 49b8 d5bd
00000270: 9193 46bc a94a 1e3e df06 00be c5fa bb3d
00000280: 95f7 3cbe 9d12 833d 4993 d4bd 7175 abbd
00000290: e2da 48be dbbb f1bd 2339 863c 6358 893d
000002a0: d426 d43d f7c9 853c 649d 883e c6fb 4abe
000002b0: 10c9 80bd fe79 c8be da0d 7abc 5440 ae3d
000002c0: a5af a1bd e6ae e73d 77e3 3cbd 73fb 303e
000002d0: eaac 383c e805 d43d ccaa 64bd 77cb fb3d
000002e0: 9ddc 53be d479 8cbc 799d a83e 7148 9dbd
000002f0: c254 c03d cf30 88bc b670 67bc c7ef a4bd
00000300: c803 893e 234f 0e3e bf86 a2bc c395 cc3d
00000310: 4d09 3f3d b6b0 603d e0d3 18bd 3bd8 7abc
00000320: 7732 b2bd 6596 87bd 52df 9d3c 2cbf ab3d
00000330: cdb2 90bd 1ded 033e bf9a 08be 9f35 1e3d
00000340: 1988 51bd 2487 27bd a8e1 7f3d 32ae 14bd
00000350: 534b 7fbe c2cd bc3d 6f78 fabc 5bf3 a23d
00000360: cc62 b73d bce6 d2bd 0b9f c43d 73fb c8bd
00000370: c86a 06be 1249 0f3e 53c5 2a3d 4597 183e
00000380: 6e51 a13d 179e 993e cc0f 11be 82dc 073e
00000390: b92c 86bd c4d5 34be 1f80 d53d a7bd 813d
000003a0: 3951 883d 9b18 673c dfe8 bcbd 6626 253e
000003b0: 1272 07be 9b4a 2c3e 85a8 22be 7a4e 113e
000003c0: 8db5 cfbc e65e 69bd ee23 963d 3f92 c63d
000003d0: eb47 913d e355 1bbe 1804 913e 519d 223e
000003e0: 0e1a 3e3e a736 ecbc fd53 99bd 8c70 cabd
000003f0: 3ed2 b439 05e3 52bc fdfe 103e e2c7 0d3b
0.13845788 -0.07448324 -0.33712208 0.27707317 -0.23264255 0.027920691 0.14377093 0.060280804
0.089154914 0.09426338 -0.05979164 0.28593206 -0.08492182 0.055778448 -0.0413306 -0.091126576
0.046737332 -0.08183101 -0.1047797 -0.15908228 -0.098648794 -0.010473213 -0.48385724 -0.026619311
0.044135712 0.26620135 -0.1558974 -0.068215184 -0.12012971 0.14864571 -0.19201818 -0.022942724
-0.11032026 -0.011123993 -0.09553396 -0.1881542 -0.12308511 -0.08726872 -0.040584378 -0.043125205
0.18051131 0.025670586 0.33200678 -0.3803008 -0.09579234 -0.47556108 0.006298078 0.3212321
0.014521571 0.38442844 -0.064643584 0.1755025 0.08009054 0.017993731 0.06449795 0.11067477
-0.22458078 -0.07404813 0.16346958 -0.10757879 -0.01727201 -0.052143164 0.07199392 0.087000124
0.23948959 0.041216407 -0.024258018 0.06680435 -0.1539244 0.18856046 -0.054104257 0.031911194
-0.18053855 0.10020249 0.030380914 -0.011497153 -0.034718215 0.05117085 -0.19466595 -0.05060584
-0.021199979 -0.025472956 0.11619179 -0.02314008 -0.28848967 -0.058043804 -0.085343935 0.16405146
0.027417928 0.060747474 0.16700824 -0.11944145 -0.1311594 0.2769827 -0.19589783 0.048057016
0.2697206 0.31725436 -0.028930165 0.071931876 -0.25294623 -0.21965756 0.081891134 -0.027579617
0.21023369 0.06469894 -0.018996907 0.27676022 -0.138693 0.050910514 -0.051162925 0.24424444
-0.13942787 -0.058132384 -0.06675484 0.31461266 -0.011973947 -0.12561435 0.3578807 0.06985962
0.035371162 0.048203588 -0.13577957 -0.13771084 0.016239814 -0.0444817 0.20269 -0.0076185134
0.23309319 -0.100441016 -0.22968036 0.18304683 -0.14233427 0.058259193 0.05937997 -0.029155985
-0.07105714 0.034045562 -0.11927148 0.39368862 0.043104213 0.251965 -0.08146309 -0.008387707
0.034289993 0.08208231 -0.03933748 0.0064789085 0.06275115 0.022277243 -0.48613772 -0.037750013
0.03546408 0.35920742 -0.021155007 -0.1043554 -0.0121201435 0.15458168 -0.12502621 0.0917869
-0.1845382 0.064000346 -0.10379655 -0.083720095 -0.19614747 -0.11803409 0.016384667 0.067063116
0.103589684 0.016331656 0.2668258 -0.19822606 -0.0628835 -0.39155573 -0.0152620915 0.08508363
-0.0789483 0.11312656 -0.046115365 0.1728342 0.011271695 0.10352689 -0.055826947 0.12294667
-0.20689626 -0.017147936 0.32932642 -0.07679833 0.09391166 -0.016624836 -0.0141259935 -0.080535464
0.26760697 0.13897376 -0.019839643 0.09989502 0.04663973 0.054856025 -0.037311435 -0.015310342
-0.08701032 -0.06620482 0.019271526 0.083860725 -0.070653535 0.1288342 -0.13340281 0.038625356
-0.051155183 -0.040900365 0.062471062 -0.036298938 -0.24931078 0.09218933 -0.030575005 0.079565726
0.08954391 -0.10297915 0.096006475 -0.09813585 -0.13126671 0.13992718 0.04169209 0.14901455
0.078768596 0.30003425 -0.14166182 0.13267711 -0.06551499 -0.1765967 0.10424828 0.063350014
0.06656117 0.0141049875 -0.09224104 0.16127929 -0.13227108 0.16825335 -0.15884598 0.14190093
-0.025355125 -0.056975268 0.07331072 0.09695863 0.070937954 -0.15169482 0.28323436 0.15880324
0.18564627 -0.028834654 -0.074867226 -0.09884748 0.00034488918 -0.0128715085 0.1415977 0.0021634032

ffn.1.bias f4 [64]
00000000: 1f94 603d 6058 ed3c b126 dc3b 54a7 5dbb
00000010: 76a7 263d db77 243d 4a47 6c3d b0ae c6bc
00000020: aeac a3bc d281 49bd c46e e2bb 6683 e1bb
00000030: 15fa 0fbd 22f2 2abd 3b63 e4bd 8537 1dbd
00000040: a3ab 48bd 00b5 b2bc 9b98 b93b ad80 0abd
00000050: 3a07 613d 2bd7 66bd e6e6 803d 5f2b 9abd
00000060: 37b2 0ebc 91f0 6c3c d25b 203c 1369 d1bd
00000070: d946 d2bc 6d3c 22bc 04cf 143d b23d 2b3d
00000080: 3102 983c 0135 16bd 55be b8bc ea94 20bd
00000090: e8c4 f63c e4a8 843d a1ae 3abd 77ab ac3d
000000a0: 37a2 91bd edc4 a7bc 80b9 a13b 9f73 cd3d
000000b0: 1394 ae3c 5518 90bc 3d45 0e3d fd55 22bc
000000c0: bf79 8b3c 9851 a63c 0bb3 9f3c f5c3 963d
000000d0: 993f 94bb e607 b23c 42b4 a8bc eba1 a53c
000000e0: 9693 8a3d e088 ff3c 586c 3a3d 6d0b e9bc
000000f0: df0f ffbc 1edb 823c ddfc b43c 52d6 f43c
0.05482876 0.028972805 0.0067184796 -0.003382166 0.040687047 0.040153366 0.057685174 -0.02425322
-0.019979801 -0.049196072 -0.006910177 -0.006882119 -0.035150606 -0.041734822 -0.11151739 -0.038383026
-0.04899181 -0.021814823 0.005663944 -0.03381412 0.054938532 -0.056357544 0.062940404 -0.07527804
-0.008709482 0.014461652 0.009787517 -0.102251194 -0.025668548 -0.009902102 0.036330238 0.041806884
0.018555732 -0.036671642 -0.022551695 -0.039204516 0.03012319 0.06477526 -0.045576695 0.08431142
-0.07111018 -0.020479644 0.0049354434 0.100318186 0.021310842 -0.017589727 0.034734 -0.0099081965
0.017025826 0.020302579 0.019494554 0.073615946 -0.004524183 0.021732282 -0.020593766 0.02021881
0.06766431 0.031193197 0.04551348 -0.028447831 -0.031135498 0.015973624 0.02209323 0.029887352

ffn.4.weight f4 [64, 64]
00000000: ce78 b23d 04c6 aabd 362d 903e f655 ae3d
00000010: 5d65 c23e 71c2 3a3e 3806 a8ba 9fbe 07bd
00000020: 501b 6abe 3aa3 56be 3825 953d db58 9ebd
00000030: 5659 043e db55 8bbe df2c a7be cb8a 92be
00000040: 8d82 78bc fda8 72be 688d b23b 7ff7 463c
00000050: 0dbd 0b3e 6268 09be 050e 963e 0a4f a9be
00000060: c023 263d bc98 54be 9f5b 243e aad0 f0be
00000070: 3242 d93d df16 42bc e282 043f 309a c33e
00000080: 9c7e 9d3e a198 a8bd 7903 8c3d e7ac acbe
00000090: f243 f9bb 58fa 463e 8493 36be a51a d53e
000000a0: 3446 2cbc e524 3cbb 332b 98bd 6d68 ea3e
000000b0: 147d 0d3e d21a b9bd 1724 6f3d f0d4 183e
000000c0: ccad 5cbd ca5d c83e cc0f a33d bf37 cd3e
000000d0: 430c 233c bfed 68bd d85e 66be 4150 4d3d
000000e0: 313f c73d 57bf 8ebd b776 483e 543d 3a3e
000000f0: 245f c5bd 07af 423e 9e76 d03e 1cba 773e
00000100: 2d3e 593e 3ec4 d8bc ff0b 523e 75b2 323e
00000110: a5ed 193e 4bae 48be 5014 23be a2e2 203d
00000120: 7ddf cc3c d636 87be b52d a0bd 1ec9 59be
00000130: 4956 703e 9932 57be dd19 54be 2eab 9fbe
00000140: 874c a23d 3199 af3d d965 91be 8438 1a3e
00000150: 6b3a 43be 3507 2b3e a708 d8ba 3938 933b
00000160: f280 1d3e 1b8c 9abe 250b fbbd 2cff 35bd
00000170: 8280 603e 69b4 703e 68c9 913e 922c afbc
00000180: 75b4 943e ae1c 453e 2688 24bc b664 ffbc
00000190: 9f1c 84bd 23df 3dbe a175 4cbe 8174 e1bd
000001a0: b2a7 1a3e 03db 073e 5839 f0bd cc2c f13b
000001b0: cc35 b83e 7c7c 48be b1c7 4b3e 8d9b 753e
000001c0: 2c0d 9dbe 1784 ef3b b030 0cbe 95dc 09bd
000001d0: 5df0 97be 6cdf 80be 6f8d 3bbe 9a8b 2abe
000001e0: d4e3 71be 2d2e 983d 6bbe b8bd b4b4 873e
000001f0: aaed b13d 8fcb a73e 4cbd f9bd 9b74 90bd
00000200: c390 2c3d e3cf 593c 6081 f33c 292c 6f3e
00000210: 0b61 293e 0806 12be a566 fbbd 6652 00bd
00000220: 743f 3cbd d2d2 49bc a69d b4bd f007 87bc
00000230: b8e2 153d 2dc6 88be 862e 07be 052e 25be
00000240: bd09 1a3d 33d7 723d bcf5 493c f3be c43d
00000250: 0e64 153c 7b3e 18bd a4a6 183d e09a c1bd
00000260: 34b7 473e 1f35 07be 8395 53bd ad04 21be
00000270: 9435 aa3d f5c6 623e 7f22 053d 7bb2 ea3d
00000280: d6b3 733e 9832 11bc 291c c93c 3ed3 d0bd
00000290: 6482 a6bd c66f 8fbd 403b 08be f809 c83c
000002a0: 2006 6e3d c9a0 e03d 95bc 523d 0095 ee3d
000002b0: 8b23 973e 9b69 14bd 6a56 b83d 91f4 323e
000002c0: 2143 efbb 4ca0 98bc 9102 26bd 668a 1d3d
000002d0: 1190 3fbe e955 58be 3631 1fbe e67c 07be
000002e0: 257b a33d fbd2 8b3d 4837 a13d 31a9 0e3e
000002f0: bae9 debd 0348 753d dfb4 eb3d 19a3 f43d
00000300: cc57 0b3e e0f7 ae3d ae14 9e3d 61e4 983d
00000310: aa00 cd3e 6457 28bd cd98 03be 4249 b2bd
00000320: 218d 5cbe 4de0 c3be 2a7d 05bd 1ba5 46bd
00000330: 40fb df3d 6718 05bf 0885 04bf 440c 9fbe
00000340: 9486 d6bd 5e08 fbbd 4be1 eabd 48d1 34bd
00000350: 191c 263e 6e4b 33bd 1615 a53e 103f c8be
00000360: 0866 1d3c fca3 83be 5689 a63d 0581 dbbe
00000370: 6333 863c e96e 12be b21b 0a3f 2963 263e
00000380: a15d 2b3e 4269 fabd 1129 5e3d 310d 99be
00000390: dce7 003e 6c1b 2a3d 5d61 c4bd 2f25 583e
000003a0: 64b2 8c3b d30e 58bd 668e f93d c76c b13e
000003b0: b4a7 343e 0642 63bd c4ed 19be 14da d8bd
000003c0: cee7 78bd f942 663e 8de9 373e 3132 a33e
000003d0: 0cf2 eabd f368 14bd 29a2 1d3b d38f acbd
000003e0: 32f1 c43c 7372 8f3d d15c 733b 7767 b93d
000003f0: 6ac8 f9bd 08cb 983d f9ac 983e 4044 523e
0.08714448 -0.0833855 0.28159493 0.085124895 0.3796796 0.18238236 -0.0012819236 -0.033140775
-0.22861981 -0.20960703 0.072824895 -0.077317916 0.12924704 -0.2721394 -0.3265142 -0.28621516
-0.0151678445 -0.23697276 0.005448986 0.012143969 0.13646336 -0.13418725 0.2930757 -0.33068115
0.040561438 -0.20761389 0.16050576 -0.47034198 0.10608329 -0.011846273 0.5176221 0.38203573
0.30760658 -0.08232237 0.068366 -0.33725664 -0.0076069767 0.19431436 -0.1782971 0.4162189
-0.010514785 -0.0028708514 -0.074301146 0.45782796 0.13817245 -0.09038319 0.058384027 0.14924979
-0.053876683 0.39134055 0.079619974 0.40081593 0.009951654 -0.056867357 -0.22497118 0.050125364
0.0972885 -0.06970089 0.19576536 0.18187457 -0.09637287 0.1901208 0.40715498 0.24192089
0.21215124 -0.026460763 0.20512389 0.17450888 0.1503206 -0.19597737 -0.15925717 0.039278634
0.025008911 -0.26409024 -0.07821218 -0.21268126 0.23470415 -0.21015395 -0.20712991 -0.31185287
0.07924753 0.08574141 -0.28398016 0.15060622 -0.19065253 0.16701968 -0.0016482071 0.0044927862
0.1538122 -0.30185017 -0.12257985 -0.044432804 0.21924022 0.23506321 0.28473973 -0.021383557
0.29043928 0.19249222 -0.010042226 -0.031175952 -0.064507715 -0.18542151 -0.19966747 -0.110085495
0.15103033 0.1326714 -0.117296875 0.0073600765 0.35978544 -0.19578737 0.19900395 0.23985119
-0.30674112 0.0073094475 -0.13690448 -0.03365763 -0.2967557 -0.25170457 -0.18315671 -0.16654816
-0.23622066 0.07430682 -0.09020694 0.26505053 0.08687909 0.3277249 -0.12194309 -0.07053491
0.042130243 0.013294193 0.029724777 0.2335669 0.16540925 -0.14260113 -0.12275437 -0.03132858
-0.04595895 -0.01231833 -0.088191316 -0.016483277 0.03659317 -0.26713696 -0.13201341 -0.16130836
0.037606943 0.05928726 0.012326654 0.09606733 0.009118093 -0.03716896 0.037268296 -0.09453368
0.1950348 -0.13203858 -0.051656257 -0.1572444 0.083110005 0.22146209 0.0325036 0.11459824
0.2379907 -0.00886216 0.02454956 -0.10196541 -0.08130339 -0.07003741 -0.13303852 0.024418816
0.05811131 0.10968167 0.051449377 0.11649513 0.29519305 -0.036233526 0.09000857 0.17476107
-0.0073017036 -0.018631123 -0.04052979 0.038462065 -0.187073 -0.21126522 -0.15546116 -0.13231239
0.07982472 0.06827351 0.07871872 0.13931729 -0.108844236 0.05988313 0.11509108 0.11945171
0.1360771 0.08543372 0.07718788 0.07465435 0.4003957 -0.041098967 -0.12851258 -0.08705379
-0.21538211 -0.38257065 -0.03259007 -0.0484973 0.10936594 -0.5199036 -0.5176549 -0.31064045
-0.104748875 -0.12257455 -0.114687525 -0.0441449 0.16221656 -0.043773107 0.3224265 -0.39110613
0.009606846 -0.25711048 0.081316635 -0.42871872 0.016381925 -0.14300121 0.5394851 0.16248764
0.16734935 -0.122271076 0.054238383 -0.29892877 0.12588447 0.041530058 -0.09588883 0.21107934
0.0042937268 -0.052748512 0.121853635 0.34653303 0.17642099 -0.055482887 -0.15032107 -0.1058847
-0.06076794 0.22486486 0.17960186 0.3187423 -0.11471948 -0.0362329 0.0024052954 -0.0842587
0.024040792 0.07004251 0.003713418 0.090529375 -0.12196429 0.074606 0.29819468 0.20533848

ffn.4.bias f4 [64]
00000000: f78b f53c bc19 693d 621d 393d 5871 a9bd
00000010: 2a87 23bd 2b2c 663d 711b a4bd d49e 17bc
00000020: a651 813d fa18 cebc b01d 8abd 4784 e03c
00000030: 467a c1ba e021 02bc db02 0b3d 2544 ddbc
00000040: 9615 593c 625d cabd cc6d 73bd 422a e6bc
00000050: b294 25bd 37d0 0cbd 5430 7bbd d272 0bbd
00000060: 8404 2d3d 5560 32bd 5947 69bd fbdc 94bb
00000070: b2a3 b93c 742c e23c ff26 d1bb dc19 b73c
00000080: 6b33 c53d b58b 563c be7c 593d 434b e0bc
00000090: 6487 66bd 3dbf dcbc d829 313d 2a97 1fbc
000000a0: ae87 973d f37f a53d c630 92bc ddf6 663d
000000b0: d4bd b43c e02b dd3c 1e0e d5bc 750c 9cbc
000000c0: 6572 22bd 0ed5 f73c eee0 94bc cfa3 87bd
000000d0: f29e 8b3d 5e26 1d3a dcfb 223d 667f 823d
000000e0: fd32 70bd 4852 e03d 7a2c 03bc 7695 46bd
000000f0: f112 743c 648e a7bd aacc 9f3d 4477 c3bc
0.029973967 0.056909308 0.045194037 -0.08273572 -0.039923824 0.056194466 -0.080130465 -0.009254176
0.06314401 -0.025158394 -0.06743944 0.027406825 -0.0014761172 -0.007942647 0.03393827 -0.027010033
0.013249775 -0.098810926 -0.059430882 -0.028096322 -0.04042501 -0.034378257 -0.061325386 -0.034045048
0.042240635 -0.0435489 -0.056952808 -0.0045429445 0.022661064 0.027609088 -0.0063828225 0.022351198
0.09628948 0.013094832 0.05309748 -0.027379638 -0.056281462 -0.026946658 0.043252796 -0.00974063
0.07398926 0.08081045 -0.017845523 0.05638777 0.022063173 0.02699846 -0.026007708 -0.019048909
-0.039659876 0.03025296 -0.018173661 -0.06623041 0.06817426 0.0005994792 0.039790973 0.063719556
-0.058642376 0.10953194 -0.0080062095 -0.04848238 0.014897094 -0.08181456 0.078027084 -0.023860581
