THESIS/transfer_learning/trained/DMPNN_with_attention_QM9_mu.pt (torch, 347576 bytes, 14 tensors)

encoder.cached_zero_vector f4 [128]
0.0 0.0 0.0 0.0 0.0 0.0 0.0 0.0
0.0 0.0 0.0 0.0 0.0 0.0 0.0 0.0
0.0 0.0 0.0 0.0 0.0 0.0 0.0 0.0
0.0 0.0 0.0 0.0 0.0 0.0 0.0 0.0
0.0 0.0 0.0 0.0 0.0 0.0 0.0 0.0
0.0 0.0 0.0 0.0 0.0 0.0 0.0 0.0
0.0 0.0 0.0 0.0 0.0 0.0 0.0 0.0
0.0 0.0 0.0 0.0 0.0 0.0 0.0 0.0
0.0 0.0 0.0 0.0 0.0 0.0 0.0 0.0
0.0 0.0 0.0 0.0 0.0 0.0 0.0 0.0
0.0 0.0 0.0 0.0 0.0 0.0 0.0 0.0
0.0 0.0 0.0 0.0 0.0 0.0 0.0 0.0
0.0 0.0 0.0 0.0 0.0 0.0 0.0 0.0
0.0 0.0 0.0 0.0 0.0 0.0 0.0 0.0
0.0 0.0 0.0 0.0 0.0 0.0 0.0 0.0
0.0 0.0 0.0 0.0 0.0 0.0 0.0 0.0
00000000: 0000 0000 0000 0000 0000 0000 0000 0000
00000010: 0000 0000 0000 0000 0000 0000 0000 0000
00000020: 0000 0000 0000 0000 0000 0000 0000 0000
00000030: 0000 0000 0000 0000 0000 0000 0000 0000
00000040: 0000 0000 0000 0000 0000 0000 0000 0000
00000050: 0000 0000 0000 0000 0000 0000 0000 0000
00000060: 0000 0000 0000 0000 0000 0000 0000 0000
00000070: 0000 0000 0000 0000 0000 0000 0000 0000
00000080: 0000 0000 0000 0000 0000 0000 0000 0000
00000090: 0000 0000 0000 0000 0000 0000 0000 0000
000000a0: 0000 0000 0000 0000 0000 0000 0000 0000
000000b0: 0000 0000 0000 0000 0000 0000 0000 0000
000000c0: 0000 0000 0000 0000 0000 0000 0000 0000
000000d0: 0000 0000 0000 0000 0000 0000 0000 0000
000000e0: 0000 0000 0000 0000 0000 0000 0000 0000
000000f0: 0000 0000 0000 0000 0000 0000 0000 0000
00000100: 0000 0000 0000 0000 0000 0000 0000 0000
00000110: 0000 0000 0000 0000 0000 0000 0000 0000
00000120: 0000 0000 0000 0000 0000 0000 0000 0000
00000130: 0000 0000 0000 0000 0000 0000 0000 0000
00000140: 0000 0000 0000 0000 0000 0000 0000 0000
00000150: 0000 0000 0000 0000 0000 0000 0000 0000
00000160: 0000 0000 0000 0000 0000 0000 0000 0000
00000170: 0000 0000 0000 0000 0000 0000 0000 0000
00000180: 0000 0000 0000 0000 0000 0000 0000 0000
00000190: 0000 0000 0000 0000 0000 0000 0000 0000
000001a0: 0000 0000 0000 0000 0000 0000 0000 0000
000001b0: 0000 0000 0000 0000 0000 0000 0000 0000
000001c0: 0000 0000 0000 0000 0000 0000 0000 0000
000001d0: 0000 0000 0000 0000 0000 0000 0000 0000
000001e0: 0000 0000 0000 0000 0000 0000 0000 0000
000001f0: 0000 0000 0000 0000 0000 0000 0000 0000

encoder.W_i.weight f4 [128, 147]
-0.0672981 0.041010745 -0.050908938 0.029481204 -0.031172995 -0.32888043 0.13333721 0.16044421
-0.012583708 0.07313789 0.0682689 -0.012454833 0.04007466 -0.025414117 0.029375017 0.07847041
0.04825119 0.048382964 0.017427722 0.06653879 0.0019515476 0.07589549 0.006407695 -0.03781216
0.000622163 -0.014662588 0.030327944 0.027473869 0.0047101527 0.034007505 0.03554759 -0.03018177
-0.02014752 0.03831323 0.07356254 0.029366521 0.06278658 -0.004989201 -0.05656321 -0.06503105
-0.07780242 -0.08084447 -0.034034867 -0.036501653 -0.050432656 -0.047467623 -0.0362117 -0.054502476
0.029556086 0.01974902 -0.028420828 0.040295966 0.035391174 -0.034252297 0.014663798 -0.029851476
-0.07242117 -0.07755745 -0.034463454 -0.0008497297 -0.018575672 -0.04695494 0.009433963 -0.065133885
-0.060260642 0.049869142 -0.0021731264 0.026341021 0.0041681915 -0.032068927 -0.037971195 0.04640584
0.019183904 0.0055550253 -0.039323647 -0.032903463 0.043230753 -0.025035037 -0.0048709786 -0.014085959
-0.02525747 -0.007128947 0.04645394 0.040682744 -0.0632573 0.07487303 -0.0640362 -0.03147055
-0.040699773 0.03279702 -0.02449748 -0.064951 0.076375805 0.052875243 -0.07869319 -0.045537814
0.009919203 0.01530417 -0.08198705 -0.039242815 0.0806992 -0.041041877 0.08062839 0.13868997
0.070928596 -0.29103485 0.078591816 -0.03463534 0.5488124 0.024814686 0.24899676 -0.073899224
-0.35914218 0.012591087 -0.056123164 0.03710729 0.04588787 -0.06391133 0.04692208 0.10585359
0.064675756 -0.84046227 -0.19453643 0.06618047 0.06175401 -0.35662314 0.1517166 -0.31796208
-0.07683765 0.012349431 -0.07768184 -0.26540625 -0.017025076 0.06680276 0.35986695 -0.5013547
-0.14949921 -0.2829694 0.12249037 -0.3142493 0.03144607 -0.02514679 0.07197327 -0.021415306
-0.07994377 0.025233548 0.014772099 -0.037847646 0.05517558 0.020912742 0.07056493 -0.058800325
-0.19748893 0.095624395 -0.046926867 -0.11442337 0.012381377 -0.030599765 0.06252111 -0.07018755
-0.06782847 -0.020545185 0.077237435 0.01671239 -0.027129043 -0.054587033 0.07618654 -0.06916056
0.06936516 -0.02215992 0.08180937 -0.016364446 -0.00940429 -0.060539033 -0.06586911 0.020355077
-0.011046387 0.015766982 0.0021370912 -0.081810094 -0.04476275 0.07092049 -0.07696282 0.08099808
-0.07823724 -0.057041645 0.031978752 -0.021611724 -0.062889874 -0.0402552 0.071115 -0.048791483
-0.021580998 0.05260072 0.06638474 -0.03001354 -0.032729376 0.070048824 -0.0038099545 -0.007203603
0.0556122 0.081430644 0.014989726 0.013028307 -0.003030889 -0.07398198 0.007837938 0.05591865
-0.027282799 -0.07780172 -0.04233905 -0.034367137 -0.06412682 0.07416556 0.034194533 -0.04459336
0.05110923 0.030700695 -0.055183318 0.04233603 -0.07170902 -0.049126327 -0.07081524 -0.052400857
-0.037722677 0.062235367 -0.0076490617 0.014179482 -0.034161653 0.06879203 0.08115931 0.0698195
0.016145917 -0.067286946 -0.0029136594 0.057192434 0.03634655 0.013309065 -0.014510818 0.004302303
-0.07669994 -0.0017076004 -0.0056631505 0.021498388 0.028557448 -0.01170845 -0.07819854 -0.026836878
0.042909153 -0.2074672 -0.2915041 0.16782837 -0.0013772557 0.01753337 -0.03535255 -0.09886367
00000000: 96d3 89bd e2fa 273d e485 50bd 9182 f13c
00000010: 825e ffbc 0463 a8be 8d89 083e 7d4b 243e
00000020: e62b 4ebc 51c9 953d 91d0 8b3d 5b0f 4cbc
00000030: 5425 243d 4431 d0bc e0a3 f03c 18b5 a03d
00000040: 0aa3 453d 372d 463d 95c4 8e3c 7d45 883d
00000050: 12cb ff3a 186f 9b3d a4f7 d13b ece0 1abd
00000060: a718 233a 5a3b 70bc 4f72 f83c e110 e13c
00000070: a057 9a3b 744b 0b3d 5a9a 113d c23f f7bc
00000080: 690c a5bc 55ee 1c3d f5a7 963d 0f92 f03c
00000090: 4096 803d 747c a3bb d3ae 67bd 002f 85bd
000000a0: e056 9fbd c991 a5bd 2568 0bbd c282 15bd
000000b0: 7992 4ebd 696d 42bd b852 14bd fd3d 5fbd
000000c0: 9b1f f23c b2c8 a13c ccd2 e8bc 620d 253d
000000d0: 56f6 103d 234c 0cbd 6d40 703c 158b f4bc
000000e0: 8d51 94bd 71d6 9ebd 8d29 0dbd 65c0 5eba
000000f0: 022c 98bc d353 40bd e990 1a3c ea64 85bd
00000100: ddd3 76bd 9643 4c3d 036b 0ebb 20c9 d73c
00000110: 5395 883b b55a 03bd af87 1bbd 0d14 3e3d
00000120: 9027 9d3c ee06 b63b d511 21bd c8c5 06bd
00000130: bb12 313d 4716 cdbc bb9c 9fbb cbc8 66bc
00000140: c1e8 cebc f199 e9bb 7d46 3e3d f3a2 263d
00000150: 0b8d 81bd 0857 993d 6925 83bd 43e7 00bd
00000160: ceb4 26bd 2b56 063d f0ae c8bc 0805 85bd
00000170: eb6a 9c3d b693 583d e529 a1bd dc85 3abd
00000180: 2784 223c 57be 7a3c d4e8 a7bd 13bd 20bd
00000190: 9f45 a53d 871b 28bd 7f20 a53d be04 0e3e
000001a0: 0343 913d 8502 95be bff4 a03d c9dd 0dbd
000001b0: f87e 0c3f 2b48 cb3c 02f9 7e3e 7a58 97bd
000001c0: 7ce1 b7be d94a 4e3c 67e1 65bd d0fd 173d
000001d0: ebf4 3b3d f2e3 82bd 5e31 403d c4c9 d83d
000001e0: b974 843d 8928 57bf 8f34 47be a089 873d
000001f0: c6f1 7c3d 4f97 b6be 995b 1b3e edcb a2be
00000200: 0f5d 9dbd 4555 4a3c a817 9fbd 54e3 87be
00000210: 2c78 8bbc e3cf 883d 7b40 b83e c858 00bf
00000220: 5216 19be 5de1 90be 3bdc fa3d 49e5 a0be
00000230: 98cd 003d a400 cebc b966 933d 276f afbc
00000240: 8fb9 a3bd 96b6 ce3c ad06 723c 2206 1bbd
00000250: caff 613d 3351 ab3c 5984 903d 9cd8 70bd
00000260: 8a3a 4abe b9d6 c33d 6336 40bd cd56 eabd
00000270: 42db 4a3c 5cac fabc 110b 803d 7dbe 8fbd
00000280: a7e9 8abd 604e a8bc a92e 9e3d 6ce8 883c
00000290: ba3d debc a796 5fbd b007 9c3d 0da4 8dbd
000002a0: 520f 8e3d b888 b5bc ac8b a73d bb0e 86bc
000002b0: 7314 1abc c7f7 77bd 62e6 86bd b1bf a63c
000002c0: e8fb 34bc c229 813c 710e 0c3b 0d8c a7bd
000002d0: 2559 37bd c33e 913d af9e 9dbd 52e2 a53d
000002e0: d93a a0bd 80a4 69bd 27fc 023d 120b b1bc
000002f0: 68cc 80bd a3e2 24bd bea4 913d 94d9 47bd
00000300: a2ca b0bc da73 573d b9f4 873d f5de f5bc
00000310: 3d0f 06bd c275 8f3d 6eb0 79bb 340c ecbb
00000320: 9ec9 633d 1cc5 a63d 7897 753c ae74 553c
00000330: e1a1 46bb dd83 97bd b26a 003c f40a 653d
00000340: 2d80 dfbc 8256 9fbd b66b 2dbd 8ec4 0cbd
00000350: ec54 83bd 1de4 973d 910f 0c3d 87a7 36bd
00000360: e957 513d 0680 fb3c e707 62bd 8c68 2d3d
00000370: 2edc 92bd b038 49bd 9507 91bd 48a2 56bd
00000380: 1883 1abd 83ea 7e3d fba4 fabb 0f51 683c
00000390: 17ed 0bbd d6e2 8c3d da36 a63d 87fd 8e3d
000003a0: 7144 843c bdcd 89bd 18f3 3ebb 9d42 6a3d
000003b0: 1fe0 143d 440e 5a3c c8be 6dbc 55fa 8c3b
000003c0: dc14 9dbd 90d1 dfba f391 b9bb 631d b03c
000003d0: 4ff1 e93c ccd4 3fbc 8e26 a0bd 03d9 dbbc
000003e0: 82c1 2f3d 4872 54be 0740 95be 33db 2b3e
000003f0: 0885 b4ba 24a2 8f3c d6cd 10bd 0979 cabd

encoder.W_i.bias f4 [128]
-0.0039142217 -0.12724797 -0.030229267 -0.016379802 -0.058479864 -0.02034619 -0.14030866 -0.085559696
-0.09148842 -0.07219799 0.034740366 -0.14285113 -0.020226287 -0.023029858 -0.025441695 -0.14529936
-0.030299755 -0.09483871 -0.0855886 -0.01671126 -0.04322391 -0.037545413 -0.14275098 -0.105820805
-0.14318688 -0.07842505 -0.14942849 -0.11182059 -0.07520991 -0.063950375 -0.14877984 -0.028204324
-0.19995762 -0.022309003 0.032005243 -0.06497371 -0.065751 -0.08009831 -0.07155432 -0.16113614
-0.045127884 -0.045148943 -0.1492404 -0.18872143 -0.03856353 -0.08315022 -0.061823584 -0.08174085
-0.013588701 -0.020174023 -0.0671593 -0.05727173 -0.019854432 -0.11512738 -0.0832452 -0.0690544
-0.09869225 -0.07604086 -0.0005634262 -0.09072727 -0.06834412 -0.046139073 -0.061959095 -0.09909107
-0.015670875 -0.07019164 -0.11700397 -0.06695479 -0.063983455 -0.023996739 -0.026079532 -0.10266702
-0.06267544 -0.061745573 -0.1086294 -0.023806142 -0.030209774 -0.09073194 -0.064739525 -0.08360573
-0.047274098 -0.1121087 -0.09281774 -0.06992477 -0.055287022 -0.04546961 -0.0435204 -0.1436266
-0.14592883 0.057689723 -0.15591268 -0.05772895 -0.096918 -0.077663034 -0.025367942 -0.055930313
-0.08215674 -0.08253263 -0.067738086 -0.14396648 -0.16389121 -0.07771215 -0.16103925 -0.12067692
-0.17128168 -0.1508059 -0.07490845 -0.06090548 -0.099725924 -0.0049498267 -0.083056524 -0.059305407
-0.07721986 -0.08924617 -0.09003403 -0.125386 -0.038674578 -0.045476627 -0.08994064 -0.10488535
-0.022400234 -0.040339645 -0.07676169 -0.114260055 -0.04518522 -0.03521625 -0.11497299 -0.025536643
00000000: df42 80bb 4b4d 02be 5ea3 f7bc ef2e 86bc
00000010: 9588 6fbd 0ead a6bc 13ad 0fbe ec39 afbd
00000020: 485e bbbd 8adc 93bd ea4b 0e3d 9147 12be
00000030: 99b1 a5bc 1da9 bcbc 1a6b d0bc 5bc9 14be
00000040: 3137 f8bc cc3a c2bd 1349 afbd 0de6 88bc
00000050: 8e0b 31bd 38c9 19bd 502d 12be 94b8 d8bd
00000060: 959f 12be 509d a0bd c803 19be 3202 e5bd
00000070: a707 9abd 6af8 82bd be59 18be c10c e7bc
00000080: b1c1 4cbe 5fc1 b6bc ee17 033d f010 85bd
00000090: 76a8 86bd 950a a4bd 128b 92bd df00 25be
000000a0: 04d8 38bd 19ee 38bd 7ad2 18be 3140 41be
000000b0: cbf4 1dbd aa4a aabd ba3a 7dbd bf67 a7bd
000000c0: 25a3 5ebc fe43 a5bc d18a 89bd c395 6abd
000000d0: c3a5 a2bc e7c7 ebbd 767c aabd 656c 8dbd
000000e0: 2a1f cabd 4fbb 9bbd e4b2 13ba 38cf b9bd
000000f0: 01f8 8bbd 53fc 3cbd d2c8 7dbd 42f0 cabd
00000100: 3560 80bc a2c0 8fbd c79f efbd 981f 89bd
00000110: c209 83bd cf94 c4bc bea4 d5bc 1643 d2bd
00000120: fb5b 80bd ede8 7cbd 1779 debd 1905 c3bc
00000130: 7d7a f7bc abd1 b9bd 2896 84bd 7b39 abbd
00000140: 7ca2 41bd 3f99 e5bd 3a17 bebd b834 8fbd
00000150: a574 62bd 573e 3abd 7242 32bd da12 13be
00000160: 5e6e 15be 0f4c 6c3d 93a7 1fbe 3175 6cbd
00000170: f27c c6bd cc0d 9fbd 6ed0 cfbc 2f17 65bd
00000180: cb41 a8bd de06 a9bd 44ba 8abd f36b 13be
00000190: 19d3 27be 8c27 9fbd 79e7 24be 7625 f7bd
000001a0: 7764 2fbe dd6c 1abe 9a69 99bd 0678 79bd
000001b0: 1b3d ccbd 2832 a2bb 8a19 aabd 3aea 72bd
000001c0: 7225 9ebd b2c6 b6bd c363 b8bd 3065 00be
000001d0: 3c69 1ebd b345 3abd cc32 b8bd 21ce d6bd
000001e0: b280 b7bc 2f3b 25bd 3c35 9dbd 2d01 eabd
000001f0: 2314 39bd ea3e 10bd f576 ebbd 3932 d1bc

encoder.W_h.weight f4 [128, 128]
-0.20768297 -0.011291967 0.18537027 -0.049965117 0.00743854 0.06527589 0.03724636 0.21341369
-0.032727107 -0.19749545 0.01898668 -0.14389464 -0.6716916 0.0771445 -0.43778607 0.36163652
0.00050719915 -0.15064545 -0.09214437 -0.13675818 -0.0931703 0.27042574 0.121983506 -0.052063845
-0.039381187 0.036518488 -0.017718446 0.0094666565 0.036413897 -0.006336551 -0.13413449 0.2917769
-0.22058234 -0.105653614 -0.014332879 0.22569233 0.02667993 0.029051205 -0.28526145 0.039758638
-0.20628828 -0.101021655 -0.116638035 -0.042943187 -0.07469557 -0.5924283 -0.19483009 -0.3168425
-0.016143812 -0.029792385 0.015693955 0.07416048 0.054668166 0.068603896 0.022563178 -0.26909527
-0.0012407 -0.0007270061 0.17278723 -0.02390969 0.08299579 -0.0022503939 0.3180384 -0.4366486
0.20357399 0.21019536 -0.15273425 0.025789814 0.11702393 -0.3037232 0.14422828 -0.1445333
-0.1837348 -0.19028337 0.10251579 -0.18378036 -0.024529207 0.1671962 0.12092368 0.3194826
0.28666788 0.06316203 0.08424158 -0.02485252 0.1615154 -0.08870171 -0.45322824 -0.07395499
0.12178196 0.021066986 0.07414548 0.23136212 0.11429114 0.067452535 0.1078386 0.2575779
-0.05860258 -0.8393703 -0.028165895 -0.22528455 -0.13949269 0.03790249 -0.2697803 -0.30062243
-0.3530949 0.43511072 -0.19925836 0.19159172 0.024424048 0.012924223 -0.2947728 -0.12234569
-0.025316836 -0.13449039 0.103813775 -0.10520368 -0.07216933 -0.18616275 0.0628066 0.2908988
0.12632054 0.012416218 -0.052905377 -0.041129492 0.18513602 0.029118111 0.058126047 0.16680247
0.24270572 -0.21052699 0.14958808 0.01072599 -0.15967396 -0.093848184 -0.026693854 -0.018617371
-0.0073466375 -0.032815818 0.08667097 -0.34354332 -0.23390056 0.052886106 0.13226 0.10867331
-0.19574231 -0.03217751 0.0053124577 -0.37196296 0.03083701 0.18761986 0.3501243 0.07132096
-0.11884539 0.24012968 -0.15666059 -0.09253468 -0.075113915 0.27152306 0.2652009 -0.077938765
0.023998769 -0.084253915 -0.05152127 0.061347555 0.043395508 -0.097123206 -0.0472632 -0.30298546
-0.079676524 0.2823474 0.022547124 -0.54234993 -0.07710077 0.30509186 -0.029136311 0.13575266
0.065144956 0.06299269 0.26750606 -0.083138056 -0.114486925 -0.16290182 0.11452095 0.3655933
0.1980478 -0.23626517 -0.2818051 0.032198932 0.16652955 -0.14575851 -0.22234483 -0.064824246
-0.018370397 0.0067169853 -0.0019229101 0.037199277 -0.0033535382 -0.09741701 -0.08039105 -0.24650583
-0.166511 -0.018170547 -0.013669459 0.19615991 -0.23508243 0.18151188 0.35168603 0.08960731
0.06170328 -0.043551378 0.14273965 0.012155396 -0.02829497 0.1926919 0.39945576 -0.09073698
-0.0020051477 -0.0922318 0.105634116 0.2526295 -0.2804962 -0.13795656 0.069484584 0.103553616
-0.080605984 0.21864456 0.011008785 -0.11389448 0.30039093 0.00071218447 -0.018479677 0.1836544
0.039518863 0.03740907 0.17382216 -0.026812408 0.109255165 -0.056739874 -0.030651217 0.06153426
0.35922062 -0.24145794 -0.13508947 -0.06370957 0.24337079 -0.13597092 -0.009545497 -0.20420529
0.11393011 0.21511139 -0.0731974 0.043700498 -0.14821538 -0.19891188 -0.072164096 -0.04139752
00000000: d8aa 54be f101 39bc b4d1 3d3e 39a8 4cbd
00000010: ffbe f33b 5eaf 853d a48f 183d 1e89 5a3e
00000020: dc0c 06bd 3f3c 4abe f489 9b3c 1e59 13be
00000030: fbf3 2bbf f0fd 9d3d 7f25 e0be 6c28 b93e
00000040: 8ff5 043a cd42 1abe 30b6 bcbd 560a 0cbe
00000050: 12d0 bebd 3e75 8a3e 7dd2 f93d e640 55bd
00000060: 2b4e 21bd 6994 153d 4626 91bc 091a 1b3c
00000070: bd26 153d d8a2 cfbb 8d5a 09be c863 953e
00000080: 56e0 61be ec60 d8bd 74d4 6abc e41b 673e
00000090: de8f da3c cbfc ed3c ca0d 92be f4d9 223d
000000a0: 3c3d 53be 71e4 cebd ecdf eebd 32e5 2fbd
000000b0: fef9 98bd 62a9 17bf 8a81 47be 2e39 a2be
000000c0: 0740 84bc 290f f4bc 9c90 803c 73e1 973d
000000d0: baeb 5f3d 3380 8c3d 6ad6 b83c dbc6 89be
000000e0: fc9e a2ba 8e94 3eba 23ef 303e 41de c3bc
000000f0: b2f9 a93d 587b 13bb eed5 a23e 6890 dfbe
00000100: b375 503e 743d 573e 5e66 1cbe 2945 d33c
00000110: 3eaa ef3d 9b81 9bbe 94b0 133e 8a00 14be
00000120: fa24 3cbe a5d9 42be ccf3 d13d eb30 3cbe
00000130: 7af1 c8bc 7b35 2b3e d6a6 f73d 3993 a33e
00000140: 22c6 923e 185b 813d d986 ac3d 8397 cbbc
00000150: 4b64 253e 3ea9 b5bd 880d e8be b775 97bd
00000160: d268 f93d ac94 ac3c 96d9 973d 31ea 6c3e
00000170: 7911 ea3d 8e24 8a3d 7cda dc3d 40e1 833e
00000180: 4209 70bd f9e0 56bf 2abc e6bc feb0 66be
00000190: 2cd7 0ebe a43f 1b3d a520 8abe 2feb 99be
000001a0: dbc8 b4be d5c6 de3e 620a 4cbe 9f30 443e
000001b0: f114 c83c 1fc0 533c 76ec 96be 6190 fabd
000001c0: 4165 cfbc d9b7 09be 519c d43d 0775 d7bd
000001d0: 84cd 93bd 73a1 3ebe bfa0 803d b0f0 943e
000001e0: 2c5a 013e 656d 4b3c 4fb3 58bd 6677 28bd
000001f0: 4c94 3d3e 1b89 ee3c 9415 6e3d 44ce 2a3e
00000200: d987 783e 6394 57be 9e2d 193e 10bc 2f3c
00000210: 9281 23be 7a33 c0bd 12ad dabc 7583 98bc
00000220: 10bc f0bb e169 06bd 8d80 b13d e9e4 afbe
00000230: a183 6fbe 1a9f 583d 2a6f 073e 1d90 de3d
00000240: ac70 48be 91cc 03bd 2014 ae3b ee71 bebe
00000250: e69d fc3c 6c1f 403e 7e43 b33e b910 923d
00000260: 3665 f3bd 8ee4 753e a26b 20be d382 bdbd
00000270: 53d5 99bd 1205 8b3e 6ac8 873e 5c9e 9fbd
00000280: 1199 c43c 518d acbd f807 53bd 9347 7b3d
00000290: 7dbf 313d 88e8 c6bd 0f97 41bd e920 9bbe
000002a0: 722d a3bd d78f 903e bfb4 b83c 72d7 0abf
000002b0: 02e7 9dbd 0035 9c3e 46af eebc bf02 0b3e
000002c0: b86a 853d 5002 813d 8ef6 883e 4944 aabd
000002d0: 1f78 eabd bccf 26be f689 ea3d 0c2f bb3e
000002e0: 0bcd 4a3e 7fef 71be c248 90be 07e3 033d
000002f0: b986 2a3e b841 15be 5dae 63be 93c2 84bd
00000300: 847d 96bc 281a dc3b 280a fcba 455e 183d
00000310: 09c7 5bbb 9282 c7bd 10a4 a4bd 066c 7cbe
00000320: dc81 2abe 66da 94bc def5 5fbc 25de 483e
00000330: 73b9 70be 40de 393e 3110 b43e 0a84 b73d
00000340: 94bc 7c3d ee62 32bd 582a 123e 6d27 473c
00000350: daca e7bc 0751 453e 7785 cc3e 4fd4 b9bd
00000360: cc68 03bb 07e4 bcbd b356 d83d a758 813e
00000370: 339d 8fbe 7c44 0dbe ef4d 8e3d eb13 d43d
00000380: c014 a5bd 5ce4 5f3e 315e 343c 8241 e9bd
00000390: d7cc 993e e4b1 3a3a b162 97bc e60f 3c3e
000003a0: 88de 213d 413a 193d 70fe 313e b2a5 dbbc
000003b0: 2cc1 df3d 1268 68bd 4318 fbbc 590b 7c3d
000003c0: c4eb b73e c040 77be e554 0abe 2a7a 82bd
000003d0: 3136 793e f63b 0bbe b764 1cbc 311b 51be
000003e0: 3154 e93d 2946 5c3e 85e8 95bd 4bff 323d
000003f0: c6c5 17be 8eaf 4bbe c5ca 93bd 7290 29bd

encoder.W_h.bias f4 [128]
-0.07579883 -0.080128975 -0.20514867 -0.035332285 -0.027963253 -0.012612504 -0.05280471 0.03653749
-0.073985 0.016352976 -0.13057941 -0.043165937 -0.120471865 -0.18728155 0.017576667 -0.066481404
-0.3087495 -0.03949828 -0.005328278 -0.10947902 -0.14187469 -0.021429311 -0.008146252 0.07699824
0.058195088 0.037169848 0.06096236 -0.2979265 -0.084492154 -0.13332659 0.0962806 -0.034142707
0.109279 -0.14603986 -0.09884769 -0.06881655 -0.061682425 0.012807189 0.0047130263 -0.024768814
-0.04612611 -0.0011067392 0.058187522 0.122865506 -0.04529836 -0.04499625 -0.2781501 0.041815437
-0.034659427 -0.14925796 -0.02799804 -0.12550753 -0.03105629 -0.033158105 -0.019321406 0.002299991
-0.03641561 -0.062044762 -0.21040966 -0.0863535 -0.1300682 0.019625315 0.016355418 -0.015428614
-0.26912507 -0.06656066 -0.06086994 -0.054304235 -0.14938943 -0.12791356 -0.010692315 -0.11151061
0.009779133 -0.06844996 0.09299226 -0.03595524 -0.00088987016 -0.19230904 -0.009996886 -0.02663393
-0.13899481 -0.08487711 -0.058135133 0.05209898 -0.004957516 -0.073162556 -0.057201285 -0.13698788
-0.15068847 -0.1348987 0.06611903 -0.01275336 -0.02616628 -0.026189392 -0.3199899 -0.035051838
0.060276687 -0.015857497 0.013339095 -0.07532037 -0.19144782 0.006181286 -0.069655746 -0.031508718
0.15042087 0.041746326 -0.014635249 -0.039691333 -0.07519236 -0.082946174 -0.0456886 -0.0071806093
-0.07673197 -0.012511579 0.010864718 0.07927401 -0.23400523 0.013652517 -0.010436603 -0.16879952
-0.03208973 -0.13078374 -0.12391294 -0.11255745 -0.08710032 0.023445575 0.00016731922 0.009381583
00000000: 6b3c 9bbd a91a a4bd 7e12 52be 96b8 10bd
00000010: 3113 e5bc ada4 4ebc c049 58bd 56a8 153d
00000020: 7385 97bd adf6 853c 9cb6 05be c4ce 30bd
00000030: f4b9 f6bd bcc6 3fbe f1fc 8f3c 6727 88bd
00000040: 6a14 9ebe f3c8 21bd d698 aebb 8936 e0bd
00000050: 9947 11be 868c afbc db77 05bc 41b1 9d3d
00000060: f95d 6e3d 693f 183d abb3 793d d289 98be
00000070: 390a adbd c486 08be c32e c53d 39d9 0bbd
00000080: abcd df3d 798b 15be a870 cabd b1ef 8cbd
00000090: b6a6 7cbd 3ed5 513c bb6f 9a3b f8e7 cabc
000000a0: bbee 3cbd 0110 91ba 0a56 6e3d e9a0 fb3d
000000b0: c68a 39bd fd4d 38bd b169 8ebe aa46 2b3d
000000c0: 0bf7 0dbd 14d7 18be 255c e5bc 0c85 00be
000000d0: c369 febc cbd0 07bd ed47 9ebc 72bb 163b
000000e0: 8928 15bd a622 7ebd a175 57be 1bda b0bd
000000f0: 9930 05be 45c5 a03c ccfb 853c 4cc8 7cbc
00000100: c3ca 89be f550 88bd c252 79bd 1e6e 5ebd
00000110: 8bf9 18be c6fb 02be d22e 2fbc ad5f e4bd
00000120: a838 203c 7e2f 8cbd ba72 be3d cd45 13bd
00000130: 2d46 69ba a9ec 44be fbc9 23bc 662f dabc
00000140: a854 0ebe 0dd4 adbd 1b1f 6ebd bd65 553d
00000150: a972 a2bb 40d6 95bd e54b 6abd 8d46 0cbe
00000160: 144e 1abe e322 0abe 6a69 873d 78f3 50bc
00000170: ab5a d6bc 238b d6bc b7d5 a3be 8492 0fbd
00000180: b0e4 763d 95e7 81bc 388c 5a3c 9141 9abd
00000190: e60a 44be 638c ca3b aca7 8ebd 490f 01bd
000001a0: ee07 1a3e 32fe 2a3d afc8 6fbc 6193 22bd
000001b0: 74fe 99bd afdf a9bd f823 3bbd 514b ebbb
000001c0: a725 9dbd 5efd 4cbc ee01 323c 6a5a a23d
000001d0: 119f 6fbe cfae 5f3c 49fe 2abc c8d9 2cbe
000001e0: 8570 03bd 2cec 05be 11c6 fdbd 8584 e6bd
000001f0: a761 b2bd ef10 c03c 6972 2f39 36b5 193c

encoder.W_o.weight f4 [128, 261]
0.02831687 0.061170712 0.058460012 0.05100314 0.03252191 -0.14846458 0.0142028555 0.0343783
-0.27722153 0.039546285 0.012946973 0.013926857 -0.05553623 -0.051108208 0.022724086 0.025913492
-0.03782347 -0.01416138 -0.00031220735 -0.01880178 0.0284884 -0.009145342 -0.035829157 0.0003309792
0.025043279 -0.02514026 -0.03129474 -0.05721372 0.002669572 0.01937495 0.047722053 -0.042132508
-0.026204338 -0.027278502 0.03685829 0.021768633 -0.0125511335 0.0027358932 0.0237598 -0.02225946
-0.026964273 0.0045785666 -0.06171632 -0.013844147 0.021806244 0.023616089 0.025825374 0.052383587
0.013254045 0.035120137 0.05823552 -0.0068077305 -0.056566115 0.04993339 -0.058259815 -0.023553936
-0.019109044 -0.005089561 -0.050080687 -0.007583656 0.007180526 0.04951697 0.0504585 0.026941936
-0.045879822 0.028736737 0.05688975 0.042755187 -0.046798527 0.011509237 0.044286493 -0.03838246
0.057602964 -0.03770652 -0.047559615 -0.019389406 -0.051257282 -0.020269645 -0.005541347 -0.04266071
0.051674403 0.01633585 -0.0124505665 0.014518229 -0.015103684 0.0065037212 0.043936353 0.0309465
0.036288492 0.017146863 0.03727929 0.01783661 -0.0146752 -0.046360627 -0.020833502 -0.025673723
-0.0072812475 0.030565817 -0.061175074 -0.011934083 -0.04739181 -0.016351243 0.10329687 -0.20555374
-0.09756332 -0.70079905 -0.011172273 0.038275547 0.40087625 0.06106923 -0.5912506 -0.023197537
-0.16631244 -4.6708246e-05 -0.050472643 0.00021108733 -0.017826494 -0.054958466 0.030164089 0.05417749
-0.54267347 -0.37946853 -0.27708158 -0.05157847 -0.014021078 -0.36889362 0.044697423 -0.7921069
0.041758057 -0.017143158 -0.0084876185 0.012219899 -0.06926716 0.12909766 0.01089391 -0.11960081
0.11652961 0.18009827 0.16277984 -0.10128366 -0.58532876 -0.06690308 -0.040214747 -0.037075743
0.19580398 0.26857793 0.010603533 -0.38179642 0.009171646 -0.31589776 -0.12691844 0.17767598
-0.6742623 0.07593136 -0.053610113 -0.25620824 -0.6199931 -0.34707186 -0.15682305 0.019354897
0.29308298 -0.119298756 -0.033698298 0.15295261 -0.23245032 -0.31202397 -0.00030586487 -0.03213895
-0.27739757 0.23818146 0.022835942 -0.07513856 0.0070785796 -0.50507945 -0.090506405 -0.005658049
-0.06543098 0.046051525 0.33929113 0.026633903 -0.102616295 0.050474145 0.09690293 0.14919022
0.15005696 0.1083576 -0.055113047 0.01582684 -0.62792665 -0.22063833 -0.035646707 0.10419252
0.06681242 -0.03458945 0.038443174 0.13513772 0.14064011 0.00810219 0.13174981 -0.3975864
0.008225399 -0.031963166 0.1610989 0.039341986 0.052598443 0.061366737 0.1132612 -0.21931817
-0.10773256 -0.033145968 0.1601566 -0.3123045 0.14011723 0.093158275 -0.03434908 0.09251906
0.0068562184 -0.375165 -0.08032432 -0.065562144 0.0034551013 -0.01948742 -0.024732575 -0.021469934
0.010692255 0.10753519 0.21412793 -0.40758568 -0.11770339 0.08593256 -0.3708773 -0.023254585
-0.08917846 -0.045056123 -0.51386535 -0.16584405 0.17422065 -0.6885883 0.057209905 -0.10824947
-0.25841743 0.08534101 0.033628926 -0.13377962 0.044317167 0.08269844 -0.2794841 -0.43886426
0.021905292 0.06646508 -0.016637068 -0.09169696 0.067915894 -0.23436165 0.1691501 -0.048271935
00000000: c8f8 e73c 248e 7a3d c473 6f3d abe8 503d
00000010: b235 053d 1907 18be 18b3 683c 43d0 0c3d
00000020: fbef 8dbe 49fb 213d 8a1f 543c 792d 643c
00000030: f579 63bd d756 51bd dd27 ba3c 8848 d43c
00000040: c8ec 1abd 2205 68bc c3af a3b9 3106 9abc
00000050: 8160 e93c 58d6 15bc 98c1 12bd 4787 ad39
00000060: 9027 cd3c f2f2 cdbc ea2e 00bd ef58 6abd
00000070: fcf3 2e3b 37b8 9e3c 3378 433d 2393 2cbd
00000080: 7baa d6bc 2a77 dfbc b8f8 163d 2254 b23c
00000090: 45a3 4dbc ac4c 333b e9a3 c23c 7959 b6bc
000000a0: 2ee4 dcbc cd07 963b 41ca 7cbd 90d2 62bc
000000b0: 02a3 b23c 8776 c13c bc8f d33c 2c90 563d
000000c0: 7e27 593c 22da 0f3d 5e88 6e3d 6213 dfbb
000000d0: dfb1 67bd f486 4c3d d8a1 6ebd 2ff4 c0bc
000000e0: 928a 9cbc 55c6 a6bb 6821 4dbd 5180 f8bb
000000f0: 9e4a eb3b 4ed2 4a3d 92ad 4e3d 56b5 dc3c
00000100: 7bec 3bbd 4e69 eb3c 3a05 693d 1020 2f3d
00000110: d0af 3fbd 3d91 3c3c c165 353d ed36 1dbd
00000120: 16f1 6b3d 2772 1abd dfcd 42bd 88d6 9ebc
00000130: 28f3 51bd 870c a6bc 3094 b5bb ffbc 2ebd
00000140: 8aa8 533d c3d2 853c 76fd 4bbc dedd 6d3c
00000150: 7175 77bc 2b1d d53b 9bf6 333d 8483 fd3c
00000160: 3ea3 143d 9477 8c3c 2bb2 183d 151e 923c
00000170: 4070 70bc a4e4 3dbd 05ab aabc b351 d2bc
00000180: 8897 eebb 2a65 fa3c b792 7abd 2c87 43bc
00000190: ea1d 42bd 0bf3 85bc 4f8d d33d ae7c 52be
000001a0: 47cf c7bd 9167 33bf e90b 37bc d2c6 1c3d
000001b0: a73f cd3e bb23 7a3d 335c 17bf c308 bebc
000001c0: cf4d 2abe 99e8 43b8 67bc 4ebd 5357 5d39
000001d0: de08 92bc 211c 61bd ae1a f73c 37e9 5d3d
000001e0: a6ec 0abf b349 c2be a3dd 8dbe f243 53bd
000001f0: aab8 65bc a0df bcbe a514 373d 85c7 4abf
00000200: 7f0a 2b3d cf6f 8cbc a70f 0bbc f935 483c
00000210: f1db 8dbd 2d32 043e 5f7c 323c 45f1 f4bd
00000220: 13a7 ee3d ae6b 383e c2af 263e cf6d cfbd
00000230: 1bd8 15bf 7b04 89bd 38b8 24bd bcdc 17bd
00000240: d780 483e 0c83 893e 71ba 2d3c d27a c3be
00000250: ac44 163c 5abd a1be e8f6 01be b1f0 353e
00000260: 749c 2cbf e781 9b3d 4796 5bbd ba2d 83be
00000270: deb7 1ebf 67b3 b1be 3996 20be 298e 9e3c
00000280: f90e 963e e852 f4bd 3a07 0abd 9c9f 1c3e
00000290: 7507 6ebe 9bc1 9fbe 7d5c a0b9 22a4 03bd
000002a0: 0e07 8ebe d7e5 733e 7112 bb3c 3fe2 99bd
000002b0: 6ef3 e73b e34c 01bf 6c5b b9bd 2867 b9bb
000002c0: ad00 86bd 86a0 3c3d 91b7 ad3e 582f da3c
000002d0: 7e28 d2bd fabd 4e3d 0b75 c63d 52c5 183e
000002e0: 88a8 193e 97ea dd3d 38be 61bd 4aa7 813c
000002f0: cdbf 20bf 04ef 61be 4802 12bd e362 d53d
00000300: f3d4 883d abad 0dbd 9776 1d3d 8b61 0a3e
00000310: f603 103e 0cbf 043c 6ce9 063e 7290 cbbe
00000320: d3c3 063c cfeb 02bd 1cf7 243e 1025 213d
00000330: 7771 573d b05b 7b3d 7df5 e73d f194 60be
00000340: e3a2 dcbd 11c4 07bd 1700 243e 60e6 9fbe
00000350: e47a 0f3e c4c9 be3d 9fb1 0cbd a27a bd3d
00000360: 21aa e03b a015 c0be 1481 a4bd 7245 86bd
00000370: fb6e 623b 15a4 9fbc f89b cabc b7e1 afbc
00000380: 912e 2f3c 693b dc3d 5a44 5b3e 12af d0be
00000390: 7a0e f1bd 69fd af3d a1e3 bdbe 6680 bebc
000003a0: 32a3 b6bd c58c 38bd ae8c 03bf 06d3 29be
000003b0: e666 323e 5347 30bf ef54 6a3d e6b1 ddbd
000003c0: 4a4f 84be 44c7 ae3d 7cbe 093d 86fd 08be
000003d0: eb85 353d cd5d a93d 8a18 8fbe d1b2 e0be
000003e0: ba72 b33c d81e 883d 764a 88bc 9ecb bbbd
000003f0: 7d17 8b3d 80fc 6fbe af35 2d3e cbb8 45bd

encoder.W_o.bias f4 [128]
-0.026249412 -0.047847964 -0.07605029 0.0048635593 -0.15317178 0.0044776793 -0.020480355 -0.10754307
-0.078311816 -0.06293893 -0.009064886 -0.052205253 -0.062221006 0.013269408 -0.0052921153 -0.1175572
-0.030813834 -0.10153465 -0.034691602 -0.050715093 -0.041763082 -0.005508804 -0.12205921 0.02267774
-0.07814114 -0.09037448 -0.13958335 -0.04774018 -0.03064549 -0.15126164 -0.11485798 -0.189036
-0.072337 0.019305563 -0.054692883 0.04055631 -0.10218215 -0.063901864 -0.03675173 -0.055286095
-0.103839934 0.018830858 -0.046406068 -0.027598843 -0.14041321 -0.09435934 -0.07203943 -0.12408387
-0.11409242 -0.10359401 0.004307106 0.017895494 -0.10839835 0.04270285 -0.08331036 -0.0967096
0.001765068 -0.12520535 -0.054746732 -0.006072347 -0.053427048 0.025568523 -0.07063829 -0.09233207
0.00721458 -0.13617545 0.040981185 -0.24026836 -0.16348083 -0.18754807 -0.044882737 -0.07883295
0.055285748 -0.085923485 -0.1297612 -0.019918052 -0.11267907 -0.037509177 -0.002814219 -0.013781564
-0.031428937 -0.040869433 -0.01934883 -0.06755352 -0.041350704 -0.012301329 -0.064911105 -0.07029992
-0.031023331 -0.06724519 -0.03538742 -0.01913996 -0.045003414 -0.104434505 -0.012281622 -0.03647008
-0.054150593 -0.06510565 -0.25828698 -0.1024189 -0.11718592 0.016271884 -0.14104274 -0.027697664
-0.16539945 -0.12952082 -0.16154358 -0.134239 -0.12991022 -0.15736501 -0.18131334 -0.0044074254
-0.05685552 -0.05921002 -0.038313385 -0.013607358 -0.08918879 -0.08778779 -0.07073753 -0.02495938
-0.21282594 0.0001607858 -0.14364101 -0.10971815 -0.07494988 -0.18288614 -0.026963225 -0.023212634
00000000: 0209 d7bc 3afc 43bd 41c0 9bbd 7e5e 9f3b
00000010: 10d9 1cbe 7fb9 923b 6bc6 a7bc 8b3f dcbd
00000020: f261 a0bd 20e6 80bd e384 14bc 2dd5 55bd
00000030: 74db 7ebd ee67 593c 7b69 adbb d4c1 f0bd
00000040: 4b6d fcbc 66f1 cfbd c818 0ebd a1ba 4fbd
00000050: c40f 2bbd 3383 b4bb 2efa f9bd abc6 b93c
00000060: 7608 a0bd 4116 b9bd f0ee 0ebe 358b 43bd
00000070: 400c fbbc 55e4 1abe a93a ebbd a792 41be
00000080: 6c25 94bd b326 9e3c a505 60bd 601e 263d
00000090: e044 d1bd fbde 82bd fb88 16bd ac73 62bd
000000a0: 08aa d4bd 2c43 9a3c 4a14 3ebd f816 e2bc
000000b0: 7bc8 0fbe 783f c1bd 6989 93bd af1f febd
000000c0: 49a9 e9bd 1929 d4bd a022 8d3b 9299 923c
000000d0: f4ff ddbd 2fe9 2e3d 9f9e aabd af0f c6bd
000000e0: db59 e73a d535 00be 1c3e 60bd 8afa c6bb
000000f0: 52d6 5abd 1475 d13c cfaa 90bd 9918 bdbd
00000100: 4968 ec3b 9471 0bbe e3db 273d e908 76be
00000110: 8567 27be 9a0c 40be f6d6 37bd 2b73 a1bd
00000120: 4f73 623d a7f8 afbd 1fe0 04be 2f2b a3bc
00000130: 49c4 e6bd 39a3 19bd c36e 38bb 12cc 61bc
00000140: a1bb 00bd b566 27bd 7081 9ebc 8059 8abd
00000150: 5b5f 29bd 838b 49bc 1df0 84bd 68f9 8fbd
00000160: a424 febc d9b7 89bd 66f2 10bd 68cb 9cbc
00000170: 8055 38bd c2e1 d5bd db38 49bc a761 15bd
00000180: 03cd 5dbd 1c56 85bd 313e 84be 00c1 d1bd
00000190: 2cff efbd 9d4c 853c 826d 10be 36e6 e2bc
000001a0: 795e 29be 1ba1 04be ae6b 25be f375 09be
000001b0: 2f07 05be 4b24 21be 34aa 39be 2a6c 90bb
000001c0: 55e1 68bd 3586 72bd 7fee 1cbd 65f1 5ebc
000001d0: 9da8 b6bd 16ca b3bd d7de 90bd 9d77 ccbc
000001e0: 0bef 59be 9c98 2839 a116 13be e9b3 e0bd
000001f0: 537f 99bd 8146 3bbe fbe1 dcbc 6c28 bebc

ffn.1.weight f4 [64, 128]
0.14138784 -0.06633775 -0.0944404 0.18299745 -0.07056298 0.10981191 0.1390995 -0.36904848
0.27521807 -0.38135117 0.21010965 -0.29805353 0.080834165 -0.16269317 -0.23809439 0.15200347
0.2973523 -0.35252935 0.112417325 -0.20622389 0.7305336 -0.07346804 -0.07047506 0.07294937
0.062617056 -0.0006929489 -0.31807002 0.03547955 0.114231825 -0.13401026 0.07733274 -0.10767632
-0.14791231 -0.020455731 0.23870425 0.053307433 0.047841407 -0.19502322 0.1308709 0.04179284
0.031102017 0.5883608 0.007992123 -0.09415126 0.052733686 0.026146531 0.14244547 -0.021025598
0.08689076 0.08613286 -0.04760986 -0.03848943 -0.144607 -0.117631726 -0.3119542 -0.06405398
0.39725816 0.035295844 0.060930505 0.16633812 -0.018353024 -0.23564519 0.09887504 0.05847886
0.113204196 -0.17255227 0.26789922 -0.32780582 -0.25626177 -0.11199902 -0.10946583 0.011370116
0.02552928 0.2206339 -0.018367326 0.035304945 -0.25347567 0.30884138 0.11924527 -0.062784344
-0.16309664 -0.21906662 0.04920667 0.04077129 0.5553841 0.3535996 0.18111616 -0.17147899
0.10306681 -0.098433405 -0.10071711 -0.037264626 0.02854552 -0.051240858 -0.10225911 0.21554895
-0.10891863 0.19168109 -0.15303497 -0.068632014 0.27819407 -0.035386294 -0.04803952 0.18968047
-0.18899949 -0.24776253 0.10027997 -0.019322371 0.10801812 -0.05426588 -0.07529279 0.28086123
0.2656999 -0.20916016 -0.029044215 0.01320433 -0.1143904 0.1304603 -0.34630722 0.0020084074
0.27948168 -0.022797152 -0.18986158 -0.023770358 0.025405496 -0.28271315 -0.21527407 0.22374938
0.014879066 -0.042642433 0.021259492 -0.092105985 -0.111863226 0.19246788 0.05062282 0.24545158
0.01201287 0.6734215 -0.35353214 0.3288419 0.06333431 -0.09794017 0.4180049 0.12604205
0.060840588 0.51968926 -0.27718055 0.03926154 -0.6468524 0.26815292 0.026904449 -0.335104
0.053133387 -0.08020698 0.06689494 0.14208424 0.0021967837 0.13801534 -0.5440932 -0.30942973
-0.104070455 0.28385356 -0.3827614 -0.39271408 -0.079982474 0.08746009 0.21695508 0.07153147
-0.39691806 -0.67751944 0.09375921 0.07091056 -0.055766553 -0.05061053 -0.09284244 -0.060925685
-0.021187048 -0.4208976 0.07808757 0.07055365 -0.1003379 0.019933172 0.46625355 -0.018076383
-0.42875636 -0.037803188 -0.011059003 0.090504885 -0.09110281 0.13058509 0.034503747 0.016037207
0.083225004 0.2212699 0.006605838 0.03529541 0.1917613 0.34464616 0.19290611 0.016856253
-0.18305248 0.0037123675 0.022957375 0.03760016 0.40253127 -0.10945959 0.16985674 -0.10236951
0.26960272 -0.39168337 0.1855985 0.11103996 -0.414936 -0.17839864 -0.33902392 0.23224044
0.067228 0.028225312 -0.08712102 -0.27552637 0.06917676 0.033405147 -0.3597751 -0.044802073
0.30380777 0.20688319 0.4032261 0.16989815 -0.094645545 -0.19998477 -0.091134585 0.055641685
0.012589522 0.40437153 -0.3396027 0.06285737 -0.04084077 0.24904734 0.17715895 -0.16346616
-0.0540232 0.15576375 0.166634 0.16086672 0.06582864 0.051882233 0.21824212 0.013359268
0.09651731 -0.0156124495 0.42269394 -0.0876899 -0.11559454 0.37451404 0.15533634 0.05812905
00000000: f9c7 103e 16dc 87bd f869 c1bd af63 3b3e
00000010: 5383 90bd 11e5 e03d 1970 0e3e ecf3 bcbe
00000020: 62e9 8c3e 7640 c3be fc26 573e 799a 98be
00000030: 628c a53d 0a99 26be 04cf 73be cca6 1b3e
00000040: 903e 983e ba7e b4be 0e3b e63d 5b2c 53be
00000050: 4004 3b3f 6976 96bd 3a55 90bd 7b66 953d
00000060: 5f3d 803d 03a7 35ba 13da a2be 0153 113d
00000070: 60f2 e93d fc39 09be a160 9e3d 6785 dcbd
00000080: 5376 17be c792 a7bc e36e 743e e558 5a3d
00000090: 5af5 433d 2bb4 47be 0503 063e f82e 2b3d
000000a0: a8c9 fe3c d09e 163f 65f1 023c 60d2 c0bd
000000b0: 47ff 573d 4031 d63c 3add 113e e03d acbc
000000c0: c8f3 b13d 6d66 b03d 8e02 43bd 18a7 1dbd
000000d0: db13 14be e7e8 f0bd 76b8 9fbe bc2e 83bd
000000e0: 6c65 cb3e 6092 103d 4492 793d 8a54 2a3e
000000f0: 1559 96bc f94c 71be ff7e ca3d 8787 6f3d
00000100: 9ad7 e73d 8bb1 30be 162a 893e 2ad6 a7be
00000110: be34 83be be5f e5bd 9f2f e0bd b949 3a3c
00000120: c822 d13c daed 613e 1377 96bc eb9b 103d
00000130: 90c7 81be 7520 9e3e dd36 f43d 1495 80bd
00000140: ce02 27be 0053 60be ef8c 493d ccff 263d
00000150: a72d 0e3f 020b b53e 8476 393e 3098 2fbe
00000160: b114 d33d 7497 c9bd c644 cebd cba2 18bd
00000170: 4bd8 e93c efe1 51bd 396d d1bd ddb8 5c3e
00000180: bb10 dfbd 0c48 443e 33b5 1cbe f18e 8cbd
00000190: 746f 8e3e 38f1 10bd 16c5 44bd 993b 423e
000001a0: 1589 41be 76b5 7dbe 965f cd3d f349 9ebc
000001b0: 9b38 dd3d e645 5ebd 1b33 9abd 0bcd 8f3e
000001c0: d109 883e 152e 56be 22ee edbc f956 583c
000001d0: 8445 eabd 6397 053e 2e4f b1be 7c9f 033b
000001e0: 3918 8f3e 18c1 babc 136b 42be 0eba c2bc
000001f0: 301f d03c c7bf 90be ce70 5cbe 8f1e 653e
00000200: 53c7 733c d5a9 2ebd 6328 ae3c 10a2 bcbd
00000210: 8c18 e5bd 4d16 453e e059 4f3d a957 7b3e
00000220: a1d1 443c 5a65 2c3f 2a02 b5be f75d a83e
00000230: 6bb5 813d db94 c8bd bd04 d63e 2b11 013e
00000240: fb33 793d 5b0a 053f 9cea 8dbe b5d0 203d
00000250: 1e98 25bf 574b 893e b866 dc3c c092 abbe
00000260: 65a2 593d 8f43 a4bd 3700 893d 887e 113e
00000270: eaf7 0f3b e553 0d3e b149 0bbf 936d 9ebe
00000280: e422 d5bd 4155 913e 4df9 c3be d211 c9be
00000290: dacd a3bd 471e b33d 7929 5e3e 177f 923d
000002a0: d838 cbbe ea71 2dbf d404 c03d 8e39 913d
000002b0: 786b 64bd fd4c 4fbd 2d24 bebd 368d 79bd
000002c0: 7690 adbc e47f d7be 60ec 9f3d 6f7e 903d
000002d0: f57d cdbd e44a a33c c9b8 ee3e ec14 94bc
000002e0: f485 dbbe 84d7 1abd d230 35bc a05a b93d
000002f0: 1c94 babd 19b8 053e cd53 0d3d 7660 833c
00000300: df71 aa3d 9494 623e c975 d83b eb91 103d
00000310: 135d 443e 7675 b03e 2e89 453e 2016 8a3c
00000320: 1c72 3bbe 314b 733b 1b11 bc3c a002 1a3d
00000330: 9418 ce3e 592c e0bd edee 2d3e 1ba7 d1bd
00000340: 5e09 8a3e b98a c8be 880d 3e3e eb68 e33d
00000350: 7e72 d4be 22ae 36be 8b94 adbe 70d0 6d3e
00000360: d5ae 893d c538 e73c 816c b2bd cb11 8dbe
00000370: 8cac 8d3d d6d3 083d 7134 b8be 6182 37bd
00000380: b18c 9b3e 30d9 533e a773 ce3e c8f9 2d3e
00000390: 86d5 c1bd cfc8 4cbe c5a4 babd 89e8 633d
000003a0: 4844 4e3c c909 cf3e 68e0 adbe 5dbb 803d
000003b0: a748 27bd 4406 7f3e 2869 353e ac63 27be
000003c0: 6e47 5dbd 8880 1f3e 1aa2 2a3e 3fba 243e
000003d0: 2ad1 863d 7782 543d dd7a 5f3e d5e0 5a3c
000003e0: deaa c53d 5ccb 7fbc 576b d83e c396 b3bd
000003f0: d5bc ecbd 4ec0 bf3e 7d10 1f3e ba18 6e3d

ffn.1.bias f4 [64]
0.012640073 0.097140245 0.033987015 -0.049399916 0.0009664059 0.06521167 -0.04771941 -0.09306083
0.069972955 0.11406707 -0.0747513 -0.13099325 -0.05537677 -0.024719514 0.037704006 0.024695607
-0.08787708 -0.1416042 0.055659972 0.03020317 0.00078080647 -0.0026220216 -0.026995566 -0.017098723
-0.043722685 -0.0015347113 0.066183366 -0.027791558 -0.15681227 -0.04761141 -0.02186652 -0.042938963
0.0030589695 -0.064771414 0.012609466 -0.02090266 0.005059362 0.0023067538 -0.016711295 0.020651806
0.09093687 -0.07518541 0.030751556 -0.15005502 -0.0069679352 0.020718638 -0.0692533 -0.008508896
0.028653167 -0.04167658 -0.012657713 -0.023110978 -0.035045978 0.066082515 -0.0832033 -0.08366246
-0.070995465 -0.013893204 0.053914975 -0.062090583 0.09177191 0.0017260605 0.034245927 0.09371707
00000000: 4f18 4f3c 77f1 c63d f835 0b3d 9157 4abd
00000010: 6756 7d3a b28d 853d 6e75 43bd ad96 bebd
00000020: fb4d 8f3d ff9b e93d 3617 99bd 1823 06be
00000030: c1d2 62bd 9480 cabc 846f 1a3d 714e ca3c
00000040: e6f8 b3bd b100 11be b6fb 633d a36c f73c
00000050: 09af 4c3a 39d6 2bbb ce25 ddbc 9f12 8cbc
00000060: 8f16 33bd 5e28 c9ba 258b 873d 1fab e3bc
00000070: 6593 20be 2f04 43bd 6b21 b3bc c4e0 2fbd
00000080: fe78 483b e0a6 84bd ef97 4e3c 0e3c abbc
00000090: 01c9 a53b e82c 173b 20e6 88bc fa2d a93c
000000a0: 1c3d ba3d cffa 99bd b0ea fb3c 06a8 19be
000000b0: 4753 e4bb 22ba a93c add4 8dbd e668 0bbc
000000c0: 0cba ea3c 10b5 2abd 4c62 4fbc 3c53 bdbc
000000d0: 5f8c 0fbd 4556 873d 7e66 aabd 3957 abbd
000000e0: 1266 91bd 52a0 63bc f3d5 5c3d b252 7ebd
000000f0: e9f2 bb3d fb3c e23a 7545 0c3d bcee bf3d

ffn.4.weight f4 [64, 64]
0.013174197 -0.06844038 0.06696224 0.007906348 0.17466925 -0.007453606 -0.047261946 0.08650659
0.09934427 -0.04121828 0.09315899 0.08336417 0.0058717835 0.09278642 0.0027357237 -0.21420671
0.039811984 -0.09480987 0.19868213 -0.09836734 0.49823877 -0.036381293 0.07661288 -0.04760512
0.07713248 0.12936457 -0.054792963 0.13289852 -0.061539747 -0.06332711 -0.01536784 -0.027284196
-0.01604936 -0.03209449 0.009982037 -0.018709745 0.051489584 0.109788455 -0.10578553 -0.05526011
-0.09718505 0.07393349 -0.0074399626 -0.011675878 -0.49915802 0.037027348 0.06022386 0.024352297
0.051026046 -0.09172239 -0.014341711 0.027340626 0.063676834 -0.015090664 -0.015556306 0.07855297
0.019063141 -0.03536454 0.021071054 -0.009436356 0.15468062 0.019704562 0.15850456 -0.06380458
0.27073178 -0.19793688 -0.12571944 0.11231728 0.06656149 -0.19272031 -0.007170201 0.15603289
0.04488532 0.1524081 -0.06085033 -0.007325694 0.25616455 -0.169285 -0.07980589 0.16674982
-0.012837987 -0.19788639 0.06984457 -0.11210383 0.07524266 0.1899347 0.22784756 -0.23119774
0.06087344 0.05718852 -0.16781273 0.011257436 -0.080838084 -0.10421973 0.16712716 0.1240199
-0.20232894 0.2610439 -0.026395464 0.16106214 0.116838686 -0.18888925 0.11354555 -0.034641925
0.1505976 0.17149235 -0.16078874 -0.01543583 -0.032953467 -0.22976968 0.010726346 -0.12809542
-0.100001544 0.22306485 0.0009046866 0.09546841 0.14019212 -0.079145774 0.15800531 0.10019756
0.098937504 -0.18569575 0.02435454 0.14648178 0.13835068 0.015861928 0.041010566 0.039957717
0.24184796 -0.11674105 -0.06195085 -0.14322554 -0.02026997 -0.1952512 -0.014818807 0.054978866
-0.056540158 0.0030800472 -0.060630865 -0.15348065 0.24345078 -0.110088766 -0.067012355 0.13297535
0.17103198 -0.22362308 -0.10852645 -0.09851938 -0.016237652 0.1968221 0.09820336 -0.112027586
0.13194539 -0.102573715 -0.1720675 0.10004373 -0.087659344 0.060991235 0.22545789 0.17788044
-0.22008349 0.24114081 -0.12389011 0.1663616 0.033684056 -0.15313904 0.1360071 -0.12813099
0.18040554 0.21456005 0.049052186 -0.18618257 -0.06232888 -0.07867068 -0.036636148 -0.10011658
0.0059098317 -0.021072375 -0.08919064 -0.070118904 0.13250591 -0.18088883 0.26719907 0.21439989
0.11905807 -0.10829532 0.07487353 0.26270783 0.09742036 0.0325626 0.069642946 -0.0009814615
0.014928205 -0.028912297 -0.092150666 -0.075852 -0.062489294 0.042121552 -0.04611629 -0.02341837
0.11515568 -0.12318912 -0.09111502 -0.060733918 -0.051574573 -0.028489122 0.07357852 0.012266779
0.008801848 0.012845524 -0.05561441 0.09784478 -0.26818278 -0.023178909 -0.009614672 -0.093273714
-0.008111595 -0.023494795 -0.09565538 -0.09635516 0.034578193 -0.06698779 -0.087492205 -0.0013099652
-0.04445817 0.036044724 -0.047384 0.09971725 -0.11668021 -0.034908626 -0.081481375 -0.07788484
-0.0130186975 -0.1159333 -0.019261707 -0.12045838 0.14356916 0.102348626 0.016044704 -0.10938354
-0.14521831 0.15435086 -0.019114153 0.3127451 -0.15225883 0.0923262 0.018452922 -0.2028867
0.030158063 -0.14133637 -0.24619684 0.023485716 0.03489708 -0.043833125 -0.12180534 0.12398593
00000000: 96d8 573c 782a 8cbd 8023 893d a189 013c
00000010: 7fdc 323e 613d f4bb be95 41bd 5e2a b13d
00000020: 0275 cb3d 80d4 28bd 24ca be3d d5ba aa3d
00000030: 1768 c03b ce06 be3d d449 333b 0159 5bbe
00000040: e411 233d ad2b c2bd 5473 4b3e d174 c9bd
00000050: 2719 ff3e 8d04 15bd 37e7 9c3d 96fd 42bd
00000060: a2f7 9d3d 2578 043e 966e 60bd 8d16 083e
00000070: 1a11 7cbd a5b1 81bd 65c9 7bbc 1b83 dfbc
00000080: f379 83bc 8375 03bd b38b 233c 2e45 99bc
00000090: bee6 523d c5d8 e03d 15a6 d8bd 6d58 62bd
000000a0: f508 c7bd 716a 973d eeca f3bb 2f4c 3fbc
000000b0: a491 ffbe fda9 173d 4bad 763d 787e c73c
000000c0: b000 513d f3d8 bbbd 7ff9 6abc 73f9 df3c
000000d0: 0069 823d d53e 77bc e0df 7ebc 61e0 a03d
000000e0: 4e2a 9c3c 68da 10bd 349d ac3c f29a 1abc
000000f0: 9964 1e3e 766b a13c 054f 223e faab 82bd
00000100: 5b9d 8a3e f7af 4abe 99bc 00be 9a06 e63d
00000110: 6451 883d 7958 45be 01f4 eabb 16c7 1f3e
00000120: abd9 373d de10 1c3e 323e 79bd 600c f0bb
00000130: 0028 833e 0c59 2dbe 4571 a3bd 77c0 2a3e
00000140: 6c56 52bc bba2 4abe ab0a 8f3d b196 e5bd
00000150: d318 9a3d 3e7e 423e df50 693e 1abf 6cbe
00000160: 6e56 793d 823e 6a3d 1ad7 2bbe 1c71 383c
00000170: 708e a5bd 2771 d5bd 6223 2b3e 25fe fd3d
00000180: 512f 4fbe 8ca7 853e 4d3b d8bc 79ed 243e
00000190: 1f49 ef3d 2f6c 41be 928a e83d b1e4 0dbd
000001a0: 4236 1a3e b19b 2f3e cea5 24be 90e6 7cbc
000001b0: 37fa 06bd be48 6bbe 8ebd 2f3c 722b 03be
000001c0: 9ccd ccbd 1d6b 643e 7d28 6d3a f184 c33d
000001d0: 868e 0f3e 2e17 a2bd 25cc 213e 6134 cd3d
000001e0: bf9f ca3d 0727 3ebe 2c83 c73c 52ff 153e
000001f0: cdab 0d3e e0f0 813c b2fa 273d b4aa 233d
00000200: fea6 773e ee15 efbd 2dc0 7dbd b7a9 12be
00000210: 350d a6bc eeef 47be 95ca 72bc 8531 613d
00000220: a796 67bd 9eda 493b 1258 78bd 082a 1dbe
00000230: 294b 793e 3876 e1bd c63d 89bd b12a 083e
00000240: 0223 2f3e 73fd 64be 1e43 debd 87c4 c9bd
00000250: d304 85bc bc8b 493e d81e c93d b86e e5bd
00000260: b11c 073e 2b12 d2bd 7632 30be bae3 cc3d
00000270: be86 b3bd f2d1 793d 6fde 663e 4a26 363e
00000280: 915d 61be 9eed 763e 19ba fdbd b25a 2a3e
00000290: 4bf8 093d 7bd0 1cbe 7245 0b3e c534 03be
000002a0: 3bbc 383e a1b5 5b3e f2ea 483d a5a6 3ebe
000002b0: 914c 7fbd 181e a1bd c90f 16bd ec09 cdbd
000002c0: 43a7 c13b f99f acbc 95a9 b6bd 809a 8fbd
000002d0: a1af 073e ec3a 39be 51ce 883e a58b 5b3e
000002e0: b8d4 f33d f0c9 ddbd 4b57 993d a481 863e
000002f0: 5384 c73d 5c60 053d f6a0 8e3d 62a4 80ba
00000300: 6e95 743c 7bd9 ecbc 7db9 bcbd 4b58 9bbd
00000310: c6f4 7fbd a687 2c3d 6fe4 3cbd e2d7 bfbc
00000320: bed6 eb3d 944a fcbd 839a babd 21c4 78bd
00000330: dc3f 53bd 0562 e9bc 56b0 963d 9afa 483c
00000340: a035 103c 0876 523c f0cb 63bd d862 c83d
00000350: 414f 89be b2e1 bdbc db86 1dbc 4a06 bfbd
00000360: 7fe6 04bc 2878 c0bc f8e6 c3bd db55 c5bd
00000370: dda1 0d3d e530 89bd 1d2f b3bd 23b3 abba
00000380: c519 36bd a2a3 133d ba15 42bd 8f38 cc3d
00000390: 09f6 eebd 59fc 0ebd b5df a6bd 1682 9fbd
000003a0: 604c 55bc 706e edbd baca 9dbc e2b2 f6bd
000003b0: cb03 133e 289c d13d 2f70 833c 7a04 e0bd
000003c0: 1cb4 14be 270e 1e3e 4995 9cbc 2020 a03e
000003d0: bde9 1bbe 8515 bd3d 952a 973c 88c1 4fbe
000003e0: 0b0e f73c 7bba 10be 061b 7cbe 1e65 c03c
000003f0: 3ef0 0e3d 5d8a 33bd 1475 f9bd 56ec fd3d

ffn.4.bias f4 [64]
-0.016450316 0.053649485 0.051859863 0.02086625 -0.013748446 -0.13793565 0.05336193 0.0019151684
-0.030526318 -0.045104705 0.03049317 -0.02277667 -0.03632212 0.029467775 0.0070205233 0.037175164
0.02333168 -0.022815553 0.0147954915 -0.021909792 -0.0062803607 -0.0018987439 0.0062235147 0.029929405
0.007933744 -0.0028498757 -0.0015412106 0.019386273 0.034623634 -0.04378082 0.025533546 0.11555904
0.02197994 0.034112576 -0.3292513 0.0032021652 -0.13593863 0.011710625 -0.04478894 0.0227377
-0.2215384 -0.022179477 0.008824937 -0.006936695 0.020696437 0.05430154 -0.044012617 -0.39899012
-0.04612325 -0.029396342 0.03936669 0.031060316 -0.02393661 0.08791601 0.0086754365 -0.041320145
0.01528129 0.00075886305 -0.008004725 0.13025899 -0.0365915 -0.0655776 -0.00038674197 -0.018047428
00000000: d0c2 86bc 90bf 5b3d 026b 543d b3ef aa3c
00000010: 2941 61bc 013f 0dbe 0a92 5a3d 6306 fb3a
00000020: 5412 fabc b6bf 38bd d0cc f93c 2496 babc
00000030: 81c6 14bd 6766 f13c 6b0c e63b fc44 183d
00000040: 1422 bf3c afe7 babc ca68 723c 2a7c b3bc
00000050: 7ccb cdbb 46df f8ba a0ee cb3b 832e f53c
00000060: 89fc 013c fbc4 3abb 7202 caba f6cf 9e3c
00000070: 83d1 0d3d 8453 33bd ba2b d13c 38aa ec3d
00000080: 460f b43c a1b9 0b3d a093 a8be 6bdb 513b
00000090: 7f33 0bbe ecdd 3f3c 9c74 37bd 6a44 ba3c
000000a0: f6da 62be bcb1 b5bc 7896 103c 374d e3bb
000000b0: 938b a93c 4b6b 5e3d 9346 34bd 6f48 ccbe
000000c0: bceb 3cbd 99d0 f0bc f73e 213d 3472 fe3c
000000d0: b616 c4bc 4f0d b43d 6b23 0e3c 503f 29bd
000000e0: 605e 7a3c 70ee 463a 4026 03bc 9d62 053e
000000f0: f8e0 15bd 8c4d 86bd a1c3 cab9 33d8 93bc
