THESIS/transfer_learning/trained/MPNN_with_attention_Gsolv.pt (torch, 558709 bytes, 15 tensors)

encoder_sol.cached_zero_vector f4 [128]
0	0x00000000	0.0
1	0x00000000	0.0
2	0x00000000	0.0
3	0x00000000	0.0
4	0x00000000	0.0
5	0x00000000	0.0
6	0x00000000	0.0
7	0x00000000	0.0
8	0x00000000	0.0
9	0x00000000	0.0
10	0x00000000	0.0
11	0x00000000	0.0
12	0x00000000	0.0
13	0x00000000	0.0
14	0x00000000	0.0
15	0x00000000	0.0
16	0x00000000	0.0
17	0x00000000	0.0
18	0x00000000	0.0
19	0x00000000	0.0
20	0x00000000	0.0
21	0x00000000	0.0
22	0x00000000	0.0
23	0x00000000	0.0
24	0x00000000	0.0
25	0x00000000	0.0
26	0x00000000	0.0
27	0x00000000	0.0
28	0x00000000	0.0
29	0x00000000	0.0
30	0x00000000	0.0
31	0x00000000	0.0
32	0x00000000	0.0
33	0x00000000	0.0
34	0x00000000	0.0
35	0x00000000	0.0
36	0x00000000	0.0
37	0x00000000	0.0
38	0x00000000	0.0
39	0x00000000	0.0
40	0x00000000	0.0
41	0x00000000	0.0
42	0x00000000	0.0
43	0x00000000	0.0
44	0x00000000	0.0
45	0x00000000	0.0
46	0x00000000	0.0
47	0x00000000	0.0
48	0x00000000	0.0
49	0x00000000	0.0
50	0x00000000	0.0
51	0x00000000	0.0
52	0x00000000	0.0
53	0x00000000	0.0
54	0x00000000	0.0
55	0x00000000	0.0
56	0x00000000	0.0
57	0x00000000	0.0
58	0x00000000	0.0
59	0x00000000	0.0
60	0x00000000	0.0
61	0x00000000	0.0
62	0x00000000	0.0
63	0x00000000	0.0
64	0x00000000	0.0
65	0x00000000	0.0
66	0x00000000	0.0
67	0x00000000	0.0
68	0x00000000	0.0
69	0x00000000	0.0
70	0x00000000	0.0
71	0x00000000	0.0
72	0x00000000	0.0
73	0x00000000	0.0
74	0x00000000	0.0
75	0x00000000	0.0
76	0x00000000	0.0
77	0x00000000	0.0
78	0x00000000	0.0
79	0x00000000	0.0
80	0x00000000	0.0
81	0x00000000	0.0
82	0x00000000	0.0
83	0x00000000	0.0
84	0x00000000	0.0
85	0x00000000	0.0
86	0x00000000	0.0
87	0x00000000	0.0
88	0x00000000	0.0
89	0x00000000	0.0
90	0x00000000	0.0
91	0x00000000	0.0
92	0x00000000	0.0
93	0x00000000	0.0
94	0x00000000	0.0
95	0x00000000	0.0
96	0x00000000	0.0
97	0x00000000	0.0
98	0x00000000	0.0
99	0x00000000	0.0
100	0x00000000	0.0
101	0x00000000	0.0
102	0x00000000	0.0
103	0x00000000	0.0
104	0x00000000	0.0
105	0x00000000	0.0
106	0x00000000	0.0
107	0x00000000	0.0
108	0x00000000	0.0
109	0x00000000	0.0
110	0x00000000	0.0
111	0x00000000	0.0
112	0x00000000	0.0
113	0x00000000	0.0
114	0x00000000	0.0
115	0x00000000	0.0
116	0x00000000	0.0
117	0x00000000	0.0
118	0x00000000	0.0
119	0x00000000	0.0
120	0x00000000	0.0
121	0x00000000	0.0
122	0x00000000	0.0
123	0x00000000	0.0
124	0x00000000	0.0
125	0x00000000	0.0
126	0x00000000	0.0
127	0x00000000	0.0

encoder_sol.W_i.weight f4 [128, 133]
0	0xbda09f8c	-0.07842931
1	0xbd674674	-0.056463674
2	0x3cfdefbc	0.030998103
3	0xbd9238d0	-0.071397424
4	0x3c9ae430	0.018907636
5	0x3d0a019f	0.033692952
6	0x3d450a97	0.048105802
7	0xbc997bab	-0.018735727
8	0x3d47d8d4	0.048790768
9	0x3c1b35c0	0.009473264
10	0x3d751eca	0.059843816
11	0x3d92a18b	0.07159718
12	0xbc3e8a30	-0.011629626
13	0x3d21a632	0.039465137
14	0xbda1804d	-0.078857996
15	0xbceaa1e2	-0.028641645
16	0x3c9e6f4f	0.019340185
17	0xbd90a643	-0.07062962
18	0xbd2e4ff0	-0.042556703
19	0xbd108321	-0.035281304
20	0xbda952f1	-0.08267773
21	0xbcbb39f4	-0.022854783
22	0x3daa6015	0.083191074
23	0xbc376648	-0.011193819
24	0xbd8786ea	-0.0661753
25	0x3d93a0d7	0.07208412
26	0xbd5f7c54	-0.054561928
27	0x3da40c45	0.08010153
28	0xbd9ade38	-0.07561916
29	0x3d2bd3f6	0.04195019
30	0xbc13b7a8	-0.009015955
31	0xbcc20aac	-0.02368673
32	0x3cc4b630	0.024012655
33	0xbd8cf1fb	-0.068820916
34	0xbcf49b00	-0.029859066
35	0x3d8fdb3f	0.0702424
36	0xba243500	-0.0006264001
37	0xbc06fb20	-0.008238584
38	0xbd81eceb	-0.06344017
39	0x3d2e0e86	0.04249432
40	0xbae097c0	-0.0017135069
41	0xbd7d48f4	-0.06183715
42	0x3d8b84eb	0.068124615
43	0x3d74aada	0.05973325
44	0xbd356548	-0.044286042
45	0x3d2f16e2	0.042746432
46	0xbba8de20	-0.0051534325
47	0xbd5630d9	-0.05229268
48	0xbd92a30b	-0.07160004
49	0x3d752b22	0.059855588
50	0xbce37180	-0.027764082
51	0x3d0c1f12	0.03420932
52	0xbd6cc632	-0.0578062
53	0x3c189c08	0.0093145445
54	0xbd2c4ceb	-0.042065542
55	0x3da87309	0.08225066
56	0xbd946e0e	-0.07247554
57	0xbd04073b	-0.032233458
58	0xba3ebe00	-0.0007276237
59	0xbd836504	-0.064157516
60	0x3d43bc76	0.047787152
61	0xbd4edd8a	-0.050504245
62	0x3d57d742	0.05269552
63	0xbc769558	-0.015050255
64	0xbd65de3c	-0.056120142
65	0x3d490d12	0.04908473
66	0x3d16eed2	0.03684885
67	0x3c3a1120	0.011356622
68	0x3ce03220	0.027367651
69	0xbd423059	-0.04740939
70	0xbd853981	-0.065051086
71	0xbb950ca0	-0.004548624
72	0x3d040b88	0.03223756
73	0x3d605d5a	0.054776527
74	0xbd61cab9	-0.055124972
75	0xbd90d6ec	-0.07072243
76	0x3d3b3176	0.045701467
77	0xbd64eca8	-0.055889755
78	0x3d02dc6a	0.031948484
79	0x3d71ee56	0.059065185
80	0xbd74ab04	-0.059733406
81	0xbd89d286	-0.06729607
82	0x3cf08ff8	0.029365525
83	0x3d98f0bf	0.07467794
84	0x3db0b1a3	0.086276315
85	0x3da42935	0.08015672
86	0x3d7e689e	0.06211149
87	0x3d6c5fd6	0.057708584
88	0xbda24aad	-0.079243995
89	0x3c4e1f48	0.0125807
90	0xbc82cc24	-0.015966482
91	0x3d60112a	0.05470387
92	0xbd88d610	-0.06681454
93	0x3d4c5266	0.04988327
94	0xbc7777e8	-0.0151042715
95	0xbc7aede8	-0.01531551
96	0x3daef7ab	0.08543333
97	0xbd1d3801	-0.038383488
98	0xbd50b31c	-0.050952062
99	0x3daef6e9	0.08543188
100	0x3d39cede	0.0453633
101	0xbd94e757	-0.07270687
102	0xbd6e9de3	-0.05825604
103	0x3dc1997f	0.09453105
104	0x3b73ed74	0.003722039
105	0x3beba806	0.007191661
106	0x3d0d4bb2	0.034496017
107	0xbd3c19e7	-0.04592314
108	0x3d2d1192	0.042253084
109	0xba9b3e00	-0.0011844039
110	0x3d1fe33c	0.039035067
111	0x3d2d30d6	0.0422829
112	0x3c5d0ef1	0.013492332
113	0x3d8091bb	0.06277796
114	0xbd8045f9	-0.06263346
115	0xbd8847f8	-0.06654352
116	0xbd155e85	-0.036467094
117	0x3c34ab38	0.01102715
118	0xbd8c9888	-0.068650305
119	0x3d0be2d4	0.034151867
120	0x3d342071	0.04397625
121	0xbcdb3c42	-0.026762132
122	0x3d8b08ca	0.06788786
123	0xbd5c55ea	-0.05379287
124	0x3c89ccc0	0.016821265
125	0x3cd818ac	0.026378952
126	0xbd12c527	-0.03583255
127	0xbce7da7a	-0.02830242
128	0x3da20e15	0.07912842
129	0xbd80d145	-0.06289915
130	0x3d8ce62b	0.068798386
131	0x3d9eb627	0.077495866
132	0xbd8bc3ab	-0.0682443
133	0xbd9f8e0e	-0.07790767
134	0x3c9b5aac	0.018964134
135	0x3d07eae4	0.033182994
136	0xbd9054e4	-0.070474416
137	0x3c8b9210	0.017037421
138	0xbd14a786	-0.036292575
139	0x3df8b192	0.12143244
140	0x3d5a77d4	0.053336933
141	0x3d295633	0.04134197
142	0x3cda3fb0	0.026641697
143	0x3cff9020	0.031196654
144	0x3d938115	0.07202355
145	0x3bfca080	0.007709563
146	0x3d060b4e	0.032725625
147	0x3dd09a66	0.10185699
148	0xbc159b29	-0.009131231
149	0xbdba24ab	-0.09089025
150	0xbda3ef12	-0.080045834
151	0xbda74261	-0.08166958
152	0x3d0fc50c	0.035100028
153	0xbc8a793c	-0.016903512
154	0xbd938ef5	-0.07205001
155	0x3d9fde69	0.07806093
156	0xbc1a7540	-0.009427369
157	0x3d711376	0.05885645
158	0xbc4dc480	-0.012559056
159	0x3d8a77ff	0.06761169
160	0xbd6f8d05	-0.058484096
161	0x3d85cfc7	0.06533771
162	0xbd05ba0e	-0.03264814
163	0x3d9b48a1	0.07582212
164	0x3d4b3ea6	0.049620293
165	0xbd07315f	-0.03300607
166	0xbc9fab04	-0.019490726
167	0x3bff28b8	0.0077868365
168	0x3d890617	0.06690615
169	0x3d843205	0.06454853
170	0xbd6e4588	-0.05817178
171	0xbd99694c	-0.07490787
172	0xbd4b8607	-0.049688365
173	0x3d896b7d	0.06709955
174	0x3dae671d	0.08515761
175	0x3b785160	0.00378903
176	0xbc3f39c8	-0.011671491
177	0x3dab94c1	0.08377982
178	0x3ba3e820	0.0050020367
179	0xbc8152f4	-0.015786625
180	0x3d80d557	0.06290691
181	0x3c1cba38	0.009565882
182	0xbd428789	-0.047492538
183	0x3d480ba6	0.048839234
184	0xbcd02e76	-0.02541278
185	0x3d002805	0.031288166
186	0xbcb02f08	-0.021506801
187	0xbced1abe	-0.028943416
188	0xbcf21714	-0.02955202
189	0xbdb07679	-0.08616347
190	0x3cd7bd24	0.026335306
191	0x3bcd3ce0	0.0062633604
192	0x3d322972	0.043496557
193	0xbd28acab	-0.041180294
194	0xbbacc2b0	-0.005272232
195	0x3d8c0c7b	0.06838318
196	0x3dab22dd	0.08356259
197	0xbbaceef0	-0.005277507
198	0xbca4083c	-0.020023458
199	0x3d7c66ce	0.06162148
200	0x3cb81010	0.022468597
201	0x3d5a4afa	0.05329416
202	0x3b9aae20	0.0047204643
203	0xbce6373c	-0.02810251
204	0x3ca17f0c	0.019713901
205	0xbca278e8	-0.019833043
206	0xbd8d2956	-0.0689265
207	0xbd279632	-0.04091472
208	0xb9ac0200	-0.00032807887
209	0xbd4fca2c	-0.050729915
210	0x3d9b33bf	0.07578229
211	0x3da538eb	0.08067497
212	0xbafe5040	-0.0019402578
213	0xbc8aa090	-0.016922265
214	0xbcb02aac	-0.021504723
215	0x3a23ea80	0.00062529
216	0xbc0f94d8	-0.008763514
217	0xbc80c09c	-0.015716843
218	0x3b392aa0	0.0028254166
219	0x3d367a6e	0.04455035
220	0x3cc2a18c	0.023758672
221	0x3c844c5c	0.016149692
222	0x3dad38b7	0.08458083
223	0x3d1b8190	0.037965357
224	0x3d3a189e	0.045433633
225	0x3d70e996	0.058816515
226	0x3d8a4d09	0.067529745
227	0xbd888b23	-0.06667163
228	0x3cf1f148	0.029533997
229	0x3d51176e	0.051047735
230	0x3cf4e0b0	0.029892296
231	0xbdb137b8	-0.08653206
232	0x3c4b8e00	0.012423992
233	0x3cc718d0	0.024303824
234	0xbda10642	-0.07862522
235	0xbd106836	-0.035255633
236	0xbd1e3eae	-0.038633995
237	0x3d890b87	0.06691652
238	0xbd8787b3	-0.066176794
239	0xbd8fcb8a	-0.07021244
240	0xbd8a0da0	-0.0674088
241	0xb9a8fc05	-0.00032231226
242	0xbd181b44	-0.037135378
243	0xbda551b2	-0.08072223
244	0xbda595f3	-0.08085241
245	0x3d468e9c	0.048475847
246	0x3d26e6f2	0.04074759
247	0x3da57836	0.08079569
248	0xbdaacd5f	-0.08339953
249	0x3d748586	0.05969765
250	0x3c177bf0	0.009245858
251	0xbc8634a8	-0.01638253
252	0xbd03507b	-0.032059174
253	0x3d25243a	0.04031775
254	0xbdb0804b	-0.0861822
255	0x3d09f851	0.03368408

encoder_sol.W_i.bias f4 [128]
0	0xbcf3f16a	-0.029778201
1	0xbd0ac5ad	-0.033879925
2	0x3cd9c60a	0.02658369
3	0xbd03d9af	-0.03219002
4	0xbd4608ef	-0.048348363
5	0x3ca92f3e	0.02065241
6	0x3cfdce64	0.030982204
7	0xbcc1f0b6	-0.02367435
8	0xbd8a99d6	-0.06767623
9	0x3d2eb225	0.04265036
10	0x3c05a415	0.008156796
11	0x3c87a782	0.016559366
12	0x3c460953	0.012087184
13	0xbcce7a7c	-0.02520489
14	0xbd92e381	-0.07172299
15	0x3ce10b82	0.027471308
16	0xbd8f4e4a	-0.06997354
17	0x3cc8868b	0.024478218
18	0xbd70d0fd	-0.058793057
19	0x3b72bc7a	0.003703861
20	0x3d70e1ca	0.05880908
21	0x3b34c78d	0.0027584762
22	0xbcc0cde7	-0.023535682
23	0xbd27879e	-0.04090082
24	0xbd949715	-0.07255379
25	0xbd268828	-0.040657192
26	0x3d8f8551	0.0700785
27	0xbd764dd6	-0.060132824
28	0xbccc68bc	-0.024952285
29	0x3b70a988	0.0036722142
30	0x3d113bbe	0.035457365
31	0xbd1366d2	-0.03598673
32	0xbd6d42bb	-0.057924967
33	0xbdaa98ae	-0.083299026
34	0xbda611e1	-0.08108879
35	0xbcef6548	-0.0292231
36	0xbda0b36f	-0.07846724
37	0xbd47e004	-0.048797622
38	0xbc879638	-0.016551122
39	0x3d59907a	0.0531163
40	0x3d0593c4	0.032611623
41	0x3caa6ee0	0.020804822
42	0xbdb3afc5	-0.0877376
43	0x3d8edf17	0.06976145
44	0xbdaf5a15	-0.08562104
45	0x3d733565	0.059377093
46	0x3c13c675	0.009019484
47	0xbd79ec51	-0.061016385
48	0xbd73c78c	-0.059516475
49	0x3d91df95	0.07122723
50	0xbd8d553d	-0.069010235
51	0x3aa4510f	0.0012536364
52	0xbd0bcd1d	-0.03413116
53	0x3c8d426e	0.01724359
54	0x3cb507dd	0.022098476
55	0x3d9c354a	0.076273516
56	0xbcbca2cb	-0.023026844
57	0x3d078beb	0.03309242
58	0xbd583ad6	-0.052790485
59	0xbd9a4b77	-0.07533925
60	0xbca7eb1c	-0.020497851
61	0xbdb6b4ae	-0.08921181
62	0x3d91c5bc	0.07117793
63	0x3d9a3863	0.07530286
64	0xbb432c28	-0.0029780958
65	0xbcf36395	-0.02971057
66	0x3d30f8ae	0.04320591
67	0x3d4ebb4e	0.050471596
68	0x3d98bae9	0.07457525
69	0xbdad7c0f	-0.08470928
70	0xbdbf1ef4	-0.09332076
71	0xbd448547	-0.047978666
72	0x3d549d06	0.05190756
73	0xbd8e6de4	-0.06954554
74	0x3d93d62f	0.07218587
75	0xbc7707e0	-0.015077561
76	0x3d3eaaed	0.046549726
77	0x3cfd755b	0.030939749
78	0xbd9e5bc6	-0.07732348
79	0x3d9a9265	0.07547454
80	0xbd09c728	-0.033637196
81	0x3d3e819c	0.046510324
82	0x3d8d4d50	0.06899512
83	0x3d4ed80e	0.050499015
84	0x3cad42d6	0.021150034
85	0xbd6cd14b	-0.057816785
86	0x3d2d6c21	0.042339448
87	0xbd2f35e4	-0.042776003
88	0xbd552bba	-0.052043654
89	0xbd945bd5	-0.07244078
90	0xbdbbe033	-0.09173622
91	0x3d983d7b	0.074336015
92	0xbd4ac998	-0.04950866
93	0xbd8c209f	-0.068421595
94	0x3d866971	0.0656308
95	0xbda98aea	-0.08278449
96	0xbd82d64a	-0.06388529
97	0xbca278d1	-0.019833
98	0xbd8a07a1	-0.06739736
99	0x3d1702ba	0.036867835
100	0xbb5bfe50	-0.003356833
101	0xbd5c8eeb	-0.053847235
102	0x3d1730fe	0.036911957
103	0xbd9759de	-0.07390188
104	0xbd2563d8	-0.04037842
105	0xbc97e8cb	-0.018543622
106	0xbda713c5	-0.081580676
107	0xbd637bbe	-0.05553793
108	0x3d59824c	0.053102776
109	0x3c86176e	0.016368594
110	0x3d04811a	0.032349683
111	0xbd91d1a0	-0.07120061
112	0xbc36b479	-0.0111514265
113	0xbd9739a9	-0.07384045
114	0xbbe9bdc2	-0.0071332166
115	0xbd84246c	-0.064522594
116	0xbdbab924	-0.09117344
117	0xbd8d77ef	-0.06907641
118	0x3d76d7a1	0.060264233
119	0x3d635bd8	0.05550751
120	0xbb1a2ba6	-0.0023524552
121	0xbcc8ba06	-0.024502765
122	0xbd6182e2	-0.05505646
123	0xbd82b5a3	-0.06382301
124	0x3d7ca0dc	0.061676845
125	0xbcca77b0	-0.024715275
126	0x3c63cc1f	0.013903647
127	0xbda80b3f	-0.0820527

encoder_sol.W_h.weight f4 [128, 142]
0	0xbd728075	-0.059204537
1	0x3c9d4080	0.019195795
2	0xbd5c96c2	-0.05385471
3	0xbd0d198c	-0.03444819
4	0x3dbfe47b	0.09369751
5	0x3d126e6d	0.03574984
6	0x3dac1efc	0.08404347
7	0x3ba8e18e	0.0051538413
8	0xbd18e020	-0.037323117
9	0xbd17e2f9	-0.037081692
10	0x3da250d4	0.07925573
11	0xbc8a345f	-0.016870676
12	0x3d294caa	0.04133288
13	0x3d5b142e	0.05348604
14	0xbd3fbf7a	-0.046813466
15	0x3cf8a86c	0.030353747
16	0x3d10b8b2	0.03533239
17	0xbd0259bb	-0.031823855
18	0xbc5429be	-0.012949405
19	0xbd019038	-0.03163168
20	0xbd17a949	-0.037026677
21	0x3d313eab	0.043272655
22	0xbcf1fa05	-0.029538164
23	0xbc987bd6	-0.018613737
24	0xbc3c8d45	-0.011508291
25	0x3d819168	0.06326562
26	0x3dba18e0	0.09086776
27	0x3d78d6b9	0.06075165
28	0xbd080351	-0.033206288
29	0x3d76b000	0.06022644
30	0x3d455515	0.048176844
31	0xbcfad0cc	-0.03061714
32	0x3cd2b9b7	0.025723321
33	0xbc955884	-0.018230684
34	0x3d111f98	0.03543052
35	0x3dbcd3c8	0.092200816
36	0x3d99d900	0.075120926
37	0x3d95d599	0.07316131
38	0x3ca2792b	0.019833168
39	0x3d6bdb15	0.05758198
40	0x39d5ad5a	0.00040755683
41	0xbd3786f6	-0.044806443
42	0x3cb956ad	0.022624338
43	0x3be0db7d	0.0068621025
44	0xba74f205	-0.0009343925
45	0x3d05f8bf	0.032707926
46	0xbca46751	-0.020068796
47	0x3dc97f06	0.09838681
48	0xbd474ffc	-0.048660263
49	0xbd1c3bc5	-0.03814294
50	0xbdbb432c	-0.091436714
51	0x3bb8b120	0.0056363493
52	0x3c14c68d	0.009080541
53	0x3d2ec63b	0.042669516
54	0xbcc66dad	-0.02422222
55	0xbce20a99	-0.027592944
56	0xbcfa546a	-0.03055783
57	0xbd05585f	-0.03255498
58	0xbb4b1572	-0.0030988124
59	0xbd4eb5f6	-0.0504665
60	0x3d6de5dc	0.05808054
61	0xb7eaa6a0	-2.7972565e-05
62	0x3cdab8ed	0.026699508
63	0x3d517e46	0.051145814
64	0x3db112f1	0.08646191
65	0x3d0dbb20	0.034602284
66	0x3a82bcc2	0.0009974467
67	0x3bb6acd4	0.005574802
68	0x3d9de8fd	0.077104546
69	0x3d20f9c8	0.03930071
70	0x3d0d0181	0.034425262
71	0xbd74b86d	-0.059746195
72	0x3d86fcac	0.06591162
73	0x3d874e52	0.06606735
74	0xbd3c39e6	-0.045953654
75	0xbc732182	-0.014839532
76	0xbc9d8fc3	-0.01923359
77	0x3cf41a12	0.029797588
78	0x3d2bc53a	0.041936137
79	0xbcc17a59	-0.02361791
80	0x3d293575	0.041310746
81	0x3d8f445b	0.0699546
82	0x3b2f4a3f	0.0026747135
83	0xbd068099	-0.032837484
84	0x3db44c04	0.08803561
85	0x3d071d3c	0.032986864
86	0x3d488cfb	0.048962574
87	0x3c0ad50b	0.008473645
88	0x3cb84fe3	0.02249903
89	0x3d2c4b9a	0.042064287
90	0xbc32e40c	-0.010918628
91	0x3d806cb0	0.062707305
92	0xbc8174ff	-0.015802858
93	0xbd11fbf5	-0.035640676
94	0x3cf3fbbc	0.029783122
95	0xbd96b82a	-0.07359345
96	0xbc25f11b	-0.010128285
97	0xbb0f8e30	-0.0021904819
98	0x3d920f90	0.071318746
99	0x3cf0c52e	0.029390898
100	0xbd01e9aa	-0.03171698
101	0xbb3959bd	-0.0028282248
102	0xbcfee155	-0.031113306
103	0xbd72810c	-0.0592051
104	0xbc9813cb	-0.018564126
105	0x3b3f4bff	0.0029189584
106	0x3d885e61	0.06658626
107	0xbc9472fa	-0.018121231
108	0x3be168e3	0.0068789585
109	0x3d033da3	0.032041203
110	0xbc9d1722	-0.01917607
111	0xbd0ec660	-0.034857154
112	0xbd0fe831	-0.035133544
113	0xbd6783dc	-0.056522235
114	0x3b39bc8e	0.0028341147
115	0x3b8be21f	0.004268899
116	0x3cc5fa30	0.02416715
117	0xbc68d4d2	-0.014210897
118	0x3db72409	0.0894242
119	0x3d279f1c	0.040923223
120	0x3c0dea99	0.0086618895
121	0x3d62bd95	0.05535658
122	0x3d8a1528	0.067423165
123	0xbd102c48	-0.03519848
124	0xbd2a1502	-0.04152394
125	0xbb070816	-0.0020604185
126	0xbabdb95b	-0.0014474796
127	0xbd99823a	-0.07495542
128	0x3c79e160	0.0152514875
129	0xbd1eeed7	-0.038801994
130	0x3de7f779	0.113264985
131	0x3c5226f6	0.012826672
132	0x3d370f91	0.04469258
133	0x3cd68451	0.02618614
134	0x3c782904	0.015146498
135	0xbaee0cbb	-0.0018161753
136	0x3d3fe5f8	0.046850175
137	0xbd65059e	-0.05591356
138	0x3c348fe0	0.011020631
139	0xbba475e0	-0.0050189346
140	0xbd0c5001	-0.034255985
141	0xbd3d66da	-0.046240665
142	0x3d21b294	0.039476946
143	0xbbcf672a	-0.006329437
144	0xbd3eb897	-0.046562757
145	0xbc8feb3f	-0.017568229
146	0x3d92cef2	0.07168378
147	0x3bda0219	0.006653082
148	0x3d392017	0.04519662
149	0xbd37dd26	-0.044888638
150	0x3d8c3c5c	0.0684745
151	0xbd895c28	-0.067070305
152	0x3d508f25	0.050917763
153	0xbdbdc000	-0.09265137
154	0xbcef2c21	-0.029195847
155	0xbd73cd54	-0.059521988
156	0xbdab1dd7	-0.08355301
157	0xbd3df853	-0.0463794
158	0x3dbadfd7	0.09124725
159	0xbd87c1d9	-0.066287704
160	0x3d50c085	0.05096485
161	0xbc795c46	-0.015219754
162	0x3d3e71f4	0.046495393
163	0xbd9b1052	-0.07571472
164	0x3be73fff	0.0070571895
165	0xbc564899	-0.013078832
166	0x3d178ada	0.036997654
167	0xbbfa77a3	-0.0076436563
168	0x3d48ca00	0.049020767
169	0xbdb5e019	-0.08880634
170	0xbd271d05	-0.04079916
171	0x3d931716	0.07182138
172	0x3d9ed6e4	0.07755831
173	0xbc59a226	-0.013283288
174	0x3cea94bb	0.028635373
175	0xbd7648b0	-0.060127914
176	0x3c034d68	0.008014061
177	0xbd791248	-0.06080845
178	0xbd97415b	-0.073855124
179	0xbda489df	-0.08034109
180	0xbc8e8bf9	-0.017400729
181	0x3d5789b4	0.05262156
182	0xbd223e8b	-0.039610427
183	0x3d784d6f	0.06062072
184	0xbd97cad1	-0.07411731
185	0x3d83a726	0.064283654
186	0xbc759675	-0.014989485
187	0x3c6dfd15	0.0145256715
188	0x3c8b159b	0.016978076
189	0xbd9a4e6b	-0.07534488
190	0x3d42aa13	0.047525477
191	0x3d027f35	0.031859595
192	0xbd1e6000	-0.03866577
193	0x3d9392b1	0.072057135
194	0xbb38053a	-0.0028079287
195	0xbd31f018	-0.043441862
196	0xbcce607a	-0.025192488
197	0x3be7ff9e	0.0070800325
198	0xbdb70506	-0.08936505
199	0x3d917291	0.0710193
200	0x3dbe0bca	0.09279592
201	0xbd88d992	-0.06682123
202	0xbd37cbee	-0.044872217
203	0x3dcaa716	0.0989515
204	0x3d674a61	0.056467418
205	0x3d12c189	0.0358291
206	0xbd55aa4f	-0.052164372
207	0x3d1e71e3	0.03868283
208	0x3d6cef15	0.057845194
209	0xbbafffa6	-0.005371052
210	0xbca8654e	-0.020556118
211	0x3d9ef61d	0.07761786
212	0xbd65596f	-0.055993494
213	0xbc9c70bd	-0.019096727
214	0x3d43d148	0.047807008
215	0x3d321676	0.04347845
216	0x3ca77ecb	0.020446202
217	0x3cc48777	0.023990376
218	0x3d84c8af	0.0648359
219	0x3d44cf34	0.048049167
220	0xbda87e6c	-0.08227238
221	0xbce30453	-0.027712023
222	0xbc40ec37	-0.011775068
223	0x3cffb27d	0.03121304
224	0xbd7b2a13	-0.061319422
225	0x3d24311c	0.040085897
226	0x3cfbfbc2	0.030759696
227	0xbdb6222c	-0.088932365
228	0x3caeddb8	0.021345958
229	0x3d1bcaaf	0.03803509
230	0x3d80c492	0.06287493
231	0x3d1f49dd	0.0388888
232	0xbc53f15d	-0.012935963
233	0xbdb25a13	-0.087085865
234	0x3d80fa5a	0.06297751
235	0x3d834687	0.064099364
236	0xbd349955	-0.04409154
237	0x3bc479c4	0.005995961
238	0x3d677e37	0.056516852
239	0x3b7fa088	0.0039005596
240	0xbd82e4ab	-0.06391271
241	0xbc0e25e4	-0.008676026
242	0xbd5bda7e	-0.053675167
243	0xbd6ecfd9	-0.058303688
244	0xbda8ce14	-0.08242431
245	0xbcd6c536	-0.026217084
246	0xbd4c7ef2	-0.049925752
247	0x3d646758	0.05576262
248	0xbddc9720	-0.10771012
249	0xbcc0a920	-0.023518145
250	0x3d4c72fb	0.04991434
251	0x3d63546d	0.055500437
252	0xbd83b816	-0.06431596
253	0x3da2e8a2	0.079545274
254	0xbcfe015d	-0.03100651
255	0x3d4a537a	0.049396016

encoder_sol.W_h.bias f4 [128]
0	0xbd0c6943	-0.034280073
1	0xbda28b8c	-0.07936773
2	0x3d42b2f5	0.047533948
3	0x3c35d72e	0.011098666
4	0x3d679f97	0.05654868
5	0xbcfcea18	-0.030873343
6	0xbd948450	-0.07251799
7	0xbda68c28	-0.081322014
8	0xbcdeb881	-0.027187588
9	0x3cf85912	0.03031591
10	0xbbef2e92	-0.007299253
11	0x3d613b97	0.05498847
12	0xbc97fb0b	-0.018552324
13	0x3c01f4c3	0.007931891
14	0x3d5122a1	0.051058415
15	0x3cf48906	0.029850494
16	0xbd805b25	-0.062673844
17	0x3c3b7904	0.011442427
18	0x3c1a9da9	0.009437003
19	0xbd885bc1	-0.06658126
20	0xbb8aee93	-0.004239866
21	0x3c2e2d0a	0.010630855
22	0xbdc13003	-0.09432986
23	0xbd905523	-0.070474885
24	0xbd82c2ef	-0.06384837
25	0xbcee05e8	-0.02905555
26	0xbd0f1b02	-0.034937866
27	0xbcf2b543	-0.029627448
28	0xbd88acbd	-0.06673572
29	0x3d855f76	0.06512348
30	0xbac20be5	-0.001480457
31	0xbd3817d6	-0.044944607
32	0xbcad5454	-0.021158375
33	0x3d83094a	0.06398256
34	0xbb818566	-0.00395267
35	0xbcc3acfe	-0.0238862
36	0x3d22154e	0.0395711
37	0xbce747e9	-0.028232532
38	0x3d5cdac1	0.053919557
39	0x3d43179a	0.04762993
40	0xbd65c9cd	-0.056100655
41	0x3c24a5d3	0.010049301
42	0xbbd12e62	-0.006383703
43	0x3d677df5	0.056516606
44	0xbc92cc7c	-0.017919771
45	0x3d2f4f53	0.04280026
46	0xbd9b879e	-0.07594226
47	0x3bf01425	0.00732662
48	0x3c0c9617	0.008580706
49	0xbd8a0159	-0.06738538
50	0xbd99ea57	-0.075154
51	0xbdaef9cf	-0.08543741
52	0xbaa015bf	-0.0012213512
53	0xbca41942	-0.020031575
54	0x3d75ad7f	0.059979912
55	0x3d4a140c	0.049335524
56	0xbd73b2e0	-0.05949676
57	0x3d061f84	0.0327449
58	0xbd1676d3	-0.036734413
59	0x3d83a639	0.06428189
60	0xbb365e12	-0.0027827066
61	0x3d8b5d9c	0.06804964
62	0xbc76e7f5	-0.015069951
63	0xbcf727c4	-0.030170329
64	0xbd333192	-0.043748446
65	0x3d3ce912	0.04612071
66	0xbcb67dd2	-0.022276793
67	0xbd39c863	-0.04535712
68	0xbd8e4a6a	-0.06947787
69	0x3d6f7521	0.058461312
70	0x3cf013b5	0.029306272
71	0xbbdd004f	-0.0067444216
72	0xbd76ba52	-0.060236283
73	0xbc773ed8	-0.015090667
74	0x3d13d6d3	0.036093544
75	0xbc949889	-0.01813914
76	0xbd270697	-0.04077777
77	0xbce4bce2	-0.027922098
78	0xbd8885ef	-0.06666171
79	0x3cabbc09	0.020963686
80	0xbcd97f55	-0.026549974
81	0x3d0626c1	0.032751802
82	0xbd7cce73	-0.061720323
83	0xbcd3b808	-0.025844589
84	0xbd204649	-0.03912953
85	0x3d687a59	0.056757305
86	0x3d8ee6c2	0.06977607
87	0x3d866b89	0.065634795
88	0xbd07ad30	-0.03312415
89	0x3bf6cdcd	0.0075318576
90	0xbd5ee45f	-0.05441701
91	0xbd9ba487	-0.075997405
92	0x3ce194ca	0.027536768
93	0xbd50b948	-0.050957948
94	0xbd89ad5a	-0.06722517
95	0xbd5a7b96	-0.053340517
96	0x3d8375c4	0.064189464
97	0xbd802a78	-0.062581
98	0xbc3bdcca	-0.011466214
99	0xbd9a4904	-0.07533458
100	0xbd9d7c27	-0.07689696
101	0x3b2b7047	0.0026159452
102	0xbd6360dc	-0.055512294
103	0x3cb1cee1	0.021705093
104	0x3c8c90b8	0.017158851
105	0x3d6a5923	0.057213914
106	0x3c9e8fa8	0.01935561
107	0x3c812ff0	0.015769929
108	0x3d171ed9	0.036894653
109	0xbc34990b	-0.011022816
110	0x3cf95dce	0.030440237
111	0xbd3d2382	-0.04617644
112	0xbba0f54a	-0.0049120532
113	0xbdc757d5	-0.097335495
114	0xbd905a97	-0.07048529
115	0x3ce1d822	0.02756888
116	0x3ce5cc21	0.028051438
117	0xbdacfc4b	-0.084465586
118	0x3d7ea9f4	0.0621738
119	0xbcb9f467	-0.022699548
120	0xbd07ad4a	-0.033124246
121	0xbda770f7	-0.08175843
122	0xbc6ec940	-0.014574349
123	0x3d90f676	0.07078259
124	0xbbfe6cc3	-0.0077644303
125	0xbc8c20b8	-0.017105445
126	0x3d58e630	0.0529539
127	0xbc378d93	-0.0112031875

encoder_sol.W_o.weight f4 [128, 261]
0	0x3c00cba8	0.007861055
1	0xbcaa5c8c	-0.020796083
2	0xbce77220	-0.028252661
3	0x3cd0b53c	0.025477044
4	0xbcb03570	-0.021509856
5	0x3c9bc368	0.019014075
6	0x3d33d437	0.043903556
7	0xbda6c8be	-0.08143757
8	0xbd05f274	-0.032701924
9	0xbc5be484	-0.013421182
10	0xbcdaf35a	-0.026727367
11	0xbd52495a	-0.051339485
12	0x3d21ace8	0.039471537
13	0x3c075718	0.008260511
14	0x3baf1c13	0.005343923
15	0x3ccc5c50	0.024946362
16	0x3daf6121	0.08563448
17	0xbce051be	-0.027382728
18	0xbd170d60	-0.03687799
19	0xbbc4ea78	-0.006009396
20	0x3d1be79c	0.038062677
21	0x3cd89f30	0.026443094
22	0xbd4d8da6	-0.050183915
23	0x3cd144d4	0.025545515
24	0xbd796774	-0.060889676
25	0x3d533da6	0.051572464
26	0x3d4b5892	0.049645014
27	0xbd4fa842	-0.050697573
28	0x3d3bda1c	0.045862302
29	0xbcddbb00	-0.027066708
30	0xbd5592cc	-0.05214195
31	0x3d22d594	0.039754465
32	0x3bddb8a0	0.006766394
33	0xbc797500	-0.015225649
34	0x3d5e3e78	0.054258794
35	0x3d295150	0.04133731
36	0x3d3b20ae	0.045685463
37	0x3d2a1cb2	0.041531272
38	0xbd7582f3	-0.059939336
39	0xbc51384c	-0.01276977
40	0xbc844a48	-0.016148701
41	0x3c9c436c	0.019075118
42	0xbd4675c4	-0.048452154
43	0x3ca8d51c	0.020609431
44	0xbcb26d30	-0.02178058
45	0x3c0892b8	0.008335762
46	0x3c8a2b10	0.016866237
47	0xbd01c1a8	-0.031678826
48	0xbccb776c	-0.024837218
49	0x3c3a3610	0.011365429
50	0xbd789d88	-0.06069711
51	0xbcc01d9c	-0.023451619
52	0x3d1fbacf	0.038996514
53	0xbcaf74bc	-0.021417968
54	0x3b9c3080	0.004766524
55	0xbd39efaa	-0.045394577
56	0xbd338a42	-0.043833025
57	0xbc175870	-0.009237394
58	0xbc494f00	-0.0122869015
59	0x3c7150d8	0.014728747
60	0x3c5ce168	0.013481475
61	0x3cf4e688	0.029895082
62	0xbcbdcef2	-0.023169968
63	0x3d5113c4	0.05104424
64	0x3d326c08	0.043560058
65	0xbb412fe0	-0.0029477999
66	0xbd72a4fd	-0.059239376
67	0x3c5878a8	0.01321236
68	0xbd141758	-0.036155075
69	0x3d1a2aa2	0.037638314
70	0xbd295696	-0.04134234
71	0xbd673bd8	-0.056453556
72	0x3cfca538	0.030840501
73	0xbc6b6204	-0.01436663
74	0xbd32de64	-0.04366912
75	0xbd7b5621	-0.061361436
76	0xbce64090	-0.028106958
77	0xbd661f98	-0.056182474
78	0x3d1b3a54	0.037897423
79	0x3bd516a0	0.0065029413
80	0x3bfc0450	0.007690944
81	0x3d62d18e	0.05537563
82	0x3cbe3c30	0.023222059
83	0xbd2bc562	-0.041936286
84	0x3ce8abe4	0.028402276
85	0xbc8c1c1c	-0.017103247
86	0x3d7a75fe	0.061147682
87	0xbd370604	-0.04468347
88	0x3d10d54c	0.035359666
89	0xbcbcf3e0	-0.023065507
90	0x3be26560	0.0069090575
91	0x3d70f3ce	0.05882626
92	0xbd3e6a52	-0.046488114
93	0xbc997e96	-0.018737119
94	0x3d581bcc	0.052760884
95	0xbc269bc0	-0.01016897
96	0xbd06d5d3	-0.032918762
97	0xbb913188	-0.0044309534
98	0xbd6a75ed	-0.05724137
99	0xbc95755e	-0.018244442
100	0x3c206388	0.009789355
101	0x3d5d61a0	0.05404818
102	0x3daa98e3	0.08329942
103	0xbc4ea11d	-0.012611655
104	0x3d716b62	0.0589403
105	0x3d131350	0.03590709
106	0x3d41fe04	0.04736139
107	0x3b985760	0.004649088
108	0x3bbc8c93	0.0057540624
109	0x3d34d514	0.04414852
110	0xbd80fd9a	-0.06298371
111	0xbcc1b194	-0.023644246
112	0xbd2c35e5	-0.042043585
113	0x3d7b59f6	0.06136509
114	0x3d6dfc9a	0.058102228
115	0x3babae40	0.005239278
116	0xbd78f403	-0.060779583
117	0x3ce17a20	0.027524054
118	0x3b1c6840	0.0023865849
119	0x3d6aa20c	0.057283446
120	0x3ba686db	0.005081994
121	0x3d3255be	0.0435388
122	0xbcd4df8a	-0.025985498
123	0xbc4771ec	-0.012173157
124	0x3d54414e	0.051820092
125	0xbcf49b19	-0.029859113
126	0x3d40a2b7	0.047030177
127	0x3d0f6c54	0.03501542
128	0xba97c2e0	-0.0011578463
129	0xbd2ada7d	-0.041712273
130	0x3d7ab272	0.061205335
131	0xbd154880	-0.036446095
132	0x3d852a6d	0.06502233
133	0xbd72b572	-0.05925507
134	0x3cfd225e	0.030900177
135	0xbc7c242b	-0.0153894825
136	0x3c8a43ca	0.016878027
137	0xbd56b5be	-0.052419417
138	0x3ce7cb2f	0.028295128
139	0x3d6dba3a	0.058038928
140	0x3d8a0e1b	0.06740972
141	0x3d3dd8a8	0.046349198
142	0x3c20773c	0.009794053
143	0xbc4fe693	-0.0126892505
144	0xbbcd3f5b	-0.006263656
145	0x3d51ca10	0.051218092
146	0xbaeb2396	-0.0017939683
147	0xbae36aa5	-0.0017350508
148	0x3d243f70	0.04009956
149	0xbc89924c	-0.016793393
150	0xba675a21	-0.0008825381
151	0x3c1591ee	0.009129031
152	0xbd2bc6e1	-0.041937713
153	0xbc4c55db	-0.012471641
154	0xbb82c5e9	-0.003990878
155	0x3a4886bc	0.00076494715
156	0xbce484c5	-0.02789534
157	0xbca8f7c8	-0.020625964
158	0x3d3fdf42	0.046843775
159	0x3ad974ad	0.0016590558
160	0x3cbda196	0.02314834
161	0x3cf13fc3	0.02944935
162	0x3d2ac4d1	0.041691605
163	0x3d516e25	0.051130433
164	0x3b240ab6	0.0025030798
165	0x3d4cbf97	0.0499874
166	0xbba207c2	-0.0049447725
167	0x3ced1760	0.02894181
168	0x3d4c404c	0.049866006
169	0xb9f9fbf9	-0.00047680715
170	0x3cde6eca	0.027152438
171	0xbbb5444d	-0.0055318237
172	0x3d362561	0.04446924
173	0x3d57f0f2	0.052720018
174	0xbd38fe88	-0.045164615
175	0xbd132d77	-0.03593203
176	0x3c9281f4	0.017884232
177	0x3d5ee4f6	0.054417573
178	0xbd810c0f	-0.06301128
179	0xbbbccdc1	-0.0057618325
180	0x3d68a6fa	0.056799866
181	0xbd36efab	-0.04466216
182	0x3cd05aea	0.025433976
183	0x3d3e3bb6	0.046443664
184	0x3c812e30	0.015769094
185	0xbcab991b	-0.02094703
186	0x3d3da87c	0.046303257
187	0x3d13228f	0.03592163
188	0x3cb8b759	0.022548364
189	0xbc93706f	-0.017997948
190	0xbd0b74e2	-0.034047015
191	0x3d134f85	0.035964508
192	0x3d85d78d	0.06535254
193	0x3d3e9684	0.04653026
194	0x3d183439	0.03715918
195	0xbc60d32a	-0.01372222
196	0xbd91d631	-0.07120932
197	0x3d8b4631	0.06800497
198	0xbd86bb0c	-0.06578645
199	0x3cf779f3	0.030209517
200	0xbc631860	-0.013860792
201	0xbd100ad4	-0.035166577
202	0x3d282162	0.04104746
203	0xbc88f7f2	-0.016719792
204	0x3c2d6a32	0.010584401
205	0x3cc86a67	0.0244648
206	0x3b12f54d	0.0022424043
207	0xbd09ff78	-0.0336909
208	0xbcf44d4a	-0.02982201
209	0x3d815186	0.063143775
210	0xbc69d4ef	-0.014271959
211	0xbd61bf58	-0.05511412
212	0xbc11cebf	-0.00889939
213	0x3ced6836	0.028980356
214	0x3b5e0a0d	0.0033880502
215	0x3be36854	0.006939927
216	0x3d702838	0.058632106
217	0xbbc08dc5	-0.0058762752
218	0x3cf4078c	0.029788755
219	0xbd3cb64d	-0.046072293
220	0x3d33da4c	0.043909356
221	0x3a9f3679	0.0012146971
222	0x3d74e7af	0.059791263
223	0xbc42fceb	-0.011901121
224	0xbcac2f9a	-0.021018792
225	0xbd84ff28	-0.0649398
226	0x3d694406	0.056949638
227	0x3ce25767	0.027629567
228	0xbd80c928	-0.062883675
229	0x3a85d289	0.0010209839
230	0x3d78f3c7	0.06077936
231	0xbd24423c	-0.04010223
232	0x3b5e1b9a	0.0033890964
233	0xbd3f39f5	-0.04668613
234	0xbd2e18fc	-0.042504296
235	0x3c0ddec6	0.00865907
236	0xbd384fd2	-0.044997998
237	0x3c0d5434	0.008626033
238	0x3b8ba129	0.004261155
239	0xbd5785d9	-0.05261788
240	0x3bc66c42	0.006055386
241	0x3d2e62bb	0.042574625
242	0xbd6607d4	-0.05615981
243	0x3c3aa786	0.01139248
244	0xbcb89123	-0.022530144
245	0xbd717df0	-0.058957994
246	0x3d600b2c	0.054698154
247	0x3cb9805c	0.022644214
248	0xbd75741e	-0.05992519
249	0xbc845094	-0.016151704
250	0x3cacaf81	0.02107978
251	0x3d0c33ac	0.034228966
252	0x3d5fae18	0.054609388
253	0x3d71a0de	0.058991306
254	0xbd421d0d	-0.047390986
255	0x3d3cabce	0.046062283

encoder_sol.W_o.bias f4 [128]
0	0x3d388bdf	0.045055266
1	0xbc883127	-0.016625
2	0x3d7164fd	0.0589342
3	0xbcf680ee	-0.030090775
4	0x3d28c3c6	0.04120233
5	0xbccf957b	-0.025339833
6	0x3d3cabe7	0.046062376
7	0x3d53dde7	0.051725294
8	0xbd143390	-0.036181986
9	0x3b7c4db6	0.0038498468
10	0xbd0542d3	-0.03253443
11	0xbd1677de	-0.036735408
12	0xbd37a1dc	-0.044832096
13	0x3d30415e	0.04303109
14	0xbd49edab	-0.049298923
15	0x3d82fd16	0.063959286
16	0xbc6b01f1	-0.014343725
17	0xbd17283e	-0.036903612
18	0xbc3233e4	-0.0108766295
19	0xbcd540e4	-0.026031919
20	0xbb29c455	-0.0025904377
21	0x3d68420e	0.05670362
22	0x3cf0532e	0.029336538
23	0xbd76b9dc	-0.060235843
24	0x3d449f6b	0.048003595
25	0x3d24ba03	0.040216457
26	0xbcff7b71	-0.031186791
27	0xbc272185	-0.010200863
28	0x3b18ab3d	0.0023295425
29	0x3ced8c5f	0.028997598
30	0x3cc0f78e	0.023555543
31	0x3d34ed2d	0.0441715
32	0xbd52d398	-0.051471323
33	0xbb5714b5	-0.003281874
34	0x3d3b1d7a	0.045682408
35	0x3d4bea69	0.049784098
36	0xbb71b4ca	-0.003688144
37	0x3d11fe87	0.035643127
38	0xbd3bb67f	-0.04582834
39	0xbcc3b87b	-0.023891678
40	0xbcc30efb	-0.023810854
41	0x3d0b2d15	0.03397854
42	0x3c158b4e	0.009127451
43	0xbd5c0324	-0.053713933
44	0x3d0575a9	0.032582913
45	0x3d7b1920	0.061303258
46	0x3d0b6243	0.034029257
47	0x3d3181ca	0.043336667
48	0xbd7f88e1	-0.062386397
49	0xbd83f7bc	-0.06443736
50	0xbd7713c0	-0.06032157
51	0xbd3aa63d	-0.045568693
52	0x3bb26c0d	0.0054450096
53	0x3c84ace9	0.016195731
54	0x3d3ae333	0.04562683
55	0xbc8ab886	-0.01693369
56	0x3d306078	0.04306075
57	0xbd8dd6fd	-0.069257714
58	0xbd029c19	-0.031887148
59	0xbd6c771c	-0.05773078
60	0xbd1ddddf	-0.03854167
61	0x3cc36726	0.023852896
62	0x3c9452f1	0.018105956
63	0xbc84c18c	-0.016205572
64	0xbc1bbca4	-0.009505425
65	0xbd1255a8	-0.03572622
66	0xbc19017e	-0.009338735
67	0x3a2bb00d	0.0006549366
68	0xbc05d724	-0.008168969
69	0x3c34d890	0.011037961
70	0x3d4f6201	0.050630573
71	0x3c00f39a	0.007870579
72	0x3cc53fd9	0.024078296
73	0xbcdaaf4c	-0.026694916
74	0xbd19ea7a	-0.03757713
75	0x3cf9d8f2	0.030498955
76	0x3ca1ee5a	0.019766975
77	0xbcea560e	-0.028605487
78	0xbc1df873	-0.009641754
79	0x3b8a7ae4	0.0042260755
80	0xbc932650	-0.017962605
81	0x3cef8851	0.029239805
82	0x3c086618	0.008325122
83	0xbb893256	-0.0041869087
84	0xbd4c86f9	-0.049933407
85	0xbc48a39a	-0.012246037
86	0x3d1686cc	0.036749646
87	0xbcf748a6	-0.030186009
88	0x3cb9c82f	0.022678463
89	0xbb44dea0	-0.0030039921
90	0x3bf8d93f	0.007594257
91	0x3d0a04de	0.033696048
92	0x3c157fa2	0.009124668
93	0xbcd4052b	-0.02588137
94	0xbd85a39c	-0.06525347
95	0xbb127267	-0.002234602
96	0xbceda5fc	-0.029009812
97	0x3d075441	0.033039335
98	0x3cb5fd0b	0.022215387
99	0xbd870ed4	-0.06594625
100	0xbd5d9019	-0.0540925
101	0x3d0962f5	0.03354164
102	0x3cd5cd81	0.026098968
103	0xbd82157c	-0.06351754
104	0xbd333857	-0.0437549
105	0xbd596c20	-0.05308163
106	0x3cba3c07	0.022733701
107	0x3cfbe474	0.030748583
108	0xbd82a0e8	-0.06378347
109	0x3cebc18c	0.028778814
110	0x3d11657b	0.03549717
111	0xbcdc62c7	-0.02690257
112	0xbd357239	-0.044298384
113	0x3d2bac03	0.04191209
114	0xbd2dc3ca	-0.042423047
115	0xbc5fe385	-0.013665085
116	0xbd04d89b	-0.032433134
117	0x3ce63223	0.028100079
118	0xbc0a5410	-0.008442894
119	0x3d66bd25	0.056332726
120	0xbd133bc3	-0.035945665
121	0xbc3bf6af	-0.011472388
122	0x3cf00704	0.02930022
123	0x3bbb2b89	0.005711977
124	0xbcafc509	-0.021456258
125	0xbc9fdedf	-0.019515453
126	0x3d296d8b	0.041364234
127	0x3d60f26a	0.054918684

encoder_solv.cached_zero_vector f4 [128]
0	0x00000000	0.0
1	0x00000000	0.0
2	0x00000000	0.0
3	0x00000000	0.0
4	0x00000000	0.0
5	0x00000000	0.0
6	0x00000000	0.0
7	0x00000000	0.0
8	0x00000000	0.0
9	0x00000000	0.0
10	0x00000000	0.0
11	0x00000000	0.0
12	0x00000000	0.0
13	0x00000000	0.0
14	0x00000000	0.0
15	0x00000000	0.0
16	0x00000000	0.0
17	0x00000000	0.0
18	0x00000000	0.0
19	0x00000000	0.0
20	0x00000000	0.0
21	0x00000000	0.0
22	0x00000000	0.0
23	0x00000000	0.0
24	0x00000000	0.0
25	0x00000000	0.0
26	0x00000000	0.0
27	0x00000000	0.0
28	0x00000000	0.0
29	0x00000000	0.0
30	0x00000000	0.0
31	0x00000000	0.0
32	0x00000000	0.0
33	0x00000000	0.0
34	0x00000000	0.0
35	0x00000000	0.0
36	0x00000000	0.0
37	0x00000000	0.0
38	0x00000000	0.0
39	0x00000000	0.0
40	0x00000000	0.0
41	0x00000000	0.0
42	0x00000000	0.0
43	0x00000000	0.0
44	0x00000000	0.0
45	0x00000000	0.0
46	0x00000000	0.0
47	0x00000000	0.0
48	0x00000000	0.0
49	0x00000000	0.0
50	0x00000000	0.0
51	0x00000000	0.0
52	0x00000000	0.0
53	0x00000000	0.0
54	0x00000000	0.0
55	0x00000000	0.0
56	0x00000000	0.0
57	0x00000000	0.0
58	0x00000000	0.0
59	0x00000000	0.0
60	0x00000000	0.0
61	0x00000000	0.0
62	0x00000000	0.0
63	0x00000000	0.0
64	0x00000000	0.0
65	0x00000000	0.0
66	0x00000000	0.0
67	0x00000000	0.0
68	0x00000000	0.0
69	0x00000000	0.0
70	0x00000000	0.0
71	0x00000000	0.0
72	0x00000000	0.0
73	0x00000000	0.0
74	0x00000000	0.0
75	0x00000000	0.0
76	0x00000000	0.0
77	0x00000000	0.0
78	0x00000000	0.0
79	0x00000000	0.0
80	0x00000000	0.0
81	0x00000000	0.0
82	0x00000000	0.0
83	0x00000000	0.0
84	0x00000000	0.0
85	0x00000000	0.0
86	0x00000000	0.0
87	0x00000000	0.0
88	0x00000000	0.0
89	0x00000000	0.0
90	0x00000000	0.0
91	0x00000000	0.0
92	0x00000000	0.0
93	0x00000000	0.0
94	0x00000000	0.0
95	0x00000000	0.0
96	0x00000000	0.0
97	0x00000000	0.0
98	0x00000000	0.0
99	0x00000000	0.0
100	0x00000000	0.0
101	0x00000000	0.0
102	0x00000000	0.0
103	0x00000000	0.0
104	0x00000000	0.0
105	0x00000000	0.0
106	0x00000000	0.0
107	0x00000000	0.0
108	0x00000000	0.0
109	0x00000000	0.0
110	0x00000000	0.0
111	0x00000000	0.0
112	0x00000000	0.0
113	0x00000000	0.0
114	0x00000000	0.0
115	0x00000000	0.0
116	0x00000000	0.0
117	0x00000000	0.0
118	0x00000000	0.0
119	0x00000000	0.0
120	0x00000000	0.0
121	0x00000000	0.0
122	0x00000000	0.0
123	0x00000000	0.0
124	0x00000000	0.0
125	0x00000000	0.0
126	0x00000000	0.0
127	0x00000000	0.0

encoder_solv.W_i.weight f4 [128, 133]
0	0xbd9d3004	-0.07675174
1	0xb940b200	-0.00018376857
2	0x3d84481b	0.064590655
3	0x3d2cbc1a	0.042171575
4	0x3da07d15	0.078363575
5	0x3c93ef27	0.018058373
6	0x3d3d2540	0.046178102
7	0xbd75a110	-0.059968054
8	0xbd736ebd	-0.05943178
9	0x3d229566	0.03969326
10	0x3d826491	0.06366838
11	0xbd6ac1be	-0.057313673
12	0xbc9bd30c	-0.019021533
13	0xbd65b914	-0.056084707
14	0x3de2a809	0.110672064
15	0x3de91fc1	0.1138301
16	0x3d5a32e8	0.053271204
17	0x3d9a7545	0.07541899
18	0xbc28dec0	-0.010307014
19	0x3d64218e	0.055696063
20	0x3d134d80	0.03596258
21	0xbb9b1170	-0.0047323033
22	0x3d0658ba	0.03279946
23	0x3d27548a	0.040852107
24	0xbcc5b540	-0.024134278
25	0x3d7f168e	0.06227737
26	0x3c9a11c0	0.018807292
27	0x3d6497ea	0.05580894
28	0x3d0478ee	0.03234189
29	0xbda92636	-0.08259241
30	0x3bfef050	0.0077801123
31	0x3d8ec2f3	0.06970777
32	0x3d8cf477	0.068825655
33	0xbce31b40	-0.027722955
34	0x3d980129	0.07422096
35	0x3d4cca52	0.049997635
36	0x3d90561d	0.07047675
37	0xbc80a70c	-0.015704654
38	0x3da43359	0.08017606
39	0xbd4eda6b	-0.05050127
40	0xbd97663e	-0.07392548
41	0x3d151e58	0.03640589
42	0xbcbc9f30	-0.023025125
43	0x3d072764	0.03299655
44	0xbd1bceae	-0.038038902
45	0x3d863aa9	0.06554157
46	0x3d3dd62a	0.04634682
47	0xbc81c8a4	-0.015842743
48	0x3d882eb9	0.06649537
49	0xbc884824	-0.016635962
50	0x3cb6ea38	0.022328481
51	0x3ce1d588	0.02756764
52	0xbd347e51	-0.044065777
53	0xbd7a1866	-0.061058424
54	0x3d2e2af6	0.04252144
55	0xbd3ef015	-0.04661568
56	0xbb03b1c0	-0.002009496
57	0x3cc94814	0.024570502
58	0x3c938794	0.018008985
59	0x3d924c63	0.07143476
60	0xbda38232	-0.07983817
61	0x3cc318f4	0.02381561
62	0xbd6aa906	-0.0572901
63	0x3c129f40	0.008949101
64	0xbd10c1e0	-0.035341144
65	0x3adb3d80	0.0016726702
66	0xbd5e45b5	-0.054265697
67	0x3d2e4e12	0.042554922
68	0x3d20648e	0.039158396
69	0xbd488ebb	-0.048964243
70	0x3d50a47a	0.050938107
71	0xbcfb27b0	-0.030658573
72	0xbd90d41e	-0.07071708
73	0xbd566356	-0.052340828
74	0x3dada06d	0.084778644
75	0x3d8b3e3d	0.067989804
76	0x3d179dc2	0.037015684
77	0x3d92f3e9	0.071754284
78	0xbceeffc8	-0.0291747
79	0x3c30a980	0.010782599
80	0xbce4f928	-0.027950838
81	0x3da2d057	0.07949894
82	0xbd85a2ad	-0.065251686
83	0xbd5ac96e	-0.053414755
84	0xbd4fb429	-0.050708923
85	0xbd877445	-0.066139735
86	0xbd0cb189	-0.034349
87	0xbda5dee9	-0.08099157
88	0xbd09a8bf	-0.033608194
89	0xbd769a55	-0.060205776
90	0x3ca1abc8	0.019735232
91	0x3d29c652	0.0414489
92	0x3d69c006	0.057067893
93	0x3da38dcd	0.07986031
94	0x3dae33b5	0.08505956
95	0xbc916b58	-0.01775138
96	0x3d88637f	0.066596024
97	0xbd056c38	-0.03257391
98	0xbdb15e18	-0.08660525
99	0x3d56cb0a	0.052439727
100	0xbd87528e	-0.06607543
101	0x3cd8cfdc	0.026466303
102	0xbd1894a2	-0.037251122
103	0xbd6eb6bb	-0.058279734
104	0x3d9bede2	0.07613732
105	0x3d7db6c3	0.061941873
106	0x3ae75d80	0.0017651767
107	0x3c8749b8	0.016514644
108	0x3ac3b98e	0.0014932619
109	0xbd17e0f6	-0.037079774
110	0xbd94b2f6	-0.072606966
111	0x3daee0a3	0.0853894
112	0x3b8c3912	0.0042792642
113	0xbd4c3fec	-0.04986565
114	0xbd689d4a	-0.056790628
115	0x3d0fcfd8	0.035110325
116	0xbd9cc471	-0.07654656
117	0xbd810b25	-0.06300954
118	0xbc259f38	-0.0101087615
119	0x3d9eb554	0.07749429
120	0x3d3e22be	0.04641985
121	0xbdaa906c	-0.083283275
122	0x3d8def9e	0.06930469
123	0x3d4bb852	0.04973633
124	0x3d1eda7a	0.038782574
125	0xbd818804	-0.06324771
126	0xbd60cbfc	-0.054882035
127	0x3c9e2344	0.019303925
128	0xbc3d2768	-0.01154504
129	0x3cda8048	0.026672497
130	0x3d0de89a	0.034645654
131	0x3d4346c6	0.047674917
132	0x3bc916f9	0.0061367718
133	0xbd6d2b26	-0.057902478
134	0x3d1443ac	0.03619735
135	0x3d9505e9	0.07276518
136	0xbc1d1358	-0.009587131
137	0x3d912ac6	0.070882365
138	0xbd8dce5a	-0.06924124
139	0x3d3aac30	0.045574367
140	0x3d41a45f	0.047275897
141	0xbdcadbff	-0.09905242
142	0xbd74f310	-0.059802115
143	0x3c917cac	0.017759643
144	0xbcf9e2b0	-0.0305036
145	0xbd6f7690	-0.05846268
146	0x3b155fc0	0.0022792667
147	0xbcb02395	-0.021501342
148	0x3dcebc5f	0.10094523
149	0x3c1b4110	0.009475961
150	0xbc1082b8	-0.008820228
151	0x3c357f90	0.011077777
152	0x3d5b12ca	0.053484716
153	0x3d833865	0.06407241
154	0xbdac7752	-0.08421196
155	0xbd7536b6	-0.05986663
156	0x3c784c98	0.01515498
157	0xbcb9afbc	-0.022666804
158	0x3c31f790	0.010862246
159	0xbc1c6fb8	-0.00954812
160	0xbd34b4e4	-0.044117823
161	0xbb9e8f20	-0.004838839
162	0x3d923f1d	0.07140944
163	0xbd2de0e8	-0.042450815
164	0x3a01fa00	0.00049582124
165	0x3ce14660	0.027499378
166	0xbc51ce18	-0.012805484
167	0xbcdee679	-0.027209507
168	0xbd1770c5	-0.03697278
169	0xbae88780	-0.0017740577
170	0xbd1c358d	-0.038137008
171	0x3d6ccdae	0.05781334
172	0x3c5173b0	0.01278393
173	0xbd66a1a8	-0.05630651
174	0x3d848827	0.064712815
175	0x3c8600e4	0.016357847
176	0x3d639dc6	0.055570386
177	0x3d8f7dd5	0.070064224
178	0x3c635030	0.013874099
179	0x3c3a11a8	0.011356749
180	0xbda66042	-0.081238285
181	0xbc8b35c4	-0.01699341
182	0xbd957091	-0.07296861
183	0x3d545a8a	0.051844157
184	0x3cf0a37c	0.02937483
185	0xbd751b0e	-0.059840254
186	0x3db10519	0.086435504
187	0x3d89f253	0.06735673
188	0x3da93b05	0.0826321
189	0xbd958791	-0.07301248
190	0xbd70b276	-0.058763944
191	0xbd5be0d8	-0.053681225
192	0x3d2a2372	0.04153771
193	0xbd9c01aa	-0.07617505
194	0xbd2487f1	-0.040168706
195	0x3d0770ee	0.033066683
196	0xbd3951b0	-0.04524392
197	0x3c9ade7c	0.018904917
198	0x3c805178	0.015663847
199	0x3d649bf6	0.0558128
200	0xbd4d33ab	-0.050098103
201	0x3d02b0e8	0.031906992
202	0xbd892a16	-0.066974804
203	0x3ba50170	0.0050355718
204	0xbd53b53c	-0.05168651
205	0x3da0561f	0.07828926
206	0xbd738e16	-0.059461676
207	0xbd966507	-0.07343488
208	0x3d09cc22	0.03364194
209	0x3d912299	0.07086677
210	0xbc2409f8	-0.010012142
211	0x3d724996	0.05915221
212	0xbcd46260	-0.025925815
213	0xbdab5cb7	-0.08367293
214	0xbcb93a6c	-0.022610866
215	0xbbea4eb0	-0.0071504936
216	0x3d43941a	0.047748663
217	0x3db16687	0.08662134
218	0x3d8246a5	0.063611306
219	0xbd2eeddd	-0.042707313
220	0x3d9193d9	0.07108278
221	0x3d784cce	0.06062012
222	0x3d3aaa16	0.045572363
223	0x3cfb4660	0.030673206
224	0x3d77b906	0.060479186
225	0xbd566cbe	-0.0523498
226	0x3d701e0a	0.058622397
227	0x3cb74b6c	0.022374831
228	0x3d3b8f66	0.045791052
229	0xba6da180	-0.0009064898
230	0xbd40d44a	-0.047077455
231	0xbd14f62f	-0.03636759
232	0x3c979414	0.018503226
233	0x3dab971d	0.08378432
234	0x3d9beca1	0.07613493
235	0xbd87b9f9	-0.06627268
236	0x3d674dee	0.056470804
237	0xbcafb10c	-0.021446727
238	0xbcd7a08f	-0.026321677
239	0x3d1ec21e	0.038759343
240	0xbd4b86ad	-0.049688984
241	0xbcf0a66c	-0.029376231
242	0xbda150ed	-0.078767635
243	0xbc6b5a82	-0.01436484
244	0xbd90b951	-0.07066596
245	0xbd4b606c	-0.049652502
246	0xbdabd096	-0.08389394
247	0x3d59e0a2	0.053192742
248	0xbd337f92	-0.043822832
249	0x3cedde30	0.029036611
250	0xbd16ad08	-0.03678611
251	0x3d5856a6	0.05281701
252	0x3d9db8e9	0.077012844
253	0x3cb1776f	0.021663396
254	0x3d6d3a74	0.057917073
255	0xba8fb783	-0.0010964725

encoder_solv.W_i.bias f4 [128]
0	0x3d92e914	0.071733624
1	0x3d8c9e02	0.06866075
2	0x3d3ce0e6	0.046112917
3	0x3d8e9b83	0.06963255
4	0xbb048558	-0.002022108
5	0x3d8fe3a1	0.07025839
6	0xbc661f85	-0.014045601
7	0xbd47c2ff	-0.048769947
8	0xbd4ea220	-0.050447583
9	0x3d2e3ee8	0.04254046
10	0xbd8adcad	-0.06780372
11	0x3d16f596	0.036855303
12	0xbc698399	-0.014252567
13	0x3d54bb48	0.051936418
14	0x3b0875d2	0.002082218
15	0xbda3ad30	-0.07992017
16	0xbd4a9c0f	-0.049465235
17	0x3ba463a5	0.0050167614
18	0x3d23b6c1	0.03996921
19	0x3d17186e	0.036888532
20	0x3cf02958	0.02931659
21	0x3b5c1437	0.0033581385
22	0x3d201444	0.039081827
23	0x3d99252b	0.07477792
24	0xbd47587d	-0.048668373
25	0x3d586a9a	0.05283604
26	0x3db28e30	0.08718526
27	0xbc46353a	-0.012097651
28	0x3ce99043	0.028511172
29	0xbcad7a4e	-0.021176483
30	0xbcbb4176	-0.022858363
31	0x3c636ac2	0.0138804335
32	0xbdb65339	-0.08902592
33	0xbd42af21	-0.047530297
34	0xbd9ffcd2	-0.078118935
35	0xbdb0db36	-0.08635561
36	0xbd7997aa	-0.060935654
37	0xbbcd2f1c	-0.0062617194
38	0xbd22eb2c	-0.03977506
39	0x3d4cbe13	0.049985956
40	0x3d7e3e98	0.062071413
41	0x3cc0b488	0.023523584
42	0xbd4a51b4	-0.049394324
43	0x3cb7b1eb	0.022423705
44	0xbd5fa65f	-0.054602023
45	0x3d41b3e5	0.0472907
46	0x3d286467	0.041111376
47	0x3d85a017	0.06524675
48	0x3d53e8ea	0.051735796
49	0xbc53620c	-0.012901794
50	0xbd7f912e	-0.062394314
51	0x3d29bfe8	0.04144278
52	0xbda80495	-0.08203999
53	0x3d19f7ae	0.03758972
54	0x3d083f25	0.033263344
55	0xbb3cec56	-0.002882739
56	0x3d098b82	0.03358031
57	0xbdb10438	-0.08643383
58	0xbd279c65	-0.040920634
59	0xbd02ca9c	-0.031931505
60	0xbd0641a8	-0.03277746
61	0xbd6772e7	-0.056506064
62	0x3c36e33a	0.0111625735
63	0x3d8e6e91	0.069546826
64	0x3d34f8fd	0.044182766
65	0x3c2772c5	0.010220234
66	0xbd94c0c0	-0.07263327
67	0xbc6f26cd	-0.014596653
68	0xbd57ff2f	-0.052733596
69	0x3d89737c	0.0671148
70	0x3dac7599	0.084208675
71	0xbcd42cee	-0.02590033
72	0xbd9dbd5d	-0.07702134
73	0xbc805c94	-0.015669145
74	0xbd001f00	-0.031279564
75	0x3d399845	0.04531123
76	0x3d7482ea	0.059695162
77	0xbd7e8323	-0.06213678
78	0x3d37d2fd	0.04487895
79	0xbd3f7a40	-0.046747446
80	0xbc7b50c1	-0.015339077
81	0x3cda9d13	0.026686227
82	0x3d8ece67	0.06972962
83	0x3cdc1053	0.026863253
84	0x3bf399a7	0.0074340883
85	0xbbd99e24	-0.0066411663
86	0xba9c4977	-0.001192375
87	0xbd4b19c2	-0.04958511
88	0xbacc2b72	-0.0015576913
89	0x3d48de57	0.049040165
90	0x3ce04381	0.027375938
91	0xbc9e3fbd	-0.019317502
92	0x3cf1bc22	0.029508654
93	0xbd7d34ea	-0.06181804
94	0x3d0a0d7e	0.033704273
95	0xbdacfedc	-0.08447048
96	0x3d8daa2e	0.06917225
97	0x3d859b1a	0.06523724
98	0x3d488053	0.048950505
99	0x3d383b84	0.044978634
100	0x3d80b588	0.06284624
101	0x3b97ebf6	0.004636283
102	0xbd0bbd6f	-0.034116205
103	0x3d8a6e0a	0.067592695
104	0x3d99544c	0.074867815
105	0xbca7a243	-0.020463115
106	0xbbb1c4f4	-0.00542509
107	0xbd2c6ca4	-0.042095795
108	0x3d4ccb70	0.0499987
109	0xbb796084	-0.0038051913
110	0x3d5c9ea8	0.053862244
111	0x3d02198e	0.031762652
112	0xbca9c7ac	-0.020725094
113	0x3d951eeb	0.07281288
114	0xbd7dd181	-0.061967377
115	0x3d6c4314	0.05768116
116	0x3c85401e	0.016265925
117	0x3d51ba5e	0.051203124
118	0xbd8a2e3b	-0.06747099
119	0xbd71efb8	-0.059066504
120	0xbbefbef1	-0.007316463
121	0xbd30033c	-0.042971835
122	0xbb8333b5	-0.0040039667
123	0xbcf7ec47	-0.030264033
124	0xbd2e18b7	-0.04250404
125	0xbcd071e4	-0.025444932
126	0x3d11ed16	0.035626493
127	0x3d898eb3	0.06716671
