THESIS/transfer_learning/trained/MPNN_Water_pka.pt (torch, 279627 bytes, 8 tensors)

encoder.cached_zero_vector f4 [128]
0.0 0.0 0.0 0.0 0.0 0.0 0.0 0.0
0.0 0.0 0.0 0.0 0.0 0.0 0.0 0.0
0.0 0.0 0.0 0.0 0.0 0.0 0.0 0.0
0.0 0.0 0.0 0.0 0.0 0.0 0.0 0.0
0.0 0.0 0.0 0.0 0.0 0.0 0.0 0.0
0.0 0.0 0.0 0.0 0.0 0.0 0.0 0.0
0.0 0.0 0.0 0.0 0.0 0.0 0.0 0.0
0.0 0.0 0.0 0.0 0.0 0.0 0.0 0.0
0.0 0.0 0.0 0.0 0.0 0.0 0.0 0.0
0.0 0.0 0.0 0.0 0.0 0.0 0.0 0.0
0.0 0.0 0.0 0.0 0.0 0.0 0.0 0.0
0.0 0.0 0.0 0.0 0.0 0.0 0.0 0.0
0.0 0.0 0.0 0.0 0.0 0.0 0.0 0.0
0.0 0.0 0.0 0.0 0.0 0.0 0.0 0.0
0.0 0.0 0.0 0.0 0.0 0.0 0.0 0.0
0.0 0.0 0.0 0.0 0.0 0.0 0.0 0.0
00000000: 0000 0000 0000 0000 0000 0000 0000 0000
00000010: 0000 0000 0000 0000 0000 0000 0000 0000
00000020: 0000 0000 0000 0000 0000 0000 0000 0000
00000030: 0000 0000 0000 0000 0000 0000 0000 0000
00000040: 0000 0000 0000 0000 0000 0000 0000 0000
00000050: 0000 0000 0000 0000 0000 0000 0000 0000
00000060: 0000 0000 0000 0000 0000 0000 0000 0000
00000070: 0000 0000 0000 0000 0000 0000 0000 0000
00000080: 0000 0000 0000 0000 0000 0000 0000 0000
00000090: 0000 0000 0000 0000 0000 0000 0000 0000
000000a0: 0000 0000 0000 0000 0000 0000 0000 0000
000000b0: 0000 0000 0000 0000 0000 0000 0000 0000
000000c0: 0000 0000 0000 0000 0000 0000 0000 0000
000000d0: 0000 0000 0000 0000 0000 0000 0000 0000
000000e0: 0000 0000 0000 0000 0000 0000 0000 0000
000000f0: 0000 0000 0000 0000 0000 0000 0000 0000
00000100: 0000 0000 0000 0000 0000 0000 0000 0000
00000110: 0000 0000 0000 0000 0000 0000 0000 0000
00000120: 0000 0000 0000 0000 0000 0000 0000 0000
00000130: 0000 0000 0000 0000 0000 0000 0000 0000
00000140: 0000 0000 0000 0000 0000 0000 0000 0000
00000150: 0000 0000 0000 0000 0000 0000 0000 0000
00000160: 0000 0000 0000 0000 0000 0000 0000 0000
00000170: 0000 0000 0000 0000 0000 0000 0000 0000
00000180: 0000 0000 0000 0000 0000 0000 0000 0000
00000190: 0000 0000 0000 0000 0000 0000 0000 0000
000001a0: 0000 0000 0000 0000 0000 0000 0000 0000
000001b0: 0000 0000 0000 0000 0000 0000 0000 0000
000001c0: 0000 0000 0000 0000 0000 0000 0000 0000
000001d0: 0000 0000 0000 0000 0000 0000 0000 0000
000001e0: 0000 0000 0000 0000 0000 0000 0000 0000
000001f0: 0000 0000 0000 0000 0000 0000 0000 0000

encoder.W_i.weight f4 [128, 133]
0.016145177 -0.010579802 0.0326527 0.026473232 -0.064774655 0.046365675 0.12117558 0.022595761
0.042159185 0.012732267 0.043218262 0.08256193 0.058472432 -0.018041296 -0.024691237 -0.058008492
-0.06259612 -0.06254694 -0.06983179 -0.01708217 0.0745903 0.0020189881 0.022709697 -0.072882734
0.023967259 -0.042421862 0.011702016 0.045629196 0.07763105 0.05107338 -0.055601038 0.056540363
0.04175628 0.074415885 -0.066143654 -0.022356763 0.016719252 -0.0033653677 0.027790897 0.0018455759
0.052608334 0.032271065 0.05082903 0.03253846 -0.044871382 0.05518382 -0.009062968 -0.067039765
-0.06505055 -0.019891895 -0.022006579 0.07471786 -0.070368335 -0.04723202 0.00748872 0.037334263
-0.045347102 0.004455656 0.013110034 0.07326906 -0.05896648 0.010873802 0.07120881 0.063588895
0.029761799 0.03805931 0.006516136 -0.0314932 0.066514276 0.0703718 -0.04946506 0.022041924
-0.014743902 -0.0036517307 0.06457702 -0.0785322 0.05843606 0.0406264 0.054814838 -0.05455367
-0.024926849 -0.0036541894 0.067622535 0.052506067 -0.07176419 0.061043896 0.006881796 -0.033043228
-0.05114787 -0.07541041 0.015878767 0.013364576 0.07119832 -0.060499027 -0.047534525 0.033654474
0.08329252 -0.050395843 0.019472219 0.059835352 0.015036166 -0.06242513 -0.029416969 -0.13658887
-0.0047085946 -0.016778696 0.03002102 -0.086666815 0.09686931 0.0006874427 0.09518855 0.06261658
0.045163024 0.06939613 -0.0844399 -0.038106073 0.021457328 -0.04904698 0.0063351914 -0.075347655
0.063384004 0.08708707 -0.10780111 -0.02157709 -0.022275954 0.008758097 0.079871394 0.025605092
-0.019233376 -0.0051338226 -0.045210894 -0.058919217 -0.015788972 0.017859876 0.048191078 -0.04359716
0.050319903 0.06924697 -0.08617766 -0.072808854 0.08834385 -0.01925844 -0.050956693 0.04310047
-0.04361273 -0.043653786 -0.078231126 0.027449338 -0.043522608 -0.08769976 -0.014579728 -0.05461171
-0.02643675 0.07587027 -0.06073231 0.052415155 0.03639976 0.07762065 0.003815569 0.04065872
0.07737253 -0.03468849 0.027177759 0.05211114 0.00018882006 -0.035656113 0.06558444 -0.05399521
-0.06661093 -4.723668e-05 -0.060776956 -0.024468042 -0.021198519 -0.07068065 0.04320108 0.021819301
0.028219923 -0.031064373 -0.02736346 -0.004545629 0.075223185 -0.00068227947 -0.032815676 -0.071880676
-0.025718573 -0.033744205 -0.0414798 -0.04711877 -0.045718893 -0.003979288 -0.016772486 0.04153394
0.03553752 -0.0046894774 -0.012009904 0.02268301 0.019556582 0.07258139 0.011478595 -0.06880385
-0.046904013 -0.027448297 0.025763549 0.07440881 0.04375518 -0.064166285 -0.034246884 0.0066464394
0.008749433 0.015495338 -0.04016293 -0.038091432 0.060099773 0.08378393 -0.055201586 0.033761375
0.0015268102 0.019269139 0.05225601 -0.08120294 0.054145105 0.0152927935 -0.04737782 0.015376709
-0.055418275 0.007775739 0.016318448 -0.017217182 0.05812063 0.03781359 0.026080452 0.008156061
-0.0013679788 -0.0013295934 -0.0848448 -0.023744673 0.010464579 -0.036399916 -0.014791831 -0.0151222125
-0.07104203 0.09966222 -0.050739076 0.058492277 0.037305243 -0.09871837 -0.055152982 0.056267153
0.01711364 0.07516036 -0.019066848 0.00164029 -0.031261384 -0.07908603 -0.055660944 0.0358187
00000000: e442 843c e856 2dbc d6be 053d 64de d83c
00000010: 93a8 84bd efe9 3d3d e72a f83d bf1a b93c
00000020: 1caf 2c3d 009b 503c a205 313d 3b16 a93d
00000030: ca80 6f3d 57cb 93bc 4745 cabc 509a 6dbd
00000040: 6532 80bd 9c18 80bd f803 8fbd e8ef 8bbc
00000050: cdc2 983d 0051 043b b009 ba3c 8b43 95bd
00000060: fc56 c43c 8cc2 2dbd d0b9 3f3c aee5 3a3d
00000070: 07fd 9e3d 5232 513d eabd 63bd de96 673d
00000080: a208 2b3d 5b67 983d 5376 87bd 8825 b7bc
00000090: d0f6 883c 808d 5cbb bca9 e33c 40e7 f13a
000000a0: d67b 573d aa2e 043d 1a32 503d 0c47 053d
000000b0: 0ecb 37bd 6e08 623d d87c 14bc 254c 89bd
000000c0: 3939 85bd 54f4 a2bc 2447 b4bc ad05 993d
000000d0: 461d 90bd 5d76 41bd f063 f53b d0eb 183d
000000e0: e2bd 39bd c000 923b 78cb 563c 170e 963d
000000f0: d686 71bd 0828 323c edd5 913d e53a 823d
00000100: 04cf f33c 14e4 1b3d 5085 d53b 04ff 00bd
00000110: a338 883d 171f 903d e09b 4abd 4491 b43c
00000120: 6890 71bc e051 6fbb f540 843d 7dd5 a0bd
00000130: a65a 6f3d de67 263d 8685 603d ab73 5fbd
00000140: 6433 ccbc 207b 6fbb af7d 8a3d 9a10 573d
00000150: 1bf9 92bd 2a09 7a3d b080 e13b 5658 07bd
00000160: 6e80 51bd c670 9abd 3014 823c 18f7 5a3c
00000170: 6dd0 913d d4cd 77bd 90b3 42bd 46d9 093d
00000180: 4595 aa3d df6b 4ebd 3484 9f3c ea15 753d
00000190: 405a 763c 7eb1 7fbd dbfb f0bc f4dd 0bbe
000001a0: 8e4a 9abb 7a73 89bc a4ee f53c 5f7e b1bd
000001b0: 6b63 c63d 8035 343a 37f2 c23d 1f3d 803d
000001c0: ddfc 383d 8f1f 8e3d d4ee acbd 1d15 1cbd
000001d0: 47c7 af3c 7ce5 48bd 7097 cf3b df4f 9abd
000001e0: 79cf 813d b55a b23d d4c6 dcbd 70c2 b0bc
000001f0: 107c b6bc 1f7e 0f3c 9d93 a33d c5c1 d13c
00000200: 508f 9dbc a039 a8bb 0f2f 39bd 4755 71bd
00000210: e057 81bc e04e 923c 0264 453d f092 32bd
00000220: 3e1c 4e3d 5bd1 8d3d ea7d b0bd cf1c 95bd
00000230: 9fed b43d e0c3 9dbc f7b7 50bd 1e8a 303d
00000240: 43a3 32bd 50ce 32bd a437 a0bd 6fdd e03c
00000250: c344 32bd ef9b b3bd d0df 6ebc 87b0 5fbd
00000260: e291 d8bc df61 9b3d 71c2 78bd 46b1 563d
00000270: ea17 153d 93f7 9e3d a00e 7a3b c289 263d
00000280: 7d75 9e3d 8515 0ebd e4a3 de3c 7e72 553d
00000290: 00fe 4539 250c 12bd 2351 863d 152a 5dbd
000002a0: 506b 88bd 0020 46b8 42f1 78bd 3471 c8bc
000002b0: 84a8 adbc 04c1 90bd 9ef3 303d 64be b23c
000002c0: 782d e73c b67a febc 5629 e0bc 80f3 94bb
000002d0: 9d0e 9a3d 00db 32ba bb69 06bd 2d36 93bd
000002e0: c2af d2bc 5d37 0abd b9e6 29bd 9dff 40bd
000002f0: bc43 3bbd b064 82bb 7466 89bc 7e1f 2a3d
00000300: ca8f 113d 30aa 99bb 30c5 44bc b8d1 b93c
00000310: 2035 a03c 8da5 943d b810 3c3c 08e9 8cbd
00000320: 6c1e 40bd 40db e0bc 140e d33c a563 983d
00000330: a238 333d 9d69 83bd 7646 0cbd 60ca d93b
00000340: c859 0f3c 28e0 7d3c e281 24bd c305 1cbd
00000350: 2e2b 763d e996 ab3d 0f1b 62bd 5e49 0a3d
00000360: 401f c83a 50da 9d3c 660a 563d ba4d a6bd
00000370: 42c7 5d3d a08e 7a3c 3f0f 42bd 98ee 7b3c
00000380: 46fe 62bd a0cb fe3b 44ae 853c 0c0b 8dbc
00000390: e60f 6e3d 6ce2 1a3d aca6 d53c 00a1 053c
000003a0: c04d b3ba c045 aeba 1cc3 adbd 3084 c2bc
000003b0: a073 2b3c 1418 15bd 7059 72bc 28c3 77bc
000003c0: 7c7e 91bd b51b cc3d c7d3 4fbd 9995 6f3d
000003d0: 62cd 183d db2c cabd 18e8 61bd 6378 663d
000003e0: e831 8c3c aded 993d 1432 9cbc 00ff d63a
000003f0: f00b 00bd dbf7 a1bd bbfc 63bd a1b6 123d

encoder.W_i.bias f4 [128]
0.04801317 -0.06755019 0.002616395 -0.085253455 -0.059057634 -0.053761672 -0.012537251 0.011780683
0.039329108 -0.0604425 -0.0051310346 0.016761156 0.054871533 0.035708744 0.0039761635 0.049635857
-0.060129113 -0.003815168 -0.047675382 -0.045560528 -0.07824778 0.022118332 -0.0047743465 -0.023611663
-0.0027477827 0.01724245 0.04250692 -0.034425445 0.020513514 -0.058327623 -0.071182564 -0.032052808
0.044841733 0.007964536 0.03613685 -0.030740373 0.016401641 -0.041620225 0.02218044 0.02095648
0.077787265 -0.08175066 -0.015598078 0.026934493 0.030140067 -0.049720336 0.013099742 -0.047528945
0.08146803 -0.017925572 0.03927062 -0.009748257 -0.027831512 0.0035254094 -0.04205816 0.024989422
-0.042214 -0.020594025 0.015604923 0.032450672 0.039712712 0.056729972 -0.028916907 -0.045586392
-0.023427429 -0.0006009785 -0.0059407162 0.02474528 -0.0074047106 0.05302207 0.048959263 0.061630476
-0.0795354 -0.00015249575 -0.07187053 -0.029473312 -0.030555997 0.0043102414 -0.036292642 -0.009887384
-0.07018529 -0.01776053 -0.08481955 0.0021032873 0.060381554 -0.04766657 -0.022224735 -0.004458038
-0.048052736 -0.008716076 -0.010514592 0.039165866 -0.06874965 0.06410414 -0.002047258 -0.012210356
-0.029074635 -0.045568544 0.04283336 0.046792123 -0.06442884 -0.040271457 -0.06949865 -0.0005771042
0.03887293 0.042504232 0.005947063 -0.07121744 -0.018969059 0.00886012 -0.022914646 0.027853345
-0.0046311333 -0.0636669 0.053955562 0.008691251 -0.06419418 0.07091592 -0.059212063 -0.0058386466
-0.012762423 -0.04171337 0.060077913 0.016649915 0.0055804853 0.055355065 0.043247726 -0.0060192193
00000000: 75a9 443d c157 8abd d377 2b3b 5d99 aebd
00000010: 6be6 71bd 3335 5cbd 0b69 4dbc c403 413c
00000020: 8f17 213d 8e92 77bd 3d22 a8bb b14e 893c
00000030: f9c0 603d 5543 123d 7a4a 823b f84e 4b3d
00000040: f249 76bd e607 7abb 4347 43bd ad9d 3abd
00000050: 5f40 a0bd 8131 b53c 1f72 9cbb 3f6d c1bc
00000060: 2514 34bb 0a40 8d3c bc1b 2e3d b201 0dbd
00000070: f50b a83c f2e8 6ebd 2ac8 91bd ce49 03bd
00000080: f7ab 373d af7d 023c 3c04 143d 3cd3 fbbc
00000090: bc5c 863c f879 2abd c1b3 b53c edac ab3c
000000a0: ee4e 9f3d e46c a7bd 158f 7fbc baa5 dc3c
000000b0: 4de8 f63c 8da7 4bbd 4da0 563c b6ad 42bd
000000c0: b6d8 a63d a6d8 92bc 3bda 203d 27b7 1fbc
000000d0: e9fe e3bc 8e0a 673b 2d45 2cbd 9eb6 cc3c
000000e0: 96e8 2cbd cdb4 a8bc caab 7f3c ffea 043d
000000f0: cca9 223d b05d 683d 26e3 ecbc ccb8 3abd
00000100: e1ea bfbc fc8a 1dba 57aa c2bb 9db6 ca3c
00000110: 37a3 f2bb ac2d 593d 8289 483d 3d70 7c3d
00000120: 75e3 a2bd 44e7 1fb9 db30 93bd 0472 f1bc
00000130: 9250 fabc ed3c 8d3b 98a7 14bd b2fe 21bc
00000140: 4ebd 8fbd 887e 91bc dfb5 adbd 4ed7 093b
00000150: a652 773d 053e 43bd a610 b6bc bc14 92bb
00000160: f2d2 44bd dfcd 0ebc 6545 2cbc 636c 203d
00000170: 9ecc 8cbd 0849 833d 4a2b 06bb f20d 48bc
00000180: ee2d eebc 15a6 3abd 0972 2f3d 19a9 3f3d
00000190: 45f3 83bd aff3 24bd 4f55 8ebd cf48 17ba
000001a0: 3939 1f3d eb18 2e3d 95df c23b 73da 91bd
000001b0: 0065 9bbc 092a 113c 7fb7 bbbc b32c e43c
000001c0: c3c0 97bb cb63 82bd 8200 5d3d c065 0e3c
000001d0: 3d78 83bd 5e3c 913d 5988 72bd 1e52 bfbb
000001e0: 7b19 51bc a3db 2abd 4214 763d 6765 883c
000001f0: 81dc b63b febb 623d 8724 313d df3c c5bb

encoder.W_h.weight f4 [128, 142]
0.05859316 -0.0049410136 0.024506038 -0.067582026 -0.05104365 0.084432855 -0.015238066 -0.0038378546
0.009133319 -0.055595163 -0.105957806 -0.10197456 0.019429507 -0.002146153 -0.035792522 -0.043916333
0.046854198 0.020330887 -0.08318702 -0.03900538 -0.058763564 0.06742874 0.05505485 -0.049503583
-0.012119688 -0.12262339 -0.014433495 -0.04344598 0.038209353 0.106548935 -0.053042285 0.020219658
0.060033765 0.050990243 -0.028789522 -0.05869514 0.0052774935 -0.050729193 -0.0218642 -0.008723377
-0.047064967 -0.03257537 -0.06847283 0.006697605 -0.043282423 0.019061321 -0.03998915 0.07919576
-0.038763687 -0.041916143 -0.021413358 0.15830415 -0.032258198 -0.07875152 -0.022805586 -0.06855298
0.062704235 -0.06941988 -0.011953942 -0.038732577 -0.02301882 -0.09089794 0.074417956 0.012710738
0.04263268 0.10701002 -0.048425328 -0.054446883 -0.021750243 -0.006163395 -0.014506005 -0.077980004
0.110954426 0.018797912 -0.005233292 -0.04020549 0.10757193 -0.0006083682 -0.0560592 -0.015542473
-0.047751077 -0.11366072 0.065889835 0.033820484 0.06048978 0.0214031 0.05544683 0.017763212
-0.006677172 -0.028146746 -0.03733266 -0.014499709 0.0011261915 -0.0014053654 0.008350702 0.03887858
0.05739208 0.03683386 -0.04285079 0.040755328 -0.08867777 -0.047091912 -0.01247452 -0.050912384
0.030069506 0.040929135 0.026497705 -0.07297333 0.06466452 -0.017872205 0.002883428 -0.06159203
0.039791394 -0.027442358 -0.02265405 -0.07036855 0.034058083 0.047762826 -0.0009992382 -0.095828876
0.03447473 -0.007483311 0.0063468665 0.010311039 -0.083047196 -0.0033742546 -0.005987295 0.008009367
0.0060830116 0.039606947 -0.1605299 0.07726854 0.052844454 -0.012433088 0.09506353 -0.016750928
0.020563133 -0.08979614 0.015906299 -0.026290625 0.04225719 0.011253558 0.06540327 0.006244009
-0.002548824 -0.036831632 -0.009229545 -0.08488614 0.03181632 -0.039304044 -0.0062858583 0.05272153
-0.0105583025 -0.025831046 -0.06303152 -0.08251319 -0.010801912 -0.07846877 -0.03696666 -0.050784074
0.060512975 0.006223363 0.067671634 -0.07776412 -0.07119581 -0.060837597 -0.10009243 -0.017518966
0.010803063 0.03924425 0.0044040517 0.015451161 0.06575134 0.047326606 -0.039715406 -0.03061689
-0.10103219 0.005018985 -0.022378808 0.06318468 0.05259554 -0.04269933 0.0602401 -0.051281735
0.056313135 -0.023313038 -0.003505337 -0.019922115 0.017063772 0.054721277 0.0423878 0.03869657
0.06878195 -0.09325479 -0.1023624 0.020117713 0.06652939 0.02846782 -0.062003426 0.062424537
0.014896506 -0.08765733 0.017882202 0.027039485 -0.048057888 0.055410296 -0.09055302 -0.009432738
-0.0025833736 0.030398319 -0.064623035 0.027759429 -0.05493168 -0.027676746 0.022025194 0.032323394
0.02599003 -0.0653371 -0.066382624 0.06403602 -0.022673396 -0.05825645 0.0095460005 -0.010777135
0.016175479 -0.041223366 0.028816719 0.0072075534 -0.108702004 -0.049598098 -0.0072511295 0.07627097
0.065556206 0.087244995 0.06672688 -0.0648996 0.0062299455 -0.057760894 0.025367832 0.016497297
0.050170098 -0.023257308 0.019124113 0.016487561 0.05736229 0.036255613 -0.04333444 0.0021360926
-0.06374796 0.051912062 -0.09845737 -0.01133548 0.12492812 -0.033083376 0.050651856 0.051992744
00000000: 62ff 6f3d 3ae8 a1bb e3c0 c83c 7268 8abd
00000010: 2513 51bd 22eb ac3d 15a9 79bc 8484 7bbb
00000020: eba3 153c c1b7 63bd 6800 d9bd 0ad8 d0bd
00000030: a12a 9f3c 79a6 0cbb 2e9b 12bd 9de1 33bd
00000040: 30ea 3f3d f68c a63c f55d aabd 1bc4 1fbd
00000050: 10b2 70bd 1418 8a3d 3281 613d 45c4 4abd
00000060: a891 46bc f921 fbbd 777a 6cbc 69f4 31bd
00000070: 6981 1c3d 5436 da3d de42 59bd b2a3 a53c
00000080: f7e5 753d 25db 503d 01d8 ebbc 516a 70bd
00000090: d3ee ac3b 6ac9 4fbd 8d1c b3bc 7fec 0ebc
000000a0: 32c7 40bd c06d 05bd 7c3b 8cbd 9577 db3b
000000b0: e948 31bd 7d26 9c3c aacb 23bd 6331 a23d
000000c0: acc6 1ebd 43b0 2bbd 116b afbc 7c1a 223e
000000d0: 2c21 04bd 7a48 a1bd c8d2 babc 8165 8cbd
000000e0: 146b 803d 032c 8ebd 77da 43bc 0da6 1ebd
000000f0: f791 bcbc b328 babd 7168 983d b340 503c
00000100: 9b9f 2e3d 1228 db3d a359 46bd b203 5fbd
00000110: 912d b2bc 4ef6 c9bb 98aa 6dbc fbb3 9fbd
00000120: 133c e33d 14fe 993c 097c abbb 83ae 24bd
00000130: ac4e dc3d e67a 1fba 559e 65bd dba5 7ebc
00000140: a296 43bd f4c6 e8bd 40f1 863d 5987 0a3d
00000150: 22c4 773d 8e55 af3c 371c 633d 2884 913c
00000160: 2ecc dabb 0194 e6bc 22ea 18bd 3090 6dbc
00000170: b79c 933a 3d34 b8ba 62d1 083c 253f 1f3d
00000180: f513 6b3d 1adf 163d 4f84 2fbd 0fef 263d
00000190: b19c b5bd 73e3 40bd ee61 4cbc 8189 50bd
000001a0: 5354 f63c 4fa5 273d b711 d93c 0b73 95bd
000001b0: d56e 843d bb68 92bc e5f7 3c3b ed47 7cbd
000001c0: 4dfc 223d ccce e0bc fc94 b9bc 631d 90bd
000001d0: 7d80 0b3d f4a2 433d dff8 82ba ee41 c4bd
000001e0: 6035 0d3d 9036 f5bb 60f9 cf3b a2ef 283c
000001f0: a614 aabd 9922 5dbb 1231 c4bb b839 033c
00000200: 0054 c73b e53a 223d f361 24be f83e 9e3d
00000210: 6d73 583d 27b4 4bbc abb0 c23d 3e39 89bc
00000220: 0474 a83c 0ae7 b7bd ed4d 823c 705f d7bc
00000230: e015 2d3d d860 383c 26f2 853d 8b9a cc3b
00000240: 2c0a 27bb c4dc 16bd 8437 17bc c9d8 adbd
00000250: d451 023d 47fd 20bd 9af9 cdbb 88f2 573d
00000260: bbfc 2cbc a19b d3bc ab16 81bd adfc a8bd
00000270: 81fa 30bc 3cb4 a0bd 5a6a 17bd f602 50bd
00000280: 74dc 773d 5aed cb3b 6d97 8a3d cc42 9fbd
00000290: 1ccf 91bd d830 79bd 43fd ccbd ef83 8fbc
000002a0: 55ff 303c 94be 203d dd4f 903b de26 7d3c
000002b0: a3a8 863d 8bd9 413d 9fac 22bd 46d0 fabc
000002c0: f7e9 cebd 4c76 a43b c353 b7bc f866 813d
000002d0: 6c6e 573d 7ee5 2ebd 53be 763d cc0c 52bd
000002e0: 9aa8 663d fcfa bebc ccb9 65bb b433 a3bc
000002f0: 53c9 8b3c 6b23 603d d49e 2d3d 4b80 1e3d
00000300: 8ddd 8c3d 5efc bebd 61a3 d1bd e7cd a43c
00000310: 9040 883d 5835 e93c 4ef7 7dbd dfb0 7f3d
00000320: 7a10 743c b085 b3bd b27d 923c e981 dd3c
00000330: 59d8 44bd e8f5 623d dd73 b9bd c58b 1abc
00000340: d14d 29bb e505 f93c 1559 84bd be67 e33c
00000350: 0b00 61bd 58ba e2bc 2e6e b43c 8965 043d
00000360: 0be9 d43c 75cf 85bd 9df3 87bd 5125 833d
00000370: 8fbd b9bc 519e 6ebd d466 1c3c 9592 30bc
00000380: 7082 843c d5d9 28bd 0a11 ec3c 572d ec3b
00000390: 289f debd 6027 4bbd e29a edbb f433 9c3d
000003a0: 5542 863d 81ad b23d 1aa8 883d 15ea 84bd
000003b0: 9224 cc3b b096 6cbd 33d0 cf3c 5725 873c
000003c0: 297f 4d3d 1c86 bebc 2caa 9c3c ec10 873c
000003d0: b8f4 6a3d c480 143d 747f 31bd b0fd 0b3b
000003e0: 4a8e 82bd bea1 543d 05a4 c9bd 73b8 39bc
000003f0: 50da ff3d 6f82 07bd 5278 4f3d 58f6 543d

encoder.W_h.bias f4 [128]
-0.004756618 0.05772616 0.06727612 -0.03505221 0.016347548 0.007765062 -0.040639266 -0.08946483
-0.011764336 0.028162746 0.0031373028 -0.0414386 -0.07056968 -0.03433832 -0.010556829 -0.034037802
0.08101565 -0.0003355552 -0.0036614016 0.029564757 -0.018833779 -0.058541197 0.03201991 0.019818585
-0.042701315 -0.04947629 -0.043688852 0.033390686 -0.015446857 0.059326816 0.066481024 -0.015342949
0.052597437 0.004207034 -0.042189244 -0.039484072 -0.04717063 -0.013544124 -0.0007737225 -0.03747176
-0.015885456 0.022179667 -0.08829273 -0.013099017 0.016364524 0.052222475 0.023493543 0.013500552
0.06085115 -0.005884343 0.052597858 -0.07952729 0.028657285 0.03319077 -0.087953456 0.039874595
-0.095198154 0.062205713 -0.011738899 0.004896579 0.022577498 -0.026210694 -0.008449158 0.0486661
0.036211647 -0.061350845 0.004448184 0.06354201 0.010263863 -0.037176974 0.06874614 -0.02224113
-0.076488115 -0.056034166 -0.015438058 0.066739425 -0.080613874 0.06836685 0.04931396 0.013043143
-0.019116562 -0.017692748 -0.025840562 0.01995034 -0.020827003 -0.013390437 0.0013888723 -0.005539762
0.009623718 -0.01569683 -0.017933311 0.039361425 -0.069796406 -0.050758857 -0.032207835 0.02677644
-0.050736208 -0.0035032728 -0.027830653 -0.028316265 0.027413333 -0.027721984 -0.007605696 -0.0651194
0.04015951 0.0571048 -0.053809352 0.06929386 0.012599376 -0.059214424 -0.068845436 -0.056100316
-0.030086126 0.02150455 -0.024468338 -0.018456457 0.062836595 0.055943873 -0.0846609 -0.032834295
-0.03232384 0.039294645 0.037106574 -0.065737955 0.07222925 -0.02207199 0.031965896 0.008897728
00000000: 67dd 9bbb 4472 6c3d 10c8 893d e892 0fbd
00000010: 4beb 853c 1072 fe3b 5c75 26bd 5639 b7bd
00000020: 34bf 40bc 8fb5 e63c 359b 4d3b 85bb 29bd
00000030: d686 90bd 57a6 0cbd 8df6 2cbc 396b 0bbd
00000040: 88eb a53d 75ed afb9 20f4 6fbb ca31 f23c
00000050: 4c49 9abc e5c8 6fbd 4f27 033d 965a a23c
00000060: 93e7 2ebd a6a7 4abd 15f3 32bd acc4 083d
00000070: d014 7dbc ad00 733d 3427 883d fe60 7bbc
00000080: 6970 573d 29db 893b a1ce 2cbd 0dba 21bd
00000090: fe35 41bd 2ce8 5dbc a3d3 4aba fd7b 19bd
000000a0: 3722 82bc 22b2 b53c d2d2 b4bd 429d 56bc
000000b0: e50e 863c 3ce7 553d 8875 c03c 6b31 5d3c
000000c0: 0e3f 793d 72d1 c0bb da70 573d 34df a2bd
000000d0: afc2 ea3c 0bf3 073d f120 b4bd 8b53 233d
000000e0: 40f7 c2bd 6bcb 7e3d 8354 40bc 7b73 a03b
000000f0: 72f4 b83c cfb7 d6bc 566e 0abc 1b56 473d
00000100: aa52 143d 064b 7bbd 12c2 913b 5022 823d
00000110: c329 283c e246 18bd c7ca 8c3d 0833 b6bc
00000120: cda5 9cbd 1584 65bd e9ef 7cbc aeae 883d
00000130: e318 a5bd eb03 8c3d 6ffd 493d e8b2 553c
00000140: 569a 9cbc 62f0 90bc 96af d3bc e56e a33c
00000150: 649d aabc 9063 5bbc d20a b63a e486 b5bb
00000160: cdac 1d3c a396 80bc e1e8 92bc 7239 213d
00000170: 6bf1 8ebd 85e8 4fbd 5dec 03bd 445a db3c
00000180: c5d0 4fbd 2a97 65bb 1cfd e3bc 83f7 e7bc
00000190: ed91 e03c 3719 e3bc 3439 f9bb 525d 85bd
000001a0: 4c7e 243d b9e6 693d 3267 5cbd f0e9 8d3d
000001b0: 9d6d 4e3c d38a 72bd d6fe 8cbd 72c9 65bd
000001c0: 2e77 f6bc 4f2a b03c d371 c8bc ff31 97bc
000001d0: 79b0 803d 6725 653d b262 adbd 417d 06bd
000001e0: 0166 04bd 6cf3 203d 10fd 173d 9fa1 86bd
000001f0: eeec 933d 51d0 b4bc acee 023d c7c7 113c

encoder.W_o.weight f4 [128, 261]
0.0036693364 0.024844013 0.046199344 0.0082203895 -0.031886864 -0.010786389 -0.11377722 0.042673737
-0.033918325 0.048915707 0.053411894 -0.010183822 0.042243384 -0.040001858 0.023391293 0.053993963
-0.10066978 -0.008764312 0.050454356 -0.053921357 0.04669378 0.060353324 0.025366463 -0.05132142
-0.033524353 0.018686824 0.021807596 -0.01857854 0.0425869 0.009044334 -0.03713548 0.025128499
-0.040159963 -0.0069099218 0.081616364 -0.032455605 -0.0510732 0.02070655 -0.05844225 0.00067476183
-0.052499965 -0.018269166 -0.04126239 -0.016370319 0.0149111 0.010013349 0.0073449314 -0.033524603
-0.043583907 -0.0009151362 -0.038331334 -0.017939426 -0.025668535 -0.02956666 -0.050324764 0.035598822
-0.055563863 -0.019592427 -0.048137438 -0.02329705 -0.022147465 0.016688317 -0.0037197992 -0.008033685
0.023979828 0.016650274 0.031093337 0.048419736 -0.015499596 0.03904883 -0.05236012 0.02231361
0.05831576 0.012375988 0.017556682 0.03765502 -0.030130532 -0.035137154 -0.011791997 -0.052822046
-0.049759112 -0.038442187 0.047154196 -0.0068079233 -0.04976616 -0.03529991 -0.031136012 -0.05760812
0.0355324 0.0612787 -0.055617318 0.0131020695 -0.0294142 0.01971247 0.0436382 -0.044364054
-0.04069638 -0.04199771 -0.018355884 -0.023951627 0.04064519 -0.083760075 0.05425853 0.07761679
-0.12749568 0.019327123 -0.016465478 -0.04710658 0.06240075 0.0062033385 0.008072308 -0.05106825
-0.07174751 -0.039876144 0.048417136 0.020676758 -0.057333134 0.00806655 -0.0034959987 0.038142476
0.055834685 0.014078327 0.008490986 0.06189619 -0.019373525 0.007814769 0.037279733 -0.06617679
0.045773454 0.007812545 0.006360486 -0.083151124 -0.034803145 -0.019192563 -0.04594075 -0.0031551132
0.037655275 -0.023696922 0.013402675 0.059018847 0.0010734631 -0.02206228 -0.04815811 -0.012955466
-0.012869419 0.01949505 0.02265842 -0.06320051 0.0032103066 -0.040277682 -0.049542192 -0.007189255
0.015510759 -0.013850094 -0.045958694 -0.048108798 0.005139674 -0.040605754 0.017862886 0.053512257
0.008237291 -0.0025705218 -0.050746284 0.04104512 -0.00020861154 -0.08240698 -0.052505553 -0.044409096
0.04947979 0.00037157082 -0.04143836 0.0044561364 0.025682846 0.050240785 -0.06015665 -0.03558351
0.035980593 0.04304599 -0.005820935 -0.020228568 0.038624603 0.0035758873 -0.067013696 0.0018729087
-0.012674447 -0.028141785 0.0002519524 0.00082891004 -0.0040838285 -0.032138012 -0.02261978 -0.06754295
0.014509289 0.034820493 0.039427575 0.073654175 -0.016985474 -0.08424443 -0.011350844 -0.04406212
0.020978404 0.045907535 -0.006980096 0.0011792162 -0.062441684 0.057752833 -0.027847772 -0.003564088
0.032482892 0.059527423 -0.03639206 0.005086515 -0.056765877 -0.03252548 -0.018466622 0.009177245
0.03424227 0.0004741363 -0.037019663 0.040495515 -0.0015375976 -0.011502409 -0.031270687 0.021658033
-0.027479054 0.032980166 -0.01416976 0.041193526 0.009136892 0.04761856 0.033927508 0.037812
-0.03935638 -0.022645967 -0.007410738 -0.06799253 -0.016538916 0.012636327 0.040150832 0.03935785
-0.0019307442 0.012820704 -0.031047126 0.049587 -0.034801535 0.008572966 0.028073607 -0.020304272
-0.030867262 -0.016307918 0.017130928 -0.038539242 0.027131477 0.049209572 -0.056252137 0.008970941
00000000: 4079 703b ac85 cb3c 863b 3d3d d0ae 063c
00000010: cd9b 02bd 65b9 30bc 0804 e9bd a8ca 2e3d
00000020: f1ed 0abd d65b 483d 6ec6 5a3d 0cda 26bc
00000030: 6607 2d3d fdd8 23bd 199f bf3c c628 5d3d
00000040: f52b cebd 3098 0fbc 3aa9 4e3d a4dc 5cbd
00000050: fa41 3f3d 0c35 773d 54cd cf3c 6936 52bd
00000060: d550 09bd 1c15 993c d8a5 b23c 0632 98bc
00000070: 9a6f 2e3d b02e 143c 601b 18bd 48da cd3c
00000080: c67e 24bd a06c e2bb 7b26 a73d 2bf0 04bd
00000090: 2232 51bd c8a0 a93c 2461 6fbd 80e2 303a
000000a0: 340a 57bd 38a9 95bc c002 29bd 0c1b 86bc
000000b0: b04d 743c 080f 243c c0ad f03b 1851 09bd
000000c0: 0a85 32bd c0e5 6fba 5101 1dbd b4f5 92bc
000000d0: d246 d2bc c835 f2bc 5721 4ebd 12d0 113d
000000e0: ef96 63bd 4c80 a0bc c32b 45bd 74d9 bebc
000000f0: 9a6e b5bc f0b5 883c e0c7 73bb b89f 03bc
00000100: 5871 c43c 2866 883c 74b7 fe3c c653 463d
00000110: 04f2 7dbc aaf1 1f3d 9177 56bd 08cb b63c
00000120: 82dc 6e3d a8c4 4a3c 08d3 8f3c 263c 1a3d
00000130: 4ed4 f6bc faeb 0fbd 3833 41bc ee5b 58bd
00000140: 36d0 4bbd 8e75 1dbd c224 413d 0015 dfbb
00000150: 9ad7 4bbd a396 10bd f310 ffbc 7ef6 6bbd
00000160: 6c8a 113d 60ff 7a3d fcce 63bd 10aa 563c
00000170: 0cf6 f0bc 0c7c a13c f8bd 323d 15b7 35bd
00000180: 3fb1 26bd ca05 2cbd 145f 96bc 3436 c4bc
00000190: 927b 263d 678a abbd 313e 5e3d 8df5 9e3d
000001a0: 3a8e 02be ea53 9e3c 9ce2 86bc d4f2 40bd
000001b0: ee97 7f3d 6045 cb3b b741 043c f12c 51bd
000001c0: 5cf0 92bd 2b55 23bd 0c51 463d 4e62 a93c
000001d0: 26d6 6abd 9029 043c 201d 65bb 493b 1c3d
000001e0: e9b2 643d c9a8 663c c71d 0b3c dc86 7d3d
000001f0: 3ab5 9ebc 8409 003c a2b2 183d b287 87bd
00000200: f27c 3b3d 3000 003c a06b d03b 234b aabd
00000210: be8d 0ebd b939 9dbc 5e2c 3cbd 04c6 4ebb
00000220: 6b3c 1a3d 0c20 c2bc e596 5b3c bfbd 713d
00000230: 72b3 8c3a f4bb b4bc 7041 45bd 2a43 54bc
00000240: 41da 52bc 15b4 9f3c 279e b93c 456f 81bd
00000250: 0264 523b 36fa 24bd c1ec 4abd d893 ebbb
00000260: d720 7e3c 81eb 62bc 2f3f 3cbd bb0d 45bd
00000270: b66a a83b 3852 26bd 3055 923c ab2f 5b3d
00000280: b4f5 063c 3376 28bb 56db 4fbd ee1e 283d
00000290: bcbe 5ab9 fec4 a8bd 1010 57bd 50e6 35bd
000002a0: 52ab 4a3d 64cf c239 45bb 29bd c804 923b
000002b0: d564 d23c 48c9 4d3d d266 76bd 04c0 11bd
000002c0: 6360 133d fe50 303d 8bbd bebb 62b6 a5bc
000002d0: d534 1e3d 6f59 6a3b 7a3e 89bd 637c f53a
000002e0: 7ca8 4fbc 9a89 e6bc 7b18 8439 364b 593a
000002f0: a3d1 85bb 26a3 03bd 1e4d b9bc f553 8abd
00000300: 5eb8 6d3c ef9f 0e3d cf7e 213d 00d8 963d
00000310: 1f25 8bbc 5888 acbd e4f8 39bc 7b7a 34bd
00000320: e7da ab3c 8a09 3c3d 4ab9 e4bb ee8f 9a3a
00000330: dac2 7fbd 3c8e 6c3d 0321 e4bc 7993 69bb
00000340: c80c 053d 07d3 733d d70f 15bd c8ac a63b
00000350: 5683 68bd 7039 05bd 5047 97bc 285c 163c
00000360: 9f41 0c3d 7f95 f839 eea1 17bd a0de 253d
00000370: 3789 c9ba 9a74 3cbc b115 00bd 306c b13c
00000380: c11b e1bc 3616 073d 4828 68bc 8bba 283d
00000390: e7b2 153c ae0b 433d 92f7 0a3d c1e0 1a3d
000003a0: 2834 21bd 0984 b9bc c7d5 f2bb ab3f 8bbd
000003b0: 9f7c 87bc 9908 4f3c 3375 243d b235 213d
000003c0: 0611 fdba ee0d 523c 8b56 febc bd1b 4b3d
000003d0: 0e8c 0ebd a075 0c3c 9ffa e53c 2555 a6bc
000003e0: 57dd fcbc 2f98 85bc 2956 8c3c 53db 1dbd
000003f0: d542 de3c fa8f 493d a468 66bd dbfa 123c

encoder.W_o.bias f4 [128]
0.035639554 0.0076280786 1.9245726e-06 0.0042458335 -0.053074792 -0.026648343 -0.05354453 0.0074462867
-0.04508831 0.040988665 0.021905754 0.039625727 0.023169838 -0.04657055 0.041542605 0.06409727
-0.00014589801 -0.004966125 0.020513358 -0.06981312 0.041194152 0.030851137 0.024151646 0.043855872
0.014974713 0.028378747 0.041612692 -0.018588562 -0.012223145 -0.03438711 -0.01284432 0.022919182
0.011551965 -0.0118841 -0.016276093 0.01888204 -0.05306502 -0.038648125 -0.033093005 0.04249649
-0.038354743 -0.043922983 0.05946497 0.05157474 0.0012401411 0.019803613 0.010765716 0.026134351
-0.022621663 0.013777271 -0.051254533 -0.051167242 0.013356613 0.051250745 0.021291327 0.03960035
0.0013838978 -0.005399142 -0.058037728 0.025323013 0.038356528 -0.0061585577 0.04953092 0.009581208
-0.010174897 -0.02787227 0.010143298 -0.017698526 -0.014713836 0.008250396 0.024634024 0.032858774
-0.055385184 -0.049082793 0.010654049 -0.03002706 -0.025990961 0.055497825 -0.06897299 0.040602714
-0.023192164 -0.05652488 -0.07008714 -0.012095349 0.04251838 -0.026082775 -0.002805931 -0.03021064
-0.013345627 0.007426511 0.057457447 0.01870659 -0.043532163 -0.0367416 0.005080107 -0.0052638594
0.051420055 -0.0721554 0.048720077 0.05004765 -0.048940804 -0.06277915 0.008431955 -0.056541264
-0.049561977 0.011761102 0.009587864 0.046714965 -0.00035265743 0.011541768 0.0148153715 0.046673972
0.0403626 0.008151643 0.019065646 6.9767993e-06 -0.026081951 0.0018430832 -0.033728942 -0.023901371
-0.03369035 0.03540557 0.018814664 -0.039874643 -0.050407 0.061066717 0.028322756 0.0068965657
00000000: c8fa 113d f6f4 f93b e827 0136 a220 8b3b
00000010: f464 59bd a04d dabc 8251 5bbd fbff f33b
00000020: 85ae 38bd bbe3 273d b273 b33c 964e 223d
00000030: acce bd3c c3c0 3ebd 9428 2a3d 6e45 833d
00000040: 33fc 18b9 e0ba a2bb a10b a83c 2efa 8ebd
00000050: 33bb 283d 86bb fc3c acd9 c53c 37a2 333d
00000060: 8058 753c 8c7a e83c 1272 2a3d 0a47 98bc
00000070: 9643 48bc 80d9 0cbd fc70 52bc 02c1 bb3c
00000080: 7444 3d3c 87b5 42bc 7155 85bc 82ae 9a3c
00000090: b55a 59bd 7f4d 1ebd 888c 07bd cd10 2e3d
000000a0: dd19 1dbd 96e8 33bd 8a91 733d 0940 533d
000000b0: 3b8c a23a 303b a23c b062 303c b517 d63c
000000c0: 1151 b9bc 10ba 613c 46f0 51bd be94 51bd
000000d0: b2d5 5a3c 4dec 513d 266b ae3c fa33 223d
000000e0: e863 b53a 49eb b0bb f8b8 6dbd 3572 cf3c
000000f0: bc1b 1d3d bacd c9bb efe0 4a3d 80fa 1c3c
00000100: 9cb4 26bc 6354 e4bc 1330 263c 80fc 90bc
00000110: 4d12 71bc ab2c 073c 4bcd c93c ec96 063d
00000120: 93db 62bd 0a0b 49bd 528e 2e3c 4ffb f5bc
00000130: ffea d4bc b051 633d b641 8dbd 084f 263d
00000140: 7efd bdbc a286 67bd d989 8fbd 922b 46bc
00000150: c127 2e3d 8bab d5bc b6e3 37bb 4e7c f7bc
00000160: 9ea7 5abc 175a f33b 8058 6b3d 903e 993c
00000170: c84e 32bd 5c7e 16bd 0777 a63b 747c acbb
00000180: d69d 523d 36c6 93bd b48e 473d c4fe 4c3d
00000190: 2776 48bd 5b92 80bd 2f26 0a3c d097 67bd
000001a0: 8001 4bbd a3b1 403c 6b16 1d3c 3158 3f3d
000001b0: e1e4 b8b9 af19 3d3c 2cbc 723c 352d 3f3d
000001c0: 4153 253d 788e 053c 8f2f 9c3c 401a ea36
000001d0: d1a9 d5bc 9c93 f13a 5c27 0abd cfcc c3bc
000001e0: e4fe 09bd 6e05 113d 3621 9a3c 9853 23bd
000001f0: 9277 4ebd 1821 7a3d 2005 e83c 96fc e13b

ffn.1.weight f4 [1, 128]
0.08883605 -0.020430045 -0.031071978 0.045033526 -0.028867763 -0.03930047 0.078253776 -0.10426906
-0.009890392 0.09516127 -0.04857055 -0.064110294 0.08217433 -0.14925756 0.10491473 0.07428808
-0.057906236 -0.07043809 -0.009272611 0.0055692527 -0.104841314 -0.09629284 -0.06048107 0.08817547
-0.068516366 -0.08868027 0.06753515 0.06373706 0.0705441 -0.0036600467 0.036239848 -0.094958946
-0.054117776 0.099805325 0.00038636097 0.042605784 0.050289545 -0.076700024 0.07544077 -0.08066768
0.033198256 -0.056759648 -0.029334128 -0.059730943 -0.083035484 -0.014933908 -0.09239981 -0.033302456
-0.06032563 0.0451175 0.049964115 -0.07000769 -0.055682227 0.15198803 -0.10076801 -0.11221789
-0.07304421 -0.018107671 -0.017090183 0.010828431 -0.05257657 -0.047250174 0.14962992 0.07436821
-0.052130945 0.04093242 -0.03686047 -0.12423095 -0.065602586 -0.07813225 -0.074468754 0.07587378
-0.024452241 -0.0776855 0.0619987 0.103287175 0.10406592 0.06689119 -0.048075937 -0.07506535
-0.052469883 -0.04361682 0.09843841 -0.028638693 -0.076151885 0.01669946 0.093415946 0.041846603
0.0998619 0.042376455 -0.090178214 -0.036598448 -0.099785015 -0.08331167 -0.022902798 0.09626322
0.060352623 0.015054296 0.047707316 0.096405864 -0.05778913 -0.07024877 -0.080892816 0.12534031
-0.021920644 0.12852117 -0.13680845 0.083280616 -0.1039534 0.011297195 -0.044945724 -0.06910015
0.05125101 0.11388188 0.08068101 -0.11969997 -0.068549335 -0.05858287 0.050012972 -0.0708717
0.044116315 -0.082188316 -0.06384263 0.057234067 0.081822455 -0.16346885 -0.032721654 -0.09843949
00000000: adef b53d e95c a7bc a98a febc 1375 383d
00000010: 167c ecbc 88f9 20bd 8443 a03d 048b d5bd
00000020: 500b 22bc e9e3 c23d eaf1 46bd 424c 83bd
00000030: 044b a83d f9d6 18be 89dd d63d 5924 983d
00000040: 172f 6dbd d841 90bd 26ec 17bc 477e b63b
00000050: 0bb7 d6bd 2e35 c5bd 00bb 77bd 5795 b43d
00000060: 4f52 8cbd 009e b5bd de4f 8a3d 9388 823d
00000070: 6d79 903d 65dd 6fbb 3c70 143d d679 c2bd
00000080: 9aaa 5dbd bc66 cc3d 7e90 ca39 6783 2e3d
00000090: 69fc 4d3d e714 9dbd b180 9a3d 1935 a5bd
000000a0: e5fa 073d ce7c 68bd 204e f0bc 6fa8 74bd
000000b0: 820e aabd 5aad 74bc 1d3c bdbd 2868 08bd
000000c0: 0218 77bd 21cd 383d 2ca7 4c3d 3160 8fbd
000000d0: 0c13 64bd c0a2 1b3e 755f cebd 7ed2 e5bd
000000e0: 3498 95bd 8a56 94bc b600 8cbc bb69 313c
000000f0: 885a 57bd 6689 41bd 9638 193e 5c4e 983d
00000100: 4287 55bd c1a8 273d 01fb 16bd cc6c febd
00000110: a65a 86bd cd03 a0bd 1383 98bd b663 9b3d
00000120: 1150 c8bc 9319 9fbd 59f2 7d3d 3a88 d33d
00000130: 8320 d53d 40fe 883d 46eb 44bd ddbb 99bd
00000140: a9ea 56bd 8da7 32bd 149a c93d b19b eabc
00000150: 85f5 9bbd 4ecd 883c dc50 bf3d 5867 2b3d
00000160: 6584 cc3d ef92 2d3d 5baf b8bd 41e8 15bd
00000170: 165c ccbd 4f9f aabd a69e bbbc a725 c53d
00000180: 5034 773d 4ba6 763c bf68 433d 7070 c53d
00000190: 4bb4 6cbd 96de 8fbd 22ab a5bd 3659 003e
000001a0: ec92 b3bc 0e9b 033e 8417 0cbe 078f aa3d
000001b0: 85e5 d4bd df17 393c 0219 38bd 6184 8dbd
000001c0: 94ec 513d e73a e93d 163c a53d 4225 f5bd
000001d0: 9863 8cbd 97f4 6fbd 67da 4c3d 2f25 91bd
000001e0: 4fb3 343d 5952 a8bd edbf 82bd 456e 6a3d
000001f0: 8892 a73d 6164 27be 2407 06bd a59a c9bd
