THESIS/transfer_learning/trained/MPNN_Gsolv.pt (torch, 558709 bytes, 15 tensors)

encoder_sol.cached_zero_vector f4 [128]
0	0x00000000	0.0
1	0x00000000	0.0
2	0x00000000	0.0
3	0x00000000	0.0
4	0x00000000	0.0
5	0x00000000	0.0
6	0x00000000	0.0
7	0x00000000	0.0
8	0x00000000	0.0
9	0x00000000	0.0
10	0x00000000	0.0
11	0x00000000	0.0
12	0x00000000	0.0
13	0x00000000	0.0
14	0x00000000	0.0
15	0x00000000	0.0
16	0x00000000	0.0
17	0x00000000	0.0
18	0x00000000	0.0
19	0x00000000	0.0
20	0x00000000	0.0
21	0x00000000	0.0
22	0x00000000	0.0
23	0x00000000	0.0
24	0x00000000	0.0
25	0x00000000	0.0
26	0x00000000	0.0
27	0x00000000	0.0
28	0x00000000	0.0
29	0x00000000	0.0
30	0x00000000	0.0
31	0x00000000	0.0
32	0x00000000	0.0
33	0x00000000	0.0
34	0x00000000	0.0
35	0x00000000	0.0
36	0x00000000	0.0
37	0x00000000	0.0
38	0x00000000	0.0
39	0x00000000	0.0
40	0x00000000	0.0
41	0x00000000	0.0
42	0x00000000	0.0
43	0x00000000	0.0
44	0x00000000	0.0
45	0x00000000	0.0
46	0x00000000	0.0
47	0x00000000	0.0
48	0x00000000	0.0
49	0x00000000	0.0
50	0x00000000	0.0
51	0x00000000	0.0
52	0x00000000	0.0
53	0x00000000	0.0
54	0x00000000	0.0
55	0x00000000	0.0
56	0x00000000	0.0
57	0x00000000	0.0
58	0x00000000	0.0
59	0x00000000	0.0
60	0x00000000	0.0
61	0x00000000	0.0
62	0x00000000	0.0
63	0x00000000	0.0
64	0x00000000	0.0
65	0x00000000	0.0
66	0x00000000	0.0
67	0x00000000	0.0
68	0x00000000	0.0
69	0x00000000	0.0
70	0x00000000	0.0
71	0x00000000	0.0
72	0x00000000	0.0
73	0x00000000	0.0
74	0x00000000	0.0
75	0x00000000	0.0
76	0x00000000	0.0
77	0x00000000	0.0
78	0x00000000	0.0
79	0x00000000	0.0
80	0x00000000	0.0
81	0x00000000	0.0
82	0x00000000	0.0
83	0x00000000	0.0
84	0x00000000	0.0
85	0x00000000	0.0
86	0x00000000	0.0
87	0x00000000	0.0
88	0x00000000	0.0
89	0x00000000	0.0
90	0x00000000	0.0
91	0x00000000	0.0
92	0x00000000	0.0
93	0x00000000	0.0
94	0x00000000	0.0
95	0x00000000	0.0
96	0x00000000	0.0
97	0x00000000	0.0
98	0x00000000	0.0
99	0x00000000	0.0
100	0x00000000	0.0
101	0x00000000	0.0
102	0x00000000	0.0
103	0x00000000	0.0
104	0x00000000	0.0
105	0x00000000	0.0
106	0x00000000	0.0
107	0x00000000	0.0
108	0x00000000	0.0
109	0x00000000	0.0
110	0x00000000	0.0
111	0x00000000	0.0
112	0x00000000	0.0
113	0x00000000	0.0
114	0x00000000	0.0
115	0x00000000	0.0
116	0x00000000	0.0
117	0x00000000	0.0
118	0x00000000	0.0
119	0x00000000	0.0
120	0x00000000	0.0
121	0x00000000	0.0
122	0x00000000	0.0
123	0x00000000	0.0
124	0x00000000	0.0
125	0x00000000	0.0
126	0x00000000	0.0
127	0x00000000	0.0

encoder_sol.W_i.weight f4 [128, 133]
0	0x3cc60344	0.024171479
1	0xbd193658	-0.037405342
2	0xbd349e96	-0.04409655
3	0x3cdb183c	0.026744954
4	0xbc9008f8	-0.017582402
5	0xbda62cdc	-0.08114025
6	0xbd174f30	-0.036940753
7	0xbc3b80ab	-0.011444251
8	0xbd8e1078	-0.06936735
9	0x3c2e1fc0	0.010627687
10	0xbc93d4a0	-0.018045723
11	0xbcb18398	-0.021669194
12	0x3c23fbb0	0.010008737
13	0xbdacbe72	-0.08434762
14	0xbc8d7b1e	-0.01727062
15	0xbc240a8e	-0.010012282
16	0x3881934c	6.1786355e-05
17	0xbd991d0d	-0.07476244
18	0xbd44767b	-0.047964554
19	0x3d8c285f	0.06843638
20	0x3da09ed3	0.07842793
21	0x3d87988f	0.06620895
22	0x3d8521a1	0.06500555
23	0xbd9a2902	-0.07527353
24	0x3c278fe0	0.010227174
25	0xbd9ff3f4	-0.07810202
26	0xbd8b0a9e	-0.067891344
27	0x3d49778e	0.04918628
28	0xbd4654ba	-0.048420645
29	0x3d9d8581	0.076914795
30	0xbd900c72	-0.07033624
31	0xbda22b57	-0.07918423
32	0x3d910be5	0.07082347
33	0xbd73da2c	-0.059534237
34	0xbd9aff40	-0.07568216
35	0x3d433ed6	0.047667347
36	0x3d8e49e5	0.06947688
37	0xbc476fd0	-0.012172654
38	0x3d889d65	0.066706456
39	0x3d658c12	0.056041785
40	0xbd328c6a	-0.04359094
41	0x3d084606	0.033269905
42	0xbc8d9864	-0.01728458
43	0xbc22fdd0	-0.009948209
44	0x3cf4d24c	0.029885434
45	0x3bc643b0	0.0060505494
46	0xbd250b4d	-0.04029398
47	0x3b9ae1e0	0.0047266334
48	0x3d24fa7e	0.04027795
49	0xbc906da8	-0.017630413
50	0xbcb55cac	-0.022138916
51	0xbc933ba4	-0.017972775
52	0x3dc62d4e	0.0967661
53	0xbd83a024	-0.06427029
54	0x3ce18690	0.027529985
55	0x3d50c94e	0.05097323
56	0x3daa6ccb	0.08321532
57	0x3d0dda5a	0.034632064
58	0x3d5b36ae	0.053518943
59	0x3db18229	0.08667404
60	0xbdadbbeb	-0.08483108
61	0x3d7709c6	0.060312055
62	0xbd24a382	-0.040194996
63	0x3c226300	0.009911299
64	0xbd4327d2	-0.047645397
65	0x3d9ebf55	0.077513374
66	0xbbfb3710	-0.007666476
67	0xbd72033a	-0.05908511
68	0xbbfdff60	-0.0077513903
69	0xbd954794	-0.07289043
70	0x3c1542b0	0.009110138
71	0x3c853854	0.01626221
72	0x3d7d364a	0.061819352
73	0xbd7401d8	-0.05957207
74	0xbda158ef	-0.07878291
75	0x3c44e178	0.012016647
76	0xbd9811ff	-0.074253075
77	0xbd65b3da	-0.056079723
78	0xbd4b4b8a	-0.049632587
79	0xbcb9292c	-0.02260264
80	0xbc9aa408	-0.018877044
81	0x3da47831	0.08030737
82	0xbd9f93a6	-0.077918336
83	0xbc92f06c	-0.017936908
84	0xbcb9092c	-0.022587381
85	0x3ccc0620	0.024905264
86	0xbc35cf90	-0.01109685
87	0xbb3ecd20	-0.0029113963
88	0x3d95462b	0.07288774
89	0x3d0664b0	0.032810867
90	0xbcfb76b4	-0.03069625
91	0x3da23c75	0.079216875
92	0xbd9f7c6a	-0.07787402
93	0xbd34575d	-0.04402863
94	0x3c8b47bc	0.017001979
95	0xbd1e1472	-0.038593717
96	0x3d83d23d	0.06436584
97	0x3cc8e2dc	0.024522237
98	0x3d14fe48	0.036375314
99	0x3cb7638c	0.022386335
100	0xbcfcc7f6	-0.030857068
101	0x3da4d545	0.080484904
102	0x3d06147a	0.03273437
103	0xbd7f6a07	-0.062356975
104	0x3b551a0e	0.003251675
105	0xbc95b634	-0.018275358
106	0xbcd61232	-0.026131723
107	0xbd668480	-0.056278706
108	0xbd39a34e	-0.045321755
109	0x3bced150	0.006311573
110	0x39c5fa89	0.0003776143
111	0x3d456cde	0.048199527
112	0xbd5cec6d	-0.05393641
113	0xbda5880b	-0.08082589
114	0xbd7841ad	-0.06060951
115	0x3d2e8ff6	0.04261776
116	0xbc9c8710	-0.019107372
117	0xbcaebea4	-0.021331139
118	0x3cc6034c	0.024171494
119	0x3d7c47fe	0.061592095
120	0xbd92a40f	-0.07160198
121	0x3c3d7e24	0.011565719
122	0x3d7dd34e	0.061969094
123	0x3d9c88d5	0.07643286
124	0x3d9a309f	0.07528805
125	0xbd5e13a1	-0.05421794
126	0xbd1c2353	-0.038119625
127	0x3d9fc4e1	0.078012235
128	0x3ce16e70	0.027518481
129	0x3d80ad6f	0.0628308
130	0xbce6b2aa	-0.028161366
131	0xbd4057c6	-0.046958707
132	0xbd33811f	-0.04382431
133	0x3d180c46	0.03712108
134	0x3d0f16e0	0.034933925
135	0xbd1f25fc	-0.038854584
136	0xbd6d9862	-0.05800665
137	0x3d621b2e	0.0552017
138	0x3d721de7	0.05911055
139	0xbd9c26f1	-0.07624615
140	0x3d6fabc9	0.058513436
141	0x3d4c190e	0.04982858
142	0x3d5a4276	0.05328604
143	0x3d9e7b59	0.077383704
144	0x3d3d3cd2	0.04620058
145	0xbda86466	-0.082222745
146	0x3d8a17cd	0.06742821
147	0xbdcdfd61	-0.10058094
148	0x3c207ff4	0.009796131
149	0xbc3d94b5	-0.011571099
150	0xbd327fb8	-0.043578833
151	0xbc2acd50	-0.010424927
152	0x3d6c66d2	0.057715245
153	0x3da62123	0.08111789
154	0xb9452400	-0.00018800795
155	0x3a845280	0.0010095388
156	0xbd69a7de	-0.057044856
157	0x3c95fc84	0.018308885
158	0xbd16e2ee	-0.03683751
159	0xbda18732	-0.078871146
160	0x3a8cab80	0.0010732263
161	0xbcd1953c	-0.025583856
162	0x3ccc566c	0.024943553
163	0x3c5fca20	0.01365903
164	0x3d89c3ed	0.06726823
165	0xbd992658	-0.074780166
166	0x3d353746	0.044242166
167	0xbda7756d	-0.08176694
168	0xbda2744d	-0.07932339
169	0x3cf3d2e4	0.029763646
170	0xbd1693e8	-0.03676215
171	0x3d4f1142	0.050553568
172	0x3c3d9b60	0.011572689
173	0xbd10870d	-0.035285044
174	0xbd720586	-0.0590873
175	0xbdad910c	-0.08474931
176	0x3cc9a870	0.02461645
177	0x3c85e504	0.016344555
178	0x3cae82b8	0.021302566
179	0x3d4d60d2	0.050141163
180	0x3d37168a	0.04469923
181	0x3d8a2351	0.06745017
182	0x3cd7e46c	0.026354037
183	0xbd848049	-0.06469781
184	0x3c280f58	0.0102575645
185	0x3d671665	0.05641784
186	0xbd99be78	-0.07507032
187	0x3d838b17	0.06423014
188	0x3d0e3774	0.034720853
189	0x3c065598	0.008199118
190	0x3c5b89a8	0.013399519
191	0xbca09b30	-0.01960525
192	0x3d86985b	0.06572028
193	0x3d810285	0.06299309
194	0x3daa9a17	0.083301716
195	0x3c965fd4	0.018356241
196	0x3d8b2e67	0.0679596
197	0x3d56c69a	0.052435495
198	0x3d566332	0.052340694
199	0xbd9aa50e	-0.07551013
200	0xbb76b900	-0.003764689
201	0xbd85a586	-0.06525712
202	0xbd063145	-0.03276183
203	0x3cbd2294	0.023087777
204	0x3d99bf17	0.075071506
205	0xbc231c10	-0.009955421
206	0xbcea7e86	-0.028624784
207	0xbd1a23a9	-0.037631664
208	0xbc408098	-0.011749409
209	0xbd0cb3e4	-0.034351245
210	0xbc735bc8	-0.014853425
211	0xbd2dac11	-0.042400423
212	0xbd2771b1	-0.04087991
213	0x3d1ed866	0.038780592
214	0xbd927ead	-0.07153068
215	0xbc6104d0	-0.013734058
216	0xbc790470	-0.015198812
217	0x3cf1382c	0.02944573
218	0xbdab3de2	-0.083614126
219	0x3c062c90	0.008189335
220	0x3d00fc28	0.031490475
221	0xbd0a6d4a	-0.033795632
222	0xba8e08c0	-0.0010836348
223	0x3b58b720	0.0033068135
224	0x3d981865	0.07426528
225	0xbd2d34e2	-0.04228676
226	0xbcea09da	-0.02856915
227	0x3d7ab9e2	0.061212428
228	0xbc88d520	-0.016703188
229	0xbd651406	-0.0559273
230	0x3d78e306	0.06076338
231	0xbd983052	-0.07431091
232	0xbdaaa1b2	-0.08331622
233	0x3d99d599	0.07511444
234	0xbd416add	-0.047221053
235	0xbda69e02	-0.08135606
236	0xbccc5445	-0.024942527
237	0xbc005f07	-0.007835156
238	0xbc458dd1	-0.012057737
239	0xbd6d48af	-0.057930645
240	0xbcffac84	-0.031210192
241	0x3c7ccf9b	0.015430356
242	0xbd4d384c	-0.050102517
243	0x3c974f95	0.018470565
244	0xbc77fce8	-0.015135981
245	0x3cd5b1a1	0.026085677
246	0xbcc8f76a	-0.024532039
247	0x3d8e0063	0.069336675
248	0x3d8bdb19	0.06828899
249	0x3daabad5	0.08336417
250	0x3d2c0056	0.041992508
251	0x3c32da20	0.010916263
252	0x3d06de01	0.032926563
253	0x3da5c38b	0.080939375
254	0x3d17bb6b	0.03704397
255	0x3b0fc90a	0.0021939897

encoder_sol.W_i.bias f4 [128]
0	0xbd435051	-0.047684018
1	0x3cb7fa05	0.022458086
2	0xbd800051	-0.0625006
3	0xbc03387a	-0.0080090705
4	0x3d136304	0.0359831
5	0x3d675af3	0.05648322
6	0xbdbc0e43	-0.09182408
7	0x3d6650be	0.056229346
8	0xbd800d19	-0.06252498
9	0xbb771ed2	-0.003770758
10	0x3c81f975	0.01586602
11	0xbd9358fd	-0.071947075
12	0xbd2dd212	-0.042436667
13	0x3ce30d09	0.027716177
14	0xbcd46ff1	-0.025932284
15	0xbcb8a5b3	-0.022539949
16	0xbd343d5a	-0.044003822
17	0xbbcd4cfb	-0.0062652803
18	0xbcef5060	-0.02921313
19	0xbd0acd61	-0.03388727
20	0x3d435ecf	0.04769784
21	0x3c7af710	0.015317693
22	0xbd0f1fd9	-0.03494248
23	0xbda3f04c	-0.08004817
24	0xbda1e66f	-0.0790528
25	0xbc509e03	-0.012732985
26	0xbd78b0cd	-0.060715485
27	0x3d64a4df	0.055821296
28	0xbd0a7c79	-0.033810113
29	0xbd11e602	-0.035619743
30	0xbd952902	-0.07283212
31	0x3c704bdf	0.014666527
32	0xbd5bb818	-0.053642362
33	0xbd01c951	-0.03168613
34	0xbc2ff52b	-0.010739605
35	0xbd35e043	-0.044403326
36	0xbda03668	-0.07822877
37	0x3c9461fb	0.018113127
38	0xbd912331	-0.0708679
39	0x3c8e9127	0.017403198
40	0xbb1946e5	-0.0023388204
41	0xbb56ac7e	-0.0032756622
42	0x3c854eef	0.01627299
43	0xbbfd5b16	-0.0077318056
44	0xbdb67ed1	-0.08910907
45	0x3c03eea0	0.008052498
46	0xbbde8303	-0.00679052
47	0xbbb06b0e	-0.0053838557
48	0xbd10dd26	-0.035367154
49	0x3d4f6192	0.05063016
50	0xbd83ec34	-0.064415365
51	0x3d1f3e4a	0.038877763
52	0xba9392f2	-0.0011259003
53	0xbda70a18	-0.08156222
54	0xbc704845	-0.014665668
55	0xbc605efc	-0.013694521
56	0xbbd6ffa5	-0.006561237
57	0x3cdee595	0.027209083
58	0x3d3d294f	0.046181973
59	0xbcebfda8	-0.028807476
60	0xbd8c8dd1	-0.06862987
61	0x3c2d44e8	0.010575511
62	0x3d10cf98	0.035354227
63	0x3d4e5149	0.05037049
64	0xbdb0ed22	-0.086389795
65	0xbcf1db10	-0.029523402
66	0x3ce0270c	0.027362369
67	0x3c9f5793	0.019450938
68	0xbcc45407	-0.023965849
69	0x3bebbfe5	0.0071945065
70	0xbc0afa74	-0.008482564
71	0x3d1ae64f	0.037817296
72	0x3d8104ad	0.0629972
73	0x3c33ce0d	0.010974419
74	0x3d39af9f	0.0453335
75	0x3d81963b	0.06327482
76	0x3d26162d	0.040548492
77	0xbc1f2fdc	-0.009716
78	0x3cba6786	0.022754442
79	0xbd40b551	-0.047047917
80	0x3d7b4512	0.061345167
81	0x3c1982e0	0.009369582
82	0x3d5765de	0.052587382
83	0xbd851057	-0.06497257
84	0x3d49e860	0.049293876
85	0xbd232106	-0.039826415
86	0xbb112a45	-0.0022150439
87	0xbd81ca1f	-0.0633738
88	0xbd2ec2a2	-0.042666085
89	0x3ccfbee1	0.025359573
90	0x3d84ac0a	0.06478126
91	0x3d06c18a	0.032899417
92	0x3d2446bb	0.040106516
93	0xbd754467	-0.059879687
94	0xbd9c5620	-0.076336145
95	0x3d72302f	0.059127983
96	0x3b96d0d7	0.0046025324
97	0x3d8d59ca	0.069018915
98	0x3d01faee	0.031733446
99	0x3d359d29	0.044339333
100	0x3d87685f	0.06611704
101	0xbd8e6b3a	-0.069540456
102	0x3d18099e	0.037118547
103	0xbd9e0712	-0.07716192
104	0xbd4dadab	-0.05021445
105	0xbda8716d	-0.08224759
106	0x3b0eb83c	0.0021777293
107	0xbb2ad7e6	-0.0026068627
108	0x3d7ddb56	0.061976753
109	0x3cf7e503	0.030260568
110	0x3cb4ec3f	0.022085307
111	0x3ba1af0a	0.0049341964
112	0xbd61289a	-0.05497036
113	0xbd966de5	-0.073451795
114	0x3be56a46	0.007001194
115	0xbd689915	-0.056786615
116	0xbb6f2bb0	-0.0036494546
117	0xbda026c1	-0.07819892
118	0xbdbaea45	-0.091267146
119	0xbd75a829	-0.059974823
120	0x3d3a82e0	0.04553497
121	0xbd0f2d1a	-0.03495512
122	0x3d225833	0.039634895
123	0x3cce9cd8	0.025221273
124	0xbd7f2b0c	-0.062296912
125	0x3d694e6d	0.05695956
126	0x3d047276	0.03233572
127	0xbd4c3bf8	-0.04986188

encoder_sol.W_h.weight f4 [128, 142]
0	0x3dcf83dd	0.10132573
1	0xbd65b282	-0.05607844
2	0xbdbdcb54	-0.092672974
3	0x3c790599	0.0151990885
4	0xbdaaddb9	-0.083430715
5	0xbd267c51	-0.0406459
6	0x3d02087a	0.031746365
7	0x3d0df786	0.034659885
8	0xbcd5c7b8	-0.02609621
9	0xbd1ef205	-0.038805027
10	0x3d864c35	0.06557504
11	0x3dda1e4a	0.106503084
12	0xbc0cd030	-0.008594558
13	0xbc348ab4	-0.0110193975
14	0xbd0ee046	-0.034881853
15	0x3c4e7134	0.012600232
16	0x3d5b681e	0.05356609
17	0xbd92c99a	-0.07167359
18	0x3cc0bc65	0.023527334
19	0xbb3cf85a	-0.0028834553
20	0x3c9ea6b0	0.019366592
21	0xbd26150f	-0.040547427
22	0x3c6faa18	0.014627956
23	0x3d20917e	0.039201252
24	0xbc55f4b6	-0.013058832
25	0x3d59a183	0.053132545
26	0xbc87b97f	-0.016567944
27	0xbd878d82	-0.06618787
28	0xbd694673	-0.05695195
29	0x3d714bca	0.05891017
30	0xbda4b817	-0.08042925
31	0x3dbc83a7	0.09204798
32	0x3c501e05	0.01270247
33	0xbd9798c1	-0.07402182
34	0xba99635c	-0.0011702585
35	0x3d14c1a0	0.036317468
36	0xbd985791	-0.07438577
37	0xbda599a3	-0.080859445
38	0x3d912392	0.070868626
39	0xbd395255	-0.045244534
40	0x3d9ab9f6	0.075550005
41	0x3de815ee	0.11332308
42	0x3d2adac8	0.041712552
43	0x3cc7c2c2	0.02438486
44	0x3d9af4d1	0.07566226
45	0x3d4f74f2	0.050648637
46	0xbd5a3294	-0.05327089
47	0x3ca8164c	0.020518444
48	0x3d8a1f3d	0.067442395
49	0x3d8131ca	0.06308325
50	0x3c1ce1b5	0.009575297
51	0x3b00eb06	0.0019671335
52	0xbbb783c0	-0.0056004226
53	0xbc9777c5	-0.018489728
54	0x3d02ea66	0.03196182
55	0x3d3e9153	0.04652531
56	0xbd36d076	-0.044632398
57	0x3d080a80	0.03321314
58	0x3bfef883	0.0077810897
59	0x3c9da817	0.01924519
60	0x3a80e47e	0.0009833721
61	0x3c762beb	0.015025119
62	0xbd24bfed	-0.040222097
63	0xbd476574	-0.048680738
64	0xbd9cb730	-0.07652128
65	0x3d81c760	0.06336856
66	0xbd64e71e	-0.055884473
67	0x3dae1607	0.08500295
68	0x3c06fa52	0.008238392
69	0xbdc56525	-0.096384324
70	0xbd505370	-0.050860822
71	0x3c301cc3	0.010749045
72	0xbda8286e	-0.08210836
73	0x3d1622e6	0.036654375
74	0x3d3b1122	0.045670636
75	0xbd37eab6	-0.044901572
76	0x3d3314d1	0.043721024
77	0x3c7dbf3b	0.015487487
78	0xbd5bac24	-0.053630963
79	0x3c9ddecf	0.019271282
80	0x3d2ad7f7	0.041709866
81	0xbd3c3af6	-0.045954667
82	0xbcf5defb	-0.030013552
83	0xbd45cffb	-0.04829405
84	0x3ceb31ad	0.02871021
85	0x3d9b0e34	0.075710684
86	0xbc867311	-0.01641229
87	0x3c27bbb6	0.010237625
88	0x3b6eee33	0.0036457896
89	0xbdb05b03	-0.08611109
90	0xbd872115	-0.06598107
91	0xbd4a71e9	-0.04942504
92	0x3c170d7f	0.009219526
93	0xbcaf71b3	-0.02141652
94	0x3d3108c8	0.043221265
95	0xbd228b59	-0.039683674
96	0xbd521fd6	-0.051299892
97	0xbbecd6a3	-0.007227735
98	0xbd2f0d25	-0.042737145
99	0x3d5256e0	0.05135238
100	0x3d727e4e	0.059202485
101	0xbc2656c4	-0.0101525225
102	0x3d8aab63	0.06770971
103	0x3d395018	0.0452424
104	0x3d3cdd88	0.046109706
105	0xbc168751	-0.009187535
106	0x3cf61f16	0.03004412
107	0x3cd45805	0.025920877
108	0xbd202f22	-0.03910745
109	0xbd90d87d	-0.07072542
110	0xbdadb6c0	-0.084821224
111	0xbd77e477	-0.060520615
112	0x3df1c831	0.118057616
113	0xbc9f6010	-0.019454986
114	0xbb28b552	-0.002574284
115	0x3ddb48e2	0.10707261
116	0x3ae3c4e7	0.0017377407
117	0x3d300e72	0.042982526
118	0x3d2b47f8	0.04181668
119	0x3c24f7d4	0.010068852
120	0x3d06ec19	0.032940004
121	0xbd8f82b1	-0.07007349
122	0x3d223b9f	0.03960764
123	0x3dace4c9	0.08442075
124	0x3d94fc36	0.07274668
125	0x3c829322	0.015939299
126	0x3bc89eb4	0.0061224345
127	0x3d4271fc	0.047471985
128	0xbd8637e2	-0.065536276
129	0x3da93ce4	0.08263567
130	0x3dd6df2a	0.10491784
131	0xbd78e90a	-0.06076912
132	0x3d0ee5c7	0.0348871
133	0xbd6c44e1	-0.057682876
134	0x3d4cf299	0.050036047
135	0xbd3b08be	-0.045662634
136	0xbc750ff0	-0.014957413
137	0xbd9b6ee4	-0.0758951
138	0xbb920400	-0.0044560432
139	0xbd5d0b4a	-0.053965844
140	0x3c321ba0	0.010870844
141	0x3d679850	0.05654174
142	0xbd6fc1ac	-0.05853431
143	0xbc9a4ad1	-0.018834503
144	0xbd595eab	-0.053068798
145	0xbc43f6bd	-0.011960682
146	0x3c897ecd	0.016784096
147	0x3cfa5678	0.03055881
148	0xbd8c0325	-0.06836537
149	0x3cb01bf2	0.0214977
150	0x3d79d48b	0.060993712
151	0x3ac120cd	0.0014734507
152	0x3d95b75c	0.07310364
153	0xbd33fce9	-0.043942366
154	0xbd92aa83	-0.07161429
155	0xbd8339c5	-0.06407503
156	0x3d1a166a	0.037619032
157	0xbd7693d9	-0.060199592
158	0x3d0e2904	0.034707084
159	0xbc5f29f5	-0.013620843
160	0xbd0d5da6	-0.03451314
161	0x3c57ad4e	0.013163878
162	0x3baf2277	0.0053446847
163	0x3d27f8ff	0.041008946
164	0xbd46b130	-0.048508823
165	0xbd9c683d	-0.076370694
166	0xbd823e22	-0.06359507
167	0x3d95e74a	0.073195055
168	0xbdbdfa13	-0.092762135
169	0x3d4153d3	0.04719908
170	0xbc87f185	-0.016594658
171	0x3d4651ed	0.048417974
172	0x3cd4947c	0.02594971
173	0x3c9dc223	0.01925761
174	0x3cc6f717	0.024287743
175	0xbd95ebef	-0.073203914
176	0x3cace1b9	0.021103727
177	0xbd6076ac	-0.054800674
178	0xbd9a1f2c	-0.07525477
179	0xbc250f01	-0.010074378
180	0x3b3e3899	0.0029025434
181	0xbd32e3a8	-0.04367414
182	0x3d154b40	0.036448717
183	0xbcea823d	-0.028626556
184	0xbd2c9c3f	-0.042141195
185	0x3d5e2ec9	0.054243837
186	0xbd19a87b	-0.03751419
187	0x3d0bb797	0.03411063
188	0x3d67206e	0.05642741
189	0xbcdec900	-0.027195454
190	0x3d93dc76	0.07219784
191	0xbd84d514	-0.06485954
192	0x3d96d657	0.07365101
193	0xbc203b49	-0.00977976
194	0x3be5acd7	0.0070091295
195	0x3dd7a184	0.105288535
196	0x3d5dd8fd	0.054162014
197	0x3da42761	0.080153234
198	0xbc9a0b63	-0.018804258
199	0xbda031a1	-0.07821966
200	0x3cb6cbe4	0.02231402
201	0xbcdf0311	-0.027223142
202	0xbca0fcb7	-0.019651754
203	0x3d8084c5	0.06275324
204	0x3d5a3f79	0.05328319
205	0xbd4e52d3	-0.050371956
206	0xbd141390	-0.03615147
207	0xbc8881ea	-0.01666351
208	0x3cb3c51c	0.021944575
209	0xbda67674	-0.08128062
210	0xbcf144f9	-0.029451834
211	0xbbf11fce	-0.0073585277
212	0xbc9880de	-0.018616136
213	0xbd33a230	-0.043855846
214	0xbdb3e23b	-0.087833844
215	0xbc323a08	-0.010878094
216	0x3ac9840a	0.0015374434
217	0x3d212673	0.03934331
218	0xbd94b860	-0.07261729
219	0xbcb02294	-0.021500863
220	0xbd79b302	-0.06096173
221	0xbd0d136d	-0.034442354
222	0xbd74f670	-0.059805334
223	0xbd1b9a85	-0.03798916
224	0x3d99e6ec	0.07514748
225	0xbd056261	-0.032564525
226	0xbd8e70ea	-0.069551304
227	0x3cdee663	0.027209466
228	0xbd49ad7a	-0.049237706
229	0xbb9af9ac	-0.0047294702
230	0xbd20ac75	-0.039226968
231	0xbc143f3c	-0.009048279
232	0x3a5f8db6	0.00085278915
233	0xbdac9312	-0.08426489
234	0x3d85f5f6	0.06541054
235	0x3d281631	0.04103679
236	0x3d5c4bb7	0.053783145
237	0xbda94529	-0.082651444
238	0xbd8315a1	-0.0640061
239	0xbd6d3e19	-0.05792055
240	0x3d8024e4	0.06257036
241	0xbda4a0b1	-0.08038462
242	0xbd6343c2	-0.05548454
243	0xbcd909da	-0.026493955
244	0xbd4cebdd	-0.050029624
245	0xbd3bb104	-0.045823112
246	0x3d3939ac	0.045221016
247	0xbd138809	-0.036018405
248	0xbd7f9ffe	-0.06240844
249	0x3ce549ef	0.027989356
250	0x3d84ad18	0.064783275
251	0xbc21acb4	-0.009867836
252	0xbc4c183d	-0.012456951
253	0x3d40c4c1	0.04706264
254	0x3d91f96c	0.071276516
255	0x3d8cedd3	0.06881299

encoder_sol.W_h.bias f4 [128]
0	0xbd74ce58	-0.059767097
1	0x3d4075b8	0.046987265
2	0x3b923499	0.0044618365
3	0xbd260081	-0.040527824
4	0xbd82db9d	-0.06389544
5	0xbd039282	-0.032122143
6	0xbda96074	-0.0827035
7	0x3d8798d1	0.06620944
8	0x3c2c26ab	0.010507266
9	0x3d7079d0	0.05870992
10	0x3d14e7cb	0.036353868
11	0x3d0901c2	0.033448942
12	0x3ab62a74	0.001389815
13	0xbc3a2ce5	-0.011363243
14	0x3cf6c783	0.030124431
15	0xbda98c5c	-0.082787246
16	0x3d95da2c	0.073170036
17	0x3d64cb28	0.055857807
18	0xbd8a7835	-0.06761209
19	0x3d8859cf	0.06657755
20	0x3cfc14b3	0.030771589
21	0x3c235b48	0.009970494
22	0x3d3d2fb2	0.046188064
23	0x3d9a5d0c	0.075372785
24	0x3cb8ddf9	0.022566782
25	0x3cb24e3d	0.021765823
26	0x3d92e1d8	0.071719825
27	0x3d872623	0.06599071
28	0xbd75bf03	-0.059996616
29	0xbd2b7a19	-0.04186449
30	0x3bb42b55	0.0054983296
31	0xbcc5bd43	-0.024138099
32	0x3d3870af	0.04502934
33	0x3d8f844e	0.07007657
34	0xbd0cf11a	-0.03440962
35	0xbd69907f	-0.057022568
36	0x3cfcbd45	0.03085197
37	0xbc8fe929	-0.017567234
38	0x3d26d2f7	0.040728536
39	0x3cbc41cd	0.022980595
40	0x3d58e3a5	0.052951474
41	0xbd83e184	-0.06439498
42	0x3d0e4bc7	0.034740236
43	0x3d100bde	0.035167567
44	0xbcabd8c6	-0.020977389
45	0x3cb52280	0.022111177
46	0x3d0629e5	0.032754797
47	0xbd007248	-0.031358987
48	0x3d911fc2	0.070861354
49	0xbc995e88	-0.018721834
50	0x3d6cb0a3	0.05778564
51	0xbc860316	-0.016358893
52	0x3c29ca77	0.010363213
53	0xbda8d423	-0.08243587
54	0xbce89a4d	-0.028393889
55	0xbd7474fb	-0.059681874
56	0x3cfd5c56	0.030927818
57	0x3d4bbdb0	0.049741447
58	0x3d42e024	0.04757704
59	0x3d2f7606	0.042837165
60	0xbd44166e	-0.047872953
61	0x3bb18c08	0.0054183044
62	0xbda88ae4	-0.08229616
63	0x3d7d0502	0.061772354
64	0x3ca03c98	0.019560143
65	0x3d995a77	0.07487958
66	0xbd8626fb	-0.06550404
67	0xbd61f862	-0.055168517
68	0xbd905a8c	-0.070485204
69	0x3d15be54	0.036558464
70	0x3ca8adcb	0.020590683
71	0xbd17ba12	-0.037042685
72	0x3d129a6f	0.03579181
73	0xbd89c480	-0.067269325
74	0x3d649de6	0.055814646
75	0xbd5f6b08	-0.054545432
76	0xbd2b752f	-0.0418598
77	0x3d24618f	0.0401321
78	0x3d9439bd	0.07237575
79	0x3d711d70	0.058865964
80	0x3cf07785	0.029353866
81	0xbd3e9766	-0.046531104
82	0x3d0c95fd	0.034322727
83	0xbd7907e5	-0.060798544
84	0x3d55f660	0.052236915
85	0xbd6511aa	-0.05592505
86	0xbd449528	-0.04799381
87	0xbc821332	-0.015878294
88	0xbc7ad8ef	-0.01531051
89	0xbbc2af6e	-0.005941323
90	0xbd6e5553	-0.05818684
91	0xbdb1fdb5	-0.08690969
92	0x3d6bff2d	0.0576164
93	0x3d927846	0.071518466
94	0xbd628d81	-0.05531073
95	0x3b95de59	0.004573625
96	0xbda50527	-0.08057623
97	0xbd3c4976	-0.045968495
98	0x3d84a4b8	0.0647673
99	0xbbec1f75	-0.0072058984
100	0xbd88c347	-0.06677871
101	0x3d6c98ae	0.057762794
102	0xbd0b9123	-0.03407396
103	0x3cd29e56	0.025710266
104	0x3dabeff9	0.083953805
105	0xbd0ce487	-0.03439763
106	0x3d2b7e1c	0.041868314
107	0xbcffac95	-0.031210223
108	0xbd9cec47	-0.07662254
109	0xbb6d52a3	-0.0036212585
110	0x3cfeb700	0.03109312
111	0x3c811b36	0.015760045
112	0xbc464fbe	-0.012103973
113	0xbd642263	-0.055696856
114	0x3d4c3ae7	0.04986086
115	0xbda6f050	-0.08151305
116	0xbcdc9790	-0.02692774
117	0xbd465274	-0.048418477
118	0xbd3b49a2	-0.04572452
119	0xbce77f50	-0.02825895
120	0x3cb9fe22	0.022704188
121	0x3cc3dfae	0.02391037
122	0xbd1a6da4	-0.037702218
123	0xbd8d3d73	-0.06896486
124	0x3d463112	0.04838664
125	0x3d1a72ea	0.037707247
126	0xbae47297	-0.001742917
127	0x3d94a81b	0.07258626

encoder_sol.W_o.weight f4 [128, 261]
0	0xbc56ad58	-0.013102852
1	0xbc85c9aa	-0.016331512
2	0x3b9a4550	0.0047079697
3	0x3d6c1428	0.05763641
4	0xbcb561d6	-0.022141378
5	0xbcdaacc6	-0.026693713
6	0xbca25884	-0.019817598
7	0xbd2b5d64	-0.04183711
8	0xbd7f0411	-0.062259737
9	0xbc27713c	-0.010219868
10	0x3d52cd8a	0.05146555
11	0xbd2c2876	-0.042030774
12	0x3af056c0	0.00183364
13	0xbb781410	-0.0037853755
14	0x3b0d7704	0.0021585831
15	0xbd523b43	-0.051326048
16	0xbd8014ee	-0.06253992
17	0xbd190ba7	-0.03736463
18	0x3cdfe128	0.027329043
19	0x3d62e38c	0.055392787
20	0x3ccbde28	0.024886206
21	0xbd4c0b4e	-0.04981547
22	0xbd46a6a6	-0.048498772
23	0x3d73995a	0.05947242
24	0xbd565d7a	-0.05233524
25	0x3c6263b0	0.013817713
26	0xbd69182f	-0.05690783
27	0xbd122d40	-0.035687685
28	0xbd612a4a	-0.05497197
29	0x3c957f30	0.018249124
30	0x3d33cece	0.043898396
31	0xbd378c42	-0.044811495
32	0x3d239f4a	0.03994683
33	0x3d20969c	0.039206132
34	0xbbd500a0	-0.0065003186
35	0x3d7bb206	0.061449073
36	0xbc92ab7a	-0.017904032
37	0x3ca6d048	0.020362988
38	0x3bf5e640	0.0075042546
39	0x3bc030b0	0.005865179
40	0xbbda3490	-0.006659098
41	0x3d1c168c	0.03810744
42	0xbb568e70	-0.0032738708
43	0xbc60c9b0	-0.013719961
44	0xbcda8df2	-0.026679013
45	0xbd08e5b2	-0.03342218
46	0x3d470ab8	0.048594207
47	0xbbb12ff0	-0.005407326
48	0x3ca070a0	0.019584954
49	0x3d4e4d3e	0.050366633
50	0xbd587303	-0.05284406
51	0x3ce109f8	0.027470574
52	0xbcd5fd8c	-0.026121877
53	0x3ce8df1c	0.0284267
54	0xbcd03f52	-0.025420818
55	0x3d290bee	0.041271143
56	0x3cefb964	0.029263206
57	0xbd52af20	-0.051436543
58	0xbd408a78	-0.047007054
59	0xbcdf72d8	-0.027276441
60	0x3d604c9a	0.054760553
61	0xbcadd38a	-0.021219034
62	0xbce862ec	-0.028367482
63	0x3cc99714	0.024608172
64	0xbca39120	-0.019966662
65	0x3d7b356c	0.061330244
66	0xbd585df9	-0.052823994
67	0xbd034097	-0.03204402
68	0xbcc6baec	-0.024259053
69	0x3c4b9558	0.012425743
70	0xbc260d00	-0.010134935
71	0xbb229e10	-0.002481345
72	0xbc5b7288	-0.013394006
73	0x3c9d28f8	0.019184574
74	0xbcc7c1d2	-0.024384413
75	0xbd780fe6	-0.060562037
76	0xbd6482b5	-0.055788714
77	0xbd770acc	-0.06031303
78	0x3d26d470	0.04072994
79	0x3c437900	0.011930704
80	0x3d697806	0.05699923
81	0x3d434d02	0.047680862
82	0xbac569e0	-0.001506146
83	0x3cf0f848	0.029415265
84	0x3d29f8a4	0.041496888
85	0x3b0bae20	0.0021313503
86	0xbccfe0e2	-0.025375787
87	0xbd3af55a	-0.04564414
88	0xbd4d7db6	-0.050168715
89	0xbcdd40f2	-0.027008507
90	0x3c948a60	0.018132389
91	0x3d359542	0.044331796
92	0x3ccf023c	0.02526962
93	0x3d6091c8	0.054826528
94	0xbd6c02da	-0.057619907
95	0x3cb7b378	0.022424445
96	0xbccfbf9c	-0.025359921
97	0xbd2b6522	-0.041844495
98	0x3d170b90	0.03687626
99	0xbd5cfe74	-0.053953603
100	0xbcb1ef2a	-0.021720488
101	0x3c2bc468	0.010483839
102	0xbcb0b041	-0.02156842
103	0x3d1a6a94	0.037699297
104	0x3d1aa76c	0.037757322
105	0x3bed76fe	0.007246851
106	0x3b574c00	0.0032851696
107	0xbd199720	-0.03749764
108	0xbd5245de	-0.05133616
109	0xbd466d1e	-0.048443906
110	0x3d8ebf22	0.069700494
111	0x3d45ee4c	0.04832296
112	0x3d76a8a4	0.060219422
113	0xbd2dec74	-0.042461827
114	0xbd0b52de	-0.034014575
115	0xbce656b0	-0.028117508
116	0xbd469f62	-0.048491843
117	0xbc88c3c2	-0.016694907
118	0x3c531ef8	0.0128858015
119	0xbc049b05	-0.0080936
120	0x3daaf573	0.08347597
121	0x3ce06d7f	0.027395962
122	0xbd7c87a6	-0.061652802
123	0x3cb3eedc	0.021964483
124	0xbcfd9d54	-0.030958809
125	0xbca594ec	-0.020212613
126	0x3c0e2811	0.008676545
127	0x3d4e62d8	0.050387233
128	0xbd485d7f	-0.04891729
129	0xbbaf0580	-0.005341232
130	0xbd20874b	-0.039191525
131	0xbd189932	-0.037255473
132	0x3be797e9	0.0070676696
133	0x3ce147d8	0.027500078
134	0xbd41717b	-0.047227364
135	0xbd3896d5	-0.04506572
136	0xbbef3c1a	-0.007300866
137	0xbcf85d27	-0.030317856
138	0xbd15fff7	-0.03662106
139	0x3d1d30ff	0.038376804
140	0x3d586387	0.05282929
141	0x3cd87627	0.026423527
142	0x3d475e59	0.04867396
143	0xbb9b4cba	-0.004739371
144	0x3d2d2de3	0.04228009
145	0x3d592e39	0.053022597
146	0xbd104cc1	-0.03522945
147	0xbad68094	-0.0016365224
148	0xbcac5cdc	-0.021040373
149	0x3baaee94	0.005216429
150	0x3c289eca	0.0102917645
151	0x3d1138ac	0.035454437
152	0xbcf5d7b4	-0.030010082
153	0x3c300b05	0.010744815
154	0x3d0a239c	0.033725366
155	0xbcb35514	-0.021891154
156	0x3d2c2f11	0.042037074
157	0x3ce4862a	0.027896006
158	0x3d096b51	0.03354961
159	0x3d1b32b0	0.037890136
160	0xbbab207d	-0.0052223788
161	0x3d1105ab	0.035405796
162	0xbce9f580	-0.028559446
163	0x3d4015c6	0.046895765
164	0x3d60e44e	0.05490523
165	0xbd3dac9c	-0.04630719
166	0x3d01857e	0.03162145
167	0x3cb9548d	0.022623325
168	0xbc3eabc5	-0.011637633
169	0xbc06bc04	-0.008223537
170	0xbd35c849	-0.04438046
171	0xbd5f9076	-0.054581128
172	0xbc838fb2	-0.01605973
173	0x3c1f510e	0.009723915
174	0x3d3acd5f	0.045606013
175	0xbd1e95f3	-0.03871722
176	0xbb842f5f	-0.0040339674
177	0x3b71e83f	0.003691211
178	0xbd8da477	-0.06916135
179	0x3c9ad7bf	0.018901704
180	0x3c0bf248	0.008541651
181	0x3d46f548	0.048573762
182	0x3c2dd9de	0.010611026
183	0xbd803b4a	-0.062613085
184	0xbd33a83d	-0.043861616
185	0x3d0467cb	0.032325547
186	0xbd60630c	-0.05478196
187	0xbd3181f3	-0.04333682
188	0x3c9d8964	0.019230552
189	0x3cbc7892	0.023006711
190	0xbd2fb8eb	-0.04290096
191	0x3d0755cf	0.033040818
192	0x3d1dfb75	0.038569886
193	0xbc04f30d	-0.008114588
194	0x3cd0a9bd	0.025471563
195	0x3d3d0316	0.04614552
196	0xbd3ed14b	-0.046586316
197	0x3d4fca88	0.05073026
198	0xbca4e68e	-0.020129468
199	0x3bcbf0ac	0.0062237587
200	0x3d58779f	0.052848455
201	0x3d20ff8a	0.0393062
202	0x3d4408aa	0.047859825
203	0xbcdd3e96	-0.027007382
204	0xbce7b908	-0.028286472
205	0x3cd4b0d2	0.02596322
206	0xbcce2e76	-0.025168639
207	0xbc29414a	-0.0103305075
208	0x3d11c18b	0.035584968
209	0x3cb3639c	0.021898083
210	0xbc48ba3a	-0.012251431
211	0x3a436566	0.0007453769
212	0x3d270a43	0.04078127
213	0xbce51614	-0.02796463
214	0x3d3aa0fb	0.04556368
215	0x3bf111f4	0.0073568765
216	0x3cb402a6	0.02197392
217	0x3cf9ec14	0.030508079
218	0xbd4313b1	-0.0476262
219	0x3bbbb0ca	0.005727862
220	0xbc9e1e0e	-0.01930144
221	0xbae56f37	-0.0017504458
222	0x3d57d8c9	0.052696977
223	0xbbba8a6f	-0.005692772
224	0xbd3489fb	-0.0440769
225	0xbcb3dc0d	-0.021955514
226	0xbd51999b	-0.05117188
227	0x3b239a9b	0.0024963978
228	0xbca48a35	-0.020085433
229	0xbcbb026e	-0.022828307
230	0xbcf35dd9	-0.029707836
231	0x3d164d4f	0.03669482
232	0x3ca8b44e	0.020593788
233	0x3c5d9b1e	0.013525752
234	0xbcaa021e	-0.020752963
235	0xbd6cd4c8	-0.05782011
236	0xbc416835	-0.01180463
237	0xbd835182	-0.06412031
238	0x3b9d5bb8	0.0048021935
239	0x3d48d7c4	0.049033895
240	0x3d4e36de	0.050345294
241	0xbd243ead	-0.040098835
242	0x3bca0600	0.006165266
243	0x3c61c57c	0.013779994
244	0x3d471fd1	0.048614327
245	0xbc94c809	-0.01816179
246	0xbd0e38ff	-0.034722324
247	0xbd0e9762	-0.03481234
248	0xbd5cbe70	-0.053892553
249	0xbc841868	-0.016124919
250	0xbd486b70	-0.048930585
251	0x3cdcba44	0.026944287
252	0xbb8e6f84	-0.00434679
253	0xbb19b826	-0.0023455708
254	0x3d2a138f	0.04152256
255	0xbc03c52b	-0.008042614

encoder_sol.W_o.bias f4 [128]
0	0xbd7c6e0e	-0.061628394
1	0x3cddcb80	0.027074575
2	0xbd288b1d	-0.041148294
3	0x3c9e8aa8	0.019353226
4	0x3cb9ec94	0.022695817
5	0xbcc225b3	-0.023699617
6	0xbc99642f	-0.01872453
7	0x3d2d58a6	0.04232087
8	0x3d0be8b9	0.03415749
9	0x3c8689e5	0.016423175
10	0xbcb761a2	-0.022385422
11	0x3d5b6ec6	0.05357244
12	0xbcfcb02d	-0.030845726
13	0xbd03a449	-0.032139096
14	0x3d47286a	0.048622526
15	0x3d6423d9	0.05569825
16	0xbc0b0474	-0.008484948
17	0xbd2180eb	-0.039429586
18	0x3d37bae5	0.04485597
19	0xbd0fada9	-0.035077725
20	0xbd036ef9	-0.032088254
21	0x3d505fbe	0.050872557
22	0xbc8b974c	-0.017039917
23	0xbc25fd15	-0.01013114
24	0x3d1e56e5	0.038657088
25	0x3cbacc9a	0.02280264
26	0xbd6ef3b2	-0.058337875
27	0x3c36c125	0.011154448
28	0xbc5ab17f	-0.013347982
29	0xbcb43af7	-0.022000773
30	0x3b8862d1	0.0041621705
31	0x3d31dc2f	0.043422874
32	0xbb42873f	-0.0029682664
33	0xbcd03c2e	-0.02541932
34	0xbccbf2fc	-0.024896137
35	0x3cb073cd	0.021539593
36	0xbc8a9e36	-0.016921144
37	0xbc26438f	-0.010147943
38	0x3cbd6a2e	0.02312192
39	0xbbf1c774	-0.007378513
40	0xbd8069b3	-0.062701605
41	0x3c50b1b4	0.01273768
42	0x3baadbfb	0.005214212
43	0x3af7018e	0.0018845068
44	0x3cb9d986	0.022686731
45	0x3c0962f1	0.008385406
46	0xbd308ff4	-0.043106034
47	0xbcd10b97	-0.025518222
48	0xbd0a3629	-0.033743057
49	0x3d329673	0.04360051
50	0x3d1d582a	0.038414158
51	0xbc6aaf56	-0.01432403
52	0xbc21a3a3	-0.009865674
53	0x3d5092a3	0.050921094
54	0xbd35f53c	-0.044423327
55	0xbb111757	-0.0022139156
56	0xbd276579	-0.040868256
57	0x3d3ddca9	0.046353016
58	0xbcc9fd22	-0.024656836
59	0x3c2dbce8	0.010604121
60	0xbd390ba7	-0.04517713
61	0xbca3e541	-0.020006778
62	0xbb90289d	-0.0043993727
63	0xbcca933c	-0.02472841
64	0x3cfaf4c2	0.030634288
65	0x3ce4a1ce	0.027909186
66	0x3c98cf10	0.018653423
67	0x3cc55491	0.024088176
68	0xbd85b448	-0.065285265
69	0xbbbcd069	-0.005762149
70	0xbbaf4c01	-0.0053496365
71	0xbcb3c1c3	-0.021942979
72	0xbc815bec	-0.015790902
73	0x3c08ff63	0.00836167
74	0xbbcb4afe	-0.006204008
75	0xbcc820e7	-0.024429752
76	0x3d4f70db	0.050644737
77	0xbd76e1f0	-0.060274065
78	0xbc4ca8d0	-0.01249142
79	0xbd6c16a6	-0.057638787
80	0x3b8997c4	0.004199
81	0xbd43e041	-0.047821287
82	0xbc63d1cd	-0.013905001
83	0xbb2ee646	-0.0026687547
84	0x3be32acc	0.006932592
85	0xbd8a1cd2	-0.06743778
86	0xbd14ac0e	-0.036296897
87	0xbd0e5b32	-0.03475494
88	0xbd84a183	-0.064761184
89	0x3bcaaa1f	0.006184831
90	0xbd192fde	-0.037399165
91	0x3d3edad8	0.046595424
92	0x3d2a1804	0.04152681
93	0xbd6a77d8	-0.0572432
94	0xbcf7d40b	-0.030252477
95	0xbbd9cb99	-0.006646585
96	0x3d3590ae	0.04432743
97	0xbcb148ee	-0.02164122
98	0xbada7bef	-0.0016669015
99	0x3d0b5c39	0.034023497
100	0xbd0c21cf	-0.03421193
101	0x3cb47aed	0.022031272
102	0x3abd63b6	0.0014449272
103	0x3ba1e9c2	0.004941196
104	0x3d5ba295	0.053621847
105	0xbbfb9152	-0.0076772356
106	0x3d53966e	0.051657133
107	0x3bbbfdb3	0.0057370304
108	0x3ce58652	0.02801815
109	0x3d123e15	0.035703737
110	0xbcc8c081	-0.024505856
111	0x3d4db2bf	0.050219294
112	0x3d786ffa	0.060653664
113	0x3c8c690d	0.017139936
114	0x3cffcf15	0.031226674
115	0xbc4ddd13	-0.012564915
116	0xbd4b148c	-0.049580142
117	0xbc9c4777	-0.019077046
118	0x3cb26984	0.02177883
119	0xbd85f375	-0.06540576
120	0xbd50e343	-0.050997984
121	0x3d2df99f	0.042474385
122	0xbd444f7d	-0.04792737
123	0x3c9ab952	0.018887196
124	0x3c5d97a1	0.013524921
125	0x3d603329	0.05473629
126	0xbd0bfbf8	-0.034175843
127	0xbd24a1f1	-0.0401935

encoder_solv.cached_zero_vector f4 [128]
0	0x00000000	0.0
1	0x00000000	0.0
2	0x00000000	0.0
3	0x00000000	0.0
4	0x00000000	0.0
5	0x00000000	0.0
6	0x00000000	0.0
7	0x00000000	0.0
8	0x00000000	0.0
9	0x00000000	0.0
10	0x00000000	0.0
11	0x00000000	0.0
12	0x00000000	0.0
13	0x00000000	0.0
14	0x00000000	0.0
15	0x00000000	0.0
16	0x00000000	0.0
17	0x00000000	0.0
18	0x00000000	0.0
19	0x00000000	0.0
20	0x00000000	0.0
21	0x00000000	0.0
22	0x00000000	0.0
23	0x00000000	0.0
24	0x00000000	0.0
25	0x00000000	0.0
26	0x00000000	0.0
27	0x00000000	0.0
28	0x00000000	0.0
29	0x00000000	0.0
30	0x00000000	0.0
31	0x00000000	0.0
32	0x00000000	0.0
33	0x00000000	0.0
34	0x00000000	0.0
35	0x00000000	0.0
36	0x00000000	0.0
37	0x00000000	0.0
38	0x00000000	0.0
39	0x00000000	0.0
40	0x00000000	0.0
41	0x00000000	0.0
42	0x00000000	0.0
43	0x00000000	0.0
44	0x00000000	0.0
45	0x00000000	0.0
46	0x00000000	0.0
47	0x00000000	0.0
48	0x00000000	0.0
49	0x00000000	0.0
50	0x00000000	0.0
51	0x00000000	0.0
52	0x00000000	0.0
53	0x00000000	0.0
54	0x00000000	0.0
55	0x00000000	0.0
56	0x00000000	0.0
57	0x00000000	0.0
58	0x00000000	0.0
59	0x00000000	0.0
60	0x00000000	0.0
61	0x00000000	0.0
62	0x00000000	0.0
63	0x00000000	0.0
64	0x00000000	0.0
65	0x00000000	0.0
66	0x00000000	0.0
67	0x00000000	0.0
68	0x00000000	0.0
69	0x00000000	0.0
70	0x00000000	0.0
71	0x00000000	0.0
72	0x00000000	0.0
73	0x00000000	0.0
74	0x00000000	0.0
75	0x00000000	0.0
76	0x00000000	0.0
77	0x00000000	0.0
78	0x00000000	0.0
79	0x00000000	0.0
80	0x00000000	0.0
81	0x00000000	0.0
82	0x00000000	0.0
83	0x00000000	0.0
84	0x00000000	0.0
85	0x00000000	0.0
86	0x00000000	0.0
87	0x00000000	0.0
88	0x00000000	0.0
89	0x00000000	0.0
90	0x00000000	0.0
91	0x00000000	0.0
92	0x00000000	0.0
93	0x00000000	0.0
94	0x00000000	0.0
95	0x00000000	0.0
96	0x00000000	0.0
97	0x00000000	0.0
98	0x00000000	0.0
99	0x00000000	0.0
100	0x00000000	0.0
101	0x00000000	0.0
102	0x00000000	0.0
103	0x00000000	0.0
104	0x00000000	0.0
105	0x00000000	0.0
106	0x00000000	0.0
107	0x00000000	0.0
108	0x00000000	0.0
109	0x00000000	0.0
110	0x00000000	0.0
111	0x00000000	0.0
112	0x00000000	0.0
113	0x00000000	0.0
114	0x00000000	0.0
115	0x00000000	0.0
116	0x00000000	0.0
117	0x00000000	0.0
118	0x00000000	0.0
119	0x00000000	0.0
120	0x00000000	0.0
121	0x00000000	0.0
122	0x00000000	0.0
123	0x00000000	0.0
124	0x00000000	0.0
125	0x00000000	0.0
126	0x00000000	0.0
127	0x00000000	0.0

encoder_solv.W_i.weight f4 [128, 133]
0	0xbd5e7b03	-0.054316532
1	0xbd9d2bb6	-0.07674353
2	0xbd5ea318	-0.054354757
3	0x3d46a136	0.048493586
4	0xbbe99bd3	-0.0071291714
5	0xbd751ea7	-0.059843685
6	0x3dc02a66	0.09383087
7	0x3d763aee	0.060114793
8	0xbd3f66be	-0.046728842
9	0x3d84e6fb	0.064893685
10	0xbd9e4c7e	-0.077294335
11	0xbd7a2983	-0.061074745
12	0x3d4f8c3e	0.050670855
13	0x3d2e972a	0.04262463
14	0x3c389e80	0.011268258
15	0x3d856b88	0.065146506
16	0xbce03df5	-0.027373293
17	0x3cdc11fc	0.026864044
18	0x3bd79b60	0.0065798014
19	0xbd0fdd6f	-0.035123285
20	0x3d860371	0.06543625
21	0xbc136ea8	-0.0089985505
22	0xbda68151	-0.08130134
23	0xbd08c03e	-0.03338646
24	0x3d6acbaa	0.057323135
25	0x3d01ab00	0.03165722
26	0xbd3f07da	-0.046638347
27	0xbcdc6130	-0.026901811
28	0x3d04c116	0.032410704
29	0x3d68a9fa	0.056802727
30	0x3d379362	0.04481829
31	0x3cba4a6c	0.022740565
32	0xbd08d854	-0.03340943
33	0xbc300de0	-0.010745496
34	0x3c135a12	0.008993642
35	0x3da6c6b5	0.08143369
36	0xbd1a4457	-0.03766283
37	0xbd4a8e24	-0.049451962
38	0xbd765a38	-0.060144633
39	0xbd397d67	-0.04528561
40	0x3cbfc960	0.023411453
41	0x3cbd9c74	0.023145892
42	0xbdafbc23	-0.08580806
43	0x3c1547e8	0.009111382
44	0x3c4f4af8	0.012652151
45	0xbc9d8140	-0.01922667
46	0xbc5817f8	-0.013189308
47	0x3cf8c47c	0.030367129
48	0xbd267290	-0.0406366
49	0xbc6198a8	-0.013769306
50	0x3c1ccbe0	0.009570092
51	0x3d2fce7a	0.04292152
52	0x3cdec239	0.027192222
53	0x3d105c3c	0.03524421
54	0xbd887342	-0.06662609
55	0x3dacd629	0.08439285
56	0x3aade980	0.0013268441
57	0xbd8f3d83	-0.06994154
58	0xbd102f02	-0.03520108
59	0x3cd10e44	0.025519498
60	0x3cc8cb2c	0.024510942
61	0x3c0fc280	0.0087744
62	0x3d5ce2fa	0.0539274
63	0x3d15a592	0.036534853
64	0xbd3d1439	-0.046161864
65	0xbd8b51a2	-0.068026796
66	0xbd724b38	-0.059153765
67	0x3d6aff52	0.0573724
68	0x3d9e7eeb	0.077390514
69	0x3cada6c8	0.021197692
70	0xbd8f3970	-0.06993377
71	0x3cb22a14	0.02174858
72	0xbd046ac9	-0.0323284
73	0x3ce53394	0.027978696
74	0xbcfaaa26	-0.030598711
75	0x3d5a0ee6	0.053236865
76	0xbd26c074	-0.04071088
77	0xbd4fff38	-0.050780505
78	0xbd12e35a	-0.03586135
79	0x39607400	0.00021405518
80	0xbd0e3147	-0.034714963
81	0x3d6e957a	0.05824802
82	0x3d6ae1a2	0.057344086
83	0x3d9dcddb	0.077052794
84	0x3d887217	0.06662386
85	0x3d40238a	0.046908893
86	0xbc72ce50	-0.014819697
87	0xbd8e88f0	-0.069597125
88	0x3cd93dec	0.026518784
89	0x3c8f1d68	0.017470077
90	0x3d01825a	0.031618454
91	0xbd00cc53	-0.03144486
92	0x3d9bc6a3	0.07606246
93	0xbd8a238c	-0.06745061
94	0x3d51ded2	0.05123789
95	0x3c747388	0.014920123
96	0xbc9c8ebc	-0.01911103
97	0x3d9670d3	0.07345738
98	0x3d16fd0a	0.03686241
99	0x3d4878e2	0.048943408
100	0xbd07ad08	-0.033124
101	0xbd5a838a	-0.0533481
102	0xbda95586	-0.082682654
103	0xbd15137b	-0.03639553
104	0x3d3f5601	0.04671288
105	0x3d1506de	0.036383502
106	0xbacf4600	-0.0015813708
107	0x3d9e8a1f	0.07741188
108	0xbe2a2ca7	-0.16618596
109	0x3d0dad6a	0.03458921
110	0xbcafca78	-0.02145885
111	0x3d822145	0.06354002
112	0x3d3ff4a1	0.046864156
113	0xbd4981d6	-0.049196087
114	0x3d63cc0e	0.055614524
115	0x3be56730	0.0070008263
116	0x3d6c9a96	0.057764612
117	0xbc2e3ee0	-0.010635108
118	0x3b11a980	0.0022226274
119	0xbc4a209b	-0.012336875
120	0x3d1d687a	0.038429715
121	0x3d34bdb1	0.044126216
122	0xbd96dc0d	-0.0736619
123	0xbda47a69	-0.080311604
124	0xbd7d0b96	-0.061778627
125	0xbd478a6f	-0.048716005
126	0x3dbc12c4	0.09183267
127	0xbd0bec3a	-0.03416083
128	0xbd891296	-0.06692998
129	0x3cfca164	0.030838676
130	0xbce46022	-0.027877871
131	0xbda5e8bd	-0.08101032
132	0x3daeaf21	0.08529497
133	0x3da624a5	0.08112458
134	0xbcfa5cde	-0.03056186
135	0xbd970de6	-0.07375698
136	0x3d814fc5	0.06314043
137	0xbc976050	-0.018478543
138	0xbca9be50	-0.02072063
139	0x3ca8558f	0.02054861
140	0x3d29bdda	0.041440822
141	0x3c60e7e0	0.013727158
142	0xbcef66e6	-0.02922387
143	0x3da6ed55	0.08150736
144	0x3d9bbbdf	0.07604193
145	0x3d2c24ce	0.042027287
146	0xbba8f650	-0.005156316
147	0x3d6c1773	0.05763955
148	0x3d077152	0.033067055
149	0x3d9d359b	0.0767624
150	0xbd6e2f40	-0.05815053
151	0xba33c480	-0.0006857589
152	0x3d82a945	0.06379942
153	0x3cfd0d08	0.030890003
154	0xbd7bd548	-0.061482698
155	0xbcdf3d08	-0.027250782
156	0x3da501a7	0.08056956
157	0x3d07ab04	0.033122078
158	0x3cdda1a0	0.027054608
159	0x3d5fbc62	0.054623015
160	0x3d5d8ac6	0.054087423
161	0x3db11983	0.08647444
162	0xbd4b008c	-0.04956107
163	0x3da9b6a1	0.08286787
164	0xbd19d433	-0.037555885
165	0xbd4282be	-0.047487967
166	0x3d224f0a	0.03962616
167	0x3b30fd80	0.0027006567
168	0xbd708fcf	-0.058730897
169	0x3d12b306	0.03581526
170	0x3cc6b70c	0.024257205
171	0x3d699956	0.057031
172	0x3b054620	0.0020335987
173	0xbd8b1b3b	-0.06792303
174	0x3cb80edc	0.022468023
175	0x3d7c917a	0.061662175
176	0x3d18218c	0.037141368
177	0x3cb652fc	0.022256367
178	0xbdaa742a	-0.08322938
179	0x3d5f8b16	0.054576002
180	0x3d5152ea	0.051104464
181	0x3900a600	0.00012268871
182	0xbd1f33f2	-0.0388679
183	0x3da4377b	0.080183946
184	0x3d38e152	0.045136757
185	0x3d9afb17	0.07567423
186	0xbda6650c	-0.08124742
187	0xbcfbef5c	-0.030753784
188	0x3abbbd80	0.0014323443
189	0x3d9810db	0.0742509
190	0x3d56895a	0.052377082
191	0xbcd4fb7c	-0.025998823
192	0x3d893bc1	0.0670085
193	0xbcb4a7b4	-0.022052623
194	0x3babe4f0	0.0052457973
195	0xbd11a6e9	-0.03555957
196	0xbd82f3c2	-0.06394149
197	0x3db18b4b	0.08669146
198	0xb95e7600	-0.00021215528
199	0xbc2fd728	-0.01073245
200	0xbd811e90	-0.063046575
201	0xbd5321f5	-0.051546056
202	0xbc074f78	-0.008258693
203	0x3d2afcba	0.041744925
204	0xbd344c2b	-0.044017952
205	0x3d5b8d52	0.05360157
206	0x3d97e7f9	0.07417292
207	0x3d3803be	0.044925444
208	0x3a7c7080	0.0009629801
209	0x3d8a21b5	0.0674471
210	0xbd3b26da	-0.04569135
211	0x3d90cd27	0.0707038
212	0xbd3b1824	-0.04567732
213	0x3d781bce	0.06057339
214	0xbd7c59c0	-0.06160903
215	0xbd5c6a16	-0.05381211
216	0x3c00f588	0.007871039
217	0x3d07d4e4	0.033162013
218	0x3dac46e5	0.084119596
219	0xbc9242c4	-0.017854102
220	0x3d2699a2	0.04067386
221	0xbd6064ab	-0.054783504
222	0x3cffc920	0.031223834
223	0x3d81888b	0.06324872
224	0xbc28c8b0	-0.010301754
225	0xbda6f336	-0.081518576
226	0xbd58994c	-0.05288057
227	0xbd2f79a9	-0.042840634
228	0xbd7468b7	-0.059670176
229	0x3d854055	0.06506411
230	0xbd191e85	-0.03738262
231	0xbd7f0366	-0.0622591
232	0xbc7556a0	-0.014974266
233	0xbc054040	-0.008132994
234	0xbd065552	-0.03279621
235	0xbd4c6c39	-0.049907897
236	0x3b6da4bc	0.003626152
237	0xbd0071af	-0.031358417
238	0x3a8cb97d	0.0010736432
239	0xbce6ec44	-0.028188832
240	0xbbea5000	-0.00715065
241	0xbc44f256	-0.012020668
242	0xbd52d513	-0.051472735
243	0xbd9bc9d2	-0.076068535
244	0xbd9e9096	-0.07742421
245	0x3d10f4f7	0.035389867
246	0x3dac3599	0.084086604
247	0xbd070812	-0.03296668
248	0xbd81df7e	-0.06341456
249	0x3d8bdf91	0.06829751
250	0xbdafaad5	-0.085775055
251	0xbda9bd77	-0.08288091
252	0xbd43aa4e	-0.047769837
253	0xbcbd454a	-0.023104329
254	0xbd8d3589	-0.06894977
255	0xbd34113c	-0.04396175

encoder_solv.W_i.bias f4 [128]
0	0x3ce7a3da	0.028276373
1	0xbd4d542e	-0.050129108
2	0x3a85d32a	0.0010210027
3	0x3d8a8b88	0.06764895
4	0xbdb6232f	-0.088934295
5	0xbd5f6d48	-0.054547578
6	0x3d79cf03	0.060988437
7	0x3c75d0b5	0.015003373
8	0xbd7d6664	-0.061865225
9	0x3d8c9b40	0.06865549
10	0xbd68a863	-0.05680121
11	0xbcca2d83	-0.024679905
12	0xbd97fa0d	-0.0742074
13	0x3c8db73e	0.01729929
14	0x3c8ceefe	0.017203804
15	0x3bc125cd	0.005894399
16	0x3d751049	0.059829984
17	0x3c3f1849	0.011663505
18	0x3d2ce686	0.04221203
19	0x3ca13739	0.019679653
20	0xbb33d2dc	-0.0027438914
21	0xbd2ffab1	-0.042963687
22	0xbd239a0f	-0.039941844
23	0xbcfe5b41	-0.031049373
24	0x3d501813	0.05080421
25	0xbdcaa73f	-0.09895181
26	0xbd0c59f6	-0.03426548
27	0x3d0e1931	0.034691993
28	0xba9527de	-0.0011379679
29	0xbca4ae39	-0.020102607
30	0x3d88e737	0.06684726
31	0x3d80e1d9	0.06293077
32	0xbc6eb3e5	-0.014569257
33	0x3d471203	0.04860116
34	0xbd30cea2	-0.04316581
35	0xbc4e0c3c	-0.012576159
36	0xbcf1331b	-0.029443314
37	0xbd976223	-0.07391765
38	0xbd902f4e	-0.07040273
39	0xbd08c495	-0.0333906
40	0x3d0b7071	0.03404278
41	0xbd80c5ae	-0.062877044
42	0x3d72df7a	0.059295155
43	0x3d95b4cf	0.07309877
44	0x3d487480	0.048939228
45	0x3d8af87f	0.06785678
46	0xbd81bcc3	-0.063348316
47	0x3c900c89	0.017584102
48	0xbb37130c	-0.0027934937
49	0x3d193790	0.037406504
50	0xbd98c49a	-0.07459374
51	0x3d812e3a	0.06307645
52	0xbd67fa0e	-0.056634955
53	0x3d2c5075	0.042068917
54	0xbbee6149	-0.007274781
55	0x3da8db80	0.08244991
56	0x3d9a5e81	0.075375564
57	0x3d1edfaa	0.03878752
58	0x3d4491f7	0.047990765
59	0x3d861cb2	0.06548442
60	0xbd9cc349	-0.07654435
61	0xbd92494a	-0.07142885
62	0xbc863dba	-0.016386855
63	0xbd1f7499	-0.038929556
64	0xbdaa2a27	-0.08308821
65	0xbb15b349	-0.0022842458
66	0x3d530a9e	0.051523797
67	0x3cf266b6	0.029589992
68	0x3d0e08d4	0.034676388
69	0xbbc75a6c	-0.006083777
70	0xbb7edef2	-0.003889021
71	0x3cbf7fd7	0.023376388
72	0x3c88f802	0.016719822
73	0xbce9373c	-0.02846872
74	0x3af829a3	0.0018933307
75	0xbd1eb3a5	-0.03874554
76	0x3d1eec7b	0.038799744
77	0xbd2fcc74	-0.04291959
78	0x3ca6bfce	0.020355131
79	0x3c59061c	0.0132460855
80	0xbd0746fa	-0.033026673
81	0xbd4fde4d	-0.050749112
82	0x3d3a1cf6	0.045437776
83	0xbd2990b6	-0.041397773
84	0xbd103d94	-0.035214975
85	0xbd2430d3	-0.040085625
86	0xbc07f06a	-0.008297065
87	0x3d7213ed	0.059101034
88	0x3cdab654	0.026698269
89	0x3c430c9c	0.011904862
90	0xbdba5f72	-0.09100236
91	0x3d7dbb3a	0.06194613
92	0xbd3f7ff5	-0.04675289
93	0xbd76d41f	-0.06026089
94	0xbd47caa0	-0.048777223
95	0x3c6150b2	0.013752149
96	0x3cb1b77f	0.021693943
97	0xbd9143ac	-0.070929855
98	0xbda44345	-0.08020643
99	0xbd9b9818	-0.07597369
100	0xbc7f0276	-0.015564552
101	0x3ce88dca	0.028387923
102	0xbb381180	-0.0028086603
103	0x3d81370f	0.0630933
104	0x3d9f7c3c	0.07787368
105	0xbd89380f	-0.067001455
106	0xbce4416d	-0.027863229
107	0xbd0746f8	-0.033026665
108	0xbd862db0	-0.06551683
109	0xbc4f3fb1	-0.012649463
110	0x3cf0aaf2	0.029378388
111	0x3cdf32ba	0.027245868
112	0xbd947d1a	-0.07250424
113	0xbbfc700d	-0.007703787
114	0xbd4a56a3	-0.04939903
115	0x3cb9f8f0	0.02270171
116	0xbc131bab	-0.0089787645
117	0x3bc9aa85	0.0061543607
118	0x3d406d37	0.046979155
119	0x3b2ed68f	0.002667818
120	0x3c82405a	0.015899826
121	0x3d3be19c	0.045869455
122	0x3cc42ed9	0.02394812
123	0xba48b216	-0.00076559314
124	0xbd385eb8	-0.045012206
125	0x3d745530	0.059651554
126	0xbc9c809d	-0.019104296
127	0xbd808d10	-0.062769055
