THESIS/hyperopt/checkpoints/DMPNN_with_attention.pt (torch, 641769 bytes, 19 tensors)

encoder_sol.cached_zero_vector f4 [128]
00000000: 0000 0000 0000 0000 0000 0000 0000 0000
00000010: 0000 0000 0000 0000 0000 0000 0000 0000
00000020: 0000 0000 0000 0000 0000 0000 0000 0000
00000030: 0000 0000 0000 0000 0000 0000 0000 0000
00000040: 0000 0000 0000 0000 0000 0000 0000 0000
00000050: 0000 0000 0000 0000 0000 0000 0000 0000
00000060: 0000 0000 0000 0000 0000 0000 0000 0000
00000070: 0000 0000 0000 0000 0000 0000 0000 0000
00000080: 0000 0000 0000 0000 0000 0000 0000 0000
00000090: 0000 0000 0000 0000 0000 0000 0000 0000
000000a0: 0000 0000 0000 0000 0000 0000 0000 0000
000000b0: 0000 0000 0000 0000 0000 0000 0000 0000
000000c0: 0000 0000 0000 0000 0000 0000 0000 0000
000000d0: 0000 0000 0000 0000 0000 0000 0000 0000
000000e0: 0000 0000 0000 0000 0000 0000 0000 0000
000000f0: 0000 0000 0000 0000 0000 0000 0000 0000
00000100: 0000 0000 0000 0000 0000 0000 0000 0000
00000110: 0000 0000 0000 0000 0000 0000 0000 0000
00000120: 0000 0000 0000 0000 0000 0000 0000 0000
00000130: 0000 0000 0000 0000 0000 0000 0000 0000
00000140: 0000 0000 0000 0000 0000 0000 0000 0000
00000150: 0000 0000 0000 0000 0000 0000 0000 0000
00000160: 0000 0000 0000 0000 0000 0000 0000 0000
00000170: 0000 0000 0000 0000 0000 0000 0000 0000
00000180: 0000 0000 0000 0000 0000 0000 0000 0000
00000190: 0000 0000 0000 0000 0000 0000 0000 0000
000001a0: 0000 0000 0000 0000 0000 0000 0000 0000
000001b0: 0000 0000 0000 0000 0000 0000 0000 0000
000001c0: 0000 0000 0000 0000 0000 0000 0000 0000
000001d0: 0000 0000 0000 0000 0000 0000 0000 0000
000001e0: 0000 0000 0000 0000 0000 0000 0000 0000
000001f0: 0000 0000 0000 0000 0000 0000 0000 0000
0.0 0.0 0.0 0.0 0.0 0.0 0.0 0.0
0.0 0.0 0.0 0.0 0.0 0.0 0.0 0.0
0.0 0.0 0.0 0.0 0.0 0.0 0.0 0.0
0.0 0.0 0.0 0.0 0.0 0.0 0.0 0.0
0.0 0.0 0.0 0.0 0.0 0.0 0.0 0.0
0.0 0.0 0.0 0.0 0.0 0.0 0.0 0.0
0.0 0.0 0.0 0.0 0.0 0.0 0.0 0.0
0.0 0.0 0.0 0.0 0.0 0.0 0.0 0.0
0.0 0.0 0.0 0.0 0.0 0.0 0.0 0.0
0.0 0.0 0.0 0.0 0.0 0.0 0.0 0.0
0.0 0.0 0.0 0.0 0.0 0.0 0.0 0.0
0.0 0.0 0.0 0.0 0.0 0.0 0.0 0.0
0.0 0.0 0.0 0.0 0.0 0.0 0.0 0.0
0.0 0.0 0.0 0.0 0.0 0.0 0.0 0.0
0.0 0.0 0.0 0.0 0.0 0.0 0.0 0.0
0.0 0.0 0.0 0.0 0.0 0.0 0.0 0.0

encoder_sol.W_i.weight f4 [128, 147]
00000000: c7f0 ba3b 1bd7 0a3d ebe1 a2bd c85e 36bd
00000010: 532f 39bd 11ba 883b d74b f13b 4aa6 663d
00000020: 8244 ea3c 81d3 f63c 6c63 fe3c f4e9 853d
00000030: e445 a63b 2b85 f33b c585 02bd 4fd7 a8bd
00000040: acf1 013d 450f 223d 12e8 183d 0bb1 f73c
00000050: 028d 70bb 29e4 b33c 735d 3c3c bcea c5bc
00000060: 68bd 20bb d43a a1bd b7bd 623d 153c e63c
00000070: 647d 8fbd e1b6 683d d195 213d d4f1 423d
00000080: eb54 a6bd 8666 b93c bb05 e7bc e2cf 753a
00000090: 27a2 833d 61c0 6f3c 12f4 1e3d 1621 b53c
000000a0: 7b3b 49bd 6c6f 8ebd 6489 673d e1bc a2bd
000000b0: efb3 1e3d b8bd 223c 86be e03c 0854 983c
000000c0: ae11 9d3d 33a3 1e3d 5780 92bd 5af7 d4ba
000000d0: 234f 8dbb 0c08 993d 2fe5 f53c 1693 88bd
000000e0: fc56 74bd 054a 853c 3559 153d f32d f3bb
000000f0: 69c4 37bd c260 1c3d 9f37 383c 91b8 903d
00000100: d24f 103c a0fe 07bd afdc ac3c f50f 693d
00000110: 3041 54bd ea3d 4f3c 7052 38bd 2057 0b3d
00000120: c0d9 6f3d 0c51 923d 2724 463d 6a97 92bd
00000130: 19fa 42bd 8016 04bd 9955 8d3d 152c 1bbd
00000140: c0fc c33c bdee 333c ac17 a1bd d973 7cbc
00000150: f6cd 823d dd75 1f3d 83c9 b1bc 627a 6f3d
00000160: 104f 7c3c e5e3 a03d 344b 46bd 1133 1a3d
00000170: 456a 943c 4ac5 103d 810a 9b3d 3c2f 3d3d
00000180: 35d0 c13c 36e9 7ebd e0d2 ec3c 9f6c c03c
00000190: d443 943d a398 763d 7814 633c ef00 c4bd
000001a0: 03ce c23d 199b 4fbc b299 8ebd e91c 9f3d
000001b0: 4862 153c 44ba 413c 0455 6c3d dcf9 2cbc
000001c0: 3822 bf3b dff8 973d 6fa0 e6bb d036 a13c
000001d0: dcd6 a73c a1ec 023c 0ea5 8ebd 0484 8cbb
000001e0: 3a06 53bd ef22 9b3d 070a b3bd 48f8 a5bb
000001f0: 2853 21bd 0037 5cbd 37da ea3c abda 21bd
00000200: 5bc6 a0bc d87d a03d 9e71 5dbd c346 813d
00000210: 0ffe babd 9fd2 de3c 19ce 203d a5dc c2ba
00000220: fb5a 9dbd 72e4 33bd 8b22 8f3c 4c59 a53c
00000230: c1b8 7b3d 88d8 92bd 72a6 853d 38b0 23bd
00000240: 5d2b a5bc 6b62 1f3d 2891 11bd 7f1b b73d
00000250: d157 223d 18df 793d 393a 863d 0914 363d
00000260: 2e34 d1bc ddc2 c93c e902 3cbd 7b9f 2cbb
00000270: 5b70 4ebd 3759 fbbc f1b2 243d e678 59bc
00000280: f6fc a53b 0804 233d 5b6a fdbc 8c60 953c
00000290: f123 9fbc 1b37 833c 5b3c ce3c ac59 b1bc
000002a0: 7a07 4ebd 395e b53c 0e8c 9b3d b9ae de3c
000002b0: 3902 8dbd 3068 21bd 46db bcbc 094a 903d
000002c0: a2ae 84bd efc4 853c c66c 91bd de3a 1ebd
000002d0: da83 ed3c 56ba c73d c22e 62bd b349 adbb
000002e0: 344e a3bd 093d bcbc 4197 c73b 91e3 a53d
000002f0: 6792 173d c48a f53c cf2d 3f3d d098 8d3c
00000300: 571d 8d3d 1508 6abd 615d a9bc d34c 69bd
00000310: 87ce a4bd 8d29 99bc 64a6 483d 6d58 78bd
00000320: 5ae2 54bd 41d4 88bb fcc0 4f3d 52e3 123c
00000330: 45ee 76bd eadd 56bd 5775 91bc 0c50 9dbd
00000340: c3f8 9bbc 89f9 8d3d e254 a0bc d8e0 cabc
00000350: b38b 7d3c d742 9ebd ae11 8c3c e314 89bd
00000360: 934c 073d 05d9 44bd 8068 223d d8f9 0ebd
00000370: bdfd de3c 9058 71bc 4efc a5bd 39fd 653d
00000380: d4fa 19bd c5f8 a6bc b9f1 ae3c 0885 97bb
00000390: f9d7 52bd cdd9 e93c 5b82 023c 2236 ad3c
000003a0: 4af5 9f3d 174d 01bd 0156 93bd 3527 e73c
000003b0: ba6e a83c 10f8 3abd 7ef8 97bd 4a30 153d
000003c0: 4928 913d a2fa eebc feb8 423d eaa3 92bc
000003d0: 19b7 2abd e840 2e3d a278 09ba 2378 50bd
000003e0: 8537 003b fcc1 a9bd 1e20 66bd fb3e 243b
000003f0: f1f6 da3d 7987 00bd 2362 893c 3a5e 5a3c
0.0057049724 0.033896547 -0.07953247 -0.044523984 -0.045211148 0.0041725715 0.007363777 0.05631093
0.02859712 0.03013015 0.031053267 0.06538764 0.0050742496 0.0074316463 -0.031865854 -0.08244192
0.031724617 0.039565343 0.037330694 0.030235788 -0.003670514 0.021959381 0.011496889 -0.024159782
-0.0024526957 -0.07872549 0.055356707 0.028104821 -0.07006338 0.056815032 0.039449517 0.047593907
-0.081216656 0.022631895 -0.028200975 0.0009376985 0.064274125 0.014633269 0.038806982 0.022110503
-0.04912899 -0.06954846 0.05652751 -0.07946182 0.038745817 0.009932928 0.027434599 0.018594757
0.07669388 0.038729858 -0.07153385 -0.0016248033 -0.0043124123 0.07472238 0.03001651 -0.066686794
-0.059653267 0.016270647 0.036462028 -0.007421249 -0.044865046 0.038178213 0.01124373 0.07066453
0.008808093 -0.033201814 0.021101324 0.056899983 -0.05181998 0.012649039 -0.045000494 0.034018636
0.058557272 0.07144365 0.04837432 -0.07157786 -0.047601793 -0.03224802 0.06901092 -0.037883837
0.023924232 0.010982213 -0.07865843 -0.01540848 0.0638694 0.038930763 -0.021702534 0.058466323
0.015399709 0.078559674 -0.048411563 0.037646357 0.01811708 0.0353444 0.07570363 0.046187624
0.023658851 -0.062234126 0.028909147 0.023489295 0.072395 0.06020416 0.013859861 -0.095704906
0.0951195 -0.0126712555 -0.06962909 0.07769186 0.00911767 0.011824194 0.057698265 -0.010557618
0.0058329366 0.07420515 -0.007038168 0.019679457 0.020488195 0.007990987 -0.069650754 -0.0042881984
-0.05151961 0.075750224 -0.08742147 -0.005064998 -0.039385945 -0.05376339 0.028668506 -0.03951518
-0.019625833 0.07836503 -0.054063432 0.06312325 -0.09130489 0.027200041 0.03925905 -0.0014866783
-0.07683369 -0.043919034 0.017472526 0.020184182 0.061455492 -0.07170206 0.065258875 -0.039962977
-0.020162279 0.038912218 -0.035538822 0.08940791 0.03963453 0.061003774 0.06554074 0.0444527
-0.025537577 0.02462905 -0.045901213 -0.0026340175 -0.05040012 -0.03068219 0.040209714 -0.013273453
0.0050655557 0.039798766 -0.030934503 0.018234514 -0.019426318 0.016017487 0.025175264 -0.021649204
-0.0503001 0.022139655 0.07595073 0.027182924 -0.068851896 -0.039406 -0.023053776 0.07045371
-0.06478621 0.016329257 -0.07100825 -0.03863036 0.028993536 0.09752338 -0.055220373 -0.0052883266
-0.079739004 -0.022978323 0.006091029 0.081000455 0.037004855 0.029973395 0.046674546 0.01728478
0.06890362 -0.057136614 -0.02067441 -0.05695803 -0.080472045 -0.01869657 0.048986807 -0.060631204
-0.05197368 -0.0041756933 0.050721154 0.00896533 -0.060285825 -0.052457727 -0.017756147 -0.07681283
-0.019039517 0.06932361 -0.019571725 -0.024765417 0.015475201 -0.077275924 0.017098274 -0.06693437
0.03303201 -0.04805853 0.03965044 -0.03490624 0.027220601 -0.014730588 -0.08104764 0.056149695
-0.037592724 -0.020382294 0.021355497 -0.004624013 -0.0514755 0.028546238 0.0079656495 0.021143977
0.07810457 -0.03156766 -0.07194138 0.028216938 0.020560611 -0.045646727 -0.07420443 0.036423005
0.07087762 -0.029172245 0.047539704 -0.017900426 -0.04167852 0.04254237 -0.0005244111 -0.05089582
0.0019564342 -0.08288953 -0.056182973 0.0025061953 0.106916316 -0.031379197 0.016770428 0.013328129

encoder_sol.W_i.bias f4 [128]
00000000: f90a 943d 1a74 833d ed82 40bd 1b76 82bd
00000010: 0909 4b3c 2ed8 51bd c9a8 e3bb c304 28bd
00000020: fc54 cbbc 6c5e 0a3d 49d1 95bc e853 ddbc
00000030: 51a3 f7bc bae7 ac3c 6fc9 48bc 4d89 d53c
00000040: 7e44 633d 5a5b 6c3d 3812 863c 205d de3a
00000050: d287 a5bc 231d 6cbb ec0e 5a3d 93c5 38bb
00000060: d9aa 8a3d 5e64 29bd e7a4 a9bd ff13 e23b
00000070: 0142 623d a542 823d a008 5dbd 3338 1fbd
00000080: 98a1 ca3c 97b4 fa3b 0372 55bd 4fdb 62bd
00000090: 4cdb 443d df5b 543b 38b1 28bd bc3c 3bbd
000000a0: 4ae4 ab3d 1b16 a43b 7d75 e5bc a17f 91bd
000000b0: 6e13 713c 1470 5f3d 4dbe b1bd 7bcc 69bd
000000c0: c218 07bd 292c 773c e090 39bb f7c4 84bc
000000d0: f5cb d83c 92ae 7bbc 431a 333d 89be 063c
000000e0: e431 84bb cb65 683d 9d60 9e3c 8270 603d
000000f0: 72a1 73bc 6805 8bbd ea9a 513d 8e6c 72bd
00000100: 334d cc3c ad85 78bc 98de 0dbd 6e58 153d
00000110: f481 84bd f409 acbd 5b50 4abd 0ac0 a4bd
00000120: 8a76 6b3c b8bb 00bd 3a2a 943c a4a1 72bd
00000130: 47f3 1a3d ec9a 19bd 412d 203d 3fc9 1b3d
00000140: bd19 fd3c e21d bf3c 5f28 7f3c c874 ad3b
00000150: efeb 953d 8306 bcbc 085b 83bc d2ea 623d
00000160: e47a 1dbc 05e8 813c b306 9cbd 42f1 14bc
00000170: 21b8 223d 1a16 4cbd 0ac1 783d ec71 87bd
00000180: d741 3a3c 61db 1abd 0a1a 4a3d ae64 463d
00000190: 6351 95bd 988f 053c dcc2 123d 1fcd 413d
000001a0: fa5e 9dbd 8aad e33c f0eb 19bc 4885 cabc
000001b0: 96ab 853c 5024 cdbd 4032 1abd df7b 07bc
000001c0: f28d a0bd 490b 4bbd 00f7 93bd 7b51 1f3c
000001d0: b7c6 303d a5b0 48bc f008 0bbd 47fc 20bd
000001e0: cb9f 42bd fac9 1a3d 0658 553d 4698 fb3c
000001f0: ee57 3f3d e998 87bd 1bd0 36bd 34b8 01bd
0.07228655 0.06418629 -0.04699986 -0.06370183 0.012392291 -0.051231556 -0.006947611 -0.041020166
-0.024820797 0.033781454 -0.018288272 -0.027017549 -0.030229243 0.02110659 -0.012255057 0.026066447
0.05548524 0.057704307 0.01636611 0.0016965009 -0.020206366 -0.003602811 0.053236887 -0.0028193935
0.06770868 -0.041355483 -0.08283406 0.0068993564 0.055238727 0.06360368 -0.053963304 -0.038871955
0.024735257 0.0076509225 -0.052110683 -0.05538493 0.0480607 0.0032403392 -0.041184634 -0.045712218
0.08393152 0.005007518 -0.028010124 -0.071044214 0.014714105 0.054550245 -0.08678875 -0.057079773
-0.032982595 0.015086212 -0.0028315112 -0.016207201 0.026464442 -0.015361445 0.043726217 0.008224138
-0.0040342677 0.056737702 0.019333178 0.054794796 -0.0148700345 -0.067881405 0.05117313 -0.059185557
0.024939155 -0.01516859 -0.03463611 0.036461286 -0.06470099 -0.08400336 -0.04939304 -0.08044441
0.014371524 -0.031429023 0.018086541 -0.059236184 0.037829664 -0.03750126 0.039105657 0.03803372
0.030896062 0.023329679 0.01557359 0.0052934624 0.073203914 -0.022952324 -0.016034618 0.055399723
-0.009611819 0.015857706 -0.07618465 -0.0090907235 0.03972638 -0.049825765 0.06073097 -0.06613526
0.0113682365 -0.037806872 0.04934124 0.04843586 -0.07290914 0.008151911 0.035830364 0.04731476
-0.07684131 0.02779271 -0.009394631 -0.024721757 0.01631717 -0.10016692 -0.03764558 -0.008269279
-0.07839574 -0.04957131 -0.07224846 0.009724016 0.04315826 -0.012249147 -0.03394407 -0.03930309
-0.04751567 0.037790276 0.0520859 0.030712258 0.046714716 -0.06620962 -0.04463206 -0.03166981

encoder_sol.W_h.weight f4 [128, 128]
00000000: 7b9b 3cbd c717 1ebd 9d93 13bd a47f a73c
00000010: c9ff 5ebd 85b8 8fbd 2ef2 40bc 99c6 3cbc
00000020: 61e7 8c3d ef56 51bd 88e5 533d 9cbf 5b3d
00000030: 4e95 5a3a 225b 8c3d 95b5 543b e0ba 1abd
00000040: b9b7 44bc ad30 dfbc 1770 613d 6163 0fbb
00000050: 3afa 9e3c bf08 a9bc 12a9 b1bd e30b 003e
00000060: 0a53 14bd ebf8 03bc 664e 8fbd 48c5 e2bd
00000070: 8c0c 8d3d 7f5e 373d 99ac 9c3d 8af4 cebc
00000080: 3ab4 793c 5fa4 68bd da67 2e3d a563 e1bc
00000090: 9824 5d3d c1ae 1b3a fde3 5d3e 8507 57bc
000000a0: 2a0c 523d 353e 94bd 4c4d abbd caa5 6abd
000000b0: fad7 29bc 064e 71bc cf14 333d b4eb 2dbd
000000c0: 6aac aabd 9fdd 9f3c c8dc abbd e738 a63d
000000d0: 8216 bbbd 3231 6b3d 464b 81bd c0f4 a63d
000000e0: 4d21 af3d 37cd 4a3d 6464 7b3d bddb f4bb
000000f0: 18b8 a5bd b6c3 883d a0ba b7bc 7151 733d
00000100: 5d27 5bbd 3df8 37bc 4de0 753c 705b 1a3d
00000110: 620b 893d 162e e8bc 59ea 9b3d c52e 85bd
00000120: daf9 d83d f103 c2bd aed7 a43c bcf2 44bc
00000130: 8936 f33c 00ff 22bd c810 16bd da4d 3cbc
00000140: 36df 88bc 7d82 2abc 526c a93c 35e5 08be
00000150: 3a76 9ebc fcad 8cbd 026b 02bc 0057 bbbd
00000160: 05d8 343e a946 5f3d 2d88 d73c 09e1 ae3d
00000170: 590f 9f3d faad b23d 18a2 11bd 7e14 99bd
00000180: f569 d0bc d2dd a2bd a6a6 5abd 20d0 7a3d
00000190: fdb0 abbd 9df7 5a3d 2cea 633c 9566 a9bd
000001a0: 87b0 5abd de73 ac3d 84c3 9cbd f5c5 bd39
000001b0: 1874 e1bc 1edc db3c b11f 1dbd 104e af3c
000001c0: 7a32 80bd 8b9a a8bc df72 8dbd 4c3d ac3b
000001d0: 7683 1dbd aa67 503c add0 f13d eec1 97bd
000001e0: 0585 453d 5d5c 92bc 2b66 99bd 48a4 123d
000001f0: 5e6d a8bd 37a5 b43c 79ec babb 450b fdbb
00000200: 3f62 cbbd a3d9 fe3b 7078 29bd 105f 76bd
00000210: e748 42bd 2139 19bb a9a6 09be 1c33 583d
00000220: a61e 13bd e67a abbd 9d4d 123d 45bd 73bc
00000230: 7bf8 37bd 8756 cb3c c8ce 8d3c f83b 413d
00000240: e7df b1bd f7ea 0c3d a695 813d 20da 94bd
00000250: ee9b e53c 2f05 6abd 0ae7 d9bc 4258 06bb
00000260: 62c6 44bd 5662 423d 65cc 923d 2e79 a9bd
00000270: f183 163d b148 5cbb e827 8ebd 6ec3 c8bc
00000280: a5e7 863d 9078 61bd abd3 f7bd 5489 243d
00000290: d135 4bbc 85e1 1cbd 4b6d c83c 877c bfbc
000002a0: 50a4 323d cb44 853c e144 51bc bd5c 933d
000002b0: 675f c6bd 3942 abbd 1938 a7bd d7d7 a3bd
000002c0: 322b cebd 1d46 33bc fd30 67bd 228f f53c
000002d0: d7d7 91bd 953b a93d 3c2a cdbc 9f32 933d
000002e0: 2ff9 483c 67fa 40bd 76a7 e8bb 6297 533c
000002f0: 95ea 3dbd 32e0 cfbc b9aa 40bd cbf7 e43d
00000300: 4048 07bd f38c ec3c bcce e43c 7901 a0bd
00000310: 62e6 51bd 6acf 5abd 1158 a4bc fedb ab3d
00000320: 3906 2d3d bf57 0cbd 394d 81bd c886 e43c
00000330: c99b 873c bee9 be3c 2daf d4bd c8a9 61bd
00000340: f45b 033c af77 883c 5305 adba 0d98 3cbd
00000350: b032 c6bd e521 95bd f390 063d 1509 133d
00000360: 645c c03d 61f2 72bd 389d 423d 59d9 5b3c
00000370: 5334 6b3b 4d86 86bd 4771 8d3c 7f0f 54b9
00000380: b91f f93c 69cc a83d a3b8 543d de07 40bd
00000390: 5afb 693d 7aaf 313c 910f a6bc e442 aebc
000003a0: 577d 4ebb c505 e93a 838c ac3b 7312 803d
000003b0: 9e8c 60bd 5674 1e3d 843e 7dbd f7f4 bebd
000003c0: 3bab 49bd 6063 a5bd 1cc5 db3b 40fb b4bc
000003d0: 4100 94bd 85b6 32bd 39cc 84bc 267d ae3d
000003e0: dea8 debd 1a2c b1bd b70d a8bd a5aa 96bd
000003f0: d9f8 e83c 219d 913d 88cf de3b 651b 51bd
-0.046046715 -0.038596895 -0.036029447 0.020446606 -0.054443154 -0.07017616 -0.01177649 -0.011521959
0.068800695 -0.051108297 0.05173257 0.05364953 0.0008338288 0.0685332 0.0032456864 -0.037775874
-0.0120066935 -0.02724489 0.055038538 -0.0021879303 0.019406427 -0.020634053 -0.08674826 0.12504534
-0.036212005 -0.008054952 -0.06997375 -0.11072785 0.06887159 0.044767853 0.07650108 -0.02526309
0.015240723 -0.05679738 0.04257951 -0.027513335 0.053989977 0.0005938821 0.21669002 -0.013124351
0.05128113 -0.072384275 -0.083643526 -0.057287015 -0.010366434 -0.014728075 0.043721016 -0.042461112
-0.083336666 0.019514857 -0.0839172 0.08116322 -0.091351524 0.057419963 -0.063131854 0.08152151
0.085512735 0.049512114 0.061375037 -0.007472484 -0.08091754 0.06677954 -0.022427857 0.05940384
-0.053504337 -0.011228618 0.015007091 0.037684858 0.06691624 -0.028342288 0.07613058 -0.06503061
0.105945304 -0.09473408 0.020122375 -0.012020763 0.02968909 -0.03979397 -0.036637098 -0.011493171
-0.016707998 -0.010407087 0.020681534 -0.13368686 -0.019343484 -0.068691224 -0.007960083 -0.09147453
0.1766053 0.054510746 0.02631005 0.08539016 0.07766599 0.0872459 -0.035554975 -0.07474612
-0.02544115 -0.07952465 -0.053381585 0.06123364 -0.08383367 0.0534588 0.013910811 -0.08271519
-0.053391006 0.084205374 -0.07654479 0.0003619638 -0.027521178 0.026838358 -0.0383603 0.021399528
-0.06259628 -0.020581504 -0.069066755 0.0052563306 -0.03845545 0.012720028 0.1180738 -0.07410036
0.04822256 -0.017866308 -0.0749019 0.035801202 -0.08223985 0.022051437 -0.0057044593 -0.0077222907
-0.09930848 0.007777409 -0.041374624 -0.060149252 -0.047432806 -0.0023379999 -0.13442482 0.052783117
-0.0359179 -0.083730504 0.03571855 -0.014876668 -0.044914704 0.024821533 0.017310515 0.04717633
-0.08685284 0.034403767 0.06327371 -0.072681665 0.028028455 -0.05713385 -0.026599426 -0.0020499383
-0.048040755 0.04745706 0.071678914 -0.08275066 0.036746923 -0.0033612663 -0.06941205 -0.02450725
0.065871514 -0.055046618 -0.12100919 0.04017003 -0.012402968 -0.03830101 0.024466177 -0.023374809
0.04361373 0.016268155 -0.01277277 0.07195423 -0.09686165 -0.0836224 -0.08164997 -0.080001526
-0.100668326 -0.010942009 -0.056443203 0.029975478 -0.07121246 0.082633175 -0.025044553 0.071873896
0.012266441 -0.047113802 -0.007100041 0.01291451 -0.046366293 -0.02537546 -0.047037814 0.11180075
-0.033027887 0.028875804 0.02793061 -0.07812781 -0.0512451 -0.05342046 -0.020061525 0.083915696
0.042242263 -0.03426337 -0.06313557 0.0278963 0.016553776 0.023304816 -0.10384975 -0.055093557
0.008017529 0.016658632 -0.0013200439 -0.046043444 -0.096776366 -0.072818555 0.032853078 0.035897333
0.09392622 -0.05931318 0.047513217 0.013418519 0.0035889342 -0.065685846 0.017265929 -0.00020223668
0.030410634 0.08242113 0.051933896 -0.046882503 0.057124473 0.0108450595 -0.020271095 -0.02127213
-0.0031507814 0.0017778209 0.0052657737 0.06253519 -0.054821603 0.038685165 -0.061827198 -0.09324067
-0.049235564 -0.08075595 0.006706847 -0.022092462 -0.07226611 -0.043631095 -0.016210662 0.08519964
-0.108720526 -0.0865099 -0.08205741 -0.073567666 0.028438972 0.07110048 0.006799642 -0.051051516

encoder_sol.W_h.bias f4 [128]
00000000: ae7d 8abd c560 593c 8fe7 64bd 7ba8 b13d
00000010: 213a abbd c4bd b1bd c845 983a 75ad 56bd
00000020: f77b 233c 425c cf3c 7287 b8bc 6981 c63c
00000030: 2d30 90bd 28de 4bbd 58b5 ccbc 57a6 27bc
00000040: 11c7 8f3c d8dc 783d 2a90 033c 694e f7bc
00000050: cce9 a23d 2bc0 ddbc 6e3a 3ebd 5e94 2b3d
00000060: b90d c739 0dbf f73c c442 973d 365e 2fbd
00000070: 87e0 ba3d b3b3 30bd 7a3b 8f3c fdf4 8abd
00000080: fdf1 82bd 8c2d a53a 0c6a 4e3d 43aa 593b
00000090: 3ada 4ebc 5916 8fbc fc55 02bd 1cd2 8f3d
000000a0: 1e0a 26bd 9631 7a3d 03d9 a03d 2aeb 20bd
000000b0: b92d f43c efa1 443d db6b 993d 248a 6b3d
000000c0: 1a79 dbbc 37ab e3bb a789 173d c036 9bbc
000000d0: c646 2c3d 9eb9 86bd d405 71bd 90ac 90bd
000000e0: 7564 49bb 0b27 493d 3bb7 a4bd da4e a5bd
000000f0: 55df f43c ec42 563d 8869 a43d 5e6a 29bd
00000100: 4364 873d 0159 d93c d753 7fbc 069b c23b
00000110: b13b 853d 13f2 1d3b d13a 34bd 4e16 6f3d
00000120: deb4 5dbc 7fe0 823d bc48 2abd 2f5f fabc
00000130: c79b 003d ceeb 89bc 8d73 5a3d 8150 d93c
00000140: 8534 36bd 2f75 89bd 0972 4abd 5228 423c
00000150: b02e 913d 9d8f 98bc 7df3 05bd 256d a8bd
00000160: 5b26 d63b fec7 0e3d 5982 903c 3ffb 7d3d
00000170: 72d6 0f3d 937c 68bd 7572 9abd 3080 a03d
00000180: 0460 50bd 4780 5a3c 1c36 64ba 2e7d 7bbc
00000190: 8784 dc3c 9467 6cbc 3f95 253d f407 993c
000001a0: 391b 793d 9f89 a93d 6afc 073d 9565 803d
000001b0: 2f25 bfbd b2fe 903c 5bf5 5f3d 8fce 613c
000001c0: 186b 6abd e418 2a3d ff9c b93c b80f 91bd
000001d0: 21fa 62bd aa3f d1bc 5ea1 e9bc eea4 87bd
000001e0: fa91 933d bf4a 4e3d 3462 143d 4838 d53c
000001f0: 9ea9 7fbd e44a 17bd 975e 96bd 317c 823d
-0.06762253 0.013267701 -0.055884894 0.08674713 -0.083606966 -0.08678773 0.0011617476 -0.052411515
0.009978286 0.025312547 -0.022525523 0.02423163 -0.07040439 -0.04977241 -0.024988815 -0.01023253
0.017550977 0.060757488 0.008029977 -0.030188756 0.079547495 -0.027069172 -0.04644244 0.04188954
0.00037966462 0.030242467 0.073857814 -0.042814456 0.091248564 -0.043140125 0.017484415 -0.06785009
-0.06393812 0.0012602075 0.050394103 0.0033213056 -0.012625271 -0.01746671 -0.031820282 0.07022497
-0.040536992 0.061082445 0.07853892 -0.03928677 0.029806959 0.048005994 0.07491275 0.057504788
-0.026791144 -0.0069479006 0.03699651 -0.018947005 0.042059682 -0.065783724 -0.05884345 -0.07064164
-0.0030730043 0.0491095 -0.08042761 -0.0807168 0.02989165 0.052309915 0.08027941 -0.041361205
0.0661092 0.026531698 -0.015583954 0.0059388904 0.06505526 0.0024100586 -0.044001404 0.05837088
-0.013531892 0.063904755 -0.04157327 -0.030562965 0.03139856 -0.016836073 0.053332854 0.026527645
-0.04448368 -0.06711804 -0.04942516 0.011850433 0.07088983 -0.018623168 -0.03270291 -0.08223943
0.006535334 0.034858696 0.01764028 0.062007185 0.03511662 -0.05675943 -0.07541362 0.0783695
-0.050872818 0.013336248 -0.00087055727 -0.015349669 0.026918663 -0.014428992 0.040425535 0.01868055
0.060816977 0.08278202 0.033199705 0.06269375 -0.09333264 0.017699573 0.05467735 0.013782158
-0.05723104 0.041527644 0.02265787 -0.07083076 -0.055414323 -0.025543053 -0.028519329 -0.06623255
0.07205577 0.050364252 0.036226466 0.026027814 -0.06241762 -0.036936656 -0.0734226 0.06371344

encoder_sol.W_o.weight f4 [128, 261]
00000000: f12b 663d 0c80 6a3d fa04 21bd 1f8b 113d
00000010: b47a b93c 953f 44bd 2060 63bd bd2c 26bc
00000020: 8e71 7ebd 2f30 37bd 2b3a 5bbd 34ef c8bc
00000030: b0c2 023d a565 023b 77b1 27bd 1c49 883b
00000040: 944c 5a3b b5c3 7abd 3cec adbb af9b 213c
00000050: dfc6 1d3c 7d64 20bd bed7 3d3d f7a8 243c
00000060: e85f bcbc 5812 19bd b8f2 1b3d c8a1 4fbd
00000070: c993 9abc fb2d 693d a2e8 e1bc e1d7 c13c
00000080: 2978 e2bc 5ed1 b2ba 26ac 8ebb 5562 603d
00000090: 035d 023c 735e e93c a425 03bd ba48 863c
000000a0: 2f7b 723d 8f98 cdbb 9932 0abd 7665 04bd
000000b0: 60df 123c c48e 4a3d cd7e 92bc 2713 71bd
000000c0: 3890 1a3d 1c52 50bd 5769 a33c a461 2cbd
000000d0: 27ff 0f3d 0eed e23b 8224 be3c ff34 253d
000000e0: 2ea8 073d 3366 caba b188 3f3d c524 043d
000000f0: 032e 88bc be59 bdbc 2924 35bd 953d c53c
00000100: 0b23 afbc 833b 513c b48b 7dbb b68a 793d
00000110: cb36 9739 5285 d3bc 3746 363d 36a9 0a3d
00000120: 16d4 c5bc 7638 5fbc a243 d2ba 70a1 193d
00000130: 1ae3 21bd bade 00bd 3fbf 2e3c 4615 133d
00000140: ce47 063d 946d b03c 9de2 eebb 6576 603d
00000150: 8037 593d 67d4 2f3d 84df ea3c 2885 67bd
00000160: dc63 ddbc 9205 2d3c 1270 963c e66f 563d
00000170: 8d35 14bd 643a 793d d158 333d 9eb9 053c
00000180: 0aae 4fbd f6de 65bd 2c8e 693d a5b1 27bd
00000190: 54d0 ec3c c739 3d3d 850a a23c c56a 3bbd
000001a0: a1b7 89bc 82f5 363d d919 253d 059b 443c
000001b0: 451f a43c 12e3 323c 316c 403c 4b05 6bb9
000001c0: 1327 01bc b444 d13c 4c1e 2f3d 9771 d5bc
000001d0: b5e6 04bd f07a ab3c 0655 3dbc 366d e0bc
000001e0: 4535 85bd db0d 85bd 98fe 253d 2f56 08bb
000001f0: 771e 67bd 47f6 21bd f02b 373d 4886 343d
00000200: 5a7a 21bc 1caf 203c f5cc bb3c bf79 32bd
00000210: abcc 1b3d 64cc ccbc bd3a 18bc 4772 483d
00000220: 1be9 513c 9268 66bd dfd5 81bc 9d4a 10bd
00000230: a6cf 2dbd 8d57 513d ea2e 503d 2d70 843c
00000240: f44e 633c 7f17 483d 5809 3c3d 01ae 293c
00000250: de3d 413c 44fb 103d 8551 36bd 88b8 5cbd
00000260: ce81 d7bc c3a3 cbbc b710 1d3c 10ee 00bd
00000270: 9a3a 82bd c824 033b f6a4 3d3d 3e3d 35bc
00000280: 8183 49bd fa29 bbbc 96e4 0bbd 96a6 bfbc
00000290: 21ff 563d 1052 2b3c e3e4 29bd 78a7 89bd
000002a0: 3cc0 7cbd 86ce 4939 f24b 22bd d4cc a4bb
000002b0: 5dab 1ebc 742a 2cbd db22 2cbd b002 62bb
000002c0: 9977 ba3c 3a92 e8bc bb05 9cbc 2a29 423d
000002d0: 0a1f 92bd 60d1 17bd 4ca7 fb3c 7256 3bbb
000002e0: 5386 35bd 3371 053c e9e2 f73c a702 cabc
000002f0: 699e 58bd e9a0 f9bc ce64 53bd 2dc6 7d3c
00000300: 64bb 27bd 0bfc 5fbd f18d 7abd b64c f4bc
00000310: d698 183d 5a4c 203d 7e24 2bbd 5dd0 08bd
00000320: 0bcf 903c 33eb 0bbd dad2 f73c 2b90 e13c
00000330: 4f01 20bd 0bb5 c63a a3d3 afbc 40d4 223c
00000340: aac3 03bd 2804 6d3d adef 1a3d b61d 303d
00000350: fdb8 89bd 7d62 06bd 3207 073d d7ff aa3b
00000360: 371d 133d 3623 fb3c 3f91 3e3d e1ef 21bd
00000370: e8cf cabc 68e0 8ebd 6512 9d3b f39d 1a3c
00000380: 0a3b 59bd 7c6a e53c 8b71 a3bc af6a 823c
00000390: 6189 b5bc 1808 69bd ef82 9ebb baef 6cbd
000003a0: 158e b6bc f8fc a13c 1854 1c3d cc21 d5bc
000003b0: b8f3 dcbc c0c3 61bd de71 253d b9cc ebbc
000003c0: d28c 8a3c 7418 b3bb ad45 1cbd 7315 3a3d
000003d0: 7cad 133d a91c 93bc 6f65 ebbc b36a 093c
000003e0: 0f85 89bd 4701 493d 8d6e 9dbc 5827 2b3d
000003f0: a10d fa3c ba42 b53c 8a33 2cbd 8c28 0cbd
0.05619425 0.05725102 -0.039311387 0.035533067 0.022641517 -0.0479122 -0.055511594 -0.010142502
-0.062120013 -0.044723686 -0.05352227 -0.024528123 0.03192395 0.001989701 -0.040940728 0.004159106
0.0033309804 -0.061221797 -0.0053077023 0.009863778 0.009629934 -0.039158333 0.046348326 0.01005005
-0.02299495 -0.03737101 0.03807327 -0.050691396 -0.018869298 0.056928616 -0.027576748 0.02366251
-0.027645187 -0.0013642719 -0.004354018 0.054781277 0.007956746 0.02848742 -0.03201832 0.0163921
0.05919951 -0.00627429 -0.03373966 -0.032323323 0.00896439 0.04945256 -0.017882729 -0.058856156
0.037735194 -0.050859556 0.01994769 -0.042085305 0.03515544 0.006925232 0.023210768 0.040333744
0.033119373 -0.0015441835 0.04676122 0.03226163 -0.016623503 -0.023114081 -0.044223938 0.024077216
-0.021379014 0.012770536 -0.0038688006 0.0609233 0.00028841788 -0.025820408 0.044500556 0.03385278
-0.024148982 -0.013624301 -0.0016041885 0.037507474 -0.03952322 -0.03146241 0.010665714 0.03590896
0.032783322 0.021536626 -0.007290198 0.05480041 0.053031445 0.042927172 0.028671034 -0.056523472
-0.027025156 0.01056041 0.018363986 0.05235281 -0.036183883 0.0608467 0.043785874 0.00816193
-0.050703086 -0.056120835 0.05702035 -0.0409409 0.028907932 0.04619768 0.019780407 -0.04575612
-0.016811194 0.04466773 0.040307853 0.01199985 0.020034442 0.010918396 0.011744545 -0.00022413318
-0.007882851 0.025545456 0.042753503 -0.02605514 -0.032446582 0.020932645 -0.011555916 -0.027395826
-0.06504301 -0.06496783 0.040526003 -0.0020803323 -0.056425538 -0.03954151 0.044719636 0.044073373
-0.009855831 0.009807374 0.02292488 -0.043573137 0.038036983 -0.024999805 -0.009291348 0.04893711
0.012811924 -0.05625207 -0.015849052 -0.035227407 -0.042434357 0.051108886 0.05082599 0.01616677
0.013873804 0.048850533 0.04590735 0.010356427 0.011794535 0.035395876 -0.044511337 -0.05388692
-0.026307013 -0.024858361 0.009586505 -0.031477034 -0.063588336 0.0020010937 0.046299897 -0.011061965
-0.049197678 -0.022847164 -0.034153543 -0.023394864 0.052489404 0.010456577 -0.04147805 -0.06721395
-0.061706766 0.0001924579 -0.03962321 -0.0050293 -0.009684411 -0.042032674 -0.04202543 -0.0034486465
0.022762107 -0.028390039 -0.019045701 0.04740254 -0.071348265 -0.03706491 0.030719422 -0.002858546
-0.044317555 0.008144665 0.030259566 -0.024659468 -0.052885447 -0.030472236 -0.051609807 0.015489143
-0.040950194 -0.054683726 -0.061170522 -0.029821735 0.03725513 0.039135315 -0.04178285 -0.033401836
0.01767685 -0.03415985 0.030251909 0.027534565 -0.039063748 0.0015160156 -0.021463221 0.0099383
-0.03216902 0.05786529 0.03782623 0.042997085 -0.06724737 -0.03280877 0.032965846 0.005218487
0.035916533 0.030656438 0.046525236 -0.039535407 -0.02475734 -0.06976396 0.0047934526 0.009437072
-0.05303482 0.028004877 -0.019951602 0.015920011 -0.022160234 -0.056892484 -0.004837386 -0.05784581
-0.022284547 0.019773945 0.038166136 -0.026017092 -0.026971683 -0.055118322 0.040391795 -0.028784143
0.016912851 -0.0054655615 -0.038152386 0.04543061 0.03605412 -0.017958002 -0.02873489 0.0083872555
-0.06714832 0.049073484 -0.019217754 0.041785568 0.030524077 0.022126544 -0.04204134 -0.034218356

encoder_sol.W_o.bias f4 [128]
00000000: 5150 d63c aade f5bc 114b 62bd 16c1 df3c
00000010: 28f7 62bc 3289 99bc 8195 203d 0d18 723c
00000020: c29a 113d e133 00bd 2b6a 493d 63d4 20bc
00000030: f966 32bd 5df9 c03c 9d11 07bd 3ea9 413d
00000040: e319 f63c 7700 74bc d3db 1ebc 2bb3 283d
00000050: fe58 a3bc 1326 afbc dd59 92bd 0bf7 c3bc
00000060: 71da fc3c ae21 1cbd c772 643d 222b dcbb
00000070: e6b4 a6bc f578 523d c164 4a3c bf7b 50bd
00000080: f397 5d3d 2e8e 043d 6161 b7bb 1201 f2bc
00000090: 63d9 2ebd 0f60 c03c 6993 903d 8069 c33c
000000a0: a3e4 4abd 9df0 023d 4f4c 37bd b80d 60bd
000000b0: 190f be3c 9912 10bd b245 2abd f87a dbbc
000000c0: bf82 35bd 26e9 d2bb e92c 07ba eb11 173d
000000d0: 84a9 5d3d 9028 86bd 1501 59bc f417 2a3d
000000e0: a9fe 243d 5f3c 363d c794 8d3d 2857 723c
000000f0: 2491 d6bb 6607 2c3b 0e47 26bd 7c46 1b3d
00000100: a5d0 8b3d bf37 03bc 8bd2 bdbc 69d3 093d
00000110: 13c8 5a3d c817 2bbd 8fca 30bd 75aa 3b3d
00000120: b04b 203d c0ae 3b3d 4903 74bd dfff 27bd
00000130: d30d 123d 84e5 92bc 76bb 363d ddc3 76bd
00000140: 7740 a7bb d307 17bc a217 8cbb bb57 c73c
00000150: a19b afbc 374e 07bc 8c47 0ebd 24bb 34bc
00000160: f1fb 1bbb b283 a2bc 134b 2cbd a38f 36bd
00000170: b490 033d 3679 e43c ff16 5bbc 2ddf 5d3c
00000180: 3b23 adbc 569b 863d 8613 233c aebf 5dbd
00000190: 2ef4 15ba 636b d73c e509 043d 0ad5 fc3c
000001a0: 632c 4a3d 5371 74bc 728e 893d 205c 9ebc
000001b0: fd84 a63c 08f1 053c dc82 8bbc e524 70bd
000001c0: 4054 133d de42 2fbd b1b8 a53c cd9f 1a3d
000001d0: e259 583d 2a9e 4cbc 06e4 993c c68c 49bd
000001e0: e7c3 183d 1fa4 c83c e9d3 2cbd f6c5 b5bc
000001f0: 4cc9 de3c b539 77bd 1b3d 33bb 940e 703d
0.026161345 -0.030013401 -0.05524737 0.02731375 -0.013852872 -0.018742178 0.039205078 0.014776242
0.03554798 -0.031299476 0.049173515 -0.009816262 -0.043555234 0.023556406 -0.03297578 0.047280543
0.03004164 -0.014892689 -0.009695965 0.041186493 -0.019939896 -0.02138046 -0.07146046 -0.02392151
0.03086588 -0.038118057 0.055773523 -0.006719009 -0.020349931 0.051384885 0.012353123 -0.050899263
0.05409999 0.032362156 -0.0055963253 -0.029541526 -0.042687785 0.023483304 0.07059366 0.023854017
-0.04953445 0.031967748 -0.044750508 -0.054700583 0.023200558 -0.035173986 -0.041570373 -0.026792035
-0.044314142 -0.006436485 -0.00051565334 0.036882322 0.05411674 -0.065507054 -0.013244887 0.04152675
0.040281925 0.044491168 0.06913143 0.0147912875 -0.006548064 0.0026249527 -0.040595107 0.037909016
0.06826905 -0.008008896 -0.023171684 0.033648882 0.053413462 -0.041770726 -0.043161925 0.045816857
0.03913468 0.04582095 -0.059573445 -0.041015502 0.035657715 -0.017931707 0.04461237 -0.060245384
-0.0051041204 -0.009218174 -0.004275278 0.024333825 -0.021436514 -0.008258394 -0.0347362 -0.011030946
-0.0023801292 -0.019838188 -0.042063784 -0.044570576 0.03212042 0.02788983 -0.013372182 0.013541979
-0.021134963 0.06572597 0.009953385 -0.054137878 -0.00057202845 0.026296323 0.032236 0.030863304
0.049358737 -0.014919597 0.067166224 -0.019331038 0.020327086 0.008175142 -0.017030172 -0.058628935
0.03596902 -0.04278838 0.02022967 0.037750054 0.052820094 -0.012488881 0.018785488 -0.049206518
0.037296202 0.024492322 -0.04219428 -0.022189122 0.027195595 -0.060357768 -0.0027349654 0.058607653

encoder_solv.cached_zero_vector f4 [128]
00000000: 0000 0000 0000 0000 0000 0000 0000 0000
00000010: 0000 0000 0000 0000 0000 0000 0000 0000
00000020: 0000 0000 0000 0000 0000 0000 0000 0000
00000030: 0000 0000 0000 0000 0000 0000 0000 0000
00000040: 0000 0000 0000 0000 0000 0000 0000 0000
00000050: 0000 0000 0000 0000 0000 0000 0000 0000
00000060: 0000 0000 0000 0000 0000 0000 0000 0000
00000070: 0000 0000 0000 0000 0000 0000 0000 0000
00000080: 0000 0000 0000 0000 0000 0000 0000 0000
00000090: 0000 0000 0000 0000 0000 0000 0000 0000
000000a0: 0000 0000 0000 0000 0000 0000 0000 0000
000000b0: 0000 0000 0000 0000 0000 0000 0000 0000
000000c0: 0000 0000 0000 0000 0000 0000 0000 0000
000000d0: 0000 0000 0000 0000 0000 0000 0000 0000
000000e0: 0000 0000 0000 0000 0000 0000 0000 0000
000000f0: 0000 0000 0000 0000 0000 0000 0000 0000
00000100: 0000 0000 0000 0000 0000 0000 0000 0000
00000110: 0000 0000 0000 0000 0000 0000 0000 0000
00000120: 0000 0000 0000 0000 0000 0000 0000 0000
00000130: 0000 0000 0000 0000 0000 0000 0000 0000
00000140: 0000 0000 0000 0000 0000 0000 0000 0000
00000150: 0000 0000 0000 0000 0000 0000 0000 0000
00000160: 0000 0000 0000 0000 0000 0000 0000 0000
00000170: 0000 0000 0000 0000 0000 0000 0000 0000
00000180: 0000 0000 0000 0000 0000 0000 0000 0000
00000190: 0000 0000 0000 0000 0000 0000 0000 0000
000001a0: 0000 0000 0000 0000 0000 0000 0000 0000
000001b0: 0000 0000 0000 0000 0000 0000 0000 0000
000001c0: 0000 0000 0000 0000 0000 0000 0000 0000
000001d0: 0000 0000 0000 0000 0000 0000 0000 0000
000001e0: 0000 0000 0000 0000 0000 0000 0000 0000
000001f0: 0000 0000 0000 0000 0000 0000 0000 0000
0.0 0.0 0.0 0.0 0.0 0.0 0.0 0.0
0.0 0.0 0.0 0.0 0.0 0.0 0.0 0.0
0.0 0.0 0.0 0.0 0.0 0.0 0.0 0.0
0.0 0.0 0.0 0.0 0.0 0.0 0.0 0.0
0.0 0.0 0.0 0.0 0.0 0.0 0.0 0.0
0.0 0.0 0.0 0.0 0.0 0.0 0.0 0.0
0.0 0.0 0.0 0.0 0.0 0.0 0.0 0.0
0.0 0.0 0.0 0.0 0.0 0.0 0.0 0.0
0.0 0.0 0.0 0.0 0.0 0.0 0.0 0.0
0.0 0.0 0.0 0.0 0.0 0.0 0.0 0.0
0.0 0.0 0.0 0.0 0.0 0.0 0.0 0.0
0.0 0.0 0.0 0.0 0.0 0.0 0.0 0.0
0.0 0.0 0.0 0.0 0.0 0.0 0.0 0.0
0.0 0.0 0.0 0.0 0.0 0.0 0.0 0.0
0.0 0.0 0.0 0.0 0.0 0.0 0.0 0.0
0.0 0.0 0.0 0.0 0.0 0.0 0.0 0.0

encoder_solv.W_i.weight f4 [128, 147]
00000000: adf8 813d 1d18 44bb c7d4 90bb 64f7 803d
00000010: 02ec 9f3d 3551 92bc d14b 3ebd 0916 513d
00000020: a87b 423d 419f 633d bc99 5cbd 4331 fd3c
00000030: a19d 0abd b4ea 163d 940e 8c3d d9bb 193d
00000040: b9ac 96bd 1887 cc3c 9ff8 963d 5770 17bd
00000050: 2252 6bbc 42bf 573d 0ff4 623d 37e5 ff3c
00000060: 1ef6 fabc a00b 6fbd 47a6 1c3d e4d9 8dbc
00000070: e829 5c3d d062 363b 7df0 713c c051 553d
00000080: def7 9abd 20ef aebc bfdf 23bd 119b 6c3d
00000090: 0b00 c5b8 6579 c7bb 7ed3 443d 40b1 82bd
000000a0: b957 563d 0454 5ebc b6c7 ea3c 8f0d a9bc
000000b0: 06bb 7bbd 3ebd a13d e9ca 01bd 4e61 a2bb
000000c0: 5a04 103c e354 46bd eeb5 5b3d 756b 3b3b
000000d0: b6c7 80bc eb90 9ebd 4851 9cbd dae6 3cbd
000000e0: 9cb9 163d 9ac2 7bbd 58fb 96bd 5905 69bd
000000f0: 8192 843d ae72 203d 8db5 c93a 13c2 163d
00000100: dcc9 a63c 8af2 deba 1f05 a8bd 1d0a 813d
00000110: 91d5 a0bd e002 c13c 1280 0abc 8582 883a
00000120: 29fb 143d 0ade 123d 54ee 9bbd d492 783d
00000130: f00f 51bd 8397 8cbd 958b 5a3d 6e0e 21bd
00000140: 501b 4fbc acf8 5a3d ef06 ad3c acb7 8c3d
00000150: ecb1 efbc 1fab 66bd b778 c43c 1780 57bd
00000160: e29d d13c aa9b 2a3d fa19 49bd de27 32bc
00000170: fb0c 98bd afff 853d e097 a63d 6e7c 0d3d
00000180: 2b65 6cbd 3446 8c3d b6e4 3ebd f036 433d
00000190: c7ca 1abd 05d5 e33c 726b 14bd 2431 c0bd
000001a0: 765a 383d d505 a0bd ffc8 2dbd a747 2e3b
000001b0: 9b1b 85bd 460c 75bd 5107 8ebc a28f 75bd
000001c0: da2f 51bd fa30 89bd 5f31 293d c678 84bd
000001d0: 190e 7e3c 1aae 47bb 751d 61bd e9de 7dbc
000001e0: 7986 14bd ea91 f33b 9125 3e3d 0671 98bd
000001f0: c9c8 513d a9e2 8b3d f803 303d 4c92 18bd
00000200: dc38 77bd c209 99bd f014 223d 3e8a 8fbc
00000210: 9211 3dbd a076 0d3d f4f3 acbd 5c02 013d
00000220: bc50 21bc 8a43 933d 0691 7b3b 37c9 9dbb
00000230: 335c 1f3c 37f2 21bd c7bf 833d ce72 46bd
00000240: b716 55bd 6480 74bd fff1 aa3c 18a1 4939
00000250: 43ea 9bbd d5d5 943d 1bf0 8cbc 0498 8bbd
00000260: a54b 82bd b6d8 9dbd 2019 f6ba 327e 1dbd
00000270: 0c3c 333d ae1f 12bb 0640 16bd 0835 973d
00000280: af10 713c c4cd 483d 259d 933c f0b3 163d
00000290: dea2 debb 7410 73bd 5346 d5bc 8aef fa3b
000002a0: 6eef 5c3d b346 8c3d 670c 8cbd 992e 9bbd
000002b0: cd24 463d 610f 7fbd fef6 77bd eecc a03c
000002c0: 53dd a83d 4e51 00bd e683 bd38 a9ab 10bd
000002d0: 9292 953c 3712 3b3b bdec 80bd 41d6 a8bd
000002e0: 34ee 8b3d 2507 673d b688 4fbd 9e4e c93a
000002f0: baf4 99bd 2eaf 88bd 7f0e cbbc 92ea 903c
00000300: 7ff2 f33a 1426 5c3d 404b 3bbd 510a 98ba
00000310: 51cd a4bd 7322 81bd e697 91bd 8b05 663d
00000320: 88b5 60bc b9c3 3c3c fa43 39bd c832 083d
00000330: e5fe 783d 7cf8 bdbc 7423 a3bd 7396 603d
00000340: fdd2 8c3b 6e27 a7bd 9e26 15bd c836 50bd
00000350: e6e1 8fbd 1d56 333c 25e3 4abd cfff 9cbd
00000360: 913b 923d aeb1 9fbc e102 293c 14c3 40bc
00000370: 6f7e 993d b863 5e3d 73eb 4fbc 6f55 6fbd
00000380: f73c 1abd 4019 6d3c a950 3dbd 96ab 9d3d
00000390: e242 823d aaa1 62bd 2ade a13b 1036 5abc
000003a0: e3e0 a8bd d8a2 b53c 76ac 8d3d af58 2b3c
000003b0: b9af 8d3c 53f6 203d 907c 1f3c c41d 2f3b
000003c0: 3868 1bbc 7502 eb3c fcdd a6bc 4d88 df3c
000003d0: 4c27 0bbc 795d 14bd fa38 78bd c92b 2e3d
000003e0: 9dc7 04bd a0b1 4d3d ba70 87bd 152e 3dbc
000003f0: bb14 9a3d a5b2 c63c 81d5 1b3c 6518 f1b9
0.06346259 -0.00299216 -0.0044198963 0.06297186 0.07808687 -0.017860988 -0.046459023 0.051046405
0.04748121 0.0555718 -0.05385755 0.030907279 -0.033841733 0.036844924 0.06838718 0.03753266
-0.07357163 0.024966761 0.073716395 -0.03697237 -0.014362844 0.052672632 0.055408534 0.031237228
-0.030634936 -0.058360696 0.038244512 -0.017315812 0.053750902 0.0027829893 0.0147668095 0.052079916
-0.07566808 -0.021354258 -0.040008303 0.05776507 -9.3937e-05 -0.0060874694 0.048053257 -0.06381464
0.052329753 -0.013569836 0.028659683 -0.020636348 -0.061457656 0.07897423 -0.03168765 -0.0049554473
0.0087901 -0.048420798 0.0536403 0.0028597985 -0.01572023 -0.07742485 -0.07632691 -0.046118595
0.036798105 -0.061464883 -0.07372159 -0.056889866 0.06473256 0.039171867 0.0015389189 0.036806177
0.020359926 -0.0017009538 -0.08204102 0.06300757 -0.078532346 0.023560941 -0.008453386 0.0010414874
0.036372337 0.035856284 -0.07613817 0.0606869 -0.05104059 -0.06864836 0.053355772 -0.0393204
-0.012640789 0.05345981 0.02112147 0.0687097 -0.029259644 -0.056315538 0.023983343 -0.05261239
0.02558798 0.04165236 -0.04909704 -0.010873763 -0.07424351 0.065429084 0.081344366 0.034542494
-0.05771367 0.06849328 -0.046604834 0.047659814 -0.03779104 0.027811537 -0.03623528 -0.09384373
0.045008145 -0.07813612 -0.042428013 0.0026593 -0.06499406 -0.059826158 -0.017337473 -0.059951432
-0.051071025 -0.06698795 0.04130685 -0.06468348 0.015506291 -0.0030468763 -0.054959733 -0.01549504
-0.036261056 0.007433166 0.046422545 -0.074434325 0.051216874 0.06830341 0.042972535 -0.037248895
-0.06035696 -0.07472564 0.03957075 -0.017521974 -0.046159334 0.034536958 -0.08444968 0.03149639
-0.009845909 0.071906164 0.0038386001 -0.0048152464 0.009726572 -0.039537635 0.06433063 -0.04844933
-0.052023616 -0.059692755 0.020867346 0.00019228866 -0.07613041 0.07267348 -0.017204335 -0.06816104
-0.06362084 -0.0770735 -0.0018775798 -0.038450427 0.043758437 -0.0022296715 -0.03668215 0.07383162
0.01471345 0.04902436 0.018019268 0.036792696 -0.0067943176 -0.059341863 -0.02603451 0.00765795
0.053939275 0.06849422 -0.06838303 -0.07577247 0.04837494 -0.062270526 -0.060538284 0.019628968
0.08245339 -0.03132754 9.03679e-05 -0.035319958 0.018258367 0.0028544792 -0.06295154 -0.08243991
0.06832543 0.056403298 -0.050667487 0.0015358513 -0.07517381 -0.06674038 -0.024787186 0.017689977
0.0018611698 0.05374725 -0.04572606 -0.0011599754 -0.080469735 -0.06305399 -0.071090505 0.05615763
-0.013715155 0.011521273 -0.045230843 0.033251554 0.06078996 -0.023189776 -0.079657465 0.05483098
0.0042976127 -0.081618175 -0.03641378 -0.050833493 -0.070255086 0.010945824 -0.04953303 -0.07665979
0.07140268 -0.019493904 0.010315628 -0.01176526 0.074948184 0.054294318 -0.012690413 -0.058431085
-0.037655797 0.014471352 -0.0462195 0.07698743 0.06360413 -0.055329956 0.004939814 -0.013318554
-0.08246019 0.022172377 0.0691766 0.010458156 0.017295705 0.039297413 0.009734288 0.0026720623
-0.009485297 0.028687695 -0.020369522 0.027286673 -0.008493256 -0.036221955 -0.060601212 0.042522226
-0.03241693 0.050218225 -0.06613298 -0.011546631 0.07523485 0.024255106 0.0095113525 -0.00045985277

encoder_solv.W_i.bias f4 [128]
00000000: 0aa5 813d 9078 63bd 0273 cf3c 9985 233d
00000010: 3bee 6a3d 9d9c ba3c 592d fd3c a487 adbd
00000020: 8287 d0b8 cd23 08bb 2b29 583d 3c47 88bd
00000030: ac38 9abd 00bf d63c 413c 9cbd b72a e53b
00000040: 4b2b a53b 17ee 483d c02f c03c ecfd 2f3c
00000050: f508 d23c 4106 843c b9b8 873d 7014 8bbd
00000060: 3945 693c bb53 0f3d a0b0 15bd 9737 94bd
00000070: b64f debb 2d11 533d bbf7 9cbb 5bac b13c
00000080: 8008 70bc fd6a 97bd 36b1 dcbb 484f c03b
00000090: 8d86 ad3c 02a6 4f3d 0c16 38bd 7b31 0c3d
000000a0: 4d74 9dbd eae5 c0bc 39f2 b3bd 1edd 2bbd
000000b0: b5ac 8d3d ba95 64bc 5fc8 e4bb ad92 513c
000000c0: 93c0 40bb c6ca bc3b 0c30 733d 59a1 4fbd
000000d0: 0760 54bd e4a4 d9bc 191c 37bc 9e1f 093d
000000e0: f28a 25bd 9527 35bc d432 6b3d dfd6 93bd
000000f0: daeb 8ebd 3329 473d 81ec b83c 2daf 9ebc
00000100: 9638 82bd f055 f8bb 9980 56bc 8729 453d
00000110: d715 8abd ebf1 fe3c 52dc ebbc c3c7 713c
00000120: 9592 c0ba b548 39bc b340 b7bd 382e 303c
00000130: 7aa1 303d ac95 7f3a 5048 dc3c 0e07 173d
00000140: ce16 9cbd 01e8 c63b bfb2 783d f165 52bd
00000150: 91cf 943c 47c6 6d3d 74f7 83bd 2a48 6b3d
00000160: aedb 933d 71a3 09bc ea50 6abd d800 8dbd
00000170: 2cfa d2bc 38d8 733d 4198 70bc 5899 aa3b
00000180: a852 943c 60ea 813d 231a 87bd b293 083d
00000190: 36a6 b8bc f60c 1f3d 7995 193d 71f4 873c
000001a0: e69c 0d3d 65dd 103c 5686 3d3c bb19 f53c
000001b0: 6eac 2d3c dbf1 963d 8bb7 86bb 56ba 303d
000001c0: 3c01 093d b201 7fbd ddc7 abbc 580e 9b3c
000001d0: dd18 51bb f159 d6bb 7ed3 dfbb c163 1ebd
000001e0: 79a5 5fb9 2186 513b 0a4e c2bc 8ef3 2dbd
000001f0: 2efe 283d a1e4 8c3c 4619 993d 130d 20bc
0.06330307 -0.0555349 0.025323395 0.03992233 0.0573561 0.022779757 0.030905413 -0.08473137
-9.943453e-05 -0.0020773292 0.052773636 -0.06654212 -0.075303406 0.026214123 -0.0762868 0.0069936174
0.0050405613 0.049055185 0.023460269 0.010741692 0.025639037 0.016116263 0.0662703 -0.067910075
0.014237695 0.03499196 -0.036545396 -0.072371654 -0.0067844046 0.051530052 -0.004790274 0.02168863
-0.014650464 -0.07393453 -0.0067349924 0.005868826 0.021182323 0.050695427 -0.0449429 0.034226876
-0.07688198 -0.023547132 -0.08786435 -0.04195892 0.06917707 -0.013951713 -0.006981894 0.012791318
-0.0029411658 0.005761477 0.059371993 -0.050690982 -0.05184939 -0.026567884 -0.011176133 0.033477418
-0.04041571 -0.0110568 0.05742152 -0.07218718 -0.06978579 0.048623275 0.022573711 -0.01937064
-0.06358449 -0.007578604 -0.0130921835 0.048135307 -0.06742447 0.031121215 -0.02879158 0.0147571
-0.0014692122 -0.011308839 -0.08947887 0.010753207 0.043122746 0.0009749781 0.02688995 0.036871962
-0.07621537 0.0060701375 0.06071734 -0.05136675 0.018165382 0.05805042 -0.06443682 0.057441868
0.07219635 -0.008400784 -0.057206072 -0.068849266 -0.025754057 0.059532374 -0.014684738 0.0052062683
0.01810582 0.063435316 -0.06596782 0.03334398 -0.022540193 0.03883072 0.037496064 0.016596051
0.034573458 0.008841847 0.011567673 0.029919496 0.0106001925 0.07370349 -0.0041112355 0.043146454
0.033448443 -0.062257476 -0.020969326 0.018927738 -0.0031905689 -0.0065414836 -0.0068306318 -0.03866935
-0.0002132858 0.0031970816 -0.023718853 -0.0424686 0.04125803 0.017198863 0.07475524 -0.009768742

encoder_solv.W_h.weight f4 [128, 128]
00000000: 6252 e7bc 2ed0 47bd 94e1 cc3c a651 4f3d
00000010: d8b3 dfbd 3e17 d9bc bd3a 973c 7230 3ebc
00000020: 0943 1d3d bf0d fab9 fef8 033d e41c 11bd
00000030: 8a89 283d 9b86 16bc 1e93 413c cc44 38bd
00000040: 4502 a4bd d768 5cbd 25f1 bbbd 0648 0bbd
00000050: 63e0 0d3d 8ecf c5bd 1519 a5bd b9b0 04bd
00000060: 3e0b a13c 1c4a 82bc 14ee cbbd e9a5 ba3d
00000070: 4c65 5ebd fee4 8c3c 2d12 85bd 90d0 783d
00000080: 2948 c8bd 77c8 3dbc 9e9c ff3c 6f95 383d
00000090: 9e12 1a3d c5b5 6e3d 6f55 65bb 8286 dbbc
000000a0: 4087 32bd 3179 b6bd d54f 1fbd 5401 78bd
000000b0: 71f3 653d 3ff9 d2bd 19cb b33c fa1e 2a3c
000000c0: a4e2 b03d 9cd7 c9bd 967e 193c e44f 9d3d
000000d0: 31bc 763d f70c 80bd 2d89 33bd dd05 4b3d
000000e0: 0495 083b 332c 10bd affb e2bd 7c0c b0bd
000000f0: ba4e b63c 99a1 88bd cff7 babc dcdd 4a3d
00000100: b2a7 78bd a73f 813d 9033 5b3d 7a77 9bbd
00000110: 1cd4 e73b 20aa cbbd b488 cfbd 8765 67bd
00000120: ca0c 97bb 7a6c 5dbd 36ec bf3c f799 e93c
00000130: 1b0e fbbb 16b2 85bc 61e3 eebc 9747 04bd
00000140: 5c6a 443c 50df 873d 2f93 c0bb 1d9d b13d
00000150: 658e 233a 562b 723d 94a8 78bd e236 193d
00000160: 0946 b5bd 49cb 6f3d 742b 0bbb 503b 1e3d
00000170: 7f43 113d 2e16 4e3d d8b4 543c 24c9 96bd
00000180: 2b1e 6f3d 352f bebd 7e40 55bd da1b 0e3d
00000190: 5fa9 583d 7d3a 42bd 8bc0 b23c 140e 51bd
000001a0: a427 4ebd 2cd8 8a3d 8ae3 d7bd 4a00 81bc
000001b0: 52da 9bbd 0360 223b 840a c6bd 192f 0c3d
000001c0: 8b4b 6d3c 9e7c 5ebd d4a4 28bd b02d 363d
000001d0: 1618 a5bd 5dd3 7cbd b8d3 3c3c 707d 91bd
000001e0: b2ac 47bc 55e1 a5bd aa87 38bd d4aa 66bd
000001f0: 11f5 cdbd c7f2 bb3c cd2a 81bd 2dde 673d
00000200: b5ac 643d b1e1 833d 086d 38bc 2edf 1fbd
00000210: 6d07 00bd b53f c73b 5a5c 47bd 4bfc 573d
00000220: 2913 cf3c 9d8e f2bc 0b4f 46bb 37b6 2a3d
00000230: 962a b4bd 0bb7 4cbc 276d b0bc 4788 903d
00000240: 056c a93d 9e99 00bc b6c9 95bb 3f74 033d
00000250: c190 83bd 27e4 a83d 06f9 15bd 528c 20bd
00000260: ebb6 0bbc d958 453c 4452 783d e697 3fbd
00000270: e60e 3cbd b4bc 033d d9bf 81bd 9359 d43c
00000280: cb4f 313d 44bf b0bd bcab 91bd bba5 7ebd
00000290: 470e e53b 99ae fe3c 133b f23c c008 88bd
000002a0: 19e7 d1bc b934 7b3d 9367 1f3c 1c16 d73a
000002b0: 2d6e e53b 594c ac3b a4f4 87bd 74c6 adbc
000002c0: a724 0abd 0557 93bd c6c5 9e3c e17a 8abd
000002d0: c7f2 22b9 5ead c5bc cb6c 5a3d c087 d6bc
000002e0: 97a7 45bc 11df 63bd 7c45 a8bc 7c22 ac3c
000002f0: d34f 33bc 105b 6d3d 3362 96bc f2d5 9b3d
00000300: d425 2e3d f946 3e3d 1379 173c 1e58 f1bc
00000310: 06ee 973d c342 8f3d 81cf 35bd ccd8 de3c
00000320: f953 063c e798 373d 0919 073c dfca a53d
00000330: e21f 123d 9f55 133d 9ee3 bebd a1e2 e6bc
00000340: ae80 97bd 8c7a 0abd 41de 563d f969 f93b
00000350: 8abe b5bd 7d5e 20bd df8a 023d 1c46 ac3c
00000360: d121 9dbd ea3e 0abd c532 ac3c d8aa 86bd
00000370: 0b4d ccbc 20bf 90bd 9846 a0bd df8c 9d3d
00000380: f44f 4dbd ea1c 98bd d316 5e3c 79f7 e0bc
00000390: eca3 99bb 2e1d 22bd 337d efba 7686 92bd
000003a0: c564 923d a637 ab3d 94cd 853d 71f2 44bd
000003b0: 432a 043d 52f7 7fbc 676c a03d dd91 93bd
000003c0: d7a8 003b 087f 6c3d be1f c4bc ec08 a6bd
000003d0: 9110 2ebd f96c 05bd f046 a73d df7c 8a3c
000003e0: b877 48bd cf22 43bd e89f 33bd 76e5 4d3c
000003f0: 49dc c13b 0bee 02bd 2b76 99bc 97ed 7c3b
-0.028237525 -0.04878252 0.025009908 0.050614975 -0.10922974 -0.02650034 0.018460626 -0.01160823
0.038394008 -0.00047693957 0.03221988 -0.035427943 0.041146792 -0.009187366 0.011814861 -0.044987485
-0.080082454 -0.05381092 -0.09176854 -0.034004234 0.03463782 -0.096587285 -0.08061425 -0.0323951
0.019658681 -0.015904479 -0.09957519 0.09113676 -0.054295823 0.017199036 -0.064976074 0.060745776
-0.097793885 -0.011583439 0.03120261 0.045064386 0.03761541 0.058278818 -0.003499355 -0.026797537
-0.043586016 -0.08909834 -0.038894493 -0.06054814 0.056140367 -0.10301446 0.02194743 0.010383362
0.08636978 -0.09855577 0.009368559 0.076812536 0.060238067 -0.06252473 -0.043831993 0.04956614
0.0020840773 -0.0351984 -0.11083161 -0.08596131 0.022254337 -0.06671447 -0.022823242 0.049527988
-0.0607068 0.06310969 0.05351597 -0.07591148 0.007074846 -0.09944558 -0.10133496 -0.05649331
-0.004609679 -0.05405853 0.023428064 0.028515799 -0.0076615936 -0.01632027 -0.029161157 -0.032294836
0.011988249 0.0663439 -0.0058769207 0.08672545 0.0006239175 0.05912336 -0.060707644 0.037405856
-0.08851249 0.058543477 -0.0021235617 0.038630784 0.03546476 0.05031412 0.01298257 -0.07362583
0.05837838 -0.09286348 -0.052063458 0.03469453 0.0528959 -0.04741906 0.021820327 -0.051038817
-0.050330773 0.06779513 -0.105414465 -0.015747208 -0.07610001 0.0024776466 -0.096699744 0.034224603
0.014483343 -0.054318063 -0.041172817 0.044477165 -0.08061235 -0.06172501 0.011525087 -0.071040034
-0.01218717 -0.08099619 -0.045051254 -0.05631526 -0.10056508 0.022942914 -0.06306992 0.056608368
0.05582877 0.064395316 -0.011256464 -0.0390312 -0.03125708 0.0060805925 -0.048672058 0.05273084
0.025277691 -0.029609019 -0.0030259516 0.04167768 -0.08797185 -0.012494813 -0.021536423 0.07057243
0.08272556 -0.007849125 -0.004571165 0.032093283 -0.06424094 0.082466416 -0.03661444 -0.03919632
-0.008527498 0.012045109 0.06062533 -0.04677572 -0.045912646 0.032162383 -0.0633542 0.025921619
0.043288987 -0.08630231 -0.07112834 -0.06216977 0.0069902274 0.031089114 0.029569184 -0.06642294
-0.025622891 0.061329577 0.009729284 0.0016409787 0.0070016594 0.005258125 -0.06638458 -0.021212794
-0.03372636 -0.07194332 0.019381415 -0.067617185 -0.00015539966 -0.02413052 0.05332641 -0.026187778
-0.012063882 -0.055632655 -0.020540945 0.021012537 -0.010944325 0.057948172 -0.018357372 0.07609166
0.042516544 0.046454404 0.009245175 -0.029460963 0.07418446 0.06995156 -0.044387344 0.027202986
0.008198732 0.044823553 0.008245715 0.08095335 0.035674937 0.035970327 -0.09320758 -0.028184237
-0.073975906 -0.033808276 0.05245805 0.00761151 -0.08874233 -0.03915261 0.03187072 0.021029525
-0.076724656 -0.033751406 0.021020303 -0.065755546 -0.02493908 -0.07067704 -0.07825965 0.07692885
-0.050125077 -0.0742739 0.013555246 -0.027461754 -0.0046887305 -0.03957861 -0.0018271565 -0.07154553
0.071481265 0.083602235 0.065333515 -0.048082773 0.032266866 -0.015622931 0.07833176 -0.072055556
0.0019631886 0.057738334 -0.023940917 -0.081071705 -0.042496268 -0.032574628 0.08167827 0.016905246
-0.048942298 -0.047640618 -0.04385367 0.012566915 0.0059161526 -0.031965297 -0.018733105 0.0038593763
