THESIS/hyperopt/checkpoints/DMPNN_with_attention.pt (torch, 624303 bytes, 17 tensors)

encoder_sol.cached_zero_vector f4 [128]
0.0 0.0 0.0 0.0 0.0 0.0 0.0 0.0
0.0 0.0 0.0 0.0 0.0 0.0 0.0 0.0
0.0 0.0 0.0 0.0 0.0 0.0 0.0 0.0
0.0 0.0 0.0 0.0 0.0 0.0 0.0 0.0
0.0 0.0 0.0 0.0 0.0 0.0 0.0 0.0
0.0 0.0 0.0 0.0 0.0 0.0 0.0 0.0
0.0 0.0 0.0 0.0 0.0 0.0 0.0 0.0
0.0 0.0 0.0 0.0 0.0 0.0 0.0 0.0
0.0 0.0 0.0 0.0 0.0 0.0 0.0 0.0
0.0 0.0 0.0 0.0 0.0 0.0 0.0 0.0
0.0 0.0 0.0 0.0 0.0 0.0 0.0 0.0
0.0 0.0 0.0 0.0 0.0 0.0 0.0 0.0
0.0 0.0 0.0 0.0 0.0 0.0 0.0 0.0
0.0 0.0 0.0 0.0 0.0 0.0 0.0 0.0
0.0 0.0 0.0 0.0 0.0 0.0 0.0 0.0
0.0 0.0 0.0 0.0 0.0 0.0 0.0 0.0
00000000: 0000 0000 0000 0000 0000 0000 0000 0000
00000010: 0000 0000 0000 0000 0000 0000 0000 0000
00000020: 0000 0000 0000 0000 0000 0000 0000 0000
00000030: 0000 0000 0000 0000 0000 0000 0000 0000
00000040: 0000 0000 0000 0000 0000 0000 0000 0000
00000050: 0000 0000 0000 0000 0000 0000 0000 0000
00000060: 0000 0000 0000 0000 0000 0000 0000 0000
00000070: 0000 0000 0000 0000 0000 0000 0000 0000
00000080: 0000 0000 0000 0000 0000 0000 0000 0000
00000090: 0000 0000 0000 0000 0000 0000 0000 0000
000000a0: 0000 0000 0000 0000 0000 0000 0000 0000
000000b0: 0000 0000 0000 0000 0000 0000 0000 0000
000000c0: 0000 0000 0000 0000 0000 0000 0000 0000
000000d0: 0000 0000 0000 0000 0000 0000 0000 0000
000000e0: 0000 0000 0000 0000 0000 0000 0000 0000
000000f0: 0000 0000 0000 0000 0000 0000 0000 0000
00000100: 0000 0000 0000 0000 0000 0000 0000 0000
00000110: 0000 0000 0000 0000 0000 0000 0000 0000
00000120: 0000 0000 0000 0000 0000 0000 0000 0000
00000130: 0000 0000 0000 0000 0000 0000 0000 0000
00000140: 0000 0000 0000 0000 0000 0000 0000 0000
00000150: 0000 0000 0000 0000 0000 0000 0000 0000
00000160: 0000 0000 0000 0000 0000 0000 0000 0000
00000170: 0000 0000 0000 0000 0000 0000 0000 0000
00000180: 0000 0000 0000 0000 0000 0000 0000 0000
00000190: 0000 0000 0000 0000 0000 0000 0000 0000
000001a0: 0000 0000 0000 0000 0000 0000 0000 0000
000001b0: 0000 0000 0000 0000 0000 0000 0000 0000
000001c0: 0000 0000 0000 0000 0000 0000 0000 0000
000001d0: 0000 0000 0000 0000 0000 0000 0000 0000
000001e0: 0000 0000 0000 0000 0000 0000 0000 0000
000001f0: 0000 0000 0000 0000 0000 0000 0000 0000

encoder_sol.W_i.weight f4 [128, 147]
0.009825878 0.011491135 -0.00095335394 0.058917865 -0.064491026 -0.019223856 0.04387894 0.016345307
0.019914156 -0.075115815 0.05987571 -0.072713174 -0.016553037 -0.053538017 0.09794331 -0.026360858
0.020228755 0.08163646 0.07914631 0.04809466 0.070615456 -0.0033201948 0.044521138 0.00081873685
0.074554086 -0.030656569 0.07151517 0.0028330758 -0.009361483 -0.040138148 0.029556535 -0.054996595
0.05404465 0.060151264 0.020301698 0.06012395 -0.023997601 -0.037842914 -0.081441216 -0.058451764
0.02136968 0.012990229 -0.07261258 -0.034892127 -0.019803189 0.07540901 0.052479327 -0.045684736
-0.014461733 0.060707748 -0.033085164 0.06799072 -0.015312811 -0.016756646 -0.041657854 -0.05422387
0.036680035 0.03358815 0.02822847 0.0038855448 -0.017046161 0.02013383 0.016852334 0.03776647
-0.042965826 0.015703239 -0.008844726 -0.006490402 0.07886745 0.014518373 -0.019175082 0.060935006
-0.023580547 0.05867669 0.023964733 -0.0066358745 -0.0810321 0.079799026 0.073679954 -0.04177226
0.06628351 -0.038351297 0.01929675 0.0018848479 -0.033713117 0.06945966 -0.033766665 0.011879049
-0.038256604 0.019537963 0.07674275 0.030443303 0.02117052 0.0003759265 -0.07973154 -0.05557751
0.06261757 -0.039388422 -0.027534738 -0.0618348 -0.054157622 -0.081765726 -0.120636165 -0.091460556
0.062412895 -0.0039290898 -0.04349508 0.06830156 -0.013740626 -0.04590084 -0.012393039 -0.035195846
0.004362065 0.025920287 0.07234505 0.013930561 -0.059560955 -0.060307905 -0.050974067 -0.1161678
-0.14029665 0.14014226 0.0027675778 -0.0025659055 0.06620476 -0.01743447 0.025200948 0.114179105
-0.018478923 0.07128297 -0.009502925 -0.08527254 0.048999954 -0.071620554 -0.027022945 -0.04187579
-0.013313159 -0.076022565 -0.15321118 -0.03815007 0.04539818 -0.04367583 0.12116618 -0.030884605
-0.052863613 -0.026793577 0.012446955 -0.0341119 -0.04876281 -0.005172141 0.016510062 -0.044865645
0.057409756 -0.079894766 0.0033934289 0.00759386 -0.06051588 -0.001829885 -0.057054397 -0.03454224
0.034326296 -0.014226343 -0.12631167 -0.087308116 0.0609823 -0.0460073 -0.0065170377 0.054486334
0.0073479414 -0.012576252 0.04156805 0.022982657 -0.057501145 -0.050311383 -0.009150922 -0.050146714
-0.026714183 -0.0415328 -0.009523571 0.07027714 -0.023070715 -0.08767932 -0.007554449 0.07036431
0.03412959 0.044096008 -0.07511135 0.061518833 -0.05087429 -0.051586594 -0.026858814 -0.05957235
-0.07988545 -0.013297267 0.015123427 -0.048418723 -0.02611319 -0.051883377 -0.051119052 -0.013780355
0.04327911 0.05807136 0.040467143 0.04470417 0.00029516965 0.011229284 0.08224809 -0.0020731986
0.001114592 -0.0750527 -0.06583279 -0.00079327077 -0.041574065 0.031010829 -0.06683945 0.0031911656
0.07785018 -0.078429 0.036762483 -0.041391853 0.0024951026 -0.04847374 0.022813886 0.004735559
0.06184089 0.02544152 -0.03424501 0.024129853 0.03004501 -0.011645667 -0.06595811 0.014687464
-0.03601951 0.0013355017 0.029437438 0.04587446 -0.07330988 0.013007186 0.06635898 -0.036083646
-0.0018900558 0.04258895 0.07252973 0.005800046 -0.007766947 -0.02379778 -0.08193944 -0.06940388
0.018858574 -0.04474547 0.008998193 -0.04295445 0.026453499 0.06630553 -0.0155356005 0.043418914
00000000: b8fc 203c 5045 3c3c 80ea 79ba dc53 713d
00000010: df13 84bd 597b 9dbc 67ba 333d 98e6 853c
00000020: 0323 a33c 52d6 99bd 3c40 753d a5ea 94bd
00000030: 3c9a 87bc ae4a 5bbd 8196 c83d baf2 d7bc
00000040: c6b6 a53c 0431 a73d 7617 a23d e8fe 443d
00000050: d69e 903d a097 59bb cc5b 363d 80a0 563a
00000060: d0af 983d 7c23 fbbc 8c76 923d 20ab 393b
00000070: e860 19bc e667 24bd 8c20 f23c 1c44 61bd
00000080: ec5d 5d3d 2c61 763d bf4f a63c 8844 763d
00000090: 9e96 c4bc 2c01 1bbd a7ca a6bd 1e6b 6fbd
000000a0: 780f af3c f8d4 543c e8b5 94bd 0ceb 0ebd
000000b0: 4c3a a2bc 0a70 9a3d 90f4 563d eb1f 3bbd
000000c0: e8f0 6cbc b0a8 783d 4f84 07bd b83e 8b3d
000000d0: 96e2 7abc 3c45 89bc 6da1 2abd d919 5ebd
000000e0: ce3d 163d ba93 093d 643f e73c a0a4 7e3b
000000f0: 64a4 8bbc b4ef a43c e80d 8a3c 04b1 1a3d
00000100: effc 2fbd 14a4 803c 78e9 10bc 70ad d4bb
00000110: 4285 a13d 78de 6d3c 1015 9dbc fc96 793d
00000120: fe2b c1bc f856 703d b051 c43c c071 d9bb
00000130: 28f4 a5bd ac6d a33d 84e5 963d 6419 2bbd
00000140: a6bf 873d 4016 1dbd 3814 9e3c 000d f73a
00000150: c416 0abd de40 8e3d ea4e 0abd 58a0 423c
00000160: f5b2 1cbd 140e a03c 4e2b 9d3d 3c64 f93c
00000170: cc6d ad3c 0018 c539 4a4a a3bd 3ea5 63bd
00000180: a43d 803d c155 21bd 8890 e1bc 7d46 7dbd
00000190: 62d4 5dbd ca74 a7bd 1810 f7bd ac4f bbbd
000001a0: aaa4 7f3d 98bf 80bb e627 32bd b0e1 8b3d
000001b0: 5d20 61bc 8502 3cbd 2c0c 4bbc 8529 10bd
000001c0: a7ef 8e3b c856 d43c a429 943d 023d 643c
000001d0: 30f6 73bd 6c05 77bd 2fca 50bd 62e9 edbd
000001e0: eda9 0fbe 7481 0f3e 4060 353b c028 28bb
000001f0: 5c96 873d bcd2 8ebc 3872 ce3c bcd6 e93d
00000200: 1c61 97bc cefc 913d 28b2 1bbc 5fa3 aebd
00000210: 2db4 483d ccad 92bd 395f ddbc f385 2bbd
00000220: 701f 5abc b8b1 9bbd 64e3 1cbe 3f43 1cbd
00000230: 71f3 393d 6de5 32bd f925 f83d b601 fdbc
00000240: 8487 58bd 347e dbbc 50ee 4b3c ebb8 0bbd
00000250: 83bb 47bd 107b a9bb 1c40 873c 0ac5 37bd
00000260: 7e26 6b3d de9f a3bd 4a64 5e3b ead5 f83b
00000270: 80df 77bd c0d8 efba dfb1 69bd 2a7c 0dbd
00000280: bb99 0c3d 9b15 69bc d957 01be 99ce b2bd
00000290: 94c8 793d 2772 3cbd e08c d5bb 102d 5f3d
000002a0: 00c7 f03b a00c 4ebc 4243 2a3d 2046 bc3c
000002b0: 5286 6bbd 4f13 4ebd c0ed 15bc a466 4dbd
000002c0: b4d7 dabc 4c1e 2abd c008 1cbc 76ed 8f3d
000002d0: ccfe bcbc 3791 b3bd 508b f7bb 2a1b 903d
000002e0: 78cb 0b3d 049e 343d fbd3 99bd 2cfb 7b3d
000002f0: 8f61 50bd 774c 53bd 0407 dcbc 2302 74bd
00000300: fc9a a3bd c8dc 59bc 40c8 773c b652 46bd
00000310: 54eb d5bc aa83 54bd 3662 51bd 00c7 61bc
00000320: 7045 313d 3cdc 6d3d e0c0 253d b81b 373d
00000330: 00c1 9a39 08fb 373c b071 a83d 80de 07bb
00000340: 8017 923a 3bb5 99bd 58d3 86bd 80f3 4fba
00000350: 9149 2abd 6c0a fe3c 1fe3 88bd e022 513b
00000360: ea6f 9f3d 629f a0bd 4294 163d 818a 29bd
00000370: e084 233b 678c 46bd 30e4 ba3c c02c 9b3b
00000380: e04c 7d3d bc6a d03c 7f44 0cbd f8ab c53c
00000390: f420 f63c 78cd 3ebc 0c15 87bd b0a3 703c
000003a0: 3289 13bd 000c af3a c826 f13c dce6 3b3d
000003b0: 7e23 96bd 181c 553c 38e7 873d 72cc 13bd
000003c0: c0bb f7ba c071 2e3d 788a 943d 500e be3b
000003d0: e081 febb 90f3 c2bc ddcf a7bd 9f23 8ebd
000003e0: 4c7d 9a3c 0747 37bd 286d 133c 01f1 2fbd
000003f0: 02b5 d83c 32cb 873d 0889 7ebc 08d8 313d

encoder_sol.W_i.bias f4 [128]
0.034464464 0.055776365 -0.0572662 -0.017969236 0.040522505 0.050305385 -0.020094365 0.025403032
0.001756011 -0.04860661 -0.04381366 -0.061509397 -0.08456565 -0.056861576 -0.016826726 0.023749582
0.03302893 0.025055818 -0.055570316 0.014425316 0.056148954 -0.09276871 0.06613439 0.023170173
0.044358056 0.061336737 0.0028875102 0.044730656 0.05546201 -0.054605473 -0.014151656 -0.013600192
-0.07713909 -0.04246026 -0.058654875 -0.045667455 -0.073680304 0.041260548 -0.04219055 -0.04780094
-0.044014037 -0.07859386 -0.04137129 -0.01833692 -0.059991986 0.044382736 0.04665565 -0.076019906
-0.043922324 -0.025336603 -0.046967324 -0.032896854 0.05995888 0.06387033 -0.01388676 -0.01854543
0.009843729 -0.07724936 0.0009827398 -0.056203067 -0.039637867 -0.02848457 -0.027348747 -0.00397309
0.046644893 -0.021158805 -0.0018304535 -0.06551549 0.0146241905 0.025865924 0.002372095 -0.0025263634
0.050988212 0.04527836 0.01227082 0.03900135 0.007288172 0.023757363 -0.017378066 -0.02153971
-0.033335827 0.040297072 -0.074274965 -0.084830746 -0.07897747 0.024597604 -0.0555688 0.028936388
0.050990477 -0.006098394 -0.012141032 0.020118339 -0.080557466 -0.033307686 0.008095051 0.046076205
-0.010080414 -0.06177573 -0.075472884 0.0113777965 -0.05971569 0.0651728 0.0074730124 0.030492254
-0.0050572352 -0.0028623687 0.030719334 -0.0005597477 -0.023278752 0.033519305 0.04308756 0.056751333
-0.03312344 0.010867091 -0.0841297 -0.071129896 0.028757224 -0.07546171 -0.075363025 0.056667883
-0.09686921 -0.07646031 0.030387785 0.029138107 -0.054957014 -0.07287985 -0.02920816 -0.058500566
00000000: 9c2a 0d3d c275 643d f78f 6abd 3834 93bc
00000010: edfa 253d 050d 4e3d f09c a4bc 051a d03c
00000020: f429 e63a ba17 47bd f475 33bd 47f1 7bbd
00000030: c130 adbd afe7 68bd 34d8 89bc 7c8e c23c
00000040: 5849 073d dc41 cd3c b39d 63bd 2958 6c3c
00000050: 72fc 653d 85fd bdbd 7871 873d 60cf bd3c
00000060: cbb0 353d 3b3c 7b3d 623c 3d3b 7e37 373d
00000070: 222c 633d fda9 5fbd 59dc 67bc 57d3 5ebc
00000080: 19fb 9dbd cfea 2dbd 1840 70bd cc0d 3bbd
00000090: b3e5 96bd d200 293d 00d0 2cbd ebca 43bd
000000a0: 1048 34bd d1f5 a0bd f174 29bd 4f37 96bc
000000b0: 28ba 75bd acca 353d ff19 3f3d 53b0 9bbd
000000c0: e5e7 33bd b58e cfbc cf60 40bd dabe 06bd
000000d0: 7197 753d 73ce 823d 4b85 63bc 96ec 97bc
000000e0: 9847 213c ea34 9ebd 47cf 803a 3035 66bd
000000f0: 515b 22bd 7958 e9bc 7b0a e0bc b230 82bb
00000100: b70e 3f3d 3b55 adbc d4eb efba fc2c 86bd
00000110: 4d9a 6f3c c6e4 d33c 2675 1b3b 5891 25bb
00000120: 04d9 503d cd75 393d 8d0b 493c e1bf 1f3d
00000130: 9ed1 ee3b cd9e c23c 725c 8ebc 0c74 b0bc
00000140: 268b 08bd 8b0e 253d 791d 98bd bebb adbd
00000150: f1be a1bd ea80 c93c 1c9c 63bd 010c ed3c
00000160: 64db 503d 09d5 c7bb 2eeb 46bc 37cf a43c
00000170: 50fb a4bd a46d 08bd 1ba1 043c 67ba 3c3d
00000180: 5228 25bc 8c08 7dbd 8791 9abd f069 3a3c
00000190: 7098 74bd 5179 853d 2ce0 f43b e4ca f93c
000001a0: 2ab7 a5bb 9496 3bbb 1da7 fb3c 08bc 12ba
000001b0: 15b3 bebc 8a4b 093d 957c 303d 1674 683d
000001c0: 72ac 07bd e20b 323c 314c acbd 8dac 91bd
000001d0: 4594 eb3c ab8b 9abd ee57 9abd 951c 683d
000001e0: 5d63 c6bd 3997 9cbd ceef f83c 0ab3 ee3c
000001f0: 9b1a 61bd 0842 95bd f345 efbc 4a9e 6fbd

encoder_sol.W_h.weight f4 [128, 128]
-0.08370075 0.034006685 -0.0024384246 -0.0010313925 0.06862271 -0.007200932 -0.036706295 0.07619927
-0.025666775 0.006907733 -0.100279234 0.08646654 -0.08799305 -0.17094742 0.004595094 -0.045279145
-0.05976743 0.02853612 -0.0008386676 0.056845237 -0.04808605 0.053186502 -0.068857186 -0.0898686
0.06092853 -0.0707545 -0.014707107 0.048842017 0.0778467 -0.013269506 -0.12016623 -0.068970844
0.10691326 -0.040385365 -0.07477276 -0.14908992 0.011681095 -0.03902258 0.07227666 0.032380935
-0.1044615 0.009487747 -0.09282463 0.0038646276 0.0128396 -0.08298689 -0.05315916 -0.08976285
0.0060652588 -0.12309417 -0.091342516 -0.04150826 -0.024171624 0.017560378 0.18290354 0.09428145
0.03251313 -0.11041883 -0.021298839 -0.007909248 -0.03632015 -0.06866238 -0.052713443 -0.0062907524
-0.044837013 -0.082965896 -0.027560348 -0.13211389 -0.041327674 -0.077001646 -0.06215433 -0.007582796
0.0008816098 -0.027298478 -0.03431939 0.058418464 0.024176273 0.009191747 -0.047979407 -0.11155058
-0.008326378 0.016197478 0.110775866 -0.07671326 -0.041907445 0.082812116 -0.025048768 0.001122704
-0.0107829645 -0.0073408936 0.08671345 -0.025357597 -0.07297732 -0.042968176 0.11105754 0.0041488525
-0.0252822 -0.17308511 0.072035156 -0.066186406 -0.08390761 -0.103198856 0.016924806 0.034182046
0.13766296 -0.029155796 -0.017787706 -0.10631263 -0.15272652 -0.028937403 0.039976258 0.050806284
0.019222 0.019107841 -0.04813708 -0.004920804 0.031809945 0.07730095 -0.24544987 -0.035375804
-0.09454513 0.023857785 0.003106793 -0.06363575 -0.062139414 0.016813546 -0.071378484 0.032857697
-0.0094838 -0.083853185 -0.06351734 -0.033570115 -0.006484444 0.036837984 0.033299543 0.0144169
-0.05666501 0.018726245 -0.18554983 0.025203101 0.010018851 0.085336655 -0.065366305 0.059183225
-0.016584724 0.043536972 0.06598693 0.057177383 0.01157559 0.00083221204 0.031097004 -0.040328387
-0.08956297 -0.027949417 0.0013423882 -0.09841096 0.044990435 0.020319257 -0.10371933 -0.081259206
-0.060646556 -0.08146511 -0.036390908 0.0500158 -0.07810431 -0.00050193217 -0.0693331 0.10174734
-0.0075395675 0.0089419605 -0.07644257 0.08525166 0.07534805 -0.004826387 -0.08470144 -0.00090737175
0.07239286 0.05957802 -0.026036488 -0.08892391 0.08090904 -0.047955446 -0.06754538 0.024917692
0.010565133 -0.14181532 0.004826077 0.0004654727 -0.038151484 0.13256696 0.02573562 0.058319632
-0.10306172 -0.04742429 -0.021887055 -0.018934077 0.041939028 -0.04094832 0.008617851 -0.06844641
-0.05948641 -0.041271955 -0.017922824 -0.06051247 -0.024502762 -0.011115384 -0.074706145 -0.0031760496
-0.117740184 0.04972482 -0.048818078 0.057868224 -0.03571847 -0.035546098 0.038398612 -0.039213818
0.0054778927 -0.06339246 0.023103192 -0.017227149 -0.10360008 -0.078299545 0.06336512 0.058246557
-0.07259719 0.035051364 -0.084570184 -0.06630154 -0.06821953 -0.0032972717 -0.020518925 0.04028414
-0.02967715 -0.0043662945 -0.024039948 0.060840324 -0.06423461 0.068389915 0.028484477 0.059517495
0.07553487 -0.04752146 -0.010958209 0.094760306 0.014083649 0.074569575 0.07485626 0.071036145
0.09038634 -0.0027087876 0.082303 0.033805385 0.022655018 0.05074646 -0.01884421 -0.014440491
00000000: 4c6b abbd 984a 0b3d facd 1fbb ca2f 87ba
00000010: 108a 8c3d ccf5 ebbb 5759 16bd 5d0e 9c3d
00000020: 2143 d2bc 445a e23b 335f cdbd 5f15 b13d
00000030: b335 b4bd d70c 2fbe 7192 963b a076 39bd
00000040: b1ce 74bd 95c4 e93c 08da 5bba 8dd6 683d
00000050: e1f5 44bd 17da 593d ff04 8dbd 070d b8bd
00000060: 3290 793d bce7 90bd 14f6 70bc 910e 483d
00000070: 176e 9f3d 5868 59bc b619 f6bd 9640 8dbd
00000080: 57f5 da3d 206b 25bd 7622 99bd 07ab 18be
00000090: 1062 3f3c 24d6 1fbd c905 943d dfa1 043d
000000a0: e9ef d5bd 7f72 1b3c d71a bebd b145 7d3b
000000b0: 305d 523c 08f5 a9bd 6bbd 59bd 96d5 b7bd
000000c0: 14bf c63b cc18 fcbd c911 bbbd 9104 2abd
000000d0: 9203 c6bc c8da 8f3c 114b 3b3e a216 c13d
000000e0: 7d2c 053d 4423 e2bd e77a aebc ca95 01bc
000000f0: 70c4 14bd dd9e 8cbd 0dea 57bd a822 cebb
00000100: 04a7 37bd 06ea a9bd 3dc6 e1bc dd48 07be
00000110: 3547 29bd 0ab3 9dbd 8a95 7ebd 1a79 f8bb
00000120: d51b 673a 0fa1 dfbc 7d92 0cbd 3348 6f3d
00000130: 520d c63c fb98 163c 0e86 44bd a174 e4bd
00000140: 5c6b 08bc 93b0 843c 75de e23d d71b 9dbd
00000150: 24a7 2bbd 6699 a93d 1333 cdbc b227 933a
00000160: 08ab 30bc e18b f0bb d296 b13d bcba cfbc
00000170: 2275 95bd 66ff 2fbd 2372 e33d 19f3 873b
00000180: 9e1c cfbc 393d 31be 2b87 933d bd8c 87bd
00000190: c1d7 abbd ec59 d3bd e4a5 8a3c 7902 0c3d
000001a0: 85f7 0c3e 23d8 eebc 86b7 91bc 70ba d9bd
000001b0: 5764 1cbe 220e edbc 25be 233d 401a 503d
000001c0: 7577 9d3c 0c88 9c3c 632b 45bd b23e a1bb
000001d0: 254b 023d f64f 9e3d 3657 7bbe 38e6 10bd
000001e0: e1a0 c1bd 6771 c33c 569b 4b3b 7653 82bd
000001f0: e685 7ebd 90bc 893c e22e 92bd cb95 063d
00000200: f161 1bbc 38bb abbd 6115 82bd d180 09bd
00000210: 757b d4bb 6de3 163d 1a65 083d dd34 6c3c
00000220: 9219 68bd c867 993c c600 3ebe bc76 ce3c
00000230: 1b26 243c fcc4 ae3d c5de 85bd 1c6a 723d
00000240: b0dc 87bc d353 323d 2824 873d d532 6a3d
00000250: 8ba7 3d3c ce28 5a3a 25bf fe3c 612f 25bd
00000260: ca6c b7bd 2df6 e4bc 13f3 af3a af8b c9bd
00000270: e447 383d 9274 a63c cd6a d4bd 3a6b a6bd
00000280: 8668 78bd 2ed7 a6bd a20e 15bd 5edd 4c3d
00000290: 27f5 9fbd 1994 03ba 83fe 8dbd e960 d03d
000002a0: 7a0e f7bb 4d81 123c ec8d 9cbd 6c98 ae3d
000002b0: 1450 9a3d ab26 9ebb f377 adbd b0dc 6dba
000002c0: b542 943d 1508 743d 794a d5bc bd1d b6bd
000002d0: a4b3 a53d ee6c 44bd 3b55 8abd 3020 cc3c
000002e0: 6119 2d3c 0938 11be 1124 9e3b b00a f439
000002f0: bb44 1cbd a2bf 073e 82d3 d23c 91e0 6e3d
00000300: 0612 d3bd f93f 42bd 7b4c b3bc a31b 9bbc
00000310: 42c8 2b3d 6db9 27bd e331 0d3c a22d 8cbd
00000320: 06a8 73bd c80c 29bd e3d2 92bc ecdb 77bd
00000330: 04ba c8bc 4d1d 36bc 89ff 98bd 4525 50bb
00000340: c421 f1bd 41ac 4b3d 77f5 47bd 3b07 6d3d
00000350: 884d 12bd c998 11bd dd47 1d3d ab9e 20bd
00000360: e57f b33b e8d3 81bd e842 bd3c f31f 8dbc
00000370: 472c d4bd 835b a0bd 92c5 813d f193 6e3d
00000380: d6ad 94bd 0592 0f3d 2233 adbd 1ac9 87bd
00000390: aeb6 8bbd 0a17 58bb 4e17 a8bc fb00 253d
000003a0: 7f1d f3bc 2213 8fbb 6def c4bc b433 793d
000003b0: 6f8d 83bd 0310 8c3d 4758 e93c 9ec8 733d
000003c0: 07b2 9a3d dda5 42bd 0f8a 33bc b111 c23d
000003d0: 1bbf 663c efb7 983d 3d4e 993d 667b 913d
000003e0: 791c b93d ea85 31bb 7a8e a83d 8477 0a3d
000003f0: 0497 b93c 85db 4f3d 2c5f 9abc cf97 6cbc

encoder_sol.W_h.bias f4 [128]
-0.01159436 0.044588502 0.043867785 -0.04799619 0.012502909 -0.07517914 -0.05027502 -0.06977596
-0.089028366 0.027270835 -0.04339516 -0.069103196 0.06889345 0.04646443 -0.07497067 -0.07249831
-0.020403434 -0.02749363 -0.056370083 0.010067967 0.0024057599 0.014254798 0.058173556 -0.016817776
0.049679264 -0.04390643 -0.026305068 -0.07722562 0.029547226 -0.017602906 0.051799223 -0.0031767609
-0.0039805863 0.045282617 -0.090603374 0.03639914 -0.05084422 -0.028485235 0.038409807 -0.070099175
-0.03532895 -0.025699852 0.028964698 -0.0110086035 -0.06351502 -0.04725636 -0.094862014 0.018145485
-0.04792267 -0.08639212 0.020189635 0.010280337 -0.03404694 -0.04846341 -0.107438706 0.021840228
-0.0691813 0.064704016 -0.030596986 0.03149763 0.0494931 -0.00885224 0.081779346 -0.045714673
-0.013106983 -0.03943892 0.008756586 0.03171717 -0.07897097 -0.0547922 -0.09851021 -0.059780583
0.009597668 0.04046181 -0.033626206 0.030457081 -0.071874164 -0.065019235 -0.04618548 0.047919497
-0.07784047 0.04668026 0.07415715 0.03940831 -0.018971715 0.02459935 0.0068828184 -0.049606375
0.0056789014 -0.081873804 -0.06524266 -0.058383398 0.0120237 0.04010852 0.01692224 0.040010575
0.07775751 -0.030372886 0.018107867 0.042759735 -0.03376413 -0.03274201 0.0005900174 0.04219231
-0.087335266 -0.03748203 0.0553647 -0.06226916 0.014538473 -0.056676228 -0.07810319 0.05744055
0.003801569 0.01700642 -0.027409611 -0.010564359 -0.059815794 0.027032554 0.023438733 -0.0019817194
-0.08207228 0.068777956 -0.062376708 -0.05965552 0.02312279 -0.043879148 0.038008887 -0.035820335
00000000: 45f6 3dbc 6fa2 363d b5ae 333d a797 44bd
00000010: 00d9 4c3c 85f7 99bd 2eed 4dbd b3e6 8ebd
00000020: 8154 b6bd 1667 df3c 20bf 31bd fa85 8dbd
00000030: 0218 8d3d 7c51 3e3d 398a 99bd fe79 94bd
00000040: 1a25 a7bc 523a e1bc 51e4 66bd 1df4 243c
00000050: f4a9 1d3b f58c 693c 6547 6e3d 6fc5 89bc
00000060: 7c7c 4b3d 3bd7 33bd ba7d d7bc 7728 9ebd
00000070: 060d f23c f833 90bc 6c2b 543d 3431 50bb
00000080: 946f 82bb 447a 393d 438e b9bd 4417 153d
00000090: 0742 50bd de59 e9bc 9a53 1d3d 2890 8fbd
000000a0: 17b5 10bd 7f88 d2bc 6047 ed3c 6e5d 34bc
000000b0: 2a14 82bd e38f 41bd 0447 c2bd d7a5 943c
000000c0: 904a 44bd 5aee b0bd bc64 a53c dc6e 283c
000000d0: ce74 0bbd 9281 46bd d308 dcbd 47ea b23c
000000e0: edae 8dbd 8a83 843d 88a6 fabc a903 013d
000000f0: 47b9 4a3d fc08 11bc ee7b a73d 4f3f 3bbd
00000100: acbe 56bc b48a 21bd c977 0f3c dde9 013d
00000110: 88bb a1bd c96d 60bd b9bf c9bd 7cdc 74bd
00000120: 8a3f 1d3c 48bb 253d a2bb 09bd 2181 f93c
00000130: c332 93bd ce28 85bd fc2c 3dbd 3c47 443d
00000140: d36a 9fbd cd33 3f3d b4df 973d 9c6a 213d
00000150: 926a 9bbc 9384 c93c 4489 e13b 0e30 4bbd
00000160: 1416 ba3b 74ad a7bd f29d 85bd 6e23 6fbd
00000170: 0eff 443c d548 243d 82a0 8a3c 21e2 233d
00000180: 543f 9f3d 8fd0 f8bc f356 943c d524 2f3d
00000190: 424c 0abd 7c1c 06bd 66ab 1a3a d8d1 2c3d
000001a0: d5dc b2bd c286 19bd 18c6 623d f20d 7fbd
000001b0: c732 6e3c 5525 68bd 91f4 9fbd c846 6b3d
000001c0: bf23 793b 0c51 8b3c 1f8a e0bc 2216 2dbc
000001d0: 6801 75bd 6073 dd3c 9602 c03c bcdf 01bb
000001e0: 8315 a8bd 75db 8c3d b87e 7fbd 5959 74bd
000001f0: 016c bd3c 9fba 33bd 35af 1b3d 58b8 12bd

encoder_sol.W_o.weight f4 [128, 261]
-0.05544929 -0.030116431 0.02218248 -0.026011113 0.029294387 -0.051551346 -0.01929576 0.055784784
-0.011257238 0.017309912 0.007362187 0.056957014 0.014363036 -0.062760964 -0.03533126 -0.00901482
0.043788843 -0.023792725 -0.01028163 -0.05728092 -0.0076630376 -0.0527831 -0.04776913 -0.044170763
-0.058055818 0.055293284 0.016733535 -0.039755516 0.057170376 -0.01248046 -0.04788311 -0.059094455
0.047363587 -0.036410134 0.026924906 0.0065031424 -0.017990652 0.03754156 -0.058448907 0.008355945
0.044220105 -0.039310403 -0.021807134 -0.034580193 0.023170367 0.059354015 0.010999195 0.02548664
0.02394323 -0.030356016 -0.008414678 -0.0030099228 0.037621237 -0.016431704 -0.04270176 0.021302342
0.039197586 -0.04098689 0.058622055 -0.029430017 -0.019442096 -0.053942513 0.023831785 0.061378345
0.048127197 -0.006276127 -0.0060543045 -0.047442712 0.0024863705 -0.03197363 -0.037593998 -0.0034117475
0.046491146 -0.040681466 -0.046114646 -0.03210742 -0.017014783 0.031144716 -0.0009005256 0.0117571205
-0.0489534 0.008098558 -0.049150035 0.058607943 0.0064162835 -0.010847367 0.047798164 -0.06019518
-0.019299477 0.011057079 0.041614003 0.05898138 0.014864609 -0.034286015 0.036482304 -0.0058745183
0.023156941 -0.036699727 -0.00789452 -0.04953893 -0.04163779 0.032605015 0.044331405 -0.05674387
0.05379562 0.026516322 -0.03164091 -0.054067157 0.030993067 -0.06015358 0.026515529 -0.05121745
0.047538336 -0.042934448 -0.045336634 0.05317264 -0.043775257 -0.0033203512 -0.031813495 0.018263716
0.0415706 0.019014321 -0.02629846 -0.03037498 0.005083941 0.01808291 -0.03426536 0.015229365
-0.026977096 -0.05475228 0.006568164 0.072684295 -0.0010655713 -0.09885984 0.006475998 0.10050444
0.04095225 -0.039388515 -0.012890328 0.0044621266 0.029376293 0.025687067 0.0136346845 -0.010913702
-0.046969317 -0.04251299 -0.09273632 -0.040963683 -0.011524491 -0.076655164 -0.055752534 -0.018231891
0.013122102 -0.10729869 0.012497857 -0.021825647 0.03896428 0.057606842 0.064305864 -0.11271244
0.08180533 0.04422934 0.044114035 0.06322429 0.006683862 0.05952473 0.046845596 -0.014139192
-0.064399004 0.05316474 0.051265128 0.054665286 0.06253027 -0.043578386 -0.040982127 -0.021394335
0.020898318 -0.046345092 -4.7563517e-06 -0.031364206 -0.0051558833 -0.007895586 0.02618286 0.015617858
-0.037310265 0.033341814 -0.044035606 0.062370963 0.029484548 0.04471767 -0.0067154723 -0.00093379576
-0.025982488 -0.027151214 -0.027049629 0.03033206 -0.09738804 0.02423673 0.06255824 0.02378578
-0.03476555 -0.015868694 0.01090278 -0.082387134 0.040795073 -0.010355028 0.042365965 0.013274109
-0.01298639 -0.032366857 -0.019028999 -0.03253803 -0.00013427163 -0.016857374 0.0032654754 -0.018784067
-0.0024248213 -0.056129687 0.034056883 0.06491493 0.06264368 -0.047369685 -0.02050784 -0.023400316
-0.03974191 0.043435663 0.039890405 0.037738573 0.01483379 0.058733273 0.018530441 0.014782532
0.008502581 -0.008943741 -0.020151129 0.048976146 -0.036713287 0.0534851 -0.02669086 -0.009473347
0.0419673 -0.03428112 -0.056865104 -0.021788176 0.04819411 -0.002478761 -0.022249999 0.045693774
-0.016129255 0.003961842 -0.004359874 -0.024304008 -0.06307707 -0.0011576421 -0.047299437 -0.0027856133
00000000: cb1e 63bd bcb6 f6bc 08b8 b53c 4215 d5bc
00000010: c8fa ef3c 8127 53bd 2412 9ebc 967e 643d
00000020: 4770 38bc 84cd 8d3c 803e f13b c24b 693d
00000030: f052 6b3c d288 80bd 83b7 10bd e5b2 13bc
00000040: ee5b 333d f6e8 c2bc 4874 28bc 669f 6abd
00000050: 381a fbbb 1833 58bd 90a9 43bd 67ec 34bd
00000060: f0cb 6dbd 367b 623d c414 893c aed6 22bd
00000070: 7c2b 6a3d d87a 4cbc 1421 44bd 070d 72bd
00000080: 5200 423d cb22 15bd 9f91 dc3c 5018 d53b
00000090: 2261 93bc 2ec5 193d 1f68 6fbd 60e7 083c
000000a0: 2420 353d f203 21bd e0a4 b2bc f6a3 0dbd
000000b0: c8cf bd3c 321d 733d f835 343c 5cc9 d03c
000000c0: 9824 c43c 2ead f8bc b8dd 09bc 2042 45bb
000000d0: ba18 1a3d c89b 86bc 0ae8 2ebd 4082 ae3c
000000e0: a68d 203d dfe1 27bd ae1d 703d 3817 f1bc
000000f0: 0845 9fbc d3f2 5cbd e03a c33c dc67 7b3d
00000100: 0621 453d f8a7 cdbb 3063 c6bb 4a53 42bd
00000110: 60f2 223b c8f6 02bd 2afc 19bd a097 5fbb
00000120: 806d 3e3d 9ca1 26bd b6e2 3cbd 1283 03bd
00000130: 9662 8bbc 3423 ff3c 4011 6cba f0a0 403c
00000140: 5c83 48bd d0af 043c 8c51 49bd e20e 703d
00000150: b03f d23b 28b9 31bc 02c8 433d 398f 76bd
00000160: f019 9ebc c028 353c 7273 2a3d 7696 713d
00000170: b08a 733c 7e6f 0cbd 786e 153d 087f c0bb
00000180: a0b3 bd3c 7452 16bd 0458 01bc 55e9 4abd
00000190: 638c 2abd d68c 053d d994 353d 436c 68bd
000001a0: cc58 5c3d c238 d93c e699 01bd 8675 5dbd
000001b0: 2ce5 fd3c 9a63 76bd 1837 d93c 64c9 51bd
000001c0: 8fb7 423d 08dc 2fbd e8b2 39bd 8ecb 593d
000001d0: af4d 33bd 409a 59bb de4e 02bd ca9d 953c
000001e0: ef45 2a3d ecc3 9b3c de6f d7bc f3d4 f8bc
000001f0: 3097 a63b 9c22 943c d659 0cbd 9684 793c
00000200: 12ff dcbc ed43 60bd c139 d73b 81db 943d
00000210: a4aa 8bba 0777 cabd 9c34 d43b 46d5 cd3d
00000220: 8cbd 273d da55 21bd f431 53bc 0837 923b
00000230: 8da6 f03c af6d d23c 0364 5f3c 62cf 32bc
00000240: e662 40bd 1a22 2ebd 8aec bdbd 89c9 27bd
00000250: 38d1 3cbc 62fd 9cbd c55c 64bd 0c5b 95bc
00000260: 16fe 563c 6abf dbbd d0c3 4c3c b3cb b2bc
00000270: 0299 1f3d 27f5 6b3d cbb2 833d c8d5 e6bd
00000280: 8e89 a73d d329 353d ebb0 343d bd7b 813d
00000290: 4c04 db3b 34d0 733d 2be1 3f3d 12a8 67bc
000002a0: a0e3 83bd 45c3 593d 62fb 513d b5e8 5f3d
000002b0: df0f 803d 407f 32bd e0dc 27bd 2c43 afbc
000002c0: f332 ab3c 5ad4 3dbd c098 9fb6 c177 00bd
000002d0: aff2 a8bb 7d5c 01bc 707d d63c 0be2 7f3c
000002e0: a6d2 18bd 6d91 083d ae5e 34bd b278 7f3d
000002f0: 9489 f13c e029 373d 770d dcbb f9c9 74ba
00000300: 3ad9 d4bc 396c debc 2f97 ddbc f17a f83c
00000310: 6173 c7bd 1b8c c63c 891e 803d 65da c23c
00000320: 5266 0ebd 10ff 81bc 93a1 323c 96ba a8bd
00000330: bc18 273d 23a8 29bc ef87 2d3d a67b 593c
00000340: dec4 54bc 1c93 04bd b4e2 9bbc 9946 05bd
00000350: 44cb 0cb9 7a18 8abc 9601 563b 0be1 99bc
00000360: c0e9 1ebb 3ee8 65bd 3b7f 0b3d 1ef2 843d
00000370: 544b 803d b706 42bd 0f00 a8bc 05b2 bfbc
00000380: 6ac8 22bd 98e9 313d 1f64 233d c393 1a3d
00000390: 6d09 733c 4d92 703d 27cd 973c 6f32 723c
000003a0: 694e 0b3c c588 12bc fb13 a5bc 369b 483d
000003b0: ac60 16bd 3113 5b3d caa6 dabc 1936 1bbc
000003c0: e7e5 2b3d 5c6a 0cbd 62eb 68bd 1e7d b2bc
000003d0: 3067 453d b572 22bb a145 b6bc 6529 3b3d
000003e0: 8021 84bc 57d2 813b 46dd 8ebb 3319 c7bc
000003f0: 8d2e 81bd 06bc 97ba 0ebd 41bd d68e 36bb

encoder_sol.W_o.bias f4 [128]
-0.047074065 -0.05276554 -0.012047213 0.0115723 0.047775287 0.023980753 -0.04217055 -0.03073729
-0.0058266753 0.045441322 -0.00079273933 0.048621055 -0.029624013 -0.025623057 -0.044745117 -0.022258006
0.036350746 -0.005326832 -0.02309279 -0.052405655 0.032671217 -0.0638436 -0.052875068 -0.020172436
-0.041232742 -0.041080058 0.027345506 -0.006953991 -0.031515345 0.028332658 -0.0070603034 0.01748159
-0.038800653 -0.05696787 0.062088694 0.04905815 -0.026102537 0.053955708 -0.022155203 -0.0743662
-0.04689869 -0.04845721 -0.004070418 -0.0055379434 0.04244886 -0.048706125 0.027855793 -0.06144548
0.05450161 0.044531424 -0.051497288 -0.06760153 -0.049275048 0.0014367062 0.030730214 -0.051688507
-0.025395587 -0.042987596 -0.06158536 0.03671647 -0.03397301 -0.053703718 0.005610436 -0.013362999
-0.028396115 -0.011803092 -0.05599206 -0.06907318 0.0043912632 -0.015070246 0.005538728 0.061612297
-0.002297745 -0.06559586 0.05334073 -0.021755042 0.066007964 -0.05326326 0.01732028 0.007220977
-0.020424206 0.046408314 0.02954748 -0.019418336 0.0578331 -0.03114436 -0.007837918 -0.0052469843
-0.04846315 0.03444104 -0.070605144 0.057866532 0.042244777 -0.036408074 -0.040556934 -0.033500373
0.0044867774 -0.023052111 -0.0072153597 -0.03945158 -0.010863502 0.054275297 -0.06254474 0.0055113207
0.004440308 -0.05783367 -0.030949494 0.008187534 -0.0091252625 0.0034030995 -0.0019158843 -0.016434707
-0.072586164 -0.01299025 0.03250284 -0.04224641 -0.056791525 -0.035782013 0.010828287 -0.054315753
0.058184158 -0.0070101856 -0.044307735 0.029716808 -0.037695017 -0.066041365 -0.07028706 0.06914046
00000000: bcd0 40bd ae20 58bd ac61 45bc bf99 3d3c
00000010: 05b0 433d 4973 c43c 07bb 2cbd c5cc fbbc
00000020: b2ed bebb ae20 3a3d d6cf 4fba df26 473d
00000030: 0fae f2bc 72e7 d1bc a846 37bd 6c56 b6bc
00000040: 85e4 143d b58c aebb 172d bdbc 50a7 56bd
00000050: 41d2 053d 6fc0 82bd 8793 58bd aa40 a5bc
00000060: aae3 28bd 9043 28bd af03 e03c 4ede e3bb
00000070: 3c16 01bd e419 e83c 1e5a e7bb 8d35 8f3c
00000080: 6fed 1ebd 2457 69bd b750 7e3d 33f1 483d
00000090: fdd4 d5bc a900 5d3d d47e b5bc 4e4d 98bd
000000a0: d718 40bd 117b 46bd 2461 85bb a377 b5bb
000000b0: dbde 2d3d 1380 47bd d531 e43c 41ae 7bbd
000000c0: 153d 5f3d 9566 363d d2ee 52bd ac72 8abd
000000d0: a2d4 49bd dc4f bc3a eebd fb3c 54b7 53bd
000000e0: 680a d0bc c313 30bd ee40 7cbd 0264 163d
000000f0: 4827 0bbd 6ef8 5bbd c0d7 b73b 7bf0 5abc
00000100: f89e e8bc c261 41bc ee57 65bd 3d76 8dbd
00000110: 96e4 8f3b 31e9 76bc 387e b53b 2d5d 7c3d
00000120: c495 16bb 1f57 86bd cf7b 5a3d a137 b2bc
00000130: 2f2f 873d 932a 5abd 43e3 8d3c f29d ec3b
00000140: aa50 a7bc a516 3e3d 8f0d f23c 3413 9fbc
00000150: 67e2 6c3d 7522 ffbc 9c6a 00bc e5ee abbb
00000160: 4c81 46bd 0c12 0d3d 6e99 90bd 7505 6d3d
00000170: dc08 2d3d a220 15bd 071f 26bd b037 09bd
00000180: d105 933b c8d7 bcbc d36e ecbb fb97 21bd
00000190: d4fc 31bc c64f 5e3d 7517 80bd 4f98 b43b
000001a0: 0180 913b 00e3 6cbd cb89 fdbc 0225 063c
000001b0: 2082 15bc 8906 5f3b 691e fbba 14a2 86bc
000001c0: 0ea8 94bd 0fd5 54bc b321 053d 920a 2dbd
000001d0: 3b9e 68bd 2990 12bd 2169 313c 327a 5ebd
000001e0: 8352 6e3d b3b5 e5bb 077c 35bd aa70 f33c
000001f0: 1766 1abd b240 87bd aaf2 8fbd 8399 8d3d

encoder_solv.cached_zero_vector f4 [128]
0.0 0.0 0.0 0.0 0.0 0.0 0.0 0.0
0.0 0.0 0.0 0.0 0.0 0.0 0.0 0.0
0.0 0.0 0.0 0.0 0.0 0.0 0.0 0.0
0.0 0.0 0.0 0.0 0.0 0.0 0.0 0.0
0.0 0.0 0.0 0.0 0.0 0.0 0.0 0.0
0.0 0.0 0.0 0.0 0.0 0.0 0.0 0.0
0.0 0.0 0.0 0.0 0.0 0.0 0.0 0.0
0.0 0.0 0.0 0.0 0.0 0.0 0.0 0.0
0.0 0.0 0.0 0.0 0.0 0.0 0.0 0.0
0.0 0.0 0.0 0.0 0.0 0.0 0.0 0.0
0.0 0.0 0.0 0.0 0.0 0.0 0.0 0.0
0.0 0.0 0.0 0.0 0.0 0.0 0.0 0.0
0.0 0.0 0.0 0.0 0.0 0.0 0.0 0.0
0.0 0.0 0.0 0.0 0.0 0.0 0.0 0.0
0.0 0.0 0.0 0.0 0.0 0.0 0.0 0.0
0.0 0.0 0.0 0.0 0.0 0.0 0.0 0.0
00000000: 0000 0000 0000 0000 0000 0000 0000 0000
00000010: 0000 0000 0000 0000 0000 0000 0000 0000
00000020: 0000 0000 0000 0000 0000 0000 0000 0000
00000030: 0000 0000 0000 0000 0000 0000 0000 0000
00000040: 0000 0000 0000 0000 0000 0000 0000 0000
00000050: 0000 0000 0000 0000 0000 0000 0000 0000
00000060: 0000 0000 0000 0000 0000 0000 0000 0000
00000070: 0000 0000 0000 0000 0000 0000 0000 0000
00000080: 0000 0000 0000 0000 0000 0000 0000 0000
00000090: 0000 0000 0000 0000 0000 0000 0000 0000
000000a0: 0000 0000 0000 0000 0000 0000 0000 0000
000000b0: 0000 0000 0000 0000 0000 0000 0000 0000
000000c0: 0000 0000 0000 0000 0000 0000 0000 0000
000000d0: 0000 0000 0000 0000 0000 0000 0000 0000
000000e0: 0000 0000 0000 0000 0000 0000 0000 0000
000000f0: 0000 0000 0000 0000 0000 0000 0000 0000
00000100: 0000 0000 0000 0000 0000 0000 0000 0000
00000110: 0000 0000 0000 0000 0000 0000 0000 0000
00000120: 0000 0000 0000 0000 0000 0000 0000 0000
00000130: 0000 0000 0000 0000 0000 0000 0000 0000
00000140: 0000 0000 0000 0000 0000 0000 0000 0000
00000150: 0000 0000 0000 0000 0000 0000 0000 0000
00000160: 0000 0000 0000 0000 0000 0000 0000 0000
00000170: 0000 0000 0000 0000 0000 0000 0000 0000
00000180: 0000 0000 0000 0000 0000 0000 0000 0000
00000190: 0000 0000 0000 0000 0000 0000 0000 0000
000001a0: 0000 0000 0000 0000 0000 0000 0000 0000
000001b0: 0000 0000 0000 0000 0000 0000 0000 0000
000001c0: 0000 0000 0000 0000 0000 0000 0000 0000
000001d0: 0000 0000 0000 0000 0000 0000 0000 0000
000001e0: 0000 0000 0000 0000 0000 0000 0000 0000
000001f0: 0000 0000 0000 0000 0000 0000 0000 0000

encoder_solv.W_i.weight f4 [128, 147]
0.071187675 -0.008664444 0.07048385 0.07117574 -0.0071223527 -0.0116463825 -0.07469721 -0.06281139
0.0045328066 -0.040969815 -0.041570317 0.01595588 -0.030133061 -0.0173973 0.018689394 -0.050613917
0.108610906 0.06462914 -0.07854005 -0.042733107 -0.08110032 0.044947475 0.04323134 0.078621894
0.015679218 -0.015365988 0.034616873 0.02951067 0.04738681 -0.04003443 -0.06846136 0.003878802
-0.0752735 0.06908056 -0.056556143 0.075497374 0.052530304 0.00012270361 -0.06027201 0.07262048
-0.044622023 -0.028827302 -0.032854777 -0.013293892 0.01718504 -0.049856212 -0.03739243 -0.062918186
-0.030093752 0.049903467 0.028773189 -0.05379654 -0.0050765127 -0.042706747 -0.07237273 0.023586899
0.06773445 -0.037856925 -0.007506825 -0.044260863 -0.020737287 0.05227369 -0.015667707 -0.00867065
0.03484682 -0.0003117621 -0.044474322 -0.022162564 0.038894154 -0.026848223 0.036115535 0.008145362
0.024170816 -0.039825268 0.059506312 0.06267218 0.035879895 0.027732506 -0.071411654 0.004148558
0.03361413 0.0134327635 -0.05291586 -0.055816755 -0.06915865 0.027196214 -0.06828095 0.04719615
0.06873995 -0.024365984 0.0614191 -0.012422442 0.04039938 -0.045027167 -0.0025808588 0.007789187
-0.02894342 -0.06420209 -0.041451015 -0.07616646 -0.01988452 -0.056298956 0.09875673 0.044381693
-0.0035653657 0.02200879 -0.025978073 0.056202874 0.041708678 0.017580591 0.040337995 -0.017047442
-0.02930301 0.034237668 0.07671956 -0.020118408 0.039066926 -0.043267712 0.048405275 0.027551578
-0.0610913 -0.017314885 -0.037882548 -0.021388069 0.025977112 0.07559943 -0.08249715 0.06644359
0.07248621 -0.04703431 0.08223228 0.0641377 0.059029795 0.034275778 0.069476664 -0.033799976
-0.029661482 -0.028560005 -0.019514965 -0.0040882775 0.0422397 0.05961843 0.011022516 0.016415045
-0.08000631 0.049935177 0.029236175 0.01859919 0.023655377 0.0071801767 0.02226787 0.004227482
-0.08618273 -0.059459735 -0.007046245 0.001274392 0.07283133 -0.028918918 -0.05367866 0.0632485
-0.051277988 0.07784337 0.08509539 0.01232978 0.061374396 -0.033437915 0.045238614 0.06825735
-0.07920892 -0.074815124 -0.03691013 0.003890179 -0.016632818 -0.04123086 -0.022803538 -0.064137585
0.07841742 -0.024203938 -0.04282883 -0.01235991 -0.016401395 0.04761523 0.06981282 0.0065730065
-0.040295973 0.012158915 0.038302176 0.061310515 0.06105134 -0.052862708 -0.0731059 -0.06088598
0.0039798617 -0.009650707 0.020626321 0.074931815 -0.06541493 -0.03517873 -0.055847798 -0.07197386
0.025727846 -0.053706303 -0.019237697 -0.010887146 -0.061003417 0.08121239 0.02995611 -0.081389055
-0.02734495 -0.05844593 0.012617603 -0.04628676 0.07027596 0.03954801 -0.042965744 -0.06520341
-0.034955125 -0.024539392 -0.0096888915 -0.076703876 -0.0017696843 0.023919336 0.04662247 -0.08048859
-0.038678654 0.054368615 0.029836737 -0.01619903 0.080806285 0.05607012 0.029469118 -0.07458426
-0.078820124 0.05001393 0.04028205 -0.014834665 0.010776669 0.0449259 0.04802066 -0.023821633
0.01734329 0.071181834 0.040301636 -0.03716112 -0.008576781 -0.0029339567 0.072958484 -0.029267568
0.052543536 -0.018064464 -0.059476808 0.12144359 -0.09379993 0.07414064 0.011887819 0.01290033
00000000: d8ca 913d 50f5 0dbc d659 903d 96c4 913d
00000010: a062 e9bb 78d0 3ebc dafa 98bd 42a3 80bd
00000020: f087 943b f7cf 27bd a345 2abd e8b5 823c
00000030: 9cd9 f6bc c884 8ebc 801a 993c 8a50 4fbd
00000040: 656f de3d 485c 843d 9bd9 a0bd e908 2fbd
00000050: ed17 a6bd d81a 383d 5813 313d 8404 a13d
00000060: b471 803c a0c1 7bbc 6cca 0d3d 5cc0 f13c
00000070: ac18 423d 24fb 23bd 7835 8cbd 8033 7e3b
00000080: fe28 9abd 1c7a 8d3d 6aa7 67bd 5e9e 9a3d
00000090: 042a 573d 00aa 0039 c8df 76bd 0cba 943d
000000a0: 95c5 36bd 3c27 ecbc bb92 06bd a0ce 59bc
000000b0: a4c7 8c3c 0736 4cbd ce28 19bd 40db 80bd
000000c0: 2c87 f6bc 9467 4c3d c0b5 eb3c c359 5cbd
000000d0: e058 a6bb 45ed 2ebd 2738 94bd 5039 c13c
000000e0: 5cb8 8a3d dd0f 1bbd d0fb f5bb e14a 35bd
000000f0: 3ee1 a9bc f01c 563d 9059 80bc 580f 0ebc
00000100: 8abb 0e3d 0074 a3b9 b52a 36bd 448e b5bc
00000110: 7a4f 1f3d cef0 dbbc e2ed 133d 2074 053c
00000120: e001 c63c d21f 23bd e4bc 733d 465a 803d
00000130: ccf6 123d 482f e33c 4640 92bd a0f0 873b
00000140: f8ae 093d 1815 5c3c 4dbe 58bd 1ca0 64bd
00000150: 0da3 8dbd 98ca de3c e2d6 8bbd c050 413d
00000160: 88c7 8c3d 2c9b c7bc 9892 7b3d 8087 4bbc
00000170: d279 253d 686e 38bd a023 29bb 703c ff3b
00000180: c01a edbc 637c 83bd 8ac8 29bd 29fd 9bbd
00000190: dce4 a2bc bc99 66bd f840 ca3d 94c9 353d
000001a0: e9a8 69bb c74b b43c f8cf d4bc fc34 663d
000001b0: b8d6 2a3d 2c05 903c 7439 253d 14a7 8bbc
000001c0: de0c f0bc cc3c 0c3d 251f 9d3d 5ccf a4bc
000001d0: a404 203d 7c39 31bd 9c44 463d d9b3 e13c
000001e0: df3a 7abd f2d7 8dbc bb2a 1bbd 0836 afbc
000001f0: f4cd d43c e0d3 9a3d 44f4 a8bd 9413 883d
00000200: a673 943d 0ca7 40bd 6669 a83d a05a 833d
00000210: 3ac9 713d c264 0c3d c849 8e3d d871 0abd
00000220: a3fc f2bc acf6 e9bc d9dd 9fbc f5f6 85bb
00000230: 8903 2d3d 7432 743d c897 343c d878 863c
00000240: 59da a3bd d488 4c3d b480 ef3c 545d 983c
00000250: ecc8 c13c b047 eb3b 1c6b b63c b086 8a3b
00000260: 9280 b0bd 0d8c 73bd 30e4 e6bb 8009 a73a
00000270: 9828 953d 5ee7 ecbc 28de 5bbd 6e88 813d
00000280: de08 52bd 586c 9f3d 7e46 ae3d d802 4a3c
00000290: b863 7b3d 32f6 08bd 204c 393d 82ca 8b3d
000002a0: 4938 a2bd ac38 99bd 142f 17bd 60f2 7e3b
000002b0: 8c41 88bc b1e1 28bd 7cce babc 915a 83bd
000002c0: 5099 a03d 5647 c6bc 496d 2fbd 3881 4abc
000002d0: 385c 86bc 3008 433d 06fa 8e3d 6062 d73b
000002e0: 640d 25bd 3036 473c bee2 1c3d bc20 7b3d
000002f0: f810 7a3d 9186 58bd 8cb8 95bd 9463 79bd
00000300: 8069 823b 001e 1ebc 88f8 a83c da75 993d
00000310: 43f8 85bd 9217 10bd a9c0 64bd 0867 93bd
00000320: 34c3 d23c 24fb 5bbd 6098 9dbc 0060 32bc
00000330: b8de 79bd ae52 a63d 8466 f53c 4eaf a6bd
00000340: 8402 e0bc 0065 6fbd 10ba 4e3c 3097 3dbd
00000350: d8ec 8f3d 18fd 213d d9fc 2fbd 5e89 85bd
00000360: 1b2d 0fbd d606 c9bc 28be 1ebc ec16 9dbd
00000370: c0f4 e7ba 7cf2 c33c 34f7 3e3d 34d7 a4bd
00000380: 826d 1ebd a0b1 5e3d 2c6c f43c d4b3 84bc
00000390: c47d a53d c8a9 653d 3869 f13c a2bf 98bd
000003a0: 726c a1bd 68db 4c3d cafe 243d 180d 73bc
000003b0: a090 303c 3804 383d 50b1 443d 9625 c3bc
000003c0: 8413 8e3c c8c7 913d 5413 253d 4236 18bd
000003d0: a085 0cbc a047 40bb 426b 953d 8ac2 efbc
000003e0: e437 573d edfb 93bc f49d 73bd 6bb7 f83d
000003f0: 2d1a c0bd 0cd7 973d 20c5 423c e85b 533c

encoder_solv.W_i.bias f4 [128]
-0.056124683 -0.071144514 -0.019376246 -0.0013037611 -0.046983145 -0.0068971966 0.054764844 -0.059591025
0.03236889 -0.05970086 0.00154568 -0.027434401 -0.034571312 0.04507357 -0.061554696 -0.02479879
-0.0042199483 -0.020084113 0.006823185 0.039932042 -0.018997828 -0.021900479 -0.06742097 0.07029671
0.004315705 -0.029391615 -0.037369806 -0.04348797 -0.039139412 0.060834605 0.023334038 0.030552782
-0.013225392 -0.06836103 0.04951466 0.0074433982 -0.039934516 0.019307584 -0.057279427 0.028841885
-0.05798938 0.043008663 -0.028295137 0.008220662 0.035617687 -0.05879052 -0.07023855 0.050514717
-0.008186213 0.053359777 -0.04562385 -0.006068365 -0.08090964 -0.07285267 -0.014740416 -0.032233007
-0.07734102 0.012688031 -0.003502952 0.00041694948 0.050555307 -0.016621863 -0.089566015 -0.047434248
0.07881557 -0.080188386 0.057875995 -0.062172197 -0.050653674 -0.030642336 0.03244762 -0.016991196
-0.011100257 -0.07179976 -0.0046144705 -0.021699967 -0.07516998 -0.031626433 -0.010668643 -0.04770607
0.018909346 0.075913586 -0.058247905 0.025147041 0.04958899 0.024459032 -0.00014678133 0.015694326
0.04463024 -0.05997859 0.023628028 0.020027583 0.032582182 0.026372328 -0.012923099 0.05619581
-0.042071324 -0.018237505 -0.02874042 -0.026625043 -0.08549555 -0.026372643 0.05149603 0.04772659
0.05889625 0.011850603 0.047334023 0.029051933 0.053697184 0.0072904984 0.007564936 0.0455481
-0.0009966942 0.023913344 -0.00407185 -0.0015438454 -0.0513423 0.03263619 0.021754922 -0.061940867
-0.059591345 -0.070088424 -0.062922016 0.06742017 -0.054654736 0.022959558 -0.01893382 -0.017065082
00000000: ffe2 65bd 37b4 91bd efba 9ebc f7e2 aaba
00000010: 6671 40bd e101 e2bb 1a51 603d b815 74bd
00000020: 3e95 043d e488 74bd 6a98 ca3a 1cbe e0bc
00000030: a69a 0dbd 109f 383d c720 7cbd d526 cbbc
00000040: 7e47 8abb 7087 a4bc 0695 df3b c88f 233d
00000050: 55a1 9bbc a268 b3bc 0114 8abd b9f7 8f3d
00000060: c26a 8d3b afc6 f0bc 1511 19bd 7120 32bd
00000070: a650 20bd b52d 793d 0627 bf3c d449 fa3c
00000080: 51af 58bc de00 8cbd e2cf 4a3d c0e7 f33b
00000090: 6092 23bd f02a 9e3c d59d 6abd d145 ec3c
000000a0: 4686 6dbd da29 303d 34cb e7bc f5af 063c
000000b0: dae3 113d 54ce 70bd 3bd9 8fbd 85e8 4e3d
000000c0: 771f 06bc c88f 5a3d 13e0 3abd 23d9 c6bb
000000d0: f4b3 a5bd c833 95bd c981 71bc c206 04bd
000000e0: f864 9ebd 76e1 4f3c c891 65bb 039a da39
000000f0: 1513 4f3d 932a 88bc 636e b7bd 6a4a 42bd
00000100: 0f6a a13d cf39 a4bd 610f 6d3d 46a8 7ebd
00000110: 3a7a 4fbd a305 fbbc cce7 043d 1f31 8bbc
00000120: dadd 35bc c10b 93bd fc34 97bb 21c4 b1bc
00000130: b8f2 99bd b88a 01bd 88cb 2ebc 7167 43bd
00000140: c6e7 9a3c 9578 9b3d 5b95 6ebd 2b01 ce3c
00000150: d31d 4b3d 4f5e c83c 50e9 19b9 6391 803c
00000160: 33ce 363d 1cac 75bd 918f c13c e310 a43c
00000170: e574 053d c80a d83c 68bb 53bc 942d 663d
00000180: fb52 2cbd d266 95bc 0771 ebbc c31c dabc
00000190: 4a18 afbd 710b d8bc 80ed 523d f57c 433d
000001a0: 323d 713d 0829 423c 52e1 413d 52fe ed3c
000001b0: 94f1 5b3d 22e5 ee3b 48e3 f73b a590 3a3d
000001c0: 82a3 82ba ebe5 c33c 276d 85bb db5a caba
000001d0: 4e4c 52bd 87ad 053d 6137 b23c b5b5 7dbd
000001e0: 0e16 74bd 858a 8fbd 42dd 80bd 9613 8a3d
000001f0: a5dd 5fbd af15 bc3c 191b 9bbc 12cc 8bbc

encoder_solv.W_h.weight f4 [128, 128]
0.021189682 -0.03021605 0.014157609 -0.0463746 -0.09605568 -0.054746725 -0.04192866 -0.025747627
-0.06769602 -0.009011354 -0.028086696 -0.079672515 -0.0462459 -0.07628242 -0.0032705143 -0.055793874
0.026297968 -0.031576354 0.03769468 0.05376183 -0.00049624086 -0.07374141 0.03176385 -0.01745771
0.007092557 0.0020217784 -0.033320677 0.047983848 -0.066783935 -0.00991888 -0.07110615 -0.035188466
-0.003561675 -0.015307508 0.07321786 0.0026069647 -0.05021723 -0.0019668431 -0.06424015 0.077156365
-0.04245632 -0.06226498 -0.084503196 0.04310188 0.049801715 -0.014301004 0.008816481 0.0081072245
-0.0137083465 -0.056173798 0.071166456 0.015708212 0.044070788 -0.010268139 -0.06321798 0.04023465
0.06543226 -0.057401635 0.05575714 -0.047384657 -0.044510785 -0.10399659 0.032813363 0.033760842
0.006469044 0.071382195 -0.051794395 -0.04317332 -0.03239756 0.08758951 -0.066635355 0.0045140237
-0.027516162 -0.029513061 -0.00097392907 -0.02547377 0.06238516 0.030382643 0.0792957 -0.06070667
0.06479443 0.098106824 -0.01739513 -0.08120069 -0.03682666 -0.066781804 0.083397225 -0.0061749127
0.08108756 0.011273399 -0.1114581 -0.0010478754 0.08097513 -0.07835984 0.011256515 -0.054013114
-0.0030092616 -0.046975087 0.0051075118 0.083732046 0.031810816 -0.038061794 0.014675985 -0.056885764
0.02836892 -0.015678255 -0.035943676 -0.005706474 0.0015433978 0.05245534 0.06650904 0.024429508
0.014574057 -0.019357227 -0.050836593 0.08810168 0.014602751 0.07350069 -0.03822387 -0.03245234
0.088176884 -0.05837051 0.068572976 -0.04588598 -0.08253803 -0.08121988 -0.0011733699 -0.022167064
0.041019347 0.03873212 0.038784035 -0.033615176 0.028248474 0.04446225 0.031020591 -0.051668663
-0.011883564 0.024153147 0.09788435 -0.026921136 -0.03563271 0.03612872 -0.016032174 -0.0029785982
-0.044241294 -0.03869213 0.11123562 0.067824155 -0.002370367 0.08787947 -0.043150812 -0.09706913
-0.013099022 0.073954575 0.05438291 0.017581875 -0.032377176 0.01067013 0.0047440585 -0.01836998
-0.012360891 -0.07143418 -0.023089541 0.054927904 0.026082639 0.030005734 0.081554696 0.057602927
-0.09303294 0.018807037 -0.06149561 -0.06563198 0.01943607 0.038779803 0.024271503 0.026410088
0.0012820441 0.074054785 0.07049894 0.01577851 -0.036829263 -0.006346175 0.03494967 0.034524232
0.03525231 0.055292234 -0.044792324 0.07065829 -0.070728816 0.0014272772 -0.01562456 -0.024704171
-0.07553896 0.04116338 0.0063047865 -0.050301064 0.04443458 -0.058424816 0.08132887 -0.031274755
0.040370293 0.09520685 -0.03667345 -0.039773386 0.07093657 0.06788121 0.019373778 0.06370783
-0.045792107 0.007253704 -0.025175912 -0.023853788 -0.10632962 -0.054128647 0.07959584 -0.0744087
0.022654139 -0.017099652 0.07483857 0.023982417 -0.02826873 0.034363978 0.06346479 0.032598473
0.023897827 0.036226932 -0.08619079 0.0885248 0.038877986 0.060007166 0.09237319 -0.037613686
-0.091174826 0.12010498 -0.022322303 0.06526168 0.054011766 -0.03613892 0.015360062 0.054612827
0.027648332 0.0672384 -0.02108997 -0.00148776 -0.01688131 0.086980626 0.0119533865 -0.05203736
0.033848874 -0.012715079 0.021164637 -0.019517042 0.0323226 -0.03808713 0.016015064 -0.030289136
00000000: fc95 ad3c a687 f7bc 51f5 673c 4bf3 3dbd
00000010: d7b8 c4bd 1a3e 60bd 63bd 2bbd b0ec d2bc
00000020: 36a4 8abd 5ca4 13bc 1216 e6bc 582b a3bd
00000030: 576c 3dbd f539 9cbd 2056 56bb 1e88 64bd
00000040: d66e d73c 3556 01bd bd65 1a3d 5d35 5c3d
00000050: 2916 02ba bd05 97bd d01a 023d 7903 8fbc
00000060: ae68 e83b d07f 043b 437b 08bd b68a 443d
00000070: 04c6 88bd cc82 22bc 1aa0 91bd c821 10bd
00000080: fe6a 69bb 58cc 7abc 3ff3 953d 9cd9 2a3b
00000090: 95b0 4dbd 27e6 00bb 5790 83bd 2804 9e3d
000000a0: aee6 2dbd 9009 7fbd 0310 adbd 998b 303d
000000b0: e2fc 4b3d c24e 6abc 0073 103c 2ad4 043c
000000c0: f998 60bc 7f16 66bd b8bf 913d 82ae 803c
000000d0: 9283 343d b23b 28bc 6e78 81bd 17cd 243d
000000e0: 5901 863d fa1d 6bbd 9961 643d 6a16 42bd
000000f0: f150 36bd 2afc d4bd 4e67 063d cf48 0a3d
00000100: 46fa d33b d430 923d 5c26 54bd 82d6 30bd
00000110: 4eb3 04bd 2162 b33d 1e78 88bd 60ea 933b
00000120: 9369 e1bc 60c5 f1bc 464f 7fba 5eae d0bc
00000130: 9587 7f3d 05e5 f83c c965 a23d 8fa7 78bd
00000140: f1b2 843d 3bec c83d 3b80 8ebc 8c4c a6bd
00000150: 8dd7 16bd e6c4 88bd 2acc aa3d ec56 cabb
00000160: 3c11 a63d 10b4 383c 2544 e4bd dd58 89ba
00000170: 4ad6 a53d 207b a0bd 3f6d 383c db3c 5dbd
00000180: 0837 45bb f368 40bd ea5c a73b b57b ab3d
00000190: 0f4c 023d afe6 1bbd 8b73 703c 0c01 69bd
000001a0: f065 e83c af6f 80bc ad39 13bd 60fd babb
000001b0: d64b ca3a 69db 563d e435 883d 6420 c83c
000001c0: 07c8 6e3c 0c93 9ebc 083a 50bd a76e b43d
000001d0: 6040 6f3c 8887 963d a290 1cbd bfec 04bd
000001e0: 1596 b43d ea15 6fbd fd6f 8c3d f0f2 3bbd
000001f0: b309 a9bd 9c56 a6bd c3cb 99ba b497 b5bc
00000200: e703 283d 92a5 1e3d 02dc 1e3d 11b0 09bd
00000210: 5869 e73c 0c1e 363d e51e fe3c 85a2 53bd
00000220: 48b3 42bc d2dc c53c 9777 c83d b789 dcbc
00000230: 9bf3 11bd b5fb 133d e855 83bc 9634 43bb
00000240: 5c36 35bd a47b 1ebd 80cf e33d 64e7 8a3d
00000250: 2958 1bbb 27fa b33d e8be 30bd 2ecc c6bd
00000260: 489d 56bc 7f75 973d 9dc0 5e3d dd07 903c
00000270: ee9d 04bd c5d1 2e3c 0c74 9b3b a47c 96bc
00000280: 5685 4abc 154c 92bd 4726 bdbc 15fc 603d
00000290: 42ab d53c 96ce f53c 2606 a73d 0cf1 6b3d
000002a0: 0e88 bebd 3711 9a3c d2e2 7bbd 0f6a 86bd
000002b0: 6538 9f3c 92d7 1e3d 08d5 c63c f859 d83c
000002c0: 430a a83a 09aa 973d c061 903d ef41 813c
000002d0: 48da 16bd 93f3 cfbb 6327 0f3d 4869 0d3d
000002e0: ba64 103d 1c7a 623d 2878 37bd 4bb5 903d
000002f0: 45da 90bd 7a13 bb3a 28fe 7fbc 6760 cabc
00000300: 2cb4 9abd ef9a 283d 6298 ce3b 7d08 4ebd
00000310: 0901 363d dc4e 6fbd c08f a63d f519 00bd
00000320: 525b 253d cffb c23d e636 16bd 6be9 22bd
00000330: 3147 913d 4e05 8b3d c2b5 9e3c 4079 823d
00000340: 8190 3bbd 7bb0 ed3b b73d cebc 0569 c3bc
00000350: 58c3 d9bd 00b6 5dbd 2503 a33d 9763 98bd
00000360: 2c95 b93c 9214 8cbc f744 993d c676 c43c
00000370: d393 e7bc 3ec1 0c3d d4f9 813d fa85 053d
00000380: 60c5 c33c b162 143d cc84 b0bd 7e4c b53d
00000390: 863e 1f3d 13ca 753d 282e bd3d cf10 1abd
000003a0: deb9 babd 9af9 f53d 43dd b6bc eaa7 853d
000003b0: 713b 5d3d 6706 14bd c5a8 7b3c b3b1 5f3d
000003c0: c17e e23c 49b4 893d dfc4 acbc f100 c3ba
000003d0: ac4a 8abc e622 b23d 23d8 433c 2025 55bd
000003e0: 1ea5 0a3d e852 50bc 7661 ad3c 34e2 9fbc
000003f0: b464 043d 4001 1cbd 0632 833c ec20 f8bc
