testing/checkpoints/DMPNN.pt (torch, 279627 bytes, 8 tensors)

encoder.cached_zero_vector f4 [128]
0.0 0.0 0.0 0.0 0.0 0.0 0.0 0.0
0.0 0.0 0.0 0.0 0.0 0.0 0.0 0.0
0.0 0.0 0.0 0.0 0.0 0.0 0.0 0.0
0.0 0.0 0.0 0.0 0.0 0.0 0.0 0.0
0.0 0.0 0.0 0.0 0.0 0.0 0.0 0.0
0.0 0.0 0.0 0.0 0.0 0.0 0.0 0.0
0.0 0.0 0.0 0.0 0.0 0.0 0.0 0.0
0.0 0.0 0.0 0.0 0.0 0.0 0.0 0.0
0.0 0.0 0.0 0.0 0.0 0.0 0.0 0.0
0.0 0.0 0.0 0.0 0.0 0.0 0.0 0.0
0.0 0.0 0.0 0.0 0.0 0.0 0.0 0.0
0.0 0.0 0.0 0.0 0.0 0.0 0.0 0.0
0.0 0.0 0.0 0.0 0.0 0.0 0.0 0.0
0.0 0.0 0.0 0.0 0.0 0.0 0.0 0.0
0.0 0.0 0.0 0.0 0.0 0.0 0.0 0.0
0.0 0.0 0.0 0.0 0.0 0.0 0.0 0.0
00000000: 0000 0000 0000 0000 0000 0000 0000 0000
00000010: 0000 0000 0000 0000 0000 0000 0000 0000
00000020: 0000 0000 0000 0000 0000 0000 0000 0000
00000030: 0000 0000 0000 0000 0000 0000 0000 0000
00000040: 0000 0000 0000 0000 0000 0000 0000 0000
00000050: 0000 0000 0000 0000 0000 0000 0000 0000
00000060: 0000 0000 0000 0000 0000 0000 0000 0000
00000070: 0000 0000 0000 0000 0000 0000 0000 0000
00000080: 0000 0000 0000 0000 0000 0000 0000 0000
00000090: 0000 0000 0000 0000 0000 0000 0000 0000
000000a0: 0000 0000 0000 0000 0000 0000 0000 0000
000000b0: 0000 0000 0000 0000 0000 0000 0000 0000
000000c0: 0000 0000 0000 0000 0000 0000 0000 0000
000000d0: 0000 0000 0000 0000 0000 0000 0000 0000
000000e0: 0000 0000 0000 0000 0000 0000 0000 0000
000000f0: 0000 0000 0000 0000 0000 0000 0000 0000
00000100: 0000 0000 0000 0000 0000 0000 0000 0000
00000110: 0000 0000 0000 0000 0000 0000 0000 0000
00000120: 0000 0000 0000 0000 0000 0000 0000 0000
00000130: 0000 0000 0000 0000 0000 0000 0000 0000
00000140: 0000 0000 0000 0000 0000 0000 0000 0000
00000150: 0000 0000 0000 0000 0000 0000 0000 0000
00000160: 0000 0000 0000 0000 0000 0000 0000 0000
00000170: 0000 0000 0000 0000 0000 0000 0000 0000
00000180: 0000 0000 0000 0000 0000 0000 0000 0000
00000190: 0000 0000 0000 0000 0000 0000 0000 0000
000001a0: 0000 0000 0000 0000 0000 0000 0000 0000
000001b0: 0000 0000 0000 0000 0000 0000 0000 0000
000001c0: 0000 0000 0000 0000 0000 0000 0000 0000
000001d0: 0000 0000 0000 0000 0000 0000 0000 0000
000001e0: 0000 0000 0000 0000 0000 0000 0000 0000
000001f0: 0000 0000 0000 0000 0000 0000 0000 0000

encoder.W_i.weight f4 [128, 147]
0.032032587 0.0118766725 0.062087 -0.064579174 -0.056509968 0.0559008 -0.048289165 0.03108589
-0.041480437 0.043911025 0.03808985 -0.05785998 0.07439795 -0.04236831 0.07035935 0.047939807
0.07063763 -0.03557825 0.03903702 0.08084583 0.057643145 0.05122669 -0.019913502 -0.023955349
-0.031757765 0.054061517 0.042195678 0.029934816 -0.053701505 -0.020588573 0.0027366206 -0.04751407
-0.009782612 0.06558497 -0.08209749 0.07440241 0.07562561 -0.014161564 -0.0075038224 0.07317114
0.06651349 0.001969695 0.0039825216 -0.059457943 0.08013497 0.02679164 0.019074723 0.06133534
-0.07416531 -0.024932478 -0.005561985 0.051201865 -0.032204777 0.064314306 0.05920729 -0.060307503
0.07310958 -0.073246695 0.03999737 -0.07751615 0.081465274 -0.02271903 -0.04183405 0.010887921
-0.03614736 0.059071854 -0.036146436 -0.027681425 -0.05593831 -0.024275567 -0.018750548 0.014935218
0.034896098 -0.08161415 0.03536787 0.032456078 0.03067948 0.051359266 0.037159696 0.0125987455
-0.05204451 0.05657184 0.007912457 -0.045633886 -0.05980375 0.069163606 -0.07444793 0.047053993
-0.011169709 0.08224061 0.021937631 0.03374379 0.045721218 0.082411274 -0.061388124 -0.043295596
-0.01087787 -0.0592124 -0.03758985 -0.068563685 -0.010169677 -0.014541455 0.027439475 0.116921835
-0.045931198 0.018435532 -0.035861447 0.033198625 0.036080662 -0.031232871 0.009290228 -0.032335505
0.06235092 0.016820267 0.10090167 -0.04423876 0.002513066 0.043764025 -0.058470845 -0.08315732
0.09431961 -0.051134713 0.008831104 0.011881612 -0.06519881 0.07132943 -0.026152954 0.07245911
0.0521722 -0.005108945 -0.048035953 0.020209044 -0.01965372 -0.059206434 -0.0027880443 -0.025417944
0.107747786 -0.051410634 -0.028129375 -0.123889975 -0.016306354 0.04999186 -0.0055718794 0.04495731
-0.07114838 -0.021528013 -0.036290035 -0.032933522 0.063052535 0.015345059 0.033956997 -0.071634494
-0.058397703 -0.06280809 -0.044297002 -0.019619254 0.038534805 -0.023728728 0.060982108 -0.023167524
-0.06434961 0.04764332 -0.030382387 0.072901726 0.025546342 -0.028269324 0.058494404 -0.010217771
0.05948983 -0.052463315 0.012012124 0.007295251 -0.010459207 0.03256493 0.07411602 -0.081986316
0.009280741 0.06332348 -0.0784861 -0.042484734 -0.06841776 0.033599637 -0.060384903 0.06450109
-0.042915266 0.066311434 -0.02154398 0.050013036 -0.033896636 -0.009746626 0.011490345 -0.08193643
-0.07727124 0.08193125 0.05381207 -0.05251488 0.046558768 0.018470623 -0.022416856 -0.07936319
0.0029919147 -0.04380005 0.06816061 0.0141630545 0.034331262 0.0037129372 0.024274759 0.032300152
-0.013822347 0.03892333 0.07388577 0.030876093 -0.014041476 -0.07468206 0.043828517 0.057415992
0.05887632 0.06302959 0.08118382 -0.07531697 -0.06358653 -0.032421824 -0.060027063 -0.042707827
0.021226585 -0.02548664 0.019045189 0.015728265 0.055397242 0.0059789345 0.038912565 0.029470645
0.040917054 -0.025171183 0.04962361 0.06539741 0.051383287 0.06187454 -0.038864765 0.019200198
0.07178575 0.07713057 0.065216586 0.035595447 0.020884179 0.019886702 0.08229174 -0.017443128
-0.057563163 -0.046023387 0.028500794 0.018818337 0.05443968 0.008492358 -0.068845145 -0.035139948
00000000: 9a34 033d 6096 423c f04e 7e3d 1642 84bd
00000010: ff76 67bd 3df8 643d dcca 45bd d6a7 fe3c
00000020: 64e7 29bd 0cdc 333d 1a04 1c3d 96fe 6cbd
00000030: f45d 983d 658a 2dbd 9018 903d 885c 443d
00000040: 76aa 903d 80ba 11bd 48e5 1f3d 8092 a53d
00000050: 381b 6c3d 14d3 513d a421 a3bc 023e c4bc
00000060: 6e14 02bd 9c6f 5d3d 60d5 2c3d dc39 f53c
00000070: 1cf6 5bbd 5ea9 a8bc e058 333b 1d9e 42bd
00000080: 4047 20bc 6a51 863d bb22 a8bd 4a60 983d
00000090: 9ae1 9a3d e805 68bc a0e2 f5bb c0da 953d
000000a0: 3a38 883d 0016 013b d07f 823b 2c8a 73bd
000000b0: ce1d a43d 247a db3c 9842 9c3c c43a 7b3d
000000c0: fbe3 97bd 323f ccbc 5041 b6bb 0cb9 513d
000000d0: 28e9 03bd 38b7 833d 5883 723d 0005 77bd
000000e0: 7aba 953d 5d02 96bd 48d4 233d cac0 9ebd
000000f0: 44d7 a63d 421d babc 2e5a 2bbd 4063 323c
00000100: 410f 14bd 54f5 713d 490e 14bd 28c4 e2bc
00000110: 921f 65bd 8edd c6bc c09a 99bc d8b2 743c
00000120: 36ef 0e3d 5225 a7bd e6dd 103d aaf0 043d
00000130: 8853 fb3c 185e 523d c434 183d f86a 4e3c
00000140: a02c 55bd e0b7 673d 40a3 013c 99ea 3abd
00000150: c7f4 74bd a6a5 8d3d 2878 98bd b0bb 403d
00000160: 2801 37bc c46d a83d 8cb6 b33c ee36 0a3d
00000170: 2c46 3b3d 3ec7 a83d 1d72 7bbd b956 31bd
00000180: 1839 32bc b488 72bd d1f7 19bd 1e6b 8cbd
00000190: b89e 26bc 483f 6ebc c0c8 e03c b774 ef3d
000001a0: 5a22 3cbd 1d06 973c 74e3 12bd 48fb 073d
000001b0: 51c9 133d 14dc ffbc 0a36 183c 3c72 04bd
000001c0: ae63 7f3d a8ca 893c 89a5 ce3d b433 35bd
000001d0: 40b2 243b e841 333d 207f 6fbd 634e aabd
000001e0: a42a c13d a272 51bd 56b0 103c 18ab 423c
000001f0: f486 85bd 2a15 923d b83e d6bc 7165 943d
00000200: 84b2 553d f068 a7bb 59c1 44bd 708d a53c
00000210: d700 a1bc 7282 72bd 9fb7 36bb 4b39 d0bc
00000220: dfaa dc3d f593 52bd 936f e6bc 07ba fdbd
00000230: e794 85bc 44c4 4c3d 5094 b6bb 2825 383d
00000240: 3eb6 91bd 845b b0bc dca4 14bd 4de5 06bd
00000250: b021 813d d869 7b3c 7e16 0b3d 1bb5 92bd
00000260: 6e32 6fbd 87a1 80bd c670 35bd 8fb8 a0bc
00000270: acd6 1d3d c062 c2bc 60c8 793d d2c9 bdbc
00000280: bac9 83bd a425 433d 7ce4 f8bc 804d 953d
00000290: 9046 d13c 1295 e7bc d497 6f3d 7068 27bc
000002a0: 9cab 733d c6e3 56bd 80ce 443c 000d ef3b
000002b0: 185d 2bbc ce62 053d 24ca 973d 71e8 a7bd
000002c0: 400e 183c beaf 813d 52bd a0bd 7904 2ebd
000002d0: 9c1e 8cbd c69f 093d 2956 77bd 2619 843d
000002e0: ebc7 2fbd 4ace 873d 007d b0bc 78da 4c3d
000002f0: 33d7 0abd 50b0 1fbc 0042 3c3c 49ce a7bd
00000300: 6240 9ebd 92cb a73d 0c6a 5c3d d819 57bd
00000310: 68b4 3e3d b44f 973c 8ea3 b7bc 2b89 a2bd
00000320: 0014 443b ae67 33bd ca97 8b3d 280c 683c
00000330: f09e 0c3d c054 733b dcdb c63c 2a4d 043d
00000340: 2077 62bc 126e 1f3d 6c51 973d dcef fc3c
00000350: 380e 66bc e8f2 98bd 8885 333d 082d 6b3d
00000360: 4c28 713d a815 813d b443 a63d c93f 9abd
00000370: a839 82bd bfcc 04bd f0de 75bd 67ee 2ebd
00000380: 60e3 ad3c 5cc9 d0bc a804 9c3c 90d8 803c
00000390: 38e8 623d f0ea c33b c862 1f3d 6c6c f13c
000003a0: a498 273d cc33 cebc 2042 4b3d 14ef 853d
000003b0: 4877 523d 2870 7d3d a930 1fbd bc49 9d3c
000003c0: 6804 933d a2f6 9d3d 4690 853d 88cc 113d
000003d0: 4c15 ab3c 70e9 a23c 9288 a83d e4e4 8ebc
000003e0: 5ac7 6bbd 0583 3cbd 7f7a e93c ea28 9a3c
000003f0: 24fc 5e3d 8823 0b3c affe 8cbd e8ee 0fbd

encoder.W_i.bias f4 [128]
-0.00071886234 -0.07871098 -0.05574643 -0.0493939 -0.092885174 -0.06856563 -0.013151273 -0.055511244
-0.03232582 0.067176454 -0.091084085 -0.049830604 0.050520137 0.05254396 -0.016497513 0.06641156
0.023105608 -0.029436309 -0.0054340833 -0.025114378 0.029795147 0.032140877 0.014491285 -0.055170823
-0.025856487 0.015666919 0.005005829 -0.012508511 0.041919865 0.00552838 -0.0048033823 -0.084733635
0.013293501 -0.037539683 -0.038766652 -0.01393857 0.009171054 0.053221066 0.041871287 -0.034024924
0.06776827 0.06477273 -0.031152306 0.03012542 -0.061096665 0.066101015 -0.05838064 0.028369026
0.015773518 0.046054788 0.0335194 -0.074681975 0.003601278 -0.0077387984 0.019459737 -0.07952798
-0.023720613 -0.08386481 -0.037902653 -0.041077916 0.0026774632 0.048646774 0.005813286 -0.06395263
-0.065136164 -0.038924262 -0.060780168 0.040089168 -0.02415067 0.004469833 -0.038238797 -0.060918283
-0.075003274 -0.06918437 0.044460867 -0.028798517 0.03543683 -0.058723368 0.015072709 -0.058016926
-0.05077229 -0.015576766 0.043422446 -0.05430988 -0.03305517 0.060438275 -0.003108445 -0.013047009
-0.019143492 0.0053209835 -0.0067316154 0.03822909 -0.020695474 -0.029255673 -0.0065313815 0.00381289
-0.04352855 0.019600114 -0.0782584 0.040817965 0.028656097 -0.03913409 0.04428124 0.029360749
-0.02974611 -0.06952018 -0.04277938 -0.003211335 -0.05453868 -0.04831497 -0.056630686 0.050833143
0.03515521 -0.0064333417 0.04306912 -0.010502672 -0.046696696 -0.010720351 -0.018591829 0.0057223565
-0.036849808 -0.027171357 -0.046656564 -0.06530031 -0.03383766 0.025683198 0.013724916 -0.040861007
00000000: 0972 3cba 3933 a1bd 5e56 64bd 4251 4abd
00000010: 953a bebd 236c 8cbd 7078 57bc c25f 63bd
00000020: 1468 04bd cf93 893d 4b8a babd 2d1b 4cbd
00000030: 34ee 4e3d 5638 573d cb25 87bc c902 883d
00000040: f947 bd3c 6a24 f1bc 6510 b2bb abbc cdbc
00000050: f414 f43c 27a6 033d db6c 6d3c cdfa 61bd
00000060: fcd0 d3bc e957 803c f007 a43b 7ff0 4cbc
00000070: 2ab4 2b3d 6a27 b53b b165 9dbb d488 adbd
00000080: fccc 593c 36c3 19bd c8c9 1ebd 9a5e 64bc
00000090: 3042 163c 55fe 593d 3a81 2b3d b85d 0bbd
000000a0: 17ca 8a3d 91a7 843d 1f33 ffbc 96c9 f63c
000000b0: 7f40 7abd f85f 873d 8a20 6fbd 2966 e83c
000000c0: 7737 813c f2a3 3c3d a34b 093d ddf2 98bd
000000d0: 6b03 6c3b bf95 fdbb 076a 9f3c 91df a2bd
000000e0: bb51 c2bc 50c1 abbd d03f 1bbd 5141 28bd
000000f0: 6178 2f3b d741 473d 617d be3b 99f9 82bd
00000100: 1c66 85bd 0c6f 1fbd a0f4 78bd 8a34 243d
00000110: a0d7 c5bc ad77 923b 49a0 1cbd 7385 79bd
00000120: 519b 99bd 89b0 8dbd 991c 363d deea ebbc
00000130: 3626 113d ea87 70bd 86f3 763c 28a3 6dbd
00000140: 9bf6 4fbd b135 7fbc bcdb 313d 0974 5ebd
00000150: dc64 07bd 208e 773d 0eb7 4bbb 1fc3 55bc
00000160: d0d2 9cbc a55b ae3b e294 dcbb 1b96 1c3d
00000170: 8e89 a9bc 98a9 efbc 3305 d6bb aee1 793b
00000180: fe4a 32bd 6b90 a03c f145 a0bd bd30 273d
00000190: 31c0 ea3c 114b 20bd 3f60 353d f485 f03c
000001a0: 1dae f3bc 9960 8ebd 6e39 2fbd 4375 52bb
000001b0: f363 5fbd ebe5 45bd 94f5 67bd 6a36 503d
000001c0: e9fe 0f3d c8ce d2bb 3f69 303d 6613 2cbc
000001d0: 0945 3fbd 69a4 2fbc e44d 98bc 9b82 bb3b
000001e0: d3ef 16bd 7796 debc f41a 3fbd 2bbc 85bd
000001f0: 5c99 0abd 9265 d23c 78de 603c df5d 27bd

encoder.W_h.weight f4 [128, 128]
0.07090689 -0.018863078 -0.028903551 -0.065952286 -0.020273557 -0.08475142 -0.020543719 0.00038765732
-0.072367154 0.01280851 -0.07460377 0.039309684 -0.065879405 -0.025629355 -0.054364175 0.058101628
0.0674399 -0.03537807 -0.024977937 0.048223794 0.027357725 -0.05755963 0.07595794 -0.024137916
-0.045047436 -0.03992878 -0.022799589 -0.005504218 0.032765046 -0.057440385 -0.019111091 0.051772743
0.046531085 -0.019516326 -0.017988095 -0.045089636 0.003935468 -0.013310355 -0.070886225 0.024534995
0.0716726 0.05764916 0.023784079 -0.02805488 0.084186085 -0.057455976 -0.02098658 0.007365725
0.089105085 0.062966816 -0.020471085 -0.060387485 -0.004134511 -0.02928956 0.037665702 -0.018529255
0.0015133247 -0.11079388 -0.06598867 -0.0008992003 -0.082697906 -0.03572117 0.050421376 -0.06360973
-0.024810292 7.177047e-05 -0.021232985 0.09191099 -0.01938596 -0.0021439386 -0.04242764 0.06474765
-0.011258297 0.027150929 -0.027130838 0.002234154 -0.0046330756 -0.06106676 0.0055921376 -0.09651283
-0.019042559 4.6455156e-05 -0.05040652 -0.07294881 0.05006879 -0.011828711 0.06437025 -0.10453466
-0.031862672 -0.033042222 -0.00040099805 0.10179735 -0.10478292 -0.004437689 0.06759729 -0.0772121
0.018083706 0.02340725 0.03098403 0.023343325 0.0008639217 0.022533882 0.028732223 -0.015654603
0.025563931 -0.037247777 0.034018245 -0.08350637 -0.0008901432 -0.044208556 -0.045553368 -0.05945879
0.09592532 0.011889965 -0.015873937 0.09656563 -0.05448605 0.0048752176 -0.09499321 -0.044707168
-0.056470815 -0.04862646 -0.09324804 0.037709102 0.030070188 -0.06893004 -0.040708326 0.033360828
0.02963507 -0.06620876 0.039382525 0.06740209 -0.08012036 -0.05302527 -0.055582125 0.0013640283
-0.022172203 0.07036749 0.053457767 -0.058633395 -0.07262901 -0.027365696 -0.09363394 0.0168023
0.0044495426 0.047224082 -0.075206466 -0.0784253 -0.091388345 -0.073896505 0.069334045 -0.08064683
-0.020600144 0.04515456 -0.010642341 -0.046299357 -0.05237842 0.021388419 -0.013420052 -0.08848669
0.05086163 0.050157413 -0.0013302632 0.0131807765 -0.017824251 -0.08710837 0.06624484 -0.054505408
-0.08834746 -0.021055942 0.0139482375 0.05075594 0.035589755 0.05747641 -0.10441684 -0.063382
0.04727472 -0.07704352 -0.0386881 0.033130534 -0.09138257 0.034485314 0.051564068 0.06040923
0.07328663 -0.006813023 -0.096400134 0.015760556 -0.017951258 0.027441733 -0.004130557 -0.010294388
0.07151619 -0.04834456 0.045376666 0.06405247 -0.069980524 -0.020458462 0.011834923 -0.086575136
-0.060898054 0.013957024 0.05461282 0.01079607 0.027408995 -0.08899403 0.08768821 0.06277338
-0.06685648 -0.03628775 0.009238504 -0.034932654 0.03365324 -0.002691022 0.0069537275 0.06511795
0.025745986 -0.066263214 0.0028370665 -0.03355823 -0.08008868 -0.08366931 0.0069759837 -0.058333945
0.00975962 -0.071545884 0.03279499 -0.04695937 -0.06712578 -0.022061512 0.020493984 0.061407223
0.069808915 0.0072811036 -0.06181699 0.01110088 -0.058874562 0.02776503 0.036341313 0.06418656
0.051527098 -0.027870452 0.01284087 0.08055939 0.0051767095 -0.0048166253 0.013399999 -0.005574052
0.06274424 -0.05343904 0.034197956 0.034840867 -0.0016770959 -0.040082607 -0.053371716 -0.0237495
00000000: a237 913d be86 9abc 24c7 ecbc fe11 87bd
00000010: bb14 a6bc 2792 adbd 4d4b a8bc 7c3e cb39
00000020: 3b35 94bd c9da 513c ddc9 98bd 3103 213d
00000030: c8eb 86bd a7f4 d1bc f8ac 5ebd f9fb 6d3d
00000040: ee1d 8a3d 98e8 10bd 889e ccbc 5086 453d
00000050: 4f1d e03c a6c3 6bbd d68f 9b3d e1bc c5bc
00000060: a983 38bd 5c8c 23bd 34c6 babc ba5c b4bb
00000070: a434 063d 9c46 6bbd dd8e 9cbc a80f 543d
00000080: 6197 3e3d b4e0 9fbc c55b 93bc e9af 38bd
00000090: 19f5 803b ad13 5abc cc2c 91bd 9dfd c83c
000000a0: 16c9 923d 8721 6c3d d4d6 c23c 59d3 e5bc
000000b0: c169 ac3d f556 6bbd 0cec abbc 2e5c f13b
000000c0: ba7c b63d bff4 803d fab2 a7bc de58 77bd
000000d0: cb7a 87bb a9f0 efbc 5a47 1a3d aaca 97bc
000000e0: c05a c63a e7e7 e2bd 1125 87bd 50b8 6bba
000000f0: 855d a9bd 5d50 12bd a586 4e3d d145 82bd
00000100: f43e cbbc 7a83 9638 ccf0 adbc d43b bc3d
00000110: 4ecf 9ebc 5281 0cbb 9bc8 2dbd 6a9a 843d
00000120: b874 38bc a06b de3c 7e41 debc e26a 123b
00000130: 0ed1 97bb 2421 7abd 403e b73b 85a8 c5bd
00000140: 24ff 9bbc d8d8 4238 1177 4ebd 3066 95bd
00000150: ee14 4d3d 36cd 41bc 8dd4 833d 4516 d6bd
00000160: 6f82 02bd 4857 07bd 0c3d d2b9 217b d03d
00000170: 6d98 d6bd 096a 91bb 7370 8a3d 6121 9ebd
00000180: 4824 943c 90c0 bf3c 38d2 fd3c 803a bf3c
00000190: ce78 623a fa98 b83c d75f eb3c 153e 80bc
000001a0: 736b d13c 2091 18bd b756 0b3d 6305 abbd
000001b0: 8058 69ba 0814 35bd 2b96 3abd 0f8b 73bd
000001c0: 7f74 c43d 21ce 423c 0f0a 82bc 33c4 c53d
000001d0: c42c 5fbd 4ac0 9f3b cd8b c2bd dd1e 37bd
000001e0: f14d 67bd 8a2c 47bd d4f8 bebd dc74 1a3d
000001f0: c155 f63c 312b 8dbd c6bd 26bd 5da5 083d
00000200: 3fc5 f23c 7598 87bd 924f 213d 1b0a 8a3d
00000210: 2516 a4bd 0731 59bd 15aa 63bd 32c9 b23a
00000220: 7ba2 b5bc d51c 903d 88f6 5a3d 9229 70bd
00000230: 85be 94bd 062e e0bc 27c3 bfbd faa4 893c
00000240: 78cd 913b 0a6e 413d d905 9abd 729d a0bd
00000250: d029 bbbd 0d57 97bd 02ff 8d3d 2a2a a5bd
00000260: a2c1 a8bc fdf3 383d 375d 2ebc 65a4 3dbd
00000270: c18a 56bd c436 af3c c7df 5bbc 8238 b5bd
00000280: 4954 503d dc71 4d3d 3a5c aeba 2ff4 573c
00000290: 2a04 92bc e065 b2bd 60ab 873d 1041 5fbd
000002a0: 83ef b4bd 837d acbc 2687 643c 76e5 4f3d
000002b0: 90c6 113d 626c 6b3d 7fd8 d5bd 6cce 81bd
000002c0: 23a3 413d fec8 9dbd 6a77 1ebd e2b3 073d
000002d0: c926 bbbd 7940 0d3d d834 533d ab6f 773d
000002e0: 4d17 963d c73f dfbb 6f6d c5bd 481c 813c
000002f0: 840e 93bc 7ccd e03c a059 87bb cba9 28bc
00000300: 1577 923d f204 46bd e2dc 393d f12d 833d
00000310: f351 8fbd 8198 a7bc 44e7 413c 4e4e b1bd
00000320: 3d70 79bd 00ac 643c b1b1 5f3d 00e2 303c
00000330: d488 e03c 8142 b6bd e095 b33d 548f 803d
00000340: 0dec 88bd 77a2 14bd 185d 173c 8b15 0fbd
00000350: fbd7 093d db5b 30bb 18dc e33b 8f5c 853d
00000360: 3fe9 d23c 02b5 87bd 14ee 393b 5b74 09bd
00000370: 8905 a4bd d15a abbd cb96 e43b 93ef 6ebd
00000380: d0e6 1f3c a686 92bd 0a54 063d 7858 40bd
00000390: 3e79 89bd 58ba b4bc 00e3 a73c 2486 7b3d
000003a0: faf7 8e3d 5396 ee3b d033 7dbd 77e0 353c
000003b0: 7426 71bd 7d73 e33c a1da 143d 3e74 833d
000003c0: 140e 533d 9350 e4bc 8362 523c 52fc a43d
000003d0: 63a1 a93b c8d4 9dbb ab8b 5b3c 8aa6 b6bb
000003e0: 0d80 803d e5e2 5abd 2813 0c3d 4cb5 0e3d
000003f0: 00d2 dbba a92d 24bd 4d9c 5abd 508e c2bc

encoder.W_h.bias f4 [128]
-0.009234679 0.06639187 0.059880134 0.058323283 0.05656276 0.04933338 0.049933296 0.019769982
-0.063725166 -0.050423644 0.05580845 0.07104673 -0.069518074 0.020463867 -0.07407371 -0.048628625
-0.009852126 0.032771796 0.029651254 0.01946623 0.016442968 0.023356888 0.019154783 0.084429525
0.05777708 -0.01876113 -0.06005985 0.014606705 0.05917402 -0.06097096 0.072281726 0.07887109
-0.087497644 -0.05815219 -0.015513231 0.04609809 0.046561047 0.026977496 -0.04732253 -0.007336283
-0.058040027 0.027186424 -0.052897576 -0.088012196 0.07280383 0.022179088 0.055519685 0.048103146
0.05749087 0.029673915 0.041175492 0.042538896 0.04868922 -0.09043811 0.015699275 -0.011290519
-0.03262594 -0.04702802 -0.010800081 0.061991245 0.05066733 0.043357 0.030964073 0.014837826
-0.04637803 -0.026473947 -0.040798478 -0.0038588396 -0.039341375 0.055022936 -0.04551293 -0.017344546
-0.029987682 -0.029527035 0.071424685 -0.0014862521 -0.041203957 0.00093319314 -0.061961025 -0.04942681
0.026558682 -0.015571352 0.048410036 0.05032413 0.008648338 -0.05377268 0.08486287 0.034867615
-0.008562848 0.0015665703 -0.07780104 -0.002309753 -0.0025993157 -0.047920026 -0.06988103 -0.047558248
-0.010722235 -0.07566256 0.039221413 0.012049361 -0.06790012 -0.048646957 0.01880705 0.05934557
0.03053593 -0.038615637 -0.007032019 0.018327486 -0.09370551 -0.013995709 0.036332678 -0.040861927
0.05593649 -0.0721633 0.0897852 -0.09089193 0.026855584 0.04656382 -0.03575831 0.021263992
0.0852246 0.06289261 -0.009236085 0.04115183 -0.0161616 0.036146954 -0.0612852 0.034173813
00000000: 0d4d 17bc 76f8 873d df44 753d 65e4 6e3d
00000010: 5aae 673d cc11 4a3d db86 4c3d a8f4 a13c
00000020: 5782 82bd 0689 4ebd 6797 643d f380 913d
00000030: 7e5f 8ebd d7a3 a73c f5b3 97bd cf2e 47bd
00000040: d06a 21bc b83b 063d 30e7 f23c a577 9f3c
00000050: 67b3 863c f256 bf3c 7eea 9c3c 63e9 ac3d
00000060: a9a7 6c3d f1b0 99bc 5101 76bd f650 6f3c
00000070: 7560 723d afbc 79bd 7108 943d 2b87 a13d
00000080: f731 b3bd fe30 6ebd 352b 7ebc 5ad1 3c3d
00000090: ccb6 3e3d e9ff dc3c 45d5 41bd 3465 f0bb
000000a0: 61bb 6dbd 10b6 de3c 21ab 58bd bd3f b4bd
000000b0: 2d1a 953d ebb0 b53c 9c68 633d ce07 453d
000000c0: 8c7b 6b3d b616 f33c a2a7 283d 443d 2e3d
000000d0: 596e 473d 9e37 b9bd c49b 803c defb 38bc
000000e0: c7a2 05bd 74a0 40bd d3f2 30bc 88ea 7d3d
000000f0: 8c88 4f3d 1c97 313d 5ea8 fd3c 5a1a 733c
00000100: e4f6 3dbd e4df d8bc 4e1c 27bd 96e4 7cbb
00000110: 6c24 21bd bb5f 613d c46b 3abd 2616 8ebc
00000120: baa8 f5bc aee2 f1bc 1b47 923d 58ce c2ba
00000130: 7bc5 28bd 88a1 743a d8ca 7dbd c473 4abd
00000140: 9891 d93c fc1e 7fbc 9a49 463d ad20 4e3d
00000150: c2b1 0d3c be40 5cbd 96cc ad3d 58d1 0e3d
00000160: 304b 0cbc 6055 cd3a 2756 9fbd 3a5f 17bb
00000170: 4859 2abb ca47 44bd c91d 8fbd 70cc 42bd
00000180: 50ac 2fbc f9f4 9abd a2a6 203d af6a 453c
00000190: 380f 8bbd 0842 47bd 3e11 9a3c 5714 733d
000001a0: 7d26 fa3c 6e2b 1ebd da6c e6bb 8623 963c
000001b0: ade8 bfbd 424e 65bc 93d1 143d d65e 27bd
000001c0: a91d 653d 5aca 93bd 4ee1 b73d 8c25 babd
000001d0: 3e00 dc3c b4b9 3e3d 4e77 12bd d331 ae3c
000001e0: 3c8a ae3d d7cd 803d f352 17bc d28e 283d
000001f0: 5565 84bc d40e 143d 3106 7bbd d7f9 0b3d

encoder.W_o.weight f4 [128, 261]
-0.0033947974 0.04753536 -0.019081514 0.038449824 -0.0044875406 -0.05963186 0.02963621 -0.108741425
-0.066450275 -0.038708888 0.0542183 -0.051431637 -0.06110772 0.02703859 0.03239286 -0.034328796
-0.04955598 -0.007570248 -0.058088005 0.032599397 0.013624303 -0.010301087 -0.0421058 0.00738135
-0.01794364 -0.04529155 0.03737031 -0.057511605 -0.011896607 0.004640296 0.027574994 -0.0319572
-0.0035861395 0.030536406 -0.04931324 -0.039910257 -0.04506585 -0.012621157 -0.049636036 0.043815836
0.031088665 -0.0040955096 0.047591627 0.028480701 -0.03198485 0.051379777 -0.047566503 0.05292487
0.03068272 0.051646024 0.0055882335 -0.04818309 -0.04863628 0.028694183 -0.016995307 0.019930422
0.009448007 -0.020099275 -0.04629152 -0.04665903 0.014592193 -0.02970964 -0.00072970986 0.047681935
-0.0036527775 0.0596162 0.025506645 0.015340932 0.024113975 -0.023810558 0.055657044 -0.060503434
-0.017202094 0.04485949 0.060401708 0.019614272 -0.049410123 0.034690447 -0.0016253814 -0.045288824
-0.047969 0.032626756 -0.040669776 0.054515824 -0.02950354 -0.015312489 -0.02665827 -0.04172054
0.055248685 -0.044324405 0.0019576252 0.049149655 0.021081977 0.0010164455 -0.02012363 0.05969985
0.024981223 -0.0006407276 -0.0009988472 -0.019319024 -0.05405631 0.026567623 -0.031124322 -0.06195013
-0.03079525 -0.0011145798 0.026291817 0.053308815 -0.0062055388 0.04891146 0.022141559 -0.007041458
-0.051175527 -0.014138956 -0.015829885 -0.037400104 -0.031884655 -0.042076588 0.053055927 -0.07408205
0.061544135 0.05944925 -0.015556775 -0.0033719789 -0.053386874 -0.05462292 -0.06426737 -0.047277886
-0.0433387 0.012976557 -0.033463366 0.049620632 -0.07332008 0.049808193 0.024654973 -0.045680515
0.005865534 -0.006240185 0.08689954 0.016610662 0.0480575 0.06561968 -0.0016162649 -0.01859345
0.020326855 -0.0025073998 -0.013739221 0.0887932 0.01668649 0.02057092 0.0065638316 0.0317001
-0.06318644 0.031571556 0.01892717 0.053610627 0.067357965 -0.0045409137 -0.010637456 -0.0379106
-0.06511878 -0.031235447 -0.039104544 0.039767448 0.025491726 -0.030361425 0.0013930975 -0.029636102
-0.0027323891 -0.008177177 0.054189462 -0.011998726 0.013382991 0.012433762 -0.042392235 -0.02704709
0.005138418 0.02846092 -0.039093547 0.0035023405 -0.033181828 0.052692257 -0.016852623 -0.0355174
-0.028210096 0.020747436 -0.0058694757 -0.044115044 0.09115981 -0.00826401 -0.032519214 0.007831133
-0.053523574 0.038564034 0.033384673 -0.053281236 0.023364374 0.0391012 0.06889014 -0.025973426
-0.0025014759 0.054700427 -0.012342909 0.015924435 -0.039771874 -0.020582456 0.049647152 0.038400028
-0.002553701 0.063460425 -0.02837715 0.053757112 0.00034003487 0.02677404 0.049694102 0.016645612
-0.09375652 -0.04320684 0.002872851 0.01017365 0.05033223 0.035386525 -0.017020684 0.06872769
-0.030064547 0.029227281 -0.029756742 -0.05343201 -0.01858499 0.031474754 0.0054017715 -0.07824047
0.0011390526 0.0056382352 0.032153964 -0.03205422 -0.0105320895 0.008857288 0.06967249 0.041994464
0.006631301 0.009671234 -0.0054730116 0.0633849 -0.00032371277 0.0011732222 0.057439804 -0.036972493
0.0060024685 0.07262015 -0.059256047 -0.00096138864 0.022642383 0.022459358 -0.026412342 -0.00086494256
00000000: 407b 5ebb 70b4 423d d650 9cbc 907d 1d3d
00000010: 380c 93bb 8a40 74bd a3c7 f23c d3b3 debd
00000020: 1517 88bd 368d 1ebd 0214 5e3d fba9 52bd
00000030: 174c 7abd 0880 dd3c 60ae 043d 5a9c 0cbd
00000040: 36fb 4abd d80f f8bb b0ed 6dbd f286 053d
00000050: 7838 5f3c e4c5 28bc 2277 2cbd 40df f13b
00000060: 8afe 92bc a283 39bd 9c11 193d 4a91 6bbd
00000070: fce9 42bc a00d 983b f4e4 e13c 8ee5 02bd
00000080: 7005 6bbb 7c27 fa3c aefc 49bd f078 23bd
00000090: f896 38bd f8c8 4ebc 284f 4bbd 3c78 333d
000000a0: a8ad fe3c a033 86bb 70ef 423d 5c50 e93c
000000b0: 8c02 03bd 9a73 523d 18d5 42bd c0c7 583d
000000c0: 545a fb3c c88a 533d 801d b73b a25b 45bd
000000d0: d636 47bd 1010 eb3c be39 8bbc 2045 a33c
000000e0: d0cb 1a3c 3ca7 a4bc 2d9c 3dbd 8a1d 3fbd
000000f0: 1814 6f3c a261 f3bc 004a 3fba 224e 433d
00000100: 7063 6fbb 1e30 743d 50f3 d03c 8858 7b3c
00000110: ac8a c53c 5c0e c3bc a4f8 633d 73d2 77bd
00000120: 68eb 8cbc 96be 373d c867 773d 1cae a03c
00000130: 4562 4abd 9217 0e3d c00a d5ba c680 39bd
00000140: 247b 44bd a2a3 053d 5a95 26bd fc4b 5f3d
00000150: 68b1 f1bc 3ce1 7abc 7262 dabc 28e3 2abd
00000160: 724c 623d 828d 35bd 804b 003b 2651 493d
00000170: 1cb4 ac3c 403a 853a 50da a4bc d487 743d
00000180: 6ca5 cc3c 80f6 27ba c0eb 82ba ee42 9ebc
00000190: 266a 5dbd 58a4 d93c 6ff8 febc 6bbf 7dbd
000001a0: 5246 fcbc 1817 92ba f061 d73c 585a 5a3d
000001b0: d557 cbbb 6257 483d 3762 b53c 08bc e6bb
000001c0: 6e9d 51bd 14a7 67bc adad 81bc da30 19bd
000001d0: 7c99 02bd 8058 2cbd 2c51 593d 54b8 97bd
000001e0: b415 7c3d 0f81 733d d8e1 7ebc 6bfc 5cbb
000001f0: 32ac 5abd 48bc 5fbd 9c9e 83bd 75a6 41bd
00000200: ec83 31bd a09b 543c e210 09bd 013f 4b3d
00000210: d728 96bd ad03 4c3d 3af9 c93c 7e1b 3bbd
00000220: aa33 c03b 777a ccbb 63f8 b13d 1513 883c
00000230: f1d7 443d 9c63 863d dad8 d3ba 4a51 98bc
00000240: 8184 a63c 3053 24bb 781a 61bc 36d9 b53d
00000250: 1bb2 883c 5984 a83c 6915 d73b f7d7 013d
00000260: e467 81bd 2d51 013d 270d 9b3c d196 5b3d
00000270: f9f2 893d f2cb 94bb b948 2ebc 2548 1bbd
00000280: ff5c 85bd 7be1 ffbc 162c 20bd 31e3 223d
00000290: 06d4 d03c 86b8 f8bc 9898 b63a 69c7 f2bc
000002a0: e211 33bb 91f9 05bc c5f5 5d3d 4e96 44bc
000002b0: 5544 5b3c fab6 4b3c 7ba3 2dbd dc91 ddbc
000002c0: 2d60 a83b e026 e93c 8e20 20bd 8687 653b
000002d0: abe9 07bd d6d3 573d 830e 8abc b17a 11bd
000002e0: dc18 e7bc 87f6 a93c bb54 c0bb fab1 34bd
000002f0: ffb1 ba3d c565 07bc de32 05bd 274e 003c
00000300: 893b 5bbd 52f5 1d3d 5ebe 083d 6d3d 5abd
00000310: a566 bf3c 9428 203d 4616 8d3d 39c6 d4bc
00000320: cdef 23bb 8e0d 603d ea39 4abc f673 823c
00000330: d5e7 22bd 8a9c a8bc d05a 4b3d 5949 1d3d
00000340: fe5b 27bb 8af7 813d 3277 e8bc 6b30 5c3d
00000350: b546 b239 3b55 db3c 0b8c 4b3d 615c 883c
00000360: 6b03 c0bd a8f9 30bd 7146 3c3b 62af 263c
00000370: 2b29 4e3d 76f1 103d f66e 8bbc 1ac1 8c3d
00000380: ed49 f6bc 0d6e ef3c 69c4 f3bc 86db 5abd
00000390: 8d3f 98bc aceb 003d 5801 b13b 8a3c a0bd
000003a0: 434c 953a f2c0 b83b e0b3 033d 494b 03bd
000003b0: c98e 2cbc 291e 113c 73b0 8e3d 6302 2c3d
000003c0: 624b d93b 1874 1e3c f356 b3bb f1cf 813d
000003d0: feb7 a9b9 cec6 993a 0046 6b3d 7870 17bd
000003e0: 5bb0 c43b e0b9 943d 78b6 72bd b305 7cba
000003f0: 857c b93c b0fc b73c b25e d8bc 50bd 62ba

encoder.W_o.bias f4 [128]
-0.01958891 -0.04611962 -0.06987534 0.009197648 -0.011243149 0.01690856 -0.0134322485 0.044300776
0.002800221 -0.029421242 0.0067304745 -0.009749198 -0.026292603 0.082530834 -0.051680144 -0.011207726
0.013302589 -0.012951047 -0.050996583 -0.03177031 0.08589175 -0.030400993 0.04438962 -0.052991595
0.03950624 -0.02217961 0.08307999 0.05759709 0.030111063 -0.0002800493 0.013527525 -0.041441046
0.001441823 0.03536049 0.04075061 -0.018162189 -0.026872339 -0.040122293 0.08280643 0.03345568
-0.04975988 0.008179764 0.04691192 0.01864049 -0.0037289674 -0.022980377 0.08280841 0.030961901
-0.03765086 -0.02372692 0.038048614 0.0008865656 0.07260652 -0.0042865835 0.069060005 -0.014166233
0.05413638 -0.011637427 -0.04928246 0.010885887 -0.038556542 -0.004676984 0.010893201 -0.0575463
0.017319761 -0.046530176 -0.013355673 -0.04531959 -0.055945072 0.03139085 -0.003898271 0.014527044
-0.025237216 -0.04602703 -0.063029744 0.029803239 -0.061872814 0.03983657 0.03137024 -0.0027700043
-0.061721202 0.023791278 0.021328852 0.044486586 -0.065002814 0.03983121 0.034061015 0.003964199
-0.040553797 0.027499398 0.035083126 -0.05965325 -0.021541316 -0.01804119 0.009050307 -0.018335879
-0.061250485 -0.06150159 0.05570374 -0.031244079 0.05984323 -0.016995417 -0.008954542 0.032118
0.035428688 0.038131636 -0.061095588 -0.019372357 0.019584872 -0.035571054 -0.028120616 -0.026125388
-0.049928416 0.031124767 -0.05830496 0.011433381 0.049447197 -0.05681733 -0.0107087465 0.022999855
-0.045067225 -0.008900082 0.024857217 0.049732503 0.051017858 0.02201245 0.013754101 0.019680427
00000000: ec78 a0bc ede7 3cbd cd1a 8fbd bbb1 163c
00000010: 2f35 38bc d283 8a3c ef12 5cbc bb74 353d
00000020: ea83 373b d104 f1bc 508b dc3b 1abb 1fbc
00000030: 9663 d7bc ed05 a93d 8fae 53bd 9ca0 37bc
00000040: 1af3 593c a130 54bc cbe1 50bd 9621 02bd
00000050: 04e8 af3d 810b f9bc e4d1 353d b70d 59bd
00000060: 4cd1 213d 03b2 b5bc d825 aa3d edea 6b3d
00000070: 7aab f63c 95d3 92b9 8da2 5d3c 16be 29bd
00000080: 8dfb bc3a 29d6 103d 1dea 263d dfc8 94bc
00000090: 6123 dcbc 4657 24bd 6b96 a93d d308 093d
000000a0: 04d1 4bbd 6b04 063c b726 403d f1b3 983c
000000b0: b161 74bb 5841 bcbc 7597 a93d d0a3 fd3c
000000c0: ca37 1abd f55e c2bc ddd8 1b3d 6968 683a
000000d0: bab2 943d 7876 8cbb 556f 8d3d 7d19 68bc
000000e0: 1cbe 5d3d e8aa 3ebc 68dc 49bd b85a 323c
000000f0: 77ed 1dbd 6341 99bb 6679 323c abb5 6bbd
00000100: 2ce2 8d3c 6d96 3ebd c1d1 5abc 09a1 39bd
00000110: a926 65bd b193 003d 227a 7fbb d702 6e3c
00000120: 47be cebc d786 3cbd bd15 81bd ec25 f43c
00000130: 596e 7dbd ac2b 233d 157e 003d f688 35bb
00000140: 5fcf 7cbd ede5 c23c d8b9 ae3c 9137 363d
00000150: 3220 85bd 0d26 233d 9083 0b3d 1de6 813b
00000160: bd1b 26bd 6b46 e13c 53b3 0f3d f756 74bd
00000170: 6a77 b0bc 1ecb 93bc bd47 143c 2035 96bc
00000180: cae1 7abd 17e9 7bbd 9b29 643d 95f3 ffbc
00000190: 2d1e 753d f939 8bbc 12b6 12bc 2a8e 033d
000001a0: ac1d 113d eb2f 1c3d 5e3f 7abd c7b2 9ebc
000001b0: 7470 a03c f4b2 11bd 355d e6bc e904 d6bc
000001c0: bd81 4cbd 5ef9 fe3c 2fd1 6ebd 1353 3b3c
000001d0: 2589 4a3d 4ab9 68bd bd73 2fbc 316a bc3c
000001e0: 6998 38bd a6d1 11bc 5da1 cb3c 4fb4 4b3d
000001f0: 1af8 503d 7453 b43c e158 613c d938 a13c

ffn.1.weight f4 [1, 128]
0.024503604 0.016211508 0.051209252 -0.03909348 -0.10253066 0.038943086 -0.07726607 0.047197953
-0.051926203 0.04286521 -0.04454851 -0.057482816 0.09006241 -0.1015597 -0.04724164 0.0047079264
0.065868646 -0.0026012864 -0.075547665 0.08126129 -0.06817973 0.07332002 -0.10049248 0.040360026
0.023570742 0.093180075 -0.03889619 -0.040256936 0.045213282 -0.051709775 -0.063764736 0.06457552
0.064979926 0.10249258 -0.020621255 -0.040379524 0.06609276 0.054400716 -0.1004477 -0.068043604
0.06617938 0.041297533 0.041872073 -0.008755009 -0.030430814 -0.07302076 -0.08594854 0.040992245
-0.110333286 0.07765348 0.07041777 0.09953989 -0.023461722 -0.037394453 -0.06784951 -0.05295401
0.045534488 0.01935739 -0.08327484 -0.091585085 0.04804951 0.07053546 0.070023835 0.10591387
-0.06070818 -0.03372083 -0.025318427 0.10111973 0.069159485 0.045394115 -0.0693003 -0.054980777
-0.10841898 0.06660572 -0.041813005 -0.06804228 0.05932168 0.055065088 -0.04366367 0.03114848
0.0611031 -0.06277541 0.06441617 -0.05989293 0.06767271 0.07160523 0.09865639 -0.07663524
0.095042795 -0.049488317 -0.10131214 0.02658228 0.027544528 0.055576995 -0.09388936 0.033455446
0.06596544 0.022892347 -0.029498773 -0.0027460803 -0.044287637 0.09411534 -0.026332868 -0.035260502
-0.058162373 0.08804301 0.034049172 -0.053295717 -0.08588372 -0.07349247 -0.018661683 0.094514474
0.096225224 -0.0931867 0.0727018 -0.030904967 -0.030669091 0.12026543 -0.06017732 0.05921457
0.030829003 0.1002253 0.09113041 -0.053029466 -0.094263 0.044252854 -0.08040475 0.0540591
00000000: c8bb c83c ffcd 843c cbc0 513d 7c20 20bd
00000010: 98fb d1bd c982 1f3d ac3d 9ebd a452 413d
00000020: 92b0 54bd 6e93 2f3d 8078 36bd 1a73 6bbd
00000030: a472 b83d 88fe cfbd 7380 41bd f344 9a3b
00000040: 24e6 863d 587a 2abb bcb8 9abd 526c a63d
00000050: d0a1 8bbd cf28 963d 00cf cdbd 8e50 253d
00000060: 6e17 c13c 32d5 be3d 9c51 1fbd 75e4 24bd
00000070: 9031 393d a1cd 53bd 1697 82bd 2c40 843d
00000080: 3214 853d a1e7 d13d e8ed a8bc 0065 25bd
00000090: a45b 873d 49d3 5e3d 86b7 cdbd 725a 8bbd
000000a0: 0e89 873d 9a27 293d 0d82 2b3d 2b71 0fbc
000000b0: 0b4a f9bc e98b 95bd ca05 b0bd 7ce7 273d
000000c0: 6bf6 e1bd ca08 9f3d 3137 903d 92db cb3d
000000d0: cc32 c0bc ed2a 19bd aff4 8abd 4ee6 58bd
000000e0: 5f82 3a3d 6493 9e3c 008c aabd f690 bbbd
000000f0: 90cf 443d e574 903d a868 8f3d 5fe9 d83d
00000100: 24a9 78bd da1e 0abd 9768 cfbc dc17 cf3d
00000110: 7da3 8d3d 2eef 393d 51ed 8dbd 8633 61bd
00000120: c50a debd 9468 883d 1d44 2bbd c059 8bbd
00000130: 4afb 723d ee8b 613d add8 32bd 192b ff3c
00000140: 3f47 7a3d 6590 80bd a0ec 833d 4a52 75bd
00000150: fd97 8a3d c3a5 923d 5d0c ca3d f0f2 9cbd
00000160: cca5 c23d 43b4 4abd bd7c cfbd 15c3 d93c
00000170: 10a5 e13c b4a4 633d 1149 c0bd 9408 093d
00000180: e318 873d bb88 bb3c 69a7 f1bc 95f7 33bb
00000190: f466 35bd 8bbf c03d 07b8 d7bc 516d 10bd
000001a0: ab3b 6ebd e54f b43d 2577 0b3d 9c4c 5abd
000001b0: cee3 afbd 3883 96bd 63e0 98bc ce90 c13d
000001c0: bb11 c53d abd8 bebd aee4 943d 6a2c fdbc
000001d0: bf3d fbbc b94d f63d 7e7c 76bd fa8a 723d
000001e0: 1b8d fc3c ec42 cd3d 95a2 ba3d 6d35 59bd
000001f0: f60c c1bd 7b42 353d 3fab a4bd 136d 5d3d
