testing/checkpoints/MPNN.pt (torch, 279627 bytes, 8 tensors)

encoder.cached_zero_vector f4 [128]
000000 00 00 00 00 00 00 00 00 00 00 00 00 00 00 00 00
       0.0 0.0 0.0 0.0
000010 00 00 00 00 00 00 00 00 00 00 00 00 00 00 00 00
       0.0 0.0 0.0 0.0
000020 00 00 00 00 00 00 00 00 00 00 00 00 00 00 00 00
       0.0 0.0 0.0 0.0
000030 00 00 00 00 00 00 00 00 00 00 00 00 00 00 00 00
       0.0 0.0 0.0 0.0
000040 00 00 00 00 00 00 00 00 00 00 00 00 00 00 00 00
       0.0 0.0 0.0 0.0
000050 00 00 00 00 00 00 00 00 00 00 00 00 00 00 00 00
       0.0 0.0 0.0 0.0
000060 00 00 00 00 00 00 00 00 00 00 00 00 00 00 00 00
       0.0 0.0 0.0 0.0
000070 00 00 00 00 00 00 00 00 00 00 00 00 00 00 00 00
       0.0 0.0 0.0 0.0
000080 00 00 00 00 00 00 00 00 00 00 00 00 00 00 00 00
       0.0 0.0 0.0 0.0
000090 00 00 00 00 00 00 00 00 00 00 00 00 00 00 00 00
       0.0 0.0 0.0 0.0
0000a0 00 00 00 00 00 00 00 00 00 00 00 00 00 00 00 00
       0.0 0.0 0.0 0.0
0000b0 00 00 00 00 00 00 00 00 00 00 00 00 00 00 00 00
       0.0 0.0 0.0 0.0
0000c0 00 00 00 00 00 00 00 00 00 00 00 00 00 00 00 00
       0.0 0.0 0.0 0.0
0000d0 00 00 00 00 00 00 00 00 00 00 00 00 00 00 00 00
       0.0 0.0 0.0 0.0
0000e0 00 00 00 00 00 00 00 00 00 00 00 00 00 00 00 00
       0.0 0.0 0.0 0.0
0000f0 00 00 00 00 00 00 00 00 00 00 00 00 00 00 00 00
       0.0 0.0 0.0 0.0
000100 00 00 00 00 00 00 00 00 00 00 00 00 00 00 00 00
       0.0 0.0 0.0 0.0
000110 00 00 00 00 00 00 00 00 00 00 00 00 00 00 00 00
       0.0 0.0 0.0 0.0
000120 00 00 00 00 00 00 00 00 00 00 00 00 00 00 00 00
       0.0 0.0 0.0 0.0
000130 00 00 00 00 00 00 00 00 00 00 00 00 00 00 00 00
       0.0 0.0 0.0 0.0
000140 00 00 00 00 00 00 00 00 00 00 00 00 00 00 00 00
       0.0 0.0 0.0 0.0
000150 00 00 00 00 00 00 00 00 00 00 00 00 00 00 00 00
       0.0 0.0 0.0 0.0
000160 00 00 00 00 00 00 00 00 00 00 00 00 00 00 00 00
       0.0 0.0 0.0 0.0
000170 00 00 00 00 00 00 00 00 00 00 00 00 00 00 00 00
       0.0 0.0 0.0 0.0
000180 00 00 00 00 00 00 00 00 00 00 00 00 00 00 00 00
       0.0 0.0 0.0 0.0
000190 00 00 00 00 00 00 00 00 00 00 00 00 00 00 00 00
       0.0 0.0 0.0 0.0
0001a0 00 00 00 00 00 00 00 00 00 00 00 00 00 00 00 00
       0.0 0.0 0.0 0.0
0001b0 00 00 00 00 00 00 00 00 00 00 00 00 00 00 00 00
       0.0 0.0 0.0 0.0
0001c0 00 00 00 00 00 00 00 00 00 00 00 00 00 00 00 00
       0.0 0.0 0.0 0.0
0001d0 00 00 00 00 00 00 00 00 00 00 00 00 00 00 00 00
       0.0 0.0 0.0 0.0
0001e0 00 00 00 00 00 00 00 00 00 00 00 00 00 00 00 00
       0.0 0.0 0.0 0.0
0001f0 00 00 00 00 00 00 00 00 00 00 00 00 00 00 00 00
       0.0 0.0 0.0 0.0

encoder.W_i.weight f4 [128, 133]
000000 7a 92 e3 bc b5 13 a6 bd 67 63 90 3d 3a bc 5f 3d
       -0.027779806 -0.081092276 0.070502095 0.054622866
000010 20 a7 4b bb 9d 0b 1a 3d 80 49 c4 bd ee e9 9c 3d
       -0.0031074956 0.03760873 -0.095843315 0.07661806
000020 7e cb 65 3a 53 ea 0d bd 98 d5 96 bc 42 ca 6b 3d
       0.00087659794 -0.034647297 -0.018412396 0.057565935
000030 6f 87 af bd a9 a6 9f bd 86 ef 02 bd 1e 98 5c 3d
       -0.08570754 -0.0779546 -0.03196671 0.053856008
000040 0c 8b 8d bd 86 66 00 3d dd 43 07 bd 7a 8a 4c 3d
       -0.06911287 0.031347774 -0.033023704 0.04993675
000050 b3 ef 85 3d 30 9e 76 bd 60 7b d7 3c 1e 05 53 3d
       0.065398596 -0.060209453 0.026303947 0.051518552
000060 42 ab f4 bc f0 f5 c3 3c e0 17 2c 3c 7d 3b 9d 3d
       -0.029866818 0.023920983 0.010503739 0.07677362
000070 fe 54 1c 3d 84 f3 bf bc e5 9d 81 3d c0 1c 13 bc
       0.038166992 -0.023431547 0.06328944 -0.0089790225
000080 8b e2 96 3d 48 95 0c 3d 9f ad 96 bd 15 7b 39 bd
       0.073674284 0.034322053 -0.07357334 -0.045283396
000090 f0 f4 11 bd 69 0f 0f bd 48 7f 95 bd 94 64 9e bd
       -0.03563398 -0.034926806 -0.072996676 -0.077340275
0000a0 f3 50 81 3d 9a ea 9b bd 04 82 a5 bd ad 75 aa 3d
       0.06314268 -0.07613106 -0.08081439 0.08323226
0000b0 b0 9b 40 3c 43 fc 20 bd b0 fd 2f bc 37 e2 85 3d
       0.011755869 -0.039303076 -0.010741636 0.06537288
0000c0 0f 7e 93 bd ac 88 02 3d 20 6f 0d 3c 26 53 66 3d
       -0.07201778 0.03186862 0.008632451 0.05623164
0000d0 6a 51 2a 3d 65 34 53 bd 45 ab a3 bd 82 b8 2c 3d
       0.04158155 -0.05156364 -0.079916514 0.042168148
0000e0 12 21 75 3d 84 2b 16 3d aa d4 78 3d da 2b 76 bd
       0.05984599 0.036662593 0.060749687 -0.060100414
0000f0 c2 6f 17 3d da f2 f2 bc 81 c7 ab bd 9e 28 f8 bc
       0.036971815 -0.029656816 -0.08387662 -0.030292805
000100 c6 12 0d 3d dc de 7a bd 0e e8 12 3d 70 e1 90 3b
       0.034441732 -0.06124769 0.035865836 0.0044214055
000110 90 ea 63 3c 00 60 33 39 d0 09 bc bb c1 bb 80 3d
       0.0139109045 0.00017106533 -0.0057384744 0.06285811
000120 88 6d f5 bc 98 4a 8e bc e8 63 bd bc b2 4c 90 bd
       -0.029959455 -0.017369553 -0.023118928 -0.070458785
000130 2f 12 af bd 64 62 a0 bd e5 9c 8e 3d bf 18 a2 bd
       -0.0854839 -0.078312665 0.06963519 -0.07914876
000140 c2 81 44 3d ad ab a3 bd bc 3e da 3c 36 40 93 bd
       0.04797531 -0.07991729 0.026641242 -0.07189982
000150 aa 0b 20 3d b0 0c 49 bc 42 2f 3d 3d d7 6f 80 bd
       0.039073624 -0.012271091 0.046187647 -0.06271332
000160 e5 e3 06 bd 73 c3 a4 3d 70 a3 18 bc ea 36 5b 3d
       -0.03293218 0.080450915 -0.00931631 0.053519167
000170 67 22 33 bd 63 4e a8 bd d8 e2 d9 3c b2 24 32 3d
       -0.04373398 -0.08218076 0.026597425 0.043492027
000180 f4 6f 92 3c 38 a4 03 3d e5 e3 9e bd 68 37 a2 3c
       0.017875649 0.032139033 -0.07758311 0.01980181
000190 c0 f9 c3 3b 7a 4c 21 3d 14 83 d0 bd ba fc 0c bd
       0.0059807003 0.039379574 -0.10181251 -0.034420706
0001a0 f8 58 a7 bd a9 e9 5c bd 58 31 87 bc 68 b3 1e bd
       -0.08171266 -0.053933773 -0.016503021 -0.038745314
0001b0 54 45 1f bc a7 99 af 3d d0 4e ac 3b 4d b5 5a bd
       -0.009721119 0.08574229 0.0052584186 -0.05339556
0001c0 8a 9f a9 3c 5a 2c 58 3d ad a4 3f 3d 78 6c 81 bd
       0.020705957 0.052776672 0.046787906 -0.06319517
0001d0 ab fc 91 bd d0 63 d8 bb 9f a3 29 bd 85 eb cb bd
       -0.07128271 -0.0066036955 -0.041415807 -0.09957031
0001e0 db 8b 32 bd ca 7a 76 3d 0e 5e 6f bd 1c e2 e4 bc
       -0.043590408 0.060175695 -0.058439307 -0.027939849
0001f0 96 2c 73 3d d7 e5 ac 3d 60 0f 94 3c 65 f0 6d 3d
       0.059368692 0.08442276 0.018073738 0.058090586
000200 e8 06 07 bd f4 b4 00 bd d2 28 3b 3d 41 42 54 bd
       -0.03296557 -0.03142257 0.045693226 -0.051820997
000210 bb 3e 4c 3c 71 c5 89 3d 48 54 91 bd 87 99 99 3d
       0.012466128 0.06727112 -0.070961535 0.07499986
000220 8a 51 e1 bc 40 8d c1 3b cd d0 9f bd 7e 7c f7 3c
       -0.027504701 0.005906731 -0.078034975 0.03021073
000230 3d d0 3f 3c ac c9 19 bd 6c 63 03 bd fa 89 40 bd
       0.011707363 -0.037545845 -0.032077238 -0.047006585
000240 f9 c5 0a bd 60 47 13 3c bc 56 d7 3c 0a 40 48 3d
       -0.033880208 0.008989185 0.026286475 0.048889197
000250 6c 5d 17 3d 71 e4 4a bd df be af 3d 2c 3d d4 3c
       0.03695433 -0.049534265 0.08581328 0.025908075
000260 f8 c3 99 bc 5f ba af bd 69 68 ad 3d bc ca b3 3c
       -0.018770203 -0.08580469 0.0846718 0.021947257
000270 34 c0 c8 3c e2 e8 19 bd c0 ff 9f 3a f9 e7 96 bd
       0.024505712 -0.03757561 0.0012206957 -0.07368464
000280 d4 e1 f3 bc 2f 8b 8c bd 37 3c a3 3d 20 88 23 3b
       -0.02977077 -0.06862485 0.079704694 0.0024952963
000290 6a 22 6a bd 14 2b 99 bc b2 f5 84 bd 75 ed ae 3d
       -0.057161726 -0.018697299 -0.06492175 0.08541385
0002a0 9f 1c 9f bd 7b d2 81 3d 06 6d 40 3d 08 b5 88 bc
       -0.07769131 0.06338974 0.046978973 -0.016687885
0002b0 fe 85 74 3d 9c ef b9 3c 30 21 fa 3c 9d 59 36 bd
       0.059698097 0.022697262 0.030533403 -0.044519056
0002c0 38 5e 59 bc e7 32 9b bd 10 47 8e 3b b0 2f 79 bd
       -0.013267092 -0.07578068 0.0043419674 -0.060836494
0002d0 57 2b b1 bd 8c ab c1 3c 40 43 c3 bb 0c 1a b8 bc
       -0.086508445 0.02364137 -0.0059589446 -0.022473358
0002e0 d5 77 aa 3d 66 c5 7f 3d 3c 16 4b bd 64 40 bf 3c
       0.083236374 0.062444113 -0.04958175 0.023346134
0002f0 3c 9b a3 bc 7e d2 2b 3d 5e 40 6b 3d 48 60 b6 bc
       -0.019971482 0.041948788 0.057434432 -0.022262707
000300 d2 72 cf bc a2 52 9b bd 69 7b a2 bd b7 b8 56 bd
       -0.025323305 -0.0758412 -0.07933695 -0.05242225
000310 c0 f9 d4 ba 2f 51 b0 3d 22 dd 32 3d 40 63 26 bc
       -0.0016248748 0.086092345 0.04366792 -0.010155499
000320 54 60 31 bd 98 39 bd bc ec 7f d3 3c d3 62 90 3d
       -0.043304756 -0.023098752 0.025817834 0.07050099
000330 3c 68 05 3d c0 c9 3c 3b 90 e6 71 bc df d6 90 3d
       0.03257011 0.0028806776 -0.014764443 0.070722334
000340 bf ea 3c bd 9b 7d 97 3d 4d b6 a5 3d fa 8a 52 3d
       -0.04612231 0.07397004 0.08091412 0.05140207
000350 42 71 9e bd 08 b9 ca 3c 08 c7 b0 bd 26 cb ed bc
       -0.07736446 0.024746433 -0.08631712 -0.029027533
000360 c2 e1 d6 bc 65 68 8d bd 7a ff 09 3d 42 37 3e 3d
       -0.026230697 -0.06904677 0.033690907 0.046439417
000370 6d 28 82 3d f2 4a e8 bc a0 74 81 bb 24 66 75 bd
       0.06355367 -0.02835605 -0.0039506704 -0.059911862
000380 9c 3f 93 3c 60 4f 1f 3c 7d 9f 08 bd c3 87 86 3d
       0.017974667 0.009723514 -0.033355225 0.06568863
000390 6a 74 39 3d d0 f5 19 3d a5 71 70 bd 00 c0 7c b8
       0.045277037 0.03758794 -0.05870213 -6.0260296e-05
0003a0 16 e6 7a bd 10 89 6b bc fd 7a 07 bd bc 35 77 bd
       -0.061254583 -0.01437594 -0.033076275 -0.06035398
0003b0 c9 11 a1 3d db 3a 93 3c ab 6f 4a bd 06 25 42 3d
       0.078647204 0.0179724 -0.0494229 0.04739859
0003c0 eb 7c 95 bd 4d 4b df 3b 23 3d 48 bd 60 88 52 bb
       -0.07299217 0.0068143965 -0.04888643 -0.0032124743
0003d0 22 0d 06 3d d9 4d 29 3c 52 0d 51 3d 05 6c a4 bd
       0.03272737 0.010333502 0.051038094 -0.080284156
0003e0 46 9b 69 bd 01 1d ae 3d 1c 00 78 bd d0 be 94 3c
       -0.057032846 0.08501626 -0.06054698 0.018157393
0003f0 a0 9f 2c 3d fd 96 80 bc 10 7c 93 bd 86 81 c7 bc
       0.042144418 -0.015696997 -0.072013974 -0.024353754

encoder.W_i.bias f4 [128]
000000 44 b9 c9 bc de bc 5a 3d 23 47 05 bc ea 05 bb bd
       -0.024624474 0.053402774 -0.008134636 -0.091319874
000010 ed 16 fd 3c d2 88 96 bb 4b b6 57 bc cd 74 8a bd
       0.03089472 -0.004593947 -0.013166021 -0.06760559
000020 35 70 66 3c 40 c6 41 bc 67 26 27 3d 29 7a 83 3d
       0.014064838 -0.011827052 0.040808108 0.064197846
000030 20 b5 7d bc f4 ba 96 3d e2 64 4c bd bd d1 79 bd
       -0.015485078 0.07359877 -0.049900897 -0.060991038
000040 f1 39 81 bd da 00 86 bd 77 1b 8f 3d 6a 59 ab bd
       -0.063098796 -0.06543131 0.069876604 -0.08366664
000050 ef ab 5b 3d d7 c6 1e 3d 58 96 82 bd 27 8a c4 bd
       0.053630766 0.038763847 -0.06376332 -0.09596663
000060 f6 5e 1c 3d bb b0 bb bd 60 e3 8e 3d 6b 39 4b 3c
       0.0381765 -0.09164568 0.06976962 0.012403826
000070 cf ad 1a bc 3f c3 7a 3d e5 49 98 bd 7d f0 78 bd
       -0.009440853 0.061221357 -0.07435969 -0.060776222
000080 d4 85 63 bd e1 f3 ed 3c a8 a7 88 bb 84 71 59 bb
       -0.05554755 0.029046955 -0.004170377 -0.0033179233
000090 83 22 17 3d 54 b0 34 3d 57 0f 67 3d 5b e9 a6 3d
       0.036898147 0.044113472 0.056411114 0.08149978
0000a0 7a 2d 7c bd 17 28 6a 3d 98 11 28 3d 35 f4 2c bb
       -0.061566807 0.05716714 0.041032404 -0.0026390676
0000b0 eb c0 69 bd 50 b9 6d bd f2 d7 56 3d d6 9f bd bd
       -0.057068747 -0.058038056 0.052452035 -0.09259002
0000c0 e8 94 06 bd 56 d1 79 3c 16 51 fb bc 15 e8 00 3d
       -0.03285685 0.0152476635 -0.030678313 0.03147133
0000d0 3e e0 27 3d b9 fa 38 3d 42 f5 92 3d 0c 85 18 bd
       0.04098534 0.045160983 0.071756855 -0.03723626
0000e0 5c d2 ac bd f9 b7 87 bd c1 1c 8f bd 0d f8 73 ba
       -0.0843856 -0.06626887 -0.06987906 -0.0009306677
0000f0 c1 0d 42 bd a0 26 b4 3b 38 93 fe ba 3f 1c 72 3d
       -0.047376398 0.0054977685 -0.0019422537 0.05910897
000100 0f da f5 3a ff 69 98 bd ad 91 4b bc 9c 73 49 bd
       0.0018757003 -0.07442092 -0.0124248685 -0.04918252
000110 ae cb dc bc e1 96 0f bc 62 ae 20 3c f4 11 8c bd
       -0.02695259 -0.008764 0.009807201 -0.06839362
000120 fa e1 f5 3c 21 3e 27 3d 69 0f 8e 3c a4 b9 48 3d
       0.03001498 0.040830735 0.017341333 0.049005166
000130 ff 87 c2 3c c5 02 7c ba 4c 3a a0 3d 3a 03 c3 bd
       0.023746489 -0.000961345 0.07823619 -0.095221
000140 39 54 5a 3d 44 13 00 bd 26 3c 0a bd 4d 4b a4 3d
       0.053302977 -0.031268373 -0.03374877 0.08022175
000150 ce cb 31 bc b8 ca a1 bd c3 f6 b0 bc c0 59 63 3b
       -0.0108518135 -0.07899994 -0.02160204 0.0034690946
000160 86 d8 69 3c 2e e0 7e bd d3 1b 2a bc cf c4 97 bd
       0.014272815 -0.062225513 -0.01038261 -0.07410585
000170 e1 7b 07 bd db 62 13 bd 3f ae 94 bb ca 47 6f bc
       -0.033077125 -0.035982948 -0.0045373733 -0.014604518
000180 3f 8c 40 bd 9f bd 94 3c c9 4d 8c ba 47 bd a5 bd
       -0.04700875 0.018156825 -0.0010704334 -0.080927424
000190 4d e9 92 bd 2e 27 da 3c 6a 84 92 bd 0f a8 9a 3c
       -0.07173405 0.02663001 -0.07154162 0.018878965
0001a0 c7 53 99 bd ac 68 63 bd 9c 1a f8 3a 5f 8a 3b bd
       -0.074866824 -0.055519745 0.0018928829 -0.045786258
0001b0 28 36 29 bd 19 59 57 3d 13 33 29 bd 89 cc 78 ba
       -0.041311413 0.052575205 -0.041308474 -0.00094909273
0001c0 a8 d5 92 bc 3b a5 aa bd b0 4b 85 bd a1 85 3f bd
       -0.017924145 -0.083322965 -0.06508577 -0.046758298
0001d0 5b 97 6b bd f3 f5 0d bd f5 89 1b bd cb 0a 14 3d
       -0.05751739 -0.034658384 -0.037973363 0.036143105
0001e0 c6 bf 5a 3d 63 2a e4 3c c2 4f fc 3c 63 65 54 bd
       0.053405546 0.027852243 0.03079975 -0.051854502
0001f0 37 9c a3 bd 0f 87 e4 bb 80 16 3a bd 12 81 14 bc
       -0.0798878 -0.006974108 -0.045431614 -0.009063976

encoder.W_h.weight f4 [128, 142]
000000 b6 85 34 bd 9e 7d 37 bd 63 98 71 bd 78 1c 3b bd
       -0.04407283 -0.044797532 -0.058983218 -0.045681447
000010 da ba 83 3d 3b a8 d5 3c 08 05 8f 3c be eb 38 bd
       0.064321235 0.026081195 0.017458454 -0.045146696
000020 e6 ef 8b bd 13 c2 90 3c c1 3a 87 3c b0 d2 8e 3d
       -0.06832866 0.017670667 0.016507508 0.06973779
000030 31 53 ae bd 3d 60 d3 bc 11 8d 25 bd 80 7a 38 3b
       -0.08511961 -0.025802726 -0.040417735 0.0028149188
000040 c9 9e 88 3d 3e cd 7d bc 36 53 4c bc fb dd ba 3d
       0.06670911 -0.015490828 -0.012471011 0.09124371
000050 68 e9 c5 39 81 43 86 bd 4e 79 92 3d 12 90 17 3d
       0.0003774867 -0.06555844 0.07152043 0.03700263
000060 15 b1 5c 3d 68 e0 04 3d 9f fa 9a bd cc 38 3a 3d
       0.053879816 0.032440573 -0.075673334 0.045464322
000070 9e 95 25 3d 26 d0 93 bd 49 79 c1 bd a4 29 14 3d
       0.04042589 -0.072174355 -0.094469614 0.036172524
000080 a9 59 41 bd 15 96 8e 3d dd 1a 2f bb a1 a1 68 bd
       -0.047204647 0.069622196 -0.0026718893 -0.056794766
000090 bf 47 64 bd b2 b6 10 3d 5a f4 84 3d 4c 93 20 3d
       -0.055732485 0.03533048 0.06491919 0.039202973
0000a0 ad bd f9 bc 22 4c 84 3d ef c0 bf 3b 32 73 47 bd
       -0.030485952 0.06459834 0.005851857 -0.048693843
0000b0 de c6 31 3d a3 f3 c2 bd 59 fc 80 bd 7d 6e e6 3c
       0.043402545 -0.09519126 -0.062981315 0.028128857
0000c0 02 51 20 bd 1a c4 b9 bd 6e 95 8e 3b a2 f9 42 3d
       -0.039139755 -0.090706065 0.0043513095 0.04760135
0000d0 22 b3 ac bd ce df 46 bd 1c 19 f4 3c ef 8e b8 3a
       -0.08432604 -0.04855328 0.02979713 0.0014080683
0000e0 41 48 13 bd 4e 53 7d bd c1 10 10 bd 63 73 f6 bc
       -0.03595758 -0.061847024 -0.035172228 -0.030084318
0000f0 f1 93 8a bd d8 e5 f4 bc ee ba 2b 3a 5d 78 93 3d
       -0.06766499 -0.029894754 0.0006550987 0.07200692
000100 56 d2 a2 bd 3b cb 95 bd af 0c 6e 3d 06 de c6 bb
       -0.07950275 -0.07314154 0.058117565 -0.0060689477
000110 95 69 01 bd 9c 63 19 bc 15 7b db 3c 40 c1 6a bd
       -0.03159483 -0.009362128 0.026792089 -0.057313204
000120 8c 96 f0 3c 08 90 70 bd d7 e8 4a 3d dd 75 ab 3c
       0.029368661 -0.05873111 0.04953846 0.020930225
000130 1d d8 8c bc bf fb db bb 3b ff 76 bd 36 fe 37 3d
       -0.017192895 -0.00671336 -0.060302 0.04492017
000140 46 a9 c6 bd af 75 a1 3d 93 54 ae 3a 44 a6 b0 bd
       -0.09700255 0.078837745 0.0013300352 -0.08625463
000150 06 42 0f bc 82 ff 58 bd 97 2a 5c bd f3 1b b0 bd
       -0.008743769 -0.052978046 -0.053751554 -0.08599081
000160 e4 a7 08 bd 11 89 a8 bc c9 e1 8a 3d 76 de cf bd
       -0.033363238 -0.02057317 0.06781346 -0.10149853
000170 59 e8 22 3d 35 d0 0e 3d f1 11 d6 3b 0e 0c a3 bc
       0.039772365 0.03486653 0.0065329005 -0.019903209
000180 fe 48 07 bd 68 3c 92 bd c9 b1 5a bc 4f ef 03 3c
       -0.033028595 -0.07140428 -0.013348051 0.008052661
000190 9b 67 75 3a b8 59 4f bd 6a 1f 89 3d 7d 08 bd bd
       0.0009361447 -0.05062267 0.06695445 -0.09230135
0001a0 3f 27 04 bd c8 c9 ee bc 29 29 82 3d d3 eb 0c bd
       -0.03226399 -0.029148951 0.06355507 -0.034404587
0001b0 3e af 87 bd 56 d2 5a 3d ac 21 33 bd e5 fe ae 3c
       -0.06625222 0.05342325 -0.043733284 0.021361778
0001c0 39 71 45 bd 03 22 b2 3c cb 25 a0 bd b9 9f bf 3d
       -0.04820368 0.021744734 -0.078197084 0.093566366
0001d0 27 c6 38 bd dc 70 60 3d 0c 0d 22 bc 71 de 57 bd
       -0.045110848 0.05479513 -0.009890806 -0.05270237
0001e0 78 c4 f2 3b 89 b5 b6 3b f6 4f f4 3c 41 04 e0 3c
       0.007408675 0.00557584 0.029823285 0.027345778
0001f0 f7 4f f5 bc dd 3c 0e bd b3 73 93 3d 5b a4 b9 bd
       -0.029945357 -0.034726012 0.07199802 -0.090645514
000200 58 a6 f2 bc eb 18 a4 3c 39 a5 85 bd 1c a0 c3 3c
       -0.029620335 0.020031413 -0.06525654 0.023880057
000210 93 06 81 3c b6 b2 71 bd dc 09 19 bd fc 92 69 3d
       0.015750205 -0.059008323 -0.03736292 0.05702494
000220 9c 7a a0 3d 5e b4 83 bd d4 ae d7 3c 04 20 09 bd
       0.07835886 -0.06430887 0.026328482 -0.033477798
000230 21 07 7c bd 00 05 8a bd f7 b9 40 3d 97 1f cd bc
       -0.061530236 -0.06739235 0.04705235 -0.025039477
000240 7b a8 65 bd 06 9c 90 bc 5a 14 5b 3c 9b 0e e2 bc
       -0.05606888 -0.017652523 0.013371551 -0.027594855
000250 0c c3 4c bd b9 d1 70 bc 6d 97 a1 bd fa aa 55 bd
       -0.0499907 -0.014698439 -0.0789021 -0.05216501
000260 96 b3 8c 3d be 70 04 3d 89 75 af bd 31 8b 42 bd
       0.06870191 0.03233408 -0.0856734 -0.047496025
000270 55 76 8e bd 39 83 e9 3c 9e 78 f9 bc 5d 71 fd bb
       -0.06956164 0.028504955 -0.030453023 -0.007734461
000280 1d fa 9e bd ae 00 85 3d 82 7e 01 bd 43 40 cf bb
       -0.07762549 0.0649427 -0.031614788 -0.0063247993
000290 88 f6 32 bc 1a d7 17 3d c4 b1 98 bd a0 6d 2d bd
       -0.010923035 0.03707037 -0.07455781 -0.042340875
0002a0 42 df f9 bc 98 b0 5d 3c 39 1d b5 bd a9 a8 6c 3c
       -0.030501965 0.013530873 -0.088434644 0.014444509
0002b0 4c c7 59 3d 3f b8 89 bc 5e 1f 87 bd dd 7b aa 3c
       0.05316858 -0.016811488 -0.0659778 0.020811016
0002c0 39 79 88 bd 9f 81 f0 bb 90 cd 82 3d 28 e1 e2 3b
       -0.066637464 -0.007339671 0.06386864 0.0069238134
0002d0 3d 13 ac bc 36 81 71 bd dc ac b6 bd 57 ad 83 3d
       -0.021005267 -0.058961116 -0.08919689 0.06429546
0002e0 b4 37 59 3d cf 67 bd 3d 56 02 e0 3c 9a 42 7e bd
       0.05303164 0.092483155 0.027344864 -0.062075235
0002f0 86 39 90 3d 2d aa 88 3d f4 65 66 bd 17 5d 99 3d
       0.07042222 0.066730835 -0.056249574 0.074884586
000300 7f 63 5a 3d e1 88 81 bd f4 a0 a3 bd 24 8c 68 3c
       0.053317543 -0.06324936 -0.07989684 0.014193568
000310 1d 70 56 3d 55 8e 8f 3d 41 aa 06 bd 83 3b 6a 3a
       0.052353013 0.070095696 -0.03287721 0.00089352595
000320 06 7b 22 bc 9f 3a 3b bd 08 b1 9f 3d 3b 7b 79 bd
       -0.009917026 -0.045710202 0.07797438 -0.060908537
000330 48 c0 e3 3c 90 65 d3 3c c7 75 d3 bc 2b bb c3 bc
       0.027801648 0.025805265 -0.025812997 -0.02389296
000340 05 1b 67 bd ae 1d 5e bc d5 da 16 bc ac 0c 36 ba
       -0.056422252 -0.013556881 -0.009207447 -0.0006944637
000350 3e 56 26 3d a1 4c 32 bd b6 be ab bd 6d 64 33 bd
       0.04060959 -0.04353011 -0.083859846 -0.043796945
000360 24 de c3 38 b1 60 2f bc 2f 4f 80 3d c0 2a c1 bb
       9.3397015e-05 -0.010704205 0.06265103 -0.005894989
000370 cf 3b 84 bd b7 22 1b bb a9 04 8d bc 51 d0 8f bd
       -0.0645672 -0.0023671815 -0.017214136 -0.07022155
000380 64 ce b1 3b a8 f1 85 bd dd a8 1b bd bd 85 5f bd
       0.005426215 -0.06540233 -0.038002837 -0.054570902
000390 83 9c 82 bb 3c c8 6e 3c d8 47 6d 3c 56 7e 95 3d
       -0.003985943 0.014574107 0.014482461 0.07299487
0003a0 3f 7f 20 bc a2 45 81 3d 34 53 34 bd 81 7c 25 bc
       -0.009795963 0.063121095 -0.04402466 -0.010100485
0003b0 a7 11 3c bb b2 d2 24 3d 26 4e 30 3c af 5f c7 3c
       -0.0028697045 0.040239997 0.01076082 0.024337618
0003c0 b2 b3 1f bd c1 27 32 3d 49 36 f5 bc c9 9b 72 bd
       -0.03898973 0.043494944 -0.029933112 -0.0592306
0003d0 20 58 17 3a 0e 85 00 bd 39 48 44 bd 3f eb b8 3b
       0.00057733245 -0.03137689 -0.04792044 0.005643278
0003e0 31 f7 10 3c 5e ac aa 3c 3c 67 74 bd fe c9 05 3d
       0.0088479975 0.020834144 -0.059668764 0.032663338
0003f0 d7 0f d2 bc ab 51 85 3d 5a 63 b3 3d 6a 48 12 3d
       -0.025642319 0.065097176 0.08759184 0.03571359

encoder.W_h.bias f4 [128]
000000 c1 3e 4d 3d 53 c4 fa bc 9a 43 6d bd 32 91 45 3d
       0.050108675 -0.030611193 -0.057925798 0.048234172
000010 74 92 97 bd 9e 99 a9 bd 9c 29 7a bd 25 ee 61 3d
       -0.074009806 -0.08281253 -0.061074838 0.055158753
000020 6c 37 3a bd 9a 08 04 bd dd ba 63 3d dd fc 87 ba
       -0.04546301 -0.032234766 0.05559813 -0.0010375042
000030 20 2a 80 bd 73 5d 96 bd 97 31 9d bc 44 6a 7f bc
       -0.06258035 -0.07342043 -0.019188685 -0.015589301
000040 2d 09 e5 3b 62 06 92 bd a1 f1 a8 3d da a1 8a bd
       0.006989619 -0.07130124 0.08249212 -0.06769152
000050 aa 0a 0e bd 8f 4c 1e bd 1c dd 9e bd 99 58 b7 bc
       -0.03467814 -0.03864723 -0.07757017 -0.022381114
000060 9e b7 45 3d 30 9b 8c 3d 57 34 7b bc 13 53 0d 3d
       0.048270814 0.06865537 -0.015332303 0.034503054
000070 b0 1d 1c bd 35 81 e9 bc 4a 41 90 bc 23 c9 66 bb
       -0.03811425 -0.028503994 -0.017609257 -0.0035215102
000080 7c be 50 3c bb 05 fb 3b ae 1e 07 bd 65 da 96 bc
       0.0127407275 0.0076605952 -0.032988243 -0.018414686
000090 51 cc 6d bd 42 1d 90 bc ce 62 04 3d c8 ae 90 3c
       -0.05805618 -0.017592076 0.03232079 0.017661467
0000a0 c6 eb 81 3c 39 b2 b6 3c 9b 89 e6 3c fd 36 98 3d
       0.015859496 0.02230178 0.028141787 0.07432363
0000b0 96 75 cb bc 2e d9 2f 3d 2b 87 75 bd 41 ca 21 bd
       -0.024836343 0.042931728 -0.05994336 -0.039499525
0000c0 24 60 82 3b 3f 5f 72 bc a7 da 82 bc f0 86 26 bd
       0.003978746 -0.014793216 -0.015973402 -0.04065603
0000d0 07 e1 96 3d 63 1a a4 3d 39 fc a4 3c c4 f0 f3 bc
       0.07367139 0.08012845 0.0201398 -0.029777892
0000e0 a7 eb 88 bd cd 63 e3 3c f9 1f 4a 3d e5 f7 88 bd
       -0.06685572 0.02775755 0.049346898 -0.06687907
0000f0 23 2a a4 3d 80 dc 93 ba f6 fa a7 bc 98 46 a0 bd
       0.080158494 -0.0011280924 -0.02050541 -0.07825965
000100 74 48 71 bc cf cc a1 3c 1c 73 9c bd f7 af e5 3a
       -0.014726747 0.01975098 -0.07639143 0.0017523755
000110 5f 0c 5f bc e3 c1 ba bb c0 11 d8 3b 26 8d 2d bd
       -0.013613789 -0.0056993826 0.006593913 -0.042370938
000120 0e 35 07 3d af c5 88 bd 47 a5 3e bc 44 b1 75 bd
       0.03300958 -0.0667833 -0.011636085 -0.059983507
000130 19 e8 b3 bd 1a cf a7 3d 92 88 81 bd 67 61 e6 3c
       -0.087845035 0.08193798 -0.06324877 0.028122617
000140 ce 69 af 3d de e7 8c 3d ce 8b 60 bd 08 6a 50 bd
       0.085651025 0.06880163 -0.05482083 -0.05088237
000150 f1 35 d4 3b 2f c4 06 bd 41 61 2a bc b0 15 9b bc
       0.006476157 -0.03290194 -0.010399164 -0.01893124
000160 26 62 c0 bd d9 bb c2 bd 8c 11 24 bd 33 e7 f7 3c
       -0.0939372 -0.09508485 -0.040055797 0.030261612
000170 9f 1d a2 3c fe 87 96 3d 0f 8a 84 bd 78 f1 8c 3d
       0.019789515 0.07350157 -0.06471645 0.06881994
000180 75 07 b7 3d 8c 03 80 bb 8d 78 3b 3c 51 a4 aa bd
       0.08936969 -0.003906673 0.011442316 -0.08332122
000190 34 c2 4e 3d 27 47 50 bd 11 b5 3c 3d a7 75 93 bd
       0.050478175 -0.050849106 0.046071116 -0.07200175
0001a0 f5 30 71 3d bc 9e 51 bd 07 7e 7f 3d a3 02 13 bd
       0.05888458 -0.05117677 0.06237605 -0.035891186
0001b0 e3 e4 2f 3d 82 34 22 bb 45 68 b9 bd bd 22 f1 bc
       0.042942893 -0.0024750535 -0.09053091 -0.02943551
0001c0 39 fb 68 3c c2 62 5c 3c 50 9b 8e bd 36 46 6c 3d
       0.014220052 0.01345128 -0.06963217 0.057684146
0001d0 f8 f9 82 3d ae 1e b5 bd c4 31 e5 3c ef 02 18 3d
       0.06395334 -0.08843742 0.027977832 0.037112173
0001e0 28 53 8a bd fc 96 ab bd 09 0a 45 3d 42 d1 92 bd
       -0.06754142 -0.08378407 0.048105273 -0.07168819
0001f0 79 e0 85 bc ce 21 8c bc 30 2b 5c 3d 92 51 0e 3d
       -0.016342388 -0.017105963 0.053752124 0.03474576

encoder.W_o.weight f4 [128, 261]
000000 d4 a4 6d bd 24 df 12 3d 71 f8 61 bd cc ce a4 3c
       -0.05801852 0.035857335 -0.055168573 0.02011814
000010 f0 38 fd 3c 62 56 89 3d 2d c0 25 3d 45 31 3d bc
       0.030910939 0.06705929 0.040466476 -0.011547391
000020 b4 85 b1 bc 90 c1 a6 3b 83 b3 20 bd 18 f4 28 bc
       -0.0216702 0.0050889924 -0.039233696 -0.010312103
000030 ec 80 1b 3d e2 b1 34 3d 20 c6 b2 3b f2 c2 f1 bc
       0.037964746 0.044114955 0.0054557472 -0.029511902
000040 56 a5 ca bc 1c 29 c0 3c 80 6b 61 3a 10 9b 46 3d
       -0.024737041 0.023457102 0.00085990876 0.048487723
000050 f8 78 a7 bc f4 e8 0f 3d d8 ba 31 3d 92 c5 43 3d
       -0.020443425 0.03513427 0.04339108 0.04779584
000060 41 75 0d bd 08 a3 5a bd fa 52 08 bd 00 b9 07 3d
       -0.03453565 -0.053378135 -0.033282258 0.033135414
000070 58 e8 14 bd 94 68 52 3d 24 9d 1d 3d e0 c6 5c bb
       -0.036354393 0.051369265 0.03847994 -0.0033687875
000080 e7 56 67 bd 48 40 51 3d f2 04 36 3d 7b 25 6a bd
       -0.05647936 0.051086694 0.04443831 -0.05716465
000090 fa 1d b5 bc d0 fd ba 3c 32 72 75 3d 94 e2 56 bc
       -0.02210902 0.022826105 0.05992336 -0.013115544
0000a0 94 5d 18 3d 0a 89 16 bd ef 82 49 bd 2c fd a7 3c
       0.037198618 -0.036751784 -0.049197134 0.020506464
0000b0 2c d2 c9 3c e4 6f 26 3d 14 30 05 3d b2 59 a3 bc
       0.02463635 0.04063405 0.032516554 -0.019940231
0000c0 d4 43 9a bc d8 a3 13 bc 44 98 70 3d e8 10 75 3c
       -0.018831171 -0.009011231 0.05873896 0.014957644
0000d0 80 5f 09 3c a8 6a 42 3c da 80 e8 bc f2 4b 7b bd
       0.008384585 0.011866249 -0.028381754 -0.061351724
0000e0 b0 4e 75 bb 00 7a 02 3a 6e a5 10 3d 10 e7 6b bc
       -0.0037430935 0.0004977286 0.035314016 -0.014398351
0000f0 20 9c 12 3b 00 0c 09 3b 6c d9 c9 3c 70 6b 7c 3c
       0.002237089 0.0020911694 0.024639808 0.0154064745
000100 50 8d 35 bb 81 11 6e bd be e8 b5 bc 38 ce 36 bd
       -0.0027702637 -0.05812216 -0.022205707 -0.04463026
000110 ea c8 ca bc f0 be 05 3d ae e4 75 bd c8 e7 80 bb
       -0.024754006 0.032652795 -0.06003254 -0.0039338805
000120 08 85 5d 3c 93 d4 76 bd c0 28 e9 3b a2 27 20 3d
       0.013520487 -0.06026132 0.0071154535 0.039100297
000130 ac fa 70 3d 4c 77 23 bd 3c b1 f3 bc 10 35 f4 bc
       0.05883281 -0.039908692 -0.029747598 -0.029810458
000140 fc 52 f9 3c b4 d3 46 3d 00 8f b0 3a a8 9b 40 3d
       0.030435078 0.04854174 0.0013470352 0.047023445
000150 c3 0b 26 bd 68 92 22 3d 3e df 35 3d 74 c0 36 bd
       -0.04053856 0.039690405 0.044402353 -0.04461713
000160 54 fc d4 bc 97 e4 62 bd 72 05 53 3d 22 eb 07 3d
       -0.025999226 -0.05539378 0.051518865 0.033183224
000170 f0 bd 96 bc 78 cf 18 3d f2 d1 19 bd 54 fc 59 bc
       -0.018401116 0.037307233 -0.037553735 -0.013304789
000180 80 4e 17 3c 60 45 25 3c 9a 99 0d 3d d0 b0 e3 3c
       0.009235024 0.010087341 0.034570314 0.027794272
000190 00 21 69 3a 04 54 96 bc ee 2a b1 3d 96 ce 86 3c
       0.0008893162 -0.018350609 0.08650766 0.01645593
0001a0 c4 6d 95 3d 25 f2 27 3c a8 a3 88 3c 0a dd 6b 3d
       0.07296327 0.010250603 0.0166796 0.057583846
0001b0 5a 98 ef bc d8 75 29 3d 97 cc 28 bc 28 73 0e 3d
       -0.029247452 0.04137215 -0.010302684 0.03477779
0001c0 df dd f4 3b f8 6a 9c bb b1 3f e2 3a 40 a1 10 3a
       0.007472738 -0.004773494 0.0017261413 0.0005517192
0001d0 f2 14 76 bd f0 8c 5c bb 40 93 48 bb d9 36 27 bb
       -0.06007857 -0.0033653341 -0.0030605346 -0.002551487
0001e0 ea a0 58 3d 44 4c cd 3d f7 ad c4 3c c6 8f 3f 3d
       0.052887835 0.10024312 0.024008734 0.046767972
0001f0 17 ce 64 bd c0 39 30 3d 2c aa 65 3d 27 ab b2 3d
       -0.055860605 0.043023825 0.05607049 0.08724051
000200 1a 90 1c 3d 36 d1 86 bc 10 58 df 3c 0b c6 23 bd
       0.038223363 -0.016457181 0.027263671 -0.03998379
000210 26 14 0c bd 16 d9 63 3d 0a b9 fe bb c6 6b 85 bd
       -0.034198903 0.05562695 -0.007773523 -0.06514697
000220 04 1d ad 3c 4c 97 14 bd fd 41 eb bb 4c 70 5e 3c
       0.021132 -0.0362771 -0.0071794973 0.013576578
000230 c5 51 70 bd e8 c5 fb ba 17 98 10 3c 24 fc 75 3b
       -0.05867173 -0.0019208761 0.008825324 0.003753432
000240 77 6c 66 3d 73 5c 26 bd 49 00 80 3d 10 5f 39 3d
       0.056255784 -0.04061551 0.062500544 0.045256674
000250 f3 ad b3 bc 7c 1f cf bc c3 8a 58 bd 78 79 5c 3d
       -0.021933531 -0.025283568 -0.05286671 0.05382678
000260 ad 9d 34 bd 1f 93 50 3d 01 66 14 bd 49 7c 3c 3b
       -0.044095684 0.050921556 -0.03623009 0.0028760603
000270 83 1a 5c 3c 9a 14 91 3d f7 7f de bc 17 04 f0 3c
       0.013434055 0.070840076 -0.027160628 0.029298825
000280 9c 69 2e bd 28 c4 04 bd d8 c0 06 bd 35 03 4f 3d
       -0.042581186 -0.03241363 -0.032898754 0.050540168
000290 f3 37 0d bc d8 94 a3 3c ec b0 60 bb b2 7a 26 3d
       -0.008619296 0.019968435 -0.003428514 0.040644355
0002a0 d6 d9 91 3b dd 59 9e bc 5a e1 46 bc 18 ba 49 bd
       0.004451017 -0.01932996 -0.012138689 -0.04924974
0002b0 82 aa 1c 3d 3a 28 69 bc 9b a0 4c bd 1c 7f 1c 3c
       0.038248546 -0.014230782 -0.049957853 0.00955179
0002c0 ec af 99 3c 94 af d0 ba d5 c4 57 3c 6c ad 9b 3c
       0.018760644 -0.0015921467 0.013169487 0.019003592
0002d0 f4 28 fe bc ed 61 89 bc 39 27 45 3d ae c3 a3 3d
       -0.031025387 -0.016770327 0.04813311 0.07996307
0002e0 28 3c eb 3b e8 04 9b bc 39 b0 63 3b 6f de 34 3c
       0.007178802 -0.018923238 0.0034742488 0.01103936
0002f0 9f 76 88 3d b8 ab 33 3c aa 52 52 3c 1f 39 1e bd
       0.0666325 0.010966234 0.012837091 -0.038628694
000300 81 9b 30 bc 89 b1 b8 3c 9a f5 18 bd b1 a1 26 bd
       -0.0107792625 0.022545593 -0.0373436 -0.040681545
000310 9f 50 0f 3d 85 45 57 3d ec dc 31 3d 45 4b 94 bc
       0.034988996 0.052556533 0.04342358 -0.018102298
000320 91 2c 00 3c ee 07 31 3c b5 6b 47 3d 9a 58 58 3b
       0.007823125 0.010805113 0.0486867 0.0033011795
000330 58 4d 66 3d 4c 8f 48 3d 62 0e 39 bd 84 e1 0b 3d
       0.056226104 0.048964784 -0.045179732 0.034150615
000340 d1 ee 69 bc 98 65 35 3d 5b 0e 25 3d b3 d6 79 3d
       -0.01427813 0.04428634 0.040296894 0.06099577
000350 ca 60 21 bb 06 3d 05 3d a9 29 69 bc f1 39 9c 3d
       -0.0024624341 0.0325289 -0.014231124 0.07628239
000360 dc ca c8 3c d6 53 e8 b9 81 f6 c3 3b d6 68 2e bd
       0.024510793 -0.0004431295 0.0059803133 -0.042580448
000370 9f e9 6a 3c 8b c9 09 bc df 83 3f 3d 16 9f 54 3c
       0.014337926 -0.008409868 0.04675662 0.012977382
000380 72 13 ae bc 60 e6 0e 3d 41 b1 c3 3c da 29 c7 3c
       -0.021249507 0.03488767 0.023888232 0.024311949
000390 f3 db cf 3c f9 45 9f bc ad 0e 97 3c bb 56 2e bd
       0.025373435 -0.019442545 0.018439615 -0.04256318
0003a0 a1 2e 1d bd 33 e8 1f 3d 46 c7 78 bc e8 56 b4 bc
       -0.038374547 0.0390398 -0.015184229 -0.022014096
0003b0 51 11 9f 3c f8 cc 03 3d f7 e4 15 3c e2 81 20 3d
       0.019417437 0.032177895 0.009148828 0.039186366
0003c0 c0 cd 02 3d 61 5f 5a 3d aa 9c 10 3d 09 dd 60 3d
       0.0319345 0.053313617 0.035305656 0.054898296
0003d0 96 86 d6 3c 95 c9 e2 3c 1b c7 94 bb da 95 d5 3c
       0.026187222 0.027684012 -0.004540337 0.026072431
0003e0 4f b7 10 3c 2b 7f 38 3d 6b 46 b2 3c b3 d6 3e 3d
       0.008832767 0.04504315 0.021762094 0.046591472
0003f0 09 4b fe bb 3c 43 ec 3a c1 92 21 bd 4d a0 dd 3b
       -0.0077604097 0.0018025408 -0.039446596 0.006763494

encoder.W_o.bias f4 [128]
000000 bc 8b 8a 3d 18 2f b6 3d d8 88 3f bd d7 8b e9 bb
       0.067649335 0.08895701 -0.046761364 -0.007127266
000010 06 80 69 bd c3 4f 18 3c f4 88 8d bd 8c f6 a0 3d
       -0.05700686 0.00929636 -0.06910887 0.07859525
000020 6a b7 3e ba 0f 80 0b 3d 56 5a 0f bc 59 7c 85 3d
       -0.00072752556 0.034057673 -0.008749565 0.06517858
000030 6c 7a 49 bd 67 c8 e1 bc 1d d2 2b 3c fc 08 72 bc
       -0.049189016 -0.02756138 0.010487107 -0.01477265
000040 6b 39 18 3d 23 a2 ae 3d e6 d3 4e 3d 40 80 52 bd
       0.037164133 0.08527019 0.05049505 -0.05139184
000050 32 26 4e 3c b5 63 f4 bc f4 4a 6e bd 30 db 7d 3d
       0.012582349 -0.0298327 -0.05817695 0.06197661
000060 21 08 05 bd 7b f0 4a bc 84 84 e9 bb 02 02 a7 bb
       -0.032478455 -0.012386437 -0.007126393 -0.005096675
000070 bd f1 f9 3c 5f ed 1c 3d cd b4 2f bd 79 0d bb 3c
       0.030510778 0.038312312 -0.042897034 0.022833573
000080 25 28 cd 3c a7 b2 c5 bc 48 39 0b 3d 51 d0 e3 3c
       0.025043556 -0.02413304 0.033990175 0.027809294
000090 b7 4f 09 bd 6b 3f ae bb af 3e 9c 3d 35 19 84 bd
       -0.033523288 -0.0053176186 0.076291434 -0.0645012
0000a0 fa eb 26 3d 29 35 a9 3c 27 fc 46 bc f8 c8 2e 3d
       0.04075239 0.020655232 -0.012145079 0.042672127
0000b0 c2 26 63 3c 4a 61 bf 3d 80 98 49 3d f0 7e a8 3d
       0.013864221 0.09344728 0.0492177 0.082273364
0000c0 c5 20 be 3b 25 58 2e bc ee 3d 56 3d 0f 12 a4 bc
       0.0058022463 -0.0106411325 0.052305155 -0.020028142
0000d0 5a f1 08 3d f6 29 02 bd 50 73 87 3c 0e 4b 11 ba
       0.033433296 -0.0317783 0.016534477 -0.0005542495
0000e0 42 cf 2a bc a1 b7 e1 3c 6f bb ba 3d 21 43 32 bd
       -0.010425391 0.027553381 0.09117781 -0.04352105
0000f0 00 45 29 bd a2 0e 09 bd 3c 75 a4 3d 9c 91 c2 bc
       -0.04132557 -0.03346122 0.08030173 -0.023751073
000100 69 5b 53 3d 52 6e 77 bc 25 06 b9 bc 34 22 ca 3c
       0.051600847 -0.015101986 -0.022585938 0.024674512
000110 2a 24 8f bd f7 bd a1 3d 8e b4 99 bc 92 bc a1 3c
       -0.069893196 0.07897561 -0.018762853 0.019743238
000120 dd e8 cc bb ea 20 c4 3b d4 a9 1e 3c 20 90 44 3d
       -0.0062533454 0.005985369 0.009684045 0.04798901
000130 40 db 2d bd 04 56 8f 3c bf c8 13 3d a1 7c 52 3c
       -0.04244542 0.01749707 0.03608012 0.012847097
000140 84 67 88 3b 29 7d c5 bc 3d 81 0a bd 33 73 85 bd
       0.0041627306 -0.024107533 -0.033814657 -0.06516113
000150 6a 7a fb 3c 34 1e 89 bb b7 ba 18 bc e4 31 c9 3c
       0.03069802 -0.0041845087 -0.00932186 0.024559923
000160 03 bb 06 3d 96 c5 91 3c bf c4 81 3c 4e fe fb 3c
       0.032893192 0.017794412 0.015840886 0.03076091
000170 76 42 56 3c f9 17 91 bd f1 f4 12 3d f3 8a 13 3d
       0.013077369 -0.070846505 0.035878126 0.036021184
000180 62 34 0a bd fc 0d 95 bc 46 89 37 bb e7 9c b1 3c
       -0.033741362 -0.018195145 -0.0028005405 0.021681262
000190 0e 7b 46 3d a7 0b 84 bd 88 bc 20 3d 6e 92 95 bc
       0.048457198 -0.06447535 0.039242297 -0.0182583
0001a0 fb df 7c bc bc 95 e3 bc c8 e2 f7 bc c0 4a b6 3d
       -0.0154342605 -0.02778136 -0.030259505 0.08900976
0001b0 8b e5 3c bd 48 42 a2 3d 4e 21 53 3d a1 32 8a 3c
       -0.046117347 0.079227984 0.051545434 0.016869845
0001c0 ce ce 08 3d de fc 5f bc 35 f6 5f 3d ab a2 bc 3c
       0.03340035 -0.013671128 0.05467816 0.023026785
0001d0 58 3a 96 bc cc cf 2e bd bc 5e e9 3c 60 4f 78 bd
       -0.018338367 -0.04267864 0.028487556 -0.060622573
0001e0 8c 27 28 3c e3 e7 54 bd a3 c3 5e 3d ef 59 ed bb
       0.010263335 -0.051978957 0.054385792 -0.007243387
0001f0 db a4 e4 bc 46 23 51 3c 37 3e 9c bc 06 5d f9 3c
       -0.02791064 0.0127647575 -0.019072635 0.030439865

ffn.1.weight f4 [1, 128]
000000 b6 24 c4 bd 5a ac 1b bd d7 d9 69 3d de ad cc bc
       -0.095773146 -0.038006164 0.057092514 -0.02498525
000010 8e ea 16 3d 69 4c 06 bc 0e 4b 5c bc f7 ba 34 bd
       0.036844783 -0.008196929 -0.013445629 -0.044123616
000020 e7 58 7e 3d 02 e6 13 3d b7 e6 37 bd 0e bb a1 bd
       0.062096503 0.036108024 -0.04489776 -0.07897006
000030 fc fe 89 3d 71 e1 55 3d c0 f7 ff bc 29 81 76 bd
       0.067380875 0.05221695 -0.031246066 -0.06018177
000040 85 08 2b 3d 57 bf 28 bd a2 11 95 bd 43 5d 8f bd
       0.04175617 -0.0411981 -0.07278754 -0.0700021
000050 cc b8 8b bd 4e e9 39 bd 2a 1f d6 3c 9c 9e 3a bd
       -0.068223566 -0.045388512 0.026137907 -0.045561418
000060 2c 27 59 3d 44 4a ef bc 70 0c 9a 3d 9c 37 89 bd
       0.053015873 -0.029210217 0.075219035 -0.0670006
000070 3b 96 8b 3d 0c bb 8a bd 41 ae 53 3d 07 93 60 3d
       0.068157636 -0.067739576 0.051679853 0.054827716
000080 93 d1 6e bd a5 26 0a 3d ed fd d7 bd 35 22 2a bd
       -0.058305334 0.03372826 -0.105464794 -0.04153653
000090 88 5c b8 3d 7b 5b 44 bd 40 38 f5 bc c9 29 83 3d
       0.09002024 -0.047938805 -0.029934049 0.06404454
0000a0 56 30 b6 3d 38 43 64 bd 00 4f 45 bd c6 bc a8 bd
       0.08895938 -0.055728167 -0.048171043 -0.08239131
0000b0 a1 e2 7c 3d 06 12 f7 bc fe d4 b6 bd 5f cc a5 bd
       0.061739568 -0.030159961 -0.08927344 -0.08095621
0000c0 31 d7 22 3d 47 b4 63 bd 2f 91 1b bc 2b 58 88 3d
       0.039756004 -0.055591848 -0.009495064 0.06657442
0000d0 75 c0 99 3d 4b 89 b1 bd 78 79 a3 3c 0d 21 bb bd
       0.075074114 -0.08668765 0.019955382 -0.09137163
0000e0 23 45 37 bd 1e de 9b bc eb 31 50 bd 8b 97 be 3d
       -0.04474367 -0.019026812 -0.050828855 0.09306248
0000f0 34 ee fd 3c fd 15 71 bd c9 55 b4 bd bd af d7 3c
       0.030997373 -0.05885886 -0.08805425 0.026328916
000100 b4 db d6 bd b1 d6 52 3d f9 e4 86 bd b1 c2 a6 bc
       -0.10491124 0.051474277 -0.06586642 -0.020356508
000110 e5 34 f4 3c 31 88 02 bd 30 e0 49 bd 4a 4d 9b bd
       0.029810378 -0.031868163 -0.049286067 -0.07583101
000120 9d 54 25 3d 00 0e c3 3d d9 eb 92 3d 0e c4 b0 3d
       0.040363897 0.09524155 0.071738906 0.086311445
000130 dc 8e b1 3d c0 8e 52 3d a6 0a 1a 3d 6b 11 7d 3d
       0.086698264 0.05140567 0.03760781 0.06178419
000140 33 b5 aa bd 1f 92 bc 3c 90 47 43 bd ea 99 8f 3d
       -0.08335342 0.023018895 -0.04767567 0.07011779
000150 fa 03 9d 3d 91 71 82 3d d2 d1 a2 bc b3 49 d4 bc
       0.07666774 0.06369317 -0.01987544 -0.025914049
000160 0e 3a 3a bd 2b 5f 03 3d 5f 6b 80 bd 80 b4 cf bc
       -0.04546552 0.03207318 -0.062704794 -0.025354624
000170 9e f7 42 3b 67 25 6d 3d cf dc 9a bd f7 5a 0e 3d
       0.0029749642 0.057896998 -0.07561647 0.03475472
000180 3f 37 2b bd 8a 42 0e 3d 4f 49 58 bd 0c 79 6b 3a
       -0.041800734 0.034731425 -0.052804288 0.0008982576
000190 6b 24 02 bd d8 82 17 bd 8b 76 8e bd 2b 53 46 3d
       -0.031773012 -0.036990017 -0.06956204 0.04841916
0001a0 3c 58 06 3d ab 25 b6 3d 04 cf 88 bd f6 86 97 bd
       0.03279899 0.08893903 -0.0668011 -0.07398789
0001b0 bc 99 55 3b 69 ce 95 bd 94 dc 08 bd d7 54 d5 bd
       0.0032592854 -0.0731476 -0.033413485 -0.104165725
0001c0 72 2f b8 3d a0 75 1b 3d 62 f1 a7 bd 6f 31 41 3d
       0.089934245 0.037953973 -0.08200337 0.047166284
0001d0 92 ef fa 3c 9a 75 3a 3d af 01 8b 3d 43 de 98 3c
       0.030631814 0.04552231 0.067874305 0.01866067
0001e0 6d df b3 bd 52 e8 0d 3d 24 f2 f7 bd 57 7a 0f 3d
       -0.087828495 0.034645386 -0.121067315 0.03502878
0001f0 79 f3 28 bd c3 23 03 be b0 27 5c bd 5e b9 a3 bd
       -0.04124782 -0.12806611 -0.053748786 -0.0799434
