testing/hyperopt/checkpoints/MPNN_with_attention.pt (torch, 216181 bytes, 15 tensors)

encoder_sol.cached_zero_vector f4 [64]
00000000: 0000 0000 0000 0000 0000 0000 0000 0000
00000010: 0000 0000 0000 0000 0000 0000 0000 0000
00000020: 0000 0000 0000 0000 0000 0000 0000 0000
00000030: 0000 0000 0000 0000 0000 0000 0000 0000
00000040: 0000 0000 0000 0000 0000 0000 0000 0000
00000050: 0000 0000 0000 0000 0000 0000 0000 0000
00000060: 0000 0000 0000 0000 0000 0000 0000 0000
00000070: 0000 0000 0000 0000 0000 0000 0000 0000
00000080: 0000 0000 0000 0000 0000 0000 0000 0000
00000090: 0000 0000 0000 0000 0000 0000 0000 0000
000000a0: 0000 0000 0000 0000 0000 0000 0000 0000
000000b0: 0000 0000 0000 0000 0000 0000 0000 0000
000000c0: 0000 0000 0000 0000 0000 0000 0000 0000
000000d0: 0000 0000 0000 0000 0000 0000 0000 0000
000000e0: 0000 0000 0000 0000 0000 0000 0000 0000
000000f0: 0000 0000 0000 0000 0000 0000 0000 0000
0.0 0.0 0.0 0.0 0.0 0.0 0.0 0.0
0.0 0.0 0.0 0.0 0.0 0.0 0.0 0.0
0.0 0.0 0.0 0.0 0.0 0.0 0.0 0.0
0.0 0.0 0.0 0.0 0.0 0.0 0.0 0.0
0.0 0.0 0.0 0.0 0.0 0.0 0.0 0.0
0.0 0.0 0.0 0.0 0.0 0.0 0.0 0.0
0.0 0.0 0.0 0.0 0.0 0.0 0.0 0.0
0.0 0.0 0.0 0.0 0.0 0.0 0.0 0.0

encoder_sol.W_i.weight f4 [64, 147]
00000000: 7381 863d 2a02 95bd c41a 23bd 701b 9abb
00000010: a328 97bd f751 873d e23a f03c 06bc 96bd
00000020: b2da 803d c0a9 e53c ce3b 8bbd 9718 22bd
00000030: a869 4b3d 7840 e33b a257 0c3e f6b2 15bc
00000040: cfbb 293d d891 e5bc 4019 103c 536f 51bd
00000050: 8c3a 8dbc c01f 453d 7804 6c3d 749b 5ebd
00000060: 49c1 7fbd 9ed1 50bd 5819 f53c 9c90 6a3d
00000070: 7467 90bc b827 3d3d 30ac 0e3d 1a42 a03d
00000080: 38cc 9cbd 37a0 91bd bccb b0bc 51be 12bd
00000090: f049 ed3c e6e9 283d c0f5 fcbb 62ae 9c3d
000000a0: c822 743c c817 90bc a0f3 4a3b c8bb 363d
000000b0: e06a b13c d8ee 603d 847f a63d 00f7 143b
000000c0: 9cf5 5dbd ab46 0bbd 959e a4bd eae3 9d3d
000000d0: 2b31 a33d 705c fd3b 1478 503d 6041 0d3c
000000e0: e6d1 58bd 8b3d 01bd 7e00 abbc e086 933c
000000f0: cee3 4dbd 4086 c93a 40f3 bd3c 1b95 9cbd
00000100: c748 09bd 402a b23b 773f 97bd d85b e5bc
00000110: ced5 32bd 9c20 0d3d 00d1 88b9 602b 73bd
00000120: 97a6 27bd 20a1 863d 6076 80bc 34bc 9a3d
00000130: 8495 983c 6ad4 993d 96de a8bd 5498 5a3d
00000140: 4031 1e3d c6ec 73bd 8a3a 993d 9a1c 8cbd
00000150: 1865 153d 6ac2 64bd ecf1 473d 8ad5 8fbd
00000160: 78a6 7b3d 6420 6f3d ae68 85bd 4c8f 783d
00000170: c00a e23b bf8c 0bbd 3c55 af3c f57f 13bd
00000180: d880 1e3c 301a 843c 81da 2bbd 94f2 983c
00000190: 20cd 123d 6251 0f3d aae4 7abb 9132 8f3c
000001a0: e24e d6bc d045 fabc 4836 6ebc 0d43 0ebd
000001b0: aa76 4ebd 0463 983d d225 e7bd 18cc a33d
000001c0: 8984 363c 9924 4bbc 39ad 903c c00e cc3d
000001d0: 8ade 1fbd e41a 763d 55de 09bd 02ef 70bc
000001e0: 34a1 eebd ea9b d53d 7fce 193d 1aca 193d
000001f0: 9034 693d dfca e4bc f1fb 0b3c d23d 043d
00000200: 7027 97bc 8427 193d fc4b 8d3d f2bc 3a3c
00000210: fa68 003c 9430 67bd d59e a23d 148a 30be
00000220: c910 eb3c 647a 3ebc 9c20 e63c c4d5 663d
00000230: 756d 813d 888a 6e3d 0da3 f9bc e42e e8bc
00000240: 5d52 a2bd 162d 2fbd a04d 0a3d 1f8b 83bb
00000250: ec6a a2bd 6a29 9b3d 44f6 813c 4431 6e3d
00000260: c331 a73d bd84 033d 3a91 27be 0796 94bc
00000270: f09a ef3b 1077 c5bb aedd 0e3d 6c27 093d
00000280: a19d bdbc f4ae eb3c 5e2a 16bc aca3 10be
00000290: 3500 64bd 7e9b 0cbd a95d a4bd ef50 32bd
000002a0: 5cce 9d3c 20ff 47bc b874 4e3c ce7d 23bd
000002b0: c283 9bbd 6c93 92bd 204c ae3c b4f4 6e3d
000002c0: cc28 683d f88f 193d 5c6d 8e3d 7c06 343d
000002d0: 2c63 2b3d 0198 1bbe 00cb 233d 2251 acbc
000002e0: 7bbe 96bd 607a 3ebc 6a42 aebc 7dd9 97bd
000002f0: 085b 1f3c 00d8 553d 809f 20bc 1eab 8e3d
00000300: a02a 98bd 2cd0 323d 02ec 0a3d 0cb4 d1bc
00000310: 2864 4a3c 4ceb 2b3d a2f5 a03d d1f2 d73d
00000320: c229 83bd 769c 0f3d aed8 8dbd d0fd 373d
00000330: f88f d4bc 0429 493d b09a cd3b d0a3 b23c
00000340: b08d f33b 3808 493d abfa 7bbd 006c 32bb
00000350: 2288 8c3d 2c53 e4bc 8679 a53d aef9 0bbd
00000360: 3720 43bd 0860 4b3d ca1c 9f3d c215 993d
00000370: f4d7 83bd 49b6 8abd 5378 a6bd ca9d 9a3d
00000380: 1007 40bc c872 a0bc ac3f a13d 4425 423d
00000390: f09a 053c 142c e73c ded9 873d ddad a7bd
000003a0: f6ea 5dbd 5621 953d c8be c53c 4c5d 7f3d
000003b0: 98c3 7b3d c6b2 48bd 9685 87bd d111 3fbd
000003c0: 515e 00bd 406d 4e3c f453 fc3c f640 993d
000003d0: 7ca3 99bd c0aa 153c 6d4f 22bd 5875 27bc
000003e0: 9ca3 613d d940 e4bc 47ca febd 775b a93c
000003f0: 9b5e c53d f014 573c 7ccb ba3c 49c5 00bd
0.06567659 -0.072758034 -0.039820448 -0.004702978 -0.07380798 0.066074304 0.029324953 -0.073600814
0.06291713 0.028035045 -0.06798516 -0.039574232 0.04966131 0.0069351755 0.13705304 -0.009136906
0.041438874 -0.028023645 0.008795083 -0.051131558 -0.017239831 0.048125982 0.05762145 -0.05434747
-0.06244019 -0.050981157 0.029919311 0.057266816 -0.017627455 0.046180457 0.03483218 0.07825108
-0.07656139 -0.07110637 -0.021581523 -0.03582603 0.02896592 0.041238688 -0.0077197254 0.076504484
0.014900871 -0.017589465 0.0030967966 0.044612676 0.021657407 0.05491528 0.081297904 0.0022730231
-0.05418931 -0.03400294 -0.080380596 0.07709487 0.079683624 0.0077319667 0.050895765 0.008621544
-0.05293455 -0.031552833 -0.020874258 0.01800865 -0.05026608 0.0015375093 0.02318728 -0.07645627
-0.03351667 0.0054371655 -0.07385152 -0.027997896 -0.04366093 0.034454927 -0.00026095659 -0.059367537
-0.040930357 0.06573701 -0.015681446 0.07555428 0.018625982 0.07511218 -0.0824558 0.053367928
0.038621187 -0.059551977 0.074818686 -0.06841393 0.036473364 -0.05584947 0.0488147 -0.07023151
0.061438054 0.0583805 -0.06514107 0.060683534 0.006898254 -0.034069773 0.021402948 -0.0360107
0.009674273 0.016125768 -0.04195643 0.018670358 0.035840154 0.034989722 -0.0038283267 0.017480167
-0.026160661 -0.030550867 -0.014539309 -0.034731913 -0.050406136 0.07440761 -0.112865105 0.07997912
0.011139997 -0.012398862 0.017660724 0.09963751 -0.03903059 0.06008424 -0.033659298 -0.014705421
-0.11651841 0.10430129 0.037550446 0.037546255 0.056934893 -0.027928768 0.008543954 0.03228552
-0.018451422 0.0373912 0.068992585 0.011397587 0.007837528 -0.056442812 0.07940451 -0.17240173
0.028694527 -0.01162586 0.028091721 0.056356207 0.063197054 0.058237582 -0.030473256 -0.028342672
-0.07925866 -0.042767607 0.033765435 -0.0040143873 -0.0793055 0.075762585 0.015864499 0.058152452
0.08163788 0.03210901 -0.16363993 -0.018137945 0.007312171 -0.0060261562 0.03487938 0.03348486
-0.023146452 0.028769948 -0.009165375 -0.14124936 -0.05566426 -0.034327976 -0.08025677 -0.043534216
0.019263439 -0.012206823 0.01260107 -0.0399149 -0.0759349 -0.07157025 0.021276534 0.058338836
0.056679532 0.037490815 0.069544524 0.043951496 0.041842625 -0.15194704 0.039988518 -0.02103478
-0.0736055 -0.011625856 -0.021271903 -0.074145295 0.009726293 0.052207947 -0.009803653 0.06966232
-0.07430005 0.04365556 0.03391648 -0.025598548 0.012352981 0.041972443 0.07859351 0.105443604
-0.06404449 0.035061322 -0.06926094 0.04491979 -0.025947556 0.04911138 0.0062745437 0.021806628
0.007432662 0.049080104 -0.061518352 -0.0027225018 0.06861903 -0.02787169 0.080798194 -0.03417366
-0.047638144 0.04965213 0.07769163 0.07474853 -0.06437674 -0.067730494 -0.08128419 0.07549627
-0.011720434 -0.019585982 0.078734726 0.04739882 0.008154616 0.02821926 0.06633352 -0.08187459
-0.054179154 0.07281749 0.024138823 0.062344834 0.06146583 -0.048998617 -0.06617276 -0.04664785
-0.031339947 0.012599289 0.03080175 0.074830934 -0.07501885 0.009134948 -0.039626528 -0.010220848
0.05508767 -0.027862953 -0.12440925 0.020673497 0.09637185 0.0131275505 0.022802107 -0.031438146

encoder_sol.W_i.bias f4 [64]
00000000: e9b1 7f3b 30b2 053d 5751 09bc dabd e7bc
00000010: 58e6 4d3c 1437 11bd 6728 3c3d 530e 2fbc
00000020: e2ca 87bd 1c85 e0bc 53c9 80bd 4072 7db9
00000030: ba1e a2bc 6f50 94bc e16f 373d cae1 163d
00000040: 82ba 59bd e316 5dbc d162 99bc 1d09 2cbd
00000050: ca3f b03c 3f5f 123d c5d8 55bb b544 94bd
00000060: 7218 32bd 908a f6bc a5c0 8bbd e120 7cbc
00000070: 1427 2bbd 2e79 7fbb d666 7dbc 12b7 873b
00000080: a366 4dbb da50 5b3d afcc a43c 24be 3a3d
00000090: 8e53 20bc 4fd5 113d 1d5e 293d 44f3 103d
000000a0: 4e6b 1a3d 23bd d7bc f466 adbb 445b a0bd
000000b0: 7685 aebc 7c93 8bbd 1e92 a7bd b497 f1bc
000000c0: 9c93 543d 9f6f 85bb ae36 073d fbde 9dbd
000000d0: a291 09bb a73b 0b3d bbe3 b2bc 38ca 31bb
000000e0: 9167 433d bd26 b4bc 60b2 93bc ec26 3a3d
000000f0: c596 02bd 9859 6b3c 90ac 7fbd 9279 b3bc
0.0039015955 0.032640636 -0.008381209 -0.02828877 0.012567125 -0.035452917 0.04593697 -0.0106845675
-0.06630494 -0.027407221 -0.062883995 -0.00024170522 -0.019790042 -0.01810476 0.04478443 0.036836423
-0.053156383 -0.013494226 -0.018723877 -0.04200088 0.021514792 0.035735365 -0.0032630425 -0.07239667
-0.043480344 -0.030095369 -0.068238534 -0.015388698 -0.041785315 -0.003898214 -0.0154664125 0.0041416967
-0.0031341694 0.053543903 0.020117132 0.04559149 -0.009785546 0.035603818 0.04134952 0.035388246
0.03769999 -0.026335305 -0.005291814 -0.078299075 -0.021303874 -0.0681524 -0.081821665 -0.029491283
0.051898584 -0.004072144 0.03301113 -0.07708546 -0.0020991345 0.033992436 -0.021837106 -0.0027128588
0.04770619 -0.021991128 -0.018029392 0.045447275 -0.031882066 0.0143646225 -0.062420428 -0.021908555

encoder_sol.W_h.weight f4 [64, 64]
00000000: cd62 4f3d 2516 473d 3c80 92bc 051b ac3d
00000010: ccf0 573d 70d7 1abc 9674 29bd f7a0 ca3d
00000020: 2483 853c 28d8 133d d2ca 2bbe 8297 88bc
00000030: 136b a23d 2673 16be 29ad 0fbe a603 4fbd
00000040: 6763 07be d2d8 aa3d 0c79 ae3d 323d 05bd
00000050: e291 9ebc 09dd c4bd ee99 4cbb 756a 94bd
00000060: 4bdf 573d b9b9 4dbd d8fb 3c3e 659c 03be
00000070: b69b 75bd 1a42 c9bd ef4f 0b3d b11d e7bd
00000080: 9d78 aa3d d3e5 1abe 29da ba3d 1869 093e
00000090: 30dc 95bd fc57 c5bd b283 8dbd b796 b23d
000000a0: 03a0 3ebd f919 e6bb 16e9 0bbc 208d 043e
000000b0: 08e0 14bd e39c 293e 383d 2b3d 2684 d8bc
000000c0: 3c11 fb3d a427 f3bc b791 98bb 1ba0 ed3b
000000d0: abd8 1d3e b4d3 a2bd 33bd 023e 9052 743d
000000e0: 0ac6 dabd 5710 63bd 6422 27be 8397 a2bd
000000f0: d04f 84bd 4bfe a13d 60d0 9bbb 8888 b7bc
00000100: d693 403d d121 b63d 5357 77be a701 003e
00000110: f6ad 8fbd 8279 32bd 8457 93bd 8762 1d3e
00000120: 537e 11be 71b4 2dbd 34cc 383d dae9 bf3a
00000130: d35e f13b 01a5 9ebe 6f70 aebd 8278 10be
00000140: 34c0 eabd 87b5 bcbc f466 1ebe 99f6 a5bd
00000150: 9338 f9bd 95ff 813d 24f6 e4bd 208c 0f3e
00000160: fd54 263d 75e5 bf3d 7eda beba ae19 a7bd
00000170: ab40 c7bd 9187 0b3d 2faf 2b3e c2a6 1e3c
00000180: ceee fa3d 9933 933d 62e9 b33c 26b4 d9bd
00000190: 2a24 323e 517e 67bd e4a4 00bd 4856 43bd
000001a0: 68a3 62bd 2ab6 2dbe f4b7 353d 6e01 d3bc
000001b0: 7c99 38bd 49b3 d63d b022 253c f436 173a
000001c0: f6b8 96bd 480d ea3d ea6d 1e3d f8b8 babd
000001d0: c8ac 1a3d a00b 613d 7dbc 563d df16 703d
000001e0: 3247 84bc 9a0c 8ebc 38d5 16be 9a5e debd
000001f0: c748 a8bd 989a ad3d 22cc c23d 8645 b8bd
00000200: 548b 45bc f234 9abd 818a 983e d4aa 5cbb
00000210: f30b abbd 80da d33c 11b1 e73d 55c8 643d
00000220: ca7f 4ebd 17f6 6a3d d3f5 073c ebed 9d3b
00000230: 5e4c 2cbe 4ce3 6e3e 8aea 8d3c 2d3e d83c
00000240: 0208 233e 8625 9e3c 9b6f 3c3d 683f 42be
00000250: b7f5 dbbd 919b 71bc fa56 94bd 628f ba3d
00000260: e8ab 833c fbb4 52be 6a67 9ebc 40b6 273b
00000270: 7ecc 0c3d 7402 a9bd 1549 10bd 8363 bfbd
00000280: 383c 0d3c 7e89 adbd 0bb2 c63d 3cc8 bf3d
00000290: 5417 763d c558 5b3d 27b4 d83c 5166 a7bc
000002a0: df1b a8bd 2c04 0d3e 12c9 763d 0e6c 8a3e
000002b0: 6bab 2ebe d42a 20be 0830 33bd 2f90 dabd
000002c0: 6d8b 913c d0e6 a7bc 5b60 253e 18a0 373e
000002d0: bed8 a7bd a09f 03be 56cf 16be 6869 023e
000002e0: 0d01 7ebc 94d8 623d 91dd f63d efb1 053d
000002f0: adf3 f73d cbd6 00be 890e e3bc 9d67 ac3c
00000300: a24c e13d b17f 073e 1338 2dbd be4c 5c3c
00000310: e125 c2bd 62ca 7ab9 b2f8 fbbd 6d4b 4c3d
00000320: 5c56 393d 6c5c 0d3d 7cbe 4bbd 83c1 2f3d
00000330: fd94 a5bd e818 4dbe 8d54 8abd bd81 bebd
00000340: 9c38 1ebd ca7d cb3d 0ee8 bcbd 4ebb 84bd
00000350: a929 9ebc 352e 83bd 3864 d0bc 070a 683d
00000360: c644 bebd 78db 09bd 2f00 933b 9a33 15bc
00000370: 222e e83d 8c53 e33d 830f 4cbc 0904 763c
00000380: eca0 973c ea18 00be 3d81 6ebd bb39 7a3d
00000390: 0e8e 02bd 0188 94bc ec04 93bd 24b1 bdbd
000003a0: e453 b03d e3c0 1dbe 4a3e d23d 7c42 eebd
000003b0: 806b 6e3c 0929 933b b0f0 403d 22b5 eebc
000003c0: 4617 75bd 557d 9a3d b113 ffbd 6169 ccbc
000003d0: b2ff 03be 3708 d13d a8a4 d7bd 9b9e 083d
000003e0: 74ab 23bd 103d eb3c 8df4 85be 8e28 783d
000003f0: 1ad9 b9bd 6a6c 34bd e649 cf3d f47a b73d
0.050631333 0.048605103 -0.017883413 0.08403591 0.052719876 -0.009450778 -0.04137095 0.09893983
0.016297884 0.036094815 -0.16776589 -0.016673807 0.07930579 -0.14692363 -0.14030899 -0.05054059
-0.13221513 0.083421364 0.085191816 -0.032529064 -0.019356672 -0.096124716 -0.003121968 -0.072468676
0.052703183 -0.050225947 0.18455446 -0.12852629 -0.05996295 -0.09827061 0.034011777 -0.1128496
0.083237864 -0.15126733 0.09123642 0.13418996 -0.07317388 -0.09635922 -0.069098845 0.08720153
-0.046539318 -0.007022139 -0.008539459 0.1294446 -0.036346465 0.16563754 0.04180643 -0.0264302
0.122591466 -0.029681988 -0.0046560424 0.007251752 0.15414684 -0.079505354 0.12767486 0.05964905
-0.10682304 -0.055435505 -0.16321713 -0.07939055 -0.064605355 0.07909831 -0.004755065 -0.02240397
0.047015987 0.08893169 -0.24154405 0.1250063 -0.07015602 -0.04357291 -0.07194427 0.15369616
-0.14208345 -0.04240841 0.04511662 0.0014641837 0.0073660403 -0.30985263 -0.08517539 -0.1410847
-0.11462441 -0.023035778 -0.15468961 -0.081036754 -0.12168994 0.063475765 -0.1117976 0.14018297
0.040608395 0.09369937 -0.0014560965 -0.08159195 -0.09729131 0.034064833 0.16766046 0.009683313
0.1225258 0.07187576 0.021961872 -0.10630064 0.17396608 -0.05651695 -0.031407252 -0.047689706
-0.055331618 -0.16964021 0.044364884 -0.025757518 -0.04506825 0.10483415 0.010079071 0.00057683815
-0.07359497 0.114283144 0.03867904 -0.09117311 0.037762433 0.054942727 0.05242585 0.05861556
-0.01614723 -0.017339993 -0.14729774 -0.108578876 -0.08217006 0.08476752 0.095115915 -0.089976355
-0.012057144 -0.0752963 0.2979317 -0.0033671157 -0.083518885 0.025861025 0.113130696 0.055855114
-0.050414838 0.057363596 0.008298355 0.004819622 -0.16826007 0.23328894 0.017323751 0.026396835
0.15921023 0.019305002 0.046004873 -0.189695 -0.10740226 -0.014746563 -0.07243152 0.09109379
0.016073182 -0.20576851 -0.019336421 0.0025590807 0.034374706 -0.08252421 -0.035225946 -0.09345152
0.008620314 -0.0847349 0.09701928 0.093643636 0.06008084 0.053551454 0.02645309 -0.02043453
-0.08208441 0.13771123 0.06025035 0.27035564 -0.17057578 -0.15641338 -0.043746978 -0.10672032
0.017766679 -0.020495802 0.16150038 0.17932165 -0.08195637 -0.12853861 -0.1472753 0.12735522
-0.01550318 0.055382326 0.12053979 0.032640394 0.12107024 -0.12581937 -0.027716892 0.0210455
0.11000945 0.13232304 -0.042289805 0.013446031 -0.09479881 -0.00023917251 -0.12303294 0.04987662
0.045248374 0.03451197 -0.049742207 0.042909157 -0.08085058 -0.20029032 -0.06754408 -0.09302089
-0.038628206 0.09936102 -0.092239484 -0.06481038 -0.019306974 -0.06405298 -0.025438413 0.056650188
-0.09290461 -0.033656567 0.004486106 -0.009106541 0.11336924 0.1109992 -0.01245487 0.0150156105
0.01850935 -0.12509504 -0.05822872 0.061090212 -0.031873755 -0.018131258 -0.07178673 -0.092623025
0.08609751 -0.15405612 0.10265787 -0.11633775 0.014551997 0.0044909758 0.047104537 -0.029139105
-0.05983665 0.075434364 -0.12454928 -0.024952592 -0.12890509 0.10206645 -0.105294526 0.033354383
-0.039958432 0.02871564 -0.2616314 0.06058555 -0.09074612 -0.044048704 0.10121517 0.08958998

encoder_sol.W_h.bias f4 [64]
00000000: 9330 c1bd 7e63 023d df94 27bd 2080 bb3d
00000010: 00ee 373d f059 61bc f1c8 0fbc a14a db3c
00000020: a64f 93bc 12a3 473d f3b7 073c d6de ebbd
00000030: 93a2 3b3d 77d5 d63d 03c1 da3d 3f77 c5bd
00000040: 2779 09bd 17bb 033c 4eaf 0dbb e9e5 5cbd
00000050: e47e e63a 621c 663d 2a0e 853b 393f 94bb
00000060: d7aa 0a3d 9979 b83d 54d8 01bb b058 613d
00000070: 8842 63bd efff 08be 3c18 db3b 3d90 993c
00000080: ef98 68bc c4e6 e13d d1b9 963d c678 5e3b
00000090: a522 033d 5390 5abd e257 9dbd 693a c7bd
000000a0: 55ab f3bb ee3f 553d eacb ffbd 2ebd eebc
000000b0: 0cdd abba f04a a8bd e9a4 d2bd 39e7 ca3d
000000c0: a414 48bc ab89 47bc dea5 f33c 9808 26bc
000000d0: 70d8 003d 0805 babc 3038 b8bd 39ab 96bc
000000e0: 9a7c b9bd 4fff 883d f3e6 a7bd 0a26 43bd
000000f0: cbdc c03d bfcf f2bc 8eec 1a3c fe7d 9d3d
-0.09433093 0.031833164 -0.04091346 0.09155297 0.04490471 -0.013754353 -0.0087759355 0.026768984
-0.017982315 0.0487395 0.008283603 -0.11517112 0.04580934 0.10489934 0.10681345 -0.09641885
-0.033562806 0.008040211 -0.0021619382 -0.053930197 0.0017585424 0.05617941 0.0040605264 -0.0045241383
0.03385433 0.09007568 -0.001981278 0.05501622 -0.05548337 -0.13378881 0.0066862386 0.018745536
-0.014196618 0.11030343 0.073596604 0.0033946498 0.03201546 -0.053360295 -0.07682778 -0.09727938
-0.007436196 0.05206292 -0.124900654 -0.029142942 -0.0013112142 -0.08217418 -0.1028536 0.099073835
-0.012211952 -0.012178819 0.029742178 -0.010133885 0.03145641 -0.022707477 -0.08995092 -0.018392192
-0.09056969 0.06689321 -0.08198347 -0.0476437 0.09417113 -0.029640077 0.009455813 0.07690047

encoder_sol.W_o.weight f4 [64, 197]
00000000: 2381 513d f08d d33b 00f2 dcbc 8431 b83c
00000010: 1994 0abd fa89 5b3d f4f0 36bd ed73 bc3c
00000020: 759a 8dbd f6d6 3f3d eac4 5c3d 1a4e 36bd
00000030: 685b fb3c 1e8d 6bbc 1258 243e 4df3 c5bd
00000040: 4e01 a0bd bae3 83bc 5869 91bd 544a 85bd
00000050: d0bb 2d3c a84d 833c 2e1e b4bc 8efe 47bd
00000060: 3089 2c3d 68c3 423d 6b2f 65bd 006a 47bc
00000070: d00d e33c ca59 743d 6170 8d3d 303b 603c
00000080: 34f7 333d 939c 6ebd 01cb e2bd 6044 c83b
00000090: ca3e 6d3d 6aac b5bc 201f b23c 0070 d538
000000a0: 808f 6f3c 6073 883b 869d 373d c403 9d3c
000000b0: 80f5 413c 6800 1f3c 5f72 843d 0ae3 84bd
000000c0: 00d2 8d3c df0b 0abd 40b5 913c d074 e33c
000000d0: 4d0a 4cbd 6a4f 6b3d 7003 acbb 879c 80bd
000000e0: 706b da3c e2a3 523d f2c9 643d 5c84 83bd
000000f0: 848e 48bc aa92 343d eb37 873d c456 88bd
00000100: a0f2 ee3c eacb a1bc d04e 2fbd 688a 7fbd
00000110: 441b 2d3d 90c2 12bc aae6 1ebd 2888 143c
00000120: a237 313d 9674 4c3d b0dc f0bc 1cc0 2dbc
00000130: 29eb 6ebd a7d8 21bd 89e1 87bd c7ce 8c3d
00000140: 1be0 823d 1062 8b3b 06be dabc 6e69 6d3d
00000150: 67c7 1fbd 7a22 3c3d 9828 303c d07b 853c
00000160: 60a8 d5bc 8dd7 1ebd a0ef fdbc 6974 8fbd
00000170: e8a1 23bd 0216 30bd 4ef0 383d a94b 803d
00000180: 263b 603d 4c0a 87bd 68bb 843c f0ed 84bb
00000190: 2492 73bc df49 12bd 3611 80bd 794a 5abd
000001a0: a3fb 1fbd 0a1d 343d 0a96 023d c9a1 91bd
000001b0: 6ca8 193d 5d8d 8bbd df9d 40bd 2687 efbc
000001c0: 8016 a43d 6c53 03bd 5a1d c83b c08b 80bd
000001d0: 720a d13c 81ad 803d 241b c53c 9c1e a5bc
000001e0: e950 1d3d 7367 f93c d51d 333d a70a 92bb
000001f0: 548b de3c e3f8 a9bb 1112 7c3d 8f80 0dbd
00000200: f0f4 debc 38ce 3a3d 209a 123e de59 413d
00000210: 8172 c8bc 0e67 c4bd 87bf 3fbc 81ac bcbc
00000220: 083d 4a3d cf4a 9c3c a092 a33b 3bd4 3d3c
00000230: d25b 8e3c c84f cabd ce4f 473d a81c da3c
00000240: aa2c 7c3c b217 e2bc 6dc8 283c 5d0a 6f3d
00000250: 1ef6 5e3c 7b9d cfbc 6210 9f3d 4f6e 5dbd
00000260: d667 223d 27ac 86bc ffb0 f03b 2a18 713d
00000270: 6932 05bd bac3 7b3d e343 36bd a28c 203d
00000280: 1418 35bd 69ef c13a d883 2b3d 3105 ce3c
00000290: 0483 79bc c25f 363d 2289 013b 30af 7f3d
000002a0: 10be 6c3d 399d a93c 0334 223b bc9d d0bc
000002b0: e4e6 d33c 3e0f 823d 3ca2 5dbd b24c ac3d
000002c0: c6ce eb3a a85a 9d3b 1d87 7b3d 8027 893d
000002d0: ac67 403d a5dd eb3d cf9e 243d 5d09 8bbd
000002e0: a4ce fd3c d48a be3d 606e a03d 734e ae3d
000002f0: f970 53bd ab3e c33d c24e 243d 78d5 33bd
00000300: ac53 123d 2da4 aa3c 086e b53d 80e4 f23c
00000310: 65c1 acbd 0851 55bd 2d75 20bd 2648 3cbd
00000320: 4243 2cbd 2cfb 33bd 5d47 abbd d6e8 40bd
00000330: 8aea 393c 611d 28be 5a6a 023d 8212 c4bc
00000340: f027 26bd 8b02 863d def1 1f3d 4900 873d
00000350: 1ae7 fabc 4c92 323e c96b 913d ccbf 5abd
00000360: 6c3f 84bd 5724 853d 67e2 803d daa4 5d3d
00000370: a80f a43c 9c76 7bbd 007a 53bc a2d3 67bd
00000380: a03d 4dbd 6421 c93c 6afc 7e3d a028 5dbd
00000390: 188a b13c 64fa 47bd df90 70bd d153 2f3e
000003a0: 0012 223c 8cc5 d23c 9c98 323d 8088 7bbb
000003b0: f016 fd3b a6e5 b3bc b825 7fbd e6ec 47bd
000003c0: ccda 343d 6044 38bb c4f8 50bc 40e6 c83c
000003d0: 5e82 68bd 7319 8cbd 8094 343a 66f4 773d
000003e0: da23 3bbd 9d7f 7a3d 60c1 7cbd dc5d 033d
000003f0: 6400 61bd 10dc 3dbc 821a 5a3d d004 363c
0.051148545 0.0064561293 -0.026970863 0.022484548 -0.033832643 0.05359838 -0.044663385 0.023004496
-0.06914226 0.046835862 0.05389873 -0.044508077 0.030683234 -0.014376907 0.16049221 -0.096655466
-0.07812749 -0.0160998 -0.07100171 -0.065083176 0.01060386 0.01602824 -0.021987047 -0.048826747
0.04212302 0.047549635 -0.055953424 -0.012171268 0.027716547 0.059655942 0.069062 0.013685986
0.043936923 -0.05825479 -0.11073876 0.0061116666 0.05792121 -0.02217694 0.021743357 0.00010177493
0.014621615 0.0041641444 0.04482796 0.019166835 0.011838317 0.009704687 0.06467127 -0.06488617
0.01731205 -0.033702727 0.017786622 0.027765661 -0.04981451 0.057448782 -0.005249433 -0.06279855
0.026662558 0.051425822 0.055856653 -0.0642173 -0.01224101 0.044085182 0.066024624 -0.06657174
0.029168427 -0.019750554 -0.04279977 -0.062387854 0.04226233 -0.00895752 -0.038794197 0.009065665
0.043265946 0.049915873 -0.029402107 -0.0106048845 -0.058329735 -0.039513256 -0.06634814 0.06875377
0.06390401 0.0042536333 -0.026701938 0.057961874 -0.039008524 0.045931317 0.010751866 0.01629439
-0.026081264 -0.038779784 -0.030998051 -0.07004625 -0.039949328 -0.04298974 0.045151047 0.06264431
0.05474391 -0.06593761 0.016202644 -0.0040566847 -0.014866386 -0.03571498 -0.06253283 -0.05329368
-0.03905834 0.043973006 0.03188137 -0.07110936 0.037514135 -0.06814072 -0.047025558 -0.029239248
0.08012104 -0.03206198 0.0061070146 -0.06276655 0.025517676 0.06283093 0.024060793 -0.020156197
0.03840724 0.030444836 0.043729622 -0.0044568363 0.027166046 -0.0051871403 0.061540667 -0.03454643
-0.027216405 0.04560682 0.14316607 0.047204845 -0.024468662 -0.095899686 -0.0117033785 -0.023031475
0.04937461 0.01907864 0.0049918443 0.011586244 0.017377768 -0.09878498 0.048660092 0.026624992
0.015391508 -0.02759919 0.0103016915 0.058359493 0.013608484 -0.025343647 0.07766797 -0.054060277
0.039649807 -0.01643951 0.0073453183 0.058860935 -0.032518778 0.061465956 -0.044498336 0.039196618
-0.044212416 0.0014796081 0.041873783 0.02514896 -0.01522899 0.044524916 0.0019765575 0.06242293
0.057798445 0.020704852 0.002475024 -0.025465839 0.025866933 0.063505635 -0.054109797 0.08413066
0.00179907 0.004802067 0.06140815 0.06696987 0.04697387 0.11516885 0.040190514 -0.06788895
0.030982323 0.09303823 0.07833552 0.08511057 -0.05162141 0.09533437 0.04011417 -0.04390475
0.035724327 0.020830238 0.088588774 0.029649973 -0.084353246 -0.05207923 -0.039174248 -0.045967244
-0.04205633 -0.043940708 -0.08363221 -0.04709705 0.011347422 -0.16417457 0.031839706 -0.023934606
-0.04056543 0.06543454 0.039049022 0.06591851 -0.030627776 0.1743862 0.071006365 -0.053405568
-0.06457409 0.06501072 0.06293183 0.054112293 0.020026997 -0.06139241 -0.012907505 -0.056598313
-0.0501076 0.024552055 0.06225244 -0.05399382 0.021672294 -0.048822775 -0.05873191 0.17121817
0.009891987 0.025728963 0.04360257 -0.003838092 0.0077236816 -0.02196009 -0.06229183 -0.04880991
0.044153973 -0.0028116927 -0.012754623 0.024523854 -0.056764953 -0.068407916 0.00068885833 0.06053581
-0.045688488 0.061156858 -0.061707854 0.032071933 -0.054932013 -0.0115881115 0.053247936 0.011109546

encoder_sol.W_o.bias f4 [64]
00000000: 7b4a c5bb 55d9 103d 7d8c 7b3d 927a 563b
00000010: bb7b af3c ebcb 75bd ad1f d83b 7a8c 54bb
00000020: 2d6d eabc 7390 9f3d ac31 823d 948a 7939
00000030: f4c5 d9bc a28b 81bd d19e e03c e700 bcbc
00000040: 49cb 0fbd 1b9f b8bc dd44 31bd 3156 80bd
00000050: cfe3 ea39 9876 84bd c34d 86bc a547 f53c
00000060: 1ad3 2c3b 80a1 84bd 013b a7bd 3f8a 6bbd
00000070: ee54 57bd 5993 82bc 8441 03bd 3ac4 713d
00000080: 7a51 80bd debb 1f3c b48e bbbc 0474 4bbd
00000090: 7ff5 373d ea11 07bd a860 b7bd 310c 7cbd
000000a0: ecff 2cba 4c78 c9bc 3463 543d 2465 8abd
000000b0: 5b72 423d 3c20 7ebd 0ce5 1abd ba7a 23bb
000000c0: 12f9 583d f809 313d 1d65 1f3d 241a c23b
000000d0: 65e7 a0bc 0234 52bd 787d ce3c 4218 ef3c
000000e0: 3cb5 69bc e444 adbd 8afa e63c 4676 b53d
000000f0: c295 6a3c a058 853d 9728 d7bc ccf6 4cbd
-0.0060208417 0.035363514 0.061413277 0.0032726866 0.021421304 -0.060008924 0.006595573 -0.0032432363
-0.028616512 0.077912234 0.063571304 0.00023798115 -0.02658365 -0.06325461 0.02741948 -0.022949649
-0.035105977 -0.022536805 -0.043278564 -0.0626644 0.0004480169 -0.064679325 -0.016394502 0.02994139
0.0026370944 -0.06476116 -0.08165551 -0.05750489 -0.05257123 -0.015939401 -0.032044902 0.059025027
-0.062655404 0.009749381 -0.022895195 -0.049671188 0.044911858 -0.03297607 -0.089539826 -0.061535064
-0.00065994146 -0.024593495 0.05185242 -0.06757572 0.04747234 -0.06204246 -0.037816092 -0.0024944977
0.052971907 0.043222398 0.03891479 0.0059235264 -0.019641588 -0.05131913 0.025206313 0.029186372
-0.014264401 -0.084604055 0.028195638 0.088604495 0.014317932 0.065110445 -0.026264472 -0.05004005

encoder_solv.cached_zero_vector f4 [64]
00000000: 0000 0000 0000 0000 0000 0000 0000 0000
00000010: 0000 0000 0000 0000 0000 0000 0000 0000
00000020: 0000 0000 0000 0000 0000 0000 0000 0000
00000030: 0000 0000 0000 0000 0000 0000 0000 0000
00000040: 0000 0000 0000 0000 0000 0000 0000 0000
00000050: 0000 0000 0000 0000 0000 0000 0000 0000
00000060: 0000 0000 0000 0000 0000 0000 0000 0000
00000070: 0000 0000 0000 0000 0000 0000 0000 0000
00000080: 0000 0000 0000 0000 0000 0000 0000 0000
00000090: 0000 0000 0000 0000 0000 0000 0000 0000
000000a0: 0000 0000 0000 0000 0000 0000 0000 0000
000000b0: 0000 0000 0000 0000 0000 0000 0000 0000
000000c0: 0000 0000 0000 0000 0000 0000 0000 0000
000000d0: 0000 0000 0000 0000 0000 0000 0000 0000
000000e0: 0000 0000 0000 0000 0000 0000 0000 0000
000000f0: 0000 0000 0000 0000 0000 0000 0000 0000
0.0 0.0 0.0 0.0 0.0 0.0 0.0 0.0
0.0 0.0 0.0 0.0 0.0 0.0 0.0 0.0
0.0 0.0 0.0 0.0 0.0 0.0 0.0 0.0
0.0 0.0 0.0 0.0 0.0 0.0 0.0 0.0
0.0 0.0 0.0 0.0 0.0 0.0 0.0 0.0
0.0 0.0 0.0 0.0 0.0 0.0 0.0 0.0
0.0 0.0 0.0 0.0 0.0 0.0 0.0 0.0
0.0 0.0 0.0 0.0 0.0 0.0 0.0 0.0

encoder_solv.W_i.weight f4 [64, 147]
00000000: b0e8 88bb 94a9 f23c d865 953d 97f0 99bd
00000010: b65b a33d 4ed8 ca3c d65b b8bd 06d0 b5bd
00000020: d07f 4d3d 94da ff3c 7aa3 183d 1f0b 96bd
00000030: 295b 32bd 8ebf 993d 6025 403c bec1 20bd
00000040: c389 063e dc70 353d e68a 103d 1caf 0cbd
00000050: e8eb 7bbd 28d4 e5bc 98e5 40bd c6af 803d
00000060: 2881 04bc b231 d4bc 58b7 a53c 60b3 a8bd
00000070: 70f2 9f3d 1a88 62bd 004c b4b8 b260 5dbd
00000080: 70f7 923b 405a 96bc c835 90bc 20d0 9b3d
00000090: bc90 773d be38 24bd 7c82 4d3d 228e 93bd
000000a0: dcba 8cbd 253d 79bd 7868 8ebd 001c 543c
000000b0: b04b e03b 64ed 703d 4496 1fbd 5066 c0bc
000000c0: 7802 183c a0c7 c63b 84e4 063d 6846 593c
000000d0: de30 a0bd 8e11 54bd b4ac d5bc 90ce 703c
000000e0: 5ecc 3dbd f419 753d 4e74 77bd c013 a43a
000000f0: 1891 503d 6df3 8ebd 042a 3a3d 04a3 8d3d
00000100: a012 d9bb 7033 a23c 47d0 97bd 6818 1c3c
00000110: ae51 043d 9691 913d 9872 a6bc 28b7 413d
00000120: f085 5fbd b0bc d8bb 7e22 803d c031 4fbd
00000130: e249 b9bc 00f5 fa3a 966a a73d 8ae5 833d
00000140: a4ec 8a3c 34c2 76bd 4602 1bbd e9e9 8bbd
00000150: 4f9b 48bd 572b 95bd 446a 843d be08 f7bc
00000160: 918c 29bd 7cda ac3c d80a 11bc 3ae2 80bd
00000170: eeec 13bd b39f 10bd 10da 4bbd 78a5 ef3c
00000180: 20b8 9abc 9ec5 023d 2da1 4fbd fc56 b53c
00000190: 10d8 7d3d ea5b 9cbd c89e 1d3d ab07 b3bd
000001a0: a1ca 0bbe 1aa1 90bd 4a0c 993d bc9f 9b3d
000001b0: f407 0a3d 20d4 963d d487 83bd f4dc f83c
000001c0: 6a5f 433d 981e b13c a234 963d f25d 48bd
000001d0: 3ce0 1e3d 10ba 26bc c023 293b 28c5 fc3d
000001e0: a77b 3cbd b842 a63b 188c 18be a279 a43d
000001f0: f0c3 27bc 6069 c7bd b8d7 1abe db0f 693d
00000200: cde0 7bbd 82e6 2b3d 7bcf 6fbd 4072 733c
00000210: 0c37 223d 4896 96bd 129e 983d f2d3 8ebd
00000220: 5872 073d eca5 2f3d b2ee aabb 5e4a 2fbe
00000230: ccc5 753b b41b a0bc fc51 d4bc 18fd 27bc
00000240: 4076 273d 182b 39bc 8ae6 2c3d e6ee e6bc
00000250: 6a14 67bd 22ee 1a3d 887c 5e3d 58f5 15bc
00000260: e1e6 a4bd a20e 133d b0d3 b2bb 2054 3ebb
00000270: 7450 893d ea02 21bd 3a98 a63d 1854 0ebc
00000280: a00e f33c fcdc 863c 60b0 76bb 1623 123d
00000290: c340 88bd 0f28 17bd b1e5 22bd 00bf 543a
000002a0: 7761 4dbd ae0f 57bd d8e2 893d d01b a23c
000002b0: 700e 2f3c 2786 45bd aeb8 a3bc ccb2 8a3d
000002c0: 79e3 43bd 5dd2 4ebd 34f1 21bd 40f8 28bc
000002d0: d49f 87bc f971 89bd d662 0bbd c52e 5fbd
000002e0: 689a 933d 3a4a 143d f812 873d 7087 863b
000002f0: 18db 8b3c 223a 0a3d 6a46 fbbc 3cc6 08bd
00000300: e41b 9e3d 706b 0bbc 1c85 683d 1ca9 87bd
00000310: b598 a0bd 009f 473d 600d 413d 00a2 db3b
00000320: 0021 db3a bca2 733d d069 83bc c0c3 683d
00000330: 300d c73b c0f6 bbbb 882b 40bc 606f 6bbc
00000340: 00fa d7b9 d07a 8bbb d5b5 76bd 9035 213d
00000350: 7c85 5b3d c010 233c b02d f4bb 9ccb 5e3d
00000360: 9c13 26bd 401e 07bc 00e4 ca3c 1252 9c3d
00000370: 3698 56bd 8daa 59bd 605a 67bb 4817 a53d
00000380: 3409 393d 5ad7 9b3d f4f1 9c3d 888e 693d
00000390: 1498 a5bd 0016 5b3a 04a1 7c3d 00a0 3d3d
000003a0: 4c22 f3bc 80a0 70ba 98da f33c 40a2 56bd
000003b0: 1aeb 8fbd a4b4 813d 887d 673d 48cd 13bd
000003c0: b176 99bd 00db 723d 9a33 16bd a4e2 a63d
000003d0: d378 68bd 4c59 5d3d 5837 523d 0c13 953d
000003e0: 26ae 40bd f266 253d 8d46 a6bd 1840 fc3c
000003f0: 608c 91bb 6531 54bd 9c9a 413d ac6f 323d
-0.004178129 0.029621877 0.07294816 -0.07516592 0.07976477 0.024761345 -0.09001891 -0.08877568
0.05017072 0.031232156 0.03726528 -0.0732634 -0.04354397 0.07507239 0.011727661 -0.039247267
0.1313849 0.044297084 0.035288714 -0.034346685 -0.061504275 -0.028055266 -0.047093958 0.06283526
-0.008087434 -0.025902603 0.020229027 -0.08237338 0.07809913 -0.055305578 -8.597225e-05 -0.054047294
0.0044850633 -0.018353581 -0.01760377 0.07608056 0.060440764 -0.040093176 0.050173268 -0.07204844
-0.06871578 -0.060849328 -0.069535196 0.012946129 0.00684496 0.058820143 -0.038961664 -0.023486286
0.009277932 0.0060662776 0.032932773 0.013261415 -0.07821821 -0.051774554 -0.026083328 0.014697686
-0.046337478 0.059839204 -0.06041365 0.0012518093 0.050919622 -0.069800235 0.045450225 0.069158584
-0.0066245347 0.019799918 -0.074127726 0.009527303 0.03230446 0.071078464 -0.020318314 0.047293812
-0.054571092 -0.00661429 0.06256579 -0.050584555 -0.022618238 0.0019146502 0.081746265 0.064402655
0.016958542 -0.0602438 -0.037843965 -0.06831724 -0.04897624 -0.07283657 0.06465581 -0.030155536
-0.04139382 0.021100275 -0.008852683 -0.06293149 -0.036114626 -0.03530855 -0.049768507 0.029253706
-0.018886626 0.031926744 -0.05069082 0.022136204 0.06197363 -0.07634719 0.038481504 -0.08741697
-0.13651516 -0.07061978 0.07473047 0.07598826 0.03369899 0.073646784 -0.064223915 0.030378796
0.047698416 0.021621034 0.07334258 -0.04891772 0.038788065 -0.010176197 0.0025808662 0.12342292
-0.04601636 0.0050738715 -0.14897192 0.08031012 -0.010239586 -0.097368956 -0.15121353 0.056899887
-0.061493684 0.041967876 -0.05854748 0.014858782 0.039603278 -0.073528826 0.074520245 -0.06974019
0.03306803 0.042882845 -0.005216443 -0.17118213 0.003750193 -0.01954446 -0.025918 -0.010253213
0.040884256 -0.011301778 0.042212047 -0.028190088 -0.056415953 0.037824757 0.05431798 -0.009152733
-0.08051849 0.035902627 -0.005457364 -0.0029041842 0.06704798 -0.03930942 0.08134504 -0.008687042
0.02967006 0.016462795 -0.0037641749 0.03567799 -0.06652977 -0.036903437 -0.039769832 0.00081156194
-0.050141778 -0.052505188 0.0673272 0.019788653 0.0106845945 -0.04822364 -0.019985523 0.06772384
-0.047824357 -0.050493587 -0.03953667 -0.010313094 -0.016555704 -0.06711192 -0.034029804 -0.054487962
0.07207185 0.0362036 0.06595415 0.004105501 0.017072245 0.033746846 -0.030673224 -0.033392176
0.077201635 -0.008509502 0.056767568 -0.06624052 -0.078416266 0.04873562 0.047131896 0.0067026615
0.0016718209 0.059481367 -0.016041666 0.056827307 0.00607457 -0.005736202 -0.011729129 -0.014369816
-0.0004119426 -0.0042565838 -0.060232002 0.03935772 0.053594097 0.009952724 -0.0074517354 0.054393396
-0.040546045 -0.008246958 0.024766922 0.07632841 -0.052391253 -0.053141166 -0.003530167 0.08061081
0.045174792 0.076094344 0.076633364 0.057020694 -0.08085647 0.0008357465 0.061676994 0.046295166
-0.02967944 -0.000917919 0.02976732 -0.052400827 -0.07027264 0.063332826 0.0565162 -0.036084443
-0.07493342 0.059290886 -0.036670305 0.08148697 -0.056755852 0.05404024 0.05132231 0.072790235
-0.04704108 0.04038138 -0.08118925 0.030792281 -0.004441783 -0.05180492 0.047266588 0.04356353

encoder_solv.W_i.bias f4 [64]
00000000: b0b8 5abc 63aa 35bd 1138 48bd 8b54 923d
00000010: 080c 003d 1a6b 253d e2c5 7b3d 14c5 093d
00000020: 6d82 d3bb d5ed 0d3d 6e63 9cbd 4ea7 c7ba
00000030: eac7 bc3c d785 b0bd 2680 353d 9cb6 2bbb
00000040: 69f2 6dbd 7353 b7bd 912e 99bd 08c4 66bd
00000050: 6a8f 08bd 6b8f 34bd 542b ffbb bf5c 973d
00000060: bb2b 7abc ffeb 8fbd 4d7e ebbc 4a34 043d
00000070: 3bd5 bcbc 42c2 2e3d afc6 3c3c 351e 103d
00000080: 437a 7ebd 9632 ab3c 4d2c 01bd c56d 99bd
00000090: 3f86 5dbd 7cb7 0abc 258c 9ebd b502 8abd
000000a0: 56c3 edbb 3d53 72bd af45 e2bb 7ec2 f5bc
000000b0: 1094 b9bc c388 563d 0e49 77bd c25e 68bd
000000c0: b70f abbd ae96 6e3d 968b 95bb 977d 383d
000000d0: 6a0f 683d c688 b3bd 9f0f 6ebd 3784 01bd
000000e0: 826c 51bd 0b90 873c 5880 d7bc 11a6 6abc
000000f0: 2a6a f7bb 2053 13bb 2c35 80bd d282 0c3d
-0.013349697 -0.044351947 -0.048881594 0.071450315 0.031261474 0.040385343 0.061468013 0.033635214
-0.006454757 0.034650642 -0.07636152 -0.0015232356 0.023044545 -0.08619278 0.044311665 -0.0026201373
-0.05809251 -0.089514636 -0.07479585 -0.056339294 -0.033339895 -0.044082087 -0.0077871475 0.07390737
-0.015269215 -0.070274346 -0.028746748 0.03227643 -0.023050895 0.042665727 0.011521979 0.035185058
-0.062128317 0.020898145 -0.03153639 -0.0749164 -0.054083105 -0.008466598 -0.07741574 -0.067387976
-0.007255952 -0.059161413 -0.0069052796 -0.029999968 -0.02265361 0.05237652 -0.060372405 -0.056730993
-0.08352607 0.058249168 -0.004563759 0.045041647 0.056655325 -0.08766322 -0.058120366 -0.03162023
-0.05112887 0.016548177 -0.026306316 -0.01432182 -0.0075504975 -0.0022479966 -0.06260142 0.034304447

encoder_solv.W_h.weight f4 [64, 64]
00000000: df14 0b3d 6306 8dbd e0b0 90bd 2951 dc3d
00000010: e5e9 8f3d ce4a 4c3c 648e 633b ba81 94bd
00000020: e569 b03c 8e98 d8bd 2e6f a03d 2a3d ea3c
00000030: cbf3 ffbc 40bc a03b bdc9 4a3d 5984 a8bd
00000040: c319 8fbd 8068 37bc 32da 4f3c f85b 393d
00000050: 5c50 923c 60ed 2bbc 6ab1 acbd e9e3 bfbb
00000060: 74e3 0d3c 1259 933d b0b4 853c ac98 88bc
00000070: f6af a13b 0552 a33d 79b2 9a3d e1df 5ebd
00000080: 85da ca3d 3eb0 343d 94e4 413b 7814 d73c
00000090: 9334 a63d a81d 92bc d4d6 50bd 936c ebbd
000000a0: 2c05 043d e8cf edb9 d19e 1ebd e791 0ebd
000000b0: 10e1 2f3e 5ec8 d9bd 00b8 45bd 5ae8 053e
000000c0: bd0d e7bc 5771 76bd 2da5 843d 528c 8ebc
000000d0: 0478 773a f744 f2bd 120f d13d 1de9 01be
000000e0: 2e37 b43d d8dd b13d 5e21 1b3e ce19 963c
000000f0: 4a3a 823d e0a4 eabb 8656 103e 0482 7b3d
00000100: ecd5 5fbd 7e0b 97bd cc4f 01bd 3ea0 adbd
00000110: 649f 4fbd b04a 943d 4086 40bd f8e8 de3c
00000120: 5044 b3bc 9c5e 11bd d882 4fbd 285c 24bd
00000130: 2885 803c 5e44 c0bd 48b9 8b3c a06d a13d
00000140: 38e7 96bc 608c 4cbd 1c0e 58bd 805f 953d
00000150: 0032 4e3c 9478 6abd 2ee1 c4bd fc21 dd3d
00000160: 5001 07bc 9c2a e03d 74a9 48bd d0a0 423d
00000170: 80c8 6f3b b0b4 183c 248b 9cbd 5cfa 17bd
00000180: fc33 fdbd ec8e 9c3d a858 febd 8ca5 473d
00000190: 608b 043c 68cd bb3d d8c8 a4bd 346f 233d
000001a0: ae9e babd 1040 993d a0f7 aebd acae f13d
000001b0: b873 9f3c 9a95 dabd 729a f4bd e0cd ce3c
000001c0: a81b 843c da57 e7bd 5868 af3d 1ca8 a9bd
000001d0: dc4a bebd a46c e1bd f0b2 da3c 2288 fdbd
000001e0: 80ee ac3a f0fc a2bd 60ab d43b 7af1 c9bd
000001f0: 841b 7b3d 9834 673d 469d a0bd 3a04 cfbd
00000200: 50c2 91bd d8d1 f5bc a83e 34bd 7e40 93bd
00000210: 0021 8b3c 8229 cebd 90b4 7abc 6414 fd3d
00000220: 4409 88bd d0ad 0fbd 1cc7 b83d 18d3 e93c
00000230: 6cb6 51bd d8a8 f6bd a45b b13d e819 87bc
00000240: 32f4 863d 3a0b e03d c055 733d 0e77 c9bd
00000250: fc0d 74bd a09c d03d cc36 9bbd 80f0 273c
00000260: 20f3 433c 568f b73d 5ad0 e03d 8c14 dfbd
00000270: d88e 373d 7c98 383d 18d8 9e3c 90c1 42bd
00000280: e68c 9cbd 3289 a23d 30ac 313d 0859 9c3d
00000290: 6068 aa3d 2cb4 93bd c8d0 65bd 28e3 5cbd
000002a0: 80e1 05bd 0aa7 9cbd e807 6fbd 6e4d cbbd
000002b0: 3c63 a63d c0e6 823b 803e f23a 58c5 b5bc
000002c0: cc84 c1bd f03e 483c be29 82bd bc5c d5bd
000002d0: 6452 823d 2e6b c5bd 644a 553d 501d 803c
000002e0: 2873 cabd f8a6 3d3d c489 bbbd 2ede e8bd
000002f0: e809 cf3d a0f1 8ebb d8a9 a1bc 1679 debd
00000300: e09c 783d 5fe9 d6bd 3879 9dbd 5bee 87bd
00000310: 842e 7e3d 7272 81bd 64e7 503c a5ab 58bd
00000320: c59c c13d 028a 81bc e8e1 873d 19f1 d43b
00000330: e59e 79bd 7635 a2bd 2030 86bd 5884 b83d
00000340: fe72 d2bd eaac a2bd 8e80 913c 5828 ecbd
00000350: 1179 093e 34d9 6dbd b16b 05be 445c 45bd
00000360: 18c2 cfbb 6456 db3a d662 a13d 195a ac3d
00000370: 5a5d 233d 4db5 503d 8fc8 ad3d 7675 5cbd
00000380: 55bb fb3d 3ebd 7b3c d835 fc3d 60cc f6bb
00000390: b63b 9bbd 62f7 d33d 9842 babd 52ad 1abd
000003a0: 8573 64bd 48e6 1e3d 022e 20be f512 04be
000003b0: 59ac 03bd 51f6 39bd f603 a63d d52b 2e3e
000003c0: a34b b13d 7c92 f3bc 7d0c c1bc e239 893b
000003d0: f5dd 343d ffbb 40bc 05e1 373e 1b25 dbbd
000003e0: 370c 1f3d 8602 f8bd d592 1a3d 0a91 1a3e
000003f0: a7b4 8d3d 2ca0 6bbd 464d 223d 6054 9abc
0.03395545 -0.06885984 -0.07064986 0.107576676 0.07027034 0.012469007 0.0034722323 -0.07251306
0.02153487 -0.105759725 0.07833706 0.028593618 -0.03124418 0.0049052536 0.0495088 -0.08228368
-0.069873355 -0.011194348 0.012686299 0.045253724 0.017860584 -0.010493606 -0.084322765 -0.0058560264
0.008660186 0.07194723 0.01632151 -0.016674362 0.0049343063 0.07974628 0.07553572 -0.054412726
0.099049605 0.04411339 0.0029585706 0.026254877 0.081154965 -0.017836407 -0.050986126 -0.11495318
0.032231495 -0.00045359065 -0.038725678 -0.034807112 0.17175698 -0.1063392 -0.04827118 0.13076916
-0.028204793 -0.060166683 0.06476817 -0.017400894 0.0009440186 -0.1182956 0.102079526 -0.12686582
0.08799587 0.086848915 0.15149447 0.018322852 0.06358774 -0.007160768 0.14095506 0.06140329
-0.05464737 -0.07375239 -0.03157024 -0.084778294 -0.050689116 0.07240808 -0.04700303 0.027210698
-0.02188316 -0.035490617 -0.05066189 -0.04012695 0.015688494 -0.0938804 0.017056122 0.078822374
-0.0184208 -0.04993856 -0.05274783 0.07293606 0.012585163 -0.0572439 -0.09613262 0.10797498
-0.008240059 0.10945627 -0.048989728 0.047516644 0.0036588013 0.009320423 -0.076437265 -0.037103996
-0.12363431 0.07644448 -0.124192536 0.048741862 0.00808987 0.091700375 -0.080461204 0.039900973
-0.09112297 0.07482922 -0.085433245 0.11800894 0.019464359 -0.106730655 -0.119435206 0.025244653
0.016126469 -0.11296053 0.08564824 -0.082840174 -0.09291622 -0.1100705 0.026696652 -0.12379481
0.0013193637 -0.079584 0.006490156 -0.09860511 0.061305538 0.05644664 -0.078424975 -0.10108228
-0.0711714 -0.030007288 -0.044005066 -0.07190035 0.016983509 -0.10066511 -0.0153018385 0.12357405
-0.06642392 -0.03507787 0.09022352 0.02854304 -0.05119936 -0.12043923 0.08660057 -0.016491845
0.06589545 0.10939641 0.05940795 -0.09837161 -0.05958365 0.10186124 -0.07578811 0.010250211
0.011959821 0.08962886 0.1097724 -0.10892591 0.04481396 0.045067295 0.01939015 -0.047547877
-0.07644062 0.07936324 0.0433771 0.07634169 0.08320689 -0.072120994 -0.056107312 -0.05392757
-0.032685757 -0.07649048 -0.05835715 -0.09926878 0.08124396 0.0039947927 0.0018481761 -0.022188827
-0.09449157 0.012222037 -0.06355618 -0.10418078 0.06363371 -0.096395835 0.052072898 0.015638977
-0.098852456 0.046301812 -0.09157136 -0.113705024 0.10109311 -0.0043623 -0.019734308 -0.10862939
0.060696483 -0.10493731 -0.07689136 -0.066372596 0.06205608 -0.06320657 0.01275048 -0.052898068
0.094537295 -0.015812878 0.06634885 0.0064984676 -0.06094255 -0.07920353 -0.06552148 0.090096176
-0.10275839 -0.07943137 0.017761495 -0.115311325 0.1342509 -0.05806847 -0.13029362 -0.048183694
-0.0063402764 0.001673412 0.078801796 0.08415622 0.03988395 0.050954152 0.08485519 -0.053822957
0.1229159 0.015364943 0.123149574 -0.0075316876 -0.07579748 0.10349919 -0.09094733 -0.037762947
-0.05577423 0.038793832 -0.1564255 -0.12897857 -0.032146785 -0.04540092 0.08106224 0.17008908
0.08657005 -0.029732935 -0.023565525 0.0041878084 0.044156987 -0.011763572 0.17956932 -0.10700437
0.03883001 -0.12109856 0.037737686 0.1509439 0.06919222 -0.0575258 0.039624475 -0.018839061

encoder_solv.W_h.bias f4 [64]
00000000: 7859 613b 9035 60bd 4e0d fabd 8c14 85bd
00000010: 5419 c33d 8998 58bc 93b6 0d3c ace6 97bd
00000020: 1ecf ea3c 9db2 b43c b76e 903d 66ab c1bc
00000030: 4b61 2dbd 66c2 c53c 9866 9ebd 85dd f43c
00000040: b726 92bd 2756 83bc c67e dc3d 40b6 953d
00000050: 91ae d73d d8e1 bd3c 3711 773c e8ae dcbd
00000060: 5a17 b6bc eee6 0b3e 9d18 163d 6b24 633b
00000070: 02ec bb3c 38e4 393c 799f d43c ffac d23d
00000080: ac17 4f3d 66f1 9abd f247 efbc 0ccb 41bd
00000090: 431f aa3b 51d9 b5bd ac21 a0bd 4544 b8bd
000000a0: 887b 99bd 6972 ed3d 3f6c b33d 6975 7fbd
000000b0: 2914 c73d 8ee5 c33b 0001 e4bc a245 97bd
000000c0: 2205 003c b9b4 b4bd d304 23bd 9090 2bbd
000000d0: 815a ba3c fe9b 863d b308 5f3d 50c4 fabb
000000e0: fda5 233c a96e 763d ec82 a6bd 5bde afbc
000000f0: e6cb a5bd 10d5 393c bffc 6d3d ce96 5a3d
0.0034385603 -0.05473858 -0.12209569 -0.0649806 0.09526315 -0.013219961 0.008649486 -0.07417044
0.028663214 0.022057826 0.07052367 -0.0236413 -0.042329114 0.024140548 -0.07734412 0.029890785
-0.071362905 -0.016032292 0.107663676 0.07310152 0.10531343 0.02317898 0.015079788 -0.10775548
-0.022227932 0.13662311 0.036644567 0.0034659158 0.022939686 0.0113459155 0.025954949 0.10286903
0.050559685 -0.07565574 -0.02920911 -0.04731278 0.005191715 -0.088793404 -0.078189224 -0.089973964
-0.07494265 0.11594088 0.08760881 -0.06236783 0.09720642 0.005978293 -0.027832508 -0.07386328
0.007813724 -0.088235326 -0.039799523 -0.041885912 0.022748234 0.06572722 0.054451656 -0.007652797
0.009988305 0.060164127 -0.0813044 -0.021468332 -0.08095531 0.011342302 0.058102366 0.053366475

encoder_solv.W_o.weight f4 [64, 197]
00000000: 994c 893d 05da 8e3d b65a 6b3d d0ab 583d
00000010: 7c44 f63c b834 15bc 38a8 78bd 102d 3e3d
00000020: 38f9 2b3d 600a d63c b6a4 64bd 5e49 673d
00000030: 70c3 4b3d 6a9f b1bc 14e6 c2bc 8a26 443d
00000040: a105 473d c00d 14bc 68cd 09bd 80a3 6cba
00000050: 880d e93c 7849 2bbd 32aa 053d 308b cc3b
00000060: 72a5 c9bc 1a16 f6bc b9eb 17bd 08fe 3b3d
00000070: 706d a73b f12e 48bd e488 45bd 007e 5e3b
00000080: 9a13 e0bc 122c 663d 982a 0ebd ce84 3b3d
00000090: 35aa 893d 607f 303d 9f4f 7abd e27e 6abd
000000a0: 7c45 5b3d 1a8f 52bd d64c 8dbd c683 54bd
000000b0: 0822 43bd 661a 383d 801a 9bba 58c9 053d
000000c0: 924c 5b3d c309 89bd 36ae 44bd cdf7 8bbd
000000d0: 2cda 8bbd 78eb e43c e832 333c bad2 4b3d
000000e0: b0e5 54bd f63f cebc a4b6 e5bc 1b2b 46bd
000000f0: 52c3 7e3d e6dd 4bbd 6af0 1a3d 4043 483d
00000100: 76f9 6f3d b72d 1dbd 9ce9 373d a404 b93c
00000110: 6ef3 51bd 401b 73bd 3256 e2bc a2f6 e5bc
00000120: 8b83 2dbd ccbf 1f3d b41b b63c c02a 22bb
00000130: 2cdf b23c 308f 5bbc a75c 66bd 1c40 19bc
00000140: 2f98 31bd 8c38 333d 54f9 dbbc 825c 773d
00000150: fafc 65bd f7ff 823d f0e4 5b3d d48d 90bd
00000160: bac1 70bd c02c 0fbd 9edf 5c3d cf12 0fbd
00000170: 3c3b d6bc 7091 a53b 80a2 243c 5edd 3c3d
00000180: 78cc 123c 8cfb 64bc 2cf6 953c 1a82 d3bc
00000190: 20d4 063d 22d2 703d b69b c3bc d03d a13b
000001a0: 8ae4 a53c fccc b43c 5032 ed3c a0a7 e23c
000001b0: 6e24 223d 2e00 d3bc 36ab 703d 4ab2 84bc
000001c0: 732c b0bd f2c7 d8bc a402 5dbc 6044 03bd
000001d0: 50c1 5cbd 2000 553d de8b 1bbd b1ae 923c
000001e0: 80ce 093b 2c89 be3c 40f5 09bb 146b 28bd
000001f0: ba38 72bd d806 60bc 2a34 89bd 2360 4cbc
00000200: c947 853d 9452 afbc 3595 00bd beae 2ebd
00000210: 40d0 b8bc 78af 8bbd 9114 82bd 4e5b 783d
00000220: f5ac 63bd a065 58bc 4dd6 80b9 3069 403d
00000230: 6c9e 763d 3395 e539 b866 073c 4d60 153d
00000240: 7605 7a3d 58d9 07bd ccf0 423d d825 84bc
00000250: d643 23bd 6e52 9cbd 8056 913c 9c40 91bd
00000260: 0189 3ebd ac3e c33c acb4 b33c ecc0 cfbc
00000270: aac5 423c 9b39 a73c 3ea1 a6bd 4932 383c
00000280: 3105 07bd 85c4 81bd 0459 00bd 020f 89bd
00000290: 97af 7fbd 0ec5 c1bd a0fb 6f3c 6014 e5bc
000002a0: d25c 85bc b202 9dbd b040 093d 88a9 10bd
000002b0: efad 3fbd d5e8 c7bb 8248 bd3c 10da 4cbd
000002c0: 35b6 55bd c834 c7bc 9f32 fdbc b898 1cbd
000002d0: 2787 78bd 4e7b 623d 1dc4 0fbd 3600 5f3d
000002e0: e078 2dbd 0930 433c a07c 52bd caf2 b5bd
000002f0: 6ad0 a8bc 54d0 d03c 0d02 2ebd 2c59 8abd
00000300: 21a8 813b 5bfe adbd be30 aebc 1f7d 8fbd
00000310: 64ef b0bd 36b7 b9bc 21ce 55bd a41b 24bd
00000320: 603b d43c 7cfb f23c 2b56 5dbd dd45 3fbd
00000330: 3aad bb3d 30a4 7e3c 5ceb ae3c 4083 ec3b
00000340: 50d5 84bb 9c3a 26bc de11 3a3d d6fc 3cbd
00000350: 97b9 b7bc 0d01 01be 7e4b 60bd ac25 4e3d
00000360: 38fc f03c 870b 8dbd 66b8 293d ff5e 74bd
00000370: c6e6 1a3d 60d4 3ebb d0e7 7abc 981e 0bbc
00000380: 24e8 b93c be7a 0abd d56b 8bbd f87c bd3c
00000390: a0ab 4d3c 7e38 44bd de77 303d aaee 743d
000003a0: 005e 6f3a a53d 21bd 0082 0439 95fc 86bd
000003b0: 388b 6bbd 7494 a8bc 2c6d 57bd e44d 8fbc
000003c0: 10b8 873c eacc 87bd 1404 083d c205 053d
000003d0: 6e52 dbbc b4f7 3fbd a04e 863c 1af3 1d3d
000003e0: db46 6cbd 9caf c6bc 4271 2bbd bedb 47bd
000003f0: 81e4 8abd 422b 84bd f50e 863d 2a36 653d
0.06704063 0.06975178 0.057459556 0.05289823 0.030061953 -0.009106807 -0.0607073 0.046429694
0.04198572 0.026127994 -0.055821143 0.056466453 0.04974693 -0.02168246 -0.02379135 0.047888316
0.048589353 -0.009036481 -0.033643156 -0.0009027049 0.028448835 -0.041818112 0.032633014 0.0062421784
-0.024615023 -0.030039836 -0.037090037 0.04589656 0.0051094815 -0.04887289 -0.048226252 0.0033949614
-0.027353097 0.056194372 -0.03470859 0.04578095 0.067219175 0.043090224 -0.06111109 -0.05724991
0.053533062 -0.051406004 -0.06899421 -0.05188348 -0.047639877 0.04494705 -0.0011833459 0.03266272
0.05353982 -0.06691315 -0.048017703 -0.068343736 -0.06828722 0.027944311 0.01093743 0.04976151
-0.05197686 -0.025176983 -0.028041191 -0.048380952 0.06219799 -0.049772166 0.037826933 0.04889226
0.058587514 -0.038373675 0.04490052 0.02258522 -0.051257543 -0.05935216 -0.027628992 -0.028071705
-0.042361777 0.03900127 0.022230007 -0.002474472 0.021834932 -0.013400838 -0.056240704 -0.009353664
-0.043358024 0.0437551 -0.026852287 0.060390957 -0.05614946 0.06396478 0.05368513 -0.070583016
-0.058778502 -0.034954786 0.053924195 -0.034930047 -0.026151292 0.005052738 0.010048509 0.04610955
0.008959882 -0.013975989 0.01830586 -0.025818873 0.032917142 0.05879415 -0.02387796 0.0049206987
0.020250577 0.0220704 0.028954655 0.02766782 0.039585523 -0.025756922 0.05875703 -0.016198296
-0.08602228 -0.026462529 -0.013489399 -0.03204763 -0.053895295 0.052002072 -0.037975185 0.017905565
0.0021027625 0.023258768 -0.0021050721 -0.041117743 -0.05913613 -0.013673507 -0.06699403 -0.012474093
0.065078326 -0.021401681 -0.031392295 -0.042647116 -0.022560239 -0.068205774 -0.06351579 0.06063395
-0.055584867 -0.013207823 -0.0002457373 0.046975315 0.060209677 0.00043789446 0.008264236 0.036468793
0.061040364 -0.03316626 0.047592923 -0.016131327 -0.039859615 -0.0763291 0.017741442 -0.070924014
-0.046517376 0.023833595 0.021936737 -0.025360547 0.011887947 0.02041321 -0.08136223 0.011242458
-0.032963935 -0.06336311 -0.031334892 -0.06692316 -0.062423315 -0.09461413 0.014647394 -0.027963817
-0.016279612 -0.0766653 0.033508956 -0.035317928 -0.046796735 -0.006100754 0.023105863 -0.050012648
-0.05217572 -0.02431716 -0.030907927 -0.03823158 -0.060675766 0.055293374 -0.035099138 0.05444356
-0.042351604 0.011913308 -0.051388383 -0.08884199 -0.020607192 0.025489964 -0.042482425 -0.067552894
0.00395681 -0.0849578 -0.021263476 -0.07006287 -0.0863941 -0.02267037 -0.052198533 -0.040065423
0.025907218 0.029660933 -0.054037254 -0.046697486 0.091639 0.015542075 0.021352462 0.0072177947
-0.004053749 -0.0101458095 0.045427196 -0.04613956 -0.022427363 -0.12598057 -0.054759495 0.050328895
0.029417142 -0.06886964 0.04143562 -0.059660908 0.03781774 -0.0029118285 -0.0153140575 -0.008491181
0.022693701 -0.033808462 -0.06807677 0.023130879 0.012553126 -0.047905438 0.043083064 0.05979792
0.00091311336 -0.03936543 0.0001263693 -0.06591145 -0.057505816 -0.0205786 -0.05259435 -0.017493196
0.01656726 -0.06630881 0.033207014 0.032476194 -0.026772704 -0.046867087 0.016394913 0.038561918
-0.05768476 -0.024253659 -0.041856058 -0.048793547 -0.06781865 -0.06453563 0.065458216 0.055959858

encoder_solv.W_o.bias f4 [64]
00000000: b707 53bd 0385 adbc a14d 27bd c80f c33c
00000010: b929 3b3d 4029 5b3d 1195 793d b753 00bd
00000020: 118d 19bd 0d36 63bd 6008 3cbd a03a 333d
00000030: f5df cdbc a586 b03c 23d2 18bc 86b1 213d
00000040: a4d6 3c3d e5a6 91ba c084 70bc ecaf cc3a
00000050: f717 12bc 4f86 9cbc c99e ecba 4f79 7f3d
00000060: 07b1 a8bd 1a79 c53c 48df dc3b 05e2 a8bc
00000070: 581b 62bd c688 2e3d 9d27 873c 8eb7 b83d
00000080: a099 c9bc ac11 70bd 3c73 7bbd 4e04 683d
00000090: aa27 5b3c e60c 653d f42c 0cbd e060 f03c
000000a0: 2dfa 87bc 157a e13c 7aaa 8d3d 5227 8b3c
000000b0: 2d40 3a3c b5e2 70bd e609 493c 2457 043d
000000c0: 5d60 04bd 215d a0bc a56b 55bc 32d5 413d
000000d0: 372a 3bbd 4b39 a1bc f87d 60bd 8f75 56bc
000000e0: e0a8 003d e037 3d3c a9e9 3d3d 8781 623d
000000f0: 1c9f 33bc f495 c2bb 6425 8e3c d65d e23c
-0.05152103 -0.021181589 -0.040845517 0.023811236 0.045694087 0.053506136 0.060933176 -0.031329837
-0.037488047 -0.05547147 -0.045906425 0.04375708 -0.025131205 0.021548579 -0.009327444 0.03947594
0.046103135 -0.001111236 -0.014680088 0.0015616394 -0.0089168465 -0.019107012 -0.0018052693 0.06237155
-0.0823689 0.024105597 0.0067404844 -0.020615587 -0.05520186 0.042610906 0.016498381 0.09019385
-0.024609387 -0.058610603 -0.061389193 0.05664473 0.013376156 0.055920504 -0.03422256 0.029343069
-0.016598785 0.027524034 0.069172814 0.016986523 0.01136784 -0.058809955 0.012270426 0.032309666
-0.03231846 -0.019575657 -0.013026153 0.04732246 -0.045694556 -0.01968064 -0.054807633 -0.013089552
0.03141105 0.011548966 0.046365414 0.05529931 -0.010963228 -0.005938286 0.017351814 0.027632635
